5 第五讲 机器学习训练模型的数学范式v16/models/model200.pth (torch, 112459 bytes, 21 tensors)

conv1.0.weight f4 [16, 3, 3, 3]
0	0xbccd03c1	-0.025026204
1	0xbe021a0c	-0.12705249
2	0x3e0c3b03	0.13694386
3	0xbd7481c4	-0.059694067
4	0xbe08fd10	-0.13377786
5	0xbe360680	-0.17775917
6	0x3d189cdd	0.03725897
7	0xbe22c250	-0.15894437
8	0x3dbd4ad3	0.09242787
9	0x3d8f2d35	0.069910444
10	0x3e4191f4	0.18903333
11	0xbe0fcf7f	-0.14043997
12	0x3d1736bb	0.03691743
13	0x3d3e7a15	0.046503145
14	0x3cbddfc5	0.02317799
15	0x3de51699	0.11185951
16	0x3c4d653f	0.012536346
17	0xbd7cd0a5	-0.061722416
18	0x3e23ac05	0.15983589
19	0xbddb3cb1	-0.10704935
20	0xbe1a9e61	-0.1509948
21	0x3dff9eb2	0.124814406
22	0xbce0a2b8	-0.02742134
23	0x3e238cb2	0.1597164
24	0xbdd15833	-0.10221901
25	0x3e349106	0.17633447
26	0x3d4afa27	0.04955497
27	0xbd99b0ab	-0.075044
28	0x3df2134a	0.11820085
29	0xbd758faa	-0.05995146
30	0xbcd463e6	-0.025926542
31	0xbda79d94	-0.081843525
32	0x3dcd6edf	0.100309126
33	0x3d3e1d55	0.046414692
34	0x3e131a0f	0.1436541
35	0xbd90c343	-0.07068493
36	0x3bd5a4a8	0.0065198727
37	0xbcb0ea2e	-0.02159604
38	0x3e34125f	0.17585133
39	0xbe377067	-0.17913972
40	0xbd823108	-0.06357008
41	0x3e4005a1	0.18752147
42	0x3d5de2a1	0.05417121
43	0xbd3413e5	-0.043964285
44	0x3de8b46b	0.11362537
45	0x3cb6300b	0.022239706
46	0xbd9cfa66	-0.07664947
47	0xbe115eb5	-0.14196284
48	0xbe54065d	-0.20705552
49	0x3dc8f21f	0.09811806
50	0xbad7ea82	-0.0016473087
51	0x3d7eca26	0.062204503
52	0xbe244d5b	-0.16045134
53	0x3e3f936a	0.18708578
54	0x3dc01f38	0.093809545
55	0xbbd96dd8	-0.006635409
56	0xbdd32145	-0.1030908
57	0x39024409	0.00012423111
58	0xbdfa7f35	-0.12231294
59	0xbe33136e	-0.1748788
60	0xbd45e029	-0.04830948
61	0x3dfdd8eb	0.123948894
62	0xbe2e3ba7	-0.17014943
63	0x3e2d7dfd	0.16942592
64	0x3dbd0737	0.09229892
65	0xbe3087c6	-0.17239293
66	0x3e3dec3c	0.18547148
67	0x3d725138	0.059159487
68	0xbd5082db	-0.050906043
69	0x3d233976	0.03984972
70	0x3d4a6cb0	0.04942006
71	0x3df3027e	0.1186571
72	0x3e3d1282	0.18464091
73	0x3cc374ca	0.0238594
74	0xbd889361	-0.06668735
75	0x3c76bf4d	0.015060258
76	0x3d0768f5	0.03305908
77	0xbdd59dd1	-0.10430492
78	0xbdabb2cf	-0.083837144
79	0xbe517c22	-0.20457509
80	0x3e2774d8	0.16353166
81	0xbd9dcd6b	-0.07705196
82	0xbb884c6a	-0.0041595
83	0xbe1bf346	-0.1522952
84	0x3c36b7d6	0.011152228
85	0x3e3f53b5	0.18684275
86	0xbe21dbfd	-0.15806575
87	0x3e0237e0	0.12716627
88	0x3e53da8f	0.20688842
89	0xbe3fd387	-0.18733035
90	0xbd5174a3	-0.051136624
91	0x3bdb160d	0.0066859783
92	0xbca8d6db	-0.020610264
93	0xbc0d6e98	-0.008632325
94	0x3e25cf94	0.16192466
95	0x3de4f52b	0.111795746
96	0x3ce509a1	0.027958693
97	0x3d787c1f	0.060665246
98	0xbe09d834	-0.13461381
99	0xbe0f0ffd	-0.13970943
100	0xbdab3bc8	-0.08361012
101	0x3e0f2182	0.13977626
102	0x3e339938	0.17538917
103	0x3e2d1135	0.16901095
104	0x3b0ad608	0.0021184701
105	0x3de3cdc0	0.11123228
106	0xbd6b3154	-0.05742009
107	0xbd8b6b56	-0.06807582
108	0xbe528bc3	-0.20561127
109	0x3d743279	0.059618447
110	0xbdbd49ab	-0.09242567
111	0x3e23608a	0.15954795
112	0x3cd8594e	0.026409771
113	0x3e04b704	0.1296044
114	0xbd2d0ff8	-0.042251557
115	0x3d60f441	0.05492044
116	0xbe126076	-0.1429461
117	0xbe64c5c5	-0.22341068
118	0xbdfcf3d8	-0.12351197
119	0x3e515d9a	0.20445862
120	0x3d7e65f2	0.06210894
121	0x3dca7fc7	0.09887653
122	0x3e554706	0.20827875
123	0x3d9c5ffe	0.076354966
124	0x3d98ff6a	0.07470591
125	0xbd4eada0	-0.05045855
126	0xbe0caab0	-0.13736987
127	0x3dd30567	0.10303765
128	0x3e307490	0.17231965
129	0xbe2f4e05	-0.17119606
130	0x3d7f7370	0.06236595
131	0xbcfdfe7f	-0.031005142
132	0x3e2c9802	0.16854861
133	0xbd143796	-0.036185823
134	0xbcf247a0	-0.02957517
135	0xbd6bf31a	-0.057604887
136	0xbd777ae2	-0.060419925
137	0x3e1b95dd	0.15193887
138	0xbde02f71	-0.10946549
139	0x3d4d73b0	0.050159156
140	0x3bc853c5	0.0061135017
141	0x3dfd56c2	0.12370063
142	0x3dbdcddc	0.0926778
143	0xbe10e890	-0.14151216
144	0xbc668266	-0.014069175
145	0x3c37480b	0.01118661
146	0xbcb5ec32	-0.022207353
147	0x3e23765c	0.1596312
148	0x3e590443	0.21193032
149	0xbdf72f76	-0.12069599
150	0xbd55dbab	-0.052211445
151	0x3e58b78e	0.2116377
152	0x3d890fa4	0.06692436
153	0xbdcc1d01	-0.099664696
154	0x3dc75056	0.0973212
155	0xbd4e6da7	-0.05039754
156	0xbdd6dfaa	-0.10491879
157	0xbe4c9fbc	-0.19982809
158	0x3ddf83c5	0.10913805
159	0xbd99ab12	-0.07503332
160	0xbe175bf1	-0.14781167
161	0xbe1d510b	-0.15362947
162	0xbc5f1390	-0.013615504
163	0x3e07ba41	0.13254644
164	0x3ddd7291	0.108128674
165	0x3e082076	0.13293633
166	0xbdb33fd3	-0.08752408
167	0xbe279d9c	-0.16368717
168	0xbd127167	-0.03575268
169	0xbdd53963	-0.10411336
170	0x3d6b15fb	0.05739401
171	0x3e10733b	0.14106457
172	0xbd7c53fa	-0.061603524
173	0xbe50cfcc	-0.20391768
174	0x3e253aac	0.16135663
175	0x3d262767	0.04056492
176	0xbe14723e	-0.14496705
177	0xbd7d0908	-0.06177619
178	0xbd6a2df8	-0.057172745
179	0xbe129c09	-0.14317335
180	0x3e4731d2	0.19452599
181	0x3d9480c3	0.07251122
182	0xbde1bda3	-0.110224985
183	0xbdcb7285	-0.09933952
184	0xbdb129a9	-0.08650524
185	0xbe3caca9	-0.1842524
186	0xbb969f7a	-0.004596648
187	0xbd7d6d90	-0.061872065
188	0xbdd1c37e	-0.10242365
189	0x3c5a4ade	0.013323514
190	0xbdbcc686	-0.09217553
191	0x3de587be	0.112075314
192	0x3db8ce30	0.09023702
193	0xbd8ebb55	-0.069693245
194	0xbdb46d1b	-0.08809873
195	0xbe539e47	-0.20665847
196	0xbcf42820	-0.02980429
197	0xbe2c9d8c	-0.16856974
198	0x3e3fa1e5	0.18714102
199	0x3dfc86b6	0.123303816
200	0x3cb547a7	0.022128893
201	0xbc3ba8ad	-0.01145379
202	0xba1b2500	-0.0005918294
203	0x3e4dde88	0.2010442
204	0xbcc04b6e	-0.023473468
205	0x3d13120e	0.03590589
206	0x3df34d90	0.11880028
207	0x3d9063dc	0.07050297
208	0xbc13cafa	-0.009020561
209	0x3e0ba814	0.13638335
210	0xbe254b50	-0.1614201
211	0x3cb01083	0.021492248
212	0xbe536dc9	-0.20647348
213	0x3d9e2eb3	0.07723751
214	0x3dcc5a7f	0.09978198
215	0xbd91703e	-0.071014866
216	0xbe10c8db	-0.1413912
217	0xbe42ef69	-0.1903664
218	0xbdaf32d0	-0.085546136
219	0xbe15be3f	-0.14623354
220	0xbd1632a6	-0.036669396
221	0xbd95a199	-0.07306213
222	0xbddfab40	-0.10921335
223	0x3dc38c7f	0.09548282
224	0xbe15cadb	-0.14628164
225	0x3da01821	0.07817102
226	0xbe91771f	-0.28411195
227	0xbe0cead8	-0.13761461
228	0x3e31f37a	0.17378035
229	0xbdeed1b9	-0.11661095
230	0xbd701c99	-0.058621023
231	0x3dc21932	0.09477462
232	0x3dacd190	0.084384084
233	0xbdcf3acc	-0.101186365
234	0x3d81f64c	0.063458055
235	0xbea13c97	-0.3149154
236	0xbeb39160	-0.3507185
237	0xbd783519	-0.060597513
238	0x3e48c301	0.19605638
239	0x3de292a8	0.11063129
240	0x3e1b45c2	0.15163329
241	0x3d84ed6b	0.064905964
242	0x3c7ff9c6	0.0156235155
243	0x3e49cf7c	0.19708055
244	0x3db50692	0.08839144
245	0x3d4b9848	0.049705774
246	0xbe0b104f	-0.1358044
247	0xbdfe7875	-0.12425319
248	0x3e03c03f	0.12866305
249	0x3e5afd8a	0.2138578
250	0x3d68b1d5	0.05681022
251	0x3d944d85	0.07241348
252	0xbe16c66b	-0.14724128
253	0xbd8eb7c5	-0.06968645
254	0xbd6f85cb	-0.058477204
255	0xbdbc0af8	-0.091817796

conv1.0.bias f4 [16]
0	0x3d9e3dd0	0.077266335
1	0x3d677c62	0.056515105
2	0x3d59440c	0.05304341
3	0x3dc09a2d	0.09404407
4	0xbe54c851	-0.2077954
5	0xbac0e161	-0.0014715606
6	0x3dec95ab	0.115519844
7	0x3cd4d489	0.02598025
8	0xbe4bd981	-0.1990719
9	0x3c091a68	0.008368112
10	0x3e905f0b	0.28197512
11	0xbddb57ad	-0.10710082
12	0x3e241a68	0.16025698
13	0xbe2cbd3d	-0.16869064
14	0x3cb801e3	0.022461837
15	0x3e681bff	0.2266693

conv1.3.weight f4 [16]
0	0x3f6d6132	0.92726433
1	0x3f7a2eb9	0.97727543
2	0x3f8329c1	1.0247117
3	0x3f607416	0.87677133
4	0x3f81a08c	1.012712
5	0x3f824dfe	1.0180051
6	0x3f7e99ca	0.99453413
7	0x3f626dc7	0.88448757
8	0x3f71df87	0.944817
9	0x3f857a29	1.0427905
10	0x3f67d23e	0.9055518
11	0x3f96f4f3	1.1793503
12	0x3f5eabce	0.86980903
13	0x3f82562b	1.0182546
14	0x3f6b56e9	0.9192949
15	0x3f754579	0.9580913

conv1.3.bias f4 [16]
0	0xbbce07f6	-0.00628757
1	0x3e4952e2	0.19660524
2	0xbc7e44a9	-0.0155193
3	0x3ba73473	0.005102688
4	0x3e6de871	0.232332
5	0xbc9bc6d1	-0.019015701
6	0x3da026cb	0.07819899
7	0x3db3d41e	0.087806925
8	0x3e905eac	0.2819723
9	0x3d54e1f6	0.051973306
10	0xbe3353ca	-0.17512432
11	0x3db08879	0.0861978
12	0x3d243296	0.040087305
13	0x3e021f21	0.12707187
14	0x3d50301a	0.050827123
15	0xbe04514f	-0.12921642

conv1.3.running_mean f4 [16]
0	0x3dfa4ba7	0.12221461
1	0x3e065695	0.13118966
2	0x3d897cba	0.06713243
3	0x3e7c9b49	0.24668612
4	0x3cef2381	0.029191734
5	0x3c4711a3	0.012150201
6	0x3c9d6769	0.019214349
7	0x3dace228	0.084415734
8	0x37f87c00	2.9621646e-05
9	0x3cf97b81	0.030454399
10	0x3f0b3c73	0.54389113
11	0x3bec45b3	0.007210457
12	0x3e475207	0.19464885
13	0x3c571f6c	0.01313005
14	0x3d8a4266	0.06750946
15	0x3e4d75f9	0.20064534

conv1.3.running_var f4 [16]
0	0x3b677252	0.0035315943
1	0x3b28847d	0.0025713735
2	0x3b24fc8f	0.002517495
3	0x3c295893	0.010336059
4	0x3b350fea	0.0027627894
5	0x3a6321bf	0.00086643914
6	0x3ae88213	0.001773896
7	0x3b509af1	0.0031830634
8	0x367c7fe7	3.7625375e-06
9	0x3b1505d0	0.002273906
10	0x3d203474	0.039112523
11	0x3a8bd24a	0.001066753
12	0x3ad41359	0.0016180082
13	0x3a851ea6	0.0010156229
14	0x3ba30273	0.004974657
15	0x3ac66791	0.0015137066

conv2.0.weight f4 [32, 16, 3, 3]
0	0x3c990613	0.018679654
1	0xbc5f7f64	-0.013641212
2	0xbc1354bd	-0.008992371
3	0x3cb4c8ea	0.02206846
4	0x3d9b6c61	0.07589031
5	0x3ce7f1c0	0.028313518
6	0x3dac709f	0.08419918
7	0xbbf0504c	-0.007333791
8	0x3adf5d6d	0.0017041393
9	0xbd816a4a	-0.06319101
10	0xbdb7c2c5	-0.08972696
11	0xbd4ea73f	-0.050452467
12	0xbd582dc8	-0.052778035
13	0x3c9faf85	0.019492874
14	0xbd4813e9	-0.048847113
15	0xbd70898c	-0.058724925
16	0xbd820901	-0.063493736
17	0x3cbe8729	0.023257809
18	0x3e016324	0.12635475
19	0xb87825df	-5.9163078e-05
20	0xbdbd4b5d	-0.0924289
21	0x3dc82e75	0.09774486
22	0x3da18665	0.07886962
23	0xbd344c25	-0.04401793
24	0xbca40a43	-0.020024424
25	0xbd16b99a	-0.036798097
26	0xbd3046b4	-0.043036178
27	0x3dbf8a70	0.09352577
28	0x3d6209ee	0.05518525
29	0xbd5a097a	-0.053231694
30	0x3b22fc1b	0.0024869505
31	0x3d8202b2	0.0634817
32	0xbcc9a2fe	-0.024613854
33	0x3d22227e	0.039583676
34	0x3c75b337	0.014996341
35	0x3d32c12a	0.043641247
36	0x3c981298	0.018563554
37	0x3d13a36e	0.03604453
38	0xbcdd9a8b	-0.02705123
39	0xbdd19efb	-0.10235401
40	0xbc4c9f1d	-0.012489107
41	0x3b785b61	0.0037896263
42	0xbd805e02	-0.062679306
43	0xbd82056a	-0.06348689
44	0xbb885da5	-0.004161554
45	0x3c179461	0.009251685
46	0x3d8930a0	0.066987276
47	0x3dafd32d	0.085852005
48	0xbd4656b6	-0.048422538
49	0x3d718c46	0.058971666
50	0x3d15e64c	0.03659658
51	0x3dabfcd5	0.08397833
52	0x3dbb3dfb	0.09142681
53	0x3d82b47d	0.06382082
54	0x3d805d05	0.06267742
55	0x3cc31e19	0.023818063
56	0xbc5fb2e2	-0.013653489
57	0xbd016808	-0.031593353
58	0x3d62639c	0.055270776
59	0x3c72763e	0.014798699
60	0x3d2be8d7	0.0419701
61	0x3d133dfb	0.03594778
62	0x3db59e64	0.08868101
63	0x3d5c2589	0.053746734
64	0xbdaa4aa6	-0.08315019
65	0xbd6d2ddc	-0.057905063
66	0x3d76742a	0.060169376
67	0x3d780dc9	0.06056002
68	0xbd352dce	-0.044233136
69	0x3d197223	0.037462365
70	0xbda48e02	-0.08034898
71	0xbd676531	-0.056492988
72	0xbdceb7e7	-0.1009367
73	0xbe67cd84	-0.22636992
74	0xbe12c7e3	-0.14334063
75	0xbe5f3693	-0.21798162
76	0xbe83b2f1	-0.2572246
77	0xbe588855	-0.21145757
78	0xbe44408a	-0.19165245
79	0xbe1472b0	-0.14496875
80	0xbe73efbc	-0.2382192
81	0xbdf172c8	-0.11789471
82	0xbd185acd	-0.03719597
83	0x3db5f492	0.08884539
84	0xbd75f730	-0.06005019
85	0x3c8317ec	0.016002618
86	0x3daa7964	0.08323935
87	0xbdc2f340	-0.095190525
88	0xbdb3cc5a	-0.08779211
89	0x3dd14138	0.102175176
90	0x3de55da6	0.11199503
91	0x3afd0e0c	0.0019306554
92	0xbbd0496d	-0.0063564093
93	0xbcb1fb33	-0.021726226
94	0x3d4040a5	0.04693665
95	0xbc847590	-0.01616934
96	0x3def7721	0.11692644
97	0x3d82f0dc	0.063935965
98	0x3d1ac8fe	0.037789337
99	0x3d0f6540	0.03500867
100	0x3cd143e0	0.02554506
101	0x3c586f2d	0.0132101
102	0xbdd64b1f	-0.10463547
103	0xbd92b215	-0.07162873
104	0xbe114772	-0.1418741
105	0xbddbf914	-0.10740867
106	0x3d082e1e	0.033247106
107	0x3b9f44dc	0.0048605036
108	0x3d8a8a53	0.067646645
109	0xbc870d03	-0.016485697
110	0x3d0ff10e	0.035141997
111	0x3d1a4ee3	0.03767289
112	0xbc0bad98	-0.008525275
113	0x3c782bc3	0.015147152
114	0xbd3d33b6	-0.046191894
115	0xbc441db9	-0.011969977
116	0xbd8c4462	-0.068489805
117	0x3d3017dc	0.042991504
118	0xbdbbe28b	-0.09174069
119	0xbe125eb4	-0.14293939
120	0xbd3efd9e	-0.046628587
121	0xbd8e7f9a	-0.06957932
122	0xbd0747d6	-0.033027492
123	0xbe2b3d4c	-0.16722602
124	0xbd8b2c8c	-0.06795606
125	0x3ce196a1	0.027537646
126	0x3c9ca545	0.019121775
127	0xbd2fff02	-0.042967804
128	0xbbcea5f9	-0.0063064066
129	0xbd1a8550	-0.037724793
130	0xbd353beb	-0.044246595
131	0xbcf4a4ca	-0.029863734
132	0xbd08727a	-0.0333123
133	0x3d298eb6	0.041395865
134	0x3d58b93c	0.05291103
135	0xbd666738	-0.05625078
136	0xbbe5b565	-0.0070101493
137	0x3c1499a8	0.009069838
138	0xbbb27065	-0.0054455274
139	0xbd8eab4d	-0.06966267
140	0xbd3aae7b	-0.045576554
141	0x3d6cc57b	0.05780552
142	0x3d61d2ee	0.0551328
143	0xbc15e5cb	-0.009149025
144	0x3d105727	0.035239365
145	0xbb8de6f2	-0.0043305093
146	0x3d485649	0.048910413
147	0x3dc470ba	0.095918134
148	0x3d0c6444	0.03427531
149	0xbcefce5e	-0.029273208
150	0x3d3722eb	0.044711035
151	0x3d8df1f8	0.069309175
152	0x3dbfe777	0.0937032
153	0xbca948d5	-0.020664612
154	0x3c5eab73	0.013590681
155	0xbd436c7d	-0.047710884
156	0xbd8e8197	-0.06958311
157	0x3c040637	0.008058122
158	0xbe077f88	-0.13232243
159	0x3cf753ca	0.03019132
160	0xbca8e73a	-0.02061807
161	0xbce10714	-0.027469195
162	0x3d1a9346	0.037738107
163	0x3ddc12ca	0.10745771
164	0x3daf7e8d	0.085690595
165	0x3dfe0524	0.12403324
166	0xbd45de31	-0.0483076
167	0x3d497719	0.049185846
168	0x3e0241ca	0.12720409
169	0x3beb602a	0.0071830945
170	0x3dcc0f54	0.09963861
171	0x3db69c83	0.08916571
172	0x3c96855b	0.018374136
173	0xbc5136dc	-0.012769427
174	0x3cb82e0c	0.022482894
175	0xbc3fdf28	-0.011710919
176	0x3d9e4350	0.077276826
177	0x3d95cce6	0.07314472
178	0xbc29bcc5	-0.010359948
179	0x3dbc2042	0.0918584
180	0x3d89e679	0.06733412
181	0x3d8cf516	0.06882684
182	0xbcd6f80c	-0.026241325
183	0x3db7d69b	0.089764796
184	0x3d66a988	0.05631402
185	0x3d146c39	0.03623602
186	0x3dc0228c	0.09381589
187	0xbace255f	-0.001572769
188	0x3d83ca3c	0.064350575
189	0x3c44b830	0.012006804
190	0xbd8dc15a	-0.069216445
191	0x3b49e839	0.0030808582
192	0xbd86fdb8	-0.06591362
193	0xbe27d053	-0.16388063
194	0xbde7d11f	-0.113191836
195	0x3cd1c084	0.025604494
196	0xbd8e9a42	-0.06963016
197	0xbdc116d7	-0.094281845
198	0xbb35d962	-0.0027747978
199	0xbcd89d7a	-0.026442278
200	0x3d88ec5c	0.06685707
201	0x3e08fad6	0.13376936
202	0x3d02390b	0.03179268
203	0x3d877b15	0.06615273
204	0x3d762b81	0.060100082
205	0xbd63b958	-0.05559668
206	0x3da10223	0.07861736
207	0xbd4499d9	-0.047998283
208	0x3d861876	0.06547634
209	0x3d3e6043	0.04647852
210	0xbd1c8f87	-0.038222816
211	0xbd8d3876	-0.06895535
212	0xbd8fdec4	-0.07024911
213	0x3c54892a	0.012972156
214	0xbdcc76c4	-0.0998359
215	0xbbe895e8	-0.0070979483
216	0x3ca9e69a	0.020739842
217	0xbd0f70a6	-0.03501954
218	0x3e0253ce	0.12727281
219	0xbdf1263f	-0.11774873
220	0xbc27034c	-0.010193657
221	0xbcd842ca	-0.026399035
222	0xbd4d5d2b	-0.05013768
223	0xbdce48c6	-0.10072474
224	0xbd49f4c3	-0.04930569
225	0x3c78fe5e	0.015197365
226	0xbdbc6133	-0.09198227
227	0xbd66bf47	-0.05633476
228	0x3cc08621	0.023501458
229	0xbc2297bc	-0.009923872
230	0xbda2f139	-0.07956166
231	0x3d925da5	0.071467675
232	0xbcdf3940	-0.027248979
233	0xbc8f2462	-0.017473403
234	0x3d31d851	0.043419186
235	0xbcb23fa8	-0.02175887
236	0x3dd46bf2	0.103721514
237	0x3dfb70b3	0.12277355
238	0x3e068b25	0.13139017
239	0x3c43a03c	0.011940058
240	0x3d0be506	0.03415396
241	0x3e17a643	0.14809518
242	0x3dab1049	0.083527155
243	0x3c7b0282	0.015320422
244	0x3ac77b70	0.0015219282
245	0x3db0a558	0.08625287
246	0xbd866c70	-0.065636516
247	0xbd8a244f	-0.067452066
248	0xbcbadaf8	-0.02280949
249	0x3cdfec1f	0.027334271
250	0xbd2175d3	-0.039419007
251	0x3d28ab13	0.041178774
252	0x3db32bb5	0.08748571
253	0x3d850828	0.06495696
254	0x3d907158	0.070528686
255	0x3dada8c5	0.08479456

conv2.0.bias f4 [32]
0	0xbe11a73a	-0.14223948
1	0xbda6f55e	-0.08152269
2	0xbde6aedd	-0.11263821
3	0x3c2b9f84	0.010475043
4	0xbe1d6e7e	-0.1537418
5	0xbdf1999a	-0.11796875
6	0x3d9b91df	0.07596182
7	0x3d22045b	0.039554935
8	0xbe2b503c	-0.16729826
9	0x3b933758	0.0044926815
10	0xbd1090f1	-0.035294477
11	0xbe69d89c	-0.22836536
12	0xbcc60fd2	-0.024177466
13	0xbdb15f1e	-0.0866072
14	0xbe7982b6	-0.24366269
15	0xbc101630	-0.008794352
16	0xbe9a95fc	-0.30192554
17	0xbdb646a5	-0.08900193
18	0xbd996599	-0.07490081
19	0x3e10575f	0.1409583
20	0x3bc6e383	0.006069602
21	0xbddc3fa9	-0.1075433
22	0xbdc8d8a4	-0.09806946
23	0xbdec2b92	-0.11531748
24	0x3b00f8c9	0.0019679538
25	0xbe4dbe44	-0.20092112
26	0xbe276165	-0.16345747
27	0xbd756730	-0.05991286
28	0xbdaec82b	-0.08534273
29	0xbe7146ff	-0.23562239
30	0xbdf0ddf3	-0.117610835
31	0xbe1edd77	-0.1551417

conv2.3.weight f4 [32]
0	0x3f8782df	1.0586814
1	0x3f6a18f7	0.91444343
2	0x3f7ad7dd	0.9798563
3	0x3f5651fd	0.83718854
4	0x3f7457d8	0.9544654
5	0x3f78dc43	0.9721109
6	0x3f70ed02	0.94111645
7	0x3f7a28bc	0.97718406
8	0x3f723854	0.946172
9	0x3f802f97	1.0014523
10	0x3f7e73fc	0.9939573
11	0x3f8a621e	1.0811193
12	0x3f7d212f	0.9887876
13	0x3f79af58	0.9753318
14	0x3f8645ab	1.0490011
15	0x3f7eaf5d	0.99486333
16	0x3f47995a	0.7796837
17	0x3f824c47	1.0179528
18	0x3f7b2ed9	0.9811836
19	0x3f63581f	0.8880634
20	0x3f64eb70	0.8942175
21	0x3f654396	0.8955625
22	0x3f7f77bc	0.99792075
23	0x3f812a7a	1.0091088
24	0x3f76e325	0.96440345
25	0x3f8762af	1.0576991
26	0x3f7fc954	0.9991658
27	0x3f604e25	0.8761924
28	0x3f871ef2	1.0556319
29	0x3f84bc86	1.0370033
30	0x3f65ea33	0.89810485
31	0x3f702e3d	0.93820554

conv2.3.bias f4 [32]
0	0x3de90484	0.113778144
1	0x3ec17ad9	0.37789038
2	0x3dba9adf	0.091115706
3	0xbe4bcbd1	-0.19901969
4	0x3e2da1b4	0.16956216
5	0xbe318c69	-0.17338718
6	0x3f09cc1a	0.5382706
7	0x3d94eb60	0.07271457
8	0xbe081299	-0.13288344
9	0x3e3a04a8	0.18165839
10	0xbdd1396a	-0.10216029
11	0x3f1c3782	0.610222
12	0xbe52c774	-0.20583898
13	0x3e75795c	0.23972076
14	0x3eb2a106	0.34888476
15	0xbe18ba21	-0.14914753
16	0x3e7be5b3	0.24599342
17	0xbe26825f	-0.1626067
18	0x3c3b9e0b	0.011451255
19	0x3bf0b86e	0.0073462045
20	0x3ea3dc05	0.320038
21	0x3e68d258	0.2273649
22	0x3eaca825	0.33722034
23	0x3e8483b4	0.25881732
24	0x3ebf66e3	0.37383184
25	0x3eaf6ac7	0.34261152
26	0xbd7c7853	-0.061638188
27	0xbe41547e	-0.18879887
28	0x3ede3a9c	0.4340409
29	0x3e62dcdf	0.22154568
30	0x3e994e65	0.29942623
31	0x3efcf69c	0.49406898

conv2.3.running_mean f4 [32]
0	0x3d225b24	0.0396377
1	0x3f5d87b2	0.8653518
2	0x3e97cbe3	0.2964774
3	0x3f411801	0.7542725
4	0x3e95a9bf	0.29231068
5	0x3dca1dc1	0.09868956
6	0x3ef7dcd9	0.4841068
7	0x3f1b5a1f	0.6068439
8	0x3e646542	0.22304252
9	0x3efc535b	0.49282345
10	0x3e037011	0.12835719
11	0x3dac06c3	0.08399727
12	0x3f27e6f3	0.65586776
13	0x3f28f28d	0.65995103
14	0x3d7376d0	0.05943948
15	0x3e906067	0.2819855
16	0x3e7ef7e7	0.24899255
17	0x3ec1510f	0.37757155
18	0x3e8f28cd	0.27960816
19	0x3f3b7b34	0.7323487
20	0x3f331367	0.6995148
21	0x3f23d0a4	0.63990235
22	0x3eb6da84	0.3571359
23	0x3e297168	0.16547167
24	0x3ef7f0cc	0.484259
25	0x3e0b2d49	0.13591494
26	0x3e082cd5	0.13298352
27	0x3dc41505	0.09574322
28	0x3e8251ff	0.25453183
29	0x3eb5a25b	0.3547543
30	0x3eb756c8	0.35808396
31	0x3e429c53	0.19004945

conv2.3.running_var f4 [32]
0	0x3cef5fec	0.029220544
1	0x4009def7	2.1542337
2	0x3e70a1ed	0.2349927
3	0x3f7e1190	0.9924555
4	0x3ebda740	0.37041664
5	0x3d30df5c	0.043181762
6	0x3e8a1a03	0.2697297
7	0x3f5315ed	0.8245533
8	0x3ea7eb84	0.32796872
9	0x3ed0397d	0.4066886
10	0x3e0bd81d	0.1365666
11	0x3dd02075	0.10162441
12	0x3eea9bca	0.45821983
13	0x3fde6286	1.7373817
14	0x3d90c098	0.07067984
15	0x3e2deac1	0.16984083
16	0x3ec313a6	0.38100928
17	0x3ef9f828	0.4882214
18	0x3eb8bde8	0.36082387
19	0x3f2f7b6a	0.6854769
20	0x3f39b533	0.72542113
21	0x3fd0c4ea	1.6310093
22	0x3f0ebf66	0.557608
23	0x3dd01dba	0.1016192
24	0x3e864cb8	0.26230407
25	0x3e1e0e50	0.15435147
26	0x3df71d30	0.12066114
27	0x3cedcefb	0.02902936
28	0x3ef2eb30	0.4744506
29	0x3f19ed1c	0.60127425
30	0x3e4eefb7	0.20208631
31	0x3e1b25fa	0.15151206

conv3.0.weight f4 [64, 32, 3, 3]
0	0xbd25a598	-0.040441126
1	0xbd938dc9	-0.07204778
2	0xbd903218	-0.070408046
3	0xbd523341	-0.05131841
4	0xbdb74cc1	-0.089501865
5	0xbd8d3c84	-0.06896308
6	0xbda74564	-0.08167532
7	0xbda5438f	-0.080695264
8	0xbdfea599	-0.12433929
9	0xbd89cae0	-0.067281485
10	0x3c9b790a	0.018978614
11	0xbcb1c59d	-0.021700675
12	0xbcb42c21	-0.021993699
13	0xbd5f2e6e	-0.05448764
14	0xbcdb4814	-0.026767768
15	0xbb60b795	-0.003428911
16	0xbc56ac73	-0.013102639
17	0x3d505151	0.0508588
18	0xbc425f21	-0.011863501
19	0xbd2aa61c	-0.04166232
20	0xbdd5af0d	-0.10433779
21	0x3c962523	0.018328255
22	0xbcf620e8	-0.030044988
23	0xbd0cf0a5	-0.034409184
24	0xbda0e3cd	-0.078559496
25	0xbd09d50b	-0.03365044
26	0xbd717511	-0.058949534
27	0x3d05d409	0.032672916
28	0xbcc12e53	-0.02358166
29	0x3d99337d	0.07480524
30	0xb87b3b9a	-5.989857e-05
31	0xbc576760	-0.013147205
32	0x3caed3df	0.021341262
33	0xbaf833b4	-0.0018936307
34	0x3ce032df	0.027368007
35	0xbc00f69a	-0.007871294
36	0xbda46989	-0.08027942
37	0xbda9df26	-0.08294515
38	0xbd02ded8	-0.0319508
39	0xbcad3687	-0.021144165
40	0xbd9024b1	-0.07038248
41	0xbd4370a3	-0.04771484
42	0xbd2444e8	-0.040104777
43	0xbca13847	-0.019680155
44	0xbd0e7c4a	-0.0347865
45	0xbb8508c9	-0.004059885
46	0x3cb15bbd	0.02165019
47	0xbc74b82f	-0.014936491
48	0x3caa7bfa	0.02081107
49	0x3cdd0360	0.026979148
50	0xbcc7c847	-0.024387492
51	0x3d0a5e0a	0.03378109
52	0x3d016d32	0.031598277
53	0xbc4f532b	-0.012654106
54	0xbcbceb2f	-0.023061363
55	0xbdff1210	-0.12454617
56	0xbd53f7d2	-0.05175001
57	0xbc4e0d8e	-0.012576474
58	0xbdfbea0b	-0.123004995
59	0xbdbea93c	-0.09309623
60	0xbd9b8b5c	-0.0759494
61	0xbd7fdb2b	-0.062464874
62	0xbdb707e2	-0.089370504
63	0xbd39e2a3	-0.045382153
64	0xbd1e723e	-0.03868317
65	0xbd318e94	-0.043348864
66	0xbce19c57	-0.027540369
67	0x3ce4e5b4	0.027941562
68	0xbd109572	-0.035298772
69	0xbb806942	-0.0039187977
70	0x3d74ce3a	0.059766985
71	0x3d0ef85f	0.034904834
72	0x3d6ba2a5	0.057528157
73	0x3e208b1d	0.15678068
74	0x3dcc88ca	0.09987028
75	0x3e010032	0.12597731
76	0x3e07e194	0.13269645
77	0x3d8548a4	0.06507996
78	0x3cca28be	0.02467763
79	0x3e0a52ae	0.13508102
80	0x3d904954	0.07045236
81	0x3c7b5018	0.01533892
82	0xbbf08d79	-0.0073410836
83	0xbb53da14	-0.003232603
84	0xbc2039f4	-0.009779442
85	0x3d081bf3	0.03322978
86	0xbbd2d0b3	-0.0064335703
87	0x3cbd604a	0.023117203
88	0x3cd6df1c	0.026229434
89	0x3d2b67c0	0.04184699
90	0xbd0e7a24	-0.03478445
91	0xbd37ce7e	-0.04487466
92	0xba640b55	-0.00086991984
93	0xbbffc21f	-0.0078051235
94	0xbd22963d	-0.03969406
95	0xbbc073df	-0.005873188
96	0xbd5a3813	-0.053276133
97	0xbd0896f2	-0.033347078
98	0xbd26b419	-0.0406991
99	0xbd81f266	-0.06345062
100	0xbdef7279	-0.11691756
101	0xbddb7599	-0.10715789
102	0xbd89b06e	-0.067231044
103	0xbe169bbd	-0.14707847
104	0xbe17182e	-0.14755318
105	0xbda0cee9	-0.07851965
106	0xbe14c33d	-0.14527602
107	0xbe2ba4de	-0.1676211
108	0xbd0a4ee3	-0.03376664
109	0x3b500114	0.0031738924
110	0x3c9008ea	0.017582376
111	0xbd789b38	-0.060694903
112	0x37d73bed	2.5657902e-05
113	0xbcc13e06	-0.023589145
114	0xbd75101d	-0.05982982
115	0xbca7a019	-0.020462083
116	0xbd01afeb	-0.03166191
117	0xbe0b2a95	-0.13590463
118	0xbdbd6c48	-0.09249169
119	0xbe03b54e	-0.12862131
120	0xbdffda22	-0.124927774
121	0xbd9b7088	-0.07589823
122	0xbd94c9b6	-0.07265036
123	0xbe06aba3	-0.13151412
124	0xbca0b420	-0.01961714
125	0xbd905c4c	-0.07048854
126	0x3d249fa6	0.040191315
127	0x3d6cb676	0.057791196
128	0x3d2b2e57	0.04179224
129	0x3cf81dd6	0.030287664
130	0x3cebdff0	0.028793305
131	0x3d54f169	0.05198804
132	0x3d7eaf1a	0.06217871
133	0x3d987ef1	0.07446087
134	0x3cdb840d	0.026796365
135	0xbd01e1ba	-0.03170941
136	0xbd84e688	-0.06489283
137	0xbd4981da	-0.0491961
138	0xbcb3aded	-0.02193352
139	0xbd596a4e	-0.053079896
140	0xbdb3bcbb	-0.08776232
141	0xbd7e3a83	-0.06206752
142	0xbd3f5018	-0.046707243
143	0xbdd0d344	-0.10196546
144	0x3d09a1dd	0.03360163
145	0xbd0a8bf9	-0.033824895
146	0xbd5ee057	-0.054413166
147	0xbd56ffba	-0.052489974
148	0x3accc6b7	0.0015623186
149	0xbc25e392	-0.010125058
150	0xbd508a43	-0.050913107
151	0x3cd6e245	0.02623094
152	0x3c8e51af	0.017372934
153	0x3d8ab279	0.06772322
154	0x3db2dae3	0.087331556
155	0x3dc04214	0.093876034
156	0x3d873ba6	0.06603174
157	0x3dc73067	0.09726029
158	0x3ba987e6	0.005173671
159	0x3db5e578	0.08881658
160	0x3dd2f4ff	0.103006355
161	0x3da6e6b2	0.081494704
162	0xbc355d5f	-0.011069625
163	0x3d10bc63	0.03533591
164	0xbd00bc58	-0.03142962
165	0x3d125eb5	0.03573485
166	0x3ce94639	0.028475868
167	0xbd3b2452	-0.045688935
168	0x3934bf55	0.00017237414
169	0x3c0aab27	0.008463657
170	0x3bec3466	0.007208395
171	0xbd970984	-0.07374862
172	0xbc6ba868	-0.014383413
173	0x3ce39d36	0.027784925
174	0xbd1f41dd	-0.03888117
175	0x3c46b793	0.012128728
176	0xbbba56e0	-0.005686626
177	0x3c981709	0.018565672
178	0x3d8d2a15	0.06892792
179	0x3b1f6f6b	0.0024327885
180	0x3b37e6e3	0.0028061203
181	0xbce3a8c1	-0.02779043
182	0xbd430028	-0.04760757
183	0xbcf538c6	-0.029934298
184	0xbc852692	-0.016253743
185	0xbd4a8be3	-0.049449813
186	0xbccabf54	-0.024749435
187	0x3c90b9d1	0.01766673
188	0x3a315709	0.00067649834
189	0xbd9a7dfc	-0.07543561
190	0xbdbb3ff2	-0.09143056
191	0xbd46275b	-0.048377376
192	0xbd291b4d	-0.0412858
193	0xbd474326	-0.048648022
194	0xbdf68e01	-0.12038804
195	0xbd433b45	-0.047663946
196	0xbd358475	-0.044315774
197	0xbdfce224	-0.123478204
198	0x3bc9b784	0.00615591
199	0xbadca93c	-0.0016835104
200	0x3d20371d	0.03911506
201	0xbc147348	-0.009060688
202	0x3db0380b	0.08604439
203	0x3d41e7e1	0.047340278
204	0x3b462f93	0.0030240759
205	0xbb932cf7	-0.004491444
206	0x3b292122	0.0025807102
207	0xbd3ca13d	-0.046052206
208	0xbd8e4949	-0.06947572
209	0xbdc6539c	-0.09683916
210	0xbd8cc9e0	-0.06874442
211	0xbd5e3688	-0.054251224
212	0xbd10b67d	-0.035330284
213	0xbd8c5151	-0.068514474
214	0xbd85caa8	-0.06532794
215	0xbdc5b064	-0.096527845
216	0xbd5c09cd	-0.053720284
217	0xbd6604de	-0.056156985
218	0xbdc85c9e	-0.0978329
219	0x3c8617b7	0.01636873
220	0xbc8845d7	-0.016634865
221	0xbd922985	-0.071368255
222	0xbcc87efc	-0.024474613
223	0xbd5613f8	-0.052265137
224	0xbd7f02e1	-0.062258605
225	0x3d9f1a84	0.07768729
226	0x3dbdcafd	0.092672326
227	0xbc15c12b	-0.009140293
228	0x3d817dff	0.0632286
229	0x3d6148dc	0.055001125
230	0x3cb5868a	0.02215888
231	0x3d10b21a	0.0353261
232	0x3dbb4a5b	0.091450416
233	0xbc9b15b2	-0.018931244
234	0xbd27832f	-0.04089659
235	0xbd015c11	-0.031581942
236	0xbd780312	-0.060549803
237	0xbd042de9	-0.032270346
238	0xbc2017f5	-0.009771337
239	0xbccf6576	-0.025316935
240	0xbd64f975	-0.055901963
241	0xbd5bdbc9	-0.0536764
242	0xbd116bf3	-0.03550334
243	0xbb9ee2fd	-0.0048488365
244	0xbceb2f30	-0.028709024
245	0xbc9bcfe0	-0.019020021
246	0x3cb81e9f	0.022475539
247	0xbcf22cf3	-0.02956245
248	0xbca1002a	-0.019653399
249	0xbd0afdd9	-0.033933494
250	0xba110e46	-0.0005533438
251	0x3d7055b2	0.058675475
252	0xbd1d7c11	-0.038448397
253	0xbddd2f7e	-0.10800074
254	0xbe405183	-0.18781094
255	0xbd32239a	-0.043490984

conv3.0.bias f4 [64]
0	0xbe67deef	-0.22643636
1	0xbd928e3a	-0.07156034
2	0xbd959e66	-0.07305603
3	0xbe50cb77	-0.20390116
4	0xbc839909	-0.016064184
5	0xbc4634a0	-0.012097508
6	0xbdcb1a27	-0.099170975
7	0xbe30619d	-0.17224737
8	0xbd808e6b	-0.06277164
9	0xbda4813f	-0.08032464
10	0x3d12055b	0.03564964
11	0xbe235f83	-0.15954404
12	0xbdc69094	-0.09695545
13	0xbce811b3	-0.028328752
14	0xbe44c153	-0.19214372
15	0xbbde5538	-0.006785061
16	0xbe2e503d	-0.17022796
17	0xbe1fca90	-0.15604615
18	0xbdae3922	-0.08506991
19	0xbe1bce0c	-0.1521532
20	0xbe2f9f3f	-0.17150591
21	0xbe0914ed	-0.13386889
22	0xbdb92f5d	-0.09042237
23	0xbd60cef1	-0.054884855
24	0xbdd68024	-0.1047366
25	0xbde8d1b4	-0.11368123
26	0xbe8c83d3	-0.27444324
27	0xbdf56de8	-0.119838536
28	0xbe7614fa	-0.2403144
29	0xbda49fad	-0.08038268
30	0xbe5646ce	-0.20925447
31	0xbe0b4b76	-0.13603005
32	0xbdfe2e8f	-0.12411224
33	0xbe63867e	-0.22219273
34	0xbe30790b	-0.17233674
35	0xbe29735a	-0.1654791
36	0xbdf9877f	-0.12184047
37	0xbdce2963	-0.10066488
38	0xbe374b30	-0.17899776
39	0xbe0e609f	-0.13904046
40	0xbe04804c	-0.12939566
41	0xbd429b5b	-0.04751144
42	0xbe1f84cb	-0.15578
43	0xbcdad2c2	-0.026711825
44	0xbda0a827	-0.078445725
45	0xbdb31ca8	-0.087457
46	0xbdb38946	-0.08766417
47	0xbdba2aaa	-0.09090169
48	0xbc53d2b5	-0.012928654
49	0xbe0a71d5	-0.13519986
50	0xbe2241e3	-0.15845446
51	0xbe14b669	-0.14522709
52	0xbe28f29a	-0.16498795
53	0xbd30442b	-0.04303376
54	0xbd990efe	-0.07473563
55	0xbe1f9d6b	-0.15587394
56	0xbd84a0a2	-0.06475951
57	0xbdc59f8b	-0.09649571
58	0xbdc5d01b	-0.096588336
59	0xbc91889b	-0.017765334
60	0x3bd1b967	0.0064002755
61	0xbd36fb19	-0.04467306
62	0xbe556006	-0.20837411
63	0xbdc80b15	-0.09767739

conv3.4.weight f4 [64]
0	0x3f98307a	1.1889794
1	0x3f932083	1.1494297
2	0x3fa13480	1.2594147
3	0x3fac02ee	1.3438394
4	0x3fa12252	1.2588599
5	0x3fa02ab2	1.251303
6	0x3fa3af1c	1.2787814
7	0x3f93949d	1.1529728
8	0x3f89e881	1.077408
9	0x3fa585f6	1.2931507
10	0x3f9f239e	1.2432745
11	0x3f878fc3	1.0590748
12	0x3fa3e69d	1.2804753
13	0x3f912a0a	1.1340954
14	0x3f942a72	1.1575453
15	0x3fa2f522	1.2731059
16	0x3f8fad64	1.122479
17	0x3f95b528	1.169591
18	0x3fa4a535	1.2862917
19	0x3fa7f43e	1.3121412
20	0x3f984ef1	1.1899091
21	0x3fa846f9	1.3146659
22	0x3fa3d1d0	1.2798405
23	0x3fa8e9a5	1.3196303
24	0x3f8a04e4	1.0782743
25	0x3f951196	1.1645992
26	0x3f912ebf	1.1342391
27	0x3fae55ca	1.3619931
28	0x3f961279	1.1724387
29	0x3fa936ce	1.321985
30	0x3f97eec5	1.1869742
31	0x3f875aaf	1.057455
32	0x3f9ab786	1.2087257
33	0x3f9caad4	1.2239633
34	0x3f8cb7a7	1.0993546
35	0x3f97567e	1.182327
36	0x3f7f5a1b	0.99746865
37	0x3faa1e36	1.329047
38	0x3fa57a03	1.292786
39	0x3fa0cbc8	1.2562189
40	0x3f9520ae	1.1650598
41	0x3f818738	1.011939
42	0x3f9a42bb	1.2051615
43	0x3fa4d016	1.2876003
44	0x3f916b4e	1.1360872
45	0x3fa3ba9e	1.2791326
46	0x3fa6a0ae	1.3017786
47	0x3f7c5d1d	0.9857958
48	0x3f9f2d84	1.2435765
49	0x3fab02ea	1.3360264
50	0x3f96f16d	1.1792427
51	0x3fa5bd85	1.2948462
52	0x3f8cda2f	1.1004084
53	0x3f9986b7	1.1994237
54	0x3fac175d	1.344463
55	0x3f96c26f	1.1778086
56	0x3f8bdfd2	1.092768
57	0x3fa934a5	1.3219191
58	0x3fa3c0c8	1.2793207
59	0x3f76d350	0.9641619
60	0x3f9fe259	1.2490951
61	0x3fa0f4cc	1.2574706
62	0x3f8eb4ce	1.1148927
63	0x3f9cd0cc	1.225122

conv3.4.bias f4 [64]
0	0xbc32b8a0	-0.010908276
1	0xbbcb29d5	-0.006200055
2	0x3c619173	0.013767588
3	0x3ae3b86e	0.001737369
4	0x3c44ca9f	0.012011199
5	0x3c53b22c	0.012920897
6	0x3c20e5ce	0.009820415
7	0xbc503651	-0.012708263
8	0xbcb3775a	-0.021907497
9	0x3c9a51de	0.018837865
10	0x3c6275f6	0.013822069
11	0xbca5c045	-0.020233283
12	0xbc3a72d8	-0.01137992
13	0xbc81e228	-0.01585491
14	0xb9e77741	-0.00044148605
15	0x3bd96960	0.006634876
16	0x3b29c111	0.002590243
17	0xbb9c173b	-0.0047635115
18	0x3c99c654	0.018771328
19	0xbc154185	-0.009109859
20	0xbc695004	-0.014240269
21	0x3c23bfc5	0.009994452
22	0x3cfb5399	0.03067951
23	0xbb36ddc8	-0.0027903188
24	0xbd493950	-0.049126923
25	0xbc97b79e	-0.018520173
26	0xbcd4c126	-0.025971007
27	0xbc113cc5	-0.008864586
28	0xbd0e87f6	-0.03479763
29	0x3b252c2d	0.0025203333
30	0xbc926cd7	-0.017874165
31	0xbc932232	-0.017960642
32	0x3d0f2bf7	0.034954038
33	0xbc5d3950	-0.013502434
34	0xbcd30bc4	-0.025762446
35	0x3bb5b4cc	0.0055452343
36	0xbbb9af6f	-0.0056666653
37	0x3c6147d6	0.013750037
38	0x39c33396	0.00037231733
39	0xba38188e	-0.0007022702
40	0xbc96da20	-0.018414557
41	0x3b90c847	0.004418406
42	0x3b9afbf0	0.0047297403
43	0x3c7e258a	0.01551188
44	0x3beab94e	0.0071632033
45	0xb91ee698	-0.00015153957
46	0x3c392b9f	0.011301904
47	0x3aceb9ec	0.0015771962
48	0xbba1aa34	-0.00493362
49	0x3c5f56b5	0.013631512
50	0xbbb282cb	-0.0054477206
51	0x3cb5ff39	0.022216426
52	0xbc42e8c8	-0.01189632
53	0x3bc41d92	0.0059849704
54	0x3c0ad5df	0.008473842
55	0xbca998bf	-0.020702718
56	0x3c5a7288	0.01333297
57	0x3cab6d54	0.020926155
58	0x3c4e08c7	0.012575335
59	0xbc3b1ee7	-0.011420942
60	0x3cd5f169	0.02611609
61	0x3cbcdcbf	0.023054479
62	0x3c2708ce	0.01019497
63	0x3cc264be	0.023729678

conv3.4.running_mean f4 [64]
0	0x3d1b9620	0.037984967
1	0x3c743e4f	0.014907434
2	0x3df5da8a	0.12004574
3	0x3c9fbe27	0.019499851
4	0x3dd448c0	0.103654385
5	0x3de941d8	0.11389512
6	0x3d248b17	0.04017171
7	0x3cc1efca	0.02367391
8	0x3cf7d418	0.030252501
9	0x3da9e59d	0.082957484
10	0x3d8a159a	0.067424014
11	0x3bebce21	0.0071962033
12	0x3d494ffe	0.049148552
13	0x3d545cf8	0.051846474
14	0x3cb17996	0.021664422
15	0x3e00e336	0.12586674
16	0x3cca423f	0.024689792
17	0x3c853d27	0.016264511
18	0x3c845e5e	0.016158279
19	0x3d016dba	0.031598784
20	0x3c8327c1	0.016010167
21	0x3cdf9cff	0.027296541
22	0x3dd9789e	0.10618709
23	0x3ddca45b	0.10773536
24	0x3d493412	0.049121924
25	0x3d411b50	0.047145188
26	0x3cc8820c	0.024476074
27	0x3cc25e75	0.023726681
28	0x3cff2f05	0.03115035
29	0x3d205f89	0.03915361
30	0x3cc74baa	0.024328072
31	0x3cb8395b	0.022488287
32	0x3cebae0f	0.028769521
33	0x3cbf399b	0.023342898
34	0x3d109ea7	0.035307553
35	0x3cfe0e1a	0.031012584
36	0x3dd55822	0.104172006
37	0x3c96b098	0.018394753
38	0x3cd6b111	0.026207479
39	0x3cd71f2f	0.026259987
40	0x3ce423b0	0.027849048
41	0x3e011c84	0.12608534
42	0x3cd15fe8	0.025558427
43	0x3e3a1507	0.18172084
44	0x3cd992df	0.026559291
45	0x3d2a5055	0.041580517
46	0x3ce837ca	0.028346915
47	0x3cd078d3	0.025448238
48	0x3d9831d5	0.0743138
49	0x3c614719	0.013749861
50	0x3cc77ec6	0.024352442
51	0x3cb38695	0.02191476
52	0x3d33f9a1	0.043939237
53	0x3e126c22	0.14299062
54	0x3cc5cd6f	0.02414581
55	0x3c9d6055	0.019210974
56	0x3cb9b825	0.022670815
57	0x3c84b035	0.016197303
58	0x3cdd97d0	0.027049929
59	0x3f17a8d7	0.59242004
60	0x3e05cfcf	0.13067554
61	0x3df3d0e8	0.1190508
62	0x3c5beb5d	0.013422814
63	0x3d3f7e4f	0.046751317

conv3.4.running_var f4 [64]
0	0x3e231b64	0.15928417
1	0x3d185a22	0.037195332
2	0x3eebc40d	0.46048012
3	0x3d6f45c2	0.058416136
4	0x3ea86658	0.32890582
5	0x3ee410c9	0.44544056
6	0x3e061c83	0.13096814
7	0x3d9b25d1	0.07575572
8	0x3d547402	0.051868446
9	0x3e78a2de	0.24280879
10	0x3e4203c0	0.18946743
11	0x3c35cc15	0.01109602
12	0x3e308968	0.17239916
13	0x3db22e7f	0.08700275
14	0x3dd0dbca	0.101981714
15	0x3eed57e9	0.46356133
16	0x3d3332f7	0.043749776
17	0x3cd62f17	0.026145501
18	0x3d23d3d5	0.03999694
19	0x3dd5610a	0.10418899
20	0x3d15d8aa	0.03658358
21	0x3db4a247	0.088200144
22	0x3ec87431	0.39151147
23	0x3ed015be	0.40641588
24	0x3dc05476	0.0939111
25	0x3e5c2b72	0.21500948
26	0x3dd25b13	0.10271277
27	0x3da1472c	0.07874903
28	0x3de7065e	0.11280511
29	0x3dff61fe	0.124698624
30	0x3d51d5f1	0.05122942
31	0x3da0a899	0.078446575
32	0x3da905ce	0.0825306
33	0x3da47891	0.08030809
34	0x3e28502f	0.16436838
35	0x3df71277	0.12064069
36	0x3f10e189	0.5659414
37	0x3d6b0ac2	0.057383306
38	0x3db72941	0.089434154
39	0x3db89f46	0.09014754
40	0x3db320ae	0.087464675
41	0x3ea619d5	0.32441583
42	0x3da23685	0.07920555
43	0x3f508177	0.8144755
44	0x3d51dfc8	0.051238805
45	0x3e1ac94f	0.15115856
46	0x3dc4078c	0.09571752
47	0x3d8f70ce	0.07003938
48	0x3e60bf3a	0.21947947
49	0x3d0d5450	0.034504235
50	0x3da534d1	0.080667146
51	0x3d8850be	0.06656025
52	0x3d9985ce	0.07496224
53	0x3ef8eb2e	0.48616928
54	0x3d96bbe6	0.073600575
55	0x3d943079	0.07235808
56	0x3d91f766	0.07127266
57	0x3d26d640	0.04073167
58	0x3dbf8d12	0.09353079
59	0x401f369e	2.4877086
60	0x3f05621f	0.52102846
61	0x3ecc871f	0.3994684
62	0x3cce8712	0.02521089
63	0x3dcc5542	0.09977199

fc.0.weight f4 [32, 64]
0	0x3e579fb0	0.2105701
1	0x3e748796	0.23879847
2	0xbdb4bb60	-0.088248014
3	0xbe4d37ef	-0.20040868
4	0xbeaae82d	-0.3338026
5	0xbde6bef6	-0.11266892
6	0xbe4ed081	-0.20196725
7	0x3db2c717	0.087293796
8	0x3e031240	0.1279993
9	0xbe3f2f20	-0.1867032
10	0xbe5080e0	-0.20361662
11	0xbd040a77	-0.032236543
12	0xbe64827e	-0.22315404
13	0x3e1729c5	0.14762028
14	0x3e4d686e	0.20059368
15	0xbe9cd3c8	-0.30630326
16	0x3de426e9	0.11140234
17	0x3de52b17	0.11189859
18	0xbe9667a8	-0.29375958
19	0xbe72f179	-0.23724927
20	0x3d7c0204	0.06152536
21	0xbe210607	-0.15724955
22	0xbe523197	-0.2052673
23	0xbea3e882	-0.32013327
24	0x3e2e03fa	0.16993704
25	0x3d997bf1	0.07494343
26	0x3d78bb5e	0.060725562
27	0xbe85790e	-0.2606892
28	0x3e62e738	0.22158515
29	0xbe235508	-0.15950406
30	0x3dd9df09	0.10638244
31	0x3e3bd483	0.18342786
32	0xbd8a2b93	-0.067465924
33	0x3e1c6843	0.15274148
34	0x3e0ad582	0.1355801
35	0x3e479752	0.19491318
36	0x3e1e3d91	0.15453173
37	0xbe9bbaba	-0.304159
38	0xbe209c3a	-0.15684596
39	0xbe808b41	-0.25106242
40	0x3e277bcb	0.16355817
41	0x3da1633f	0.07880258
42	0x3e082113	0.13293867
43	0xbe66a88b	-0.22525232
44	0x3e28ab73	0.16471653
45	0xbe9adb38	-0.30245376
46	0xbe8848f4	-0.2661816
47	0x3d61aabd	0.05509447
48	0xbdc961be	-0.09833096
49	0xbe8c43b0	-0.2739539
50	0x3df0fd3e	0.11767052
51	0xbe9dd0f5	-0.30823484
52	0x3de0fbea	0.10985549
53	0xbe902be2	-0.2815848
54	0xbe5e65a7	-0.21718465
55	0x3e229bc5	0.15879734
56	0x3ddd9374	0.1081914
57	0xbe1f2fc2	-0.15545562
58	0xbea232cf	-0.3167939
59	0x3b7daa34	0.0038706185
60	0xbe1cec8d	-0.15324612
61	0xbe1884eb	-0.14894454
62	0x3de452d6	0.11148612
63	0xbe34b66e	-0.17647716
64	0x3d911743	0.07084515
65	0x3d9a9e2d	0.07549701
66	0xbe26fdb9	-0.16307725
67	0xbe92532f	-0.2857909
68	0xbe147b33	-0.14500122
69	0xbde1dce2	-0.11028458
70	0xbe7ba10a	-0.2457315
71	0x3e17c4f6	0.14821228
72	0xbbb7135c	-0.0055870246
73	0xbe848536	-0.25882882
74	0xbd96b3df	-0.073585264
75	0xba000ffe	-0.00048851955
76	0xbe36d9c4	-0.17856508
77	0x3e083117	0.13299976
78	0x3e6b15ba	0.22957507
79	0xbe5b548c	-0.21418971
80	0x3e3a0393	0.18165426
81	0x3dfc38e5	0.12315539
82	0xbe57dd7f	-0.21080588
83	0xbde3ebd5	-0.11128966
84	0x3ce660fc	0.028122418
85	0xbe97e640	-0.29667854
86	0xbe7747e6	-0.24148521
87	0xbe8f5931	-0.27997735
88	0x3d30db4a	0.04317788
89	0x3e4c518b	0.19952981
90	0x3deddc20	0.11614251
91	0xbe8be69a	-0.27324373
92	0x3e3c474a	0.1838657
93	0xbe95f46f	-0.2928805
94	0x3df0d4f7	0.1175937
95	0xbd0a8c68	-0.033825308
96	0xbe207df4	-0.15673047
97	0x3e88f9e4	0.2675315
98	0x3e27d600	0.16390228
99	0x3e68150b	0.22664277
100	0x3dd19f1d	0.102354266
101	0xbe31aab1	-0.1735027
102	0xbe734920	-0.23758364
103	0xbe8af3b9	-0.2713907
104	0x3cd83301	0.026391508
105	0x3d813a41	0.06309939
106	0x3e3ce906	0.18448266
107	0xbdff6334	-0.12470093
108	0x3d909063	0.070587896
109	0xbe7b907a	-0.24566832
110	0xbddead86	-0.10872941
111	0x3e155949	0.14584841
112	0xbe9765b4	-0.2956978
113	0xbe5ed4f5	-0.21760924
114	0x3d5dff80	0.054198742
115	0xbe1dd098	-0.15411603
116	0x3e164d04	0.14677817
117	0xbde56c93	-0.112023495
118	0xbe27a736	-0.1637238
119	0x3e5c2c2d	0.21501227
120	0x3e455255	0.19269688
121	0xbe5288ce	-0.2056
122	0xbe594e46	-0.21221265
123	0xbd2f5cc5	-0.04281308
124	0xbe4da546	-0.20082578
125	0xbdcc7786	-0.09983735
126	0x3de127bc	0.10993907
127	0xbe2ba975	-0.16763861
128	0x3dc02c4e	0.093834504
129	0x3e04d87d	0.12973209
130	0xbe4278aa	-0.18991342
131	0xbe7b5e04	-0.24547583
132	0xbe5da367	-0.21644364
133	0xbe123109	-0.14276518
134	0xbe85f67a	-0.2616461
135	0x3dd097d4	0.10185209
136	0x3d8ca76f	0.06867873
137	0xbdcf28b8	-0.10115188
138	0xbe19def0	-0.1502645
139	0x3df68d29	0.12038643
140	0xbe702286	-0.2345067
141	0x3dc6ef48	0.09713608
142	0x3e18991d	0.14902158
143	0xbe5b1ea1	-0.21398403
144	0x3db32f73	0.087492846
145	0x3e1eee15	0.15520509
146	0xbdaf102a	-0.08548005
147	0xbe9a0a95	-0.30086198
148	0x3de93b62	0.113882795
149	0xbe6516fc	-0.22372049
150	0xbe7c22a6	-0.24622592
151	0xbe83d638	-0.25749373
152	0x3d0637f5	0.03276821
153	0x3d8c2a1b	0.068439685
154	0x3e3fa7f6	0.18716416
155	0xbe7d21d7	-0.2471994
156	0x3e254dc2	0.16142944
157	0xbe291a12	-0.16513851
158	0x3e56a0e3	0.20959811
159	0xbd650062	-0.05590857
160	0xbe278cd1	-0.16362311
161	0x3e0f6280	0.14002419
162	0x3c7a4cba	0.015277082
163	0x3e3645bf	0.17800044
164	0xbca4cec3	-0.020118123
165	0xbe75b6bc	-0.23995489
166	0xbe1d4c12	-0.1536105
167	0xbe784a99	-0.24247207
168	0x3dac0a22	0.0840037
169	0xbc305577	-0.010762564
170	0x3e3cedaf	0.18450044
171	0xbe3df3ea	-0.18550077
172	0x3dec7694	0.115460545
173	0xbe87c106	-0.26514453
174	0xbda247c5	-0.07923845
175	0xbd695eb5	-0.056975085
176	0xbdcc0b49	-0.0996309
177	0xbe20286e	-0.15640423
178	0x3e1778a2	0.14792112
179	0xbe66cb58	-0.22538507
180	0x3e358d76	0.17729744
181	0xbe6f064f	-0.2334225
182	0xbe55c5e9	-0.20876278
183	0x3e6207e8	0.22073328
184	0x3da7cdef	0.081935756
185	0xbe9acada	-0.30232888
186	0xbe9f645a	-0.3113125
187	0x3d89adf4	0.06722632
188	0xbe434a4b	-0.1907131
189	0xbe420279	-0.18946256
190	0x3da8884c	0.082291216
191	0xbe376273	-0.17908649
192	0xbe5877f8	-0.21139514
193	0xbe124aef	-0.14286397
194	0x3da9b773	0.08286943
195	0x3e2ac966	0.1667839
196	0x3e6bc235	0.23023303
197	0x3e5846eb	0.21120803
198	0x3e44849b	0.1919121
199	0xbe25ccd0	-0.16191411
200	0xbd6285d7	-0.05530342
201	0x3e7e9457	0.24861275
202	0x3e0cdfa4	0.13757187
203	0xbe189da7	-0.1490389
204	0x3e5a6c88	0.21330464
205	0xbe06d4df	-0.13167141
206	0xbe6288cf	-0.22122501
207	0x3e2177e7	0.15768395
208	0xbe3a45f2	-0.18190745
209	0xbd43d03c	-0.04780601
210	0x3e09589f	0.13412713
211	0x3e65525b	0.22394697
212	0xbe1fc8e6	-0.1560398
213	0x3e5ff2b2	0.21869925
214	0x3e218281	0.1577244
215	0x3e445d1e	0.19176146
216	0xbb7a6d90	-0.0038212277
217	0xbd66f57c	-0.056386456
218	0xbe10ebf6	-0.14152512
219	0x3da052fc	0.07828328
220	0xbd75f9e2	-0.06005276
221	0x3e961b3c	0.29317653
222	0xbdc1c0b2	-0.09460582
223	0xbe00d860	-0.1258254
224	0x3e2ea956	0.17056784
225	0xbe333dea	-0.17504087
226	0xbe3f0e09	-0.18657698
227	0xbe26dc8f	-0.16295074
228	0xbe02780e	-0.1274111
229	0x3e37c59c	0.17946476
230	0x3e04e6e1	0.12978698
231	0x3e24c076	0.16089043
232	0xbd169736	-0.0367653
233	0xbe22d6c5	-0.1590224
234	0xbdfd1bd0	-0.123588204
235	0x3e53c246	0.20679578
236	0xbdb7e25a	-0.0897872
237	0x3e6bef99	0.23040618
238	0x3dfcb2ee	0.12338816
239	0xbd67bca3	-0.056576382
240	0x3d438594	0.047734812
241	0x3de9bc1c	0.11412832
242	0xbe0f120b	-0.13971727
243	0x3e178be7	0.14799462
244	0xbde9caf7	-0.114156656
245	0x3e5ec9a8	0.21756613
246	0x3e835165	0.25648037
247	0xbe30f917	-0.1728252
248	0xbe307859	-0.17233409
249	0x3e45eb34	0.19328004
250	0x3de12b0f	0.10994541
251	0xbd1ae89a	-0.037819482
252	0x3d2bab3e	0.041911356
253	0x3e7fac2e	0.24968025
254	0xbdd27e84	-0.10278037
255	0x3df883da	0.12134524

fc.0.bias f4 [32]
0	0xbc2924ca	-0.010323713
1	0xbdc58cd8	-0.096460044
2	0xbdd6379d	-0.10459826
3	0x3d891fc7	0.06695514
4	0x3cb5fe9b	0.022216132
5	0xbd96c72e	-0.07362209
6	0x3d1e4412	0.038639136
7	0xbcb06a26	-0.02153499
8	0xbdde1b4f	-0.108450525
9	0xbcf57b9a	-0.029966164
10	0xbd19562f	-0.037435707
11	0x3ca1ba08	0.019742027
12	0x3d9044f9	0.070444055
13	0xbd19bc4a	-0.037533082
14	0xbd42cb47	-0.04755714
15	0x3ca0158f	0.01954153
16	0x3d4a8f99	0.04945335
17	0xbd2be427	-0.04196563
18	0xbd54b860	-0.051933646
19	0x3c657ecc	0.0140072815
20	0x3c396036	0.011314442
21	0x3dbf64f1	0.09345425
22	0x3d925a9e	0.0714619
23	0xbcbf4a99	-0.023351
24	0xbd1b6cf9	-0.03794572
25	0x3da18ea5	0.078885354
26	0x3d8be873	0.068314455
27	0x3d121b8b	0.0356708
28	0x3dc6c71d	0.097059466
29	0x3d68b847	0.056816366
30	0xbcd5884b	-0.026065966
31	0x3d6898f3	0.05678649

fc.3.weight f4 [1, 32]
0	0xbe764307	-0.24049006
1	0xbe9396fe	-0.28826135
2	0xbe9d1625	-0.30680957
3	0x3f068f99	0.5256286
4	0x3ef61f9e	0.48070997
5	0xbe874817	-0.26422188
6	0x3eac9653	0.33708438
7	0x3f0135a6	0.50472486
8	0xbe87e8b3	-0.26544723
9	0xbe97a5c3	-0.29618654
10	0x3efcff89	0.49413708
11	0xbe825b55	-0.25460306
12	0xbeaa655d	-0.3328046
13	0xbe5813b1	-0.21101262
14	0xbe6b60d0	-0.2298615
15	0xbe72acc6	-0.2369872
16	0xbe82dc79	-0.25558832
17	0x3edfd9ae	0.43720764
18	0xbeaea3a4	-0.34109223
19	0xbe8bf10c	-0.27332342
20	0x3ec9950b	0.39371523
21	0x3ef42dac	0.47691095
22	0x3ef18bee	0.4717707
23	0x3f030129	0.51173645
24	0xbe988855	-0.29791513
25	0xbea33767	-0.31878206
26	0x3ecdefe9	0.402221
27	0xbe92d673	-0.28679237
28	0x3ee6c8df	0.45075127
29	0xbe7e5e05	-0.24840553
30	0xbea31845	-0.31854454
31	0xbe8e0a89	-0.27742413
