5 第五讲 机器学习训练模型的数学范式v16/models/model70.pth (torch, 112459 bytes, 21 tensors)

conv1.0.weight f4 [16, 3, 3, 3]
0	0xbc50ad71	-0.012736664
1	0xbded0b09	-0.115743704
2	0x3e1a73ad	0.1508319
3	0xbd5a1268	-0.05324021
4	0xbe074411	-0.13209559
5	0xbe2aee5d	-0.16692491
6	0x3d2c6dc9	0.042096887
7	0xbe21bf87	-0.15795718
8	0x3dca5b55	0.098807015
9	0x3d912ef1	0.070890315
10	0x3e41a64c	0.18911093
11	0xbe079d45	-0.13243587
12	0x3cfe45fc	0.03103923
13	0x3d1034fb	0.035206776
14	0x3cdb6ea0	0.026786149
15	0x3dd47e75	0.10375682
16	0x375abdbb	1.3037988e-05
17	0xbd804cdf	-0.06264662
18	0x3e12f331	0.14350583
19	0xbdf9b02f	-0.121918075
20	0xbe1b313c	-0.151555
21	0x3dce989e	0.10087703
22	0xbd5fd557	-0.054646816
23	0x3e1df51a	0.1542553
24	0xbe0236e0	-0.12716246
25	0x3e18e6bf	0.14931773
26	0x3d274a07	0.040842082
27	0xbd44c90b	-0.048043292
28	0x3e0e7b82	0.13914302
29	0xbd92d406	-0.071693465
30	0xbaa1856c	-0.0012323088
31	0xbd9a034f	-0.07520162
32	0x3da877fd	0.08226011
33	0x3d62b04d	0.055343915
34	0x3e1488ef	0.14505361
35	0xbdcbe1ec	-0.099552006
36	0x3d1c79c6	0.03820207
37	0xbc07a579	-0.008279198
38	0x3e1f7948	0.15573609
39	0xbe1b7302	-0.15180591
40	0xbd88231c	-0.066473216
41	0x3e22677d	0.1585979
42	0x3d7c49f1	0.061593954
43	0xbd6246d9	-0.055243347
44	0x3d95685d	0.07295296
45	0x3d4e70a9	0.05040041
46	0xbd895f3a	-0.06707616
47	0xbe2241b6	-0.15845379
48	0xbe38a513	-0.18031721
49	0x3dcc746e	0.09983145
50	0xbcae095f	-0.021244703
51	0x3d9c3449	0.0762716
52	0xbe2835b0	-0.1642673
53	0x3e25d37f	0.1619396
54	0x3d96de4e	0.0736662
55	0xbc4f3ee8	-0.012649275
56	0xbdb294cb	-0.08719786
57	0xbcbf390f	-0.023342637
58	0xbe0b8ac0	-0.13627148
59	0xbe2b6eb8	-0.16741455
60	0xbd8f8830	-0.070083976
61	0x3de2257e	0.11042307
62	0xbe2d3ece	-0.1691849
63	0x3e1fb22e	0.15595314
64	0x3dc34597	0.095347576
65	0xbe1409d7	-0.14456879
66	0x3e2c2315	0.16810258
67	0x3d5807fe	0.052741997
68	0xbd090c70	-0.033459127
69	0x3cc00704	0.023440845
70	0x3d2d04e8	0.042241007
71	0x3e02af89	0.12762274
72	0x3e436c4b	0.19084279
73	0x3d264788	0.04059556
74	0xbce9f8cb	-0.028561017
75	0x3c8a7895	0.016903201
76	0x3d205e4a	0.03915242
77	0xbda00256	-0.078129455
78	0xbda32ddd	-0.07967732
79	0xbe4ac667	-0.19802247
80	0x3e3aaae6	0.18229255
81	0xbd9464af	-0.07245766
82	0xbc54e45e	-0.0129939
83	0xbe1f4af8	-0.15555942
84	0x3800783c	3.0629555e-05
85	0x3e2a5f83	0.16637997
86	0xbe1b318f	-0.15155624
87	0x3dda71ad	0.10666213
88	0x3e423783	0.18966489
89	0xbe35c115	-0.17749436
90	0x3b88a6c9	0.004170273
91	0x3d201316	0.0390807
92	0x3c9e2e02	0.019309048
93	0x3c714bba	0.014727527
94	0x3e2e538e	0.17024061
95	0x3e2fbe13	0.17162351
96	0x3cccd0f1	0.025001975
97	0x3d92cbaf	0.07167756
98	0xbd904ad7	-0.070455246
99	0xbdb36b39	-0.087606855
100	0xbd9a02c7	-0.07520061
101	0x3e1761c6	0.14783391
102	0x3e47b6ae	0.1950328
103	0x3e15b9e4	0.14621693
104	0x3d22207e	0.03958177
105	0x3dcc51da	0.099765494
106	0xbd93906b	-0.0720528
107	0xbca739bb	-0.02041327
108	0xbe3eec49	-0.18644823
109	0x3d6486ff	0.055792805
110	0xbded0160	-0.11572528
111	0x3e23e8f4	0.16006833
112	0x3c37c759	0.011216962
113	0x3dcbdd7a	0.09954353
114	0xbd4702ed	-0.048586775
115	0x3d30d9b2	0.04317636
116	0xbe30a705	-0.17251213
117	0xbe3c8958	-0.18411767
118	0xbddb8ab3	-0.10719814
119	0x3e4cc1dd	0.19995828
120	0x3da7b9c7	0.08189731
121	0x3dd6e41b	0.104927264
122	0x3e4c0c90	0.19926667
123	0x3db8a6b3	0.0901617
124	0x3db2865e	0.08717035
125	0xbd628a2a	-0.055307545
126	0xbdee7d8e	-0.116450414
127	0x3dd55ead	0.104184486
128	0x3e1f4e53	0.15557222
129	0xbe2dfa97	-0.16990124
130	0x3d5e189c	0.054222688
131	0xbd4f291c	-0.050576314
132	0x3e266270	0.16248488
133	0xbd1d053a	-0.038335063
134	0xbd359eda	-0.044340946
135	0xbd1d654d	-0.038426686
136	0xbd707a52	-0.058710404
137	0x3e1c8935	0.15286715
138	0xbdbf697d	-0.09346292
139	0x3d3af12a	0.04564015
140	0x3b8104bf	0.0039373334
141	0x3e0c5e81	0.13707925
142	0x3db11a46	0.086475894
143	0xbe129924	-0.14316231
144	0xbc2b6a35	-0.010462333
145	0x3aa7691a	0.0012772412
146	0xbd05b278	-0.032640904
147	0x3e231e61	0.15929557
148	0x3e479b67	0.19492875
149	0xbe0b6fd6	-0.13616881
150	0xbd609e43	-0.05483843
151	0x3e44effe	0.19232175
152	0x3d4e5d4b	0.05038194
153	0xbda02240	-0.07819033
154	0x3dd6fc98	0.10497397
155	0xbd28738c	-0.04112582
156	0xbdb82fa1	-0.089934595
157	0xbe4f5dbd	-0.20250602
158	0x3de55c2b	0.1119922
159	0xbd8143ce	-0.06311761
160	0xbe1d3aa8	-0.15354407
161	0xbe1c1296	-0.15241465
162	0xbd00819c	-0.031373605
163	0x3e050835	0.12991412
164	0x3ddd9116	0.108186886
165	0x3dfed6b0	0.12443292
166	0xbd98b625	-0.07456616
167	0xbe19699c	-0.14981693
168	0xbd135020	-0.035965085
169	0xbdaeafb1	-0.08529604
170	0x3d9a3a55	0.07530657
171	0x3e019b6f	0.1265695
172	0xbd6ed714	-0.058310583
173	0xbe470bae	-0.19438049
174	0x3e221b93	0.15830831
175	0x3d80ee73	0.062954806
176	0xbdf4031c	-0.119146556
177	0xbd68ad62	-0.056805976
178	0xbcee8579	-0.02911638
179	0xbde72c2c	-0.11287722
180	0x3e2c2df7	0.16814409
181	0x3d621aa1	0.055201177
182	0xbe04b76f	-0.129606
183	0xbdee71e5	-0.116428174
184	0xbdb48f36	-0.08816378
185	0xbe45a40f	-0.19300865
186	0xbc7a8c86	-0.015292292
187	0xbd734f15	-0.05940159
188	0xbdda824d	-0.10669384
189	0x3ca5d000	0.020240784
190	0xbdc166e9	-0.09443457
191	0x3dd43f4d	0.10363636
192	0x3dcf006a	0.10107501
193	0xbd845011	-0.06460584
194	0xbdb75388	-0.08951479
195	0xbe483811	-0.19552638
196	0xbc9b8677	-0.018985016
197	0xbe267793	-0.16256551
198	0x3e38b7b6	0.1803883
199	0x3dd81978	0.10551733
200	0xbb056123	-0.0020352087
201	0xbc6450a5	-0.013935243
202	0xbc13d743	-0.00902349
203	0x3e3f0e2a	0.18657747
204	0xbcc4e8cc	-0.024036787
205	0x3d1342d7	0.035952415
206	0x3de9a723	0.11408832
207	0x3d75aa7f	0.05997705
208	0xbcecc6e8	-0.02890344
209	0x3defcd26	0.11709051
210	0xbe2b5587	-0.16731845
211	0x3c58a0eb	0.01322196
212	0xbe5b31d9	-0.21405734
213	0x3d9d7bf6	0.07689659
214	0x3dd6329a	0.1045887
215	0xbd83b647	-0.06431251
216	0xbe22b6d1	-0.15890051
217	0xbdba4bc1	-0.0909648
218	0x3cc2d040	0.023780942
219	0xbe125715	-0.14291032
220	0xbcaad148	-0.020851746
221	0xbdc293e5	-0.09500865
222	0xbdf55fc5	-0.11981157
223	0x3da0a48d	0.078438856
224	0xbe087c55	-0.13328679
225	0x3da5c1cb	0.08093604
226	0xbdfce17b	-0.123476945
227	0xbbc8321c	-0.006109489
228	0x3e342a86	0.17594346
229	0xbe005d50	-0.12535596
230	0xbde93191	-0.11386407
231	0x3da3ad4a	0.07992037
232	0x3d7842bb	0.060610514
233	0xbe01e77f	-0.12685965
234	0x3db1586e	0.08659445
235	0xbe1a4d42	-0.15068534
236	0xbe46dfdc	-0.19421333
237	0xbd916818	-0.070999324
238	0x3e227085	0.15863235
239	0x3d0e358e	0.034719042
240	0x3e0b5312	0.13605908
241	0x3d0a713b	0.03379939
242	0xbcf58924	-0.02997262
243	0x3e3cb3f7	0.18428026
244	0x3dba1462	0.09085919
245	0x3d7976a7	0.06090417
246	0xbe1d255c	-0.15346283
247	0xbdfc6179	-0.12323279
248	0x3e0fb761	0.14034797
249	0x3e4778c1	0.19479658
250	0x3d598700	0.05310726
251	0x3dab2629	0.08356888
252	0xbe171c68	-0.1475693
253	0xbd6fa424	-0.058506146
254	0xbd27f9b0	-0.041009605
255	0xbdc40b3b	-0.095724545

conv1.0.bias f4 [16]
0	0x3db657b1	0.089034446
1	0x3e0792b9	0.13239564
2	0x3dadf04a	0.08493097
3	0x3d6ab3c5	0.057300348
4	0xbe3dd505	-0.18538292
5	0xbab690b5	-0.0013928624
6	0x3e029002	0.12750247
7	0x3d0717c8	0.032981664
8	0xbe5446c9	-0.20730127
9	0x3c82c4c4	0.015962966
10	0x3e255fd3	0.16149835
11	0xbe05d12d	-0.13068075
12	0x3e2396fe	0.15975568
13	0xbe2705af	-0.16310762
14	0xbbd3f71d	-0.006468667
15	0x3e592c9b	0.21208422

conv1.3.weight f4 [16]
0	0x3f784749	0.9698377
1	0x3f7bce84	0.9836199
2	0x3f8372e2	1.0269434
3	0x3f6cecac	0.9254863
4	0x3f832c97	1.0247983
5	0x3f822b80	1.0169525
6	0x3f80c9e8	1.0061617
7	0x3f716925	0.9430106
8	0x3f74aeb2	0.95579064
9	0x3f853fb8	1.041007
10	0x3f736326	0.95073164
11	0x3f8d14d1	1.1021978
12	0x3f70a0a8	0.9399514
13	0x3f83b149	1.0288478
14	0x3f745245	0.95438033
15	0x3f7c2636	0.98495805

conv1.3.bias f4 [16]
0	0xbb9b7462	-0.0047440985
1	0x3e00235a	0.12513486
2	0xbc13a929	-0.009012499
3	0x3ca4ea16	0.020131152
4	0x3db6f549	0.08933503
5	0xbd444e76	-0.04792639
6	0x3d9b6b2e	0.07588802
7	0x3c3162c2	0.010826768
8	0x3e1be1ff	0.1522293
9	0x3d229aec	0.039698526
10	0xbdcabd9b	-0.098994456
11	0x3c12dadf	0.008963316
12	0xbc381677	-0.011235825
13	0x3d5705bb	0.0524957
14	0x3c097009	0.008388528
15	0xbd9e5561	-0.077311285

conv1.3.running_mean f4 [16]
0	0x3dc83db2	0.097773924
1	0x3e567e97	0.20946728
2	0x3df321e1	0.11871696
3	0x3eb3c022	0.35107523
4	0x3cf8e94c	0.030384682
5	0x3c6943d3	0.014237362
6	0x3cb27b4b	0.021787306
7	0x3d935b1c	0.07195112
8	0x36e8d287	6.9386474e-06
9	0x3d237faf	0.03991669
10	0x3eb7d40f	0.35903975
11	0x3c529744	0.012853447
12	0x3e3c7ea8	0.1840769
13	0x3c6bc946	0.014391249
14	0x3db6f3c8	0.08933216
15	0x3e188ed9	0.14898242

conv1.3.running_var f4 [16]
0	0x3abbf081	0.0014338644
1	0x3b1bf997	0.002379989
2	0x3b629ab5	0.0034577076
3	0x3d0d02e4	0.034426585
4	0x3b2d1f08	0.00264162
5	0x3a6e9f37	0.00091027044
6	0x3af7d27d	0.0018907335
7	0x3afe09e8	0.0019381614
8	0x3519f720	5.7356556e-07
9	0x3b1a2a20	0.0023523644
10	0x3cbc800a	0.023010273
11	0x3a8c1d0f	0.0010689812
12	0x3ab3a58c	0.0013705953
13	0x3a848a40	0.0010112002
14	0x3bd1cd21	0.006402627
15	0x3b22ddc3	0.0024851419

conv2.0.weight f4 [32, 16, 3, 3]
0	0xbc4d5d31	-0.012534426
1	0xbd1440c4	-0.036194578
2	0xbc4cac48	-0.012492247
3	0xbc1a9618	-0.009435199
4	0x3d765bfe	0.060146324
5	0x3c8abbaa	0.016935188
6	0x3d48262d	0.048864532
7	0xbca29674	-0.019847132
8	0xbc284c5e	-0.010272114
9	0xbd28c93e	-0.041207545
10	0xbdb26f21	-0.087126024
11	0xbd51560d	-0.051107455
12	0xbc696871	-0.014246092
13	0x3d0adb49	0.033900533
14	0xbd0c1a95	-0.034205038
15	0xbce44ba3	-0.027868098
16	0xbd3efb0b	-0.046626132
17	0x3d3ad5ef	0.04561418
18	0x3dbd79a3	0.09251716
19	0xbd0c0ea0	-0.034193635
20	0xbdc2f07a	-0.095185235
21	0x3d954d6c	0.07290158
22	0x3d6e1ed4	0.05813487
23	0xbd966332	-0.07343139
24	0xbd8be34c	-0.06830463
25	0xbd5198ed	-0.051171232
26	0xbd91f927	-0.071276
27	0x3db8f493	0.09031024
28	0x3d474ac3	0.048655283
29	0xbd70e75d	-0.058814395
30	0xbbd20b57	-0.006410043
31	0x3d814c9e	0.06313442
32	0xbcc29c6d	-0.02375623
33	0x3d093524	0.033497944
34	0x3bedce5f	0.0072572674
35	0x3d1d6918	0.038430303
36	0x3d146903	0.03623296
37	0x3d1330f5	0.03593536
38	0xbd0c30bb	-0.03422616
39	0xbde7d9b9	-0.11320824
40	0xbc96de4c	-0.018416546
41	0x3be58895	0.0070048072
42	0xbd69ea64	-0.057108298
43	0xbd60acf6	-0.05485245
44	0x3c72946e	0.014805896
45	0x3cb792b6	0.022408824
46	0x3d9488fd	0.07252691
47	0x3db65e74	0.08904734
48	0xbd2648f7	-0.04059693
49	0x3d86c166	0.065798566
50	0x3d38e32f	0.045138534
51	0x3dbdf16e	0.09274565
52	0x3dd6a918	0.10481471
53	0x3d98e960	0.07466388
54	0x3d76d79d	0.06026422
55	0x3ca6b444	0.02034963
56	0xbd09f133	-0.03367729
57	0xbd0974f1	-0.03355879
58	0x3d3b8af4	0.045786813
59	0xbc91b3d1	-0.017785938
60	0x3d41fe6a	0.04736177
61	0x3d1ecf94	0.03877218
62	0x3d82b8d6	0.06382911
63	0x3d71f5b0	0.059072196
64	0xbd83fdb2	-0.06444873
65	0xbd011f5a	-0.03152404
66	0x3d899b98	0.0671913
67	0x3d72fbf9	0.05932233
68	0xbd49f5d8	-0.04930672
69	0x3d1f0d97	0.03883132
70	0xbd870890	-0.0659343
71	0xbd39ca43	-0.045358907
72	0xbd0782f9	-0.03308389
73	0xbe1712f7	-0.14753328
74	0xbd858d1f	-0.06521057
75	0xbe118dba	-0.1421422
76	0xbe37c5e7	-0.17946588
77	0xbe09728f	-0.13422607
78	0xbdee577a	-0.116377786
79	0xbd8fe959	-0.070269294
80	0xbe2483c6	-0.16065893
81	0xbe0cda1b	-0.13755076
82	0xbd7d17cc	-0.061790273
83	0x3d04f7cc	0.03246288
84	0xbd983cba	-0.07433458
85	0x3acbbce8	0.0015543969
86	0x3d15d02b	0.036575478
87	0xbdf05236	-0.117344305
88	0xbdf7f952	-0.12108101
89	0x3d0f069e	0.03491842
90	0x3da373f0	0.07981098
91	0xbc72b2ba	-0.01481312
92	0xbc27ea0b	-0.010248671
93	0xbd5c315a	-0.053758003
94	0x3cd089a8	0.025456265
95	0xbcda6b40	-0.026662469
96	0x3db7f18b	0.089816175
97	0x3d3087c3	0.043098222
98	0x3cd75a7b	0.026288262
99	0x3aba21d2	0.0014200753
100	0x3ab0229b	0.0013438048
101	0x3d6cc125	0.057801384
102	0xbda54fd5	-0.080718674
103	0xbdb86d34	-0.09005204
104	0xbde72c4c	-0.11287746
105	0xbca163c9	-0.019700902
106	0x3d8b838c	0.068122
107	0x3d475927	0.048669007
108	0x3d5da203	0.054109585
109	0xbc93b56a	-0.01803084
110	0x3d47672c	0.048682377
111	0x3d3edaa6	0.04659524
112	0xb9d249f9	-0.00040109435
113	0x3bbc3181	0.005743206
114	0xbd1554db	-0.036457878
115	0x3cc06a47	0.023488177
116	0xbd77e022	-0.060516484
117	0x3d5d332c	0.05400388
118	0xbd9a8a99	-0.07545967
119	0xbdf5a675	-0.1199464
120	0xbd2be99e	-0.04197084
121	0xbd950d5f	-0.07277941
122	0xbcbc0fbb	-0.02295672
123	0xbe144b31	-0.14481808
124	0xbd6b3ffd	-0.05743407
125	0x3d3dca2c	0.046335384
126	0x3cb59171	0.022164078
127	0xbd5f8237	-0.054567542
128	0xbcfbc22d	-0.030732239
129	0xbd0c0aa2	-0.034189828
130	0xbd812923	-0.06306674
131	0xbd8ce993	-0.06880488
132	0xbd1c23de	-0.038120143
133	0x3cea139e	0.028573807
134	0x3cc545eb	0.024081191
135	0xbd31c25d	-0.04339825
136	0x3b927217	0.004469167
137	0x3cea9809	0.02863695
138	0x3c0e8d74	0.008700717
139	0xbd844dbb	-0.064601384
140	0xbd2c7a5f	-0.04210889
141	0x3d467977	0.04845568
142	0x3d8d94b5	0.06913129
143	0x3c3b0a2c	0.011415999
144	0x3d1a7c62	0.037716277
145	0xbcb356bd	-0.021891946
146	0x3ce558a2	0.027996365
147	0x3dafe352	0.0858828
148	0x3c8f624e	0.01750293
149	0xbd5f1f5e	-0.054473273
150	0x3cb33dd9	0.021880077
151	0x3d4c1a73	0.04982991
152	0x3d855e75	0.06512157
153	0xbd258258	-0.04040751
154	0x3c64fe7e	0.013976691
155	0xbd533e06	-0.051572822
156	0xbd9cc2ea	-0.076543644
157	0x3cd65be1	0.026166858
158	0xbdf00085	-0.11718849
159	0x3ca38ddc	0.019965105
160	0xbc021179	-0.007938736
161	0xbcf6219b	-0.030045321
162	0x3d1b4c15	0.037914354
163	0x3dba4478	0.09095091
164	0x3d920175	0.07129184
165	0x3de3866e	0.11109625
166	0xbd41b26b	-0.047289293
167	0x3d26e0e7	0.040741827
168	0x3dcbf204	0.0995827
169	0xbb579713	-0.0032896444
170	0x3dbefd63	0.093256734
171	0x3d8c754c	0.0685831
172	0x3b5cbd9c	0.0033682352
173	0xbc2cdcd4	-0.010550696
174	0xbbda0c6a	-0.006654312
175	0xbca93be3	-0.020658439
176	0x3da59331	0.08084715
177	0x3d3af530	0.045643985
178	0xbcc7238d	-0.024308944
179	0x3db8a80e	0.09016429
180	0x3d0b5a74	0.03402181
181	0x3ce37888	0.027767435
182	0xbd3f0058	-0.046631187
183	0x3d370992	0.04468686
184	0x3d5873d3	0.052844834
185	0x3d50d458	0.050983757
186	0x3d80487b	0.062638246
187	0xba879a2b	-0.0010345628
188	0x3d661ba2	0.056178696
189	0xbb4b3f65	-0.0031013128
190	0xbdaf0b0c	-0.08547029
191	0xbb8f2ae6	-0.0043691276
192	0xbd925ad1	-0.07146228
193	0xbe0abc32	-0.13548353
194	0xbdb6017e	-0.08887003
195	0x3c2e1085	0.010624056
196	0xbd251004	-0.040298477
197	0xbda3c5c4	-0.07996705
198	0xbd0b05d3	-0.0339411
199	0xbd06d64b	-0.03291921
200	0x3d84d9ee	0.06486879
201	0x3dd2c222	0.10290934
202	0x3cfa358c	0.030543111
203	0x3d8996f8	0.06718248
204	0x3cb94fb7	0.022621019
205	0xbd8be7b7	-0.068313055
206	0x3d7cf88a	0.061760463
207	0xbd468a29	-0.048471604
208	0x3d8f15f6	0.069866106
209	0x3d34217a	0.04397724
210	0xbd370cab	-0.044689815
211	0xbd77f486	-0.06053593
212	0xbd5be719	-0.05368719
213	0xb96b7411	-0.00022454585
214	0xbdb70719	-0.08936901
215	0x3c5f9aa4	0.013647709
216	0x3cc3283d	0.023822898
217	0xbd2595d6	-0.040426098
218	0x3d36f2d4	0.044665173
219	0xbdc1ea57	-0.09468525
220	0x3ccca3b3	0.024980402
221	0xbc981527	-0.018564774
222	0xbcada305	-0.021195898
223	0xbdb5d419	-0.08878345
224	0xbd684d24	-0.056714192
225	0x3d1044b0	0.035221756
226	0xbdaff8ee	-0.085924014
227	0xbd83edcc	-0.064418405
228	0x3d3dfca3	0.04638351
229	0xbbcad38b	-0.0061897687
230	0xbd9d5a46	-0.07683234
231	0x3db7f548	0.089823306
232	0xbcbcec14	-0.02306179
233	0xbca8dfd7	-0.020614548
234	0x3d232c0b	0.039836925
235	0xbcca455c	-0.024691276
236	0x3dcc197d	0.09965799
237	0x3ddface6	0.1092165
238	0x3dee292f	0.11628949
239	0x3a8c9cee	0.0010727921
240	0x3c4a6b99	0.012354755
241	0x3e01385d	0.12619157
242	0x3d835a7f	0.06413745
243	0x3cbb829d	0.02288943
244	0x3d51b4fa	0.051197983
245	0x3da20f5e	0.07913087
246	0xbd72b505	-0.059254665
247	0xbbda4b78	-0.0066618286
248	0xbc75628a	-0.014977107
249	0x3cefc478	0.029268488
250	0x3cca5e4a	0.024703164
251	0x3d15d2d9	0.036578033
252	0x3d89edd7	0.067348175
253	0x3d289fdd	0.041168083
254	0x3d364f2e	0.044509105
255	0x3d40fe2b	0.047117393

conv2.0.bias f4 [32]
0	0xbd9af8f5	-0.07567016
1	0xbd90a8f5	-0.07063476
2	0xbdc6cabd	-0.09706638
3	0x3d9cf39c	0.07663652
4	0xbdbcdf8e	-0.09222327
5	0xbd81aa99	-0.06331367
6	0x3d9e1a8f	0.077199094
7	0x3c550e9f	0.013003974
8	0xbdc73b54	-0.09728113
9	0x3c52b7c8	0.0128612
10	0x3cb1126f	0.021615235
11	0xbe09d99f	-0.13461922
12	0xbc720fd1	-0.014774279
13	0xbdc68354	-0.096930176
14	0xbe68ad68	-0.22722399
15	0xbcbfa127	-0.023392273
16	0xbd681353	-0.056659054
17	0xbc8d9e7a	-0.017287482
18	0xbd9da306	-0.0769711
19	0x3da2b830	0.07945287
20	0x3b9a1ab9	0.0047028926
21	0xbdd54b8c	-0.104148
22	0xbd8b360d	-0.06797419
23	0xbd9062d8	-0.07050103
24	0x3ca0e214	0.019639052
25	0xbe17dcf0	-0.14830375
26	0xbdd6ab2e	-0.10481869
27	0x3ca0e954	0.01964251
28	0xbdf1fe50	-0.118160844
29	0xbdf3a2a2	-0.11896254
30	0xbdf6ee64	-0.12057188
31	0xbdc27454	-0.09494844

conv2.3.weight f4 [32]
0	0x3f82b4ac	1.0211387
1	0x3f730078	0.9492259
2	0x3f829234	1.0200868
3	0x3f6ff4fb	0.93733186
4	0x3f7bc62f	0.9834928
5	0x3f77b16e	0.9675511
6	0x3f6f8606	0.9356388
7	0x3f817166	1.0112731
8	0x3f7bde81	0.9838639
9	0x3f81cdd7	1.0140942
10	0x3f7f6137	0.99757713
11	0x3f7af533	0.98030394
12	0x3f831b20	1.0242653
13	0x3f8036ff	1.0016783
14	0x3f843108	1.0327463
15	0x3f81bd43	1.0135883
16	0x3f5d6d0f	0.86494535
17	0x3f6e6f20	0.93138313
18	0x3f80f75d	1.0075489
19	0x3f75f0a3	0.9607031
20	0x3f77255b	0.96541375
21	0x3f6f0d10	0.93379307
22	0x3f81f654	1.0153298
23	0x3f836ffa	1.0268548
24	0x3f80dce0	1.0067406
25	0x3f834ec5	1.0258414
26	0x3f81ec9e	1.0150335
27	0x3f6bf673	0.92172927
28	0x3f7147b7	0.94250053
29	0x3f7ca053	0.98682135
30	0x3f75ae21	0.95968825
31	0x3f727a4c	0.9471786

conv2.3.bias f4 [32]
0	0x3a4d7801	0.00078380114
1	0x3e96b521	0.29435065
2	0x3ced89a9	0.028996306
3	0xbdecd889	-0.11564738
4	0x3de90776	0.11378376
5	0xbdd39e5a	-0.103329375
6	0x3ebe8062	0.37207323
7	0x3c9080aa	0.017639477
8	0xbd56ee68	-0.052473456
9	0x3e449e3b	0.19200985
10	0xbd8f4b87	-0.069968276
11	0x3ed2c81b	0.41168293
12	0xbe06b33c	-0.1315431
13	0x3e0f36ff	0.13985823
14	0x3e8edfb1	0.27905038
15	0xbdd5a466	-0.10431747
16	0x3e0acdac	0.1355502
17	0x3c660cbc	0.014041122
18	0xbcff0846	-0.031131875
19	0xbd95644b	-0.0729452
20	0x3e085027	0.13311826
21	0x3e1d7373	0.15376072
22	0x3e8c68a2	0.27423579
23	0x3dcf023e	0.101078495
24	0x3e731695	0.23739083
25	0x3e8aae71	0.27086213
26	0xbda32194	-0.07965389
27	0xbdd46364	-0.1037052
28	0x3e90dc15	0.2829291
29	0x3e491b85	0.19639404
30	0x3e56cc67	0.20976411
31	0x3ea2d064	0.31799614

conv2.3.running_mean f4 [32]
0	0x3e48e815	0.19619782
1	0x3f377dcf	0.71676344
2	0x3e528a77	0.20560633
3	0x3f56bafe	0.8387908
4	0x3eb14369	0.34621742
5	0x3e617d67	0.22020493
6	0x3edd10be	0.43176836
7	0x3ea08384	0.31350338
8	0x3eb8115c	0.35950744
9	0x3f1de095	0.6167081
10	0x3e4c647f	0.19960211
11	0x3e44358f	0.19161056
12	0x3ef4a18f	0.4777951
13	0x3ee61c8e	0.4494366
14	0x3dced5f0	0.10099399
15	0x3e8d742f	0.27627704
16	0x3f3ee9b7	0.7457537
17	0x3f028cdb	0.5099618
18	0x3e68005d	0.22656389
19	0x3f0b9804	0.5452883
20	0x3ed97890	0.42474794
21	0x3ede0019	0.4335945
22	0x3f11cd32	0.5695373
23	0x3e698725	0.2280546
24	0x3f0f3e77	0.5595469
25	0x3e71653d	0.23573776
26	0x3ea71ea3	0.3264056
27	0x3e8e293d	0.27765837
28	0x3e186e3a	0.14885798
29	0x3eccb0ed	0.39978734
30	0x3ed0ccee	0.4078135
31	0x3e75f913	0.24020796

conv2.3.running_var f4 [32]
0	0x3daad116	0.08340661
1	0x3fb3faa1	1.4060861
2	0x3dcce999	0.10005493
3	0x3f7a67ee	0.97814834
4	0x3eaa7c5e	0.3329801
5	0x3d9df95f	0.077135794
6	0x3e28c2a6	0.16480502
7	0x3e964644	0.29350483
8	0x3ecb2868	0.39679265
9	0x3e99668f	0.29961058
10	0x3def20c8	0.116761744
11	0x3dc9755a	0.09836836
12	0x3e844725	0.2583553
13	0x3f3d261a	0.73886263
14	0x3ded7d09	0.11596114
15	0x3e1921c3	0.14954285
16	0x3f9d2265	1.2276121
17	0x3f085798	0.5325866
18	0x3e3302a1	0.17481472
19	0x3ed72a51	0.42024472
20	0x3e4dc7dd	0.20095773
21	0x3f23ee9b	0.6403596
22	0x3f38f78d	0.7225273
23	0x3e0e5992	0.13901356
24	0x3f018d6d	0.50606424
25	0x3e1b17dd	0.15145822
26	0x3e218d2a	0.15776506
27	0x3dcc7f94	0.09985271
28	0x3e1e0d27	0.15434705
29	0x3f161fea	0.58642447
30	0x3ec91f9b	0.39281926
31	0x3dde6889	0.10859782

conv3.0.weight f4 [64, 32, 3, 3]
0	0xbcc655bb	-0.024210801
1	0xbcd50ceb	-0.026007136
2	0xbd51fcb6	-0.051266395
3	0xbd10191a	-0.03518019
4	0xbd11881e	-0.035530202
5	0xbd79dbbc	-0.06100057
6	0xbd83dd8d	-0.06438742
7	0xbbdcd8df	-0.0067397202
8	0xbe00ff4a	-0.12597385
9	0xbd389522	-0.0450641
10	0x3d35631a	0.044283964
11	0x3b84ae30	0.004049085
12	0xbbd99220	-0.006639734
13	0xbd1a1ba9	-0.037624035
14	0xbc01ca6c	-0.007921796
15	0x3b953896	0.0045538647
16	0xbb8b7d41	-0.004256875
17	0x3d896bcf	0.06710016
18	0xbcf7110f	-0.030159501
19	0xbcdf3c46	-0.02725042
20	0xbdd7db0f	-0.10539829
21	0x3b8ac9c1	0.0042354767
22	0xbc3c2032	-0.011482285
23	0xbd0a650c	-0.033787772
24	0xbdbe83f7	-0.09302514
25	0xbbbdc679	-0.005791482
26	0xbd5f84d9	-0.054570053
27	0x3d06a162	0.03286875
28	0xbd119766	-0.035544775
29	0x3d87136c	0.06595501
30	0xbba71f0c	-0.0051001366
31	0xbd03de23	-0.032194268
32	0x3b8bb9f5	0.004264111
33	0xbcafeed6	-0.02147619
34	0xbaaceab5	-0.0013192507
35	0xbceba1f7	-0.028763754
36	0xbd8abbef	-0.06774127
37	0xbd66cd99	-0.056348417
38	0xbc873278	-0.016503558
39	0xbc24d3e0	-0.010060281
40	0xbd5fec12	-0.054668494
41	0xbcf80b51	-0.030278834
42	0xbca670c0	-0.020317435
43	0x3bd89cb6	0.0066104783
44	0xbb9a55ac	-0.00470992
45	0xbc8e5279	-0.01737331
46	0xbc3e0250	-0.011597231
47	0xbc7aaf69	-0.01530061
48	0x3ce8c79b	0.028415492
49	0x3cdca7a3	0.026935404
50	0x3c584e01	0.013202191
51	0xbbcfd62b	-0.0063426695
52	0x3d144d3f	0.03620648
53	0x3c7c95aa	0.015416542
54	0x3c0defde	0.008663146
55	0xbd97d922	-0.07414462
56	0xbc3a92b9	-0.0113875205
57	0x3cadfb7a	0.021238077
58	0xbd75930b	-0.059954684
59	0xbd0aafad	-0.033858944
60	0xbd508a02	-0.050912865
61	0xbc6765ac	-0.014123362
62	0xbd52d9b7	-0.05147716
63	0xbcdf19c0	-0.027233958
64	0xbcc77130	-0.024345964
65	0xbcc498be	-0.023998614
66	0xbcb91b97	-0.022596164
67	0x3d0feb31	0.035136405
68	0xbce9dbba	-0.028547157
69	0xbac858aa	-0.0015285213
70	0x3d7c0ac2	0.061533697
71	0x3d3d59f4	0.046228364
72	0x3c23bbdb	0.009993519
73	0x3da389f2	0.07985295
74	0x3d7da5be	0.061925642
75	0x3d8914fa	0.06693454
76	0x3d3207b9	0.043464396
77	0x3d004355	0.031314213
78	0xbd3d5e57	-0.046232548
79	0x3d795d95	0.060880262
80	0x3d461c96	0.048367105
81	0x3d0b9e7f	0.0340867
82	0x3c8eff44	0.017455705
83	0x3cfc322f	0.030785648
84	0x3baa734d	0.005201733
85	0x3d811a6b	0.06303867
86	0x3d106ab5	0.035258014
87	0x3cf01dc8	0.029311076
88	0x3d0be61a	0.03415499
89	0x3d63c41b	0.055606943
90	0xbc09b65a	-0.008405292
91	0xbc02eba3	-0.0079907505
92	0x3d1b3111	0.03788859
93	0x3beb91fc	0.0071890336
94	0xbc3ac82e	-0.011400266
95	0x3cebfd03	0.028807169
96	0xbcff05a2	-0.031130616
97	0x3bc8ff84	0.0061339755
98	0xbc1cfca2	-0.009581717
99	0xbd2f223b	-0.042757254
100	0xbd4a06ac	-0.04932277
101	0xbbc54bbd	-0.0060209916
102	0xbd80b601	-0.062847145
103	0xbda1d90e	-0.07902728
104	0xbd3867ce	-0.04502087
105	0xbd8dbec4	-0.06921151
106	0xbdc128d6	-0.09431617
107	0xbd676511	-0.05649287
108	0xbc9334df	-0.017969547
109	0x3cf4fa75	0.029904583
110	0x3c5b9cbb	0.013404067
111	0xbd30f70a	-0.043204345
112	0x3cd50ac0	0.026006103
113	0xbce6732c	-0.02813109
114	0xbd34dc4f	-0.044155415
115	0x3bc3dacb	0.00597701
116	0xbd14ffe7	-0.03637686
117	0xbdb4e26c	-0.08832249
118	0xbd5e3516	-0.054249845
119	0xbd693272	-0.056932874
120	0xbda9e1de	-0.08295034
121	0xbd2e6ae6	-0.042582415
122	0xbc0b86e5	-0.008516048
123	0xbd90eb41	-0.07076121
124	0x3ceed96f	0.029156415
125	0x39a6cb10	0.0003181328
126	0x3ccf36ab	0.025294622
127	0x3d7abc36	0.06121465
128	0x3d244893	0.040108275
129	0x3bb54bfa	0.0055327388
130	0x3c9672ae	0.01836523
131	0x3d14c819	0.03632364
132	0x3d138e25	0.03602423
133	0x3d7c41c8	0.06158617
134	0x3c811110	0.015755206
135	0xbc3452ca	-0.011006067
136	0xbc230265	-0.009949301
137	0x3cc662f9	0.024217116
138	0xbb5afcf8	-0.0033414941
139	0x3af32edd	0.0018553395
140	0xbcdd98b5	-0.027050355
141	0xbd210fa5	-0.03932156
142	0x3c40f07b	0.011776085
143	0xbd31b9fa	-0.04339025
144	0x3d65e8f9	0.056130383
145	0xbbdf6dc0	-0.006818503
146	0xbd01296c	-0.031533644
147	0xbd084769	-0.033271227
148	0x3c90b8bf	0.017666219
149	0x3bfa8c40	0.0076461136
150	0xbd19208a	-0.037384547
151	0x3d2a5472	0.04158444
152	0x3d18834d	0.037234593
153	0x3cdcffff	0.026977537
154	0x3d5a659a	0.05331955
155	0x3d6aa64e	0.057287507
156	0x3ca32790	0.019916326
157	0x3d8bef07	0.068327
158	0xbcf63f74	-0.030059554
159	0x3d2a3a12	0.041559286
160	0x3d95e389	0.073187895
161	0x3d70b0c3	0.058762323
162	0x3a90cbea	0.0011047099
163	0x3d4be13b	0.049775343
164	0xbc7f86e4	-0.015596125
165	0x3d208c8f	0.039196547
166	0x3d0d24a9	0.03445879
167	0xbd1afc6e	-0.037838392
168	0xbc231590	-0.009953871
169	0x3bf0fdf0	0.0073544905
170	0x3cba2c74	0.022726275
171	0xbda0e516	-0.07856195
172	0xbd383e33	-0.044981193
173	0x3ccedbbc	0.025251262
174	0xbd575f68	-0.05258122
175	0xbd0afe33	-0.03393383
176	0xbcad3b18	-0.021146342
177	0xbbf8a98a	-0.00758857
178	0x3cdb1c9a	0.026747037
179	0xbc0840ca	-0.008316228
180	0x3c3fd4b8	0.011708431
181	0xbc98c9fe	-0.018651005
182	0xbd54d086	-0.051956676
183	0xbd1e2c21	-0.038616303
184	0xbc8a2040	-0.016861081
185	0xbd673f1a	-0.056456663
186	0xbd138b97	-0.036021795
187	0x3c425443	0.01186091
188	0x3b3d924c	0.002892631
189	0xbd171972	-0.0368895
190	0xbd350285	-0.044191856
191	0x3cd578cc	0.026058577
192	0xba196a8f	-0.0005852365
193	0xbac46287	-0.0014982977
194	0xbd48f0fd	-0.04905795
195	0x3c193f48	0.009353466
196	0x3c4a9e65	0.012366866
197	0xbd3b8d89	-0.045789275
198	0x3c993eb5	0.018706659
199	0xbaf5fe27	-0.001876776
200	0x3d73e17a	0.059541203
201	0xbc7b13c3	-0.015324536
202	0x3da156ba	0.0787787
203	0x3d6eb103	0.05827428
204	0xbc74b0db	-0.014934744
205	0xbc9fc1e0	-0.019501626
206	0x3c68c4ab	0.014207046
207	0xbc3d3f86	-0.01155079
208	0xbd5e2e93	-0.054243635
209	0xbdbe8cb2	-0.09304179
210	0xbd3d434f	-0.04620677
211	0xbd1f21fd	-0.038850773
212	0xbce23ccb	-0.027616879
213	0xbd3d6a56	-0.046243988
214	0xbd5b1da6	-0.05349507
215	0xbdd1be4b	-0.10241374
216	0xbd6d3ea5	-0.05792107
217	0xbd506e3c	-0.050886378
218	0xbdaadaa2	-0.08342482
219	0x3b898c1f	0.004197612
220	0xbc3b00d0	-0.011413768
221	0xbd69f56f	-0.05711883
222	0xbd49cee4	-0.049269572
223	0xbd6d4aae	-0.05793255
224	0xbd503687	-0.05083325
225	0x3c997b70	0.018735617
226	0x3d82aa08	0.06380087
227	0xbb517f0a	-0.003196659
228	0xbc9174de	-0.017755922
229	0x3d058f3e	0.03260731
230	0x3c9d5c9c	0.019209199
231	0xbd2a7eae	-0.041624717
232	0x3d69e6db	0.057104927
233	0xbce8b2ed	-0.028405631
234	0xbd4a03fe	-0.049320213
235	0xbccc879a	-0.024967004
236	0xbcc47b01	-0.023984434
237	0xbccc451d	-0.0249353
238	0xbc6f8f8e	-0.014621628
239	0x3a8e871e	0.0010874008
240	0xbd94e1ae	-0.072696075
241	0xbd83f706	-0.064436
242	0xbbcc4c73	-0.0062346994
243	0xbbd2ba79	-0.0064309207
244	0xbcf38c2b	-0.029729923
245	0xbd32d6ee	-0.043662004
246	0x3c5aabfb	0.013346667
247	0xbd13cf8d	-0.036086608
248	0xbd5c9007	-0.053848293
249	0xbd2482c3	-0.040163767
250	0x3abfc0c4	0.0014629592
251	0x3c9c861b	0.019106915
252	0xbd1d3d12	-0.03838832
253	0xbda021e4	-0.07818964
254	0xbda62f70	-0.08114517
255	0xbdb6021e	-0.088871226

conv3.0.bias f4 [64]
0	0xbe1379b7	-0.144019
1	0xbcf4f9a7	-0.0299042
2	0xbd8d711a	-0.06906338
3	0xbe01d50c	-0.12678927
4	0xbd12df15	-0.03585728
5	0xbbf69c75	-0.0075259754
6	0xbdbc03c0	-0.09180403
7	0xbdaf53de	-0.08560918
8	0xbcd0f7d8	-0.025508806
9	0xbdacdbbf	-0.08440351
10	0x3d5d08b7	0.05396339
11	0xbdd02e29	-0.10165054
12	0xbd4efeb5	-0.050535876
13	0xbc884dc9	-0.016638653
14	0xbdee58af	-0.11638009
15	0xbce9c984	-0.028538473
16	0xbdd08687	-0.10181909
17	0xbdeca124	-0.11554173
18	0xbd88df1b	-0.06683179
19	0xbdf80e3d	-0.12112091
20	0xbdc5128d	-0.09622679
21	0xbdb763e1	-0.08954597
22	0xbd969aa0	-0.07353711
23	0xbdae4f7d	-0.08511255
24	0xbd0156e4	-0.031577006
25	0xbd8bfb94	-0.06835094
26	0xbe2d0f61	-0.16900398
27	0xbd5def21	-0.05418313
28	0xbe4724a0	-0.19447565
29	0xbd46eccf	-0.048565682
30	0xbe1f7f80	-0.15575981
31	0xbd4d317c	-0.05009602
32	0xbd70969a	-0.058737375
33	0xbe1b4a12	-0.15164974
34	0xbde2d65b	-0.11076041
35	0xbdfecda5	-0.12441567
36	0xbaa18b57	-0.0012324852
37	0xbd35b7b6	-0.044364654
38	0xbe01314a	-0.12616459
39	0xbde1db5d	-0.11028168
40	0xbdaf8036	-0.08569376
41	0xbc520800	-0.01281929
42	0xbdf7531d	-0.120763995
43	0xbd88d81e	-0.06681846
44	0xbd227c92	-0.03966958
45	0xbd9582ec	-0.07300362
46	0xbcc14c3c	-0.023595922
47	0xbc5a08e4	-0.013307784
48	0xbc2c1af4	-0.010504473
49	0xbdad57d3	-0.08464017
50	0xbdbf27dd	-0.09333775
51	0xbd9de61b	-0.07709905
52	0xbdd586cb	-0.104261
53	0xbcb9beb2	-0.022673938
54	0xbc92fad5	-0.017941872
55	0xbdc820e1	-0.09771896
56	0xbc84783a	-0.01617061
57	0xbd23fed9	-0.040037964
58	0xbd0d30b6	-0.034470282
59	0x3cbfb70d	0.023402715
60	0x3c9149ff	0.01773548
61	0xbd99818f	-0.074954145
62	0xbdec3a7b	-0.11534592
63	0xbded5d35	-0.115900435

conv3.4.weight f4 [64]
0	0x3f8861fb	1.0654901
1	0x3f86645c	1.0499377
2	0x3f952c94	1.1654229
3	0x3f956517	1.1671475
4	0x3f94b694	1.1618218
5	0x3f961eef	1.172819
6	0x3f988c2e	1.191778
7	0x3f846f81	1.0346528
8	0x3f728964	0.9474089
9	0x3f97cac2	1.1858752
10	0x3f97b728	1.185277
11	0x3f7ccf8a	0.9875418
12	0x3f94aa62	1.1614497
13	0x3f838516	1.027499
14	0x3f86d376	1.0533283
15	0x3f92bc50	1.1463718
16	0x3f8307e4	1.0236783
17	0x3f86b413	1.0523704
18	0x3f9537d3	1.1657661
19	0x3f91d0c4	1.1391835
20	0x3f82675b	1.0187792
21	0x3f9a7485	1.2066809
22	0x3f9695e2	1.1764491
23	0x3f98ba96	1.1931942
24	0x3f845379	1.0337974
25	0x3f855126	1.041539
26	0x3f83808d	1.0273606
27	0x3f9b3ada	1.2127335
28	0x3f86c43f	1.052864
29	0x3f93aa89	1.1536418
30	0x3f829735	1.0202395
31	0x3f80673f	1.0031508
32	0x3f8e4af7	1.1116627
33	0x3f875fbe	1.0576093
34	0x3f81b3be	1.0132978
35	0x3f8558be	1.0417707
36	0x3f759403	0.9592897
37	0x3f984f8c	1.1899276
38	0x3f977add	1.183437
39	0x3f954d21	1.1664163
40	0x3f85bd07	1.0448312
41	0x3f7f34e2	0.9969007
42	0x3f838e26	1.0277755
43	0x3f939c1c	1.1532016
44	0x3f87a93d	1.0598522
45	0x3f98f1c6	1.1948783
46	0x3f92e6ee	1.1476724
47	0x3f7ed800	0.9954834
48	0x3f928e75	1.1449724
49	0x3f9adebd	1.2099224
50	0x3f867152	1.0503333
51	0x3f97889f	1.1838568
52	0x3f7fabf7	0.9987177
53	0x3f93d347	1.1548852
54	0x3f9c29da	1.2200272
55	0x3f849d63	1.0360531
56	0x3f833bcf	1.0252627
57	0x3f982269	1.1885501
58	0x3f94b53d	1.161781
59	0x3f76bf0a	0.9638525
60	0x3f96a98b	1.177049
61	0x3f966cc6	1.1751945
62	0x3f806080	1.002945
63	0x3f92c98a	1.1467755

conv3.4.bias f4 [64]
0	0x3bb9b2c4	0.0056670625
1	0x3c638263	0.013886067
2	0xbbdbc883	-0.0067072525
3	0xbc9f2e2f	-0.019431202
4	0xbbd3f8fa	-0.0064688893
5	0xbb92102f	-0.0044574956
6	0xbc0d8a20	-0.008638889
7	0x3bf592bb	0.0074942983
8	0xba8620ca	-0.001023316
9	0x3a56d050	0.0008194493
10	0xba21d2c6	-0.000617307
11	0xb9a9c3ee	-0.0003238017
12	0xbcf52bef	-0.029928176
13	0xbbbd5325	-0.005777734
14	0x3c921ffe	0.01783752
15	0xbc80d85d	-0.01572817
16	0x3c802e12	0.015646968
17	0x3c98d1be	0.0186547
18	0x3a4e5f17	0.0007872446
19	0xbcf00f0a	-0.029304046
20	0x3a46dd45	0.00075860723
21	0xbc733c79	-0.014845961
22	0x3bc16fd3	0.005903223
23	0xbcae8034	-0.021301366
24	0xbcdcaae2	-0.026936952
25	0xb862fcc1	-5.4117994e-05
26	0xbaa1a681	-0.0012332947
27	0xbcfa9a30	-0.0305911
28	0xbc6ea896	-0.014566561
29	0xbc82ce86	-0.015967619
30	0x3bdff24c	0.006834304
31	0xb92ff55b	-0.00016780703
32	0x3bbf6d86	0.0058419136
33	0x3c4adc9a	0.012381697
34	0xba4fa374	-0.000792078
35	0x3cad7286	0.021172773
36	0xbcd0bbd2	-0.025480185
37	0xbc116fc5	-0.008876746
38	0xbc7e3044	-0.015514437
39	0xbca5f9b8	-0.020260677
40	0x3ba3dc6b	0.005000641
41	0x3cd86370	0.026414603
42	0x3d0ca8e8	0.03434077
43	0xbc34d750	-0.011037663
44	0x3ca1da6d	0.019757474
45	0xbc8ac8e5	-0.016941497
46	0xbc359e15	-0.011085053
47	0x3c6f694d	0.014612508
48	0xbd07ab21	-0.033122186
49	0xbb6a462c	-0.0035747392
50	0x3c279368	0.0102280155
51	0x3b024e3d	0.001988306
52	0x3a027b30	0.0004977463
53	0xbc127756	-0.008939585
54	0xbc2fb610	-0.010724559
55	0x3a859089	0.001019017
56	0x3cc1c702	0.023654465
57	0x3ac45d14	0.0014981353
58	0xbbdd83d7	-0.0067601013
59	0xbbe2e664	-0.0069244374
60	0x3ac47b65	0.0014990388
61	0x399e681c	0.00030213676
62	0x3cf6c371	0.03012249
63	0x3bb07b69	0.0053858054

conv3.4.running_mean f4 [64]
0	0x3e652668	0.22377932
1	0x3e8da316	0.27663487
2	0x3e87ae47	0.2650015
3	0x3e2a92e3	0.16657595
4	0x3e83cb21	0.25740913
5	0x3e802632	0.2502914
6	0x3e899252	0.26869446
7	0x3ee9156f	0.45524165
8	0x3eb033ca	0.34414512
9	0x3e6018e9	0.21884502
10	0x3eb34e5e	0.35020727
11	0x3f262963	0.649069
12	0x3e953729	0.29143646
13	0x3e3011a7	0.17194234
14	0x3e823ee8	0.2543862
15	0x3e83524b	0.25648722
16	0x3e738bb4	0.23783761
17	0x3dff85c0	0.12476683
18	0x3e838637	0.25688335
19	0x3e40515c	0.18781036
20	0x3e5df4f4	0.21675473
21	0x3e61fcf4	0.2206915
22	0x3eac0fac	0.33605707
23	0x3e673cf1	0.22581841
24	0x3e9f15c2	0.31071287
25	0x3e6d1579	0.23152722
26	0x3e7947f8	0.2434386
27	0x3e7fed3d	0.24992843
28	0x3e11345d	0.14180131
29	0x3e9822f7	0.29714176
30	0x3e669e5b	0.22521345
31	0x3f05c3ee	0.5225209
32	0x3e91183a	0.28338796
33	0x3e4789dc	0.19486183
34	0x3e22fd72	0.15916994
35	0x3e88aa44	0.26692402
36	0x3f380d96	0.7189573
37	0x3e37e295	0.17957528
38	0x3e72e424	0.23719841
39	0x3e860a62	0.26179796
40	0x3ec1cd07	0.37851736
41	0x3f4598b1	0.77186114
42	0x3e66a3ff	0.22523497
43	0x3e890463	0.2676116
44	0x3e6196cd	0.22030182
45	0x3e815c76	0.25265855
46	0x3ec5f9e1	0.38667205
47	0x3eddcbd6	0.43319577
48	0x3e8dd276	0.2769963
49	0x3e5d2b51	0.21598555
50	0x3e783044	0.24237162
51	0x3e8f7878	0.28021598
52	0x3edb8bf5	0.42880216
53	0x3f0bc8c1	0.546032
54	0x3e826e38	0.25474715
55	0x3e7db279	0.24775113
56	0x3edd68e8	0.432441
57	0x3e6a13d6	0.2285913
58	0x3e50a894	0.20376807
59	0x3f86498f	1.0491198
60	0x3e89e510	0.26932573
61	0x3e6455bd	0.22298332
62	0x3e7dac30	0.24772716
63	0x3e7b9f7a	0.24572554

conv3.4.running_var f4 [64]
0	0x3eeb8817	0.46002266
1	0x3f0c7b6e	0.5487584
2	0x3f987192	1.1909659
3	0x3f08afa1	0.5339299
4	0x3f9365d7	1.1515454
5	0x3f6e843f	0.9317054
6	0x3f81eb42	1.014992
7	0x3f92a481	1.1456453
8	0x3f5522e5	0.8325637
9	0x3f4033e1	0.7507916
10	0x3fabbc0c	1.3416762
11	0x403103ae	2.7658496
12	0x3f9dfbd5	1.2342478
13	0x3e8ae374	0.27126658
14	0x3ece3cdc	0.40280807
15	0x3f6cf8af	0.9256696
16	0x3ebe7f56	0.37206525
17	0x3e29272a	0.16518846
18	0x3f7e9f4d	0.99461824
19	0x3f26e861	0.6519833
20	0x3ea721e1	0.32643035
21	0x3f51900a	0.8186041
22	0x3fab8585	1.3400122
23	0x3f757032	0.9587432
24	0x3f1c1f09	0.60984856
25	0x3ecb2dd5	0.39683405
26	0x3edd3867	0.43207094
27	0x3f736951	0.95082575
28	0x3e63e74f	0.22256206
29	0x3f94f829	1.1638232
30	0x3eb04e79	0.3443487
31	0x3f8277f5	1.0192858
32	0x3f900376	1.1251056
33	0x3e9bd1a8	0.30433393
34	0x3e81892e	0.25299972
35	0x3f248722	0.64268696
36	0x400246cf	2.0355718
37	0x3f248702	0.64268506
38	0x3f5ec2e9	0.8701616
39	0x3f8d6f66	1.1049621
40	0x3f3a39f5	0.72744685
41	0x406c0d58	3.6883144
42	0x3ec1a93e	0.37824434
43	0x3f94cbf6	1.1624744
44	0x3eabb9eb	0.33540282
45	0x3f9245d9	1.1427566
46	0x3fda258b	1.7042707
47	0x3fa25806	1.2683113
48	0x3f98546d	1.1900765
49	0x3f3582c2	0.70902646
50	0x3ef3e410	0.47634935
51	0x3fa3e552	1.2804358
52	0x3f98671d	1.1906468
53	0x401869e5	2.3814633
54	0x3f8303a1	1.0235482
55	0x3ecaa7a8	0.39581037
56	0x3f8d393d	1.1033093
57	0x3f3fa00b	0.7485358
58	0x3f29f286	0.66385686
59	0x40d3b4f9	6.6158414
60	0x3f861642	1.0475543
61	0x3f6335ec	0.88754153
62	0x3ed8080c	0.4219364
63	0x3f79c8b8	0.975719

fc.0.weight f4 [32, 64]
0	0x3e171ab8	0.14756286
1	0x3e224766	0.15847549
2	0xbc6bc336	-0.014389804
3	0xbd9a91a5	-0.07547311
4	0xbe7431ea	-0.23847166
5	0xbce507b6	-0.027957778
6	0xbdc5cd8c	-0.096583456
7	0xbb14619c	-0.0022641188
8	0x3d393cb3	0.045223903
9	0xbdd2ae63	-0.10287168
10	0xbe3bcafc	-0.18339151
11	0xbdf13f58	-0.1177966
12	0xbe169ba7	-0.14707814
13	0x3d8cfe76	0.06884472
14	0x3dea5179	0.11441321
15	0xbe4cafad	-0.1998889
16	0x3cc06de7	0.023489906
17	0x3d524b7b	0.051341515
18	0xbe2888a0	-0.16458368
19	0xbe0ad63d	-0.13558288
20	0xbd735ac0	-0.059412718
21	0xbd57510b	-0.052567523
22	0xbda95d1d	-0.08269713
23	0xbe84d738	-0.2594545
24	0x3dc7f023	0.09762599
25	0xbc2b8105	-0.010467772
26	0xbd0f16e1	-0.03493393
27	0xbe1a51f9	-0.15070333
28	0x3e08c6b8	0.13357055
29	0xbdb5d020	-0.08877587
30	0x3c22370a	0.009900818
31	0x3df90286	0.121586844
32	0xbbce2dd7	-0.0062920856
33	0x3d26939b	0.04066811
34	0x3d8a415e	0.06750749
35	0x3e118b75	0.14213355
36	0x3d90adb7	0.070643835
37	0xbe3f2bdb	-0.18669073
38	0xbd969a27	-0.07353621
39	0xbe565623	-0.20931296
40	0x3da4c24d	0.080448724
41	0x3d3977e2	0.045280345
42	0x3c9efb57	0.019406958
43	0xbdfe1d05	-0.12407879
44	0x3e065e48	0.13121903
45	0xbe7a329e	-0.24433371
46	0xbe25000b	-0.16113298
47	0x3bd9c7b3	0.0066461205
48	0xbc933bac	-0.01797279
49	0xbe1c7a71	-0.15281083
50	0x3d201f23	0.039092194
51	0xbe2b28e9	-0.16714825
52	0x3d90fd67	0.07079583
53	0xbe49b88a	-0.19699302
54	0xbddf9cc7	-0.10918575
55	0x3dded880	0.10881138
56	0x3d83fbba	0.064444974
57	0xbd740382	-0.059573658
58	0xbe487442	-0.19575599
59	0xbcf794cd	-0.03022232
60	0xbdc25fe8	-0.09490949
61	0xbd8e3e78	-0.06945509
62	0xbc4651c8	-0.012104459
63	0xbe1dbea6	-0.15404758
64	0xbcb4d433	-0.02207384
65	0xbb839267	-0.0040152553
66	0xbdedb987	-0.11607652
67	0xbe3fb8d1	-0.18722846
68	0xbda7935a	-0.08182402
69	0xbd0792b9	-0.03309891
70	0xbe1f22c5	-0.15540607
71	0x3dabf9bf	0.08397245
72	0xbdac7849	-0.0842138
73	0xbe32d602	-0.1746445
74	0x3c23898e	0.009981526
75	0xbd4af82f	-0.049553093
76	0xbdddb5ee	-0.10825716
77	0x3dce4086	0.100709006
78	0x3e287f68	0.16454852
79	0xbdfc06a6	-0.123059556
80	0x3e02efda	0.12786809
81	0x3d8550ed	0.06509576
82	0xbdd3cc9b	-0.1034176
83	0xbcb81daa	-0.022475082
84	0xbc803271	-0.015649052
85	0xbe587cb7	-0.21141325
86	0xbe51f0ab	-0.20501964
87	0xbe4c2237	-0.19934927
88	0xb92b7585	-0.0001635161
89	0x3dfe0677	0.12403577
90	0x3d041422	0.032245763
91	0xbe2c39db	-0.16818945
92	0x3e0f78db	0.14010946
93	0xbe388cce	-0.18022463
94	0x3cde181d	0.027111107
95	0xbd2b82c9	-0.041872773
96	0xbd7a3874	-0.061088994
97	0x3e29ff71	0.1660135
98	0x3df78741	0.120863445
99	0x3e1b8feb	0.15191619
100	0x3d5553fa	0.05208204
101	0xbdd567a5	-0.10420159
102	0xbe29696b	-0.1654412
103	0xbe52a1ec	-0.20569581
104	0xbd1751a8	-0.036943108
105	0x3d0cb8a9	0.034355793
106	0x3dce935b	0.100866996
107	0xbc815f75	-0.015792588
108	0xbc18d31d	-0.009327677
109	0xbe0aaed1	-0.1354325
110	0x3c359d79	0.011084908
111	0x3e04a11c	0.12952083
112	0xbe55dcf3	-0.20885067
113	0xbde8a22d	-0.113590576
114	0xbd57d335	-0.052691657
115	0xbd882fd7	-0.0664975
116	0x3db1fd94	0.08690944
117	0xbdb6b9a9	-0.089221306
118	0xbda6a998	-0.08137816
119	0x3e2100cb	0.15722959
120	0x3e06c2d9	0.13160266
121	0xbde84b2e	-0.113424644
122	0xbdd5bb50	-0.10436118
123	0xbaaeb9c4	-0.0013330509
124	0xbe2bef6b	-0.1679055
125	0xbd6552fd	-0.055987347
126	0x3d143c4e	0.036190324
127	0xbdd8e8a7	-0.1059125
128	0x3d0c23ed	0.03421395
129	0x3d919fcf	0.07110559
130	0xbe15af23	-0.1461759
131	0xbe0dee3e	-0.13860413
132	0xbe3c631d	-0.18397184
133	0xbdaed0dc	-0.085359305
134	0xbe4ff7ae	-0.20309326
135	0x3d428f15	0.047499735
136	0x3d20d7e2	0.039268382
137	0xbd475b6f	-0.048671182
138	0xbe04102f	-0.12896799
139	0x3dbe00c2	0.09277488
140	0xbe19965b	-0.14998762
141	0x3d96c045	0.07360891
142	0x3dc7fa3b	0.097645245
143	0xbe0c9439	-0.13728417
144	0x3d54b00d	0.051925708
145	0x3dbc24e2	0.09186722
146	0xbb6936e0	-0.0035585687
147	0xbe409746	-0.18807706
148	0x3d19ea91	0.037577216
149	0xbe16d4f3	-0.14729671
150	0xbe45cbab	-0.19315974
151	0xbe3399bf	-0.17539118
152	0xbd0e6f90	-0.034774363
153	0x37d6281c	2.5529465e-05
154	0x3e0460f3	0.12927608
155	0xbe18c808	-0.14920056
156	0x3dee492c	0.1163505
157	0xbd1f7df0	-0.038938463
158	0x3e102b4a	0.14079013
159	0xbdbdeb3a	-0.092733815
160	0xbdd7a315	-0.10529152
161	0x3d8d3aea	0.068960026
162	0xbd3f8856	-0.04676088
163	0x3de9423b	0.113895856
164	0xbd9fdfee	-0.07806383
165	0xbe2f8bd9	-0.17143191
166	0xbd9226c8	-0.07136303
167	0xbe37ed26	-0.17961559
168	0x3d211532	0.039326854
169	0xbd488f01	-0.048964504
170	0x3de483c0	0.11157942
171	0xbdf94a6f	-0.121724
172	0x3d246c32	0.040142246
173	0xbe5aed0e	-0.21379492
174	0xbc777384	-0.015103225
175	0xbda35353	-0.07974877
176	0x3bd22523	0.0064131184
177	0xbd425053	-0.047439884
178	0x3dbb7f92	0.091551915
179	0xbe19f60e	-0.15035269
180	0x3dea1a7d	0.114308335
181	0xbe43752f	-0.1908767
182	0xbdf91f49	-0.1216417
183	0x3e248c74	0.16069204
184	0x3d56735f	0.05235612
185	0xbe5f2fd2	-0.21795586
186	0xbe6d7795	-0.23190148
187	0x3dbb9663	0.09159543
188	0xbe276762	-0.16348031
189	0xbdfd4170	-0.12365997
190	0x3c3c794b	0.011503528
191	0xbe1dfe6a	-0.15429083
192	0xbe0f1ebe	-0.13976571
193	0xbdbc5055	-0.091950096
194	0x3d051a32	0.032495685
195	0x3d780482	0.060551174
196	0x3e40cfe9	0.18829311
197	0x3e4ba547	0.19887267
198	0x3e22b1bc	0.15888113
199	0xbdcbd038	-0.09951824
200	0x3cceeb24	0.025258608
201	0x3e55e6da	0.20888844
202	0x3dd56301	0.10419274
203	0xbdc15acc	-0.09441146
204	0x3e1d1a76	0.15342125
205	0xbd9c60ee	-0.07635675
206	0xbe19a902	-0.15005878
207	0x3de28def	0.11062228
208	0xbe0141b8	-0.12622726
209	0x3ca598bd	0.020214433
210	0x3d2baade	0.041911
211	0x3e16a24a	0.14710346
212	0xbda34a3f	-0.07973146
213	0x3e5a18a3	0.2129846
214	0x3db7552c	0.08951792
215	0x3e0d900e	0.13824484
216	0x3d0637fd	0.03276824
217	0x3d523fbb	0.05133031
218	0xbcd9305b	-0.026512315
219	0x3c585a79	0.013205164
220	0x3be36acd	0.006940222
221	0x3e599dbc	0.21251577
222	0x3c5ff68f	0.013669624
223	0xbded286c	-0.115799755
224	0x3e1b8d45	0.15190609
225	0xbd33e972	-0.043923803
226	0xbe109b2d	-0.14121695
227	0xbdaa35d6	-0.0831105
228	0xbd97c7f4	-0.07411185
229	0x3dc337d0	0.0953213
230	0x3da8ec2f	0.082481734
231	0x3d90e744	0.070753604
232	0x3d4459bd	0.047937144
233	0xbe10d010	-0.1414187
234	0xbbe33c01	-0.0069346433
235	0x3e25d63f	0.1619501
236	0xbd9d1fca	-0.07672079
237	0x3e582a7d	0.21109958
238	0x3d411160	0.04713571
239	0xbd36bbce	-0.0446127
240	0x3c8f823b	0.017518153
241	0x3d8253bd	0.06363628
242	0xbd8c12d3	-0.06839528
243	0x3d989782	0.07450773
244	0xbcdc0730	-0.026858896
245	0x3e4568a4	0.19278198
246	0x3e41eed1	0.18938757
247	0xbdbb4595	-0.09144131
248	0xbe0bacbc	-0.13640112
249	0x3de8691e	0.113481745
250	0x3cfb1eef	0.030654399
251	0xbce98da3	-0.02850992
252	0x3cc4b769	0.024013238
253	0x3e5ab818	0.21359289
254	0xbd4363d6	-0.047702633
255	0x3db86dc8	0.09005314

fc.0.bias f4 [32]
0	0xbd6dc5de	-0.05805003
1	0xbd95a968	-0.07307702
2	0xbda00f94	-0.07815471
3	0x3d66add2	0.05631811
4	0xbc9653ff	-0.0183506
5	0xbdb6f8cf	-0.08934175
6	0x3d89db3f	0.06731271
7	0xbd3daa31	-0.046304885
8	0xbdaf3d6b	-0.085566364
9	0xbd3c15dd	-0.045919288
10	0xbd40a45c	-0.047031745
11	0xbc8f3966	-0.017483424
12	0x3da68460	0.08130717
13	0xbd1964d3	-0.03744967
14	0xbd6730b2	-0.056442924
15	0x3d265d19	0.04061613
16	0x3d7f8843	0.06238581
17	0xbdb7d40e	-0.08975993
18	0xbcf9fce3	-0.030516094
19	0x3c286b3b	0.010279472
20	0xbc151566	-0.00909934
21	0x3dde95d3	0.108684205
22	0x3d2ac74c	0.04169397
23	0xbdd3b945	-0.10338072
24	0x3ace418c	0.0015736087
25	0x3dd8860d	0.10572443
26	0x3da98035	0.08276407
27	0x3d8be8cc	0.06831512
28	0x3db29e2b	0.087215744
29	0x3dbfabbd	0.09358928
30	0xbc1fdc27	-0.009757078
31	0x3c691e02	0.014228346

fc.3.weight f4 [1, 32]
0	0xbdd0505d	-0.10171578
1	0xbe1f705e	-0.15570208
2	0xbe3f7bd3	-0.18699579
3	0x3eb44fde	0.35217184
4	0x3e99e7c1	0.30059627
5	0xbe0a223d	-0.13489623
6	0x3e14d4a8	0.14534247
7	0x3ea780dc	0.327155
8	0xbe12abb6	-0.14323315
9	0xbe354acc	-0.17704314
10	0x3ea14828	0.31500363
11	0xbe059e3e	-0.13048646
12	0xbe5f80f0	-0.2182653
13	0xbd88ee2b	-0.06686052
14	0xbdb05439	-0.08609814
15	0xbddadc95	-0.10686604
16	0xbdf1ee31	-0.118130095
17	0x3e834347	0.25637266
18	0xbe67f8e3	-0.22653536
19	0xbe10336c	-0.14082116
20	0x3e57aaa0	0.21061182
21	0x3e99a269	0.30006722
22	0x3e950252	0.29103333
23	0x3eadfc58	0.33981586
24	0xbe37a2a2	-0.17933133
25	0xbe53f3c9	-0.20698465
26	0x3e5ef2dd	0.21772332
27	0xbe2d30c1	-0.1691313
28	0x3e91bdb0	0.28465033
29	0xbdf79bfb	-0.12090298
30	0xbe4ea136	-0.20178685
31	0xbe1f47c7	-0.15554725
