5 第五讲 机器学习训练模型的数学范式v16/models/model10.pth (torch, 112459 bytes, 21 tensors)

conv1.0.weight f4 [16, 3, 3, 3]
000000 f3 7f 54 bc 0d d9 e0 bd 68 9b 2a 3e c1 b8 61 bd
       -0.012969959 -0.10978899 0.16660845 -0.055107836
000010 ae 67 03 be 8d 7a 1d be d5 85 1b 3d c0 0a 23 be
       -0.1283252 -0.1537878 0.03796943 -0.1592207
000020 2e e5 d3 3d d9 8c 70 3d 11 12 3a 3e 5e 25 06 be
       0.10346447 0.058728073 0.18170954 -0.13100192
000030 56 6d 8d 3c af ad d2 3c a8 30 d2 3c 31 0f b4 3d
       0.01726405 0.025717584 0.025657967 0.0879196
000040 c6 a8 6b bc d4 81 94 bd 32 b3 0b 3e 45 8b ff bd
       -0.0143835 -0.07251325 0.13642576 -0.124777354
000050 e1 15 16 be 98 7e bc 3d c7 40 75 bd 07 0b 20 3e
       -0.14656784 0.09203833 -0.05987623 0.15629207
000060 fd 50 0d be a9 4a 0e 3e 28 a1 09 3d 2e ad f5 bc
       -0.13800426 0.13895668 0.033600956 -0.029989805
000070 23 20 14 3e e1 c0 9a bd b6 5e ec 3c 51 4f 88 bd
       0.14465384 -0.0755632 0.028853755 -0.066557534
000080 db e7 97 3d a0 b8 99 3d dc ea 20 3e c5 bc d8 bd
       0.0741727 0.075059175 0.15714592 -0.1058288
000090 7d 0f 23 3d 56 e6 af bc 5e 80 0a 3e 7c e2 0f be
       0.039809693 -0.021472137 0.1352553 -0.1405124
0000a0 b1 10 9e bd 81 a3 07 3e 46 6b 79 3d 6e c4 86 bd
       -0.077180274 0.13245966 0.06089332 -0.06580435
0000b0 4d fc 40 3d b5 4d 6e 3d 24 f0 8f bd 8c 63 2c be
       0.047115613 0.058179576 -0.07028225 -0.16834849
0000c0 6d c8 28 be 2b dd cd 3d 52 92 06 bd f5 e2 ac 3d
       -0.16482706 0.1005195 -0.032854386 0.08441726
0000d0 93 f4 26 be e5 ce 1c 3e b3 ed 77 3d be 24 81 bc
       -0.16304235 0.15313299 0.060529422 -0.01576459
0000e0 57 74 a4 bd 79 9a 13 bd 2e 5b 0e be 33 fa 25 be
       -0.080300026 -0.03603599 -0.1390197 -0.16208725
0000f0 0e 32 a3 bd 9f 6f df 3d 3b 34 2c be b2 84 12 3e
       -0.079685315 0.10909962 -0.168168 0.14308432
000100 b4 2d bc 3d 30 da 0d be 0b 88 1e 3e 82 75 47 3d
       0.09188405 -0.13852763 0.15481584 0.04869605
000110 b0 c4 f9 bc 99 ad 4b 3c 9a eb 1b 3d 3f e3 fd 3d
       -0.030489296 0.012431526 0.038066484 0.123968594
000120 b0 8d 45 3e 31 5a 4c 3d 95 e1 3e bc 6b 28 8f 3c
       0.1929233 0.0498907 -0.011650463 0.017475327
000130 68 72 40 3d 76 a0 86 bd 94 a6 9e bd f2 0a 44 be
       0.046984106 -0.06573574 -0.07746616 -0.191448
000140 e9 4e 3f 3e b5 04 93 bd c4 e3 e0 bb c9 71 1c be
       0.18682446 -0.07178632 -0.0068630893 -0.1527778
000150 a6 29 a3 bb 3b 74 2d 3e d1 0b 19 be 2e 07 cd 3d
       -0.00497933 0.1693887 -0.14945914 0.10011135
000160 f9 5e 47 3e a1 69 2e be ea 02 e8 3b 01 8f 46 3d
       0.19469823 -0.17032482 0.0070804255 0.048476223
000170 93 91 99 3c 9a 21 aa 3b 4a 62 30 3e f4 70 2d 3e
       0.018746173 0.005191994 0.17224994 0.1693762
000180 35 cb 2c 3c 38 2d 9c 3d 71 2a 84 bd 47 b9 8b bd
       0.010546495 0.07625812 -0.064534076 -0.06822448
000190 fd 62 63 bd 98 0c 0e 3e b5 35 44 3e 94 3e 19 3e
       -0.055514324 0.13871992 0.19161113 0.14965278
0001a0 ca 2d c4 3c 02 62 b1 3d 7b d0 86 bd b1 f4 af bc
       0.023947615 0.08661272 -0.06582733 -0.021478983
0001b0 05 37 30 be 9d 18 7b 3d cd f0 01 be 70 01 2f 3e
       -0.17208488 0.06130277 -0.12689514 0.17090392
0001c0 76 9d 43 3c 03 1c b5 3d 71 a7 39 bd 2e 98 1b 3d
       0.011939397 0.088432334 -0.0453257 0.037986927
0001d0 32 b8 3e be 8b 6a 38 be 37 54 e6 bd 69 25 36 3e
       -0.18624952 -0.18009393 -0.112465315 0.17787708
0001e0 d2 92 a8 3d 8e 10 c3 3d 1b 06 36 3e c4 90 aa 3d
       0.08231129 0.09524642 0.17775767 0.08328393
0001f0 79 5f 93 3d 44 c8 a0 bd ff bd c5 bd 3c 05 ec 3d
       0.07195944 -0.07850698 -0.096553795 0.11524436
000200 fa 4b 18 3e e1 06 1e be 41 70 77 3d 05 01 6a bd
       0.14872733 -0.15432312 0.060409788 -0.05712988
000210 80 99 2e 3e 4f 16 1d bd 4f a0 59 bd 39 3b 10 bd
       0.17050743 -0.038351353 -0.053131398 -0.03521273
000220 a7 c7 3d bd 09 51 20 3e 59 33 b6 bd da 73 7a 3d
       -0.04633298 0.15655912 -0.088965125 0.06114564
000230 c7 de e1 3b 95 a0 12 3e 16 29 d2 3d 76 fd 0e be
       0.006893012 0.1431907 0.10261743 -0.13963875
000240 b8 a2 f1 bc 56 be 05 bc 1b ea 4f bd 0a f5 10 3e
       -0.029496536 -0.008163055 -0.05076037 0.14155975
000250 00 db 40 3e 08 35 1f be eb 22 91 bd ae 8d 3e 3e
       0.18833542 -0.15547574 -0.07086738 0.18608734
000260 d7 b1 fd 3c 17 2f 8c bd fe 8e fd 3d 1e 10 fa bc
       0.03096859 -0.06844919 0.12380789 -0.030525263
000270 5f 48 a4 bd 9f 3d 3a be 58 76 f8 3d 1a d4 57 bd
       -0.08021616 -0.18187569 0.12131947 -0.05269251
000280 58 3d 08 be 10 81 12 be 1e c3 d7 bd 3b 2e aa 3d
       -0.13304651 -0.14307046 -0.105352625 0.08309599
000290 f9 42 ae 3d f8 51 7a 3d 62 92 d7 bd f4 07 26 be
       0.08508868 0.061113328 -0.10525967 -0.16213971
0002a0 89 f3 b1 bd 40 4e e6 bd 45 8d 5a 3d 18 cd af 3d
       -0.08689029 -0.11245394 0.05335738 0.085840404
0002b0 b4 0a 88 bd 94 63 32 be ae cf 07 3e d5 37 9d 3d
       -0.066426665 -0.17420799 0.13262817 0.07676665
0002c0 83 73 ac bd 15 0a 89 bd 64 08 35 bc 34 7c b8 bd
       -0.084204696 -0.06691376 -0.011049364 -0.09008065
0002d0 da 96 01 3e 3d 1d 48 3d 3e 3b d5 bd 3f 31 12 be
       0.12655202 0.04885601 -0.1041169 -0.14276598
0002e0 29 73 92 bd 14 dd 1c be c1 9a be bc f5 ab 1a bd
       -0.07150871 -0.1531871 -0.023267152 -0.037761647
0002f0 ad 87 a5 bd b1 fd 3c 3c e8 04 ce bd ef c9 c7 3d
       -0.08082519 0.011535094 -0.100595295 0.09755313
000300 0d 95 c4 3d c6 51 87 bd 6c 80 bc bd a7 0c 4c be
       0.09598742 -0.06607394 -0.09204182 -0.19926701
000310 e4 b3 aa bc e0 a9 28 be 60 72 28 3e 3a d1 bb 3d
       -0.020837732 -0.16471052 0.1644988 0.09170766
000320 5a f0 8e bc c5 f4 d6 bc d0 00 92 bc 0f c5 33 3e
       -0.017448593 -0.026239762 -0.017822653 0.1755564
000330 3c 5a 0b bd d9 88 db 3c 64 6f d4 3d 36 dc 86 3d
       -0.0340216 0.026798652 0.103728086 0.06584971
000340 e5 3c b0 bc c2 c2 fc 3d 51 ff 20 be 07 cc db 3c
       -0.021513412 0.123418346 -0.15722395 0.026830686
000350 f4 96 4f be 47 c0 b9 3d 6d 8d f2 3d 36 a8 52 bd
       -0.20272428 0.09069877 0.11843381 -0.05142995
000360 71 dd 31 be 46 e4 80 bd 3e 89 87 3d ac ff 21 be
       -0.1736963 -0.0629354 0.06617974 -0.15820187
000370 af 52 00 bd 41 0d 7b bd 50 23 fd bd 8d 4f 9e 3d
       -0.031328853 -0.061291937 -0.12360251 0.07730017
000380 4b 4e 00 be 28 47 54 3d a5 cf ba bd 42 b6 c8 3c
       -0.12529866 0.051825672 -0.09121636 0.02450097
000390 c2 80 12 3e 3b d9 13 be c0 15 0c be 20 06 95 3d
       0.1430693 -0.14438336 -0.13680172 0.07276559
0003a0 6e 43 73 3d 6f 4a 05 be 8b c9 81 3d 94 f1 e2 bd
       0.059390478 -0.13016675 0.063372694 -0.110812336
0003b0 99 a0 20 be 8d 16 ca bd 9c 91 13 3e 50 ae c8 3c
       -0.15686263 -0.098675825 0.14411014 0.024497181
0003c0 a6 1b 08 3e 0f 6d 12 3d 5c 96 e9 bc a4 a8 2b 3e
       0.13291797 0.035748538 -0.02851408 0.1676355
0003d0 ee f3 aa 3d 4c f9 85 3d ac 76 31 be c0 0c 07 be
       0.08347307 0.0654169 -0.17330426 -0.13188457
0003e0 07 d0 11 3e a5 77 36 3e a2 6a 48 3d 4d ee b1 3d
       0.14239512 0.17819078 0.048929818 0.086880304
0003f0 25 1d 13 be d5 46 44 bd d6 cb af bc 0b 16 c0 bd
       -0.14366587 -0.047919113 -0.021459501 -0.09379204

conv1.0.bias f4 [16]
000000 27 4d ba 3d 07 e8 b7 3d d2 e1 c0 3d 96 7c f6 3b
       0.09096747 0.089798026 0.09418072 0.007522176
000010 61 9f 46 be ba 38 25 bc 59 c3 20 3e 59 5d c8 3c
       -0.19396736 -0.010084325 0.15699519 0.024458574
000020 38 ec 51 be c8 4e b2 3d 6c 0f 3d 3e 83 8f 07 be
       -0.20500267 0.087064326 0.18462914 -0.13238339
000030 5a 02 ed 3d 71 88 33 be b7 49 a1 3b 65 f2 27 3e
       0.11572714 -0.17532517 0.0049221176 0.1640106

conv1.3.weight f4 [16]
000000 a4 53 81 3f f2 49 80 3f 9a dd 80 3f 2e c1 7b 3f
       1.010365 1.0022566 1.0067627 0.98341644
000010 e5 a1 7d 3f 46 a6 81 3f af 4e 7f 3f 8c 2b 80 3f
       0.99075156 1.0128868 0.99729437 1.001329
000020 63 2b 77 3f 68 c4 81 3f c4 0f 7d 3f f8 31 82 3f
       0.9655058 1.0138063 0.9885218 1.0171499
000030 28 33 80 3f bd 09 7e 3f 4e d9 7f 3f 37 24 82 3f
       1.0015612 0.9923361 0.99940956 1.0167302

conv1.3.bias f4 [16]
000000 90 23 23 bc f6 ce c5 3c e6 db 95 bc 55 5c 15 3c
       -0.009957209 0.024146538 -0.018293332 0.009116252
000010 75 d0 8e 3a 41 8c 83 bc 83 e1 b5 3c 52 b4 fd bc
       0.0010895865 -0.01605809 0.022202259 -0.030969772
000020 36 0e 15 3c da cc 58 3c 8b dd a4 ba 6f ab 7a 3c
       0.009097626 0.013232434 -0.0012578232 0.015299662
000030 09 1a e2 bc 66 65 94 3c 10 a8 92 bc c8 79 9e 3c
       -0.027600305 0.018114757 -0.017902404 0.01934518

conv1.3.running_mean f4 [16]
000000 56 ab 8a 3d 7e ab 24 3e 97 c6 de 3d f1 e2 97 3e
       0.06770961 0.16081044 0.10877722 0.2966533
000010 43 c5 43 3c 9c ac a8 3c ef 06 a1 3c 2f e6 1b 3d
       0.011948886 0.020590119 0.019656627 0.038061317
000020 ea db 04 36 2b 06 1d 3e 76 af aa 3e 0b 6c ec 3c
       1.979754e-06 0.15334384 0.3333699 0.028860113
000030 c8 9b 00 3e eb c8 b2 3c 8e b4 8d 3e 23 7c 24 3e
       0.12559426 0.02182432 0.27676815 0.1606298

conv1.3.running_var f4 [16]
000000 74 d2 c9 3a 58 d2 3e 3b ec 5d 71 3b 81 54 0c 3d
       0.0015397803 0.0029117074 0.0036829663 0.034260277
000010 00 9b db 3a a8 21 d7 3a 12 ef 29 3b 20 55 f3 3a
       0.0016754568 0.0016413229 0.002592985 0.0018564798
000020 17 dd 13 3a 04 c1 58 3b 9b b8 5d 3c 28 04 33 3b
       0.000564055 0.003307403 0.013532783 0.002731571
000030 3b c6 c3 3a 62 1d 0e 3b 75 67 d4 3c 43 c6 c4 3a
       0.0014936397 0.0021684994 0.025928238 0.00150127

conv2.0.weight f4 [32, 16, 3, 3]
000000 40 ed e8 3b 6a da c0 bc 27 fc d9 3c ae 09 06 bb
       0.0071083605 -0.023541648 0.026609493 -0.0020452547
000010 5f 45 a0 3d 67 1c 3d 3d 72 e4 7f 3d 96 66 95 3c
       0.078257315 0.046169665 0.06247372 0.018237393
000020 dc 3c ca 3c 3f c2 0f bd a7 1d a8 bd 54 29 58 bd
       0.024687223 -0.035097357 -0.08208781 -0.05277379
000030 c1 ff bb 3a 8e b1 29 3d a4 2b fc bc 89 9e c9 bc
       0.0014343188 0.041429095 -0.030782528 -0.024611728
000040 a0 12 45 bd 60 62 3f 3d 8a 7c c3 3d b0 fc 2f bd
       -0.048113465 0.046724677 0.09545238 -0.04296559
000050 76 3e 80 bd 0b d2 88 3d fb d1 91 3d 31 e5 3d bd
       -0.062619135 0.066806875 0.07120129 -0.046361152
000060 4b 0d 8a bd b7 fa 68 bc ca b3 30 bd f6 4f b0 3d
       -0.06740817 -0.014219931 -0.04314021 0.08609001
000070 b1 6c 57 3d 74 11 3d bd 2b 69 8c bb ad b5 8e 3d
       0.05259389 -0.046159223 -0.004284998 0.06968246
000080 14 f0 72 bc 80 0e 26 3d fd 38 00 3c 66 ea 1a 3d
       -0.014827747 0.040541172 0.007826087 0.037821196
000090 99 95 19 3d 2f 41 7c 3d 6d d4 fc bb 67 e6 9f bd
       0.037496183 0.0615856 -0.007715753 -0.07807618
0000a0 22 dd 3f 3c 7e 99 bd 3c e0 e5 3b bd aa 61 6a bd
       0.011710437 0.02314448 -0.045873523 -0.057222046
0000b0 2c 40 2c 3c cf d5 88 bb 52 9a 48 3d 91 18 90 3d
       0.010513347 -0.0041758786 0.048975296 0.07035936
0000c0 04 81 83 bd b3 69 52 3d fd 54 03 3d ee d6 8f 3d
       -0.06421092 0.051370334 0.032063473 0.070234165
0000d0 38 21 bb 3d 65 60 87 3d ef 3a 67 3d 59 74 b9 3b
       0.09137195 0.06610183 0.056452688 0.0056596217
0000e0 ee fb 99 bd 0b 55 2f bd e3 c9 f4 3c 7e 64 8b bd
       -0.07518755 -0.042805713 0.029881423 -0.06806277
0000f0 ec 57 02 3d 63 33 a6 3c db 1c b2 3c 7a 63 88 3d
       0.03182213 0.020288175 0.021742275 0.06659599
000100 9e 6d 56 bd 55 68 d6 3a a8 e2 a7 3d ef 71 b0 3d
       -0.052350633 0.0016357998 0.08197528 0.08615481
000110 40 ef bf bb fe 9c 84 3d 9e af e1 bc 99 85 e6 3b
       -0.0058573782 0.064752564 -0.027549561 0.007034969
000120 9f f3 9a 3c 04 96 7c bd a3 5c 94 bb d3 50 79 bd
       0.018914996 -0.061666504 -0.0045276447 -0.060868096
000130 a3 5a bc bd 9c d7 69 bd 50 46 17 bd be 47 f5 bb
       -0.09196975 -0.057090387 -0.03693229 -0.007485359
000140 64 20 96 bd 4d 6a ba bd 36 6a d7 bc d1 87 e0 3c
       -0.07330397 -0.091023065 -0.026295763 0.027408512
000150 18 3d aa bc fd 92 67 3d 09 cd 14 3d ff ce 9d bd
       -0.020781085 0.056536663 0.03632835 -0.07705497
000160 23 95 aa bd 55 9e d6 3c 1e 75 76 3d 43 f7 d4 bc
       -0.08329227 0.026198545 0.060170285 -0.02599681
000170 96 f1 31 bc 38 f9 8b bd b3 66 63 3c 0c f5 eb bc
       -0.010860821 -0.06834644 0.013879466 -0.02880337
000180 b8 bb 9f 3d f3 ef de 3c 73 ab 9e 3c fd a6 83 3b
       0.077994764 0.027214026 0.019368863 0.0040177093
000190 19 1b 58 3d 91 7c 66 3d b9 01 a3 bd 44 55 fb bc
       0.052760217 0.05627114 -0.07959313 -0.030680306
0001a0 fd ba 9b bd 65 83 54 bd 20 1d 8c 3d 9f 05 57 3d
       -0.076040246 -0.05188312 0.06841493 0.052495595
0001b0 4a 15 2c 3d 15 ab f6 bc 3f 63 4a 3d 16 83 26 3d
       0.04201249 -0.030110875 0.049411055 0.040652357
0001c0 31 2e 9e 3c c4 76 f5 3c 9e 1e 80 bc 8e ef 8c 3d
       0.019309135 0.029963858 -0.0156396 0.06881629
0001d0 be 90 1f bd 6f f3 06 3d 28 da b7 bd cc f1 c9 bd
       -0.038956396 0.032947 -0.08977157 -0.09860572
0001e0 c1 09 3a bd a4 93 83 bd e9 27 f7 bb 2d e4 d4 bd
       -0.04541946 -0.064246446 -0.0075425995 -0.103950836
0001f0 2c a5 69 bd 66 0f be 3c f8 c0 22 3c 0f 13 92 bd
       -0.057042286 0.023200702 0.009933703 -0.071325414
000200 07 21 57 bd 70 a1 1f bd 56 53 83 bd 2f 08 a5 bd
       -0.05252173 -0.03897232 -0.064123794 -0.080582015
000210 82 12 19 bd 43 5e ef 3c a7 b1 68 3c 5b d7 6f bd
       -0.037371166 0.029219752 0.014202512 -0.05855499
000220 ec aa 0e bc 07 be ed 3c d5 d9 96 bc 73 3d a3 bd
       -0.008707743 0.029021276 -0.018414417 -0.07970705
000230 c9 ee 1d bd bc ef 77 3c cc 7e 84 3d a7 79 b8 3c
       -0.0385578 0.015132841 0.06469497 0.022518946
000240 62 cb 62 bc b9 44 22 bd 57 e5 78 3c 9b 6c 4f 3d
       -0.013842436 -0.03961632 0.015191398 0.050640684
000250 30 dd 17 3b 26 63 98 bd a7 02 ba bc ad b9 06 3d
       0.002317261 -0.07440786 -0.022706343 0.032891918
000260 25 dc 24 3d d9 9b 39 bb 74 43 5a 3d 69 15 24 bc
       0.04024901 -0.0028321652 0.053286985 -0.01001487
000270 0f 9c 17 bd bf e2 8e 3d 77 84 91 bd e4 68 43 3d
       -0.037014063 0.06976842 -0.07105344 0.047707453
000280 57 1d 9c 3c 00 4c 9f 3a 51 37 72 bd 46 73 af 3d
       0.01905696 0.0012153387 -0.059134785 0.085669085
000290 1f 83 69 3d e4 16 31 3d dd 7a 84 bd 41 c9 b8 3c
       0.057009812 0.04323472 -0.06468747 0.022556903
0002a0 61 55 3c 3c f4 a4 9c bc 85 50 92 3d 32 a2 dd 3c
       0.011494965 -0.019121625 0.07144264 0.02705488
0002b0 74 f8 41 bc 81 89 c5 bc a9 ac 59 bd ce 0d 26 bd
       -0.011839021 -0.024113419 -0.053143177 -0.04054051
0002c0 ed 24 83 3d 94 eb 29 bc a4 aa 68 bd 73 5b 5b 3d
       0.064035274 -0.010371108 -0.05680336 0.05355401
0002d0 98 66 37 3d 79 c3 8b 3c 1b 9d 50 bd 7d bb 01 3d
       0.044775575 0.017060982 -0.050931077 0.031672943
0002e0 b9 b1 94 3d 3b 22 93 3d 15 9e 11 3d 11 b6 f3 b7
       0.072604604 0.07184263 0.03555115 -2.9052639e-05
0002f0 a3 0e 4b 3d 38 74 56 3d 88 83 cd bc 64 2d 59 3d
       0.049574506 0.05235693 -0.025087133 0.053021803
000300 d2 e2 52 bc ed 9d 79 bd 8e e1 bf bc c3 3d 7e 3d
       -0.012871461 -0.060941625 -0.023422983 0.06207062
000310 e0 bf 00 3d 4f cc 7c bc a6 76 99 bd 4a 6c 7b bd
       0.031432986 -0.01542957 -0.074933335 -0.06138257
000320 28 6b 83 3d 9b d5 79 3d 4a c6 9c 3c 09 97 89 3d
       0.06416923 0.060994726 0.01913752 0.06718261
000330 90 30 36 bc 5f 02 90 bd 81 84 79 3d bb 8b 5d bd
       -0.011119977 -0.07031702 0.06091738 -0.054088335
000340 69 ae c0 3d 11 bc 4a 3d 46 2e 44 bd b3 45 10 bd
       0.09408266 0.04949576 -0.047895692 -0.03522272
000350 25 78 db bc 1e 6e 05 bc 8d 4f 87 bd 16 73 47 3d
       -0.026790688 -0.00814393 -0.0660697 0.04869374
000360 d7 50 fe 3c b7 c2 83 bc b4 e5 45 3d 58 27 99 bd
       0.031044407 -0.016084058 0.048314765 -0.07478207
000370 94 d0 2b 3d cd e7 98 bb c8 22 03 bc 3b 8b 82 bd
       0.041946962 -0.0046663047 -0.008003898 -0.06374212
000380 45 90 01 bd 66 2c 00 3c 76 19 af bd 3e 19 7d bd
       -0.031631727 0.007823085 -0.08549778 -0.06179165
000390 db 13 c4 3c 86 af 3a ba d4 6f 96 bd 32 ae 81 3d
       0.02393525 -0.0007121492 -0.07345548 0.06332053
0003a0 d6 63 9d bc fc 56 8b bc 4c fe 90 bb b1 c5 77 bd
       -0.019212645 -0.01700925 -0.004424846 -0.060491268
0003b0 ff e4 6a 3d 89 c0 6f 3d e0 9f 9f 3d 42 77 1c bd
       0.057347294 0.058533225 0.077941656 -0.03819967
0003c0 92 65 37 bd 98 e3 9d 3d 7f ab 6d 3c f0 ec 09 3d
       -0.0447746 0.07709426 0.01450622 0.033673227
0003d0 4e bb 37 3d ea e8 0c 3d 09 a8 9e bd 7e 75 14 bc
       0.044856362 0.03440181 -0.07746894 -0.009061215
0003e0 41 c3 03 bd f1 30 c1 3c 40 c7 a3 3b 5f 96 3a 3c
       -0.03216863 0.023582907 0.0049981177 0.01138839
0003f0 ab 99 5f 3d 75 6b 9e 3d f4 b6 77 3d f6 a5 3f 3d
       0.05458991 0.077353396 0.060477212 0.046789132

conv2.0.bias f4 [32]
000000 54 81 7c bb f4 f3 03 bd 7d 0a 98 3c d1 f6 90 3d
       -0.0038529234 -0.032215074 0.018559689 0.070783265
000010 2a b7 28 bd 37 c4 09 3d 98 8c 93 3d db 15 10 3d
       -0.041190304 0.03363439 0.072045505 0.035177093
000020 03 6d b4 bd a5 54 88 3a 0e 9b 51 3d 0b 4e 95 bd
       -0.08809855 0.0010401203 0.051173262 -0.07290276
000030 0f 55 b3 3c 1b 8e 6f bd 62 c7 66 bc 62 eb e3 bc
       0.021891145 -0.05848513 -0.0140856225 -0.0278222
000040 b6 95 57 bd fb f2 53 3d 87 27 21 bd 40 e0 9c 3d
       -0.05263301 0.051745396 -0.039344337 0.0765996
000050 0e 9e 9b bc 2d e1 87 bd 15 5e a9 bc 9e 75 a6 bc
       -0.018996265 -0.06634746 -0.020674745 -0.020319756
000060 05 b2 30 3d 93 af 9f bd 24 36 4a bd ce 90 09 3d
       0.043138523 -0.0779716 -0.04936804 0.033585362
000070 2f 10 70 3d 29 35 95 3d 53 c9 8d bd 55 b6 b0 bc
       0.058609184 0.0728553 -0.06923165 -0.021571318

conv2.3.weight f4 [32]
000000 38 fd 82 3f 50 e9 78 3f 57 da 81 3f 03 5d 77 3f
       1.0233526 0.97231007 1.0144757 0.966263
000010 44 e1 7e 3f 4b 88 79 3f a0 d8 7b 3f 90 0f 83 3f
       0.9956248 0.9747359 0.9837742 1.0239124
000020 ff 26 7f 3f 6c 8f 7b 3f 82 e7 80 3f 51 98 78 3f
       0.9966888 0.9826572 1.007065 0.97107416
000030 e5 83 82 3f c1 55 83 3f df 2a 7c 3f db 9a 82 3f
       1.0196501 1.0260545 0.98502916 1.0203508
000040 c2 3d 7c 3f 2b c9 7a 3f ad a5 82 3f 04 b0 7f 3f
       0.98531735 0.9796321 1.020681 0.99877954
000050 a3 95 7e 3f 0a 17 7e 3f 45 1b 7e 3f bb b9 83 3f
       0.9944708 0.99253905 0.9926036 1.0291055
000060 52 9a 81 3f 86 4c 7d 3f 90 51 81 3f a2 5a 79 3f
       1.012522 0.9894489 1.0103016 0.9740392
000070 70 5b 7d 3f 71 a6 7b 3f c8 8a 7c 3f 9f bc 80 3f
       0.9896765 0.98300844 0.98649263 1.0057563

conv2.3.bias f4 [32]
000000 66 7c 76 3c 3d bc 0a 3c 15 84 38 3c f3 c9 d6 3b
       0.015044307 0.008467731 0.01126196 0.006554836
000010 74 43 9a 3c 5c ea bc 3c 7a f6 1c 3c 63 47 8d 3c
       0.018830992 0.02306097 0.009580249 0.017245954
000020 6e c0 66 3c 0f 8b 1d 3c 6f bf 6b 3c 80 a0 8c 3c
       0.014083965 0.009615674 0.014388903 0.017166376
000030 cc cc 44 3c 5e 55 27 3c b2 58 14 b7 34 da 9b 3c
       0.012011718 0.010213224 -8.842138e-06 0.019024946
000040 53 fd a6 3c 9d ff 62 3c d1 b9 9c 3c 7e 76 87 3c
       0.020384466 0.013854888 0.019131573 0.016535994
000050 d4 28 a8 3c ad d5 e7 3c 44 b6 b9 bb dd cd 28 3c
       0.02052728 0.02830013 -0.0056674797 0.010302988
000060 82 93 24 3c bc c6 f5 3a 65 40 c4 3c de fd 22 ba
       0.010044934 0.0018751244 0.023956487 -0.0006217639
000070 df af ac 3a 25 d0 09 3c 68 45 eb bb e4 3e d9 3b
       0.0013174972 0.008411442 -0.0071799047 0.0066298116

conv2.3.running_mean f4 [32]
000000 e3 bd a6 3e fa 05 99 3e 4b 25 6d 3e 19 5e fb 3e
       0.32566747 0.29887372 0.23158757 0.49095228
000010 30 91 9b 3e 36 6f ba 3e a4 c8 ca 3e fc 11 a2 3e
       0.30384207 0.36412972 0.39606202 0.31654346
000020 30 c8 47 3e 5c 88 b6 3e 41 fe 80 3e 79 47 88 3e
       0.19509959 0.3565091 0.2519398 0.2661703
000030 9d c0 9e 3e 40 0a 70 3e 22 2d 88 3e 70 04 62 3e
       0.31006327 0.2344141 0.26596934 0.22072005
000040 8d 69 b5 3e df 62 19 3f 49 f5 55 3e 42 cf bb 3e
       0.3543209 0.5991649 0.2089435 0.36681563
000050 be 29 9f 3e 11 68 c9 3e 1e 20 b6 3e bb 3e 92 3e
       0.31086534 0.3933721 0.35571378 0.28563485
000060 9e 40 e6 3e e2 07 cd 3e ad 50 b2 3e 9f 9e d5 3e
       0.44971174 0.40045077 0.34827176 0.4172258
000070 41 f1 0b 3f 64 29 cb 3e 9c e5 a2 3e 39 30 a1 3e
       0.54665 0.39680016 0.31815803 0.31482103

conv2.3.running_var f4 [32]
000000 75 c3 86 3e 86 05 9d 3e b0 fc 90 3d 90 95 d7 3e
       0.26320997 0.30668277 0.07079446 0.42106295
000010 58 2a 06 3e 47 14 20 3e 35 d9 0d 3e 34 6e 90 3e
       0.1310209 0.15632735 0.13852389 0.28209078
000020 ad ad ef 3d 5b a7 1d 3e 97 9b a1 3d 16 c6 2e 3e
       0.11703048 0.15395872 0.078910045 0.17067751
000030 e2 18 63 3e 4f 44 09 3e 63 84 35 3e 47 5a 9d 3d
       0.22177461 0.13404964 0.17726283 0.07683235
000040 eb 13 b8 3e 83 1e ff 3e 40 a1 0b 3e 72 0f 7b 3e
       0.35952696 0.49827966 0.1363573 0.2451761
000050 1d e4 85 3e aa 7e 91 3e 72 c7 96 3e d4 0d 86 3e
       0.261506 0.2841695 0.2944904 0.26182425
000060 ab 06 c2 3e df cd b4 3e 7a ae 2a 3e b4 e1 53 3e
       0.37895712 0.35313317 0.1666812 0.20691568
000070 38 4a c1 3e 16 63 b1 3e 29 d2 09 3e 41 e8 81 3e
       0.37751937 0.3464591 0.13459076 0.25372508

conv3.0.weight f4 [64, 32, 3, 3]
000000 6a 7d bd bb 25 04 c5 bb 0d 15 8f bc 9e 3c 9b bc
       -0.005782773 -0.006012457 -0.017466092 -0.018949803
000010 65 69 ec bb 9e 63 bf bc 57 58 4c bd d4 65 0d 3d
       -0.0072147124 -0.02336293 -0.049888935 0.03452094
000020 15 16 95 bd 27 6f 07 bd db cb 45 3d ff b1 31 bb
       -0.072796024 -0.033064988 0.048290115 -0.002711415
000030 f0 e5 b3 bb 30 54 3b bd cb d4 a9 bc ba a9 fa 3a
       -0.005490057 -0.045734584 -0.02073135 0.0019124069
000040 91 cb 54 bc 46 86 71 3d 51 5d ec bc 93 0b a7 bc
       -0.012987987 0.058965944 -0.02885309 -0.020391261
000050 b1 a6 9c bd 0f 6a 3d 3c 1a 1b 2d bb 8e a4 c2 bb
       -0.07648981 0.011560931 -0.002641386 -0.0059400266
000060 84 5b 9c bd 9b 90 85 3c 4d 93 00 bc c4 b3 28 3d
       -0.07634643 0.016304305 -0.007847619 0.041187063
000070 62 b1 30 bd b3 56 6f 3d 91 c5 1a bc a0 c8 31 bd
       -0.043137915 0.058432292 -0.009446518 -0.04340422
000080 a8 53 6b bc d2 df cf bc 44 3b 4f bc 4c 7a 37 bd
       -0.014363207 -0.02537528 -0.012648407 -0.044794366
000090 56 a7 9a bd 8e 45 8f bd 02 24 c6 bc 1f e3 b4 bc
       -0.07551448 -0.069956884 -0.024187092 -0.022080956
0000a0 54 32 8f bd c5 d9 3d bd b2 dd a2 bc 57 92 d1 3a
       -0.06992021 -0.04635026 -0.019881103 0.0015989047
0000b0 d7 48 e9 bb 74 d0 08 bd f1 36 81 bc 6f 6a 73 bc
       -0.007119279 -0.03340192 -0.015773268 -0.014856919
0000c0 aa e3 2e 3d 61 fa c6 3c 17 6d 3b 3c 86 7c 9a bc
       0.042697586 0.024289312 0.011439583 -0.018858206
0000d0 21 fc 04 3d 9f ba 02 3d 91 92 b8 3c f9 d5 8b bd
       0.03246701 0.031916257 0.022530826 -0.068279214
0000e0 80 1b 07 bc 20 28 06 3d d1 f4 6c bd 30 f6 13 bd
       -0.008246303 0.03275311 -0.057850663 -0.036123455
0000f0 56 7c 14 bd fd d2 cd bb 9e b9 63 bd ed bd 35 bd
       -0.03625139 -0.0062812553 -0.05559694 -0.04437058
000100 e8 78 53 bd 4f d0 4b bd bd a3 8a bd c1 e6 94 bb
       -0.051628977 -0.049759205 -0.06769512 -0.0045441096
000110 0c fb 86 bd b3 63 35 bd 77 04 2e 3d 8a c8 e6 3c
       -0.06590852 -0.044284534 0.042484727 0.028171796
000120 80 ef 8a bc d2 32 1e 3d b7 39 d7 3c 88 a4 1e 3d
       -0.016959906 0.038622685 0.026272638 0.038731128
000130 38 1c 29 bb d0 fd ea bc 69 9b 8a bd 5c 6c cc 3c
       -0.0025804173 -0.02868548 -0.067679234 0.024954014
000140 84 a8 29 3c ec b6 a6 3b e9 7a 36 bc 4d 77 08 3c
       0.010355119 0.005087724 -0.0111377025 0.008329225
000150 9f 8b a1 bc 4d 5a 1b 3d 2a f4 5f 3c 4a c4 0d 3b
       -0.019719897 0.037927914 0.013669053 0.002163189
000160 50 bd 12 3c 94 ae 06 3d a7 08 05 bd 2d 1e ed bc
       0.008956268 0.032881334 -0.032478955 -0.028945053
000170 06 d6 0c 3d ae 98 65 bc d3 0d ed bc 79 25 dd 3c
       0.034383796 -0.014013452 -0.028937256 0.026995407
000180 47 4b 39 bd b4 a3 85 3a ee 66 67 39 e5 16 00 3c
       -0.045237806 0.0010195882 0.00022068221 0.0078179585
000190 c9 2a c8 3c a6 fe 32 3d 04 6b fa bc b5 df 08 bc
       0.024434464 0.043699883 -0.030568607 -0.008354117
0001a0 26 96 9a 3b a6 96 f2 bc 37 d1 1c bd ce 93 98 bb
       0.004717606 -0.02961285 -0.03828546 -0.0046562916
0001b0 8b 02 9e bc 10 3a 27 3d ab c2 2d 3d cc a7 2f bd
       -0.019288322 0.040826857 0.042421978 -0.042884633
0001c0 ea 5c 23 3d 8b 3e 1e 3b 29 78 27 bd de 25 be 3c
       0.03988353 0.0024146165 -0.040886078 0.023211416
0001d0 24 20 e8 ba c6 8a 65 bd 62 63 59 bd 8f 4a 62 bd
       -0.0017709774 -0.056040548 -0.053073294 -0.055246886
0001e0 e8 1e 90 bd e8 8d 5f bd 07 c9 b2 bc 2e 1d 4d bd
       -0.07037145 -0.05457869 -0.021824373 -0.050076656
0001f0 bf ff df 3c 3c 13 09 bc 40 cf 2a 3c 35 48 27 3d
       0.027343629 -0.008366402 0.010425389 0.040840346
000200 58 70 1c 3c 9e 75 1d bd 96 46 9e bc 18 8c c2 38
       0.009548269 -0.038442247 -0.019320767 9.276735e-05
000210 c0 a6 2b 3a f3 c8 ee 3c a6 0e 49 bc 0b bf de bc
       0.000654798 0.029148554 -0.012271559 -0.027190706
000220 65 9e 06 bd 21 0f c4 3c 99 9b da bc 14 9b b8 bc
       -0.0328659 0.023932995 -0.026685523 -0.022534885
000230 d7 2f d5 bc 0b 4f 48 bd 91 c5 b7 3c 47 d7 59 bc
       -0.026023788 -0.048903506 0.022433074 -0.013295955
000240 c9 c4 56 3d 0d 8d 97 bc b6 12 39 bd b1 1e 47 bd
       0.052433763 -0.018499875 -0.04518386 -0.048613254
000250 51 e5 cd 3a 61 57 fb bb 80 14 4c bd b2 99 d5 3c
       0.00157086 -0.0076703285 -0.049824238 0.026074264
000260 e1 c2 b6 3c 95 44 b2 bc 3a ca 43 3c d1 e8 97 3c
       0.022309722 -0.021761218 0.01195007 0.018543633
000270 5e ab e6 bc 3b af e0 3c a9 38 8a bd 86 df 96 bb
       -0.028157886 0.027427306 -0.06749088 -0.004604283
000280 51 4b 11 3d 63 b8 f0 3c cb 96 73 bc a7 4d 18 3d
       0.035472218 0.029384797 -0.014867495 0.03718343
000290 e2 c9 0f bd e3 03 11 3d 20 f6 a2 3c e5 3d 86 bd
       -0.03510464 0.035404097 0.019892752 -0.06554774
0002a0 4e 0d 39 bd a7 80 15 bc 6c 77 2b 3d ea ba 71 bd
       -0.045178704 -0.009124911 0.041861936 -0.059016146
0002b0 56 ae 20 bd 47 37 00 3d 27 c8 5a bd 69 1b 3c bd
       -0.03922876 0.031302717 -0.053413536 -0.045924578
0002c0 4f b0 fe bc b4 59 c7 bb 4c b8 f9 3c f9 1a 48 bc
       -0.03108993 -0.0060836915 0.030483387 -0.012213462
0002d0 e8 99 14 3d c2 4d 94 bc fa 94 50 bd 52 8c 2b bd
       0.03627959 -0.018103484 -0.050923325 -0.041881867
0002e0 fd fd 05 bc 4a 8e 44 bd 6a 9d d3 bc 92 bc bb 3c
       -0.008178231 -0.04798726 -0.025831897 0.022917066
0002f0 c3 20 fd 3b 2a 89 9c bc 8d bd 33 bd 4b ad 0d 3d
       0.0077248528 -0.019108374 -0.04388194 0.034589093
000300 14 f0 30 3c ea 28 14 bc 37 80 58 bd c4 66 d5 3c
       0.010799427 -0.009042958 -0.05285665 0.026049979
000310 f1 52 54 3c d1 fb 23 bd 37 d3 9a 3c 8a 18 22 bc
       0.012959228 -0.040035073 0.018899543 -0.009893546
000320 69 c2 13 3d 3d 7d 02 bd ff 2d 77 3d e2 6f d6 3c
       0.036074076 -0.031857718 0.0603466 0.026176397
000330 1d 9c 07 bd dd de 32 bd 93 70 64 bc b9 f1 7e 3b
       -0.033107866 -0.04366957 -0.013942855 0.0038901402
000340 bd c6 57 bd 02 03 98 bd 33 30 16 bd 1f dc dd bc
       -0.052679766 -0.07422449 -0.03666706 -0.027082501
000350 8e c4 7d bb 2c 2b fc bc 31 c2 09 bd c3 92 8d bd
       -0.0038721892 -0.030782305 -0.03363246 -0.06912758
000360 c4 bb 50 bb f4 38 10 bd c9 cb 91 bd bf dd e1 3c
       -0.0031850198 -0.035210565 -0.07118947 0.027571557
000370 5c b6 91 3b d4 9f 41 bd 82 84 bd bc 5e 5c 1e bd
       0.0044467878 -0.047271565 -0.023134474 -0.038662307
000380 42 1c 1b bd 7d 51 73 3c 32 e6 64 3d 8e d1 c0 bc
       -0.037868746 0.014850971 0.055883594 -0.023537423
000390 48 9f da bc c2 96 9a 3c f3 bc 6c bb 83 71 52 bd
       -0.02668728 0.018870715 -0.0036123365 -0.051377784
0003a0 3a e9 07 3d cc 8e 51 bd b5 06 c7 bc 4d e2 ba b9
       0.033181407 -0.051161572 -0.02429519 -0.00035645292
0003b0 19 e5 db bb 71 d1 3c 3c 6d e5 ac bc 06 8d 26 3b
       -0.00671066 0.011524544 -0.021105492 0.0025413646
0003c0 1b b5 8b bd 8b a4 8a bd b1 cd 82 3c 4f 9b e3 bc
       -0.068216525 -0.06769665 0.015967222 -0.027784018
0003d0 2b a8 4a bd 6c 0b 63 bd db 84 76 3b ac c7 28 bd
       -0.049476784 -0.055430815 0.003761581 -0.041206047
0003e0 2f b1 64 bd 19 58 48 bd f1 39 aa 3b 79 06 13 3d
       -0.055833038 -0.04891214 0.0051948954 0.035894845
0003f0 fd ad 9f bb 2e f2 eb bc f1 05 2f bd b9 29 7d bd
       -0.004873036 -0.028802004 -0.042730276 -0.061807368

conv3.0.bias f4 [64]
000000 cd 96 fc bc 2b 6b 01 3d 11 be cb bc 5c d1 3e bd
       -0.030833626 0.031596344 -0.024870904 -0.04658638
000010 58 6b 4b 3d 77 b5 4a 3d dd 28 05 bd db e8 c0 3c
       0.049662918 0.049489465 -0.032509673 0.023548534
000020 1e 66 1e 3d 32 23 f4 bc 26 52 80 3d 7e 24 34 3b
       0.038671605 -0.029801939 0.062656686 0.0027487571
000030 aa 26 b9 3c 42 3f 52 3d c7 02 fc bc 82 83 7a 3d
       0.022601444 0.05132986 -0.030763043 0.061160572
000040 36 17 ee 3b 92 70 80 ba 83 46 82 3c 15 cd 2e bd
       0.0072659506 -0.0009799174 0.015902763 -0.04267605
000050 11 91 5e bc c0 be ab bc 59 56 14 3c 44 f3 f6 bb
       -0.013584391 -0.02096498 0.00905379 -0.0075363237
000060 23 23 ef 3c c6 89 2d 3d bd b2 84 bc 80 74 00 bd
       0.02919156 0.04236772 -0.01619851 -0.031361103
000070 bd 05 36 bd 91 3a c1 3c dd 84 40 bd c9 42 d3 bc
       -0.044439066 0.023587497 -0.04700171 -0.025788682
000080 41 e6 8a bc d9 10 cb bc ec c2 c6 3c e2 ff 1b bd
       -0.016955497 -0.024788307 0.024262868 -0.038085826
000090 fe 3c dd 3c 70 00 3b 3d d1 54 41 bd 15 b4 0c bd
       0.027006622 0.045654714 -0.047200028 -0.034351427
0000a0 34 a9 fe bc 65 a4 2a 3d 4c df 51 bc 9d f4 81 3c
       -0.031086542 0.041660685 -0.012809586 0.015863711
0000b0 b9 f1 70 3d 7b 8a 89 3c ed 2a 96 3c 34 76 51 3d
       0.058824275 0.016789665 0.018331015 0.051138118
0000c0 41 9c 67 3c 9d ce 2b bd 19 d6 8d 3b 48 00 b9 bc
       0.014136375 -0.04194509 0.004328501 -0.022583142
0000d0 d9 c1 41 bd e9 24 98 3c 0f 51 f0 3c b1 ba 0c bd
       -0.04730401 0.018572288 0.029335527 -0.03435773
0000e0 05 06 21 3d fe 20 9d bb b8 9c 3c 3d d5 10 23 3d
       0.03931238 -0.0047951927 0.046047896 0.039810974
0000f0 96 56 15 3d 49 36 53 ba 65 8c 37 bd 8b db af bc
       0.036459528 -0.00080571003 -0.044811625 -0.021466991

conv3.4.weight f4 [64]
000000 02 fb 83 3f 58 75 83 3f 55 46 85 3f 2b 6d 83 3f
       1.0310977 1.0270185 1.0412089 1.026769
000010 83 b4 84 3f 65 4c 85 3f b2 7e 87 3f 9c 8b 81 3f
       1.0367588 1.0413939 1.0585539 1.012073
000020 74 70 7b 3f f2 7c 84 3f 35 95 85 3f af 46 82 3f
       0.98218465 1.035063 1.0436159 1.0177821
000030 99 43 84 3f 5c 28 83 3f c8 5b 82 3f 2e 0a 86 3f
       1.0333129 1.0246692 1.018426 1.0471857
000040 8c d7 82 3f a8 63 83 3f 08 98 85 3f c0 0d 81 3f
       1.022203 1.0264788 1.0437021 1.0082321
000050 63 a1 81 3f 81 d2 86 3f 56 c9 86 3f 08 e3 82 3f
       1.0127376 1.0532991 1.0530193 1.0225534
000060 d2 5b 81 3f 73 6f 82 3f 4f 99 7e 3f d1 20 84 3f
       1.0106146 1.0190262 0.9945268 1.0322515
000070 6a 5f 83 3f 3c 86 84 3f 77 a4 84 3f c5 3a 82 3f
       1.0263493 1.0353465 1.0362691 1.0174185
000080 ad 9e 80 3f fc 6f 84 3f 3f ef 82 3f 83 74 81 3f
       1.0048424 1.0346675 1.0229262 1.0113682
000090 93 bd 7d 3f 8d cb 86 3f c5 9f 84 3f b4 26 83 3f
       0.9911739 1.0530869 1.0361258 1.0246186
0000a0 b2 5c 82 3f c8 d1 7f 3f 65 8e 7d 3f 44 e5 81 3f
       1.0184538 0.99929476 0.990454 1.0148091
0000b0 fd 41 84 3f ef d7 85 3f 16 57 80 3f ad 51 82 3f
       1.0332638 1.0456523 1.0026577 1.0181175
0000c0 c0 1f 82 3f 92 dc 87 3f 6d 6e 84 3f 52 d6 83 3f
       1.0165939 1.0614188 1.0346199 1.029978
0000d0 23 b3 7d 3f 7c b8 82 3f 07 9b 86 3f 2a cc 84 3f
       0.99101466 1.021255 1.051606 1.0374806
0000e0 5b d6 83 3f f0 85 84 3f 9b 56 86 3f 43 76 7d 3f
       1.0299791 1.0353374 1.049518 0.9900858
0000f0 0d 9a 86 3f dc f0 86 3f 07 9a 7d 3f 5c a5 85 3f
       1.0515763 1.0542254 0.9906315 1.0441089

conv3.4.bias f4 [64]
000000 cc a1 72 bc d8 81 17 bc 5c 06 31 3c e1 56 1d bb
       -0.014809083 -0.009247266 0.010804739 -0.0024008083
000010 a7 f7 14 3c 58 2b ef 3b 8a e9 55 3c 86 2f 17 bc
       0.009092248 0.007298868 0.013056168 -0.009227639
000020 ec ea 4f bc 33 3f 85 3c 8c ca 43 3c 79 b9 92 bc
       -0.012690287 0.016265487 0.011950146 -0.017910706
000030 1e 8a 03 bc a1 5f 2b bc e6 cb a2 bb f9 90 50 3b
       -0.008028535 -0.010459811 -0.0049681542 0.0031824692
000040 86 84 8c bb 8c 7d c5 bb 4c ed 25 3c 25 6d 02 3c
       -0.004288259 -0.0060269292 0.010127377 0.007960592
000050 ea 33 4e bc 42 b8 7f 3b d4 2c 83 3c 3a d4 12 bc
       -0.012585619 0.0039019738 0.016012587 -0.008961732
000060 70 45 78 bc c9 67 c9 bb 8d 36 15 bc aa ab ea bb
       -0.015153274 -0.0061464054 -0.009107244 -0.007161577
000070 cb 8f 8a bc d2 6c a4 3b 49 27 fd bb cb bd 65 bc
       -0.016914269 0.005017855 -0.0077256304 -0.014022301
000080 8e c6 f7 3a 1c 64 2a bc 39 9f 6e bc d4 3b 21 bc
       0.0018903778 -0.0103998445 -0.014564329 -0.009840924
000090 4c c4 8e bc bd 7c 12 3c 1f ab c1 3b 54 89 cc 3a
       -0.017427586 0.008940873 0.005910292 0.0015604892
0000a0 e9 ce 1f bc 06 26 4b 3c 1a 02 ff 3b 2d b2 f6 3b
       -0.009753921 0.012399202 0.007782233 0.0075285644
0000b0 a5 ab 56 bb b3 86 de 3b 15 ab 7f bb c1 fb 14 bc
       -0.0032756117 0.0067909597 -0.0039011885 -0.009093226
0000c0 6b 7a bf bc 99 05 32 3c 42 af 05 bc ce 17 1a 3c
       -0.023373803 0.010865592 -0.0081594605 0.00940509
0000d0 ea 44 92 bc a8 db a9 3b 2d 87 e4 3b a1 a4 5e bc
       -0.017855126 0.005183656 0.006974122 -0.013589055
0000e0 16 bb a5 bb 78 20 7f 3c a0 5b 54 3c 29 e8 13 3c
       -0.005057703 0.015571706 0.012961298 0.009027519
0000f0 9c 69 14 3c 8c 1d 66 3c 01 a4 7d 3a 31 6b 83 3c
       0.009058382 0.01404513 0.00096756226 0.016042324

conv3.4.running_mean f4 [64]
000000 c1 fd 17 3f ee 61 3c 3f 82 15 0e 3f c5 a5 f3 3e
       0.5937157 0.7358693 0.5550157 0.4758741
000010 eb b7 11 3f 64 a3 fb 3e 78 3b 00 3f 8a 93 1c 3f
       0.5692126 0.49148095 0.5009074 0.61162627
000020 b5 53 1a 3f 12 03 d0 3e 93 57 01 3f dd 50 3d 3f
       0.60283977 0.40627342 0.5052425 0.7395151
000030 48 bc ff 3e 8a 61 36 3f 1e 7c 0f 3f 73 49 ff 3e
       0.49948335 0.7124258 0.5604876 0.49860725
000040 1f 45 0f 3f 99 23 10 3f c5 08 07 3f 64 48 01 3f
       0.55964845 0.5630432 0.52747756 0.50501084
000050 b2 5c 19 3f 05 8c e4 3e 09 a5 0d 3f f6 0e df 3e
       0.59907067 0.44638076 0.5532995 0.43566102
000060 9c dc 13 3f a7 c2 13 3f 2b 95 d3 3e 47 08 e2 3e
       0.577585 0.5771889 0.41324744 0.4414694
000070 54 ca 2e 3f ab 59 0c 3f 8f 6e 12 3f d1 c4 2d 3f
       0.6827748 0.5482432 0.5719995 0.67878443
000080 37 31 1b 3f 59 96 06 3f 18 dd 0f 3f 79 90 18 3f
       0.6062197 0.5257316 0.5619674 0.5959545
000090 df 0a 33 3f 61 07 02 3f b5 2e e7 3e 0c 17 f7 3e
       0.6993846 0.5079251 0.45152822 0.4825977
0000a0 18 53 fd 3e 6a 6e 11 3f 51 4d 00 3f 27 ef 23 3f
       0.49477458 0.56809103 0.50117975 0.6403679
0000b0 3a 85 1e 3f d3 db 0d 3f 2d f4 f6 3e 8c 10 1e 3f
       0.6192204 0.5541355 0.48233166 0.61744
0000c0 ee 34 03 3f 89 53 03 3f 15 f8 0c 3f 11 99 17 3f
       0.5125264 0.5129934 0.55066043 0.59217936
0000d0 35 56 da 3e c5 d1 21 3f 7e 02 07 3f bf ce f6 3e
       0.42643896 0.6321071 0.5273818 0.4820461
0000e0 84 f8 25 3f 5b 2b 0e 3f 03 ea e7 3e 7f c4 38 3f
       0.6483233 0.55534905 0.45295724 0.7217483
0000f0 01 9e 13 3f 6d 97 07 3f b6 af 12 3f e3 08 f8 3e
       0.5766297 0.5296543 0.57299364 0.4844428

conv3.4.running_var f4 [64]
000000 b8 d6 7d 3f aa 23 c6 3f 92 43 35 40 5e ec e7 3f
       0.9915576 1.5479634 2.8322492 1.8119009
000010 c5 df 0a 40 31 52 d3 3f c1 38 ff 3f 84 82 8a 3f
       2.1699078 1.6509458 1.9939195 1.082108
000020 e1 1c 75 3f e4 54 a2 3f 7a 13 da 3f 99 b6 e2 3f
       0.9574719 1.2682157 1.7037194 1.7711974
000030 8e 58 04 40 c7 fb ab 3f e2 ab 77 3f 15 46 c3 3f
       2.067905 1.3436211 0.9674665 1.5255762
000040 d0 33 5b 3f e9 5f 75 3f 3a 7c 03 40 85 2f d4 3f
       0.85625935 0.9584947 2.0544572 1.6577002
000050 50 5c 7e 3f 06 1a b4 3f 81 00 2a 40 4c 86 ba 3f
       0.9935961 1.4070442 2.6562808 1.4572234
000060 68 8d 8d 3f 59 b0 61 3f 90 04 3c 3f f8 9f c9 3f
       1.1058779 0.8815971 0.7344446 1.5751944
000070 fd b9 af 3f 53 81 1a 40 4f 6c 75 3f 41 60 c6 3f
       1.3728634 2.4141433 0.9586839 1.5498124
000080 5c fb 0c 40 66 0e 58 3f 5d 63 65 3f 21 7d 6a 3f
       2.2028418 0.8439697 0.8960474 0.9159718
000090 76 b4 db 3f 67 c7 03 40 93 92 bf 3f bd 3a 05 40
       1.7164447 2.0590456 1.4966606 2.08171
0000a0 81 ab 46 3f e1 2e 61 3f f3 97 3b 3f 6e 99 81 40
       0.77605444 0.87962157 0.7327873 4.049979
0000b0 12 11 93 3f 27 5d 20 40 57 6b ea 3f a4 32 92 3f
       1.1489584 2.5056856 1.8314008 1.1421704
0000c0 0b e4 12 40 f6 f5 00 40 d6 6e 58 3f 02 e8 31 40
       2.2951686 2.0150123 0.8454412 2.7797856
0000d0 58 af 2c 3f 72 e8 58 40 72 76 13 40 92 dc 2c 3f
       0.67455053 3.3891873 2.3041043 0.67524064
0000e0 fb 0e 87 3f 7e 9f 14 40 1c 3b a8 3f d8 cb 0c 40
       1.0551447 2.3222346 1.3143039 2.1999416
0000f0 19 91 3b 40 f1 52 d6 3f 07 d5 a9 3f 15 5c ce 3f
       2.930731 1.6744062 1.3268136 1.6121851

fc.0.weight f4 [32, 64]
000000 ba 84 e3 3d 01 4f 1a 3e 58 e2 62 3d 5f ea b8 3c
       0.111093 0.150692 0.05539164 0.022572694
000010 49 01 18 be 14 47 72 3d 84 ab b7 b9 ab c6 1d bd
       -0.1484424 0.059149817 -0.0003503227 -0.038519543
000020 7e 1c 31 3d e2 79 10 bc a7 6f a1 bd e1 c0 d8 bd
       0.043240063 -0.008818122 -0.07882624 -0.10583664
000030 d3 60 9e bd ec c3 de 3b 20 a3 ba 3d ad 6a 02 be
       -0.077333115 0.006798258 0.09113145 -0.12736006
000040 2b c8 49 3c da e8 f0 3a cb b4 ab bd b9 ec 69 bd
       0.01231579 0.0018379942 -0.08384093 -0.057110522
000050 22 c0 c1 bd 04 b2 33 3d c9 ce b3 3c 00 be 23 be
       -0.094604746 0.04387094 0.021949189 -0.15990448
000060 2e ea aa 3d 51 ee a2 bc 4a 98 c7 bd 18 28 1c bd
       0.083454475 -0.019889029 -0.09745844 -0.038124174
000070 ff fe d8 3d d2 34 59 bc 49 5e 03 ba fb 13 ec 3d
       0.10595512 -0.013257222 -0.0005011303 0.115272485
000080 26 9b 98 3d 9e 58 c4 3c d6 d9 9c 3d bb b3 b2 3d
       0.07451467 0.023968037 0.076587364 0.08725687
000090 75 38 9c 3d 89 39 ec bd 76 8f 04 3d 0e 3b cb bd
       0.07627956 -0.115344115 0.032363378 -0.09923373
0000a0 4b c7 82 3d 8e d5 1b 3d bc 7f 07 bd 22 5c 2f bd
       0.06385668 0.03804546 -0.0330808 -0.042812474
0000b0 6e c4 e9 3d 3c 6a 0e be 30 cb 46 bd 63 06 52 bd
       0.11414419 -0.13907713 -0.04853362 -0.051275622
0000c0 ee fd 89 3d 98 8d 6a bd 72 47 3b bc f9 53 d0 bd
       0.06737886 -0.05726394 -0.011430608 -0.101722665
0000d0 83 72 28 3d 2c 8b cd bd 25 72 94 bb dd b1 ef 3d
       0.041124832 -0.100363106 -0.0045302087 0.117038466
0000e0 de 6b 4d 3d 3f b8 8c 3d 3e 63 08 be 44 b4 df bc
       0.0501517 0.0687108 -0.13319108 -0.027307637
0000f0 6a e8 b6 bc c6 81 39 3d f2 7c a7 bc c8 c3 de bd
       -0.02232762 0.045289777 -0.02044532 -0.10877186
000100 a1 83 94 bd 22 71 16 bd 56 a7 2f bd f5 77 ed bd
       -0.07251669 -0.036728986 -0.042884193 -0.115951456
000110 cd 4e a4 3b 52 a7 82 3d fb 76 8f bd ac e6 6b 3d
       0.0050142766 0.0637957 -0.070051156 0.057593033
000120 0d b5 ef bd 90 15 b3 bd c7 26 b2 3d fc fe d4 bd
       -0.117044546 -0.08744347 0.086988024 -0.10400197
000130 b2 40 46 bd 62 99 c7 3d 0e 6c 17 3e 07 67 59 bd
       -0.048401542 0.09746052 0.14787313 -0.05307677
000140 9d d6 e3 3d a5 3e 6c 3d 10 29 27 bd 9d a5 8e 3d
       0.111249186 0.05767693 -0.040810645 0.06965182
000150 77 9b 37 bd 7c 3c 07 be 5b af 16 be 90 e4 fb bd
       -0.044825997 -0.13206667 -0.1471533 -0.12299454
000160 ba 5c f8 bc 0c b3 f0 3d 05 c4 ba bc 9d 7b b3 bd
       -0.030317653 0.117529005 -0.022798548 -0.08763812
000170 1e a3 c8 3d e9 2e da bd 38 09 a9 3b f6 cb a8 bd
       0.09796737 -0.10653479 0.0051585697 -0.082420275
000180 26 4e f0 3b a0 65 02 3e e5 6d 04 3e d0 dc 05 3e
       0.007333535 0.1273408 0.12932546 0.13072515
000190 0c 55 21 3d b3 71 15 bd ac b5 80 bd f5 b9 f2 bd
       0.039387748 -0.036485385 -0.06284651 -0.11851875
0001a0 85 38 b3 bd ba fb d5 3b 47 d2 b6 3d c2 34 b0 3d
       -0.087510146 0.0065302523 0.08926826 0.08603813
0001b0 9e f7 27 bd 98 bc 31 bd a0 d6 81 3d eb 32 dd 3d
       -0.04100763 -0.043392748 0.063397646 0.108007275
0001c0 36 95 01 be 74 40 31 bc 72 92 ad bd ab 3d 98 3c
       -0.12654576 -0.0108185895 -0.08475198 0.018584093
0001d0 c5 4c ac 3d f9 94 12 bd d9 6a 1f 3c ad 23 1c 3e
       0.0841308 -0.035786603 0.009730064 0.15247984
0001e0 84 c6 08 3e 8a 0b c2 bc 92 18 94 bc e8 d8 64 bc
       0.13356978 -0.023687143 -0.018078122 -0.01396773
0001f0 6a 38 b8 bd 9b ee f5 3c 04 36 33 3b 64 78 22 bd
       -0.08995135 0.030021003 0.0027345428 -0.039665595
000200 08 d7 84 bc 82 69 27 3d 15 e4 a1 bd 83 44 95 bd
       -0.016215816 0.040872104 -0.07904831 -0.07288458
000210 9b 55 cc bd e4 c9 56 3c e8 97 fe bd 1d 1a 11 3d
       -0.099772654 0.013109658 -0.124313176 0.035425294
000220 57 af 78 3d 3c 38 eb 3c f6 45 64 bd 3d b0 ab 3d
       0.060714092 0.028713338 -0.055730782 0.08383224
000230 2c f0 a8 bd 3c 12 b6 3d 85 85 91 3d bd a1 b6 bd
       -0.08248934 0.08890197 0.07105545 -0.08917568
000240 3e e9 5b 3d d0 12 92 3d 98 74 9c 3d a9 fd ef bd
       0.053689234 0.071324944 0.07639426 -0.11718304
000250 e3 20 b7 3c af 3d 8c bd db e3 cc bd 1d 7e ce bd
       0.022354549 -0.06847703 -0.100043975 -0.10082648
000260 7b 11 93 bd 45 9d ce bc 6f 34 c0 3d b8 3a 69 bd
       -0.071810685 -0.025221476 0.09385001 -0.056940764
000270 a3 11 b9 3d bd ca 5a 3d 80 11 12 3e 8b e4 8b bd
       0.09036567 0.053416003 0.14264488 -0.068307005
000280 09 2d 3b bd 9f 9d 6a 3d 8e ff 53 bd 59 0a 9d 3d
       -0.045697246 0.057279225 -0.051757388 0.07667989
000290 c9 88 bc bd 52 0e bb bd 36 2c 83 3a dc ba 0a be
       -0.09205777 -0.09133591 0.0010007683 -0.13547844
0002a0 07 92 c5 3c cd 7f 95 bd 4a f5 a5 3d 19 57 1d bd
       0.024117483 -0.07299767 0.08103426 -0.03841314
0002b0 9e 9c b9 bb 7e 03 f7 bd 07 16 66 3d c3 ed bb bd
       -0.005664422 -0.12061213 0.05617335 -0.09176209
0002c0 90 06 9a 3d ab 86 50 3d 40 95 93 3d 77 98 70 bd
       0.07520783 0.05090968 0.072062016 -0.05873915
0002d0 b3 b3 c6 3d 12 1c b9 bd ee 86 fa bc c3 c2 00 3e
       0.09702244 -0.09038557 -0.030581918 0.12574296
0002e0 00 db 96 3d c9 69 0e be 00 05 26 be a1 dd a5 3d
       0.0736599 -0.13907541 -0.16212845 0.08098913
0002f0 b0 fa 92 bd bb 1f 58 bd ae d4 27 bd 83 a1 cf bd
       -0.07176721 -0.052764636 -0.04097431 -0.10138228
000300 29 99 f1 bd d7 a6 d9 bd 76 5f 9a bc 7f f0 0d 3c
       -0.11796791 -0.10627525 -0.018844347 0.008663296
000310 42 47 01 3e 0d d3 eb 3d 06 97 ae 3d 92 e1 b1 bd
       0.12624839 0.11514864 0.08524899 -0.08685602
000320 61 38 70 3d 80 6d f7 3d 2a de d9 3c 6a 9a ff bd
       0.058647517 0.12081432 0.026595194 -0.12480624
000330 cc 93 d8 3d 51 1d c4 bd a0 32 0c be be 1b 88 3d
       0.10575065 -0.09575904 -0.13691187 0.066459164
000340 77 36 f9 bd 30 6b ad 3c 60 48 09 bd 1a bb 8b 3d
       -0.121685915 0.021169275 -0.033516288 0.06822796
000350 ed 85 b0 bd da 27 0a 3e 28 df b8 3c 4e fc 38 3d
       -0.08619294 0.13491765 0.022567347 0.04516249
000360 e6 1c 1e 3d ea 9f 96 3d cd 8c 68 3b f0 35 a0 bd
       0.03860178 0.0735472 0.0035484314 -0.07822788
000370 f1 11 83 3d 4d 86 0e 3e 83 4f 23 3b 54 7d 02 be
       0.063999064 0.13918419 0.002491922 -0.12743121
000380 c8 2b 9d 3d 67 0f ea bc a5 98 17 be aa 3d 80 bd
       0.07674366 -0.028571798 -0.14804323 -0.062617615
000390 0b e2 9f bd ea a8 e6 3b c6 a0 da bb b2 f0 7b bc
       -0.07806786 0.007039179 -0.0066719977 -0.01537721
0003a0 a4 ca 33 3d 2e f3 ff bd 8d 9a fa 3c 85 d8 a6 3d
       0.043894425 -0.12497555 0.030591274 0.081467666
0003b0 a2 f2 88 bd fe 47 05 3e b7 5e 7b bd c4 19 13 bd
       -0.066869035 0.13015744 -0.061369624 -0.035913244
0003c0 bd d5 43 bd 0a 6e 35 bc c1 c0 6a bd 7d 2f 47 bd
       -0.04781126 -0.011073599 -0.05731273 -0.048629273
0003d0 4b 45 03 bc a9 50 0a 3e dd 47 df 3d a7 c6 c2 bd
       -0.008012126 0.13507332 0.10902379 -0.09510546
0003e0 67 31 f5 bd 21 d1 79 bb ae 72 2e bd ce b5 11 bd
       -0.119723134 -0.0038119035 -0.042589836 -0.035573773
0003f0 46 ee 71 bd ce 46 16 3e 1c de 76 bd a6 d7 26 3c
       -0.059065126 0.14675447 -0.060270414 0.0101832505

fc.0.bias f4 [32]
000000 d2 40 8b bd aa e2 ca bd f3 a4 c6 bd c3 43 98 3d
       -0.06799473 -0.09906514 -0.0969943 0.074347995
000010 7d 70 14 bd a7 7d cf bd 2e 62 9d 3d a3 b7 70 bc
       -0.03624009 -0.10131388 0.07684742 -0.01469222
000020 ac f1 cd bd 9a 86 8f bd 2e 35 b3 bd f3 bb e8 bc
       -0.10055861 -0.07008095 -0.087503776 -0.028409934
000030 1b fa a5 3d 0a ea e2 bc b1 b6 33 bd 31 e6 0d 3d
       0.081043445 -0.02769949 -0.0438754 0.034643356
000040 7f 15 92 3d a8 b9 cf bd 4d 4d 1b bd 4c e2 43 3c
       0.07133006 -0.10142833 -0.037915517 0.011955809
000050 43 87 52 3c 30 a7 fa 3d a8 31 8f 3d 65 71 d2 bd
       0.012849632 0.1223892 0.06991893 -0.102755345
000060 11 88 0f bc a4 c0 d0 3d 5c 65 eb 3d 73 d1 c2 3d
       -0.008760468 0.10192993 0.11493942 0.095126055
000070 d8 7e e4 3d d8 cc a1 3d 4d c4 fa bc f8 b7 86 3b
       0.11157006 0.07900399 -0.030611182 0.0041112863

fc.3.weight f4 [1, 32]
000000 b5 75 00 bd 33 e9 b7 bd 72 af d5 bd 18 65 47 3e
       -0.031362254 -0.08980026 -0.10433854 0.19472158
000010 c8 2d 0f 3e 4b 59 86 bd d3 06 e5 39 ea cb 2b 3e
       0.13982308 -0.0656 0.00043683368 0.16777006
000020 8f 6e 8d bd b1 c0 d6 bd 02 04 20 3e 42 9e 71 bd
       -0.06905853 -0.10485972 0.15626529 -0.058988817
000030 32 69 1d be e6 37 47 bb c2 bf 64 bc 54 7d ac bc
       -0.1537216 -0.0030398308 -0.013961734 -0.021055855
000040 8f 3d 35 bd ee 6b a7 3d 4b 8a 23 be 6f c1 84 bd
       -0.04424816 0.08174883 -0.15970723 -0.06482207
000050 9e 26 23 3d f9 99 13 3e 48 dd 02 3e fc 43 35 3e
       0.03983175 0.14414205 0.12779725 0.17701715
000060 1e c4 db bd a7 da 0f be cd b4 35 3d 00 1b d4 bd
       -0.10730766 -0.14048253 0.04436188 -0.10356712
000070 1d 0a f3 3d 25 d9 32 bd a9 ad 05 be ab 90 b6 bd
       0.11867163 -0.043664116 -0.13054527 -0.08914312
