5 第五讲 机器学习训练模型的数学范式v16/models/model15.pth (torch, 112459 bytes, 21 tensors)

conv1.0.weight f4 [16, 3, 3, 3]
0	0xbc635c6b	-0.013877015
1	0xbde01265	-0.109410085
2	0x3e29ff72	0.16601351
3	0xbd65cd1a	-0.056103803
4	0xbe02f2cb	-0.1278793
5	0xbe1e5835	-0.15463336
6	0x3d17782c	0.03697984
7	0xbe2281db	-0.15869848
8	0x3dd3903f	0.10330247
9	0x3d753182	0.059861667
10	0x3e3c7a96	0.18406138
11	0xbe04d3d8	-0.12971437
12	0x3c96473b	0.018344512
13	0x3ce6be86	0.02816702
14	0x3cdb9366	0.026803683
15	0x3db62e2f	0.088955276
16	0xbc4345e4	-0.011918519
17	0xbd90f712	-0.07078375
18	0x3e0c4923	0.13699774
19	0xbdfc2d6e	-0.123133525
20	0xbe158ea3	-0.14605193
21	0x3dbda8f7	0.09260743
22	0xbd6db857	-0.05803713
23	0x3e208ae7	0.15677987
24	0xbe0ccfea	-0.13751188
25	0x3e1039b7	0.14084516
26	0x3d0e306f	0.03471416
27	0xbcefe03c	-0.029281728
28	0x3e15b7b1	0.14620854
29	0xbd954b03	-0.07289698
30	0x3ce88912	0.028385673
31	0xbd86af1b	-0.065763675
32	0x3d9c13d6	0.07620971
33	0x3d99dabc	0.075124234
34	0x3e209a5d	0.15683885
35	0xbdd626cc	-0.10456619
36	0x3d393fd0	0.045226872
37	0xbc7673b2	-0.015042232
38	0x3e11eb01	0.14249803
39	0xbe0b424d	-0.1359951
40	0xbd924bbb	-0.07143351
41	0x3e0eba70	0.13938308
42	0x3d8727bf	0.06599378
43	0xbd78c6b9	-0.06073639
44	0x3d5ad5ac	0.05342643
45	0x3d745e62	0.059660323
46	0xbd8b64ba	-0.068063214
47	0xbe2959ba	-0.16538134
48	0xbe281804	-0.16415411
49	0x3dd0d44a	0.10196741
50	0xbcf972c8	-0.03045024
51	0x3daec72b	0.08534082
52	0xbe26179a	-0.16219941
53	0x3e1e7fb8	0.15478408
54	0x3d7d624c	0.06186132
55	0xbc72fb49	-0.014830419
56	0xbda13245	-0.07870916
57	0xbd11b1d8	-0.035569996
58	0xbe0ddd07	-0.13853846
59	0xbe248363	-0.16065745
60	0xbda41e3b	-0.080135785
61	0x3ddf6311	0.10907567
62	0xbe2a8345	-0.16651638
63	0x3e1561f3	0.14588146
64	0x3dc0f781	0.094222076
65	0xbe0ada64	-0.13559872
66	0x3e208965	0.15677412
67	0x3d4f8e14	0.050672606
68	0xbce1db4c	-0.02757039
69	0x3c5b1a0b	0.013372908
70	0x3d21e80d	0.03952794
71	0x3e024976	0.12723336
72	0x3e44a81e	0.19204757
73	0x3d47107d	0.04859971
74	0xbc487ada	-0.012236321
75	0x3c80af6b	0.015708646
76	0x3d399a6f	0.045313295
77	0xbd87e3a2	-0.066352144
78	0xbda440b3	-0.08020153
79	0xbe463992	-0.19357899
80	0x3e3f0780	0.18655205
81	0xbd90ebe0	-0.070762396
82	0xbbef322f	-0.0072996835
83	0xbe1b8ecf	-0.15191196
84	0xbb24283a	-0.002504839
85	0x3e2e57d3	0.1702569
86	0xbe175f50	-0.14782453
87	0x3dd3123c	0.10306212
88	0x3e48b815	0.19601472
89	0xbe2c8628	-0.16848052
90	0x3b40348b	0.0029328193
91	0x3d2741cd	0.040834237
92	0x3c6027e0	0.013681382
93	0x3b71e200	0.0036908388
94	0x3e2aacf6	0.16667542
95	0x3e29a14b	0.16565435
96	0x3c235263	0.009968373
97	0x3d924eb8	0.07143921
98	0xbd8ae3cb	-0.06781729
99	0xbd800aef	-0.062520854
100	0xbd5a8e58	-0.053358406
101	0x3e12ee0d	0.14348622
102	0x3e4fa710	0.20278573
103	0x3e20c2d8	0.15699327
104	0x3d024678	0.031805485
105	0x3dcb7251	0.099339135
106	0xbd6b0c7b	-0.05738495
107	0xbc5b1ad2	-0.013373094
108	0xbe30b7b2	-0.17257574
109	0x3d7d129a	0.061785318
110	0xbdfff46c	-0.12497792
111	0x3e2e4a6c	0.17020577
112	0x3c55ce39	0.013049656
113	0x3db7f30e	0.08981906
114	0xbd359254	-0.044329002
115	0x3d234b3c	0.03986667
116	0xbe3c63ca	-0.18397442
117	0xbe376b86	-0.1791211
118	0xbde23885	-0.110459365
119	0x3e39b8a2	0.18136838
120	0x3daa70d3	0.08322301
121	0x3dc8a903	0.097978614
122	0x3e392102	0.18078998
123	0x3daff988	0.08592516
124	0x3d9a8985	0.07545761
125	0xbd98f396	-0.07468335
126	0xbdc8515b	-0.09781142
127	0x3debac91	0.11507524
128	0x3e19bd27	0.15013562
129	0xbe1f2278	-0.15540493
130	0x3d7a7169	0.061143313
131	0xbd65976e	-0.056052618
132	0x3e2f3eb3	0.17113762
133	0xbd16ea99	-0.036844824
134	0xbd51f88f	-0.051262435
135	0xbd17a8e0	-0.037026286
136	0xbd4a412a	-0.04937855
137	0x3e1ed21a	0.15509835
138	0xbdb930da	-0.09042521
139	0x3d6e161f	0.058126565
140	0x3bbd69ec	0.005780449
141	0x3e114a94	0.14188606
142	0x3dcc161f	0.09965157
143	0xbe100ca5	-0.14067324
144	0xbcc86c21	-0.024465622
145	0xbb9429fc	-0.0045216065
146	0xbd3a725a	-0.04551921
147	0x3e166ec3	0.1469069
148	0x3e44a36f	0.1920297
149	0xbe19619b	-0.1497864
150	0xbd85ea5a	-0.0653884
151	0x3e426f7e	0.18987843
152	0x3d16eb9d	0.036845792
153	0xbd8d8176	-0.06909458
154	0x3df96c0c	0.121788114
155	0xbcfd6c12	-0.030935321
156	0xbda47ebe	-0.08031987
157	0xbe3c1522	-0.18367437
158	0x3df87d57	0.12133282
159	0xbd5728a9	-0.05252901
160	0xbe09eec6	-0.13469991
161	0xbe125332	-0.14289549
162	0xbdc18774	-0.09449664
163	0x3db94dcf	0.09048044
164	0x3db81c82	0.089898124
165	0x3d904660	0.07044673
166	0xbdcd7528	-0.100321114
167	0xbe230bf8	-0.15922534
168	0xbda1c95b	-0.07899734
169	0xbddd2900	-0.10798836
170	0x3d6af525	0.057362694
171	0x3db95310	0.09049046
172	0xbd86a2aa	-0.065739945
173	0xbe349cf4	-0.17637998
174	0x3e0a8e91	0.13530947
175	0x3d98ba1a	0.07457371
176	0xbdb560d6	-0.088563606
177	0xbd86ec65	-0.065880574
178	0xbc61f320	-0.013790876
179	0xbdbee61e	-0.09321235
180	0x3e03aaf2	0.12858179
181	0x3d3e1f82	0.046416767
182	0xbde110ab	-0.10989507
183	0xbe12615c	-0.14294952
184	0xbd9dfd06	-0.07714276
185	0xbe25388d	-0.16134854
186	0xbcd0d896	-0.025493901
187	0xbd34bfc3	-0.04412819
188	0xbdb383f5	-0.08765403
189	0x3c8aa508	0.016924396
190	0xbdc1f6b2	-0.094708815
191	0x3dd50835	0.10401956
192	0x3dcf518e	0.10122977
193	0xbd79d945	-0.06099822
194	0xbdaf4a96	-0.08559148
195	0xbe46d599	-0.19417419
196	0xbc82fb71	-0.015989037
197	0xbe21ecb7	-0.15812956
198	0x3e2eb02c	0.17059392
199	0x3dc94249	0.09827096
200	0xbc28beeb	-0.010299425
201	0xbca66359	-0.020311045
202	0xbc469b3d	-0.012121973
203	0x3e3b0ddb	0.18267004
204	0xbce7dbb3	-0.028303003
205	0x3d0416e5	0.032248396
206	0x3de3386a	0.110947445
207	0x3d8a4591	0.0675155
208	0xbc9eaf7c	-0.019370787
209	0x3e012da7	0.12615071
210	0xbe1f62bd	-0.1556501
211	0x3ce5f409	0.028070467
212	0xbe4cc1b8	-0.19995773
213	0x3dbca499	0.09211082
214	0x3df4a676	0.119458124
215	0xbd467926	-0.04845538
216	0xbe31a88d	-0.17349453
217	0xbd80d040	-0.062897205
218	0x3d867165	0.06564597
219	0xbe21ca05	-0.1579972
220	0xbd015e47	-0.03158405
221	0xbd7bda26	-0.06148734
222	0xbdfce5d0	-0.12348521
223	0x3d9e4ad2	0.077291146
224	0xbe004b9f	-0.12528847
225	0x3d57f658	0.052725166
226	0xbdba38ea	-0.09092887
227	0x3cc89991	0.024487289
228	0x3e136c48	0.14396775
229	0xbe144ac9	-0.14481653
230	0xbe0af395	-0.13569482
231	0x3d95d684	0.07316306
232	0x3d7330f1	0.059372846
233	0xbe052489	-0.13002218
234	0x3d839b7d	0.064261414
235	0xbde20274	-0.11035624
236	0xbe20db7a	-0.15708724
237	0xbdc849dc	-0.097797126
238	0x3e133c4d	0.14378472
239	0x3cd18c11	0.025579484
240	0x3e08a2a5	0.13343294
241	0x3d12c1e8	0.035829455
242	0xbce7ba84	-0.02828718
243	0x3e2bf4f2	0.16792658
244	0x3daa0508	0.08301741
245	0x3d80a9e9	0.06282408
246	0xbe30fadf	-0.172832
247	0xbe080eff	-0.1328697
248	0x3e0eb26d	0.13935252
249	0x3e365bd2	0.17808464
250	0x3d3fe43d	0.046848524
251	0x3daa7e5f	0.083248846
252	0xbe14ba80	-0.14524269
253	0xbd4d6b8c	-0.050151393
254	0xbcd1039d	-0.025514418
255	0xbdc3578e	-0.09538184

conv1.0.bias f4 [16]
0	0x3dc583fe	0.09644316
1	0x3dd510f0	0.10403621
2	0x3dc99da9	0.098445244
3	0x3c4355a3	0.011922273
4	0xbe43e2c8	-0.19129479
5	0xbc0ddc09	-0.0086584175
6	0x3e1dc8f1	0.15408684
7	0x3d243afa	0.040095307
8	0xbe514953	-0.20438127
9	0x3d5dd4ae	0.054157905
10	0x3e2da00f	0.16955589
11	0xbe0d90a4	-0.13824707
12	0x3df619d7	0.12016647
13	0xbe354de8	-0.177055
14	0xbbd2d087	-0.00643355
15	0x3e1b031b	0.15137903

conv1.3.weight f4 [16]
0	0x3f80a18e	1.0049303
1	0x3f7f9075	0.998298
2	0x3f8112b1	1.0083829
3	0x3f7a6115	0.97804385
4	0x3f7ec444	0.9951823
5	0x3f81ed05	1.0150458
6	0x3f7ef841	0.99597555
7	0x3f7f1039	0.9963413
8	0x3f770e46	0.96506155
9	0x3f81f720	1.0153542
10	0x3f7d2a61	0.9889279
11	0x3f82f75e	1.023174
12	0x3f7e0298	0.9922271
13	0x3f7fd5d8	0.99935675
14	0x3f801878	1.0007467
15	0x3f821595	1.0162836

conv1.3.bias f4 [16]
0	0xbbe1b154	-0.0068875942
1	0x3d17a9fc	0.037027344
2	0xbcb58936	-0.022160154
3	0x3bb47a35	0.0055077323
4	0x3c1fbbdc	0.009749379
5	0xbca61850	-0.020275265
6	0x3cd37228	0.02581127
7	0xbd0457a7	-0.032310154
8	0x3c8f4868	0.01749058
9	0x3c9a502b	0.018837055
10	0xbc891240	-0.016732335
11	0x3c72ec9d	0.014826921
12	0xbcfc3ad9	-0.03078978
13	0x3ce7d74d	0.028300906
14	0xbcb9dfd1	-0.022689732
15	0x3c7eb95e	0.015547125

conv1.3.running_mean f4 [16]
0	0x3db79cfb	0.089654885
1	0x3e376d37	0.17912756
2	0x3dfb51eb	0.12271484
3	0x3ea442ea	0.320823
4	0x3c5f8c1e	0.013644246
5	0x3c9412b1	0.018075319
6	0x3c9e351f	0.01931244
7	0x3d968a25	0.07350568
8	0x358cbca7	1.0485718e-06
9	0x3dc37c05	0.09545139
10	0x3ea44d9c	0.3209046
11	0x3c52471d	0.012834338
12	0x3df7a910	0.12092793
13	0x3c8fd84a	0.01755919
14	0x3e4cc4b6	0.19996914
15	0x3e1bd924	0.15219551

conv1.3.running_var f4 [16]
0	0x3a80ea52	0.0009835458
1	0x3b223ef3	0.002475676
2	0x3b61a830	0.0034432523
3	0x3d1bce76	0.038038693
4	0x3a86f20f	0.0010295528
5	0x3a80c0e9	0.0009823117
6	0x3b01663f	0.0019744781
7	0x3b06e8f1	0.0020585621
8	0x3755e9de	1.2750241e-05
9	0x3b123b55	0.0022313197
10	0x3c4ae811	0.0123844305
11	0x3a818de2	0.0009884203
12	0x3a695759	0.00089012604
13	0x3aa8d6f9	0.001288145
14	0x3c7bb5a2	0.015363129
15	0x3a767a8f	0.0009402418

conv2.0.weight f4 [32, 16, 3, 3]
0	0x3b616639	0.0034393205
1	0xbcd983bb	-0.026552072
2	0x3c9f4eb3	0.019446706
3	0xbbd1d343	-0.006403358
4	0x3d959f43	0.073057674
5	0x3d1fc241	0.039003614
6	0x3d66dd13	0.056363177
7	0x3c287bd0	0.010283425
8	0x3c929533	0.01789341
9	0xbd16a12e	-0.036774807
10	0xbdac244d	-0.08405361
11	0xbd5b8f70	-0.05360359
12	0xba838a27	-0.001003568
13	0x3d1e7649	0.038687024
14	0xbd03e962	-0.032204993
15	0xbcc6ee41	-0.02428353
16	0xbd44941b	-0.047992807
17	0x3d3ddcd6	0.046353184
18	0x3dc3b2fe	0.095556244
19	0xbd2f6ce4	-0.042828456
20	0xbd8c50ec	-0.06851372
21	0x3d856bf7	0.06514733
22	0x3d8b8daf	0.068141334
23	0xbd55d729	-0.052207146
24	0xbd95ace0	-0.07308364
25	0xbcab30f3	-0.020897364
26	0xbd424770	-0.04743141
27	0x3db15566	0.086588666
28	0x3d5541d4	0.05206473
29	0xbd43ee9d	-0.04783498
30	0xbba71896	-0.0050993664
31	0x3d8d7db2	0.0690874
32	0xbc7eabcc	-0.015543889
33	0x3d22ae3f	0.039716955
34	0x3c0df421	0.008664162
35	0x3d1fe69b	0.039038282
36	0x3d084b88	0.033275157
37	0x3d5c1169	0.05372754
38	0xbc647dab	-0.013945977
39	0xbdad273f	-0.08454751
40	0x3ba1cc8d	0.0049377144
41	0x3c9bc42a	0.019014437
42	0xbd484065	-0.048889536
43	0xbd738ee7	-0.059462454
44	0x3c276348	0.010216542
45	0x3a8b042e	0.0010606104
46	0x3d5c34e9	0.053761397
47	0x3d9a4598	0.07532805
48	0xbd724332	-0.059146114
49	0x3d634105	0.05548193
50	0x3d16d581	0.036824707
51	0x3d99c601	0.075084694
52	0x3dc3ffc6	0.09570269
53	0x3d9186cd	0.07105789
54	0x3d6369a1	0.055520657
55	0x3ba0334c	0.0048889276
56	0xbd97bfe2	-0.074096456
57	0xbd31be63	-0.043394458
58	0x3cf051bc	0.029335849
59	0xbd872a92	-0.065999165
60	0x3cffa5d9	0.031207012
61	0x3c9eb06e	0.019371238
62	0x3cb80273	0.022462105
63	0x3d853f60	0.065062284
64	0xbd630545	-0.055424947
65	0xbb87cc07	-0.004144195
66	0x3d9f3e02	0.07775499
67	0x3da25016	0.079254314
68	0xbc66eb97	-0.014094255
69	0x3d6ea694	0.05826433
70	0xbd111405	-0.035419483
71	0xbb11c1c8	-0.0022240747
72	0x3c8ea1a5	0.017411062
73	0xbd89dc78	-0.06731504
74	0xbbc9bcdd	-0.0061565475
75	0xbd886d7e	-0.06661509
76	0xbdcc7da1	-0.09984899
77	0xbd794626	-0.060857914
78	0xbd2accd3	-0.04169924
79	0xbc149e56	-0.009070953
80	0xbda5703b	-0.08078047
81	0xbdc5146e	-0.09623037
82	0xbcf375e2	-0.029719297
83	0x3cc3c657	0.023898287
84	0xbced0a73	-0.028935647
85	0x3d48743f	0.048938986
86	0x3d03cfb0	0.032180488
87	0xbdafb9b4	-0.08580342
88	0xbdba36c1	-0.09092475
89	0x3cbf0049	0.023315566
90	0x3d8224e1	0.0635469
91	0xbcc512d5	-0.024056831
92	0xbc1d303e	-0.009594021
93	0xbd86504e	-0.06558286
94	0x3c81a10b	0.015823862
95	0xbcdfedd8	-0.027335092
96	0x3da5ad74	0.08089724
97	0x3cf8733e	0.03032839
98	0x3cb0b814	0.02157215
99	0x3bde1916	0.006777893
100	0x3d46775f	0.048453685
101	0x3d6d9dd6	0.058011852
102	0xbd996166	-0.074892804
103	0xbd10982e	-0.03530138
104	0xbd9c008b	-0.07617291
105	0xbd35197e	-0.044213764
106	0x3d8d148f	0.06888687
107	0x3d5dc52e	0.054143123
108	0x3d1e0e8a	0.038588084
109	0xbd1272fa	-0.03575418
110	0x3d27bcdf	0.040951606
111	0x3d0766af	0.03305691
112	0x3c236de1	0.009974928
113	0x3ca1c215	0.019745866
114	0xbce0cc64	-0.027441211
115	0x3d6ce079	0.05783126
116	0xbd3fb868	-0.046806723
117	0x3d19e062	0.037567504
118	0xbdb55ff9	-0.08856196
119	0xbdd1e331	-0.102484114
120	0xbd3ac2ed	-0.045596052
121	0xbd86d7f1	-0.06584156
122	0xbc37045b	-0.011170472
123	0xbde2f04a	-0.11080988
124	0xbd6a80b1	-0.057251636
125	0x3cd01e6b	0.02540513
126	0x3c2b2474	0.010445703
127	0xbd9202cd	-0.071294405
128	0xbd59df01	-0.05319119
129	0xbd22e22d	-0.03976648
130	0xbd85e11f	-0.06537079
131	0xbda7522e	-0.081699714
132	0xbd2140be	-0.039368384
133	0x3ce7505c	0.02823656
134	0x3c6149c3	0.013750496
135	0xbd5886de	-0.052862994
136	0xbbdbe6d9	-0.006710869
137	0x3cf597de	0.029979642
138	0xbc536856	-0.012903294
139	0xbd9ee5e0	-0.07758689
140	0xbd1b6207	-0.037935283
141	0x3ca90096	0.020630162
142	0x3d83d576	0.06437199
143	0x3cac0c74	0.021002032
144	0x3b8f4da6	0.00437327
145	0xbcda33fe	-0.02663612
146	0x3cd60e8a	0.02612998
147	0x3d8550ae	0.06509529
148	0x3c78dc2a	0.01518921
149	0xbd7ca8d2	-0.061684437
150	0xbbf1e1f3	-0.0073816716
151	0x3d3b5d6f	0.045743402
152	0x3d5bd855	0.053673107
153	0xbc6ad5dc	-0.014333215
154	0x3d30b2a0	0.0431391
155	0xbca814fb	-0.020517817
156	0xbd49ee2d	-0.049299408
157	0x3d6cd28f	0.05781799
158	0xbdaa9133	-0.08328476
159	0x3d168bc3	0.03675438
160	0x3c1dee30	0.009639308
161	0xbc115ef4	-0.008872736
162	0xbd226bcc	-0.039653584
163	0x3db9c640	0.09071016
164	0x3d848b21	0.06471849
165	0x3d6682bc	0.05627702
166	0xbd62cd96	-0.055371843
167	0x3d06bdab	0.032895725
168	0x3ccf668c	0.025317453
169	0xbc277ee6	-0.010223126
170	0x3da85efc	0.08221242
171	0x3d126e0b	0.035749476
172	0xbbd86de0	-0.006604895
173	0xbc94bacc	-0.018155478
174	0xbd387939	-0.045037482
175	0xbd0dc5c7	-0.034612443
176	0x3d8e676e	0.069533214
177	0xbaf3dfd7	-0.0018606138
178	0xbd4ed0b6	-0.05049201
179	0x3d7c10ec	0.061539575
180	0x3d249ac5	0.040186662
181	0x3c8f0f8e	0.017463472
182	0xbd482376	-0.048861943
183	0x3cfe2f3d	0.031028384
184	0x3d8e67ee	0.06953417
185	0x3d8da33b	0.06915899
186	0x3d150b9c	0.036388025
187	0xbad02a35	-0.0015881719
188	0x3d48a6a3	0.048987042
189	0x3d19db82	0.037562855
190	0xbd1f2205	-0.038850803
191	0x3d22dc46	0.03976085
192	0xbce1a262	-0.02754325
193	0xbd9ab8de	-0.07554792
194	0xbd191e28	-0.037382275
195	0x3d44d734	0.048056796
196	0x3c84c926	0.016209196
197	0xbcf1ac11	-0.029500993
198	0xbd87b4d2	-0.066262856
199	0xbd5f948f	-0.054585036
200	0x3d8b7c53	0.06810822
201	0x3d8ec533	0.069712065
202	0x3cdb126c	0.026742183
203	0x3d9580dd	0.07299969
204	0xbb1a198e	-0.0023513767
205	0xbd812651	-0.063061364
206	0x3d87f8cb	0.0663925
207	0xbd45a5bc	-0.04825376
208	0x3dc2b08d	0.09506331
209	0x3d605aca	0.054774083
210	0xbd28e2ea	-0.041232027
211	0xbd0271a0	-0.031846642
212	0xbcb7b81d	-0.02242666
213	0xba938156	-0.0011253755
214	0xbd7c44f4	-0.061589196
215	0x3d554c18	0.05207452
216	0x3cfcbd75	0.030852059
217	0xbc97aeb4	-0.018515922
218	0x3d467479	0.04845092
219	0xbd9c0bb1	-0.076194175
220	0x3d2b8242	0.04187227
221	0xbbbc2bc1	-0.0057425206
222	0xbc01e638	-0.007928424
223	0xbd876f42	-0.066130176
224	0xbd077521	-0.033070687
225	0x3bc46bef	0.005994312
226	0xbdbaeecb	-0.091275774
227	0xbd889c39	-0.06670422
228	0x3ca02bf7	0.019552214
229	0xbbea4047	-0.0071487757
230	0xbd9fc200	-0.078006744
231	0x3d75fedb	0.060057502
232	0xbcd0f6d1	-0.025508316
233	0xbcb37f10	-0.021911174
234	0x3c083272	0.008312808
235	0xbd44e700	-0.04807186
236	0x3d8fb529	0.070169754
237	0x3d93024e	0.07178174
238	0x3db8e2a9	0.09027607
239	0xbcd718c6	-0.02625693
240	0xbcff9d31	-0.031202884
241	0x3db9a60a	0.090648726
242	0x3cdeae46	0.02718271
243	0x3ce50c3d	0.027959937
244	0x3d40f71d	0.047110666
245	0x3d157cbb	0.036495905
246	0xbda01aba	-0.07817598
247	0xbbdfbbc6	-0.0068278043
248	0xbd08f65e	-0.03343808
249	0x3cbb5a57	0.022870226
250	0x3c1e0ef5	0.009647121
251	0x3c32334b	0.010876487
252	0x3d7a1b44	0.06106116
253	0x3d9b87e5	0.07594279
254	0x3d83af16	0.06429879
255	0x3d5a00d0	0.05322343

conv2.0.bias f4 [32]
0	0xbc31ba9d	-0.010847715
1	0xbd2d060e	-0.042242102
2	0xbab6a29a	-0.0013933957
3	0x3d844a56	0.06459491
4	0xbd3697c6	-0.044578336
5	0x3c90a1ff	0.01765537
6	0x3d7736b2	0.060354896
7	0x3d052638	0.03250715
8	0xbdb188ed	-0.08668695
9	0xbc638451	-0.013886527
10	0x3d5653ca	0.052326
11	0xbd8c4323	-0.06848743
12	0x3ca48692	0.0200837
13	0xbd73c7bd	-0.059516657
14	0xbd00016b	-0.031251352
15	0xbcb3d024	-0.021949835
16	0xbd5829f2	-0.052774377
17	0x3d44a900	0.048012733
18	0xbd314a8a	-0.043283977
19	0x3d9a9671	0.07548226
20	0xbc822bf3	-0.015890097
21	0xbd92fd28	-0.07177192
22	0xbd3da722	-0.04630197
23	0xbcf458d8	-0.02982752
24	0x3d29e857	0.041481342
25	0xbdbf01f2	-0.09326543
26	0xbd718efc	-0.05897425
27	0x3d20ebb1	0.039287273
28	0x3d81bd35	0.063349165
29	0x3d9a342c	0.07529482
30	0xbda33d86	-0.07970719
31	0xbcbdb3d7	-0.023157043

conv2.3.weight f4 [32]
0	0x3f830506	1.0235908
1	0x3f7875d1	0.97054774
2	0x3f8356e5	1.0260893
3	0x3f77a2cc	0.96732783
4	0x3f7ec5c7	0.99520534
5	0x3f78cd62	0.9718839
6	0x3f7a1f81	0.9770432
7	0x3f829b32	1.0203612
8	0x3f7f75c7	0.9978909
9	0x3f7b33fd	0.981262
10	0x3f80c7fb	1.0061029
11	0x3f761aa7	0.9613442
12	0x3f81f139	1.015174
13	0x3f83c756	1.0295208
14	0x3f7e3fcd	0.993161
15	0x3f833114	1.0249352
16	0x3f7b9377	0.9827189
17	0x3f79341e	0.9734515
18	0x3f824b6a	1.0179265
19	0x3f7ef2ac	0.9958904
20	0x3f7e24cb	0.9927489
21	0x3f7c7a15	0.9862378
22	0x3f810eea	1.0082676
23	0x3f83d1df	1.0298423
24	0x3f81b3c6	1.0132987
25	0x3f80c08c	1.0058761
26	0x3f814c22	1.0101359
27	0x3f77d5f1	0.96810824
28	0x3f7cff97	0.988275
29	0x3f79c595	0.9756711
30	0x3f7bc5ef	0.983489
31	0x3f80933d	1.0044934

conv2.3.bias f4 [32]
0	0x3cd2fb5b	0.025754621
1	0x3ca1414b	0.019684454
2	0x3cd94960	0.026524246
3	0x3c56a30b	0.013100396
4	0x3d012476	0.031528912
5	0x3ce6951c	0.028147273
6	0x3cad6679	0.021167027
7	0x3cd7fe70	0.026366442
8	0x3cabd664	0.020976253
9	0x3c450a44	0.012026373
10	0x3cbc1e01	0.022963526
11	0x3cdd6580	0.027025938
12	0x3c9aa8dc	0.018879347
13	0x3cd3df67	0.025863362
14	0x3c3f1988	0.011663802
15	0x3ce957f6	0.028484326
16	0x3ce6d338	0.028176889
17	0x3ca19288	0.019723192
18	0x3cd31c43	0.025770312
19	0x3cce429b	0.025178244
20	0x3cc8ef6a	0.024528224
21	0x3d213bfe	0.039363854
22	0x3ab5f9d5	0.001388366
23	0x3cb9a8be	0.02266347
24	0x3cc46aef	0.023976771
25	0x3c680824	0.014162097
26	0x3d031a16	0.0320073
27	0xbba103c9	-0.0049137813
28	0x3be8bf87	0.00710291
29	0x3c336e92	0.010951655
30	0xbc5be7cf	-0.013421967
31	0x3cb7000b	0.022338888

conv2.3.running_mean f4 [32]
0	0x3e9b1011	0.30285695
1	0x3ed4122b	0.4142011
2	0x3e744634	0.23854905
3	0x3ef2b37c	0.4740256
4	0x3e9876c2	0.29778105
5	0x3ea998e1	0.3312445
6	0x3ebeb88f	0.37250182
7	0x3e95b2c4	0.2923795
8	0x3e81a77a	0.25323087
9	0x3e9b3bd7	0.30319092
10	0x3e7e1554	0.24812824
11	0x3e8c9cb9	0.2746332
12	0x3e8e9d8a	0.27854568
13	0x3e7a3d2e	0.244374
14	0x3ea7f5e7	0.32804796
15	0x3e7947b2	0.24343756
16	0x3eaccf79	0.3375204
17	0x3f0f3437	0.5593905
18	0x3e57cb2b	0.21073596
19	0x3eb11912	0.3458944
20	0x3e855b8f	0.26046416
21	0x3e9994ba	0.29996282
22	0x3ecfe8c6	0.4060728
23	0x3e834aec	0.25643098
24	0x3eb1079b	0.34576115
25	0x3ed2866a	0.41118175
26	0x3e9a51f3	0.30140647
27	0x3eb27ca8	0.3486073
28	0x3ef733f2	0.4828182
29	0x3eaa3dd3	0.33250293
30	0x3eac7173	0.33680305
31	0x3e997ee9	0.29979637

conv2.3.running_var f4 [32]
0	0x3e4a79e7	0.19773065
1	0x3f049420	0.5178852
2	0x3dcd332b	0.10019525
3	0x3eb05ae0	0.34444332
4	0x3e3eec90	0.18644929
5	0x3e2d2755	0.16909535
6	0x3e0d1b6e	0.13779995
7	0x3e7d3043	0.24725442
8	0x3e419ae6	0.18906745
9	0x3de5e5fe	0.11225508
10	0x3da8089d	0.08204768
11	0x3e40aa7b	0.18815033
12	0x3e2091b2	0.15680578
13	0x3e263afa	0.16233435
14	0x3ea2d1cd	0.3180069
15	0x3dc763ec	0.097358555
16	0x3ebb7e2f	0.36619708
17	0x3ed94698	0.4243667
18	0x3e044d94	0.12920219
19	0x3e71d45c	0.23616165
20	0x3e44918b	0.19196145
21	0x3e5e8f48	0.21734345
22	0x3ebb00fc	0.3652419
23	0x3e542c4e	0.20720026
24	0x3e8c56e8	0.27410054
25	0x3ea6041e	0.32425016
26	0x3e146a92	0.14493778
27	0x3e2b1f16	0.16711077
28	0x3ea2da9a	0.31807405
29	0x3e861e52	0.26195008
30	0x3e3d28f7	0.18472658
31	0x3e8e955f	0.27848336

conv3.0.weight f4 [64, 32, 3, 3]
0	0xbc28b9a7	-0.010298169
1	0xbc2433e8	-0.010022141
2	0xbcb78116	-0.02240042
3	0xbcbbb547	-0.022913588
4	0xbc346200	-0.011009693
5	0xbce9c9a0	-0.028538525
6	0xbd5d4ab5	-0.054026324
7	0x3cf2ba18	0.029629752
8	0xbda29cde	-0.07940076
9	0xbd1e38c5	-0.03862836
10	0x3d333562	0.04375208
11	0xbbcfe1d3	-0.006344059
12	0xbc20e34b	-0.009819816
13	0xbd47f2d0	-0.04881555
14	0xbcc0640d	-0.023485208
15	0xbaf8adef	-0.0018972735
16	0xbc847b2a	-0.01617201
17	0x3d6484ab	0.055790585
18	0xbcfe2711	-0.031024488
19	0xbcbae0cd	-0.022812271
20	0xbda7c955	-0.08192698
21	0x3c142bec	0.009043675
22	0xbb8ed672	-0.00435906
23	0xbc202155	-0.009773572
24	0xbda27505	-0.07932476
25	0x3c4ad250	0.012379244
26	0xbc7657c4	-0.015035573
27	0x3d19d11c	0.037552938
28	0xbd399c16	-0.04531487
29	0x3d66c73f	0.05634236
30	0xbc4be69c	-0.012445118
31	0xbd392140	-0.045197725
32	0xbc80b42a	-0.015710909
33	0xbce86514	-0.02836851
34	0xbc6ffb76	-0.014647355
35	0xbd3f6952	-0.0467313
36	0xbd9923fe	-0.07477568
37	0xbd8d5430	-0.06900823
38	0xbccdd0a1	-0.025123896
39	0xbcad8a38	-0.021184072
40	0xbd8d5c64	-0.06902388
41	0xbd3e7ac8	-0.046503812
42	0xbca18353	-0.01971594
43	0x3ac93c83	0.0015353117
44	0xbc099b60	-0.008398861
45	0xbd0036ef	-0.03130239
46	0xbc57c53e	-0.013169585
47	0xbc539d45	-0.012915914
48	0x3d36cbd1	0.04462797
49	0x3cdf309f	0.027244864
50	0x3c6574b6	0.014004877
51	0xbc87dd2f	-0.01658496
52	0x3d0e5098	0.03474483
53	0x3d0776b1	0.033072177
54	0x3cbbc75f	0.022922216
55	0xbd8b0a57	-0.067890815
56	0xbc09068a	-0.008363375
57	0x3d075b46	0.03304603
58	0xbd6c6c99	-0.057720754
59	0xbd152598	-0.036412805
60	0xbd13cb21	-0.03608239
61	0xbbceb722	-0.006308452
62	0xbd62f509	-0.055409465
63	0xbd441e57	-0.047880497
64	0xbd5b97d9	-0.05361161
65	0xbd55be02	-0.05218316
66	0xbd8d7104	-0.06906322
67	0xbbacd8cf	-0.005274869
68	0xbd8a1294	-0.06741825
69	0xbd394a7b	-0.045237046
70	0x3d27e412	0.04098899
71	0x3cd3cc77	0.025854332
72	0xbc8205e3	-0.015871948
73	0x3d27437e	0.04083585
74	0x3cdd00f2	0.02697799
75	0x3d2286ef	0.039679464
76	0x392523a4	0.00015748903
77	0xbcd74e95	-0.026282588
78	0xbd88e88d	-0.066849805
79	0x3cd81a21	0.026379647
80	0x3c2fabab	0.010722081
81	0x3ba0d6b2	0.004908406
82	0xbc3db279	-0.011578196
83	0x3c03be43	0.008040967
84	0xbca8304b	-0.02053084
85	0x3d1702e7	0.036868002
86	0x3c54f72e	0.012998385
87	0x3ac9a06e	0.0015382895
88	0x3c0b8cec	0.008517485
89	0x3d058972	0.03260178
90	0xbd117b0a	-0.03551773
91	0xbd040cf7	-0.032238927
92	0x3cf514ce	0.029917147
93	0xbc8aafc9	-0.016929524
94	0xbd036bcc	-0.032085225
95	0x3cb871e6	0.022515249
96	0xbd485966	-0.048913382
97	0xbb5faadb	-0.0034128937
98	0xbbafc43b	-0.0053639687
99	0x3b8e3f8a	0.0043410705
100	0x3cba15ed	0.022715533
101	0x3d2e88a4	0.04261078
102	0xbd06f9e7	-0.03295317
103	0xbc25c098	-0.010116719
104	0x3b6bb4a9	0.0035965836
105	0xbd04e1a6	-0.032441758
106	0xbd24d9fd	-0.040246952
107	0xbbdd0022	-0.0067444006
108	0xbca95717	-0.02067141
109	0x3d205ff6	0.039154015
110	0x3d2371a2	0.03990329
111	0xbd3267a5	-0.043555874
112	0x3d1eb041	0.038742308
113	0x37ac0304	2.0505402e-05
114	0xbd2a26f7	-0.041541066
115	0x3caee0f2	0.021347497
116	0xbbafe792	-0.0053681815
117	0xbd6f8865	-0.058479685
118	0xbd53f919	-0.05175123
119	0xbd5c5e71	-0.053801004
120	0xbd8faf14	-0.070158154
121	0xbd54d016	-0.05195626
122	0xbc9f4133	-0.01944027
123	0xbd4fe194	-0.050752237
124	0x3ce62ded	0.028098071
125	0xbbdc257d	-0.006718336
126	0x3b500fd5	0.0031747718
127	0x3d166c15	0.03672417
128	0x3b8e0078	0.004333552
129	0xbd317c6c	-0.04333155
130	0xbcbc280b	-0.022968313
131	0xbb93daa0	-0.004512146
132	0xbb9bfca6	-0.0047603427
133	0x3cd05034	0.025428869
134	0xbc85b7f9	-0.016323077
135	0xbd097388	-0.033557445
136	0xbd1b0a43	-0.037851583
137	0x3c894a08	0.016758934
138	0xbd04fe1d	-0.032468904
139	0xbce3e129	-0.027817326
140	0xbd0c3b7c	-0.034236416
141	0xbd6845a5	-0.056707043
142	0x3c6f7981	0.014616371
143	0xbcbab956	-0.022793453
144	0x3d567977	0.05236193
145	0xbc907c52	-0.017637406
146	0xbd355d2c	-0.04427831
147	0xbd431c1e	-0.047634237
148	0x3b3e0eb4	0.0029000463
149	0xbbd37060	-0.006452605
150	0xbd47f72c	-0.048819706
151	0x3cdfd074	0.027321078
152	0x3cbe0fca	0.023200888
153	0xbcaa5771	-0.020793648
154	0x3c464a80	0.012102723
155	0x3c945119	0.018105077
156	0xbce179af	-0.027523844
157	0x3cded012	0.027198825
158	0xbd8c1840	-0.06840563
159	0xbb8a6dff	-0.0042245383
160	0x3d0dbd28	0.03460422
161	0x3ce4cca7	0.027929617
162	0xbc90e252	-0.017686043
163	0x3d10aead	0.035322834
164	0xbd16867f	-0.03674936
165	0x3d0a4cd3	0.03376467
166	0x3c9bc3e1	0.0190143
167	0xbd890208	-0.066898406
168	0xbd3e8742	-0.04651571
169	0xbc34fd9b	-0.011046792
170	0x3d1ade97	0.037809934
171	0xbd73424f	-0.05938941
172	0xbd1cd9da	-0.038293697
173	0x3d01a9a1	0.03165591
174	0xbd55524b	-0.052080434
175	0xbd33ede2	-0.043928035
176	0xbcf4469e	-0.02981883
177	0xbba27117	-0.004957329
178	0x3cffb51d	0.031214291
179	0xbc3df6f6	-0.011594525
180	0x3d132841	0.03592706
181	0xbc8a06fb	-0.016849032
182	0xbd4d596d	-0.05013411
183	0xbd27b8bf	-0.040947672
184	0xbbe8d57b	-0.007105527
185	0xbd427347	-0.04747322
186	0xbcd0165c	-0.025401287
187	0x3cbe7c71	0.023252698
188	0x3bf18f3a	0.0073718103
189	0xbca9f38e	-0.020746019
190	0xbd343ed6	-0.044005238
191	0x3d0b6bbb	0.034038287
192	0x3c1ccce7	0.009570337
193	0xbc1080fb	-0.008819814
194	0xbd574cb9	-0.052563403
195	0x3cca8261	0.024720373
196	0x3c4f556c	0.0126546435
197	0xbd26391d	-0.04058181
198	0x3c44ea68	0.012018777
199	0xbc81622b	-0.01579388
200	0x3d00cfbf	0.031448122
201	0xbd1a6319	-0.037692163
202	0x3d6329cb	0.05545978
203	0x3cb7af55	0.022422472
204	0xbd1c32a7	-0.038134243
205	0xbd46170f	-0.048361834
206	0xbc90c6e3	-0.017672962
207	0x3ae3d6a4	0.0017382693
208	0xbd5efae5	-0.05443849
209	0xbd9e2a59	-0.07722921
210	0xbd19f4d2	-0.037586994
211	0xbce57baf	-0.028013078
212	0xbbcdfbed	-0.0062861354
213	0xbd064555	-0.032780964
214	0xbd144508	-0.036198646
215	0xbd98333b	-0.074316464
216	0xbbe9fe10	-0.0071408823
217	0xbd13120c	-0.035905883
218	0xbd92191a	-0.07133694
219	0x3ccbe718	0.024890468
220	0x3b6beaca	0.00359981
221	0xbd41f4c0	-0.047352552
222	0xbcd775e2	-0.026301328
223	0xbd2496f0	-0.040183008
224	0xbd1f0bb3	-0.038829517
225	0x3c510a34	0.01275878
226	0x3d5dd37d	0.05415677
227	0xbccb15ef	-0.024790732
228	0xbce5b499	-0.028040217
229	0x3c925b5c	0.01786583
230	0xbb8d214f	-0.004306949
231	0xbd57cb00	-0.05268383
232	0x3d038ac3	0.032114755
233	0xbd541698	-0.05177936
234	0xbcc262c4	-0.023728736
235	0x3ab5952a	0.0013853658
236	0xbb98f51e	-0.004667892
237	0x3c4fb8cb	0.012678335
238	0xbc926431	-0.01787004
239	0x3bb2e86c	0.0054598358
240	0xbd87ef7c	-0.06637475
241	0xbd85c674	-0.065319926
242	0x3c8f6d1c	0.017508082
243	0xbcd3ceab	-0.025855383
244	0xbd459b4f	-0.048243817
245	0xbd62d5b7	-0.055379596
246	0x3baffdfa	0.0053708525
247	0xbd2668ee	-0.040627412
248	0xbd67c1a7	-0.056581166
249	0xbd4420af	-0.047882732
250	0x3b93c9b1	0.0045101275
251	0x3d093f95	0.033507902
252	0xbbcf8796	-0.006333302
253	0xbcfcd8da	-0.030865122
254	0xbd371fce	-0.044708066
255	0xbd81cbd6	-0.06337707

conv3.0.bias f4 [64]
0	0xbd1fd424	-0.039020672
1	0x3cb29247	0.021798266
2	0xbc772548	-0.015084572
3	0xbd2daadf	-0.042399283
4	0x3d55fd9b	0.05224381
5	0x3d2c7e83	0.04211284
6	0xbd1b15c6	-0.03786256
7	0x3cc6eea4	0.024283715
8	0x3d03e73c	0.032202944
9	0xbcab65fd	-0.020922655
10	0x3d6b4459	0.05743823
11	0xbacfe41e	-0.0015860831
12	0x3cfcad0e	0.030844238
13	0x3d2d40c6	0.0422981
14	0xbd084877	-0.033272233
15	0x3d60ffc0	0.054931402
16	0x3b249a3a	0.002511634
17	0xbc57bfdb	-0.0131683005
18	0x3ca1edc1	0.01976669
19	0xbd3b350d	-0.04570489
20	0xbc9aa567	-0.018877698
21	0xbcb4bf61	-0.022063913
22	0x3c0b741f	0.008511572
23	0xbb592c8d	-0.0033138127
24	0x3d1191ed	0.035539556
25	0x3d197f9f	0.037475225
26	0xbcc2d42e	-0.023782816
27	0xbce6acd2	-0.028158579
28	0xbd58fa39	-0.052973006
29	0x3ccacfaa	0.024757225
30	0xbd5b1675	-0.053488214
31	0xbce250cd	-0.02762642
32	0xbccbf4e5	-0.024897048
33	0xbce5f621	-0.028071465
34	0x3cbe0d80	0.023199797
35	0xbd638446	-0.055546068
36	0x3c924edb	0.017859867
37	0x3d2efe5b	0.04272304
38	0xbd6294b9	-0.055317614
39	0xbd0e8b69	-0.03480092
40	0xbd043eaa	-0.032286324
41	0x3d1a4cce	0.037670903
42	0xbc76ae1d	-0.01505616
43	0x3c4277e7	0.011869407
44	0x3d699f1a	0.057036497
45	0x3c83a31e	0.016068991
46	0x3c49efdc	0.012325253
47	0x3d2a5ca6	0.041592263
48	0x3cbeb6ec	0.023280583
49	0xbd22d30e	-0.03975206
50	0xbba7ec63	-0.005124615
51	0xbc9cbb78	-0.01913236
52	0xbd39bf10	-0.045348227
53	0x3c7166ee	0.014734013
54	0x3ceb94e4	0.02875752
55	0xbd070b7a	-0.03296993
56	0x3d27c1b7	0.040956225
57	0xbb087852	-0.002082367
58	0x3d56b536	0.05241891
59	0x3d104806	0.035224937
60	0x3d1471f2	0.03624148
61	0xbaf407f6	-0.0018618095
62	0xbd5956dc	-0.05306135
63	0xbcb612de	-0.022225793

conv3.4.weight f4 [64]
0	0x3f853541	1.0406877
1	0x3f852826	1.0402877
2	0x3f875cc8	1.057519
3	0x3f86e19d	1.0537602
4	0x3f87a019	1.0595733
5	0x3f86cfd2	1.0532172
6	0x3f8936fa	1.0719903
7	0x3f8335aa	1.0250752
8	0x3f7d55e0	0.9895916
9	0x3f86e4df	1.0538596
10	0x3f877329	1.0582019
11	0x3f8352a6	1.0259597
12	0x3f872e08	1.0560923
13	0x3f83dac1	1.0301133
14	0x3f840de0	1.0316734
15	0x3f879592	1.059252
16	0x3f847449	1.0347987
17	0x3f8488cc	1.0354247
18	0x3f882511	1.0636312
19	0x3f811fb3	1.0087799
20	0x3f83414f	1.0254306
21	0x3f894dd4	1.0726876
22	0x3f88df70	1.0693188
23	0x3f8516c2	1.039757
24	0x3f82853e	1.0196912
25	0x3f8563cc	1.042108
26	0x3f815284	1.0103307
27	0x3f86cfc8	1.053216
28	0x3f846677	1.034377
29	0x3f85e962	1.0461848
30	0x3f85dbde	1.0457723
31	0x3f829336	1.0201175
32	0x3f813b42	1.0096209
33	0x3f85f301	1.0464784
34	0x3f84adab	1.0365499
35	0x3f80c312	1.0059531
36	0x3f7c1072	0.98462594
37	0x3f890d20	1.070713
38	0x3f87490e	1.056917
39	0x3f857aec	1.0428138
40	0x3f8416af	1.0319422
41	0x3f80fb70	1.0076733
42	0x3f7fe291	0.9995509
43	0x3f834578	1.0255575
44	0x3f867152	1.0503333
45	0x3f88daab	1.0691732
46	0x3f816ad6	1.0110729
47	0x3f81ef20	1.01511
48	0x3f84a92c	1.0364127
49	0x3f8ae02f	1.0849665
50	0x3f85d229	1.0454761
51	0x3f85cf21	1.0453836
52	0x3f803e40	1.0018997
53	0x3f840332	1.0313475
54	0x3f896767	1.0734681
55	0x3f867b85	1.0506445
56	0x3f8551c5	1.0415579
57	0x3f8758f2	1.0574019
58	0x3f896312	1.0733359
59	0x3f7c7142	0.9861032
60	0x3f88c533	1.068518
61	0x3f891310	1.0708942
62	0x3f7ce0d2	0.9878055
63	0x3f880cdc	1.0628924

conv3.4.bias f4 [64]
0	0xbc3d3f8b	-0.011550794
1	0xbb169e22	-0.0022982438
2	0x3c08d65f	0.008351891
3	0xbbafe256	-0.0053675575
4	0x3b6f9e69	0.0036562926
5	0x3bcf7c9a	0.0063319923
6	0x3c04613f	0.008079826
7	0xbb21068a	-0.0024570548
8	0xbc27cbf0	-0.010241494
9	0x3c9209e5	0.017826984
10	0x3c285f70	0.01027666
11	0xbc35ebbe	-0.011103569
12	0xbc79008f	-0.015197887
13	0xbbeffd18	-0.0073238723
14	0x3b05218b	0.0020314183
15	0xbb3413bb	-0.002747758
16	0x3ab95b0c	0.0014141514
17	0xbb6da163	-0.0036259524
18	0x3c0f727e	0.008755324
19	0xba865912	-0.0010249934
20	0xbc1c1f78	-0.009528987
21	0xba334f24	-0.0006840101
22	0x3c66c489	0.014084944
23	0xbc6a02cb	-0.014282892
24	0xbc92173e	-0.017833348
25	0xbb85939b	-0.004076434
26	0xbc17b070	-0.009258375
27	0xbc6a7344	-0.014309708
28	0xbc921af2	-0.017835114
29	0x3b3aa7be	0.002848133
30	0xbb4833e4	-0.0030548507
31	0xbc388560	-0.011262268
32	0x3bfa89ff	0.007645845
33	0xbb63beec	-0.003475125
34	0xbc5f057d	-0.013612148
35	0xbac4c138	-0.0015011197
36	0xbca4908e	-0.02008846
37	0x3b4c4198	0.0031167027
38	0xba0d1ce1	-0.00053830264
39	0xbbd37a01	-0.006453753
40	0xbbea0d6c	-0.0071427133
41	0x3c73b0ad	0.014873666
42	0x3c68bd3c	0.014205273
43	0x3b890b37	0.004182245
44	0x3b8bc74c	0.0042657014
45	0xba5e0155	-0.00084688264
46	0xbac430e2	-0.0014968181
47	0xbbdbd6eb	-0.00670897
48	0xbcc67c19	-0.024229096
49	0x3c07db32	0.008292006
50	0xbb55741a	-0.0032570423
51	0x3c06866e	0.0082107615
52	0xbc8631b6	-0.016381126
53	0x381ccdbe	3.738491e-05
54	0x3b24629e	0.0025083194
55	0xbbf2ca99	-0.0074094054
56	0x3bb892f2	0.0056327516
57	0x3c4ce64f	0.012506082
58	0x3c1a404a	0.009414742
59	0x3cb32de4	0.021872468
60	0x3bd4730e	0.006483442
61	0x3c43366e	0.0119148325
62	0x3b8e6a5c	0.004346175
63	0x3c3d7aa0	0.011564881

conv3.4.running_mean f4 [64]
0	0x3f2b3b52	0.6688739
1	0x3f481d5b	0.7816979
2	0x3f1a1f46	0.6020397
3	0x3eeab303	0.458397
4	0x3f106232	0.56399834
5	0x3f079a23	0.5296957
6	0x3f0b93a1	0.5452214
7	0x3f35cdff	0.7101745
8	0x3f19059f	0.597742
9	0x3ed5c902	0.4175492
10	0x3f108a0b	0.56460637
11	0x3f393317	0.7234358
12	0x3f172dc0	0.59054184
13	0x3f36f669	0.7146974
14	0x3f1b1c4b	0.60590047
15	0x3f0d7135	0.55250865
16	0x3f2344f3	0.63777083
17	0x3f1b00aa	0.6054789
18	0x3f177d35	0.59175426
19	0x3f107056	0.5642141
20	0x3f214280	0.62992096
21	0x3f256224	0.64602876
22	0x3f1223ec	0.5708606
23	0x3ef4ae46	0.4778921
24	0x3f3f319f	0.7468509
25	0x3f270eac	0.6525676
26	0x3efe73fd	0.49697867
27	0x3ebed60a	0.37272674
28	0x3f3c348d	0.73517686
29	0x3f121713	0.5706646
30	0x3f329ab2	0.69767296
31	0x3f445e77	0.7670664
32	0x3f1cd5c5	0.61263686
33	0x3f08cd19	0.53437954
34	0x3f256def	0.6462087
35	0x3f24a1d2	0.6430942
36	0x3f0f8ec9	0.5607725
37	0x3f11e647	0.56992
38	0x3ef2531e	0.47329038
39	0x3f170ef7	0.5900721
40	0x3f2120ee	0.6294087
41	0x3f19dd65	0.60103446
42	0x3ef47d3e	0.47751802
43	0x3f2e5d71	0.6811133
44	0x3f36ad6e	0.7135838
45	0x3f2f7a1c	0.685457
46	0x3f0a2daf	0.5397596
47	0x3f3d7733	0.7401001
48	0x3efd277d	0.4944419
49	0x3f184312	0.5947734
50	0x3f12927f	0.57254785
51	0x3f1c7f51	0.6113177
52	0x3f071e9b	0.52781075
53	0x3f351467	0.70734257
54	0x3f17bf72	0.592765
55	0x3f1736ce	0.59068
56	0x3f329410	0.69757175
57	0x3f051585	0.5198596
58	0x3f06734c	0.5251968
59	0x3f31d3e0	0.6946392
60	0x3f21410e	0.6298989
61	0x3f109b10	0.56486607
62	0x3f12363d	0.5711401
63	0x3f1a16ae	0.60190856

conv3.4.running_var f4 [64]
0	0x3fa90eea	1.3207676
1	0x3fd7f812	1.687258
2	0x4009c73b	2.152785
3	0x3fb064e0	1.3780785
4	0x3ff270c7	1.8940667
5	0x3fe4c939	1.7873908
6	0x402a9f68	2.6659794
7	0x3facfd3d	1.3514782
8	0x3f85d1d3	1.0454658
9	0x3f95e8d2	1.1711676
10	0x3fe8c1cf	1.8184146
11	0x3fcc87fa	1.5978997
12	0x400b24ca	2.1741204
13	0x3fc079f9	1.5037223
14	0x3f89dce8	1.077054
15	0x3fc99b26	1.5750473
16	0x3f97cb9c	1.1859012
17	0x3f9496a0	1.1608467
18	0x4018c506	2.3870254
19	0x402083fa	2.5080552
20	0x3f8f9217	1.1216458
21	0x40196705	2.3969128
22	0x3ff2d5eb	1.8971533
23	0x3fa959b7	1.3230504
24	0x3fc9b1a4	1.5757337
25	0x3f8d1688	1.1022501
26	0x3f478d24	0.7794974
27	0x3f5a3cc1	0.85248953
28	0x3fbfbe1c	1.4979892
29	0x401d7172	2.4600492
30	0x3fabc525	1.3419539
31	0x3fe7f438	1.8121405
32	0x403aa5ca	2.916369
33	0x3f71bff4	0.9443352
34	0x3f90bb15	1.1307093
35	0x3f941533	1.156897
36	0x3fa8c888	1.3186197
37	0x3ffdf56e	1.9840524
38	0x3fdf6282	1.7451937
39	0x4045383d	3.0815575
40	0x3f91e65c	1.1398425
41	0x3f796ac3	0.9742853
42	0x3f2e7f61	0.68163115
43	0x408853e3	4.26024
44	0x3fba97fe	1.4577634
45	0x4056b981	3.3550723
46	0x4016a7c5	2.3539898
47	0x3fba6a08	1.4563608
48	0x3fd39460	1.6529655
49	0x401f1c52	2.4861035
50	0x3f6f0db4	0.93380284
51	0x40240895	2.5630238
52	0x3f72e6c1	0.9488335
53	0x408584bc	4.172453
54	0x401d2ba8	2.4557896
55	0x3f8126eb	1.0090002
56	0x3fae54db	1.3619646
57	0x3fd53d39	1.6659309
58	0x3fadc5bc	1.3575969
59	0x4023cd2f	2.5593984
60	0x4031412d	2.769603
61	0x3fe1a6fe	1.7629087
62	0x3f78723f	0.97049326
63	0x4005946d	2.0871842

fc.0.weight f4 [32, 64]
0	0x3de7a833	0.11311378
1	0x3e22edd4	0.15911037
2	0x3d36bfb7	0.044616427
3	0x3c012ca8	0.007884182
4	0xbe250bdc	-0.16117805
5	0x3d4b04cb	0.049565118
6	0xbc20c8e9	-0.009813526
7	0xbcf4b197	-0.029869838
8	0x3d68b492	0.05681283
9	0xbcb28a40	-0.021794438
10	0xbdb15084	-0.08657935
11	0xbdc7c6d8	-0.09754723
12	0xbdb8ac9d	-0.09017298
13	0x3c6abbae	0.014326973
14	0x3dc86447	0.097847514
15	0xbe0da763	-0.13833384
16	0x3c93eea1	0.018058123
17	0x3bab6787	0.0052308473
18	0xbdc96f68	-0.09835702
19	0xbd7de944	-0.061990038
20	0xbdad69bb	-0.08467432
21	0x3ce4fe29	0.027953224
22	0x3c3f70fe	0.011684654
23	0xbe2d15b8	-0.16902816
24	0x3db6d23e	0.08926819
25	0xbc08974b	-0.008336852
26	0xbdb1a45a	-0.08673926
27	0xbd41d9fc	-0.047327027
28	0x3de4a87f	0.111649506
29	0xbca1d031	-0.019752594
30	0x3b5b8579	0.0033496304
31	0x3dee30a6	0.11630373
32	0x3d8487e3	0.06471231
33	0x3d0a2ab3	0.033732127
34	0x3db56b87	0.088584
35	0x3da28263	0.079350255
36	0x3d91d5d1	0.0712086
37	0xbdff72f1	-0.12473095
38	0x3c9fbd04	0.01949931
39	0xbde8b050	-0.11361754
40	0x3d963ee2	0.07336213
41	0x3d6305dd	0.055425514
42	0xbcc01d23	-0.023451393
43	0xbd5188c7	-0.05115583
44	0x3df89508	0.121378005
45	0xbe1a7285	-0.15082748
46	0xbd750e62	-0.05982817
47	0xbd45c500	-0.048283577
48	0x3d5cce24	0.05390753
49	0xbd92d500	-0.07169533
50	0xbc27210e	-0.010200752
51	0xbde33bf2	-0.11095418
52	0x3d67f049	0.05662564
53	0xbddbfb3b	-0.10741278
54	0xbc770e06	-0.015079027
55	0x3df698e7	0.120408826
56	0x3d7df5b6	0.062001906
57	0x3d6220a1	0.0552069
58	0xbe120f63	-0.14263682
59	0xbd070c02	-0.032970436
60	0xbd0a1050	-0.033706963
61	0x3d0d2281	0.034456734
62	0xbc5da5a2	-0.0135282595
63	0xbdf21b4e	-0.11821614
64	0xbd77a62d	-0.060461212
65	0xbcc5934e	-0.024118092
66	0xbd604603	-0.05475427
67	0xbe01230e	-0.12611029
68	0xbbdbc481	-0.0067067747
69	0x3d5a1ec8	0.05325201
70	0xbd9fd36f	-0.07804
71	0x3d8a466d	0.06751714
72	0xbdd055df	-0.101726286
73	0xbdce9c9d	-0.10088465
74	0x3d99899f	0.07496952
75	0xbdb8fb11	-0.09032262
76	0xbd6769eb	-0.056497496
77	0x3dcf4903	0.10121348
78	0x3e1ce8c7	0.15323173
79	0xbd736b50	-0.059428513
80	0x3df6e5ca	0.120555475
81	0x3d6a6dee	0.057233743
82	0xbd66ba48	-0.056329995
83	0x3d79ab4e	0.060954385
84	0xbd057650	-0.032583535
85	0xbe115561	-0.14192726
86	0xbe24b8d4	-0.16086131
87	0xbe08b568	-0.13350451
88	0xbcbfb539	-0.023401843
89	0x3e02bb4f	0.12766765
90	0xbb8eb743	-0.0043553426
91	0xbdc59e02	-0.09649278
92	0x3ddcb0ca	0.10775907
93	0xbde6cb81	-0.11269284
94	0x3c17a07f	0.009254574
95	0xbd95aded	-0.07308564
96	0xbb8d29d0	-0.004307963
97	0x3e11c9ec	0.14237183
98	0x3e13797c	0.14401811
99	0x3e03cb2f	0.12870477
100	0x3d0c4be6	0.03425207
101	0xbd36ce27	-0.044630196
102	0xbd8fb004	-0.07015994
103	0xbe03ed01	-0.12883379
104	0xbd9c26c2	-0.0762458
105	0x3cda8d01	0.026678564
106	0x3dca2448	0.09870201
107	0x3da46c25	0.080284394
108	0xbcf1c67a	-0.029513586
109	0xbd7381c3	-0.059449922
110	0x3d5e59b0	0.05428475
111	0x3de3400b	0.110961996
112	0xbe106738	-0.14101875
113	0xbcc0a327	-0.023515297
114	0xbd92b118	-0.07162684
115	0x3bbbe0f5	0.005733604
116	0x3dc83933	0.09776535
117	0xbd21e87c	-0.039528355
118	0xbb5fb501	-0.0034134986
119	0x3e244504	0.16041952
120	0x3e0e51d6	0.13898405
121	0xbd1a6411	-0.037693087
122	0xbd05fa8e	-0.03270965
123	0xbc84851f	-0.016176758
124	0xbdd0de98	-0.101987064
125	0x3c7733e7	0.015088058
126	0x3bb3d93b	0.0054885424
127	0xbd58fb3f	-0.052973982
128	0xbc4830bd	-0.012218651
129	0x3d4868e4	0.048928156
130	0xbdbbf10d	-0.09176836
131	0xbdb10978	-0.08644384
132	0xbdeec228	-0.11658126
133	0x3a181490	0.0005801404
134	0xbe08b7a4	-0.13351303
135	0x3d191bf3	0.03738017
136	0x3d868ce9	0.06569845
137	0x3c96f014	0.018425025
138	0xbd83d17f	-0.064364426
139	0x3dbf59f4	0.09343329
140	0xbdcbd8c6	-0.099534556
141	0x3dc95851	0.09831298
142	0x3d95f342	0.07321788
143	0xbdca9082	-0.09890844
144	0x3d6ab6d4	0.057303265
145	0x3d9e1586	0.07718949
146	0x3d7d2ff1	0.0618133
147	0xbdf02f17	-0.11727732
148	0x3cb89e04	0.022536285
149	0xbdb26e09	-0.08712394
150	0xbded0436	-0.11573069
151	0xbde6dd8e	-0.11272727
152	0xbd7ede58	-0.062223762
153	0xbc0ec491	-0.008713857
154	0x3dd7e99b	0.105426036
155	0xbd8c5386	-0.06851868
156	0x3dbbc51f	0.09168457
157	0x3d179a5f	0.037012454
158	0x3e1624e9	0.14662518
159	0xbd88524c	-0.06656322
160	0xbd551c3c	-0.05202888
161	0x3d81d037	0.06338542
162	0xbd25501c	-0.0403596
163	0x3d9441fc	0.07239148
164	0xbdbc892e	-0.092058524
165	0xbdd0d929	-0.1019767
166	0xbc4ada83	-0.012381199
167	0xbe1617fc	-0.14657587
168	0x3d043b50	0.032283127
169	0xbd75c53f	-0.06000256
170	0x3dc15eb2	0.0944189
171	0xbd3a3b9c	-0.045467004
172	0x3b6d6760	0.0036224946
173	0xbe094bd1	-0.13407828
174	0x3d43e7dd	0.047828544
175	0xbdb42a39	-0.08797116
176	0x3d75cbac	0.06000869
177	0x3d2074f3	0.03917403
178	0x3d9dbfa1	0.07702566
179	0xbd949dc1	-0.07256652
180	0x3dd64529	0.1046241
181	0xbdd50afb	-0.10402485
182	0xbd36a29b	-0.044588666
183	0x3e0233e8	0.12715113
184	0x3da33d67	0.07970696
185	0xbe1e4809	-0.15457167
186	0xbe394200	-0.18091583
187	0x3d9dcf05	0.077055015
188	0xbdb0667c	-0.08613297
189	0xbd86d810	-0.065841794
190	0xbd0c477a	-0.034247853
191	0xbde611dd	-0.11233876
192	0xbe00418c	-0.12525004
193	0xbde6d1ae	-0.11270462
194	0xbb5ea5fe	-0.003397345
195	0x3cd91875	0.02650092
196	0x3e122451	0.14271666
197	0x3df7e1bc	0.12103602
198	0x3dc14f51	0.094389565
199	0xbdb7f718	-0.08982676
200	0x3d3d60da	0.046234943
201	0x3e0a5b29	0.13511337
202	0x3cf9e546	0.030504834
203	0xbe081b0a	-0.13291565
204	0x3dedc19a	0.11609192
205	0xbdc9f680	-0.09861469
206	0xbe142548	-0.14467347
207	0x3d9ac955	0.07557932
208	0xbe055ac7	-0.1302291
209	0x3c9b309b	0.018944075
210	0xbca0468c	-0.01956489
211	0x3d8c460e	0.06849299
212	0xbdb11c42	-0.08647968
213	0x3e17cb7e	0.1482372
214	0x3d2025bc	0.039098486
215	0x3d684c45	0.05671336
216	0x3cfa51f1	0.03055665
217	0x3d88365f	0.066509955
218	0xbc445bf6	-0.011984816
219	0xbd864bce	-0.06557427
220	0x3d746b35	0.059672553
221	0x3e1444fb	0.14479439
222	0x3b85d952	0.0040847445
223	0xbe043348	-0.12910187
224	0x3db6be6e	0.0892304
225	0xbd1a81fe	-0.037721626
226	0xbe23a3d8	-0.1598047
227	0xbd854590	-0.065074086
228	0xbd9ddd41	-0.077082165
229	0x3caa552c	0.020792566
230	0x3bf15db8	0.0073659085
231	0xbb9d99f5	-0.004809613
232	0x3d1541f0	0.036439836
233	0xbe0b9676	-0.13631615
234	0x3c853f2d	0.016265476
235	0x3db9fd36	0.09081499
236	0xbd8fb7f9	-0.07017512
237	0x3e139b0b	0.14414613
238	0xbd5f2f97	-0.054488745
239	0xbd10d741	-0.035361532
240	0xbd082058	-0.03323397
241	0x3b047fef	0.0020217856
242	0xbd7a652f	-0.061131652
243	0xbd170c2a	-0.036876835
244	0xbccaa26c	-0.024735652
245	0x3e1416c2	0.14461806
246	0x3dfb1c68	0.122612774
247	0xbdda90cb	-0.10672148
248	0xbe02b489	-0.12764181
249	0x3c49e2ab	0.012322108
250	0xbce803dd	-0.028322155
251	0xbc9fdb1c	-0.01951366
252	0xbd39fa7b	-0.045404892
253	0x3e2325d8	0.15932405
254	0xbd8a8fe9	-0.0676573
255	0x3cafc6c9	0.021457093

fc.0.bias f4 [32]
0	0xbd8101a7	-0.06299143
1	0xbdc4ec59	-0.09615392
2	0xbdace1dc	-0.08441517
3	0x3d8ebfb5	0.06970159
4	0xbd0b0493	-0.03393991
5	0xbdd0ddfa	-0.10198589
6	0x3d9c6fcd	0.07638512
7	0xbc96b450	-0.018396527
8	0xbdc34566	-0.09534721
9	0xbd8c1d9c	-0.06841585
10	0xbda8f67f	-0.082501404
11	0xbcc158d9	-0.023601936
12	0x3dad17a3	0.08451774
13	0xbce38df9	-0.027777659
14	0xbd2e0d25	-0.042493004
15	0x3d0a9a1e	0.033838384
16	0x3d79a6fa	0.060950257
17	0xbdd2205d	-0.10260079
18	0xbd22c8de	-0.039742343
19	0x3c126cf2	0.008937107
20	0x3b979d9c	0.004626943
21	0x3de54cab	0.11196264
22	0x3d90072a	0.070326164
23	0xbdd80f40	-0.10549784
24	0xbc5f9e70	-0.013648614
25	0x3dde1cbc	0.108453244
26	0x3ddf9676	0.1091737
27	0x3dbeba8a	0.09312923
28	0x3dd949d8	0.10609788
29	0x3da1f601	0.0790825
30	0xbd022417	-0.0317727
31	0x3b5bd62e	0.003354441

fc.3.weight f4 [1, 32]
0	0xbd1ac44a	-0.037784852
1	0xbdc489e3	-0.09596612
2	0xbde93520	-0.11387086
3	0x3e58df5b	0.21178953
4	0x3e1fad12	0.15593365
5	0xbd9ade24	-0.07561901
6	0x3afd7c52	0.0019339419
7	0x3e3cdf87	0.18444644
8	0xbd9cc83d	-0.0765538
9	0xbde4b12e	-0.11166607
10	0x3e32267e	0.17397496
11	0xbd868b91	-0.06569589
12	0xbe281007	-0.16412364
13	0xbc0bc49c	-0.008530762
14	0xbc9edb58	-0.0193917
15	0xbce5392b	-0.027981361
16	0xbd4a3460	-0.049366355
17	0x3dc89610	0.09794247
18	0xbe2c87ab	-0.16848628
19	0xbd971b84	-0.07378295
20	0x3d6d434a	0.0579255
21	0x3e24d524	0.16096932
22	0x3e1240dc	0.14282554
23	0x3e4879c8	0.19577706
24	0xbdef0c09	-0.116722174
25	0xbe18bc7b	-0.1491565
26	0x3d7d376d	0.061820436
27	0xbddfcea1	-0.10928083
28	0x3e096d08	0.13420498
29	0xbd5549a8	-0.052072197
30	0xbe0e02de	-0.13868281
31	0xbdc74bce	-0.097312555
