5 第五讲 机器学习训练模型的数学范式v16/models/model45.pth (torch, 112459 bytes, 21 tensors)

conv1.0.weight f4 [16, 3, 3, 3]
00000000: b94e 57bc 4696 e4bd 50fa 213e f0ef 61bd
00000010: d6ff 04be e29a 25be dc82 1e3d 4809 22be
00000020: 7bf0 cd3d b042 873d 7730 403e 1995 06be
00000030: 729b ca3c c3e2 023d eef9 d33c 8b57 c43d
00000040: 6e3f bfbb 671c 8abd ff55 0f3e 8a3e fbbd
00000050: 1258 1abe aa5e c43d c57f 6abd 5ac2 1c3e
00000060: a20c 09be 2a6e 133e 0933 113d b454 36bd
00000070: e6e8 0c3e 8277 9cbd 2bef 173c 0a9d 99bd
00000080: c985 9b3d 9ab8 763d 7334 163e dd52 d7bd
00000090: 8aa3 433d ec28 a5bb f592 203e c4e4 0bbe
000000a0: aa5d 7ebd 68da 203e fe6e 8f3d 9f90 51bd
000000b0: 30d1 913d 3adb 653d f793 86bd f5f1 22be
000000c0: 1160 2ebe efc8 d23d a93b b9bc 0957 a83d
000000d0: ab12 25be c785 253e 201e 893d 1a37 6cbc
000000e0: 9491 a9bd 2030 fbbc de5b 0ebe 5e95 28be
000000f0: ceb3 9cbd e5a1 dc3d e9dd 2cbe f068 1d3e
00000100: 5585 c73d a00c 0cbe fdc3 283e 8b32 5a3d
00000110: 1a0a e6bc 71be a73c 99a5 2b3d d37a 043e
00000120: 9eab 433e 756f 333d 728d a9bc 9f5d 7f3c
00000130: 5bf9 243d d8b9 96bd 2a54 a5bd ccf6 4abe
00000140: fce5 3a3e 15f8 9abd 0f9c 88bc e61e 23be
00000150: 1ebf bcbb 2ba8 253e 22fd 1cbe def7 cc3d
00000160: 4b2f 403e cb71 32be 0891 3e3b 8041 0a3d
00000170: edae 293c a3e7 fa3b 43c6 253e c6a1 293e
00000180: 8bbb 733c 313c 893d 7d12 8cbd b39b 64bd
00000190: 85da 60bd c080 1c3e 10bb 5f3e 35e7 253e
000001a0: 616e 493d 70ef ef3d 3547 51bd 98fe 353b
000001b0: de9c 35be 6b4f 773d f356 ebbd 17f4 2b3e
000001c0: 242b 763c 6fcd cb3d 404a 28bd 597a 3e3d
000001d0: 86a6 31be 23e4 36be a3ba d9bd 5414 4a3e
000001e0: 1ae4 b03d cff1 d73d 06ea 483e aa0c c23d
000001f0: a474 b33d f146 71bd aefe dfbd 597c da3d
00000200: 420b 1e3e 40d5 27be 23d8 673d fb00 55bd
00000210: a175 2c3e 696e 14bd e8a5 3ebd 4b6c 24bd
00000220: c742 72bd 8597 1b3e 2f34 c1bd 4d8d 3c3d
00000230: a763 343b 8e65 0c3e b777 b23d 7679 13be
00000240: da09 6cbc 7ba9 b3ba a741 12bd f8dd 1f3e
00000250: 9798 453e f3f9 0ebe 3122 6abd 3f16 433e
00000260: bcbd 403d 28c6 9cbd 8e58 dc3d c618 1ebd
00000270: fef1 b3bd dd5b 4cbe b091 e93d dfb6 77bd
00000280: c43c 1abe 15d2 19be 67e0 34bd e5df ff3d
00000290: 9e4a e03d 89af e83d b9bb 9cbd 3aa1 16be
000002a0: 38a1 32bd 566e b2bd 7b79 9a3d a35e f23d
000002b0: 79cc 6dbd 19de 3fbe 47d0 1c3e d8f9 8a3d
000002c0: d799 e0bd f636 6dbd 8b87 c4bc c042 dabd
000002d0: d3b6 1b3e bfda 3f3d fcb6 06be a166 05be
000002e0: 8589 bdbd 2d2e 46be 4f5b cabc dc48 82bd
000002f0: dc79 e2bd 1ec6 833c 3b30 c7bd 2ab3 ce3d
00000300: 0c10 cd3d 3c78 84bd 64b1 b6bd ffbd 47be
00000310: d351 97bc efd7 24be 213d 343e 107a d03d
00000320: 0ce7 ddbb 6b0e 73bc 05bd 1ebc 7100 3e3e
00000330: 216b bbbc 8ae9 133d 34e5 ea3d 4106 813d
00000340: 402a d3bc 5f6d f43d efbf 23be 804e a73c
00000350: 084d 54be 693a b33d e0fb e73d 237f 61bd
00000360: 9554 31be 2aab 87bd 8e34 613d 82a1 21be
00000370: 7566 03bd 173d 91bd 15c2 f7bd 565a a23d
00000380: 2cbd 00be 5485 653d 0a3e c5bd b806 b33c
00000390: 9393 163e f507 16be 8e45 04be ee85 993d
000003a0: 0679 763d 65ef 03be 3b9f 843d e24c f0bd
000003b0: 4790 27be 63b8 c7bd b3ef 0f3e c4a4 e33c
000003c0: b10d 093e 6703 113d 1324 e3bc 9765 353e
000003d0: f52d b43d b50b 783d 5311 26be f2ae 02be
000003e0: 881c 0e3e 297d 3f3e 5fb9 473d 6dda a73d
000003f0: 6143 17be ff2a 64bd 39e1 17bd e9b4 c6bd
-0.013141328 -0.11161475 0.15818143 -0.055160463 -0.12988219 -0.16172364 0.038699016 -0.15823853
0.10055634 0.066045165 0.18768488 -0.13142814 0.024732325 0.031954538 0.025876012 0.0958701
-0.005836419 -0.067436986 0.13997649 -0.12267788 -0.15072659 0.09588368 -0.057250757 0.15308514
-0.13383725 0.14397493 0.03544906 -0.044514373 0.13760719 -0.07639982 0.009273331 -0.07500656
0.07593877 0.060234644 0.14668445 -0.10513852 0.047763385 -0.0050402787 0.1568106 -0.13661486
-0.062101044 0.15708315 0.07003592 -0.051163312 0.071199775 0.056117274 -0.06571191 -0.15912612
-0.17028834 0.10292231 -0.022611456 0.08219726 -0.16120403 0.16164313 0.06695199 -0.014417434
-0.0827972 -0.030662596 -0.13902232 -0.16463229 -0.076514825 0.107730664 -0.16881527 0.15372062
0.09742228 -0.13676691 0.16481014 0.053270858 -0.028080989 0.020476552 0.041905973 0.12937479
0.19108436 0.043807466 -0.02069733 0.015586286 0.040276866 -0.07359666 -0.08072694 -0.19820708
0.18251795 -0.07566849 -0.016675977 -0.15929756 -0.0057600876 0.16177432 -0.15330938 0.100082144
0.18768041 -0.17426221 0.0029078145 0.033753872 0.010356647 0.007657008 0.16188912 0.16565618
0.014876257 0.06700934 -0.06839464 -0.05581255 -0.054895896 0.15283489 0.21848702 0.1620148
0.04917753 0.11715591 -0.0510933 0.0027770158 -0.17735621 0.060378473 -0.114911936 0.16792332
0.015024934 0.09951293 -0.041086435 0.0465034 -0.1734868 -0.17860465 -0.10631301 0.19734317
0.08637257 0.10544168 0.19620523 0.09475072 0.08762482 -0.058905546 -0.10937248 0.10668249
0.15433982 -0.16389942 0.05660261 -0.05200289 0.16841747 -0.036238108 -0.04654494 -0.04014234
-0.059145715 0.15194519 -0.09433781 0.046033192 0.0027525218 0.13710615 0.0871424 -0.14401802
-0.014406646 -0.0013707125 -0.035707142 0.15612018 0.1929649 -0.13962536 -0.057161514 0.19051455
0.047055945 -0.07654983 0.10759078 -0.038597845 -0.08786391 -0.19956918 0.11404741 -0.060477134
-0.15062243 -0.15021546 -0.04415932 0.12493876 0.10951732 0.11361606 -0.07652993 -0.1470994
-0.04361078 -0.08712451 0.07542702 0.11834457 -0.05805633 -0.18737067 0.15313827 0.06785935
-0.109668426 -0.057913743 -0.023990413 -0.10657263 0.1520646 0.046839472 -0.1315574 -0.13027431
-0.092547454 -0.19353552 -0.024701742 -0.06361553 -0.11058399 0.01608568 -0.09725996 0.100927666
0.10012826 -0.064682454 -0.08920553 -0.19506072 -0.018471634 -0.16097997 0.17601444 0.101795316
-0.0067719277 -0.0148349805 -0.00968862 0.18554856 -0.022878231 0.036111392 0.11469498 0.06300021
-0.025776982 0.119349234 -0.15991186 0.020423174 -0.2073251 0.08751375 0.11327338 -0.055052888
-0.17317422 -0.06624444 0.05498176 -0.15784267 -0.032080133 -0.0709173 -0.12097565 0.079273865
-0.12572163 0.056035355 -0.09630974 0.02185379 0.14704733 -0.14651473 -0.12917158 0.07496248
0.06017401 -0.1288429 0.06475683 -0.11733414 -0.16363631 -0.09751966 0.14056282 0.027788527
0.13384129 0.035403635 -0.027727162 0.17714535 0.08797828 0.06055804 -0.16217546 -0.12762049
0.13878071 0.18700089 0.048760768 0.08195958 -0.14771797 -0.055705067 -0.037080023 -0.097024746

conv1.0.bias f4 [16]
00000000: 7cbc c63d 9887 073e 712f b53d 44a2 a83c
00000010: 603a 39be 1dbc 15bb 32b2 043e b935 143d
00000020: 6384 4fbe c49b ae3c 9ead f43d 01fa 11be
00000030: f751 1b3e 5db8 28be 9468 0abb 7e49 3f3e
0.09703919 0.13235319 0.08846939 0.020585187 -0.18088675 -0.002284772 0.12958601 0.036184046
-0.20265345 0.02131451 0.11947177 -0.14255525 0.15167986 -0.16476579 -0.0021119462 0.18680379

conv1.3.weight f4 [16]
00000000: b3a5 7a3f d3a2 7d3f 5ee5 813f 930f 723f
00000010: 89d6 833f 7b09 823f 6b8b 7e3f c505 7b3f
00000020: fa98 763f 7819 853f 6a33 783f e80e 893f
00000030: cb56 763f e944 833f 952d 773f f6cf 7e3f
0.97909087 0.99076575 1.0148122 0.94555014 1.0299846 1.0159143 0.99431485 0.9805568
0.96327174 1.0398397 0.9695345 1.0707674 0.96226186 1.0255405 0.9655393 0.99536073

conv1.3.bias f4 [16]
00000000: 2279 3cbc 433d a43d 0fd5 0bbd 15dd 873c
00000010: 5e58 433d c608 45bd c8ea 553d f668 f0bc
00000020: 8343 b03d 10bf 343d 4d57 87bd 8ca5 7d3b
00000030: 288b 61bd 64c6 7e3d 6b67 b8bb 6b0e b0bc
-0.01150349 0.08019497 -0.034138735 0.016584912 0.047691695 -0.04810407 0.052225858 -0.029346924
0.08606627 0.044127524 -0.06608448 0.003870341 -0.05506435 0.06220092 -0.0056275628 -0.02149125

conv1.3.running_mean f4 [16]
00000000: f911 c73d 6fca 663e 4c3f 0f3e f963 b33e
00000010: a479 cc3c 9ed4 5b3c cb29 a73c 1d2e b23d
00000020: 8fb9 ec35 b537 143d 75a5 9e3e 33ed 563c
00000030: ed03 173e 0fe8 933c 746d a43d bc90 063e
0.09720225 0.2253816 0.1398899 0.3503721 0.024960347 0.013417391 0.02040567 0.08700202
1.7637375e-06 0.03618594 0.3098561 0.013118076 0.14747591 0.01805499 0.08028689 0.1314115

conv1.3.running_var f4 [16]
00000000: 257d 933a 8a88 4c3b f799 883b d867 383d
00000010: 0288 063b 1fcb 5a3a fced e93a 6ae1 1d3b
00000020: 13f2 d733 0577 033b d70e a43c aebc 873a
00000030: 401d 733a ece1 aa3a 4857 a93b 0a66 053b
0.0011252506 0.0031209313 0.0041687447 0.045020908 0.0020527844 0.00083463074 0.0017847414 0.0024090656
1.0055751e-07 0.0020059955 0.020026607 0.0010355914 0.0009274073 0.0013037301 0.0051678754 0.002035501

conv2.0.weight f4 [32, 16, 3, 3]
00000000: ddc7 8abc 8ff3 21bd fd4d a1bb 886a 9abc
00000010: 6e34 683d e26c a53c 9513 273d 7309 9dbc
00000020: 17d3 9fbb 4975 18bd e504 adbd 531a 52bd
00000030: c5e9 ecbb 3982 153d dffa 05bd 20e7 c0bc
00000040: a8c7 35bd d9f7 433d 1f38 b93d e472 1dbd
00000050: 6272 adbd 8e94 863d 05ba 713d e5af 85bd
00000060: 964b 9dbd afaf 3ebd 99b5 7dbd 5688 b13d
00000070: f562 463d 7ec3 61bd 9962 1bbc 2b87 813d
00000080: d305 a9bc 0a9b 023d 4d41 be3b c5fa 203d
00000090: c485 ff3c 9ef6 183d 7ff2 f9bc 57de e2bd
000000a0: 9dcb 7fbc 7c83 403c 0fc2 67bd 1289 64bd
000000b0: 4336 8f3c 388f 8d3c 905b 893d e7b6 ab3d
000000c0: a173 37bd 390a 813d d251 2b3d 06f1 b43d
000000d0: aa36 d23d ec0f 953d 92c6 6c3d 2cef 443c
000000e0: df98 4dbd c934 14bd 887b 1d3d 315b 15bd
000000f0: c063 303d bb0c f93c 1291 413d 9565 893d
00000100: 9810 5cbd d8ae 50bc 5395 9b3d ebe8 933d
00000110: 9d6c efbc 6ed6 473d ea01 49bd 6b10 b2bc
00000120: 238c 0abc 6f17 f3bd 76f9 15bd 79ea ebbd
00000130: f866 1abe 7b1e d7bd b79a b7bd 59f2 2bbd
00000140: 639d 06be b169 08be 2362 83bd e9ee 2f3c
00000150: dfe1 8dbd 0aa5 d43a c97d 823c 54ce efbd
00000160: fd79 03be f1a5 2e3c 5db3 913d a4d2 9ebc
00000170: 0d38 19bc f1a4 7cbd c7c6 a43c fa93 d9bc
00000180: 1ab7 a93d 6726 183d 9a55 cf3c 42e5 a13b
00000190: e016 ab3c 0d7b 7b3d e67a 91bd 1d00 86bd
000001a0: 8823 bdbd 7371 a3bc d2a4 9b3d b260 6e3d
000001b0: 213c 253d 64bb 0abd de86 1a3d ca18 0e3d
000001c0: c843 adbb b69e 003b 7781 43bd 7958 b93c
000001d0: ddd8 82bd ea58 543d 408c 9ebd 8bfa e6bd
000001e0: d3db 2ebd 424a 91bd eca0 abbc 96be 0abe
000001f0: 034b 6cbd ea27 1c3d 75f5 a13c 232a 7abd
00000200: 98c4 2ebd 20c0 0dbd adca 85bd a827 a0bd
00000210: 169d 23bd 6f56 d13c 5cf7 803c 1bb8 38bd
00000220: df1a 353b eedb f93c 3be0 6c3b aeff 86bd
00000230: 7067 21bd 33b2 223d 842c 8a3d 8e6f 763c
00000240: fcd7 173d 6dbd 9cbc c2c1 db3c b8a8 b43d
00000250: 763e ab3c cc3a 60bd 9c04 ad3c 2084 573d
00000260: 5c33 853d 6cc7 15bd b73a bd3c 5320 2dbd
00000270: 68d3 90bd 0d8a 163d 7e31 dcbd 5d15 b83c
00000280: ce96 0cbb 1ffa cdbc 6f33 793c 4f98 943d
00000290: 7269 493d 0777 b93d 107c 86bd 81b7 d23c
000002a0: 5464 923d 36fe 9fbc dc51 aa3d d083 813d
000002b0: d519 213b 0c18 febb d0b2 69bc 3d81 acbc
000002c0: 2bb0 a93d b99f 113d 195d e3bc ceb3 af3d
000002d0: fd00 a93c 0c92 2d3c e4da 64bd f28e d83c
000002e0: 0c8f 463d 0b63 3c3d 376e 293d 156b 14bc
000002f0: 9768 213d 9eca 253c b820 91bd 2e3e 513c
00000300: 7a61 66bd a098 e5bd f93e 8cbd a816 b53c
00000310: 62df 9bbc 2b29 7cbd 676e 4cbd c7f5 42bd
00000320: 3189 603d d62b af3d 93fb a63c a3a4 753d
00000330: e5ec e53b d69c 9cbd 92a2 5b3d a027 7ebd
00000340: 499b 6f3d ad0c fa3c 367c 69bd 75ed 8abd
00000350: bb7b 6abd 588f 42bc 95f8 bcbd b559 823c
00000360: 6e60 0a3d 75ae dfbc ae35 423d 387a abbd
00000370: e3c1 273d bfc9 a3bb 7376 43bc ac7a 9dbd
00000380: 5b67 38bd 1cef 183d ca93 a7bd 4ef9 6abd
00000390: f04a 3b3d 5de3 59bb c0b4 87bd 3d59 b33d
000003a0: ad68 a4bc c391 35bc b780 083d 3ff2 f2bc
000003b0: 1617 bc3d da90 cd3d ff35 e33d 63eb cdbb
000003c0: 85e5 003b b311 f33d d61e 593d 1824 a73c
000003d0: 456e 813d c34f 8e3d 3936 83bd 8aa2 043c
000003e0: f791 a6bc 88df ff3c 6565 113d a4a9 ea3c
000003f0: 117b 8c3d aedd 373d 534d 483d e76f 4d3d
-0.016941005 -0.039538916 -0.004922627 -0.018849626 0.056690626 0.020193521 0.04079016 -0.019169545
-0.004877459 -0.037221227 -0.08448199 -0.051294636 -0.007230016 0.036501143 -0.032709952 -0.023547709
-0.04437986 0.047843788 0.090439074 -0.038439646 -0.084690824 0.06571303 0.059015293 -0.0652769
-0.076804325 -0.046554264 -0.061940763 0.08668582 0.048434217 -0.055118077 -0.009483957 0.06324609
-0.02063266 0.031886138 0.0058061243 0.039301652 0.031191714 0.037344567 -0.030511139 -0.11077564
-0.01561251 0.011750098 -0.056581553 -0.055794783 0.017481929 0.017280206 0.06706917 0.08384495
-0.044788007 0.06300778 0.041826077 0.08835034 0.102643326 0.072784275 0.05780656 0.012019914
-0.050194617 -0.036183152 0.038447887 -0.03646392 0.04306388 0.030401578 0.04725749 0.06708828
-0.053726763 -0.0127369985 0.07596841 0.0722216 -0.029226596 0.04878848 -0.04907409 -0.021736344
-0.008456263 -0.11869704 -0.036614858 -0.115193315 -0.15078342 -0.105038606 -0.089650564 -0.041979168
-0.13145976 -0.13321568 -0.064152025 0.010738113 -0.06927847 0.0016223502 0.01592912 -0.11709276
-0.12839504 0.010659681 0.07114289 -0.01938755 -0.009351742 -0.061680738 0.020114316 -0.026559819
0.08286877 0.037146 0.025309373 0.0049406597 0.020884931 0.061396647 -0.07103519 -0.0654299
-0.09235293 -0.019951558 0.07599796 0.058197685 0.040340547 -0.033870116 0.037726276 0.03469161
-0.005287621 0.001962585 -0.04773089 0.022625195 -0.0638902 0.051842608 -0.07741594 -0.11278256
-0.04269011 -0.07094242 -0.020950757 -0.13549265 -0.057688724 0.038124003 0.019770363 -0.06107534
-0.042667955 -0.034607053 -0.06532798 -0.07820064 -0.03994473 0.02555391 0.01574295 -0.04509745
0.0027634425 0.030500378 0.0036144394 -0.06591736 -0.039405286 0.039720725 0.06746772 0.015041245
0.037071213 -0.019133294 0.02682579 0.08821243 0.020903807 -0.054743573 0.021120362 0.05261624
0.06503937 -0.036567137 0.023099286 -0.042267155 -0.070715725 0.03675275 -0.107516274 0.022471124
-0.0021452191 -0.025143681 0.015210017 0.07255613 0.049172826 0.09055906 -0.06566632 0.025722267
0.07148042 -0.019530397 0.08316395 0.06323969 0.0024582047 -0.0077543315 -0.014263824 -0.02105772
0.082855545 0.035552714 -0.027754353 0.08579217 0.020630354 0.010593902 -0.055872813 0.02643535
0.048476264 0.045992892 0.041364875 -0.0090587335 0.039406385 0.0101191085 -0.07086319 0.012771172
-0.056245305 -0.112107515 -0.068479486 0.02210553 -0.019027416 -0.0615627 -0.049909975 -0.047597673
0.054818336 0.08553283 0.020383632 0.059971463 0.0070167654 -0.076471016 0.053621836 -0.062049508
0.0584977 0.030523622 -0.057003222 -0.067835726 -0.057246905 -0.011874996 -0.09227101 0.015911916
0.03378337 -0.027304867 0.047414474 -0.08372921 0.04095639 -0.0049984152 -0.011930096 -0.076894134
-0.045020442 0.037337407 -0.081824854 -0.05736666 0.045725763 -0.0033247091 -0.06626272 0.08757255
-0.020069445 -0.011082116 0.033325877 -0.029656528 0.09184091 0.10037394 0.11094283 -0.006284164
0.0019668054 0.1186861 0.053007923 0.020402953 0.0631986 0.06948807 -0.064068265 0.008095393
-0.020333273 0.031234518 0.035497088 0.028645344 0.068594106 0.044889145 0.048901867 0.050155547

conv2.0.bias f4 [32]
00000000: bf15 55bd 4a16 79bd 6d30 68bd b579 553d
00000010: 111e 48bd 33fc 45bd 8c66 9c3d 9e17 313b
00000020: 1ad9 a3bd 9106 303c ffb2 293d 2ae9 b7bd
00000030: b1d5 32bb b042 9abd a895 07be b944 8ebc
00000040: 4c53 55bd cf85 ed3b 3c43 98bd a058 953d
00000050: 81cb 5ebc 3e8d 8abd 1328 82bd f502 85bd
00000060: 0f83 1c3c ffd4 02be 1ad5 e0bd c8b0 963c
00000070: 73ba 0fbc 25a1 66bd b60f cfbd a300 9fbd
-0.05202269 -0.060812272 -0.056686807 0.052118022 -0.0488568 -0.04833622 0.07636747 0.0027022134
-0.08000393 0.010743753 0.04143047 -0.089800194 -0.0027288015 -0.07532251 -0.13240683 -0.017366754
-0.05208139 0.0072486172 -0.07434699 0.072922945 -0.013598324 -0.06765221 -0.063553 -0.06494705
0.009552731 -0.12776564 -0.10978146 0.018394843 -0.00877248 -0.056306023 -0.101104185 -0.07763793

conv2.3.weight f4 [32]
00000000: 46e6 833f fc35 763f 90d3 833f 79e9 723f
00000010: 09f0 7d3f 922c 793f 814d 703f ba21 823f
00000020: 35a5 7d3f 8001 823f a05f 803f 067c 783f
00000030: 0f89 833f 1b74 823f 74ac 7f3f 8147 823f
00000040: 3750 6a3f 7df5 6a3f 2f65 823f 8e5d 783f
00000050: eca0 7a3f da9a 753f 2c2c 833f 90f4 843f
00000060: 9ed4 823f 75c7 833f 0843 813f d0a5 713f
00000070: 6cea 733f 162d 773f e4b4 793f 8f1a 773f
1.0304649 0.96176124 1.0298939 0.948875 0.9919439 0.97333634 0.9386826 1.0166543
0.9908021 1.0156708 1.0029182 0.97064245 1.0276202 1.0191683 0.9987252 1.0178071
0.9152865 0.91780835 1.0187129 0.97017753 0.979018 0.9593941 1.0247855 1.0387135
1.0221136 1.0295244 1.0098581 0.94393635 0.95279574 0.9655317 0.9754164 0.965249

conv2.3.bias f4 [32]
00000000: 7231 83bc 915e 413e 919f e03b 2e2a 5dbd
00000010: 89aa 973d b276 31bd be68 403e 7777 373c
00000020: c52c 07bc 17bd 0f3e 4244 fbbc af5a 3e3e
00000030: 5202 96bd 970e 823d 1fe5 353e 1383 f0bc
00000040: fb74 6f3d e8f9 9f3d 6ada cabc 7627 dabc
00000050: 791b 013d 1fd6 d73d c0c9 293e 5023 e13c
00000060: acb0 eb3d 562f 2f3e 6709 0ebd b223 a3bd
00000070: 47d9 073e bc9d 0b3e 3661 e83d 2f0e ff3d
-0.016014788 0.1888373 0.0068549593 -0.053995304 0.07405574 -0.043326087 0.18789956 0.011197916
-0.00825042 0.14036976 -0.030672196 0.1858928 -0.07324661 0.06350439 0.17763184 -0.029359376
0.05846117 0.07811338 -0.024762351 -0.026630145 0.03152034 0.10538887 0.16580868 0.027482659
0.11508307 0.17107901 -0.034676936 -0.07965793 0.13266478 0.1363439 0.113466665 0.12453877

conv2.3.running_mean f4 [32]
00000000: e4f4 823e 613a 0b3f e54c 8c3e 7916 2d3f
00000010: 7750 be3e c606 743e 907f df3e 2f2b 783e
00000020: 2ea2 b03e ad40 e93e fc8f 7b3e f443 763e
00000030: eef3 b63e 97a4 b13e 849c 633e 2a46 833e
00000040: eca9 ac3e 01fc fc3e ed23 4f3e b0d5 013f
00000050: 1a6e a53e fe6b ba3e bde8 c13e 049e 6f3e
00000060: ac9d ba3e 63f1 963e f0b1 7c3e 2d01 913e
00000070: 602d 9e3e 0163 c83e 7148 b33e a45a 3a3e
0.25577462 0.54385954 0.27402416 0.67612416 0.37170765 0.23830709 0.4365201 0.24235223
0.34498733 0.45557156 0.24566644 0.2404936 0.3573298 0.34695885 0.22227675 0.25639468
0.3372339 0.49411014 0.20228548 0.50716686 0.32310563 0.36410517 0.37872878 0.23400122
0.3644842 0.29481038 0.24677253 0.2832121 0.30893993 0.39138034 0.35016206 0.18198639

conv2.3.running_var f4 [32]
00000000: 0b99 e23d 2436 523f ff2d 293e b3ec 403f
00000010: 7168 983e 0eb5 e83d 9513 493e 0cf0 3a3e
00000020: ce06 933e 2fb9 2e3e 2c01 ce3d 01da ce3d
00000030: 414c 243e 569b c73e 8718 a53e ccd3 ea3d
00000040: 8a80 da3e 4951 b93e 8f33 e03d 135a c03e
00000050: aa35 1a3e e6fb c43e 8cad b63e 2661 f83d
00000060: b670 953e 9096 153e 4930 e43d e146 e93d
00000070: 9bcc 733e d4d0 013f bb36 ae3e 1fa5 243e
0.11064347 0.8211386 0.16521452 0.75361174 0.29767182 0.113626584 0.19636376 0.18255633
0.2871613 0.1706283 0.10058817 0.10100175 0.16044714 0.389857 0.32245275 0.11466178
0.42676193 0.36194828 0.10947334 0.3756872 0.15059534 0.38473433 0.3567928 0.121279046
0.29187554 0.14608216 0.11142022 0.11390472 0.2380852 0.5070927 0.3402613 0.16078614

conv3.0.weight f4 [64, 32, 3, 3]
00000000: c320 27bc 7f26 0fbc 0acf d9bc 08c1 b5bc
00000010: 20cd 2fbc e42e 0abd e0ce 59bd bb59 c53c
00000020: dc0e c2bd 4068 42bd cf99 2e3d 137b 19bb
00000030: 07f2 4abc 43e3 35bd 87a5 83bc 4909 27bb
00000040: 1d9d 4dbc aca2 773d 85da ffbc cca1 d4bc
00000050: cc90 c9bd c72a 903b 9316 07bc d6ad bebc
00000060: c54e b6bd 0d82 a83a be02 1fbd 9265 ed3c
00000070: b6e7 3abd 2990 5d3d 53ee 84bc ee72 37bd
00000080: 24aa 5cbc 5992 07bd 5c1a 7cbc 0678 44bd
00000090: f958 b5bd 5953 a0bd 9e75 38bd 8f62 08bd
000000a0: 9ab5 a0bd 3a26 7dbd d937 1fbd f0fe 60bc
000000b0: f625 fbbc 38bc b9bc 7a7c f6bb baa0 87bc
000000c0: 9b36 283d 7ecf 003d d2cc 683c e323 50bc
000000d0: effc 133d 769e b43c 8658 393c a69c 99bd
000000e0: 3e51 87bc 25f8 c43c 16dc 79bd 815e 28bd
000000f0: a175 44bd 6dd6 5abc cff1 75bd aa10 43bd
00000100: 4c19 3abd 4586 3bbd 6f83 5abd ef86 573c
00000110: 7a03 5cbd afc7 fdbc b976 3e3d c1fd f73c
00000120: d6ba 94bc f233 413d ff1c b43c df39 173d
00000130: 64d1 0d3c d63b 97bc a247 97bd 8d5b d63c
00000140: 348b b03b ef67 523c af69 90bb 36ee 823c
00000150: 0dfe 58bc e925 383d 9ab4 b43c 4152 263c
00000160: b79a 8e3c fcb2 273d 62fb 97bc 1abb 90bc
00000170: fe21 153d b1ff 18bb 45bc a3bc ce26 e33c
00000180: 7c0b 22bd 09d6 7c3b 69d0 cbbb fca8 cfbc
00000190: a3fe 403a cf4a e73c 4275 54bd 3c16 fbbc
000001a0: 8ef7 44bc d627 63bd 3927 6ebd 7c96 bdbc
000001b0: a6a0 a1bc b7af 0d3d 64eb c53c 0eb7 35bd
000001c0: aacc 073d b6b2 82bc c646 35bd 39e1 6e3c
000001d0: 144b c9bc 4503 a9bd 5680 70bd 561f 80bd
000001e0: 2517 aabd acbb 53bd bd5b a3bc 920b 8cbd
000001f0: 9c03 bb3c 0e13 1ebc cbd7 99bb ba0d 3e3d
00000200: 5db3 9c3c 18af 0cbd a28f b0bb a1c5 773c
00000210: 4a5a 213b 383c 1c3d 4d1f 9bba d520 8cbc
00000220: b979 81bc acd3 af3c fbd0 42bc e817 ccbb
00000230: db64 f2bc a5dc 3fbd 73d5 7b3c 0f8c 05bd
00000240: 3529 853d e058 493a 33d4 ddbc 053c f2bc
00000250: f588 c03c 9877 3d3c 59f7 05bd ab0b 403d
00000260: 533c 263d f0cb 91bb aa03 f33c 253f 023d
00000270: 341a 45bc 0fa2 393d 13bc 60bd c0b4 3f3c
00000280: f7cc 4b3d 606f 1f3d 8969 96bc 7e24 1d3d
00000290: 7786 06bd f8d3 033d 4ae8 c03c 01e0 78bd
000002a0: 0141 1bbd 967c 19bc c12b b13c fb50 74bd
000002b0: a566 fdbc 10b2 0e3d f97f 2ebd b301 f5bc
000002c0: f5ea 98bc 5b45 1c3b d7d9 173d 5720 9abb
000002d0: 344c d03c fcd8 85bc e5d9 51bd 5a44 1fbd
000002e0: 47b3 2bbc e389 56bd 9983 fcbc b9a1 943c
000002f0: 081b 053b 570c 1fbd 9574 5cbd 6d55 873c
00000300: c551 acbb 46b8 6abc 541c 81bd 4daf d63b
00000310: c117 f63a 44b5 6bbd 0505 8b3b 4817 68bc
00000320: 0605 303d 31fe 1abd f264 7f3d c373 1c3d
00000330: 2947 15bd 61f0 28bd 6524 9abb 9d2f a7bb
00000340: d761 6cbd c0bc babd 4980 31bd f4d8 05bd
00000350: cace a0bc b197 2dbd 5c4f 3bbd d22b c8bd
00000360: ab96 49bd 0f9d 5dbd 9fb5 afbd f770 1abb
00000370: 002d 54bc 9802 71bd 61ba 69bd 4e18 74bd
00000380: 8ba7 64bd 7e4b 203b 9fae 483d 253c ddbc
00000390: 3dc8 1cbd 36f1 5d3c 4048 02bc 4736 82bd
000003a0: 44c6 f03c 8bd2 67bd 8145 cbbc e027 833b
000003b0: f5b9 80bb d2a4 293c 3f3d 9bba 93b6 8b3c
000003c0: c73b 6fbd f98f 61bd a1b8 963c da90 8dbc
000003d0: 25c1 2abd e59e 65bd c336 083c 3ece 25bd
000003e0: 1e8f 81bd 34bc 44bd 1f79 7d39 5ffa 8f3c
000003f0: 4073 f6bb bedd f5bc 1b53 24bd 4530 7bbd
-0.010200682 -0.0087372055 -0.026587982 -0.022186771 -0.010730058 -0.033736125 -0.053175807 0.024090638
-0.094754905 -0.0474627 0.042627152 -0.0023419305 -0.012386805 -0.044406187 -0.01607014 -0.0025487712
-0.012549666 0.06045787 -0.031232128 -0.025956057 -0.09842071 0.0043996307 -0.008245128 -0.02327625
-0.08901743 0.0012856141 -0.038820975 0.028979097 -0.045631133 0.05409256 -0.016226923 -0.04478734
-0.013468299 -0.033098552 -0.015387144 -0.047966026 -0.08854861 -0.07828397 -0.045034043 -0.033297118
-0.07847138 -0.061804034 -0.03887162 -0.013732657 -0.03065775 -0.022672758 -0.007522163 -0.016556133
0.0410677 0.03144788 0.014208989 -0.012703869 0.03612989 0.022048216 0.01131261 -0.075005814
-0.016518231 0.024044106 -0.061000906 -0.04110575 -0.047963742 -0.013356787 -0.06004506 -0.047623314
-0.04543428 -0.045782346 -0.053348 0.013154729 -0.053714253 -0.030979006 0.04649994 0.030272366
-0.018155497 0.04716868 0.021986483 0.036920425 0.00865588 -0.01846115 -0.0738671 0.026166702
0.005387688 0.0128421625 -0.0044071297 0.015982728 -0.013244164 0.04495803 0.022058774 0.010151447
0.017407758 0.040942177 -0.018552486 -0.017667342 0.03640937 -0.0023345763 -0.019987235 0.027728464
-0.039561734 0.0038579723 -0.006219913 -0.025349133 0.00073621626 0.028233914 -0.05186964 -0.03065025
-0.012021912 -0.055457912 -0.058142874 -0.023143046 -0.019729923 0.034591403 0.024160095 -0.044364028
0.033154167 -0.015954357 -0.044256948 0.014580064 -0.024571933 -0.08252577 -0.05871614 -0.06255977
-0.08305196 -0.05169265 -0.019941205 -0.06838144 0.02282887 -0.009648098 -0.004694914 0.04639981
0.019128496 -0.03434667 -0.005388216 0.015122802 0.0024620467 0.038143367 -0.001183489 -0.0171055
-0.015805112 0.021463238 -0.011890645 -0.006228436 -0.029589107 -0.046841282 0.0153707145 -0.032604273
0.06502 0.0007680785 -0.027078724 -0.029569635 0.023502806 0.011564158 -0.032706592 0.046886127
0.040584873 -0.00444936 0.029664833 0.0317985 -0.012030173 0.045320567 -0.05486686 0.011700809
0.049756017 0.038924575 -0.01836087 0.03836488 -0.03284308 0.03218457 0.023548264 -0.0607605
-0.03790379 -0.0093680825 0.021627309 -0.05964754 -0.030932734 0.034837782 -0.042602513 -0.029908037
-0.018666724 0.002384505 0.037072983 -0.0047035622 0.025426961 -0.016338818 -0.05123319 -0.038883545
-0.010479755 -0.052377593 -0.03082447 0.018143522 0.0020310301 -0.038830128 -0.05382212 0.016520226
-0.005258771 -0.014326161 -0.06304231 0.006551659 0.001877539 -0.057545915 0.0042425417 -0.014165707
0.04297354 -0.037840072 0.06235213 0.038196336 -0.036444817 -0.04124487 -0.0047040456 -0.0051021115
-0.057710495 -0.091180325 -0.043335233 -0.032677606 -0.019629855 -0.042380992 -0.04572998 -0.09773983
-0.049215954 -0.05410486 -0.08579563 -0.0023565867 -0.012950182 -0.058840364 -0.05706251 -0.05959349
-0.055823844 0.002445906 0.048994657 -0.027006218 -0.0382769 0.013546279 -0.007951796 -0.06358009
0.029391415 -0.056597274 -0.024813415 0.004002556 -0.003928418 0.010354238 -0.0011843814 0.017054832
-0.058406617 -0.055068944 0.018398585 -0.017280985 -0.041688103 -0.056059737 0.008313837 -0.04047989
-0.063261256 -0.048031047 0.00024173081 0.01757544 -0.007521063 -0.030012961 -0.040118318 -0.06132533

conv3.0.bias f4 [64]
00000000: 8ee0 d8bd 4af4 a13c 7f65 4abd 69dd c7bd
00000010: ad02 833c a878 303c 7493 68bd 9d25 e5bc
00000020: 4c6f 063b ec0c 65bd e16a 683d b5c2 8abd
00000030: 8386 8abc e8ef ba3c 627d 47bd 1d15 26ba
00000040: abe3 3dbd 3e16 25bd 14b2 fabc bea3 b5bd
00000050: 878f 5cbd f899 41bd 5b42 5ebd 785b 17bd
00000060: 7622 dd3c b86e 3dbb f6e6 98bd 6519 0dbd
00000070: d76a 0abe ab86 11bd c0aa c7bd fde8 7ebd
00000080: 3657 03bd 82cc a2bd 9dca d2bc a733 8ebd
00000090: 4d91 1fb8 4b33 16bc 2916 e0bd 4cdd 92bd
000000a0: 3457 8fbd 0155 a53b eede 4abd abca 88bc
000000b0: bbaf 243c 1d8a 18bd 5f56 5ebc f83e f43b
000000c0: aeb0 883c 153f b6bd b2cb 01bd ba08 59bd
000000d0: 729a 80bd a2a5 2cbc 7988 58bb b956 7fbd
000000e0: 9929 233c ef57 2bbd a98d dd3c c929 153d
000000f0: 94e1 da3c 7728 01bd 39c6 62bd 6fc9 b3bd
-0.105897054 0.019769806 -0.0494132 -0.097590275 0.015992487 0.010770954 -0.056781247 -0.027972037
0.0020513115 -0.055920526 0.056742553 -0.06775419 -0.016909843 0.022819474 -0.04870356 -0.00063355436
-0.0463597 -0.040304415 -0.030602492 -0.08869122 -0.053847816 -0.047265977 -0.0542625 -0.036952466
0.026993971 -0.0028905105 -0.07465927 -0.034448046 -0.13517319 -0.03552882 -0.09749365 -0.062233914
-0.032065593 -0.07949163 -0.02573138 -0.06943446 -3.8043876e-05 -0.009167503 -0.10941727 -0.07171115
-0.069990546 0.0050455336 -0.04952901 -0.016698202 0.010051663 -0.03724109 -0.013570397 0.0074537955
0.01668581 -0.08898751 -0.0316884 -0.052986838 -0.06279458 -0.010537537 -0.0033040328 -0.062338565
0.009958648 -0.041831907 0.027045088 0.036416803 0.026718892 -0.03153273 -0.05536482 -0.08778655

conv3.4.weight f4 [64]
00000000: 3cfa 833f 5e10 863f 3bca 8d3f ef29 903f
00000010: 0a4b 913f fb69 903f 716d 953f c88b 833f
00000020: 3da0 763f 532e 903f c0ac 913f 6cfb 803f
00000030: da29 8f3f e3f1 843f 5558 873f fbb5 8d3f
00000040: 241d 833f 6bbd 863f 07cd 903f 6145 8a3f
00000050: 6ccd 823f b826 943f 5acd 8f3f b9bc 923f
00000060: a89d 833f 1b57 863f b627 833f 2c0c 933f
00000070: 776e 833f 3ecc 8b3f a356 833f ef80 803f
00000080: 3a4a 8a3f 3e32 873f 5f63 833f 9828 823f
00000090: 7f30 773f 34d0 913f 1d64 903f 7ceb 8f3f
000000a0: b944 833f 290f 7e3f 75cd 813f 7dcb 8d3f
000000b0: 8b7e 873f 3d56 933f 37f7 893f 487e 7e3f
000000c0: 871d 8f3f 07ff 913f fca9 893f 29d5 8f3f
000000d0: f015 7f3f 90ee 8d3f e6f0 933f 4625 863f
000000e0: 6d7b 833f 9c50 903f 8cbd 913f 1d69 783f
000000f0: 2748 903f 71cf 913f f28b 813f 3d6c 8e3f
1.031074 1.0473745 1.1077341 1.1262797 1.1351025 1.1282343 1.1674024 1.0277033
0.96338254 1.1264137 1.1380844 1.0076728 1.1184647 1.0386318 1.0573832 1.1071161
1.0243268 1.0526556 1.1312569 1.0802423 1.021894 1.1574316 1.1234543 1.1463844
1.0282488 1.0495332 1.0246494 1.148809 1.0268086 1.0921705 1.0260814 1.0039347
1.0803902 1.0562208 1.0264701 1.0168638 0.96558374 1.1391664 1.1280552 1.1243739
1.0255347 0.9924188 1.0140826 1.1077725 1.0585493 1.1510693 1.0778569 0.9941144
1.1180886 1.1405953 1.0755 1.1236926 0.9964285 1.1088428 1.1557891 1.0480125
1.0272042 1.12746 1.138597 0.9703539 1.1272019 1.1391431 1.0120833 1.1126782

conv3.4.bias f4 [64]
00000000: 1019 473c e807 a63c 16ec 67bc ed6b e0bc
00000010: 4dc7 8fbc 3b17 6ebc c303 87bc 1248 9e3c
00000020: aafa 993b 6e08 d2bb adea 09bc aa52 123c
00000030: 40b9 21bd 044e ff3b 9e72 e63c 8d9b cbbc
00000040: a20f c23c 28b6 9e3c 2ee8 e3bb e84d 17bd
00000050: ec88 243c 52da cebc 468e 93bb ebf0 f4bc
00000060: a03e 1ebc fd3d 2b3c 8945 023c f012 1cbd
00000070: 9559 aebb acc0 c5bc 0698 9a3c 7387 c13b
00000080: e4e4 66bc 2148 a23c 0e18 f73b 3e4a dc3c
00000090: d386 88bc ab98 8bbc b654 c4bc b925 edbc
000000a0: 4775 1c3c eaab 253d b264 283d fbe7 a4bc
000000b0: fe95 d83c 5b91 d4bc 315b acbc 1109 973c
000000c0: 3535 22bd 3d7c 34bc e0aa 8c3c 553a fdbb
000000d0: 95ee 193c e50a a9bc 1dff b8bc ab4a 323c
000000e0: 88dd ea3c 5b1a fbbb df68 75bc 0ea9 633c
000000f0: bfb8 00bc 0f34 13bc 9d41 123d 55fb a5bb
0.012151971 0.020267442 -0.014155408 -0.027395213 -0.017551089 -0.014531906 -0.016481286 0.019321475
0.004699071 -0.0064096963 -0.0084177675 0.008930841 -0.03948331 0.0077912826 0.028130826 -0.024854446
0.023689095 0.019373968 -0.006955168 -0.03693953 0.01004241 -0.025250588 -0.0045030443 -0.029900035
-0.009658486 0.010451791 0.007951149 -0.038103998 -0.0053207376 -0.024139725 0.018871319 0.0059060394
-0.014092658 0.019809784 0.0075407093 0.02689087 -0.016665852 -0.017040571 -0.023966175 -0.028948652
0.0095494455 0.040447153 0.041111656 -0.020130148 0.02643871 -0.025948217 -0.021039577 0.01843694
-0.039601523 -0.011015949 0.017171323 -0.007727901 0.009395261 -0.020635078 -0.022582585 0.01088206
0.028670087 -0.007663054 -0.0149786165 0.013895286 -0.007856547 -0.00898458 0.035707105 -0.0050653615

conv3.4.running_mean f4 [64]
00000000: c1b8 fe3e 7d43 3b3f 6ee8 e53e 5a0b ae3e
00000010: b4f7 143f 7759 f53e b7a6 d93e 2729 1b3f
00000020: d083 143f ffb6 003f df52 083f a712 fe3e
00000030: 9891 053f 65a3 0b3f 8d1d 243f a218 093f
00000040: ff4c 1a3f cf25 0f3f 5fac ab3e 0b7d d53e
00000050: 8a66 043f c46c dc3e 9edb 033f 3600 d73e
00000060: a87d 283f 7cd6 183f cf5d 0c3f f033 053f
00000070: b24f da3e 7eb1 e43e 5903 2b3f 15a2 273f
00000080: 1951 183f 914d 113f fa07 d03e 4894 223f
00000090: 6fdb 6a3f cb24 da3e ba9a a93e 8494 dd3e
000000a0: 45e3 fe3e 6cd4 213f 8b9b be3e 0f5b dd3e
000000b0: 6e54 1f3f c955 f53e 0fbc ae3e 532b 233f
000000c0: da06 f13e 049c c63e c4a7 213f 497b ec3e
000000d0: 6b14 133f dad2 043f f8ed d43e 32ec 223f
000000e0: 5aa7 263f 5394 e53e 1819 ea3e d559 553f
000000f0: 1294 1d3f 7fdb ec3e 2374 033f 58ec c23e
0.4975033 0.73149854 0.44903892 0.33993036 0.58190465 0.4791982 0.42510006 0.6060967
0.5801363 0.5027923 0.5325145 0.49623606 0.52175283 0.54546195 0.6410759 0.5355321
0.60273737 0.55917066 0.33529946 0.41696963 0.5171896 0.43051732 0.51506984 0.41992348
0.65816736 0.5970228 0.5483064 0.52032375 0.42638928 0.44666666 0.66801983 0.6548169
0.59498745 0.5675898 0.40631086 0.6350751 0.9174108 0.42606196 0.3312586 0.4327737
0.49782768 0.63214755 0.37228045 0.43233535 0.62238204 0.4791701 0.34127852 0.6373798
0.4707554 0.38790905 0.63146615 0.4618781 0.5745303 0.51884234 0.41587806 0.63641655
0.6509911 0.44839725 0.4572227 0.833402 0.6155406 0.46261212 0.51349086 0.3807094

conv3.4.running_var f4 [64]
00000000: 037d 823f 4a85 f33f ec3b e33f d1d6 9d3f
00000010: 3ffd 3740 1140 e23f 43dd dc3f b547 ae3f
00000020: f219 a23f d036 1540 7bee 0240 14d4 8e3f
00000030: 43de 3240 d62f ae3f 8118 ac3f e25b 3540
00000040: 23ec c03f 36ac 9b3f 27ab b63f db9e ee3f
00000050: ea99 893f 836d 0b40 d2f6 2240 13e9 d93f
00000060: 0f66 ad3f 8c79 983f 66ef 9c3f 3326 1540
00000070: c707 783f 7c6a e33f 3c81 e63f 2bf4 dc3f
00000080: dd05 3c40 3390 8c3f 4f83 2f3f e1e1 af3f
00000090: 854b bd40 dedf 0340 9005 9d3f 3624 f23f
000000a0: 6f13 9c3f 2f67 ae3f 0e3f 293f d88b ed3f
000000b0: 83ee 993f e356 f43f b2a6 8a3f 3b0c f33f
000000c0: db7d d43f 1966 d33f 669b bb3f 7b3a 0540
000000d0: d694 a23f 946a 1940 a67e ed3f e93f 9b3f
000000e0: 61c2 a93f 32aa f33f ce05 d53f da23 8e40
000000f0: b239 1a40 6cd6 f03f 13e7 953f 7421 d93f
1.01944 1.9025052 1.7752662 1.2331182 2.874832 1.7675802 1.7255024 1.3615633
1.2664168 2.3314705 2.0458057 1.1158471 2.7948158 1.3608348 1.3444978 2.833733
1.5072063 1.216193 1.4270982 1.8642229 1.0750096 2.178559 2.5463147 1.7024254
1.3546771 1.1912093 1.2260559 2.3304565 0.9688687 1.7766871 1.8008189 1.7262014
2.9378579 1.0981506 0.68559736 1.3740808 5.9154687 2.0605388 1.2267323 1.8917301
1.2193431 1.3625239 0.6611184 1.8558302 1.2025913 1.9089016 1.0832121 1.8988107
1.6600908 1.6515533 1.4656799 2.0816944 1.2701671 2.39713 1.8554275 1.2128879
1.3262445 1.9036314 1.6642396 4.4418764 2.4097714 1.8815436 1.1711143 1.6963334

fc.0.weight f4 [32, 64]
00000000: 4b16 d73d 7c1d 283e 4043 933c 1c27 21bd
00000010: 7f42 59be 914a 8c3b 2d01 9dbd cb61 7abc
00000020: db93 7a3d 3a4e 97bd eafc 11be a0be c7bd
00000030: 0c1f eabd 1e3a 3f3d b271 e33d ba89 2abe
00000040: e380 913c 8111 323d 5e54 11be f882 bbbd
00000050: ef05 9abd 4468 d7bc 71e5 27bd a31e 63be
00000060: 6751 9a3d 5170 4c3c 1c49 64bd ac3b cfbd
00000070: 0032 bf3d 09a3 43bd 107a 70bb c3c5 0e3e
00000080: f1e1 8f3c 6ab1 333d 997f 913d 7c5c f83d
00000090: 0e9d 943d d7b1 25be aad9 ddbc 46b5 35be
000000a0: 3e28 6f3d 3983 543d 4ad5 f13b 38e5 c4bd
000000b0: 8caa 053e 5dc5 41be 1495 f0bd e492 ecbc
000000c0: cc26 0f3c 9229 f2bd aca7 943c 0d9e 11be
000000d0: d660 973d 4d2d 13be 7fbc 4ebd 23cf 033e
000000e0: 9f0e 7b3d 2fcc 1dbc aae3 32be 5c7f 35bd
000000f0: 9167 94bd 899b c7bc 6189 18bb e694 11be
00000100: 5d9b 55bd e4b5 afbb 8a9e a1bd df78 23be
00000110: 5f4b 5bbd 4efc 9bbb 2bfb 07be 72c9 a43d
00000120: bc3b a9bd 7184 12be baa3 2a3d 462e 58bd
00000130: e95e b1bd 0256 d13d 8240 253e eb93 b7bd
00000140: bc19 fa3d d9e5 8e3d c338 b7bd 1a87 bb3b
00000150: 88e1 cabc fa43 37be 8974 39be 4958 41be
00000160: 8663 acbb 9432 f73d eaed 003d 6133 12be
00000170: ad0b e43d 1d61 17be 7921 d03c ef08 5dbd
00000180: aec6 2abd efb4 243e 0355 083e 10fb 113e
00000190: 169d 4e3d 45e5 b0bd 01cc 02be 8760 37be
000001a0: f528 84bd 134c 023d 7b3d d43d 31e5 a33c
000001b0: 8b5b 88bc 11f8 d3bd 1308 e03c 92af de3d
000001c0: 3659 3ebe 0c73 3ebd 18f0 4bbd 9003 16bd
000001d0: 4995 c53d fd76 82bd 6c81 41bd 145f 263e
000001e0: b4c0 0a3e c68a 90bd 0d4f b4bd aaa5 1cbb
000001f0: f8d6 10be 254a d8bc a8d9 e93c cf2a 94bd
00000200: 88d1 af3a dc5f 3f3d b5e9 edbd 2bbe fbbd
00000210: f4b1 2fbe 9eae 29bd ea19 42be 2bfb 243d
00000220: 3464 953d a850 a2bc f9bd d7bd ca42 c23d
00000230: a0fa 06be b36a a93d 1400 ae3d 7cf4 ecbd
00000240: 0767 3d3d 30b4 b33d 1154 8b3c f0e0 22be
00000250: 2cd7 083d 2ab1 08be b886 27be a895 1abe
00000260: f8f4 29bd a770 87bb 5e69 013e ede6 ddbd
00000270: 3dae bc3d d93f bcb9 2093 163e 4b6f 7bbd
00000280: 0e03 bdbd cbd6 933d b93f 38bd 17c9 ae3d
00000290: 351c a6bd a81d 0ebe cad3 32bd 90fa 35be
000002a0: a97d 143d 7f09 31bd b666 cc3d 78ba abbd
000002b0: 0974 db3c b790 37be c8be ca3a 82f6 afbd
000002c0: 4c8f bf3c 1dda 7a38 ac62 d93d 0686 f3bd
000002d0: 6925 003e 6ae5 15be 5cf3 a3bd 2c2e 133e
000002e0: 222b 963d 6e32 42be 2d31 5bbe 36af ad3d
000002f0: c51a 12be 28f0 ccbd 4515 5c3a 707a 0bbe
00000300: 68cd f0bd 5424 d0bd 2d2d d33c 7b7e 8d3d
00000310: 1667 3b3e b49c 303e 2a65 123e c8ba c2bd
00000320: a388 2d3d a6e1 2d3e 2f9a 9f3d 1ae0 e3bd
00000330: b5c3 093e da99 b4bd a78f 1ebe 4d0c d53d
00000340: afd6 f0bd 9de9 873b 3708 a33c c344 f23d
00000350: fb04 abbd 0e80 413e ac0b 833d 04ee e83d
00000360: 9272 303d 0ccb 543d 2f2a c0bc 9263 6abc
00000370: 0f30 463d 9410 303e adcf 88ba cb93 e3bd
00000380: 4ab4 093e 6e79 55bd cb15 1cbe 4b1b 95bd
00000390: 0f47 a3bd a96f 883d 50e5 3a3d a933 313d
000003a0: 642f 153d bcb3 15be e355 233c 0add 0d3e
000003b0: 1863 9abd 23d0 4c3e d49d c2bb 0727 f5bc
000003c0: 051f 0e3c 1e35 243d 6180 9abd d46c 123d
000003d0: 1640 76bc 7db2 363e c92a 273e 7b90 d7bd
000003e0: 8db4 00be 7230 853d d3de 703c 366e 11bd
000003f0: b67f 9a3a 4ebb 493e 9509 6fbd d4e3 6f3d
0.10502299 0.16417497 0.017976403 -0.03934394 -0.21216772 0.00428135 -0.0766624 -0.015282105
0.061176162 -0.073879674 -0.14256635 -0.09753156 -0.11431703 0.046686284 0.1110567 -0.16654101
0.017761653 0.043473724 -0.1419234 -0.0915584 -0.07520663 -0.026294835 -0.040990297 -0.22179656
0.075350575 0.01247795 -0.055733785 -0.101188034 0.093357086 -0.047762904 -0.0036693849 0.13942628
0.017563792 0.043870367 0.071044154 0.12127015 0.07256518 -0.16181122 -0.02708133 -0.17744932
0.058387987 0.051882956 0.0073801624 -0.096140325 0.1305334 -0.18922944 -0.117471844 -0.028878637
0.008737277 -0.11824335 0.018146358 -0.14220448 0.07391517 -0.1437275 -0.050472733 0.12871985
0.06129324 -0.009631201 -0.1746966 -0.044310912 -0.07246316 -0.024366157 -0.0023275244 -0.14216956
-0.05215012 -0.005362259 -0.07891567 -0.15964077 -0.053538676 -0.0047603017 -0.13279407 0.08046235
-0.082633466 -0.14308335 0.041660048 -0.052778505 -0.08660681 0.10221483 0.16137889 -0.0896376
0.1221194 0.06977434 -0.08946373 0.0057228925 -0.024765745 -0.17897025 -0.18110861 -0.18881334
-0.0052608876 0.12070194 0.031476893 -0.14277412 0.111350395 -0.1478314 0.025406586 -0.053963598
-0.041693382 0.16084646 0.1331368 0.14255929 0.050442778 -0.0863748 -0.12773134 -0.17907916
-0.064531244 0.03181083 0.10363289 0.020006748 -0.016645214 -0.10350049 0.0273476 0.10873331
-0.18588719 -0.046496436 -0.049789518 -0.03662449 0.096476145 -0.063703515 -0.047242567 0.16247207
0.13550073 -0.07057719 -0.0880414 -0.0023902454 -0.14144504 -0.026402542 0.02854617 -0.072347276
0.0013413886 0.046722278 -0.11616842 -0.12292131 -0.17157727 -0.041426294 -0.18955198 0.040278595
0.07294503 -0.01981385 -0.10534281 0.09485395 -0.13181543 0.082723044 0.08496109 -0.11570069
0.046240833 0.087746024 0.01700786 -0.1590612 0.03340833 -0.13348833 -0.16359985 -0.15096152
-0.041493386 -0.0041333023 0.1263785 -0.10835061 0.09212921 -0.00035905725 0.14704561 -0.061385434
-0.09229098 0.07218703 -0.044982646 0.085344486 -0.08110849 -0.138785 -0.04365901 -0.17771363
0.03625265 -0.043221947 0.09980528 -0.083851755 0.026788728 -0.17926298 0.0015468234 -0.085919395
0.023383759 5.980778e-05 0.10614523 -0.11890797 0.12514271 -0.14638296 -0.080054015 0.14373082
0.07332446 -0.1896455 -0.21405478 0.084806845 -0.14268024 -0.10006744 0.00083955034 -0.13620925
-0.11757928 -0.10163179 0.025778377 0.0690889 0.18301043 0.17247277 0.14296404 -0.09508282
0.042366635 0.1698061 0.0779308 -0.11126728 0.13453563 -0.08818407 -0.15484487 0.10402737
-0.11759698 0.004147722 0.019901378 0.118295215 -0.08350559 0.18896505 0.063987106 0.11373523
0.043078013 0.051951453 -0.023457615 -0.014305966 0.048385676 0.17193824 -0.0010437869 -0.11112174
0.13447681 -0.052117757 -0.15242688 -0.07280596 -0.07972538 0.066619225 0.045628846 0.043262158
0.03642215 -0.14619344 0.009969207 0.13853851 -0.07538432 0.20001273 -0.0059392247 -0.029925836
0.008674388 0.04008972 -0.075440176 0.035748318 -0.015029928 0.17841525 0.16324915 -0.10525604
-0.12568875 0.06503381 0.014701563 -0.035505496 0.0011787328 0.19700357 -0.058358748 0.058566883

fc.0.bias f4 [32]
00000000: ac29 70bd 4763 a3bd 661b 84bd 5f7e 313d
00000010: dde8 0fbd 451b cbbd 11a0 833d 3f1e 33bd
00000020: d743 b3bd eb02 2dbd 5887 8bbd c3ff a1bc
00000030: 614e be3d dfff 483a 4e59 77bd 8db2 293d
00000040: cece 913d 590b c8bd 3459 d5bc 3579 803c
00000050: 41d2 a5bc f5c6 d33d 08e8 4d3d 8046 ecbd
00000060: 3ec8 c63b 75c5 ec3d 9179 b63d 83a4 c23d
00000070: 6257 ce3d 2ddb cb3d f2d7 67bc d4e3 a33c
-0.05863349 -0.0797792 -0.06450538 0.043333407 -0.035134185 -0.099173106 0.064270146 -0.043730017
-0.08753174 -0.04223911 -0.06812924 -0.019775277 0.09292293 0.00076675223 -0.060387902 0.041430045
0.07119523 -0.097677894 -0.026043512 0.015682796 -0.020241858 0.103406824 0.05027011 -0.11536884
0.006066351 0.115610994 0.08909906 0.09504034 0.10075261 0.09953914 -0.0141506065 0.020006098

fc.3.weight f4 [1, 32]
00000000: 0b43 92bd f95d 03be d269 20be 6d48 993e
00000010: d807 7e3e 9bdf e8bd 49f1 a13d 91fd 8a3e
00000020: 0ac7 e6bd 745f 1abe 5392 863e fcd0 cbbd
00000030: f4c4 46be d624 1fbd b33b 68bd 80f4 8dbd
00000040: 96f3 b9bd aa08 493e a904 4cbe 0dad dfbd
00000050: 6e6b 1b3e daa3 7c3e 90b6 6d3e 95b9 913e
00000060: 153c 1fbe f0c0 3bbe 5bdb 1c3e 035a 0fbe
00000070: 6bc3 653e 3167 b5bd 873e 2fbe 7dff 02be
-0.07141694 -0.12828816 -0.15665367 0.2993807 0.2480768 -0.11370774 0.079073496 0.2714658
-0.112684324 -0.15075475 0.26283512 -0.0995197 -0.19411069 -0.03885349 -0.05669756 -0.069314
-0.090796635 0.19632211 -0.19923653 -0.10921679 0.151777 0.2467188 0.23214173 0.284619
-0.15550263 -0.18335319 0.15318052 -0.1399918 0.22437827 -0.08857573 -0.17113696 -0.12792774
