5 第五讲 机器学习训练模型的数学范式v16/models/model65.pth (torch, 112459 bytes, 21 tensors)

conv1.0.weight f4 [16, 3, 3, 3]
-0.010361 -0.113092266 0.15402392 -0.051350445 -0.13009308 -0.16417672 0.043736458 -0.15616919
0.101009175 0.07246479 0.19069578 -0.13049105 0.032112088 0.036109734 0.028293068 0.10453557
0.00068867515 -0.061787777 0.14459082 -0.12107839 -0.15047349 0.10145467 -0.054481585 0.15493749
-0.12689622 0.1493022 0.040848795 -0.04475846 0.14135343 -0.0696084 0.0026572351 -0.07283359
0.08369037 0.05746381 0.1478794 -0.09855058 0.041149277 -0.0067360695 0.1573826 -0.14834978
-0.06473328 0.15949206 0.06311754 -0.05324699 0.07339195 0.05207016 -0.06639725 -0.15779305
-0.17821792 0.10080298 -0.020896373 0.07712991 -0.16311006 0.16220142 0.073310435 -0.012215949
-0.0858236 -0.023866585 -0.13616171 -0.16648185 -0.07055156 0.11052264 -0.1686548 0.15640701
0.096464776 -0.14262831 0.16831975 0.053426314 -0.03211551 0.02361424 0.042767465 0.12835395
0.19157468 0.041617133 -0.027066048 0.017359886 0.039665338 -0.07736706 -0.07923145 -0.19767982
0.1824428 -0.076604284 -0.01637125 -0.15812573 -0.0048061083 0.1626688 -0.15283667 0.10168224
0.18695775 -0.17713515 0.005727008 0.040999565 0.02098217 0.015027203 0.17152834 0.17567514
0.024570787 0.07448702 -0.063871704 -0.08473158 -0.07391327 0.14662078 0.19558261 0.14609508
0.041799232 0.09919629 -0.069717355 -0.014011 -0.18531103 0.05637356 -0.11550032 0.16092333
0.011780723 0.09961954 -0.047618218 0.043704703 -0.1725486 -0.1825657 -0.10610787 0.20080769
0.08326332 0.106150344 0.20010239 0.09178561 0.08848409 -0.054462608 -0.11473147 0.10547311
0.1566715 -0.16837895 0.055735115 -0.04941912 0.16421442 -0.036767464 -0.043229703 -0.0384919
-0.058534417 0.15311792 -0.09331595 0.045744095 0.0040613697 0.1375435 0.08648401 -0.14303914
-0.011634282 0.00036736502 -0.03344443 0.15829197 0.19387221 -0.13719591 -0.0555358 0.19111255
0.04924769 -0.07803704 0.10528191 -0.040648904 -0.08969377 -0.20246029 0.11217968 -0.06263874
-0.15372908 -0.1523559 -0.03232201 0.13007672 0.10904136 0.12393642 -0.07385167 -0.14871946
-0.036048528 -0.084584385 0.07600362 0.12528197 -0.05846666 -0.19390066 0.15769213 0.06366543
-0.118188165 -0.056861553 -0.028360056 -0.112341024 0.16461104 0.052452195 -0.13202573 -0.119330965
-0.09007418 -0.19503081 -0.017514309 -0.06116934 -0.10899949 0.021575224 -0.09298931 0.10473928
0.10265579 -0.06303963 -0.088141136 -0.19392815 -0.01739118 -0.16097279 0.18121105 0.10634348
-0.0017319538 -0.012837298 -0.008060328 0.18725769 -0.022817584 0.037018485 0.1150763 0.060804464
-0.02814814 0.117404535 -0.16610779 0.014258471 -0.2132581 0.078436166 0.10589763 -0.06300324
-0.1630111 -0.09067254 0.026278688 -0.14604877 -0.023023438 -0.09249519 -0.118090644 0.080436386
-0.132481 0.0759709 -0.12112764 -0.006421532 0.171322 -0.12694873 -0.11514248 0.08066685
0.06275894 -0.12893087 0.08262306 -0.14855717 -0.19545142 -0.07477668 0.15791714 0.03476215
0.13729101 0.036180664 -0.030978348 0.18086988 0.08854291 0.05891358 -0.15687957 -0.1255465
0.1385423 0.19166212 0.05045168 0.08165982 -0.14982238 -0.059887946 -0.042320143 -0.09787974
00000000: 2fc1 29bc eb9c e7bd 72b8 1d3e d854 52bd
00000010: 1f37 05be f11d 28be 0025 333d d1ea 1fbe
00000020: e6dd ce3d 6b68 943d c145 433e 729f 05be
00000030: f787 033d cde7 133d ddc6 e73c bf16 d63d
00000040: 3588 343a 2e15 7dbd 9e0f 143e f2f7 f7bd
00000050: b915 1abe 77c7 cf3d 1528 5fbd efa7 1e3e
00000060: 15f1 01be ade2 183e 1151 273d a654 37bd
00000070: f4be 103e d98e 8ebd 0225 2e3b c729 95bd
00000080: db65 ab3d 2c5f 6b3d b36d 173e e3d4 c9bd
00000090: 258c 283d 3fba dcbb e728 213e 01e9 17be
000000a0: e292 84bd e351 233e c543 813d 8419 5abd
000000b0: 854e 963d 8547 553d 48fb 87bd 8094 21be
000000c0: c27e 36be cb71 ce3d df2e abbc 49f6 9d3d
000000d0: 5306 27be 2118 263e c823 963d 6725 48bc
000000e0: 49c4 afbd db83 c3bc fa6d 0bbe 387a 2abe
000000f0: 567d 90bd b259 e23d d8b3 2cbe 2929 203e
00000100: 538f c53d 280d 12be 035c 2c3e 8dd5 5a3d
00000110: 8e8b 03bd a772 c13c f02c 2f3d 386f 033e
00000120: 272c 443e ba76 2a3d 9eb9 ddbc 5236 8e3c
00000130: 1f78 223d 9f72 9ebd 1944 a2bd 946c 4abe
00000140: 49d2 3a3e b5e2 9cbd 001d 86bc b6eb 21be
00000150: 8f7c 9dbb a692 263e 3781 1cbe c73e d03d
00000160: da71 3f3e eb62 35be a0a9 bb3b 29ef 273d
00000170: cde2 ab3c a834 763c 20a5 2f3e 2fe4 333e
00000180: ad48 c93c a78c 983d 2bcf 82bd c087 adbd
00000190: d75f 97bd c223 163e cf46 483e f399 153e
000001a0: ac35 2b3d 6d27 cb3d f9c7 8ebd 658e 65bc
000001b0: 2dc2 3dbe f6e7 663d 6f8b ecbd 16c9 243e
000001c0: ef03 413c 5405 cc3d 520b 43bd b403 333d
000001d0: 95b0 30be 81f2 3abe 154f d9bd 88a0 4d3e
000001e0: f685 aa3d 5a65 d93d a4e7 4c3e 18fa bb3d
000001f0: 2637 b53d 2f14 5fbd 55f8 eabd 4902 d83d
00000200: 7e6e 203e 886b 2cbe 814a 643d b46b 4abd
00000210: d327 283e 7b99 16bd a111 31bd afa9 1dbd
00000220: c9c1 6fbd f2ca 1c3e 6f1c bfbd 295e 3b3d
00000230: 3d15 853b 34d8 0c3e 871e b13d da78 12be
00000240: b79d 3ebc e69a c039 07fd 08bd 4a17 223e
00000250: 7086 463e 167d 0cbe 8279 63bd 02b3 433e
00000260: f2b7 493d e2d1 9fbd 0b9e d73d 777f 26bd
00000270: 5eb1 b7bd c051 4fbe 76be e53d bd48 80bd
00000280: 286b 1dbe 2f03 1cbe 1564 04bd d532 053e
00000290: 1451 df3d 61d2 fd3d 8b3f 97bd ea49 18be
000002a0: 9fa7 13bd 943a adbd c9a7 9b3d eb49 003e
000002b0: bd7a 6fbd e58d 46be 0c7a 213e 0563 823d
000002c0: a30c f2bd a9e7 68bd 5953 e8bc 0d13 e6bd
000002d0: cc8f 283e 1dd8 563d c131 07be cb63 f4bd
000002e0: d078 b8bd 28b6 47be 2b7a 8fbc b48c 7abd
000002f0: 203b dfbd 86be b03c 2e71 bebd 8c81 d63d
00000300: 333d d23d ec1a 81bd 5783 b4bd 1a95 46be
00000310: f377 8ebc 0dd6 24be 648f 393e 9cca d93d
00000320: ba02 e3ba 8853 52bc 770f 04bc 7bc0 3f3e
00000330: f1eb babc b2a0 173d 20ad eb3d 1a0e 793d
00000340: ee96 e6bc ca71 f03d 2918 2abe 5d9c 693c
00000350: 5560 5abe 24a3 a03d dbe0 d83d d807 81bd
00000360: 62ec 26be 86b2 b9bd 6746 d73c cf8d 15be
00000370: a69b bcbc 1e6e bdbd 82d9 f1bd d5bb a43d
00000380: 19a9 07be a296 9b3d c511 f8bd b76b d2bb
00000390: 096f 2f3e d9fe 01be d2cf ebbd a934 a53d
000003a0: c287 803d 7406 04be 4736 a93d 5f1f 18be
000003b0: 6b24 48be 8424 99bd 08b5 213e c262 0e3d
000003c0: 0496 0c3e 2d32 143d 4ec6 fdbc f435 393e
000003d0: fc55 b53d 5e4f 713d 0aa5 20be 438f 00be
000003e0: 08de 0d3e 1343 443e 6ca6 4e3d 443d a73d
000003f0: 0a6b 19be 104d 75bd e357 2dbd 2c75 c8bd

conv1.0.bias f4 [16]
0.09427785 0.13239612 0.08319205 0.047811188 -0.18307914 -0.0027049812 0.12585296 0.032668605
-0.20459138 0.016904334 0.1569521 -0.13125311 0.15394022 -0.16302648 -0.0052166292 0.21194686
00000000: bf14 c13d d992 073e 9860 aa3d aad5 433d
00000010: 1979 3bbe 0e46 31bb 99df 003e 84cf 053d
00000020: 6780 51be f57a 8a3c 0db8 203e 3767 06be
00000030: 81a2 1d3e 6af0 26be 42f0 aabb 9908 593e

conv1.3.weight f4 [16]
0.9695375 0.9870234 1.026597 0.92674214 1.0283767 1.0159239 0.9995803 0.95020473
0.959819 1.0420371 0.9523438 1.0983077 0.94097245 1.0267245 0.9571602 0.9883374
00000000: 9c33 783f 91ad 7c3f 8867 833f f93e 6d3f
00000010: d9a1 833f cb09 823f 7fe4 7f3f 9e40 733f
00000020: b3b6 753f 7961 853f cecc 733f 5995 8c3f
00000030: 92e3 703f b56b 833f 7308 753f ae03 7d3f

conv1.3.bias f4 [16]
-0.008816964 0.11437182 -0.015747244 0.014653616 0.080846235 -0.04984343 0.07636039 0.0037574128
0.14258926 0.041064955 -0.098567545 0.012682102 -0.020672062 0.05648711 0.0060257143 -0.07068938
00000000: 0775 10bc c63b ea3d 5d00 81bc b815 703c
00000010: b692 a53d a028 4cbd d662 9c3d ed3e 763b
00000020: eb02 123e ba33 283d c8dd c9bd 97c8 4f3c
00000030: 7558 a9bc 075f 673d 5b73 c53b 98c5 90bd

conv1.3.running_mean f4 [16]
0.120328814 0.22350205 0.13216725 0.3475671 0.03790403 0.0138313435 0.022027908 0.047487013
6.043835e-06 0.034925148 0.313923 0.01594545 0.16727695 0.009685816 0.14204429 0.15014607
00000000: f46e f63d b9dd 643e da56 073e 51f4 b13e
00000010: 4241 1b3d dc9c 623c df73 b43c be81 423d
00000020: 26cc ca36 ac0d 0f3d 84ba a03e 08a0 823c
00000030: a64a 2b3e 42b1 1e3c 0f74 113e e4bf 193e

conv1.3.running_var f4 [16]
0.001651937 0.003116737 0.0038529674 0.037067022 0.0035502657 0.00085765275 0.0019068032 0.0013334228
4.926275e-07 0.0021483845 0.016947763 0.0012455272 0.0011259145 0.0007118136 0.00989866 0.002422099
00000000: cf85 d83a 2b42 4c3b 1182 7c3b 97d3 173d
00000010: 93ab 683b 1ad4 603a b3ed f93a 3fc6 ae3a
00000020: 1b3d 0435 e9cb 0c3b 09d6 8a3c f540 a33a
00000030: 6c93 933a 0199 3a3a fd2d 223c 14bc 1e3b

conv2.0.weight f4 [32, 16, 3, 3]
-0.015005618 -0.03785045 -0.012981636 -0.01268259 0.05833336 0.015502847 0.044758353 -0.022401983
-0.011585609 -0.042037006 -0.08812054 -0.05186265 -0.014385589 0.033306025 -0.034489997 -0.028403992
-0.046968926 0.045277465 0.09263507 -0.03441332 -0.0942275 0.072361894 0.058591697 -0.073412366
-0.07105991 -0.05181601 -0.07026105 0.087765 0.046264786 -0.060400084 -0.009698194 0.060569055
-0.025220348 0.030081771 0.0043516885 0.036636285 0.034238327 0.034232955 -0.035019476 -0.11532576
-0.020024648 0.0068787336 -0.058982242 -0.056398746 0.014153877 0.021118402 0.07115558 0.08781323
-0.04193481 0.06465479 0.044359826 0.09157069 0.10411686 0.07428824 0.062534824 0.021759532
-0.034299128 -0.030656662 0.047457766 -0.018886978 0.049995072 0.04003542 0.063448004 0.0593562
-0.063319884 -0.028967796 0.06793691 0.060060263 -0.047582384 0.03881816 -0.06449863 -0.04249748
-0.029058868 -0.14313309 -0.060798783 -0.13811223 -0.17519543 -0.12977241 -0.11236298 -0.06604143
-0.15615666 -0.13780805 -0.06302323 0.027212905 -0.07416147 0.00054911803 0.031975687 -0.11797989
-0.12362885 0.029927036 0.07582652 -0.018089173 -0.012120802 -0.05799916 0.021758066 -0.02897085
0.085371055 0.03927973 0.023733009 -0.0003051276 0.0026992403 0.05955977 -0.07961474 -0.08655952
-0.10924335 -0.018659957 0.07179597 0.051089235 0.0543411 -0.01838714 0.04827828 0.046742175
-0.00040035238 0.005475662 -0.037603952 0.024188599 -0.059113722 0.053622752 -0.07621771 -0.12003398
-0.042363293 -0.07453353 -0.023983033 -0.14508148 -0.059204053 0.045310132 0.021424048 -0.056167144
-0.033506945 -0.03449928 -0.064396285 -0.07145207 -0.039217424 0.027237665 0.022193631 -0.04179218
0.006344592 0.030989869 0.010435252 -0.062641636 -0.040381238 0.048967436 0.070783876 0.013620839
0.03445055 -0.0256193 0.023574015 0.08126945 0.014174373 -0.05773028 0.017505202 0.04691349
0.061300077 -0.033842314 0.020730793 -0.045250528 -0.06932708 0.033020645 -0.11031707 0.026528632
-0.0014573773 -0.02344739 0.033129968 0.0854617 0.06440513 0.104230456 -0.050463412 0.037374854
0.09290476 -0.00596432 0.08984979 0.074612774 0.01019471 -0.003987111 -0.00015995692 -0.013348183
0.08774301 0.05255205 -0.01735894 0.096543394 0.036395982 0.030955715 -0.04322495 0.048475705
0.05806353 0.05497579 0.066816606 0.0036943306 0.059842154 -0.0029248102 -0.08495081 -0.0041022324
-0.07042391 -0.1333952 -0.08788908 0.010960845 -0.03883532 -0.07943382 -0.04158956 -0.04072141
0.057545576 0.094935805 0.023489699 0.060191084 0.014877114 -0.07485427 0.0546013 -0.047054686
0.07107713 0.045047753 -0.042762272 -0.057493713 -0.050416294 0.0020697562 -0.08535727 0.018784447
0.027725892 -0.038436193 0.045965914 -0.092439555 0.027665025 -0.01604483 -0.018381627 -0.08722669
-0.054783426 0.037881117 -0.08344025 -0.06173305 0.04815525 -0.0038653568 -0.07355998 0.09199153
-0.019891946 -0.017753728 0.04545558 -0.019241191 0.10439067 0.11507064 0.12212202 0.006232151
0.018420512 0.13204883 0.06940664 0.026610896 0.053829353 0.07801457 -0.052550156 -0.0027158046
-0.014012161 0.03449361 0.027992494 0.039008833 0.062232833 0.03684428 0.04023365 0.04324746
00000000: 20da 75bc 1309 1bbd eeb0 54bc a3ca 4fbc
00000010: f6ee 6e3d a7ff 7d3c 8954 373d 5d84 b7bc
00000020: 91d1 3dbc ff2e 2cbd 8b78 b4bd ee6d 54bd
00000030: 89b1 6bbc e66b 083d 6245 0dbd 7daf e8bc
00000040: 7d62 40bd dd74 393d 75b7 bd3d fbf4 0cbd
00000050: 59fa c0bd 7932 943d d9fd 6f3d 3959 96bd
00000060: dc87 91bd 063d 54bd 06e5 8fbd 23be b33d
00000070: 2580 3d3d 1466 77bd 2de5 1ebc 4217 783d
00000080: e79a cebc 0c6e f63c 9c98 8e3b ee0f 163d
00000090: 7d3d 0c3d db37 0c3d 9570 0fbd e92f ecbd
000000a0: bb0a a4bc 0067 e13b 5d97 71bd 5f02 67bd
000000b0: aae5 673c 8000 ad3c 04ba 913d 6cd7 b33d
000000c0: d6c3 2bbd bb69 843d a6b2 353d 6a89 bb3d
000000d0: 383b d53d 6f24 983d 4212 803d 0c41 b23c
000000e0: 3e7d 0cbd ae23 fbbc 1363 423d ddb8 9abc
000000f0: a2c7 4c3d 2efc 233d 07f1 813d 7d1f 733d
00000100: dbad 81bd df4d edbc 8222 8b3d c001 763d
00000110: bfe5 42bd caff 1e3d dc17 84bd d611 2ebd
00000120: dd0c eebc 7b91 12be 2508 79bd 4b6d 0dbe
00000130: 6e66 33be 0fe3 04be 901e e6bd bb40 87bd
00000140: 88e7 1fbe 8e1d 0dbe 5312 81bd 99ed de3c
00000150: f8e1 97bd b0f2 0f3a f0f8 023d 719f f1bd
00000160: 1f31 fdbd 8b29 f53c ef4a 9b3d bf2f 94bc
00000170: 5496 46bc 8790 6dbd f93d b23c 4754 edbc
00000180: 05d7 ae3d c8e3 203d ba6b c23c 89f9 9fb9
00000190: bde5 303b f2f4 733d 0e0d a3bd 1e46 b1bd
000001a0: faba dfbd c4dc 98bc c409 933d f242 513d
000001b0: c694 5e3d a1a0 96bc 72bf 453d b974 3f3d
000001c0: 63e6 d1b9 2f6d b33b 9a06 1abd 2b27 c63c
000001d0: 3b21 72bd 88a3 5b3d 0818 9cbd 60d4 f5bd
000001e0: 2285 2dbd 09a5 98bd 1178 c4bc 3d90 14be
000001f0: f37f 72bd 1e97 393d 7c81 af3c 850f 66bd
00000200: 943e 09bd 1e4f 0dbd 33e2 83bd 7655 92bd
00000210: 73a2 20bd 8621 df3c 6bcf b53c 472e 2bbd
00000220: 4ce6 cf3b 77de fd3c 9ff8 2a3c 424a 80bd
00000230: cc66 25bd 1492 483d 23f7 903d f129 5f3c
00000240: 051c 0d3d 91df d1bc 4b1e c13c 9970 a63d
00000250: a13b 683c 9676 6cbd 1267 8f3c 5c28 403d
00000260: ca15 7b3d 3d9e 0abd a0d3 a93c 9e58 39bd
00000270: 5bfb 8dbd a840 073d eaed e1bd 9352 d93c
00000280: 7805 bfba be14 c0bc 4ab3 073d 8b06 af3d
00000290: d6e6 833d c776 d53d b9b2 4ebd 6016 193d
000002a0: da44 be3d 5870 c3bb 2b03 b83d 95ce 983d
000002b0: b707 273c 50a6 82bb 1cba 27b9 56b2 5abc
000002c0: 9bb2 b33d d240 573d 5634 8ebc 8bb8 c53d
000002d0: f413 153d d796 fd3c a50c 31bd 768e 463d
000002e0: 06d4 6d3d 4b2e 613d 25d7 883d 951c 723b
000002f0: 0c1d 753d 2cae 3fbb b1fa adbd 056c 86bb
00000300: 693a 90bd c098 08be 31ff b3bd 1e95 333c
00000310: c911 1fbd 33ae a2bd d159 2abd 7ecb 26bd
00000320: e9b4 6b3d b46d c23d 786d c03c ed8a 763d
00000330: 24bf 733c 324d 99bd 9da5 5f3d 6abc 40bd
00000340: e390 913d fe83 383d 7e27 2fbd 877e 6bbd
00000350: 5181 4ebd bfa4 073b cbcf aebd d7e1 993c
00000360: 6921 e33c 456f 1dbd c146 3c3d f350 bdbd
00000370: c3a1 e23c 7370 83bc 1195 96bc e8a3 b2bd
00000380: 9664 60bd 3b29 1b3d b9e2 aabd cbdb 7cbd
00000390: 703e 453d ed51 7dbb 9da6 96bd 0e66 bc3d
000003a0: 6ff4 a2bc 4470 91bc a12f 3a3d b49f 9dbc
000003b0: c7ca d53d 28aa eb3d 1c1b fa3d 1237 cc3b
000003c0: 9de6 963c cf37 073e 1225 8e3d 18ff d93c
000003d0: 2b7c 5c3d 1ac6 9f3d d53e 57bd a4fb 31bb
000003e0: 4393 65bc 2c49 0d3d 8450 e53c bac7 1f3d
000003f0: dbe7 7e3d 07ea 163d 0acc 243d 4024 313d

conv2.0.bias f4 [32]
-0.072066106 -0.06938319 -0.08690514 0.075377345 -0.08125721 -0.06260936 0.068231985 0.010086134
-0.096466035 0.01434664 0.020620227 -0.13540159 -0.007813394 -0.09681949 -0.21796258 -0.031149626
-0.05536918 -0.011699695 -0.07742465 0.07715623 0.00078760064 -0.101253934 -0.06722851 -0.07128658
0.016997457 -0.14318484 -0.10877034 0.01727044 -0.11170074 -0.109438434 -0.122792885 -0.093467444
00000000: 6597 93bd c618 8ebd 52fb b1bd 705f 9a3d
00000010: 2e6a a6bd 5639 80bd 36bd 8b3d 5040 253c
00000020: fc8f c5bd 2b0e 6b3c c0eb a83c b7a6 0abe
00000030: c003 00bc 4c49 c6bd 9531 5fbe 802d ffbc
00000040: cbca 62bd 14b0 3fbc d190 9ebd 1604 9e3d
00000050: fc76 4e3a 395e cfbd 1aaf 89bd b3fe 91bd
00000060: 403e 8b3c 0c9f 12be fcc2 debd bd7a 8d3c
00000070: 5cc3 e4bd 4221 e0bd d67a fbbd dc6b bfbd

conv2.3.weight f4 [32]
1.0232161 0.9530407 1.0220371 0.9385062 0.9840929 0.97193265 0.9296033 1.0128202
0.98602825 1.012953 0.9979858 0.96897626 1.0266193 1.0054897 1.0244752 1.0156883
0.88581777 0.9213513 1.0101277 0.965275 0.9707797 0.9424196 1.0186518 1.0322589
1.0088013 1.0256056 1.015375 0.9303837 0.9445267 0.9806938 0.9600535 0.9551161
00000000: bff8 823f 7afa 733f 1dd2 823f f141 703f
00000010: 83ed 7b3f 94d0 783f 7bfa 6d3f 18a4 813f
00000020: 596c 7c3f 72a8 813f ff7b 7f3f d40e 783f
00000030: 4368 833f e3b3 803f 0122 833f 1302 823f
00000040: f4c4 623f aedd 6b3f dd4b 813f 431c 773f
00000050: 0585 783f 6942 713f 2f63 823f 0f21 843f
00000060: 6720 813f 0b47 833f cff7 813f a02d 6e3f
00000070: 80cc 713f c00e 7b3f 11c6 753f 7d82 743f

conv2.3.bias f4 [32]
-0.0035128875 0.2777197 0.02366866 -0.10098182 0.10927529 -0.09110895 0.33286172 0.018735666
-0.042357832 0.18592188 -0.0636949 0.37343323 -0.12117328 0.1230474 0.26265562 -0.090404026
0.11352907 0.035827123 -0.028476588 -0.06486279 0.106636524 0.14741547 0.25555077 0.08596634
0.21432607 0.25648767 -0.074251 -0.09469536 0.24833979 0.18938157 0.1866558 0.28230467
00000000: 7938 66bb 4731 8e3e c7e4 c13c 8ecf cebd
00000010: b9cb df3d 5497 babd da6c aa3e 8a7b 993c
00000020: 687f 2dbd 4e62 3e3e 7972 82bd a432 bf3e
00000030: b229 f8bd 4600 fc3d cc7a 863e bf25 b9bd
00000040: ee81 e83d 76bf 123d bc47 e9bc c8d6 84bd
00000050: 4064 da3d 15f4 163e 8dd7 823e 1f0f b03d
00000060: 4b78 5b3e 5a52 833e e910 98bd a4ef c1bd
00000070: c94c 7e3e 3eed 413e b322 3f3e 3d8a 903e

conv2.3.running_mean f4 [32]
0.2367172 0.7798835 0.21993485 0.8274018 0.3702135 0.153772 0.45155293 0.27084213
0.34984216 0.5099595 0.20701091 0.18132815 0.47888467 0.41546634 0.10769241 0.23198499
0.6622015 0.4493175 0.18029994 0.51126194 0.43499747 0.46464005 0.630854 0.19036242
0.5056059 0.244302 0.28472048 0.2684369 0.118552364 0.36097854 0.43228474 0.22745529
00000000: fe65 723e 72a6 473f 9a36 613e 9bd0 533f
00000010: a08c bd3e 6876 1d3e f231 e73e d2ab 8a3e
00000020: 831e b33e b58c 023f abfa 533e 16ae 393e
00000030: 5f30 f53e 01b8 d43e d78d dc3d 798d 6d3e
00000040: 0a86 293f f20c e63e 8ca0 383e 10e2 023f
00000050: fdb7 de3e 4de5 ed3e a67f 213f 5eee 423e
00000060: 636f 013f 4e2a 7a3e e2c6 913e 9070 893e
00000070: 95cb f23d 2ed2 b83e 6d54 dd3e 0aea 683e

conv2.3.running_var f4 [32]
0.12110829 1.5877668 0.106434725 1.0056851 0.3375764 0.08015176 0.18931638 0.23882425
0.34862623 0.21179248 0.12144823 0.08272443 0.25830913 0.58873284 0.13994259 0.11709908
1.0308288 0.43072483 0.115279466 0.3925797 0.25527316 0.70025074 0.8422118 0.100108616
0.43859693 0.15450844 0.13154949 0.09698099 0.12404958 0.5400023 0.38443425 0.10837186
00000000: a007 f83d f13b cb3f 73fa d93d 4aba 803f
00000010: d0d6 ac3e 9b26 a43d 27dc 413e 588e 743e
00000020: 237f b23e 21e0 583e dab9 f83d 6d6b a93d
00000030: 1841 843e 32b7 163f 1c4d 0f3e a4d1 ef3d
00000040: 33f2 833f f787 dc3e a417 ec3d 3500 c93e
00000050: 2ab3 823e a243 333f 319b 573f bf05 cd3d
00000060: c78f e03e 7637 1e3e e9b4 063e f89d c63d
00000070: b50d fe3d 973d 0a3f 91d4 c43e 11f2 dd3d

conv3.0.weight f4 [64, 32, 3, 3]
-0.025595967 -0.027134713 -0.05050409 -0.037553973 -0.034479033 -0.05934258 -0.06642885 -0.0033324393
-0.1233045 -0.043084007 0.04653262 0.0052364334 -0.005412752 -0.036380883 -0.0077499514 0.0055694594
-0.0034243409 0.06723121 -0.025589619 -0.021592192 -0.09864567 0.008981329 -0.005657313 -0.025715902
-0.08715107 0.0014427787 -0.04475792 0.03536112 -0.034544006 0.067721985 -0.004131942 -0.03265621
0.0042579263 -0.020954387 -0.0020930993 -0.02942268 -0.07120076 -0.058388215 -0.017600793 -0.013686382
-0.057223145 -0.031038238 -0.02273871 0.0056829234 -0.0034719827 -0.025817327 -0.015309929 -0.015784953
0.022796236 0.023618411 0.014219036 -0.013573436 0.033327803 0.016809737 0.009556348 -0.07338466
-0.010766841 0.02315724 -0.058577623 -0.032576676 -0.04893832 -0.012052468 -0.05009763 -0.034917213
-0.030804602 -0.030999862 -0.030749576 0.029680783 -0.035568677 -0.009467757 0.056794092 0.04062541
0.005457356 0.07558755 0.059185922 0.061319493 0.037735607 0.026825959 -0.051298216 0.05592086
0.045614835 0.034168202 0.018088909 0.03284897 0.0064179236 0.06550132 0.038808957 0.030856201
0.03727865 0.05935461 -0.01220822 -0.010478089 0.03785991 0.0041474774 -0.01255226 0.030352406
-0.03371519 0.006392322 -0.0073336517 -0.032709368 -0.029620416 0.0068701454 -0.05388467 -0.05848913
-0.032621082 -0.059450056 -0.07649197 -0.042906817 -0.017784707 0.03148594 0.016019639 -0.043610025
0.027331641 -0.025024688 -0.044348 0.007652376 -0.033099778 -0.081484884 -0.048772186 -0.050450403
-0.07705166 -0.03790316 -0.0028759842 -0.064277425 0.03447441 0.0069100237 0.017038262 0.057251662
0.031850643 -0.0017805978 0.015030926 0.029697312 0.030033939 0.058100678 0.009945155 -0.014678445
-0.010560265 0.026159104 -0.006883006 0.0011249555 -0.024780538 -0.042339906 0.011862174 -0.0393018
0.05818666 -0.005511381 -0.0317052 -0.031982936 0.01872761 0.0071605286 -0.03621415 0.04251482
0.036709826 0.022533743 0.05382448 0.05602701 0.014358882 0.06952986 -0.031142745 0.03679841
0.0743522 0.05856222 -0.009426056 0.041034862 -0.025462914 0.030559264 0.026682954 -0.048176676
-0.020710157 -0.00024459598 0.015752956 -0.07357541 -0.039906908 0.030936921 -0.04951866 -0.032367982
-0.018219953 -0.004477705 0.028549725 -0.0061408067 0.014502821 -0.01775962 -0.052120708 -0.037433024
-0.016510947 -0.056811925 -0.035266384 0.011830456 0.0024065631 -0.03156385 -0.038865574 0.03304457
0.0044707865 0.003577243 -0.0421695 0.0152496835 0.018617013 -0.03789397 0.019118922 -0.0004868491
0.059578214 -0.016685832 0.07991613 0.05730835 -0.016412113 -0.01922723 0.013102762 -0.017070837
-0.062389594 -0.10003853 -0.0529443 -0.045110714 -0.032474153 -0.05265961 -0.059310056 -0.10874115
-0.05038377 -0.045461632 -0.080427505 0.009803817 -0.007114361 -0.05507056 -0.044882763 -0.053287394
-0.04875524 0.015882602 0.066907495 -0.0037265774 -0.022569116 0.036151234 0.01895446 -0.046068713
0.05821956 -0.029907575 -0.04565531 -0.019917602 -0.017683685 -0.020732226 -0.012534817 0.0052926145
-0.070855305 -0.06400845 -0.002388271 -0.015450669 -0.038444094 -0.05110792 0.005454904 -0.04221077
-0.059565827 -0.047946997 -0.0029548118 0.015629644 -0.027943108 -0.06135597 -0.067802005 -0.07997347
00000000: a2ae d1bc 9e49 debc 60dd 4ebd 32d2 19bd
00000010: e339 0dbd 3511 73bd d90b 88bd 0e65 5abb
00000020: 1287 fcbd db78 30bd fd98 3e3d 6396 ab3b
00000030: 745d b1bb 1f04 15bd 4ef3 fdbb 0380 b63b
00000040: e86a 60bb 84b0 893d 52a1 d1bc 1ce2 b0bc
00000050: be06 cabd 6d26 133c fb60 b9bb 28aa d2bc
00000060: 437c b2bd 9f1b bd3a 1554 37bd d2d6 103d
00000070: 047e 0dbd d3b1 8a3d 3e65 87bb 85c2 05bd
00000080: 1386 8b3b 89a8 abbc 612c 09bb d507 f1bc
00000090: b4d1 91bd 7b28 6fbd 8a2f 90bc d93c 60bc
000000a0: d162 6abd e743 febc 8846 babc d137 ba3b
000000b0: 348a 63bb dc7e d3bc 7fd6 7abc 724f 81bc
000000c0: 2cbf ba3c 667b c13c f6f6 683c 1e63 5ebc
000000d0: bc82 083d 93b4 893c 3b92 1c3c b24a 96bd
000000e0: 6767 30bc 41b4 bd3c 17ef 6fbd 1f6f 05bd
000000f0: 8c73 48bd b777 45bc 2c33 4dbd 5a05 0fbd
00000100: ef59 fcbc 6cf3 fdbc 89e6 fbbc 1d25 f33c
00000110: 76b0 11bd a71e 1bbc eca0 683d d466 263d
00000120: 9fd3 b23b a5cd 9a3d f06c 723d 262a 7b3d
00000130: a790 1a3d 1dc2 db3c 141e 52bd 460d 653d
00000140: 9fd6 3a3d f5f3 0b3d 312f 943c a48c 063d
00000150: 724d d23b 8e25 863d 24f6 1e3d 25c6 fc3c
00000160: 7fb1 183d d21d 733d fc04 48bc 4aac 2bbc
00000170: fe12 1b3d 90e7 873b ffa7 4dbc 9ca5 f83c
00000180: f018 0abd af76 d13b 214f f0bb 42fa 05bd
00000190: 84a6 f2bc f51e e13b 2cb6 5cbd 4c92 6fbd
000001a0: af9d 05bd e781 73bd d2a7 9cbd 0fbf 2fbd
000001b0: 3cb1 91bc 67f7 003d 9e3b 833c 6da0 32bd
000001c0: 9be6 df3c 9300 cdbc 40a6 35bd c8c0 fa3b
000001d0: a293 07bd 8ce1 a6bd 58c5 47bd 15a5 4ebd
000001e0: 43cd 9dbd 5840 1bbd 027b 3cbb e2a3 83bd
000001f0: 0a35 0d3d 7b6d e23b d393 8b3c b880 6a3d
00000200: d275 023d f362 e9ba 4644 763c c747 f33c
00000210: bc09 f63c fafa 6d3d 01f1 223c dc7d 70bc
00000220: f604 2dbc 9e4b d63c d78a e1bb 3e73 933a
00000230: 8e00 cbbc 9c6c 2dbd 9059 423c edfa 20bd
00000240: 2355 6e3d d198 b4bb 50dd 01bd 8a00 03bd
00000250: a56a 993c dea2 ea3b 4a55 14bd 0524 2e3d
00000260: 0b5d 163d af98 b83c 0f77 5c3d 947c 653d
00000270: 8441 6b3c ac65 8e3d 121f ffbc eeb9 163d
00000280: f745 983d f0de 6f3d bf6f 1abc 2c14 283d
00000290: 9a97 d0bc 6c57 fa3c 3696 da3c e854 45bd
000002a0: 59a8 a9bc 1e3d 80b9 580c 813c b4ae 96bd
000002b0: 6d75 23bd 6d6f fd3c 14d4 4abd 4a94 04bd
000002c0: 0342 95bc b6b9 92bb 1de1 e93c d238 c9bb
000002d0: 3d9d 6d3c 9f7c 91bc 867c 55bd 5f53 19bd
000002e0: f741 87bc 9fb3 68bd 7c73 10bd 87d4 413c
000002f0: 6eb7 1d3b 1849 01bd 8231 1fbd be59 073d
00000300: ad7f 923b 2e70 6a3b edb9 2cbd cfd9 793c
00000310: b582 983c b536 1bbd 499f 9c3c c83f ffb9
00000320: 4908 743d bab0 88bc 11ab a33d 29bc 6a3d
00000330: b272 86bc 6d82 9dbc f8ac 563c 24d8 8bbc
00000340: 3b8c 7fbd 00e1 ccbd 1fdc 58bd 03c6 38bd
00000350: 9e03 05bd 9ab1 57bd 1aef 72bd aeb3 debd
00000360: 365f 4ebd fa35 3abd 2db7 a4bd 30a0 203c
00000370: 961f e9bb ab91 61bd fdd6 37bd e243 5abd
00000380: 93b3 47bd 3b1c 823c cc06 893d 9839 74bb
00000390: dee2 b8bc 5113 143d 6246 9b3c 8cb2 3cbd
000003a0: a277 6e3d bb00 f5bc 1001 3bbd 3d2a a3bc
000003b0: 60dd 90bc a1d6 a9bc d55e 4dbc ab6d ad3b
000003c0: 961c 91bd dd16 83bd 8a84 1cbb ce24 7dbc
000003d0: 8e77 1dbd 8a56 51bd 0dbf b23b 33e5 2cbd
000003e0: 4cfb 73bd 1264 44bd 84a5 41bb bd09 803c
000003f0: f2e8 e4bc 6650 7bbd c7db 8abd 21c9 a3bd

conv3.0.bias f4 [64]
-0.13619247 -0.026602464 -0.063779645 -0.12079133 -0.014362507 -0.007678746 -0.0870328 -0.07984154
-0.019185094 -0.06628679 0.051768508 -0.09586239 -0.044741932 -0.0016871457 -0.0964413 -0.026441416
-0.0915389 -0.097947106 -0.05484304 -0.11109425 -0.091060795 -0.080620505 -0.07573478 -0.08436812
-0.017948125 -0.059851654 -0.16218896 -0.050567377 -0.17299068 -0.047370646 -0.15155615 -0.0529135
-0.051157475 -0.14240903 -0.09300248 -0.104417324 -0.0013663693 -0.040475957 -0.13523589 -0.112095885
-0.09071815 -0.0103678 -0.10911735 -0.057684004 -0.03392728 -0.071704604 -0.033739436 -0.0066514458
-0.0011764766 -0.07749122 -0.080495365 -0.06122133 -0.09288229 -0.028360521 -0.0135358 -0.09518578
-0.006028767 -0.039401695 -0.023878532 0.024377171 0.019169942 -0.07117931 -0.104316026 -0.10957781
00000000: 0a76 0bbe 69ed d9bc e79e 82bd 7261 f7bd
00000010: b850 6bbc fd9d fbbb 413e b2bd f683 a3bd
00000020: 0f2a 9dbc 5ec1 87bd 370b 543d 8053 c4bd
00000030: 5143 37bd 3723 ddba 0483 c5bd ab9b d8bc
00000040: bf78 bbbd 7e98 c8bd 18a3 60bd 6285 e3bd
00000050: 157e babd 5d1c a5bd d61a 9bbd 31c9 acbd
00000060: f207 93bc 0227 75bd dd14 26be bd1f 4fbd
00000070: 7824 31be b907 42bd 8931 1bbe d4bb 58bd
00000080: 808a 51bd acd3 11be 1678 bebd c0d8 d5bd
00000090: bf17 b3ba 1eca 25bd 477b 0abe 8792 e5bd
000000a0: 70ca b9bd b4dd 29bc eb78 dfbd 1046 6cbd
000000b0: 55f7 0abd ddd9 92bd 5d32 0abd 5ff4 d9bb
000000c0: 0134 9aba b7b3 9ebd c1da a4bd 38c3 7abd
000000d0: 1239 bebd 5354 e8bc 43c5 5dbc c3f0 c2bd
000000e0: f78c c5bb ac63 21bd e99c c3bc a2b2 c73c
000000f0: 480a 9d3c 75c6 91bd a4a3 d5bd 556a e0bd

conv3.4.weight f4 [64]
1.0535752 1.0446653 1.1603643 1.1618966 1.1713684 1.1609737 1.1873972 1.030099
0.9521697 1.1856713 1.173943 1.0006438 1.1580839 1.0281531 1.0500681 1.1369494
1.0167924 1.0547665 1.168104 1.1285934 1.0140659 1.2014247 1.1655931 1.1865953
1.0290161 1.0338199 1.024244 1.1999319 1.0502971 1.1390624 1.0097144 1.0132784
1.1050038 1.0550287 1.0177271 1.0322647 0.95851374 1.1824338 1.1710472 1.1556382
1.029847 0.9885607 1.0203832 1.1495577 1.0558237 1.1919581 1.1396242 1.0018157
1.1427569 1.2017273 1.0481638 1.181727 1.0055704 1.139388 1.2167289 1.0329816
1.0265906 1.1833969 1.1586595 0.9624645 1.1654203 1.1660124 1.0035889 1.1453942
00000000: 8ddb 863f 98b7 853f d186 943f 07b9 943f
00000010: 66ef 953f c99a 943f a2fc 973f 49da 833f
00000020: 65c1 733f 14c4 973f c443 963f 1915 803f
00000030: 183c 943f 859a 833f a268 863f 8f87 913f
00000040: 4126 823f 9702 873f 6f84 953f c075 903f
00000050: e9cc 813f 49c8 993f 2832 953f 5be2 973f
00000060: cdb6 833f 3654 843f 6d1a 833f 5e97 993f
00000070: 2370 863f cccc 913f 523e 813f 1bb3 813f
00000080: c470 8d3f 2e0b 873f e244 823f 4021 843f
00000090: 2861 753f fe59 973f e0e4 953f f4eb 933f
000000a0: 07d2 833f 5012 7d3f eb9b 823f b524 933f
000000b0: 3b25 873f 1592 983f 35df 913f 7f3b 803f
000000c0: dc45 923f 33d2 993f 3b2a 863f d542 973f
000000d0: 88b6 803f 77d7 913f c6bd 9b3f be38 843f
000000e0: 5267 833f 8d79 973f f44e 943f 1364 763f
000000f0: 7e2c 953f e53f 953f 9a75 803f 479c 923f

conv3.4.bias f4 [64]
0.006578012 0.014304956 -0.008639525 -0.020741088 -0.0084176585 -0.007089903 -0.011346917 0.009126098
-0.00036630154 -0.0015031723 -0.0026249231 0.0015463297 -0.03210633 -0.0046516536 0.01934963 -0.018096667
0.017327625 0.01850159 -0.0012087806 -0.030504066 0.003342217 -0.01743049 0.0034713892 -0.023369268
-0.02241322 0.0021101912 0.0013620348 -0.03168033 -0.010827212 -0.016829317 0.009580859 0.0027180023
0.0030560463 0.013718537 0.002477935 0.023579001 -0.023480676 -0.011036707 -0.017373249 -0.021126391
0.007353873 0.030073589 0.03682798 -0.013551195 0.02123182 -0.018408118 -0.014849678 0.016531507
-0.034429863 -0.0053953803 0.013318011 0.00021733885 0.0013751161 -0.010451784 -0.013038628 0.0039669815
0.023095855 -0.00020674881 -0.008491253 -0.0032223174 -0.0005660261 -0.002013411 0.03096627 0.003599031
00000000: 5d8c d73b 565f 6a3c cb8c 0dbc 37e9 a9bc
00000010: 38ea 09bc 6b52 e8bb 6be8 39bc a185 153c
00000020: 290c c0b9 1806 c5ba e706 2cbb 37ae ca3a
00000030: ed81 03bd e66c 98bb 1e83 9e3c 763f 94bc
00000040: aaf2 8d3c a590 973c f26f 9eba aae3 f9bc
00000050: 1909 5b3b 63ca 8ebc 3f80 633b e870 bfbc
00000060: ee9b b7bc 224b 0a3b 4e86 b23a 3cc3 01bd
00000070: 9e64 31bc a3dd 89bc 09f9 1c3c 8320 323b
00000080: f347 483b b7c3 603c da64 223b c028 c13c
00000090: 8c5a c0bc 4ed3 34bc 5852 8ebc 4111 adbc
000000a0: c2f8 f03b e35c f63c f0d8 163d d505 5ebc
000000b0: 5bee ad3c 9fcc 96bc 104c 73bc 156d 873c
000000c0: 5406 0dbd bbcb b0bb c933 5a3c 74e5 6339
000000d0: 3d3d b43a f63d 2bbc f89f 55bc 74fd 813b
000000e0: 8533 bd3c b6ca 58b9 e51e 0bbc 842d 53bb
000000f0: 5e61 14ba 6ef3 03bb faac fd3c b8dd 6b3b

conv3.4.running_mean f4 [64]
0.20279518 0.18620245 0.31625545 0.22615579 0.32474932 0.28012916 0.34181178 0.41854718
0.45348874 0.32007343 0.322957 0.65334404 0.3363622 0.28621918 0.32977915 0.33312115
0.29382583 0.13673864 0.25907114 0.2922974 0.20243107 0.26379976 0.3639173 0.3119868
0.28956777 0.22940779 0.24104217 0.30125013 0.20301938 0.3412017 0.2145046 0.6342034
0.443554 0.24828447 0.117608815 0.28693473 0.65067536 0.26894695 0.2624445 0.34591365
0.27434793 0.72206277 0.17407851 0.30323577 0.2856887 0.3586276 0.29918018 0.51776046
0.35185426 0.30252463 0.30764875 0.3734469 0.5018529 0.43075234 0.32274002 0.27237493
0.43629825 0.26490933 0.26915157 0.9396413 0.3221073 0.30284837 0.26980013 0.31569523
00000000: 8aa9 4f3e dbab 3e3e 3cec a13e 6295 673e
00000010: 8b45 a63e 176d 8f3e f401 af3e d14b d63e
00000020: ad2f e83e aae0 a33e 9f5a a53e 8e41 273f
00000030: ab37 ac3e 528b 923e d0d8 a83e db8e aa3e
00000040: 5770 963e 3705 0c3e f9a4 843e 01a8 953e
00000050: 174a 4f3e c310 873e 5e53 ba3e bcbc 9f3e
00000060: 3a42 943e e0e9 6a3e c2d3 763e 753d 9a3e
00000070: 50e4 4f3e fdb1 ae3e 18a7 5b3e 275b 223f
00000080: 8319 e33e 493e 7e3e e4dc f03d 1ce9 923e
00000090: a992 263f 6ab3 893e 205f 863e 981b b13e
000000a0: 5577 8c3e 1bd9 383f a341 323e b841 9b3e
000000b0: ca45 923e 099e b73e 252e 993e f38b 043f
000000c0: 3e26 b43e 82e4 9a3e 2384 9d3e 6f34 bf3e
000000d0: 6f79 003f 928b dc3e 2e3e a53e ba74 8b3e
000000e0: 7c62 df3e 32a2 873e 3cce 893e 558c 703f
000000f0: 3feb a43e f10e 9b3e 3e23 8a3e cea2 a13e

conv3.4.running_var f4 [64]
0.30039185 0.30490002 1.5208417 0.81848747 1.423953 1.1089838 1.2924019 0.9257402
1.4258032 1.2167505 1.33096 2.8234322 1.6222942 0.49371368 0.7006613 1.4412211
0.5375066 0.19236802 0.98646134 1.1690658 0.31529814 1.1554868 1.4535453 1.5409809
0.5051506 0.38958532 0.7206743 1.1297712 0.41157976 1.4110423 0.37504813 1.4752313
1.7550129 0.4216397 0.13427883 0.59060746 1.827912 1.1385779 1.1572161 1.5524938
0.44871518 3.0158868 0.26718506 1.186868 0.5472659 1.3488657 1.1697053 2.0133164
1.6222616 1.0592378 0.6739116 1.8734194 1.6097941 2.0477138 1.4097599 0.46622118
0.92605513 0.98070693 0.9955371 5.3500214 1.3999048 1.2782947 0.5118807 1.2192739
00000000: f6cc 993e db1b 9c3e f1aa c23f 6588 513f
00000010: 1844 b63f 2ef3 8d3f 6d6d a53f 4ffd 6c3f
00000020: b880 b63f 7bbe 9b3f e65c aa3f 1db3 3440
00000030: 56a7 cf3f 0ac8 fc3e 8a5e 333f ef79 b83f
00000040: 089a 093f 1ffc 443e bb88 7c3f f3a3 953f
00000050: c26e a13e fee6 933f c60d ba3f dd3e c53f
00000060: 8d51 013f ba77 c73e 1c7e 383f 589c 903f
00000070: 95ba d23e 099d b43f 4f06 c03e 61d4 bc3f
00000080: 43a4 e03f 29e1 d73e 6480 093e 0d32 173f
00000090: 05f9 e93f ecbc 913f a81f 943f 1eb8 c63f
000000a0: ffbd e53e 4a04 4140 7bcc 883e 4aeb 973f
000000b0: 9e19 0c3f a2a7 ac3f e7b8 953f 2dda 0040
000000c0: 45a6 cf3f 1b95 873f 7885 2c3f 35cc ef3f
000000d0: bc0d ce3f be0d 0340 0373 b43f 8bb4 ee3e
000000e0: f311 6d3f 9c0f 7b3f 85db 7e3f 6033 ab40
000000f0: 1530 b33f 299f a33f 9d0a 033f 2b11 9c3f

fc.0.weight f4 [32, 64]
0.13816011 0.15694742 -0.012782767 -0.07109396 -0.24324743 -0.018781774 -0.09175792 -0.005209519
0.053959165 -0.10778555 -0.17527962 -0.118307404 -0.15101868 0.06415472 0.11339423 -0.19499578
0.016770083 0.053787794 -0.16519871 -0.13012815 -0.06357097 -0.056851376 -0.07171684 -0.25008282
0.08838331 -0.01245765 -0.03766376 -0.13816813 0.12450103 -0.082453206 -0.0017738189 0.13549173
-0.0007158427 0.04581479 0.06828623 0.13220702 0.061681584 -0.18082888 -0.06284968 -0.20007282
0.06864477 0.04317441 0.012804771 -0.11393739 0.12962851 -0.23823926 -0.1725381 0.0033669537
-0.019696634 -0.15291573 0.03009864 -0.170549 0.07673974 -0.18549417 -0.10912082 0.11317475
0.063638695 -0.04989756 -0.19072145 -0.042595696 -0.09005858 -0.060025293 -0.007152491 -0.15118018
-0.02650798 -0.006981284 -0.1134268 -0.17843372 -0.08578628 -0.02288672 -0.15032317 0.07766177
-0.08775172 -0.16894577 0.021947112 -0.04218204 -0.106902465 0.10004482 0.1602268 -0.11437066
0.12285013 0.06816272 -0.10354755 -0.011542241 -0.018286234 -0.20626087 -0.20359048 -0.19714683
-0.0036925143 0.11983454 0.03347987 -0.16524208 0.1421135 -0.17187117 0.020974508 -0.04011877
-0.052895617 0.17041068 0.12275558 0.14723451 0.051120955 -0.10068299 -0.15953301 -0.20344561
-0.041108184 0.032071352 0.09615897 -0.011330009 -0.010026669 -0.13349938 0.008326029 0.12105403
-0.20826106 -0.101944625 -0.056116886 -0.066347934 0.094010934 -0.07936964 -0.078421995 0.16103087
0.13033041 -0.10645253 -0.099001884 -0.011862618 -0.16252165 -0.047262862 0.038152833 -0.10316759
0.028617684 0.06854293 -0.13943481 -0.1382184 -0.18868993 -0.072980344 -0.20203032 0.046005424
0.042179026 -0.044366684 -0.12290247 0.0941713 -0.1498901 0.0827333 0.09465283 -0.13085675
0.04403247 0.0923799 -0.0058328114 -0.18312462 0.036814902 -0.14758083 -0.18332532 -0.1700852
-0.03987905 -0.006377374 0.12690063 -0.14503613 0.12320973 -0.032029267 0.13329175 -0.08302945
-0.10555975 0.07163489 -0.046028815 0.108852275 -0.07856583 -0.16607594 -0.063298315 -0.17714506
0.035091605 -0.048042774 0.10809084 -0.11527167 0.035462137 -0.20823112 -0.018060943 -0.07759378
0.010414357 -0.038181815 0.08860678 -0.15207806 0.11589723 -0.18028724 -0.11720986 0.15631841
0.05264735 -0.21649688 -0.23499571 0.08104909 -0.1580537 -0.11982008 0.0105190575 -0.1500063
-0.13410933 -0.087425195 0.032831304 0.06329576 0.19644165 0.19528434 0.15899268 -0.09065285
0.033262234 0.20641902 0.099166304 -0.10597808 0.1519017 -0.0723245 -0.14027138 0.10422829
-0.12166122 0.01879861 0.040728547 0.13820927 -0.0809259 0.20945905 0.08083736 0.13838653
0.040684476 0.058297124 -0.027046995 0.010607377 0.012634016 0.2031668 0.019532055 -0.11965466
0.14602496 -0.0403933 -0.14408195 -0.076670505 -0.07115959 0.08676716 0.07708573 0.06655877
0.05846431 -0.13065132 -0.007824193 0.16310294 -0.07653862 0.21607687 0.03448885 -0.050362974
0.020839805 0.06328376 -0.059616864 0.07489342 -0.02371175 0.18446702 0.18586877 -0.08726144
-0.1358807 0.10525381 0.024939436 -0.029207628 0.014295009 0.20986244 -0.04573775 0.09109825
00000000: d879 0d3e d3b6 203e d06e 51bc b699 91bd
00000010: db15 79be 3cdc 99bc 94eb bbbd 9db4 aabb
00000020: 4904 5d3d acbe dcbd 807c 33be 274b f2bd
00000030: a4a4 1abe 8d63 833d 3c3b e83d f9ac 47be
00000040: 6a61 893c 9750 5c3d da29 29be 5040 05be
00000050: 7f31 82bd fddc 68bd 47e0 92bd db0a 80be
00000060: 4f02 b53d 2c1b 4cbc 5145 1abd f27b 0dbe
00000070: 65fa fe3d 3add a8bd 7c7f e8ba 58be 0a3e
00000080: 64a7 3bba 4aa8 3b3d a7d9 8b3d 4761 073e
00000090: d4a5 7c3d 352b 39be 55b7 80bd e4df 4cbe
000000a0: a195 8c3d a6d7 303d 1acb 513c 0258 e9bd
000000b0: 56bd 043e fef4 73be d4ad 30be 1ca8 5c3b
000000c0: d65a a1bc f195 1cbe 6c91 f63c 66a4 2ebe
000000d0: ba29 9d3d 2ff2 3dbe bd7a dfbd 2ac8 e73d
000000e0: 0155 823d 6261 4cbd 7c4c 43be d378 2ebd
000000f0: a270 b8bd 15dd 75bd 715f eabb face 1abe
00000100: 4327 d9bc 41c3 e4bb 4f4c e8bd 54b7 36be
00000110: b8b0 afbd ee7c bbbc 51ee 19be 220d 9f3d
00000120: 2cb7 b3bd 1f00 2dbe 6eca b33c 13c7 2cbd
00000130: aeef dabd 4ce4 cc3d 7f12 243e 2a3b eabd
00000140: d998 fb3d e598 8b3d bd10 d4bd ab1b 3dbc
00000150: 03cd 95bc 0d36 53be 067a 50be dce0 49be
00000160: 1cfe 71bb d06b f53d 3022 093d 3835 29be
00000170: 3486 113e fffe 2fbe bbd2 ab3c 9453 24bd
00000180: 13a9 58bd 2380 2e3e 4767 fb3d a5c4 163e
00000190: 3564 513d e232 cebd 9f5c 23be 0c54 50be
000001a0: 0e61 28bd 405d 033d feee c43d 81a1 39bc
000001b0: e646 24bc 10b4 08be e669 083c 2deb f73d
000001c0: 6342 55be 58c8 d0bd d2da 65bd 6de1 87bd
000001d0: ce88 c03d 8d8c a2bd b69b a0bd 47e5 243e
000001e0: 5675 053e c903 dabd 80c1 cabd 6d5b 42bc
000001f0: 136c 26be b496 41bd 2546 1c3d 8849 d3bd
00000200: a26f ea3c 3c60 8c3d 00c8 0ebe 2089 0dbe
00000210: ef37 41be b876 95bd 09e1 4ebe 2f70 3c3d
00000220: eac3 2c3d d7b9 35bd 4ab4 fbbd e2dc c03d
00000230: ca7c 19be 1470 a93d 58d9 c13d 50ff 05be
00000240: 645b 343d ac31 bd3d 2b21 bfbb 0585 3bbe
00000250: 39cb 163d 6e1f 17be a2b9 3bbe d12a 2ebe
00000260: 3758 23bd 4af9 d0bb 3df2 013e 5a84 14be
00000270: 6255 fc3d 1f31 03bd a27d 083e 580b aabd
00000280: b62f d8bd 50b5 923d b688 3cbd f1ed de3d
00000290: 1fe7 a0bd d00f 2abe 8ca2 81bd 8465 35be
000002a0: 37bc 0f3d 80c8 44bd bb5e dd3d 8e13 ecbd
000002b0: bf40 113d 8a3a 55be 8bf4 93bc 7de9 9ebd
000002c0: fba0 2a3c 8964 1cbd 7977 b53d 5aba 1bbe
000002d0: 875b ed3d 389d 38be b90b f0bd ef11 203e
000002e0: bfa4 573d 5cb1 5dbe b7a2 70be 11fd a53d
000002f0: d4d8 21be 3b64 f5bd 2058 2c3c 409b 19be
00000300: f553 09be fb0b b3bd 1e7a 063d 35a1 813d
00000310: 0028 493e 9ef8 473e face 223e 34a8 b9bd
00000320: fb3d 083d 825f 533e b417 cb3d 090b d9bd
00000330: 1f8c 1b3e de1e 94bd 4da3 0fbe a475 d53d
00000340: 8529 f9bd 8bff 993c fad2 263d bb86 0d3e
00000350: 7abc a5bd 6f7c 563e 0f8e a53d 33b5 0d3e
00000360: c4a4 263d f7c8 6e3d a991 ddbc 90ca 2d3c
00000370: e7fe 4e3c f50a 503e b001 a03c 810d f5bd
00000380: 9187 153e 7273 25bd 388a 13be 6d05 9dbd
00000390: 1ebc 91bd fbb2 b13d 20df 9d3d f74f 883d
000003a0: 4678 6f3d 76c9 05be 0b31 00bc 7504 273e
000003b0: 48c0 9cbd 4143 5d3e 2e44 0d3d 6849 4ebd
000003c0: 3db8 aa3c ea9a 813d d030 74bd b961 993d
000003d0: 253f c2bc ece4 3c3e 6254 3e3e 20b6 b2bd
000003e0: 4f24 0bbe 4f8f d73d ca4d cc3c d644 efbc
000003f0: 9d35 6a3c 2ee6 563e 8257 3bbd b891 ba3d

fc.0.bias f4 [32]
-0.060951423 -0.076624714 -0.07926556 0.05335532 -0.02446286 -0.09411769 0.061442174 -0.047357515
-0.08610088 -0.047198113 -0.050920777 -0.017164754 0.084298134 -0.027025959 -0.05449001 0.040818334
0.059041504 -0.0911502 -0.026919127 0.014865682 -0.0067561767 0.112336375 0.03918615 -0.10714834
0.00080175267 0.11322949 0.085765034 0.07287229 0.09187534 0.102547094 -0.009915519 0.015991254
00000000: 33a8 79bd 6bed 9cbd fb55 a2bd 1c8b 5a3d
00000010: 5666 c8bc c7c0 c0bd caaa 7b3d f4f9 41bd
00000020: a855 b0bd cf52 41bd 4e92 50bd 199d 8cbc
00000030: 80a4 ac3d 8b65 ddbc eb30 5fbd 2031 273d
00000040: 81d5 713d f5ac babd 8085 dcbc 318f 733c
00000050: eb62 ddbb 9d10 e63d a881 203d 9770 dbbd
00000060: b62c 523a dde4 e73d 94a5 af3d 113e 953d
00000070: 2329 bc3d 3604 d23d b374 22bc 1700 833c

fc.3.weight f4 [1, 32]
-0.098624885 -0.15255031 -0.18375078 0.34087673 0.28881186 -0.1321447 0.131177 0.31761262
-0.13950558 -0.17391881 0.3027165 -0.12712228 -0.2145529 -0.061580762 -0.083177604 -0.10304906
-0.115918964 0.24314255 -0.22392987 -0.13704447 0.1975538 0.2868909 0.28034493 0.32764673
-0.17559879 -0.2058395 0.20315027 -0.16533208 0.2724246 -0.11843855 -0.19687834 -0.15211737
00000000: d8fb c9bd 2636 1cbe 2a29 3cbe 6587 ae3e
00000010: 26df 933e f150 07be 4353 063e 1f9e a23e
00000020: 8dda 0ebe c617 32be a8fd 9a3e 582c 02be
00000030: c1b3 5bbe 1c3c 7cbd 0559 aabd 630b d3bd
00000040: ec66 edbd 5cfa 783e df4d 65be 6355 0cbe
00000050: 8b4b 4a3e 5de3 923e 5f89 8f3e 50c1 a73e
00000060: 2bd0 33be 97c7 52be a006 503e d04c 29be
00000070: 3d7b 8b3e e98f f2bd 7a9a 49be a8c4 1bbe
