5 第五讲 机器学习训练模型的数学范式v16/models/model185.pth (torch, 112459 bytes, 21 tensors)

conv1.0.weight f4 [16, 3, 3, 3]
-0.022565888 -0.12508689 0.13955942 -0.058910463 -0.13377067 -0.17626454 0.03779797 -0.15908566
0.09360432 0.07076477 0.18966198 -0.13851503 0.035755802 0.044776227 0.023769923 0.11031661
0.010527052 -0.06156579 0.16029204 -0.10662335 -0.14883026 0.12289574 -0.029760545 0.1603095
-0.1044427 0.17380092 0.04976672 -0.07479653 0.11927899 -0.061225623 -0.024973797 -0.08140715
0.09784672 0.045149565 0.14363708 -0.073212884 0.009658311 -0.018039685 0.17767124 -0.17523794
-0.060734306 0.18826288 0.055696126 -0.041485973 0.11474843 0.025052035 -0.074054144 -0.14107656
-0.20364429 0.10036796 -0.0013205187 0.06378674 -0.15859844 0.18763697 0.09032717 -0.008815716
-0.103338875 -0.0036904525 -0.12535912 -0.17584848 -0.05230915 0.120934136 -0.17102073 0.16710435
0.09193274 -0.17029558 0.18288553 0.057933345 -0.049541112 0.037073176 0.048183035 0.12007993
0.18424594 0.025080573 -0.06320783 0.014380372 0.033331398 -0.10161311 -0.08451814 -0.20412846
0.16651757 -0.07532893 -0.0049919747 -0.15234216 0.012318005 0.1862715 -0.15646869 0.12813833
0.2072722 -0.18522833 -0.045884624 0.008940934 -0.015842838 -0.0038443108 0.16514918 0.119970776
0.033063956 0.06637654 -0.12501143 -0.14189665 -0.09051016 0.13781391 0.1728125 0.16331342
0.004783179 0.10995451 -0.058363624 -0.06274075 -0.20542148 0.059333194 -0.09328001 0.15863481
0.025165869 0.12831421 -0.043891568 0.054003723 -0.14462848 -0.2218806 -0.12260756 0.20456494
0.06235408 0.09875263 0.20797074 0.07585069 0.07507712 -0.051081274 -0.13657816 0.1031471
0.1718166 -0.17187841 0.061374802 -0.03190456 0.16680503 -0.036812063 -0.030958416 -0.05485203
-0.05963094 0.15261792 -0.10756326 0.04937193 0.0063856565 0.12476977 0.09159446 -0.14081025
-0.014280736 0.009276661 -0.024454616 0.15848513 0.20828244 -0.12361169 -0.05417593 0.2076196
0.0642612 -0.09873822 0.09637574 -0.05151441 -0.105173126 -0.20290671 0.1072435 -0.076090634
-0.15118393 -0.1551549 -0.015848752 0.13101172 0.105364494 0.13234307 -0.08686491 -0.16428196
-0.035659373 -0.102096535 0.05839389 0.13879412 -0.062425908 -0.20513472 0.1609814 0.042359453
-0.14353216 -0.061413188 -0.053867895 -0.14012353 0.19125341 0.07011644 -0.11375425 -0.10088019
-0.08669185 -0.18579689 -0.005634759 -0.06067275 -0.10227098 0.011423086 -0.0942618 0.10999434
0.08914269 -0.07070785 -0.08872988 -0.20717444 -0.029698294 -0.16772392 0.1843287 0.12015264
0.019005802 -0.013346505 -0.0024195365 0.19972949 -0.024584042 0.035558492 0.119318165 0.068799615
-0.0109289875 0.13491541 -0.16215092 0.021025866 -0.20594111 0.07780254 0.101417795 -0.06801996
-0.1461705 -0.14427951 -0.061842043 -0.14062504 -0.03821378 -0.06731924 -0.11023484 0.09070386
-0.13530852 0.07969785 -0.2398684 -0.11755658 0.18174294 -0.118943416 -0.056907278 0.09385533
0.07859557 -0.09436071 0.067490965 -0.2781153 -0.3352602 -0.05399305 0.19180168 0.10967283
0.15164351 0.059030686 0.019197391 0.19683959 0.08912537 0.051080447 -0.1368364 -0.12394619
0.1299275 0.21269827 0.056838855 0.07380789 -0.145887 -0.06778796 -0.05613147 -0.091104425
00000000: 19dc b8bc c716 00be aae8 0e3e 194c 71bd
00000010: 2efb 08be b17e 34be 0bd2 1a3d 5ae7 22be
00000020: 9fb3 bf3d 1fed 903d c036 423e e2d6 0dbe
00000030: ad74 123d 4767 373d 24b9 c23c aded e13d
00000040: a879 2c3c 692c 7cbd 9923 243e 585d dabd
00000050: f666 18be c3b0 fb3d 63cc f3bc 2c28 243e
00000060: 0ee6 d5bd def8 313e 30d8 4b3d ec2e 99bd
00000070: 8b48 f43d b8c7 7abd d995 ccbc cbb8 a6bd
00000080: dc63 c83d c0ee 383d 9915 133e a3f0 95bd
00000090: e43d 1e3c f6c7 93bc 73ef 353e 9371 33be
000000a0: 89c4 78bd fcc7 403e 9f21 643d 32ed 29bd
000000b0: 3a01 eb3d ed39 cd3c b3a9 97bd 6076 10be
000000c0: 2188 50be b88d cd3d 4115 adba 9fa2 823d
000000d0: a167 22be e823 403e 74fd b83d cb6f 10bc
000000e0: 55a3 d3bd 85db 71bb 245e 00be a011 34be
000000f0: 1f42 56bd 51ac f73d 0f20 2fbe 671d 2b3e
00000100: 3b47 bc3d f761 2ebe 5846 3b3e 844b 6d3d
00000110: 9feb 4abd 0bda 173d 935b 453d 77ec f53d
00000120: f8aa 3c3e c675 cd3c 1b73 81bd a79b 6b3c
00000130: 8186 083d 891a d0bd d917 adbd 0d07 51be
00000140: 9583 2a3e 0e46 9abd b893 a3bb 95ff 1bbe
00000150: 75d1 493c f5bd 3e3e 5439 20be b236 033e
00000160: 2a3f 543e 7fac 3dbe 84f1 3bbd ff7c 123c
00000170: d7c8 81bc d5f0 7bbb de1c 293e 3db3 f53d
00000180: 126e 073d 6cf0 873d ff02 00be 5b4d 11be
00000190: 645d b9bd 171f 0d3e c3f5 303e a23b 273e
000001a0: 37bc 9c3b d52f e13d b20e 6fbd 397e 80bd
000001b0: 025a 52be 5d07 733d 9709 bfbd 2a71 223e
000001c0: a728 ce3c cd64 033e a5c7 33bd 0233 5d3d
000001d0: 7d19 14be ab34 63be ac19 fbbd 7979 513e
000001e0: fe66 7f3d d23e ca3d 48f6 543e 9b57 9b3d
000001f0: 08c2 993d 993a 51bd 25db 0bbe c93e d33d
00000200: b1f0 2f3e e500 30be 2564 7b3d 5bae 02bd
00000210: f0ce 2a3e 3fc8 16bd 819c fdbc 86ac 60bd
00000220: 933f 74bd df47 1c3e 204a dcbd 393a 4a3d
00000230: c53e d13b 4b87 ff3d e095 bb3d 9030 10be
00000240: c0f9 69bc 23fd 173c 0c55 c8bc ed49 223e
00000250: fe47 553e 2028 fdbd 94e7 5dbd 3c9a 543e
00000260: 609b 833d 4437 cabd a560 c53d c600 53bd
00000270: 0265 d7bd c7c6 4fbe 7ba2 db3d 68d5 9bbd
00000280: f6cf 1abe ede0 1ebe 3ed5 81bc f027 063e
00000290: 57c9 d73d f184 073e 3be6 b1bd 8839 28be
000002a0: 900f 12bd fd17 d1bd 6e2e 6f3d 0c20 0e3e
000002b0: 4fb2 7fbd d60e 52be 4fd8 243e 1b81 2d3d
000002c0: 18fa 12be 658c 7bbd 95a4 5cbd 8b7c 0fbe
000002d0: efd7 433e 3599 8f3d fdf7 e8bd 469a cebd
000002e0: 7f8b b1bd 8a41 3ebe c9a3 b8bb fd83 78bd
000002f0: 7373 d1bd e527 3b3c 550c c1bd b644 e13d
00000300: 7190 b63d 47cf 90bd 03b8 b5bd 8925 54be
00000310: d649 f3bc d2bf 2bbe aac0 3c3e 9612 f63d
00000320: 0eb2 9b3c 4dab 5abc 1691 1ebb e385 4c3e
00000330: 7964 c9bc c8a5 113d 155d f43d d0e6 8c3d
00000340: 7f0f 33bc 4427 0a3e e40a 26be 703e ac3c
00000350: 3ae2 52be f056 9f3d 22b4 cf3d 0c4e 8bbd
00000360: b8ad 15be 02be 13be 154e 7dbd 0300 10be
00000370: 0d86 1cbd abde 89bd cec2 e1bd f2c2 b93d
00000380: 518e 0abe a038 a33d 10a0 75be 81c1 f0bd
00000390: d21a 3a3e 9b98 f3bd 9b17 69bd 3937 c03d
000003a0: b7f6 a03d 3040 c1bd b438 8a3d 2165 8ebe
000003b0: 3aa7 abbe d127 5dbd a967 443e 269c e03d
000003c0: 7048 1b3e 29ca 713d d943 9d3c 5190 493e
000003d0: 5d87 b63d bb39 513d d71e 0cbe 80d7 fdbd
000003e0: b70b 053e 93cd 593e dccf 683d 9728 973d
000003f0: 6763 15be 6ad4 8abd 1dea 65bd f594 babd

conv1.0.bias f4 [16]
0.07931211 0.06329145 0.052040547 0.08298915 -0.20457923 -0.0008155879 0.1163512 0.029328542
-0.20380373 0.01123096 0.2666784 -0.10689812 0.15994598 -0.17220116 0.016735774 0.23301452
00000000: 636e a23d f39e 813d 7828 553d 37f6 a93d
00000010: 387d 51be 2dcd 55ba 8a49 ee3d 6942 f03c
00000020: edb1 50be 0f02 383c 128a 883e 67ed dabd
00000030: e1c8 233e 8055 30be 7619 893c 5c9b 6e3e

conv1.3.weight f4 [16]
0.9323619 0.97703636 1.0255799 0.88408303 1.0099539 1.0166546 0.9944239 0.8906809
0.95264643 1.0418826 0.9108378 1.180183 0.8821163 1.0194747 0.9204545 0.9563228
00000000: 45af 6e3f 0e1f 7a3f 3446 833f 4453 623f
00000010: 2b46 813f bd21 823f 9192 7e3f aa03 643f
00000020: a3e0 733f 695c 853f ab2c 693f 3d10 973f
00000030: 60d2 613f 267e 823f e8a2 6b3f 92d1 743f

conv1.3.bias f4 [16]
-0.0046065394 0.18972528 -0.014179113 0.010041829 0.22090448 -0.020728681 0.07661475 0.086171135
0.27156898 0.0478552 -0.17180666 0.07822774 0.039060656 0.11996596 0.04517725 -0.13455664
00000000: 74f2 96bb 5847 423e 834f 68bc 7c86 243c
00000010: c934 623e 32cf a9bc 32e8 9c3d 7e7a b03d
00000020: 170b 8b3e d003 443d 16ee 2fbe de35 a03d
00000030: 11fe 1f3d b7b0 f53d c80b 393d 37c9 09be

conv1.3.running_mean f4 [16]
0.12425198 0.13682641 0.054311417 0.2571077 0.023071552 0.011649083 0.01864084 0.0747375
1.8890345e-05 0.03572642 0.528789 0.00915422 0.195099 0.013905275 0.07357752 0.20494334
00000000: d277 fe3d 391c 0c3e a675 5e3d 9fa3 833e
00000010: 8d00 bd3c ccdb 3e3c adb4 983c f90f 993d
00000020: b576 9e37 de55 123d b75e 073f 95fb 153c
00000030: 08c8 473e f3d2 633c d0af 963d abdc 513e

conv1.3.running_var f4 [16]
0.0035047247 0.0029200749 0.002293599 0.012886594 0.0020730693 0.000810564 0.001727952 0.0025915257
2.1334904e-06 0.0024808396 0.038443815 0.0011870306 0.0015902459 0.0010444578 0.005367695 0.0015241274
00000000: 86af 653b ba5e 3f3b 3550 163b 4b22 533c
00000010: 55dc 073b 077c 543a 737c e23a 96d6 293b
00000020: 162d 0f36 9595 223b 4377 1d3d 2396 9b3a
00000030: cc6f d03a 30e6 883a 7de3 af3b 3bc5 c73a

conv2.0.weight f4 [32, 16, 3, 3]
0.016382698 -0.016771933 -0.012451194 0.02064295 0.07253831 0.023841638 0.08096923 -0.010841148
-0.0025429178 -0.060415898 -0.0894114 -0.050209545 -0.047949746 0.02247437 -0.046641123 -0.05389182
-0.05961299 0.026964003 0.12720382 -0.0010529788 -0.09391187 0.10233684 0.07757874 -0.0481176
-0.021912165 -0.03841876 -0.04608469 0.10047011 0.057191674 -0.053125393 0.006389412 0.0662281
-0.023469584 0.04193885 0.016687464 0.044374336 0.018245092 0.02711458 -0.03675815 -0.109457485
-0.020290464 -0.004004993 -0.06665947 -0.06793655 -0.008950403 0.01378159 0.06973755 0.087358594
-0.04556873 0.062262494 0.039515767 0.08740449 0.095397785 0.06596542 0.06444713 0.024987066
-0.01690705 -0.02794685 0.054370802 0.012259427 0.045330517 0.03704202 0.087060496 0.054849874
-0.08217261 -0.058744863 0.06100703 0.057747535 -0.04904483 0.03639997 -0.082519256 -0.061225515
-0.082114875 -0.20778383 -0.12585513 -0.20007479 -0.23878781 -0.19405358 -0.17371567 -0.12674901
-0.22101425 -0.11520584 -0.034821726 0.087857656 -0.054944422 0.02001081 0.08734184 -0.091762304
-0.085928604 0.103421114 0.11107722 0.0007958634 -0.0076606884 -0.023220249 0.044829622 -0.018338982
0.11542388 0.0616537 0.03541857 0.028305754 0.020522412 0.01733155 -0.09902254 -0.07684087
-0.14296785 -0.08718076 0.039062552 0.010505094 0.07135612 -0.015126162 0.035704773 0.043723308
-0.010112532 0.011153246 -0.04407548 -0.010285292 -0.07124009 0.047901757 -0.09215302 -0.14731659
-0.041351713 -0.07025523 -0.033359908 -0.15953356 -0.06553661 0.030666113 0.02216075 -0.04112693
-0.0055894125 -0.0350328 -0.044139814 -0.03008 -0.031995308 0.04227207 0.05329444 -0.05714747
-0.007794709 0.008499928 -0.0039616334 -0.071794406 -0.048601728 0.05430305 0.05457383 -0.009147833
0.035650056 -0.005500137 0.047354005 0.097513184 0.033565048 -0.030960504 0.045266062 0.07033536
0.09366702 -0.017348208 0.01650747 -0.04652045 -0.06424868 0.013876879 -0.12677398 0.034839872
-0.014222656 -0.022545487 0.038497947 0.10982996 0.08575482 0.1268486 -0.04446767 0.04806553
0.13095619 0.013378761 0.098441906 0.09234811 0.021113917 -0.012162599 0.026700737 -0.0070304153
0.07847147 0.07723015 -0.006284746 0.095762216 0.06848858 0.06588523 -0.03152263 0.08970742
0.0584139 0.03617532 0.09441323 0.0017499314 0.066502415 0.02028142 -0.061455384 0.011052358
-0.0566338 -0.15166296 -0.10253809 0.033769 -0.057757154 -0.08394385 -0.0071970583 -0.027580403
0.058822732 0.1293308 0.032109383 0.057671808 0.054800972 -0.058060586 0.06718885 -0.04484485
0.06881294 0.04769344 -0.035704315 -0.06489611 -0.06653951 0.017440066 -0.094197676 -0.003185447
-0.00013148107 -0.058513667 0.09340343 -0.11909348 -0.008793716 -0.030771742 -0.052528583 -0.102152705
-0.052286953 0.022171034 -0.08676403 -0.05758575 0.03228092 -0.0031705708 -0.08024246 0.07873351
-0.021304198 -0.018284442 0.042376604 -0.02363984 0.10093522 0.121160075 0.12865861 0.008736912
0.032263253 0.14534168 0.0808456 0.017865447 0.004774936 0.08405732 -0.06471306 -0.061374415
-0.02313865 0.027008945 -0.032280345 0.04273807 0.090056285 0.068926945 0.071100034 0.08683372
00000000: 0235 863c 4b65 89bc 1800 4cbc 671b a93c
00000010: f78e 943d 8a4f c33c 32d3 a53d 129f 31bc
00000020: 15a7 26bb a976 77bd 531d b7bd 86a8 4dbd
00000030: f466 44bd 2c1c b83c c30a 3fbd abbd 5cbd
00000040: c02c 74bd 9de3 dc3c b841 023e 1b04 8aba
00000050: de54 c0bd fa95 d13d 9ae1 9e3d f616 45bd
00000060: 2481 b3bc fd5c 1dbd 4dc3 3cbd 46c3 cd3d
00000070: d141 6a3d 039a 59bd 465e d13b 99a2 873d
00000080: 4943 c0bc 12c8 2b3d 26b4 883c ddc1 353d
00000090: bb76 953c 651f de3c b78f 16bd 3f2b e0bd
000000a0: 3038 a6bc 513c 83bb c384 88bd 5122 8bbd
000000b0: b6a4 12bc 2ecc 613c 90d2 8e3d 10e9 b23d
000000c0: 47a6 3abd f506 7f3d 49db 213d 2001 b33d
000000d0: ea5f c33d e118 873d dbfc 833d adb1 cc3c
000000e0: a780 8abc cbf0 e4bc ebb3 5e3d c4db 483c
000000f0: 7eac 393d 60b9 173d c64c b23d 43aa 603d
00000100: 1d4a a8bd 749e 70bd 82e2 793d ae88 6c3d
00000110: 3be3 48bd 2318 153d dbff a8bd 9bc7 7abd
00000120: d82b a8bd 49c5 54be 2be0 00be 68e0 4cbe
00000130: cb84 74be fbb5 46be 85e2 31be 7eca 01be
00000140: 8f51 62be 0af1 ebbd 3aa1 0ebd b7ee b33d
00000150: 670d 61bd b6ed a33c 47e0 b23d e0ed bbbd
00000160: 56fb afbd 73ce d33d 747c e33d 7da1 503a
00000170: 8306 fbbb 6438 bebc 449f 373d a23b 96bc
00000180: 5b63 ec3d 9788 7c3d 1013 113d 78e1 e73c
00000190: 9e1e a83c e5fa 8d3c 54cc cabd bf5e 9dbd
000001a0: 2a66 12be d48b b2bd 0e00 203d 8f1d 2c3c
000001b0: 2823 923d b9d3 77bc 2b3f 123d 3617 333d
000001c0: 09af 25bc 1bbc 363c 7e88 34bd a483 28bc
000001d0: 53e6 91bd a234 443d b9ba bcbd 29da 16be
000001e0: 6a60 29bd f9e1 8fbd 66a4 08bd c45c 23be
000001f0: 0f38 86bd 8037 fb3c 768a b53c b674 28bd
00000200: 6427 b7bb 8e7e 0fbd f3cb 34bd 556a f6bc
00000210: 830d 03bd 7a25 2d3d 454b 5a3d 7713 6abd
00000220: c26a ffbb 4843 0b3c 97d0 81bb f208 93bd
00000230: 9b12 47bd e06c 5e3d cf88 5f3d cbe0 15bc
00000240: cb05 123d 7e3a b4bb 46f6 413d feb4 c73d
00000250: 817b 093d e2a0 fdbc e868 393d fc0b 903d
00000260: 7fd4 bf3d d41d 8ebc ac3a 873c 3a8c 3ebd
00000270: d094 83bd d95b 633c 0ad1 01be 41b4 0e3d
00000280: 2506 69bc 50b1 b8bc 06b0 1d3d 88ee e03d
00000290: 39a0 af3d 99e4 013e bb23 36bd 5ce0 443d
000002a0: 6119 063e 9732 5b3c e99b c93d 0221 bd3d
000002b0: 18f7 ac3c a345 47bc 81bb da3c 665f e6bb
000002c0: a6b5 a03d d72a 9e3d 45f0 cdbb fb1e c43d
000002d0: be43 8c3d d6ee 863d e01d 01bd 86b8 b73d
000002e0: 6a43 6f3d 932c 143d b95b c13d f45d e53a
000002f0: 6b32 883d 3825 a63c a4b8 7bbd f314 353c
00000300: d8f8 67bd 894d 1bbe 7dff d1bd 5d51 0a3d
00000310: c492 6cbd c1ea abbd 4dd5 ebbb 4cf0 e1bc
00000320: 1bf0 703d 4b6f 043e 2185 033d 4639 6c3d
00000330: fc76 603d f0d0 6dbd 4f9a 893d 3caf 37bd
00000340: cced 8c3d 325a 433d b03e 12bd 40e8 84bd
00000350: de45 88bd 78de 8e3c b6ea c0bd efc2 50bb
00000360: 2ede 09b9 07ac 6fbd 4c4a bf3d 48e7 f3bd
00000370: 8513 10bc 0515 fcbc 3628 57bd 7035 d1bd
00000380: d82a 56bd 07a0 b53c 57b1 b1bd 09df 6bbd
00000390: ff38 043d 5ac9 4fbb 2956 a4bd 093f a13d
000003a0: 2486 aebc 41c9 95bc 1793 2d3d 56a8 c1bc
000003b0: 20b7 ce3d c622 f83d 15bf 033e 4425 0f3c
000003c0: 7926 043d 73d4 143e 6192 a53d 8f5a 923c
000003d0: 1177 9c3b 3f26 ac3d 4888 84bd bd63 7bbd
000003e0: 448d bdbc dd41 dd3c 6538 04bd 1d0e 2f3d
000003f0: 6e6f b83d 9229 8d3d e59c 913d e1d5 b13d

conv2.0.bias f4 [32]
-0.126745 -0.08280461 -0.109428614 0.013806178 -0.15222077 -0.119773425 0.08517275 0.040710427
-0.16220888 0.0014997179 -0.034359455 -0.22370581 -0.020736849 -0.08792653 -0.24366723 -0.011218199
-0.2789194 -0.08478533 -0.07332632 0.123695634 0.0073743956 -0.1105708 -0.09610435 -0.112979546
0.00814983 -0.20092878 -0.14771622 -0.061738476 -0.094787896 -0.23176008 -0.11754601 -0.15643056
00000000: 71c9 01be 7795 a9bd 1c1c e0bd 4f33 623c
00000010: c3df 1bbe c54b f5bd 0d6f ae3d fabf 263d
00000020: 161a 26be 2f92 c43a 80bc 0cbd 2313 65be
00000030: 53e0 a9bc d312 b4bd e783 79be 89cc 37bc
00000040: 86ce 8ebe eea3 adbd 1c2c 96bd 2354 fd3d
00000050: eaa4 f13b f272 e2bd 5cd2 c4bd d261 e7bd
00000060: dd86 053c 46c0 4dbe ec42 17be 7ce1 7cbd
00000070: 2820 c2bd 8452 6dbe f6bb f0bd 552f 20be

conv2.3.weight f4 [32]
1.0455273 0.9189638 0.9846309 0.847151 0.960244 0.9705306 0.9426882 0.9803529
0.95336515 1.0018419 0.9949252 1.0794101 0.9902247 0.9801619 1.0488361 0.9958289
0.7764701 1.0186634 0.98182976 0.8903805 0.9028692 0.90213567 0.9994558 1.0116519
0.96646184 1.0517659 0.99832296 0.8663269 1.0518934 1.0331581 0.9067202 0.93818355
00000000: d7d3 853f 3641 6b3f c510 7c3f e3de 583f
00000010: 8dd2 753f b274 783f 0454 713f 68f8 7a3f
00000020: bd0f 743f 5b3c 803f 6bb3 7e3f 1c2a 8a3f
00000030: 5e7f 7d3f e4eb 7a3f 4340 863f a5ee 7e3f
00000040: bfc6 463f 9063 823f 3259 7b3f faef 633f
00000050: 7022 673f 5df2 663f 56dc 7f3f cf7d 813f
00000060: 0b6a 773f 44a0 863f 1892 7f3f 9ac7 5d3f
00000070: 71a4 863f 863e 843f d11e 683f cc2c 703f

conv2.3.bias f4 [32]
0.10427155 0.3775444 0.08626595 -0.19880736 0.16515203 -0.1680821 0.5309778 0.06874352
-0.12673727 0.1851874 -0.104744576 0.6026606 -0.19877005 0.23240878 0.34587297 -0.15394345
0.2294125 -0.15316972 0.008202647 -0.009252894 0.30605203 0.21998613 0.33789626 0.24885482
0.36863452 0.34150758 -0.06591629 -0.17775905 0.4238003 0.22191937 0.29996026 0.48617625
00000000: 538c d53d 804d c13e 34ac b03d 2894 4bbe
00000010: 9d1d 293e b71d 2cbe 29ee 073f 67c9 8c3d
00000020: 6ac7 01be c4a1 3d3e 5384 d6bd f747 1a3f
00000030: 608a 4bbe 91fc 6d3e 4316 b13e 5aa3 1dbe
00000040: 1ceb 6a3e 86d8 1cbe 6564 063c 7399 17bc
00000050: dab2 9c3e 0b44 613e bd00 ad3e ccd3 7e3e
00000060: aabd bc3e 15da ae3e 1fff 86bd 7806 36be
00000070: 5afc d83e d53e 633e 6494 993e 18ec f83e

conv2.3.running_mean f4 [32]
0.046875123 0.8474828 0.31452814 0.7388744 0.26968467 0.106365904 0.5191951 0.5941465
0.22387381 0.5194845 0.10782693 0.09000557 0.6510624 0.6086549 0.056794357 0.26701024
0.37916103 0.40657106 0.28657052 0.71070766 0.6814506 0.60516787 0.36368373 0.19133326
0.5393557 0.13690728 0.17772436 0.106402226 0.2310008 0.34740517 0.3834315 0.21411775
00000000: 2100 403d a2f4 583f d509 a13e df26 3d3f
00000010: 1c14 8a3e 5ed6 d93d f8e9 043f fc19 183f
00000020: 2d3f 653e f0fc 043f 5ed4 dc3d d754 b83d
00000030: 07ac 263f cfd0 1b3f 33a1 683d 91b5 883e
00000040: 6521 c23e 152a d03e 5fb9 923e f0f0 353f
00000050: 8c73 2e3f 48ec 1a3f c134 ba3e deec 433e
00000060: 3713 0a3f 6c31 0c3e 60fd 353e 69e9 d93d
00000070: 798b 6c3e 17df b13e 2251 c43e af41 5b3e

conv2.3.running_var f4 [32]
0.036783643 2.178081 0.24863306 0.9358257 0.3016298 0.03846897 0.29560828 0.80210936
0.3054737 0.4021311 0.102919176 0.09841887 0.43519044 1.4543957 0.06595091 0.15627074
0.5841335 0.4990509 0.38322914 0.6124435 0.7015825 1.4258373 0.56424236 0.113412075
0.38719508 0.16367286 0.14828517 0.03308595 0.3948436 0.59896666 0.23260719 0.16770633
00000000: 72aa 163d ae65 0b40 aa99 7e3e 4692 6f3f
00000010: 396f 9a3e a491 1d3d f859 973e 0a57 4d3f
00000020: 0c67 9c3e 21e4 cd3e 4ac7 d23d d58f c93d
00000030: 48d1 de3e a329 ba3f 4511 873d 7005 203e
00000040: c689 153f 9983 ff3e 9c36 c43e 19c9 1c3f
00000050: e99a 333f d681 b63f 3072 103f 9744 e83d
00000060: 6f3e c63e dc99 273e 11d8 173e 2285 073d
00000070: f128 ca3e e155 193f 9430 6e3e 35bb 2b3e

conv3.0.weight f4 [64, 32, 3, 3]
-0.05144152 -0.072102964 -0.068321675 -0.057843648 -0.08930351 -0.06800461 -0.08386504 -0.07528559
-0.123432405 -0.063848 0.025661241 -0.013663644 -0.017023675 -0.046835404 -0.018101554 0.00097006443
-0.0067217145 0.057973735 0.00040564864 -0.032201562 -0.087789185 0.032166727 -0.018453639 -0.01670521
-0.06685935 -0.021055793 -0.04151124 0.03369714 -0.025323141 0.07100035 0.000752351 -0.016151816
0.01697001 -0.003628606 0.0221167 -0.012324455 -0.076762214 -0.08769759 -0.03345527 -0.019873135
-0.07703627 -0.05026225 -0.04053886 -0.025970023 -0.03613743 0.0011153364 0.015666354 -0.010481023
0.026545107 0.026413362 -0.01939941 0.032744426 0.03033942 -0.007088154 -0.024407018 -0.124583885
-0.0577888 -0.016440583 -0.12291627 -0.09744376 -0.08269824 -0.06445608 -0.096990354 -0.049064998
-0.040239908 -0.043897845 -0.029692188 0.027118996 -0.0360629 -0.008814109 0.05525796 0.032033697
0.052253958 0.14407519 0.098500066 0.11634011 0.11797825 0.06273672 0.011430095 0.123782836
0.067421116 0.026552584 0.009741775 0.013122261 0.003500814 0.0532252 0.015248176 0.03586957
0.042557072 0.06022854 -0.033920113 -0.040799953 0.0038409242 -0.0057605496 -0.03639118 -0.00041525404
-0.048571337 -0.029035859 -0.036064915 -0.074007235 -0.12380982 -0.09789425 -0.077085555 -0.15098457
-0.14016265 -0.087991044 -0.14977165 -0.15957735 -0.025267119 0.011838742 0.024997031 -0.051450443
0.009551175 -0.015185592 -0.051449817 -0.010888197 -0.023552952 -0.13714577 -0.096195 -0.12786034
-0.1279562 -0.0803003 -0.073578425 -0.13146122 -0.022138035 -0.07124363 0.031991232 0.051587373
0.033416234 0.021229114 0.022641925 0.04315265 0.05547304 0.070446104 0.020313796 -0.03314881
-0.059810486 -0.04443772 -0.022914382 -0.049207795 -0.084520355 -0.063647814 -0.04455292 -0.10086229
0.031950384 -0.037464414 -0.05717417 -0.053506244 -0.0038057314 -0.013821725 -0.05396943 0.020824436
0.014451938 0.06665287 0.086670406 0.10482909 0.06701963 0.101296626 0.017261742 0.08845794
0.1092228 0.09302218 -0.01553508 0.035077497 -0.03317071 0.03085437 0.028656222 -0.04642574
-0.0041089244 0.007976916 0.0058898665 -0.07478044 -0.022473035 0.016211849 -0.037981715 0.003665184
-0.016026644 0.017033966 0.057947677 -0.0072365357 0.0031861844 -0.02275177 -0.04570384 -0.027436657
-0.012014827 -0.048457406 -0.022543447 0.017951341 0.0032322735 -0.07275532 -0.09047583 -0.04710752
-0.03954269 -0.04823094 -0.121521294 -0.04317272 -0.043937437 -0.12396162 0.0048670615 -0.00091030885
0.051092986 -0.0112554645 0.087932505 0.05837729 0.0022479938 -0.0010255743 0.011901375 -0.05352083
-0.07982411 -0.10903618 -0.07509936 -0.06331606 -0.045658194 -0.07855565 -0.07732896 -0.10974408
-0.046545 -0.047917794 -0.09345316 0.023869233 -0.010007459 -0.06832849 -0.020978976 -0.049124256
-0.059057813 0.058797352 0.07978254 -0.0081859 0.044636242 0.045728736 0.020855019 0.020249324
0.08257743 -0.023016637 -0.03989013 -0.023327528 -0.058921546 -0.029146442 -0.0007214222 -0.023663387
-0.051815957 -0.04659913 -0.031678103 -0.0032733441 -0.029416788 -0.023827322 0.026970025 -0.030665928
-0.024209468 -0.027630435 0.002717478 0.05656158 -0.05121328 -0.11447893 -0.17533544 -0.06004775
00000000: 58b4 52bd b8aa 93bd 3cec 8bbd 76ed 6cbd
00000010: c2e4 b6bd 0046 8bbd 6fc1 abbd 552f 9abd
00000020: 21ca fcbd bdc2 82bd 8637 d23c 7add 5fbc
00000030: 3c75 8bbc 7bd6 3fbd b649 94bc ec4b 7e3a
00000040: d441 dcbb de75 6d3d 3dad d439 c9e5 03bd
00000050: d1ca b3bd 42c1 033d 162c 97bc 5dd9 88bc
00000060: 8eed 88bd 337d acbc b107 2abd 0306 0a3d
00000070: 7a72 cfbc a268 913d 6c39 453a d050 84bc
00000080: b104 8b3c e8cd 6dbb 152e b53c 83ec 49bc
00000090: 8235 9dbd cb9a b3bd 6508 09bd fccc a2bc
000000a0: 31c5 9dbd cadf 4dbd 130c 26bd 16bf d4bc
000000b0: d804 14bd 7b30 923a ba56 803c 99b8 2bbc
000000c0: 2075 d93c d660 d83c 83eb 9ebc 051f 063d
000000d0: 608a f83c bf43 e8bb 3af1 c7bc d625 ffbd
000000e0: f3b3 6cbd 67ae 86bc 86bb fbbd 9890 c7bd
000000f0: b25d a9bd 8d01 84bd e1a2 c6bd 61f8 48bd
00000100: 9ad2 24bd 3ace 33bd 083d f3bc a828 de3c
00000110: b1b6 13bd 0d69 10bc 2c56 623d c435 033d
00000120: 3f08 563d 7288 133e 67ba c93d b943 ee3d
00000130: 959e f13d 1c7c 803d 4b45 3b3c db81 fd3d
00000140: 1514 8a3d ce84 d93c f79b 1f3c c0fe 563c
00000150: ea6d 653b ab02 5a3d 7cd3 793c f8eb 123d
00000160: 5350 2e3d 34b2 763d d1ef 0abd da1d 27bd
00000170: 04b8 7b3b fec2 bcbb eb0e 15bd 74b6 d9b9
00000180: bdf2 46bd 9cdc edbc ceb8 13bd 1b91 97bd
00000190: 0190 fdbd c87c c8bd 08df 9dbd b39b 1abe
000001a0: cc86 0fbe a634 b4bd bd5d 19be 3f68 23be
000001b0: fdfc cebc 48f7 413c 93c6 cc3c b3bd 52bd
000001c0: 887c 1c3c fdcc 78bc 0bbd 52bd 6964 32bc
000001d0: 1ff2 c0bc f16f 0cbe e201 c5bd d2ed 02be
000001e0: f306 03be 7c74 a4bd 49b0 96bd c59d 06be
000001f0: d35a b5bc 2ee8 91bd 3d09 033d 484d 533d
00000200: 76df 083d aee8 ad3c 8f7b b93c d5c0 303d
00000210: b337 633d 0c46 903d 1e69 a63c 0cc7 07bd
00000220: d7fb 74bd 5404 36bd f1b6 bbbc 1d8e 49bd
00000230: 0219 adbd c959 82bd 1f7d 36bd e390 cebd
00000240: 68de 023d 4974 19bd 762f 6abd 5d29 5bbd
00000250: 9469 79bb 8474 62bc 0d0f 5dbd 0298 aa3c
00000260: d2c7 6c3c 4d81 883d 4180 b13d a2b0 d63d
00000270: 9641 893d 9b74 cf3d 7f68 8d3c 7029 b53d
00000280: 34b0 df3d 6a82 be3d d986 7ebc 6cad 0f3d
00000290: 03de 07bd 4ec2 fc3c 74c0 ea3c eb28 3ebd
000002a0: 28a4 86bb 9cb1 023c c8ff c03b 7d26 99bd
000002b0: 5f19 b8bc b6ce 843c b792 1bbd 9533 703b
000002c0: 4f4a 83bc d18a 8b3c 8b5a 6d3d 7620 edbb
000002d0: 4ecf 503b ec61 babc f333 3bbd d7c2 e0bc
000002e0: d6d9 44bc 467b 46bd 09ad b8bc b10e 933c
000002f0: 8dd4 533b be00 95bd 644b b9bd d1f3 40bd
00000300: 84f7 21bd ce8d 45bd 28e0 f8bd e1d5 30bd
00000310: bef7 33bd 97df fdbd df7b 9f3b cba1 6eba
00000320: e146 513d d768 38bc f515 b43d 061d 6f3d
00000330: 1453 133b 906c 86ba fcfd 423c a838 5bbd
00000340: d37a a3bd 5c4e dfbd b1cd 99bd daab 81bd
00000350: 1604 3bbd c9e1 a0bd a55e 9ebd 81c1 e0bd
00000360: f8a5 3ebd 7345 44bd 5f64 bfbd 6989 c33c
00000370: 53f6 23bc cfef 8bbd 1adc abbc 8436 49bd
00000380: 9be6 71bd 7ed5 703d 0765 a33d 271e 06bc
00000390: 7ed4 363d 0e4e 3b3d 25d8 aa3c e9e1 a53c
000003a0: 5b1e a93d 638d bcbc d563 23bd 5f19 bfbc
000003b0: b857 71bd 85c4 eebc d31d 3dba b8d9 c1bc
000003c0: f83c 54bd bbde 3ebd e6c0 01bd 9a85 56bb
000003d0: 7afb f0bc 8431 c3bc 3ef0 dc3c 1d37 fbbc
000003e0: ef52 c6bc 3959 e2bc b717 323b 1ead 673d
000003f0: 04c5 51bd ee73 eabd 228b 33be a1f4 75bd

conv3.0.bias f4 [64]
-0.22162507 -0.065172814 -0.074608915 -0.18632044 -0.030707845 -0.011532585 -0.0860734 -0.16900828
-0.057978522 -0.09041665 0.024240317 -0.1569249 -0.09534943 -0.018337935 -0.18976371 -0.011352264
-0.15444298 -0.15629248 -0.08059793 -0.15769257 -0.16448483 -0.11711733 -0.092846006 -0.057390522
-0.09848998 -0.11126886 -0.27001336 -0.115659356 -0.2417875 -0.089778386 -0.20622386 -0.1346742
-0.13491444 -0.214649 -0.16699767 -0.16639505 -0.11932909 -0.09266436 -0.17053938 -0.12449104
-0.12771298 -0.03604949 -0.16834626 -0.029765077 -0.085351996 -0.09124986 -0.08829638 -0.07854339
-0.0083774 -0.13095127 -0.15990695 -0.12738341 -0.16849379 -0.05204757 -0.07570448 -0.14686958
-0.06033148 -0.08696481 -0.09352307 -0.021475265 0.007938268 -0.040067855 -0.20433909 -0.10432953
00000000: aff1 62be 5379 85bd 8fcc 98bd c9ca 3ebe
00000010: 058f fbbc 2bf3 3cbc 4047 b0bd 8210 2dbe
00000020: e37a 6dbd 5d2c b9bd a193 c63c ecb0 20be
00000030: 9046 c3bd 7039 96bc 6b51 42be d9fe 39bc
00000040: 4d26 1ebe 230b 20be 8710 a5bd 297a 21be
00000050: b66e 28be 36db efbd 0c26 bebd 5312 6bbd
00000060: 1db5 c9bd eee0 e3bd 313f 8abe d0de ecbd
00000070: 2497 77be bbdd b7bd 592c 53be 09e8 09be
00000080: 0327 0abe f3cc 5bbe 7001 2bbe 7763 2abe
00000090: cf62 f4bd d0c6 bdbd e0a1 2ebe 29f5 febd
000000a0: 31c7 02be a1a8 13bd f662 2cbe e4d5 f3bc
000000b0: 07cd aebd 35e1 babd bcd4 b4bd 5bdb a0bd
000000c0: 5d41 09bc 1718 06be a6be 23be cc70 02be
000000d0: a389 2cbe d52f 55bd f30a 9bbd fb64 16be
000000e0: 241e 77bd 9b1a b2bd 0689 bfbd e5ec afbc
000000f0: 820f 023c 311e 24bd 443e 51be b8aa d5bd

conv3.4.weight f4 [64]
1.1774974 1.146613 1.2604159 1.3275795 1.2430018 1.2476742 1.2817008 1.1430429
1.0679933 1.2875632 1.2273105 1.0441225 1.2674621 1.145106 1.1436454 1.2613522
1.097931 1.1545625 1.2689531 1.2964002 1.1816785 1.3178338 1.2794986 1.3029267
1.0818331 1.1380016 1.1145877 1.348882 1.15258 1.3151358 1.1748899 1.0441494
1.2014542 1.1925045 1.0839139 1.1587855 0.9592158 1.3171723 1.2892774 1.2491566
1.1459601 1.0230165 1.1757436 1.2811732 1.1149578 1.2640727 1.2836499 0.98632103
1.2397938 1.3197447 1.1674356 1.2962418 1.084221 1.1900293 1.336432 1.162694
1.0820858 1.3143934 1.2600679 0.9431587 1.2476128 1.2520096 1.1035804 1.2264001
00000000: 3cb8 963f 37c4 923f 4f55 a13f 20ee a93f
00000010: af1a 9f3f cab3 9f3f c60e a43f 3b4f 923f
00000020: 01b4 883f dfce a43f 8318 9d3f cea5 853f
00000030: 333c a23f d592 923f f962 923f fd73 a13f
00000040: 0189 8c3f b4c8 933f 0e6d a23f 71f0 a53f
00000050: 3e41 973f c7ae a83f 9cc6 a33f 4dc6 a63f
00000060: 8279 8a3f 09aa 913f cfaa 8e3f 2aa8 ac3f
00000070: be87 933f 5f56 a83f cb62 963f b0a6 853f
00000080: 40c9 993f fda3 983f b1bd 8a3f 1553 943f
00000090: 2b8f 753f 1a99 a83f 0b07 a53f 5de4 9f3f
000000a0: d2ae 923f 34f2 823f c47e 963f 7cfd a33f
000000b0: f0b6 8e3f 22cd a13f a44e a43f 897f 7c3f
000000c0: 90b1 9e3f 65ed a83f 886e 953f 40eb a53f
000000d0: c1c7 8a3f e152 983f 3410 ab3f 28d3 943f
000000e0: ca81 8a3f 0b3e a83f e849 a13f d972 713f
000000f0: c7b1 9f3f da41 a03f 1f42 8d3f aefa 9c3f

conv3.4.bias f4 [64]
-0.0057604886 -0.0004954972 0.008175186 -0.0038856256 0.006862494 0.007996151 0.0052144476 -0.006241192
-0.015892161 0.013314513 0.0100207245 -0.01524877 -0.01712671 -0.011180288 0.0057758447 0.0010663496
0.008059982 -0.00026368728 0.012916783 -0.01522273 -0.009966533 0.0038212384 0.025185898 -0.0077084494
-0.044791874 -0.012757944 -0.021001108 -0.014389527 -0.030052472 -0.0029953348 -0.011423392 -0.013286039
0.028824741 -0.006426024 -0.018870123 0.010982456 0.0048141815 0.008790578 -0.005036802 -0.005710335
-0.012265268 0.01134819 0.011079657 0.00930867 0.011907403 -0.0046626986 0.0055711977 0.0072310213
-0.010451669 0.008031452 -0.0001628377 0.017686184 -0.007260301 0.0015763736 0.0031098856 -0.015851818
0.019522598 0.016156545 0.008186685 -0.007937602 0.020734318 0.017304981 0.01651566 0.018883424
00000000: 7bc2 bcbb 41e4 01ba 37f1 053c fba5 7ebb
00000010: c6de e03b 4a02 033c f5dd aa3b ea82 ccbb
00000020: 4730 82bc 1d25 5a3c f72d 243c fad5 79bc
00000030: 504d 8cbc 872d 37bc 4c43 bd3b c1c4 8b3a
00000040: 040e 043c 823f 8ab9 eaa0 533c c268 79bc
00000050: ab4a 23bc be6d 7a3b a852 ce3c 2997 fcbb
00000060: af77 37bd b206 51bc 840a acbc 0dc2 6bbc
00000070: 9a30 f6bc 614d 44bb 2e29 3bbc b0ad 59bc
00000080: dd21 ec3c 6591 d2bb 8495 9abc c2ef 333c
00000090: 48c0 9d3b 5b06 103c c20b a5bb c31d bbbb
000000a0: 43f4 48bc c2ed 393c 7387 353c 6483 183c
000000b0: 4517 433c 8dc9 98bb 988e b63b 34f2 ec3b
000000c0: 7a3d 2bbc 5a96 033c 6abf 2ab9 9ee2 903c
000000d0: d2e7 edbb 529e ce3a 39cf 4b3b acdb 81bc
000000e0: dbed 9f3c bb5a 843c 7221 063c b70c 02bc
000000f0: 04db a93c 2dc3 8d3c d94b 873c 69b1 9a3c

conv3.4.running_mean f4 [64]
0.042509083 0.033519458 0.10460306 0.022545915 0.066003196 0.12678216 0.08093892 0.03716045
0.060596444 0.09065303 0.052593473 0.016745146 0.04096752 0.11552938 0.023035616 0.10424842
0.06864833 0.028239654 0.020530298 0.033546723 0.025209038 0.036159452 0.095882855 0.119264685
0.051658943 0.045490943 0.02285831 0.027545586 0.026092496 0.037470587 0.030378073 0.014467048
0.031756494 0.035519954 0.054382697 0.045114566 0.13798158 0.024235265 0.023251751 0.045745544
0.046431407 0.18760857 0.013399481 0.13341023 0.028310694 0.028635984 0.025200624 0.05522837
0.08982715 0.021463046 0.03578467 0.044623025 0.061060015 0.14546828 0.031653516 0.04326464
0.033849094 0.025602084 0.029539479 0.5301246 0.10922241 0.07677145 0.025396304 0.053475276
00000000: 011e 2e3d b34b 093d 213a d63d 36b2 b83c
00000010: af2c 873d 2fd3 013e 4ec3 a53d 8e35 183d
00000020: fa33 783d 4ca8 b93d 416c 573d 1e2d 893c
00000030: 8fcd 273d ab9a ec3d 30b5 bc3c 3280 d53d
00000040: 7f97 8c3d d956 e73c 282f a83c 4a68 093d
00000050: 2f83 ce3c ef1b 143d 3b5e c43d 0b41 f43d
00000060: 5498 533d b654 3a3d 5a41 bb3c 48a7 e13c
00000070: eebf d53c c27a 193d 70db f83c 3307 6d3c
00000080: 1913 023d 5f7d 113d 64c0 5e3d 0dca 383d
00000090: 0b4b 0d3e 0989 c63c 757a be3c ae5f 3b3d
000000a0: dc2e 3e3d 761c 403e 7f89 5b3c b19c 083e
000000b0: d4eb e73c 0396 ea3c 8a71 ce3c 2537 623d
000000c0: 4cf7 b73d 45d3 af3c f292 123d a2c6 363d
000000d0: 111a 7a3d a3f5 143e 1ea7 013d 4336 313d
000000e0: 59a5 0a3d 76bb d13c c7fc f13c 3fb6 073f
000000f0: 00b0 df3d 5a3a 9d3d e90b d03c e408 5b3d

conv3.4.running_var f4 [64]
0.13978316 0.060923766 0.407154 0.05719304 0.22210927 0.4045293 0.24122551 0.10576819
0.16375615 0.3403613 0.14159313 0.033269845 0.122684896 0.21053311 0.065095 0.34590584
0.11123579 0.06506475 0.047134977 0.11810115 0.06041515 0.1197143 0.33297607 0.45905262
0.101698376 0.14388363 0.08291098 0.09472416 0.096745804 0.13061938 0.0696367 0.031918414
0.10652195 0.10906029 0.21608585 0.122830056 1.1420321 0.07437508 0.06946255 0.15258926
0.11463215 0.54195136 0.043290038 0.50663006 0.05414542 0.08584134 0.08062698 0.17289907
0.28904945 0.06179347 0.12273847 0.14813037 0.106582694 0.65190876 0.11651567 0.0952996
0.07319086 0.06474792 0.096350156 2.4115632 0.3834281 0.2112399 0.079910345 0.14198783
00000000: 5123 0f3e 338b 793d 7d76 d03e 4043 6a3d
00000010: 9d70 633e 771e cf3e d203 773e fe9c d83d
00000020: b1af 273e d643 ae3e cafd 103e f645 083d
00000030: 3842 fb3d fe95 573e 8750 853d 921a b13e
00000040: 97cf e33d ab40 853d 9b10 413d 04df f13d
00000050: e075 773d c52c f53d d77b aa3e f208 eb3e
00000060: 3d47 d03d 3b56 133e 3bcd a93d befe c13d
00000070: aa22 c63d 16c1 053e b09d 8e3d e2bc 023d
00000080: 2e28 da3d 005b df3d 9c45 5d3e 538e fb3d
00000090: 1c2e 923f f651 983d 6242 8e3d 5c40 1c3e
000000a0: 43c4 ea3d 53bd 0a3f e550 313d 82b2 013f
000000b0: 97c7 5d3d 96cd af3d c21f a53d 740c 313e
000000c0: 4afe 933e 261b 7d3d 4f5e fb3d 7daf 173e
000000d0: 0748 da3d 7ee3 263f c59f ee3d 702c c33d
000000e0: 17e5 953d 8f9a 843d 3b53 c53d 0d57 1a40
000000f0: b050 c43e 464f 583e 09a8 a33d 4265 113e

fc.0.weight f4 [32, 64]
0.19886157 0.2381582 -0.07731963 -0.18396875 -0.32336894 -0.09734069 -0.19696888 0.073748425
0.12604702 -0.17753527 -0.19882461 -0.041708883 -0.21757533 0.15515986 0.18955044 -0.2942439
0.08049435 0.102301 -0.2793677 -0.23156287 0.05260057 -0.15450011 -0.19504935 -0.3105863
0.16720578 0.061263133 0.04239942 -0.2543931 0.21059279 -0.17233494 0.10152312 0.17967445
-0.06732805 0.13621391 0.11962314 0.18613583 0.13477173 -0.29185236 -0.1648902 -0.2474923
0.15555575 0.08676937 0.12079419 -0.21234417 0.16229637 -0.29970634 -0.2594173 0.04046081
-0.088189915 -0.2614886 0.11323659 -0.29866773 0.11427811 -0.26540837 -0.19930474 0.1521136
0.10417764 -0.15215746 -0.30854446 -0.00032607003 -0.14016582 -0.12765916 0.10973445 -0.19561689
0.063057855 0.069960855 -0.16064155 -0.27536184 -0.12744932 -0.10935259 -0.24555656 0.14071548
-0.016723903 -0.25166115 -0.037783477 -0.0189756 -0.17642847 0.13817771 0.2241971 -0.20893566
0.15551902 0.112409644 -0.19649296 -0.104301386 0.028820667 -0.3065791 -0.23667195 -0.2689674
0.04274691 0.18336788 0.1088035 -0.2685488 0.17112465 -0.28057832 0.10107066 -0.040952772
-0.14786036 0.25364584 0.15908359 0.21138011 0.08380401 -0.16498259 -0.23381272 -0.27401718
0.0175572 0.06992363 0.18042257 -0.10663864 0.062014192 -0.22146201 -0.093714714 0.14840972
-0.29491988 -0.20358594 0.048974276 -0.16355754 0.12815654 -0.10267948 -0.16275273 0.2009578
0.18954773 -0.19446439 -0.19767372 -0.052386656 -0.20869635 -0.10371432 0.10471566 -0.17360815
0.08869696 0.124623805 -0.17667417 -0.22795807 -0.21113697 -0.13174555 -0.26321048 0.100253865
0.06367563 -0.1095109 -0.13989358 0.112584665 -0.218651 0.10747138 0.14875525 -0.20670713
0.061374348 0.14810814 -0.06745338 -0.28511617 0.11143795 -0.221937 -0.25020158 -0.24142902
0.036139823 0.05270201 0.17833826 -0.23312673 0.1422116 -0.15925416 0.20347357 -0.059519764
-0.16223654 0.11446501 0.0030613143 0.1663264 -0.024716586 -0.22923446 -0.14922673 -0.23378986
0.07040611 -0.009711722 0.17003943 -0.182764 0.090496644 -0.24768251 -0.06460178 -0.05807601
-0.08553118 -0.14186116 0.14535159 -0.21263467 0.17376377 -0.21923701 -0.19700626 0.21715051
0.08438826 -0.2978211 -0.2917858 0.056889888 -0.18693505 -0.18337896 0.065214455 -0.1786742
-0.20152538 -0.138203 0.08822735 0.16434243 0.2289586 0.21503282 0.19862711 -0.14931072
-0.044916015 0.25235003 0.12919094 -0.13831644 0.20356935 -0.13665357 -0.20789044 0.1526063
-0.16892758 -0.034410354 0.125148 0.21598941 -0.15057144 0.23233005 0.15869696 0.18959296
-0.006931927 -0.032671504 -0.12480087 0.07623606 -0.042807106 0.29581422 -0.071958885 -0.11449639
0.16906357 -0.14566728 -0.17530327 -0.15239051 -0.10015003 0.17183086 0.13382037 0.1515098
-0.025204116 -0.16434233 -0.106641844 0.21091749 -0.08396278 0.22151005 0.11923554 -0.06032051
0.047097072 0.11953849 -0.124537855 0.15900616 -0.09867558 0.21409379 0.2509998 -0.15964177
-0.15613021 0.19319658 0.09827798 -0.034431577 0.050346386 0.25171518 -0.09073491 0.12973909
00000000: 5ea2 4b3e bedf 733e c159 9ebd 4e62 3cbe
00000010: 9d90 a5be 8e5a c7bd 36b2 49be 6a09 973d
00000020: 7812 013e cecb 35be ae98 4bbe efd6 2abd
00000030: 11cc 5ebe 3ae2 1e3e 8319 423e 23a7 96be
00000040: 39da a43d 3083 d13d 4809 8fbe d11e 6dbe
00000050: b273 573d 4735 1ebe 04bb 47be 2b05 9fbe
00000060: fe37 2b3e 0def 7a3d 04ab 2d3d d03f 82be
00000070: a3a5 573e 9278 30be 5beb cf3d 94fc 373e
00000080: 4ae3 89bd a97b 0b3e fafc f43d 649a 3e3e
00000090: 9a01 0a3e ac6d 95be fad8 28be 9f6e 7dbe
000000a0: 024a 1f3e 24b4 b13d f262 f73d c070 59be
000000b0: 0531 263e 1c73 99be 58d2 84be 3cba 253d
000000c0: ea9c b4bd d5e1 85be 96e8 e73d faea 98be
000000d0: a40a ea3d 9be3 87be 8b16 4cbe abc3 1b3e
000000e0: 165b d53d 2acf 1bbe 8af9 9dbe 61f4 aab9
000000f0: a187 0fbe 15b9 02be 75bc e03d cb4f 48be
00000100: 7a24 813d a347 8f3d 387f 24be 3afc 8cbe
00000110: 1382 02be 40f4 dfbd 2e73 7bbe b817 103e
00000120: 9100 89bc bbd9 80be d9c2 1abd b872 9bbc
00000130: aaa9 34be 757e 0d3e ed93 653e 3bf3 55be
00000140: 6140 1f3e 0737 e63d 7335 49be f79b d5bd
00000150: 5219 ec3c f0f7 9cbe 225a 72be 18b6 89be
00000160: 6217 2f3d cac4 3b3e 5fd4 de3d 3a7f 89be
00000170: 4d3b 2f3e f6a7 8fbe 22fe ce3d 18be 27bd
00000180: b568 17be dedd 813e cfe6 223e 0774 583e
00000190: 70a1 ab3d 32f1 28be 9a6c 6fbe fb4b 8cbe
000001a0: 1ed4 8f3c 1f34 8f3d b2c0 383e 5c65 dabd
000001b0: 9802 7e3d f0c6 62be 80ed bfbd b8f8 173e
000001c0: bdff 96be d578 50be 4099 483d a17b 27be
000001d0: 783b 033e 9f49 d2bd a7a8 26be e2c7 4d3e
000001e0: cd18 423e ac21 47be fb6a 4abe 6493 56bd
000001f0: 7fb4 55be 2c68 d4bd 2a75 d63d 56c6 31be
00000200: c0a6 b53d c43a ff3d 13ea 34be d76d 69be
00000210: 4a34 58be 4ee8 06be 86c3 86be e651 cd3d
00000220: 5e68 823d 4047 e0bd 4340 0fbe ca92 e63d
00000230: 0ce6 5fbe f419 dc3d 4c53 183e 09ab 53be
00000240: ab63 7b3d a9a9 173e ff24 8abd bffa 91be
00000250: 9439 e43d 7443 63be 6c1a 80be 2b39 77be
00000260: 5a07 143d 10de 573d 4e9e 363e c6b8 6ebe
00000270: eb9f 113e 8613 23be 605b 503e ffca 73bd
00000280: 5621 26be a26c ea3d 55a0 483b 7851 2a3e
00000290: 707a cabc 70bc 6abe e4ce 18be 9c66 6fbe
000002a0: 1431 903d ea1d 1fbc d11e 2e3e 7c26 3bbe
000002b0: 4e56 b93d 7ca0 7dbe f04d 84bd 1ce1 6dbd
000002c0: f92a afbd 0d44 11be 0cd7 143e e7bc 59be
000002d0: 21ef 313e ab7f 60be 02bc 49be b45c 5e3e
000002e0: c1d3 ac3d 027c 98be f364 95be 5f05 693d
000002f0: e76b 3fbe b2c7 3bbe 288f 853d 5ff6 36be
00000300: ab5c 4ebe 1685 0dbe 8ab0 b43d 6249 283e
00000310: 2074 6a3e 9031 5c3e e864 4b3e e9e4 18be
00000320: dbf9 37bd 0634 813e a14a 043e d3a2 0dbe
00000330: 7c74 503e eaee 0bbe 3be1 54be d344 1c3e
00000340: 5afb 2cbe dff1 0cbd cc26 003e 542c 5d3e
00000350: 662f 1abe eee7 6d3e 7581 223e a824 423e
00000360: 3825 e3bb 8ed2 05bd 9997 ffbd a721 9c3d
00000370: 8156 2fbd f674 973e 2e5f 93bd 157d eabd
00000380: 001f 2d3e ce29 15be b382 33be 420c 1cbe
00000390: 751b cdbd 6ef4 2f3e 3508 093e 6325 1b3e
000003a0: dd78 cebc 5b49 28be 0a67 dabd c1fa 573e
000003b0: aef4 abbd 88d3 623e c331 f43d a412 77bd
000003c0: dce8 403d 99d0 f43d b40d ffbd 83d2 223e
000003d0: 6c16 cabd 673b 5b3e 0c83 803e 2279 23be
000003e0: 99e0 1fbe 53d5 453e f745 c93d 2008 0dbd
000003f0: 0338 4e3d d0e0 803e 39d3 b9bd 53da 043e

fc.0.bias f4 [32]
-0.016185334 -0.08716678 -0.10410023 0.056891434 0.025631588 -0.076472245 0.03911483 -0.02716587
-0.10233156 -0.034782548 -0.037233856 0.010201662 0.08214805 -0.036251284 -0.038923465 0.022369996
0.054132547 -0.04608615 -0.04233659 0.01864376 0.0076829935 0.087478034 0.07590975 -0.042660337
-0.029622348 0.082009025 0.068225466 0.039139997 0.08862086 0.070158266 -0.02350435 0.05123753
00000000: 1b97 84bc 7f84 b2bd 8032 d5bd fe06 693d
00000010: 56f9 d13c 7b9d 9cbd df36 203d f58a debc
00000020: 3593 d1bd 2578 0ebd 8782 18bd df24 273c
00000030: 3d3d a83d 3a7c 14bd 366e 1fbd 4841 b73c
00000040: 17ba 5d3d d5c4 3cbd 2269 2dbd ccba 983c
00000050: 9fc1 fb3b af27 b33d 9276 9b3d 9bbc 2ebd
00000060: 91aa f2bc 59f4 a73d cbb9 8b3d 4351 203d
00000070: da7e b53d 23af 8f3d 328c c0bc 72de 513d

fc.3.weight f4 [1, 32]
-0.2260417 -0.27496827 -0.29167178 0.5103292 0.4641899 -0.25242358 0.32032037 0.48865378
-0.2546972 -0.28332248 0.47829747 -0.24233137 -0.32290238 -0.19979624 -0.21681842 -0.22218263
-0.239423 0.42083758 -0.3281599 -0.26145235 0.37633258 0.4633185 0.45726728 0.49851683
-0.287693 -0.307194 0.38684207 -0.2751497 0.438459 -0.23450209 -0.30802405 -0.2630457
00000000: 7a77 67be a4c8 8cbe 0156 95be efa4 023f
00000010: 4caa ed3e aa3d 81be 0801 a43e d430 fa3e
00000020: ac67 82be a50f 91be 68e3 f43e b725 78be
00000030: 7653 a5be 6397 4cbe a605 5ebe d883 63be
00000040: 4e2b 75be 0678 d73e 9304 a8be 15dd 85be
00000050: aaae c03e 1538 ed3e f01e ea3e 993d ff3e
00000060: 7f4c 93be 8848 9dbe 2a10 c63e 6ce0 8cbe
00000070: b37d e03e 5121 70be 54b5 9dbe edad 86be
