5 第五讲 机器学习训练模型的数学范式v16/models/model50.pth (torch, 112459 bytes, 21 tensors)

conv1.0.weight f4 [16, 3, 3, 3]
00000000: 5f09 33bc ad1c e3bd ccf3 213e de91 58bd
00000010: 2820 04be df29 25be 6bb8 283d 6f6e 20be
00000020: e96d d03d 1bdb 8f3d d613 433e b254 04be
00000030: f57b ed3c a4df 0e3d 7d67 e93c 947e cd3d
00000040: 1313 0dbb 0df4 82bd 4418 123e 2c88 f8bd
00000050: 3282 19be 12ec c93d 95d8 64bd 76fc 1d3e
00000060: c10f 06be c3a2 153e 70da 193d dbf3 40bd
00000070: b975 0b3e b1d3 9dbd 8d67 b63b 2db1 9cbd
00000080: d99d 9a3d f0c9 683d e475 143e f777 d8bd
00000090: 4bfb 303d 3058 06bc fcf4 1d3e d681 11be
000000a0: 97c2 85bd a39a 1e3e d93d 853d a35e 5ebd
000000b0: a363 8d3d 0ea1 553d e3a7 8cbd 6b68 25be
000000c0: 833b 33be 0034 cc3d b57c ccbc ca24 9f3d
000000d0: 1155 28be 18e9 223e 6122 903d e4a6 46bc
000000e0: 4abc a7bd bc24 dfbc 1ef6 0bbe a87d 27be
000000f0: f64b 96bd 373e e13d 8442 2bbe 4054 203e
00000100: 123c cb3d a58d 0bbe 00c9 2b3e d641 623d
00000110: f48b dfbc 157d be3c 4b26 343d 650c 063e
00000120: dc7a 423e dbe6 2a3d 5a16 c5bc 2163 6f3c
00000130: 1784 1d3d 898f 9cbd 159c a7bd d28c 4cbe
00000140: 6efb 383e 3a90 92bd 0e34 49bc 3c2e 1ebe
00000150: 4050 81ba 72b6 2a3e 6d7e 17be 9789 d73d
00000160: e32f 453e 767a 2dbe e969 123c 0fd5 263d
00000170: 6120 963c 2016 773c 5225 2e3e 5dd7 323e
00000180: 0d65 bd3c 14ea 993d c125 77bd eb41 84bd
00000190: 3c17 7fbd 0aaf 183e 874a 573e aae6 1e3e
000001a0: 6b85 3f3d 59bc e13d 675f 6dbd 5a07 97ba
000001b0: bc6e 37be 8b2f 733d 0e90 ebbd 5c70 2a3e
000001c0: c9aa 673c b0db cb3d 7245 2ebd e347 3c3d
000001d0: d23a 31be eb56 38be bdf1 dabd aa5e 4a3e
000001e0: 1088 ae3d 82d2 d63d 9542 493e 788b bf3d
000001f0: a3ee b23d 05ae 6ebd c447 e5bd 7ec5 d63d
00000200: 391b 1d3e 7839 2abe 895d 603d 24a2 58bd
00000210: 0afc 293e 0280 1abd 94cf 40bd 97ac 1dbd
00000220: af74 6dbd 4118 1d3e 5a27 bebd a8fc 3f3d
00000230: e1f9 873b 6ac8 0d3e b3d9 b33d 2537 12be
00000240: d3c9 41bc 3a32 3c3a 4f78 08bd 9556 223e
00000250: b365 473e ad97 0cbe c0ba 60bd c3c0 443e
00000260: 89bc 493d 7b8b 9abd f6c1 dd3d 592c 1abd
00000270: b2df b1bd 26eb 4bbe 1e71 eb3d 0dc0 73bd
00000280: 38e9 19be 5208 19be 8059 29bd bdfb 003e
00000290: 03e0 de3d 1582 ed3d d701 9cbd 3ca4 17be
000002a0: 1e25 2cbd c4ce b1bd 1bd4 993d 8a65 f33d
000002b0: df8a 74bd 7fb1 43be 778a 1c3e a26b 853d
000002c0: 155e e9bd 979e 72bd 1388 dbbc c24f e1bd
000002d0: ee00 1e3e e9cb 3f3d eb16 09be f6cb 03be
000002e0: caaa bfbd d3f6 48be cbbc c7bc ad98 84bd
000002f0: a216 e6bd a39c 863c 8411 c7bd f979 ce3d
00000300: 9d89 cc3d 6384 85bd e423 b8bd c93e 48be
00000310: 99b8 9bbc 33b6 25be 8484 343e 1390 d03d
00000320: ac27 dcbb 15d1 78bc 021e 28bc 2b52 3d3e
00000330: 69f7 c0bc 037f 113d 452d e93d 656b 793d
00000340: 7048 e5bc 20f4 ef3d a09c 26be ce55 8f3c
00000350: 3d50 57be cd9d ac3d 16f5 e13d 6d7d 6ebd
00000360: c165 30be 61c1 8abd 15de 4e3d 4ab9 20be
00000370: e161 e9bc 9a62 93bd d977 01be 364a 973d
00000380: 01cc 00be b41e 6f3d 9c0a cbbd db65 8a3c
00000390: bcff 183e c52f 0fbe d5ff f3bd 990e 903d
000003a0: 1b1a 633d d6fd 00be 9060 8c3d df66 f8bd
000003b0: 74ee 2ebe cb09 c0bd 0396 183e 264d 193d
000003c0: 7bcd 043e f061 ff3c 0175 c1bc 39c5 343e
000003d0: df5c b13d df69 6f3d d95b 26be 7dbc 03be
000003e0: 2b55 0c3e a508 3f3e b6d2 423d 1056 a43d
000003f0: c31e 19be 16ac 6dbd d35a 23bd 6de2 c9bd
-0.010927527 -0.11089454 0.15815657 -0.052873485 -0.12902892 -0.16129254 0.0411915 -0.15667127
0.10177214 0.07024213 0.19050536 -0.12922934 0.028989771 0.03488125 0.02849173 0.100339085
-0.0021526262 -0.06394205 0.14267069 -0.12135348 -0.14991072 0.0985948 -0.05587061 0.15428337
-0.13091947 0.1461287 0.037561834 -0.04710756 0.13619126 -0.077063926 0.0055665434 -0.07650981
0.07549638 0.056833208 0.14498097 -0.105697565 0.0432084 -0.0081997365 0.15425485 -0.14209685
-0.06531256 0.15488677 0.06505937 -0.05428947 0.0690377 0.052155547 -0.06867959 -0.16153114
-0.1750317 0.09970856 -0.024961809 0.07770689 -0.164387 0.1590923 0.07037807 -0.012124751
-0.0819021 -0.027239196 -0.13668105 -0.16356528 -0.07338707 0.10998195 -0.16724592 0.15657139
0.09923567 -0.13628252 0.16775894 0.055238567 -0.027288415 0.023253003 0.04398183 0.13090666
0.1899218 0.041724067 -0.02405851 0.0146110365 0.03845605 -0.07644565 -0.08184067 -0.19975594
0.18064663 -0.07156415 -0.012280477 -0.15447325 -0.0009865835 0.1667116 -0.14794321 0.1052429
0.19256549 -0.16941246 0.008936384 0.040730532 0.018325986 0.015080959 0.17006424 0.17464967
0.023119474 0.0751535 -0.06033874 -0.06457885 -0.062278017 0.14910522 0.21024524 0.15517679
0.046758097 0.110222526 -0.05795231 -0.0011522577 -0.17913336 0.059371512 -0.115020856 0.16644424
0.014139839 0.099540114 -0.042546697 0.045966994 -0.17307594 -0.18001907 -0.10690639 0.19762674
0.085220456 0.1048937 0.19654305 0.093527734 0.087369226 -0.058271427 -0.11195329 0.104868874
0.15342416 -0.16623485 0.054776702 -0.052889004 0.16600052 -0.037719734 -0.047072962 -0.038494673
-0.057972606 0.15341283 -0.092848495 0.04687181 0.004149661 0.13845983 0.08781757 -0.14278848
-0.011827904 0.0007179115 -0.03331786 0.15853341 0.19472389 -0.13729735 -0.0548656 0.19214158
0.049252067 -0.07546135 0.10828011 -0.03763995 -0.086852446 -0.19913921 0.11496185 -0.059509326
-0.15030372 -0.1494458 -0.04134512 0.1259603 0.108825706 0.11597077 -0.076175384 -0.14808744
-0.042027585 -0.086820155 0.07511159 0.118846014 -0.05970275 -0.19110678 0.15287195 0.0651467
-0.11394898 -0.059233274 -0.026798284 -0.11001541 0.15430042 0.046825323 -0.13387649 -0.12870774
-0.09358747 -0.19625406 -0.024382016 -0.06474433 -0.112347856 0.016432112 -0.09720138 0.10081858
0.09987185 -0.065193914 -0.089912206 -0.195552 -0.019008921 -0.16182785 0.17628676 0.1018373
-0.0067185964 -0.015186568 -0.010261061 0.18488376 -0.023555474 0.03552152 0.113855876 0.060893435
-0.027988642 0.11716485 -0.16270685 0.01749697 -0.21026702 0.084285356 0.110330746 -0.058225084
-0.17226316 -0.06775165 0.050504763 -0.15695682 -0.028489055 -0.07196541 -0.12643375 0.073872015
-0.12577821 0.05837889 -0.09914133 0.016894272 0.14941305 -0.13983066 -0.119140305 0.07034034
0.055444818 -0.1259683 0.06854355 -0.12128996 -0.1708315 -0.09376868 0.14900975 0.03742709
0.1296901 0.03117463 -0.023615362 0.1765336 0.08660292 0.058450576 -0.16245975 -0.12864871
0.13704364 0.18655641 0.04756423 0.080242276 -0.14953141 -0.058025442 -0.03988154 -0.098576404

conv1.0.bias f4 [16]
00000000: d0ac c03d 169c 073e db0f b63d dd52 eb3c
00000010: 7d51 3bbe 6406 c7ba 578f 003e d778 123d
00000020: a938 54be f071 a53c ae58 003e 60a7 0ebe
00000030: 2292 1c3e 4d4c 2abe 72f0 fa3a 64bf 433e
0.09407961 0.13243136 0.08889743 0.028726036 -0.18292804 -0.00151844 0.1255468 0.035759773
-0.20724739 0.020195931 0.12533829 -0.13931036 0.1529012 -0.16630669 0.0019145145 0.19115978

conv1.3.weight f4 [16]
00000000: 3a87 793f 20eb 7d3f c430 823f d132 703f
00000010: c15f 833f a8f5 813f 3ce6 7d3f eb2a 7a3f
00000020: 9178 763f f20e 853f fe5a 763f 5d4e 8a3f
00000030: 9eea 763f 5f19 843f a3c3 763f 8153 7e3f
0.97471964 0.991869 1.0171132 0.9382754 1.0263597 1.0153093 0.99179435 0.9772174
0.9627772 1.0395186 0.96232593 1.0805165 0.9645175 1.0320243 0.9639227 0.99346167

conv1.3.bias f4 [16]
00000000: d17f f2bb 59b4 ae3d 7589 e8bc 1b6b 603c
00000010: e700 623d a479 4abd e83c 843d 27a8 a8bc
00000020: e906 d43d 7cc6 333d 22d2 9fbd a6b4 a13b
00000030: 474b 33bd df09 813d 2261 43bb afdd 19bd
-0.007400491 0.08530492 -0.028385857 0.013697411 0.05517664 -0.04943241 0.064569294 -0.020587994
0.103528805 0.04389046 -0.078037515 0.004934865 -0.043772962 0.06300711 -0.0029812534 -0.03756493

conv1.3.running_mean f4 [16]
00000000: 2cbe fb3d a129 543e a4b6 033e e8a4 c33e
00000010: bb04 b63c 5c09 783c 2407 ac3c 8fee 803d
00000020: de17 1835 5b8b 043d d12d b53e f52e 893c
00000030: a2a5 163e 0538 733c 1234 bd3d 7ae2 013e
0.12292132 0.20719005 0.1286264 0.3821175 0.022219053 0.01513895 0.020999499 0.062955014
5.6659144e-07 0.032359462 0.35386518 0.016746024 0.14711621 0.014844899 0.09238447 0.1268405

conv1.3.running_var f4 [16]
00000000: 4aef d53a e328 0e3b 13ff 6e3b e339 4d3d
00000010: 8ea4 e83a d133 6e3a 9322 ed3a 3752 d73a
00000020: 398c a932 b9f8 f33a 8501 de3c 7e6a a23a
00000030: 48a7 733a 2b9e 893a 08b5 ba3b cfd9 203b
0.0016321924 0.002169185 0.0036467954 0.050104033 0.0017749236 0.0009086701 0.0018091969 0.00164277
1.9737955e-08 0.0018613554 0.027100334 0.0012391356 0.0009294641 0.0010499408 0.00569785 0.0024543887

conv2.0.weight f4 [32, 16, 3, 3]
00000000: 06af acbc 8b80 30bd 706a 38bc b32c b1bc
00000010: 47a3 583d e44d 6e3c 9078 183d 75f8 cbbc
00000020: 63dc 34bc bafd 24bd e0fa b2bd dde3 5bbd
00000030: 266a 31bc 6bb5 0b3d f909 10bd 5944 d9bc
00000040: 8bae 3ebd 2d02 393d ebae b53d 0c84 1fbd
00000050: 93da b6bd 1ef2 853d 5668 683d 277c 8ebd
00000060: 81f2 9ebd 70cc 50bd cc6a 87bd 35dd ad3d
00000070: fa9c 3b3d bebf 70bd 6fa1 40bc 5e85 773d
00000080: 052a c3bc 4726 ef3c 6cd4 5e3b 2c9e 163d
00000090: ed2a 093d 76d8 193d 3553 fdbc 3472 e3bd
000000a0: 25ce 7fbc 68b2 3d3c 03f7 64bd 70b6 5dbd
000000b0: 80bc 903c be24 973c 8561 8b3d 0289 ac3d
000000c0: ba4f 34bd f88d 813d 58ba 2b3d ebc2 b63d
000000d0: c799 d23d 0c3d 943d 8d0a 733d f63b 703c
000000e0: f1d2 39bd 7609 0cbd 67be 263d 70df 00bd
000000f0: 3a61 393d aa31 063d b650 543d d071 843d
00000100: c4de 67bd ac39 91bc cdb4 953d be7f 8b3d
00000110: 3816 10bd 0c2e 383d 1d6a 5ebd 8a5f e8bc
00000120: befe 64bc 3ffe ffbd dbce 2ebd 920e f8bd
00000130: f6d6 20be eaf0 e3bd c198 c3bd 215f 45bd
00000140: 1007 0dbe e8d3 09be 02d7 82bd cf32 723c
00000150: 538b 8fbd 862d a13a 4a2e a73c 4326 efbd
00000160: 7c6c 02be 726e 823c a7cd 903d cc93 a9bc
00000170: 4caa 40bc 3320 80bd b977 9a3c f05b ecbc
00000180: e154 a73d 3c51 143d 7cbf bf3c 6044 cd3b
00000190: 9fb7 903c a9d5 7d3d 7ac0 8fbd 6ab1 8bbd
000001a0: a68c c4bd a1ee 88bc ca07 a13d a106 6b3d
000001b0: a177 303d 0db0 f8bc 55ff 253d 78ba 183d
000001c0: 7175 acbb 7b42 173b 6aa0 3fbd 95c4 a93c
000001d0: 9c16 82bd 94a2 4f3d ecb6 a0bd 83d5 efbd
000001e0: 2b3d 37bd 74c4 98bd d1e7 cbbc fd71 10be
000001f0: 384d 79bd 6b3f 193d 1cd2 a13c a8f5 76bd
00000200: 147a 28bd bb56 0fbd 4cc1 86bd c95b 9ebd
00000210: dfd0 24bd 8f6f cf3c fe14 883c e137 30bd
00000220: 55ba a83b 0846 033d daa7 e03b e4e4 81bd
00000230: 130a 1dbd 572f 323d 9685 8e3d 8364 813c
00000240: 4651 183d 1983 b6bc 1927 cb3c 6943 b23d
00000250: 7c0b 983c 30bf 65bd 8e9f ab3c 04de 503d
00000260: 2d61 823d ef52 0bbd e3ff cc3c 0566 26bd
00000270: 408e 8bbd 5de7 1c3d dd3c d9bd f84b d13c
00000280: 09dc 433a e0d6 b7bc 9dd7 c63c 11ad 9b3d
00000290: 286f 623d 4ea8 c83d a6f1 78bd 6307 013d
000002a0: b11c a73d 12ce 6cbc a6c5 b43d 78ec 853d
000002b0: 3546 5d3b 6840 f8bb fc6c 38bc 46ee a4bc
000002c0: f799 aa3d 366b 223d d277 d7bc d09a b33d
000002d0: b592 b83c 573d 763c 357a 5cbd 468e 003d
000002e0: 7c8c 4c3d e996 3f3d bfac 433d 276b d6bb
000002f0: d6e0 303d ff8d 043c dd80 93bd 7106 393c
00000300: 95ca 6cbd 9df9 eabd f915 90bd 741c b03c
00000310: e612 afbc 1d98 81bd 8f5f 3dbd c6ec 36bd
00000320: a941 653d e1f7 b73d fdad b83c e8d2 783d
00000330: 22e0 2c3c 5199 98bd e2fa 603d 7a77 5ebd
00000340: 63f2 853d 86b7 1f3d d609 49bd 1c55 7abd
00000350: 5905 50bd bd04 61bb 762f afbd e016 b53c
00000360: c969 033d 3f26 e2bc 68f3 3b3d 1ae8 abbd
00000370: d638 223d 3907 e0bb 38bd 48bc 5772 9ebd
00000380: 27c9 3abd afff 153d 7c0a acbd bcf1 75bd
00000390: 9fb8 3a3d 8ea2 ccbb a759 8fbd 301b b43d
000003a0: 4228 b8bc fe59 74bc a761 013d 209c 02bd
000003b0: a307 b93d 9806 cb3d ee21 de3d e1e6 06bc
000003c0: 07ae 993a 6848 ef3d b61e 563d d858 893c
000003d0: f8a4 6e3d 1555 8b3d c4af 85bd 716c 4c3b
000003e0: ea1c b8bc d552 d93c 2634 013d 774b e83c
000003f0: 89e2 993d 6a2d 4b3d afe5 603d 982d 6d3d
-0.021079551 -0.043091338 -0.011255845 -0.02162776 0.05289009 0.014544938 0.037224352 -0.024898747
-0.011038872 -0.040281035 -0.08739257 -0.053684104 -0.01082853 0.03410856 -0.03516576 -0.026521849
-0.046553176 0.04516809 0.088712536 -0.03894429 -0.089284085 0.06540321 0.056740128 -0.06957274
-0.07761098 -0.050976217 -0.06612167 0.084894575 0.045804 -0.05877661 -0.011757239 0.060429923
-0.023823747 0.029193057 0.0034001125 0.03677194 0.033488203 0.03755995 -0.030923465 -0.11105767
-0.0156131135 0.01157818 -0.05589963 -0.054129064 0.017668009 0.018450137 0.0680571 0.0842457
-0.044021346 0.063259065 0.041925758 0.089238964 0.10283237 0.07238206 0.059336234 0.014662733
-0.045367185 -0.03418871 0.040708926 -0.031463087 0.045258738 0.032762207 0.051834784 0.064670205
-0.05660893 -0.017727695 0.07309876 0.06811474 -0.03517744 0.04496579 -0.054300416 -0.02836587
-0.013976751 -0.124996655 -0.04267774 -0.12112154 -0.15707001 -0.11129935 -0.0955062 -0.048186425
-0.13772225 -0.13459742 -0.06388666 0.0147826215 -0.07008996 0.0012296892 0.020407815 -0.1167722
-0.12736696 0.015921805 0.07070475 -0.020700358 -0.011759352 -0.062561415 0.018855916 -0.028852433
0.08170486 0.036210284 0.023406737 0.0062642545 0.017665682 0.06197134 -0.07019134 -0.068209484
-0.09597139 -0.01671535 0.07862814 0.05737937 0.043082837 -0.030357385 0.040526707 0.037287205
-0.0052630235 0.0023080397 -0.046783842 0.02072362 -0.06351969 0.050692156 -0.078473896 -0.11710646
-0.04473607 -0.074593455 -0.024890812 -0.14105983 -0.060864657 0.037413996 0.019753508 -0.06029287
-0.041132048 -0.034994822 -0.06579837 -0.077323504 -0.040238257 0.02532175 0.016611572 -0.04302204
0.0051491656 0.03204921 0.006855947 -0.063424855 -0.038339686 0.043502178 0.06959073 0.015794998
0.037186883 -0.02227931 0.024798917 0.08704264 0.018560164 -0.056090534 0.020950105 0.05099298
0.06366191 -0.03401464 0.02502436 -0.040624637 -0.068142414 0.038306583 -0.10607312 0.02554892
0.00074714475 -0.022441328 0.024272734 0.07601369 0.055281788 0.097977266 -0.06077733 0.031501185
0.08159769 -0.014453428 0.08826761 0.065392435 0.003376377 -0.007576037 -0.011256453 -0.020133149
0.08330148 0.039653026 -0.026302252 0.087697625 0.022530893 0.015029273 -0.053827483 0.031385683
0.049938664 0.04677478 0.047772165 -0.0065435353 0.04318317 0.008090495 -0.07202313 0.01129304
-0.057810385 -0.11473391 -0.07035441 0.021497943 -0.021371316 -0.063278414 -0.04623371 -0.0446594
0.05597082 0.08982826 0.022543902 0.06074801 0.010551484 -0.07451118 0.05492676 -0.05431316
0.06540372 0.03899338 -0.049081646 -0.061116323 -0.05078635 -0.00343351 -0.08553974 0.022105634
0.032083306 -0.027606128 0.045886427 -0.08393879 0.039604984 -0.0068367985 -0.0122521445 -0.07736652
-0.04560199 0.036620792 -0.08400437 -0.06004499 0.045586225 -0.006244964 -0.06999522 0.08794248
-0.022480134 -0.014914034 0.03158727 -0.031887174 0.0903466 0.09913367 0.10846315 -0.008233757
0.0011724838 0.11683732 0.052275382 0.016765997 0.058262795 0.068033375 -0.06527665 0.0031192566
-0.022474725 0.026528755 0.031543873 0.028356297 0.07513911 0.049603857 0.054906543 0.05790481

conv2.0.bias f4 [32]
00000000: b769 68bd 5522 7bbd 2941 8cbd 0807 593d
00000010: 0ed6 67bd c236 89bd 3025 7c3d 3e91 4f3b
00000020: ad3d a9bd c80d 4e3c 268f fd3c 8faf c9bd
00000030: 0169 ebb9 0c96 a7bd 88c8 23be 2778 c3bc
00000040: ab30 4cbd 1add bb3b 916e 9cbd 0d59 923d
00000050: 1b3d 83bc 2510 99bd e9bc 81bd 5ecb 85bd
00000060: a272 f93b 9084 03be d1c6 e6bd 67ab 953c
00000070: c80c 07bd 8791 96bd dcb7 ebbd f316 a5bd
-0.056741443 -0.06131204 -0.06848366 0.05298522 -0.056600623 -0.06699897 0.061558902 0.0031672264
-0.08263717 0.012576528 0.030952048 -0.09847938 -0.00044900927 -0.08182916 -0.15994465 -0.023861004
-0.0498511 0.0057331445 -0.07638276 0.07145891 -0.016020348 -0.074737824 -0.0633486 -0.0653293
0.0076125422 -0.12843537 -0.1126839 0.018270208 -0.032971174 -0.07351976 -0.11509678 -0.08061018

conv2.3.weight f4 [32]
00000000: 29e4 833f 274a 763f 1b0d 843f 16ac 723f
00000010: c7fe 7c3f b15f 793f 34e6 6c3f e6af 813f
00000020: fcec 7c3f 7bcd 813f 344c 803f d73a 7b3f
00000030: d581 833f fe42 823f c668 803f 1e62 823f
00000040: 1e59 693f 33ca 693f 850e 823f f3c8 773f
00000050: f949 7a3f fb9c 733f 313a 833f 2c4a 843f
00000060: ebc0 823f cef7 833f 7e4d 813f be17 713f
00000070: c06a 723f bac9 783f 5788 783f d454 753f
1.0304004 0.962069 1.03165 0.9479383 0.9882626 0.9741164 0.9253876 1.0131805
0.9879911 1.0140833 1.0023255 0.9813666 1.0273997 1.0176694 1.0031974 1.0186193
0.9115161 0.91324157 1.0160681 0.96791 0.97769123 0.9516141 1.0252134 1.0335135
1.0215124 1.0309999 1.0101774 0.9417685 0.9469414 0.9718281 0.9708304 0.9583256

conv2.3.bias f4 [32]
00000000: a6f8 d4bc 986f 5e3e e55c ad39 1fb4 96bd
00000010: d511 9f3d b0ae 82bd 455a 5d3e 4c0e e43b
00000020: 7607 9dbc 4da2 253e 8d94 46bd 2c1e 663e
00000030: fabd c2bd e55a 913d 4a10 503e f4bd 49bd
00000040: ecd1 853d dfc0 a83d 6bce 0dbd 486e 24bd
00000050: ed2f 193d a73d eb3d 8593 463e feaf e93c
00000060: 2a43 063e 777b 4c3e 55fd 5bbd 1232 b5bd
00000070: e02c 203e ebbe 203e 7c66 0c3e 412e 1b3e
-0.025997471 0.21722257 0.00033066343 -0.07358574 0.07767073 -0.06380975 0.21616466 0.006959712
-0.019168597 0.16175194 -0.048481513 0.22472447 -0.095088914 0.07097415 0.20318714 -0.04925342
0.0653418 0.08239912 -0.034620684 -0.040144235 0.03739922 0.114863686 0.19392212 0.028526302
0.13111559 0.19968973 -0.053708393 -0.08847441 0.15642118 0.1569783 0.1371097 0.15154363

conv2.3.running_mean f4 [32]
00000000: fdd9 6d3e 561d 1c3f 7684 773e 9424 353f
00000010: 6d88 c53e 1250 3d3e 67af dd3e a04a 813e
00000020: a6fe b83e 392b 043f 9306 693e 811a 813e
00000030: 3239 c53e f96a c53e 0ba8 403e d406 833e
00000040: f08e 9c3e 0d13 e03e b37a 483e f8d7 0a3f
00000050: 389f b73e 925b cd3e d657 f33e 0c5b 6a3e
00000060: df1b d93e 6efd 9b3e 5154 8b3e 4bda 903e
00000070: cbd8 a93e 4fa0 d53e 247e ba3e 0536 243e
0.23227687 0.60982263 0.24171624 0.7075894 0.38580647 0.18487576 0.43297884 0.25252247
0.3613178 0.5162845 0.22756414 0.25215533 0.385202 0.38558176 0.18814103 0.25591147
0.30577803 0.43764535 0.19578056 0.5423579 0.35863662 0.40108925 0.4752795 0.22886294
0.42404076 0.3046679 0.27212766 0.28291544 0.33173212 0.41723868 0.36424363 0.16036232

conv2.3.running_var f4 [32]
00000000: b44e c53d e05c 863f 4256 033e cb63 5d3f
00000010: edbd aa3e 3e24 d83d cce7 4b3e 7a7a 593e
00000020: 6a16 a53e 7597 4c3e 100c e63d 510e db3d
00000030: 2f12 353e e6e6 eb3e c472 a63e 5c77 e23d
00000040: 9b05 aa3e 942d 9f3e 1e92 dc3d 5102 ec3e
00000050: b23d 3f3e 050e ef3e 4e54 ff3e c6b4 e23d
00000060: 82ea c03e 24fb 1f3e c4ae 053e d268 d53d
00000070: 2d84 ab3e 042b 153f f929 8d3e a99e 1c3e
0.09634152 1.0497093 0.12825873 0.86480397 0.33348027 0.10553788 0.19912642 0.21238127
0.32243663 0.19979651 0.112327695 0.1069609 0.17682718 0.460746 0.32509434 0.11057922
0.33207402 0.3108946 0.10770057 0.46095517 0.18675879 0.46690384 0.49869007 0.11069636
0.37678915 0.15623146 0.13054949 0.104203835 0.3349928 0.5826876 0.27571085 0.15294899

conv3.0.weight f4 [64, 32, 3, 3]
00000000: bf00 1bbc 2a60 0bbc 9a30 e5bc 1862 b0bc
00000010: 2f14 3abc 143a 11bd 69b1 56bd e902 bb3c
00000020: 8285 c8bd 71e4 34bd d194 3f3d af0b 273b
00000030: e20c 0abc 6e70 21bd 3917 31bc cd6d d53a
00000040: 22b8 f8bb 5ac1 853d 06ff 02bd 877a e0bc
00000050: fc5a d1bd 33b1 613b ea2a 22bc fd81 dfbc
00000060: a8a2 babd 3892 eeba 9154 35bd 79b9 033d
00000070: b91f 27bd 3bd6 743d 7995 41bc 675e 22bd
00000080: b7ac e4bb f1e3 eabc 0c80 26bc 7199 2abd
00000090: 176e b2bd f999 9abd 726a 31bd 571b 00bd
000000a0: b695 9abd 9a38 72bd 8267 1bbd 9639 42bc
000000b0: 7c50 f1bc b977 bfbc 8f0c fcbb 7691 82bc
000000c0: 302a 1d3d 82ed 003d 7609 7c3c e12e 52bc
000000d0: 6c8e 153d 7167 b33c 6198 363b 76e3 a8bd
000000e0: df72 bbbc 7149 833c 0533 8abd bd28 3ebd
000000f0: 416d 65bd b7e3 a2bc 4259 85bd 569c 1fbd
00000100: 2d51 15bd a1d0 17bd 6135 2dbd b159 c13c
00000110: 3801 32bd 4a5f a2bc 63ac 633d 3c65 1f3d
00000120: f1ef 54bc e283 5f3d 7807 f43c 8036 2d3d
00000130: dd7e 863c 9220 0abc ffb3 8dbd 9b4b 073d
00000140: 7ff8 5a3c 7286 743c 0886 2fbb d732 8b3c
00000150: e05d 3bbc 91c1 3d3d 6dd6 ba3c f36c 433c
00000160: b40c 9b3c babb 2a3d 8145 8bbc 350c 82bc
00000170: 2d8b 143d d24f 52ba 5e30 96bc 7a08 e23c
00000180: 6d3a 1ebd f3d8 8f3b f242 f3bb 1f61 06bd
00000190: 8483 00bc c036 ad3c dfcd 6dbd 1bad 1ebd
000001a0: 26ad 9dbc 3043 7cbd 4c58 84bd 03e6 f0bc
000001b0: 5903 9bbc f750 0b3d 1153 ab3c dbdb 35bd
000001c0: 70aa 013d 8a09 a1bc ad67 36bd 6d44 4f3c
000001d0: 859e e8bc eaf9 aabd 1f84 6bbd a33f 7cbd
000001e0: 6e7c a9bd f966 4abd afee 90bc 837d 8dbd
000001f0: ce48 c63c 65de febb f551 11bb cf17 4b3d
00000200: d113 ad3c 669a f2bc f492 bbb9 0887 8e3c
00000210: 454c e03b db96 323d b1ef 423a dd98 54bc
00000220: 68fc 17bc 8ff3 de3c ee14 d0bb 2317 693a
00000230: 75b1 c3bc 7e07 2cbd 93b1 9e3c db43 f2bc
00000240: 120b 813d 463b 48ba c08b e9bc 5164 fdbc
00000250: 4244 b63c 60bd 273c 9b04 0cbd 85a1 3b3d
00000260: 6472 213d ed02 073a 1328 0f3d 7535 143d
00000270: c55b eabb 23ed 4f3d 9b6a 4ebd 3410 863c
00000280: 6405 613d 64b3 313d 4928 59bc 374c 323d
00000290: e8c5 e0bc 6200 143d 66a0 ee3c f398 5fbd
000002a0: a6ec fbbc 26fa 67bb 31ae bd3c 979a 73bd
000002b0: 6d0e edbc 0588 1b3d b8ea 26bd 1317 dbbc
000002c0: ce7f 6bbc b92a 8b3b 9711 213d c37e 15ba
000002d0: 30ff aa3c 947d 9cbc 360d 5abd dc2a 28bd
000002e0: 79da 61bc 79d2 60bd 91bf 0abd 5d89 753c
000002f0: 1ec4 5f39 65d7 19bd 6087 4fbd c86d 9b3c
00000300: 56f7 66bb 6183 2dbc e0b5 73bd bbc9 fa3b
00000310: da5a 9a3b 4bf5 60bd d57a c73b 0c5d 33bc
00000320: d856 413d f9dd 0cbd 204a 883d 5a52 313d
00000330: 20f8 07bd f487 14bd 4667 9b39 591c 28bb
00000340: 6f2d 5ebd d8fa b6bd c390 25bd 3ddf f5bc
00000350: 4fb6 95bc 1a4e 21bd 9ecc 32bd 2453 c6bd
00000360: c4fd 4ebd aec4 55bd fc1d aabd cef6 43ba
00000370: 3410 35bc 7d9e 66bd bcd0 64bd ba74 6dbd
00000380: 4881 5cbd ea11 1f3a 8438 4b3d 2f74 d0bc
00000390: aa59 21bd 54b4 763c ae8d babb db18 84bd
000003a0: 1ded 013d e68f 5dbd efba dcbc c453 4e3b
000003b0: ba0e 70bb bb0b f23b 4720 ca39 aa00 9a3c
000003c0: 7dfd 6ebd e7a8 5bbd c6d8 973c 48eb 8dbc
000003d0: 6fa8 28bd 6436 66bd 7d22 fd3b 1fbf 27bd
000003e0: f15c 83bd c2a5 48bd 3342 b0ba c9b6 713c
000003f0: 5a18 10bc 1b39 02bd c53a 2bbd 01a8 7ebd
-0.009460627 -0.008506814 -0.027977277 -0.02153115 -0.011357351 -0.03545578 -0.052415285 0.022828536
-0.097910896 -0.04416317 0.04677278 0.0025489142 -0.008425923 -0.039413862 -0.010808759 0.0016283334
-0.0075903097 0.065310195 -0.03198149 -0.027402176 -0.10222432 0.0034437894 -0.009897927 -0.027283663
-0.091130555 -0.0018201536 -0.044270102 0.032159302 -0.040801737 0.05977462 -0.011815422 -0.03964081
-0.006978597 -0.028673144 -0.010162365 -0.04165024 -0.08712404 -0.07548899 -0.043314405 -0.031276073
-0.07548086 -0.05913601 -0.03794051 -0.01185455 -0.029457323 -0.023372518 -0.007691927 -0.015938502
0.03837031 0.031476505 0.015383115 -0.01282856 0.036512777 0.02189991 0.002786182 -0.0824651
-0.022881923 0.01602623 -0.067480125 -0.04642557 -0.056012396 -0.019883974 -0.06511165 -0.038967453
-0.03645437 -0.0370642 -0.042287234 0.023602339 -0.043458194 -0.019820828 0.055584323 0.038914904
-0.01299666 0.054569133 0.029788718 0.042288303 0.016417915 -0.008430617 -0.06919097 0.033031087
0.01336491 0.014924632 -0.002678277 0.016992016 -0.011435956 0.046327177 0.022807324 0.011927831
0.018926956 0.041682936 -0.017000915 -0.015874961 0.03626554 -0.00080227584 -0.01833361 0.027591933
-0.038629938 0.004389876 -0.007423752 -0.032807466 -0.007843856 0.02114427 -0.058057662 -0.038739305
-0.019247603 -0.061587512 -0.06462154 -0.029406553 -0.018922495 0.03401276 0.020913633 -0.044399124
0.031656682 -0.019657869 -0.044532467 0.012650591 -0.0283959 -0.083484486 -0.057499047 -0.061584126
-0.08275686 -0.04941461 -0.017691938 -0.06908705 0.024204638 -0.0077779763 -0.0022174094 0.049583253
0.021127613 -0.029614639 -0.00035776908 0.017398372 0.0068450295 0.0436009 0.00074362295 -0.012975899
-0.009276487 0.027215747 -0.0063501513 0.0008891692 -0.023888329 -0.041999333 0.019371783 -0.029573372
0.063009396 -0.0007638227 -0.02850902 -0.030931624 0.022249345 0.010238022 -0.03418408 0.045808334
0.039415732 0.0005150277 0.034950327 0.036183793 -0.007152053 0.05076326 -0.050394636 0.016365148
0.05493678 0.04338397 -0.013254234 0.043529715 -0.027438119 0.036133178 0.029129218 -0.054589223
-0.030752491 -0.0035396903 0.02315435 -0.0594736 -0.028937543 0.037971515 -0.04075119 -0.026744401
-0.014373733 0.0042470363 0.039323416 -0.0005702788 0.020873636 -0.019102849 -0.053235255 -0.0410565
-0.013784998 -0.054888222 -0.0338741 0.014986363 0.00021339997 -0.03755893 -0.050666213 0.018973246
-0.0035242639 -0.010590405 -0.05949962 0.0076534427 0.0047105374 -0.05492143 0.0060876408 -0.010947477
0.04720196 -0.034391377 0.06654763 0.043291427 -0.033195615 -0.036262468 0.00029640849 -0.0025651662
-0.054242548 -0.089345634 -0.04042126 -0.030013675 -0.018275408 -0.039381124 -0.04365217 -0.096838266
-0.05053498 -0.05218952 -0.083065 -0.00074754364 -0.011051226 -0.05630349 -0.055863127 -0.057972647
-0.05383423 0.0006068038 0.049614444 -0.025446026 -0.03939215 0.015057642 -0.005693159 -0.06450053
0.03172027 -0.05409231 -0.026944606 0.0031483034 -0.0036629871 0.0073866523 0.0003855249 0.018799145
-0.058347214 -0.053627875 0.018535983 -0.017324105 -0.041176256 -0.056204215 0.0077250586 -0.04095375
-0.064142115 -0.048986204 -0.0013447463 0.014753052 -0.008794868 -0.03179274 -0.041804094 -0.06217194

conv3.0.bias f4 [64]
00000000: cbec f3bd 250f d63c ba16 69bd 302c d2bd
00000010: b27a f43b 5ec3 adbb 77e2 72bd 6a23 16bd
00000020: 80d2 90bb 6274 5fbd 1dc6 5b3d 5f98 aabd
00000030: 0839 04bd e1af 063d 1037 5dbd 22a3 21bc
00000040: 9cf3 58bd 6e2b 71bd 5bc4 12bd 85c3 ccbd
00000050: 9b28 6ebd 1f83 6bbd 6c5d 86bd bad0 41bd
00000060: fd01 e13c 5076 8abc d970 bdbd 7d20 1ebd
00000070: f862 10be afa4 1bbd 5df8 e2bd 17f3 7dbd
00000080: b3d9 42bd bcee c5bd 0504 03bd e2ce 9bbd
00000090: 6107 803b 80c5 60bc 098d dcbd 32a0 a3bd
000000a0: a868 a1bd 566f 543c c092 8abd ac26 dfbc
000000b0: dd8a 97bb 1e84 58bd 75d8 d8bc 6c90 b83b
000000c0: 8f38 473c 921f a2bd a845 17bd 6fe0 82bd
000000d0: 7b3a 8dbd 9f3e afbc fb75 5bbc 2088 7fbd
000000e0: 5ca4 1f3c d818 4fbd 5317 903c c7d9 183d
000000f0: 51e0 8e3c adf3 22bd 41a9 88bd b9f8 c4bd
-0.11910399 0.026130268 -0.05690644 -0.10262334 0.0074609155 -0.0053028306 -0.059298005 -0.036654867
-0.004419625 -0.05455435 0.053655732 -0.08329844 -0.03228095 0.032882575 -0.05400759 -0.009865554
-0.0529667 -0.05887931 -0.03583179 -0.0999823 -0.058144193 -0.057498094 -0.065607876 -0.047318198
0.027466768 -0.016902119 -0.092500396 -0.038605202 -0.14100254 -0.03799885 -0.11082528 -0.061999407
-0.047570895 -0.096646756 -0.031986255 -0.07607819 0.0039071296 -0.013718963 -0.10769088 -0.07989539
-0.0788129 0.012965998 -0.067662716 -0.02724012 -0.004624708 -0.05286037 -0.026470402 0.005632451
0.012159481 -0.07916178 -0.036931664 -0.063904636 -0.0689592 -0.021392165 -0.013394828 -0.06238568
0.009743776 -0.050560802 0.017589247 0.037317064 0.017440947 -0.03978317 -0.066729076 -0.096177526

conv3.4.weight f4 [64]
00000000: 89b7 833f 8c04 883f f270 8f3f f97e 913f
00000010: d4db 923f 875d 903f e7dc 953f 5b48 833f
00000020: d67d 763f 9515 933f d47c 923f 60a8 803f
00000030: 1a27 903f addf 853f 7ddc 873f fdc8 8e3f
00000040: 4f5c 833f 0ae4 853f 7cac 923f e877 8b3f
00000050: 94c7 823f 1a29 953f 44c3 903f 916f 943f
00000060: bfa8 843f a6cb 843f 057e 823f 16d8 933f
00000070: b7c2 833f a7d9 8c3f f6b0 823f 6092 7f3f
00000080: cb40 8a3f fe8f 873f 9c65 833f cb74 823f
00000090: 9b66 793f 3ad7 933f f916 933f 3bed 913f
000000a0: 850f 833f f616 7e3f 8e0c 813f b3b6 8e3f
000000b0: 3fee 863f 86fd 933f d114 8b3f 67b6 7e3f
000000c0: 5eba 903f b067 943f 0ffe 883f d16f 903f
000000d0: a08d 7f3f 3955 8e3f e730 963f fecb 853f
000000e0: 7990 833f f331 913f b1ec 923f b4de 773f
000000f0: 11ca 903f 6595 923f 9dcd 803f f36b 8f3f
1.0290385 1.0626388 1.1206343 1.1366874 1.1473336 1.1278542 1.1708039 1.0256456
0.9628576 1.1490961 1.1444345 1.0051384 1.1261933 1.0458885 1.0614163 1.1155087
1.0262545 1.0460217 1.1458888 1.0895967 1.0217156 1.1653168 1.130959 1.1596547
1.0363997 1.0374649 1.0194708 1.1550319 1.0293797 1.1003922 1.0210254 0.99832726
1.0801023 1.0590818 1.0265384 1.0191892 0.9742219 1.1550057 1.1491386 1.1400522
1.0239111 0.99253786 1.0081956 1.1149505 1.0541457 1.1561744 1.0865728 0.99497074
1.1306875 1.1594143 1.0702533 1.1284124 0.9982548 1.1119758 1.1733674 1.0452878
1.0278465 1.1343368 1.1478482 0.96824193 1.1311666 1.1451842 1.0062748 1.1204818

conv3.4.bias f4 [64]
00000000: 6b9b 313c 3a03 9c3c 641a 6dbc 96e1 d6bc
00000010: 2f52 7cbc bd2a 4abc 2b56 89bc 709a 7f3c
00000020: 5465 973b 07b4 dcbb 7f76 f3bb 3221 cd3b
00000030: 0855 22bd def7 043b 8018 e23c 967a c6bc
00000040: 5a94 a93c 686b 9e3c 972c d1bb 34ef 14bd
00000050: a578 f53b f945 cdbc 439b 95bb 3217 edbc
00000060: 79fe 2ebc cd69 243c 0e69 0b3c fda4 1bbd
00000070: 6212 b2bb baf9 b7bc c418 9c3c 7e4b c53b
00000080: cd8d 39bc 8b82 9e3c 2167 fb3b e9e4 e43c
00000090: a772 71bc c879 8bbc a1fc c0bc 224a e5bc
000000a0: ce9a 133c 4470 253d 6513 273d e076 9ebc
000000b0: 87d3 dc3c 2982 c5bc 6c74 b5bc 557b b23c
000000c0: a352 22bd e04d 38bc 197b 8f3c be71 e7bb
000000d0: c123 143c 5784 93bc 55f6 aebc ed18 243c
000000e0: 4848 e23c fc0b e6bb 05ab 7abc 96e5 223c
000000f0: 4568 d6bb 9f22 07bc c033 163d 3c61 86bb
0.010840277 0.019044507 -0.014471624 -0.026230615 -0.0154004535 -0.012339291 -0.01676472 0.015600786
0.0046202336 -0.006735328 -0.0074298973 0.0062600607 -0.039631873 0.0020289342 0.027599573 -0.024228375
0.020700622 0.019338325 -0.0063834894 -0.036360934 0.0074911886 -0.02505778 -0.004565628 -0.028941724
-0.010680788 0.0100349905 0.008508934 -0.037999142 -0.0054343203 -0.022457946 0.019054778 0.0060209623
-0.011325312 0.019349357 0.007672206 0.027941184 -0.014736808 -0.017025843 -0.023557963 -0.02798945
0.009009076 0.040390268 0.04078998 -0.019343793 0.026956333 -0.024109917 -0.02215024 0.021787325
-0.03962959 -0.011249036 0.017514752 -0.0070631197 0.0090417275 -0.01800744 -0.021357695 0.010015708
0.027622357 -0.0070204716 -0.015299563 0.009942433 -0.0065431916 -0.008248 0.036670446 -0.0041009467

conv3.4.running_mean f4 [64]
00000000: c7ff d53e 0642 213f 1f4d d13e 310a a53e
00000010: fe6d e53e 7d57 d13e 75aa c33e fd17 0a3f
00000020: a256 083f 7b57 f53e 8852 093f df08 bb3e
00000030: 3ae0 f13e 5964 063f 7b49 133f bfaa d03e
00000040: d520 103f 83c9 0e3f de76 c53e e48c db3e
00000050: e70b 063f a62c c63e 5a6d d23e c178 bb3e
00000060: b0b5 1e3f 4f75 263f 07e4 0a3f 308b ec3e
00000070: 24d1 da3e 31a4 f23e 0582 153f e7cc 213f
00000080: 283a 113f 55e1 fe3e 1618 e23e d7b8 233f
00000090: a4ef 603f dd78 c23e 880d bb3e b5f0 ca3e
000000a0: adf1 e73e 2abb 293f 19cb b63e 0d0a c93e
000000b0: 3ab4 103f 7b45 ca3e 8e90 c33e 2ba1 113f
000000c0: b98c f43e d1a7 c33e aa59 033f 8de6 de3e
000000d0: 348f 1b3f 8add f53e 0421 ce3e bd0d 033f
000000e0: 23f7 213f 9521 cc3e 6bbc d23e dca2 463f
000000f0: 5754 f13e 20ea d13e c8ad 033f b302 b73e
0.41796705 0.6299137 0.4087915 0.32234338 0.4481048 0.4088706 0.38215986 0.53942853
0.5325719 0.47918305 0.5364156 0.36530206 0.47241384 0.5249687 0.57534 0.4075527
0.563001 0.5577623 0.3856725 0.4288093 0.5236191 0.3870594 0.41099054 0.36615565
0.61995983 0.6502275 0.5425419 0.46199942 0.42737687 0.47390893 0.5840152 0.6320328
0.56729364 0.4978129 0.44159 0.6395392 0.8786566 0.37982836 0.3653376 0.3963677
0.4530157 0.66301215 0.35701826 0.3926548 0.56525004 0.39506134 0.38196224 0.5688655
0.47763613 0.3821397 0.5130869 0.4353527 0.60765386 0.48020583 0.40259564 0.5119284
0.63267726 0.3986937 0.41159377 0.77592254 0.4713466 0.40998936 0.51437044 0.35744247

conv3.4.running_var f4 [64]
00000000: b51c 553f 4afe bc3f 9d5c d73f 236a 8d3f
00000010: 9558 0a40 e3f3 c13f d102 c33f 4a14 8a3f
00000020: f17f a03f 0871 0140 d20e 1040 fcda 253f
00000030: 0a75 1640 5ed4 853f fc37 b53f f76a e43f
00000040: 7855 a13f 6fa5 ca3f b367 c53f c77d f83f
00000050: f84e 903f c99d e53f aa48 f63f 3d82 ba3f
00000060: 42f6 943f 4d9f da3f bcf0 a63f 57ba fd3f
00000070: 2130 713f 4f8c f63f 0ef6 d93f 9a45 a73f
00000080: 1c2c 3740 9d56 843f 009b 693f e771 aa3f
00000090: db5f 9a40 5016 de3f 7bcc af3f 9cb3 df3f
000000a0: a1a7 4f3f ffb1 ac3f 46ce 1f3f eb0a d63f
000000b0: 2679 ae3f 88cd d13f 2f4f aa3f d03f c93f
000000c0: 97ae d73f a4a8 bd3f 31a4 853f 6cc6 fc3f
000000d0: ccc3 cc3f 38c5 0c40 6324 e33f 850d 503f
000000e0: 2ef4 a63f e378 d73f 6045 bf3f 2f3c 7740
000000f0: d6c9 f93f 579f dc3f 5fef b23f 0167 bf3f
0.8324693 1.4765103 1.6825138 1.1048015 2.1616566 1.5152553 1.5235234 1.0787442
1.2539045 2.0225239 2.2509046 0.6478727 2.3508935 1.0455434 1.415771 1.7845143
1.2604208 1.5831736 1.5422271 1.9413384 1.1274099 1.7938777 1.9240925 1.4570996
1.1637652 1.7079865 1.3042216 1.9822491 0.94214064 1.9261569 1.7028215 1.3068116
2.8620672 1.0338932 0.91252136 1.331601 4.824201 1.7350559 1.3734277 1.7476687
0.81115156 1.349182 0.62424123 1.6722082 1.3630722 1.6390848 1.3305415 1.5722599
1.6850156 1.481709 1.0440732 1.9748054 1.5997252 2.1995373 1.7745479 0.8127063
1.3043268 1.6833767 1.4943047 3.8630483 1.951472 1.7236127 1.39793 1.4953309

fc.0.weight f4 [32, 64]
00000000: e517 dd3d 3fa0 2f3e 038f 273c 20a7 54bd
00000010: fe8a 67be 8aa0 013c 2501 a2bd 8d79 83bc
00000020: 9a52 633d 605c b7bd 23c4 13be 9697 d6bd
00000030: 534c f4bd 203b 713d a137 ee3d 0e21 32be
00000040: 5c7a aa3c 6f20 343d a0ea 1bbe 3220 d8bd
00000050: 7a1d 85bd e073 17bd 2e5e 3cbd 1430 6dbe
00000060: 64cc a63d c939 0f3c c3fd 5abd 8a9b cfbd
00000070: 0d19 c93d 7a6a 68bd 8f32 e239 187e 103e
00000080: 546b 5c3c a2fa 383d f203 923d cc3d 043e
00000090: 3beb a63d 225f 2fbe f936 35bd 9ea8 42be
000000a0: 9a0a 6f3d 9921 293d 0ca6 93b9 2229 cdbd
000000b0: 34d1 073e ac7d 49be 03f4 f8bd 8a7c cabc
000000c0: d4a8 3e3b 21f8 09be 7de2 c03c 7cb2 11be
000000d0: 71fe 993d 40ea 18be 3b14 91bd b9c6 033e
000000e0: b707 743d b975 94bc 67e7 3ebe 909d 1ebd
000000f0: 2842 87bd 5a84 09bd f89a 243b 11f4 11be
00000100: a051 4ebd 6fc3 013c 71a1 adbd cddf 29be
00000110: 03c0 74bd 6113 d239 a3f1 0abe 5ea0 a53d
00000120: bae3 a5bd 3297 1dbe 9963 1c3d bde6 3dbd
00000130: 3b9d babd 9837 e23d db25 253e 7955 bdbd
00000140: 0539 023e 6404 893d c384 c3bd 30b9 73bb
00000150: 97af ebbc cf27 3bbe f26b 3bbe ef3a 40be
00000160: 11c5 37bb 0ae3 f13d 8967 cf3c 35a3 0fbe
00000170: bc52 ee3d a856 1dbe 9bdc d13c f7f1 52bd
00000180: 3e55 34bd ce79 293e f59f 073e 3ea1 153e
00000190: ee73 6a3d 159c c1bd f7d7 0fbe 8d6d 43be
000001a0: 070f 65bd 30e6 df3c 99c6 d13d 47b1 5a3c
000001b0: 9795 89bc d61a d8bd c84d d73c df85 e63d
000001c0: a78e 49be d107 72bd 81f5 63bd 3d06 1fbd
000001d0: 4c01 c83d 9e95 7bbd a5d9 67bd 6cd5 253e
000001e0: 8873 0b3e b5c9 97bd cde5 babd 93ea 9c3a
000001f0: 7a16 13be 4827 eabc e3f3 fa3c 1a5a 98bd
00000200: f90d c53b f003 893d 2a8e fbbd f409 fdbd
00000210: a514 32be b084 3dbd 7c73 43be b574 383d
00000220: ca1b 8f3d cd4d f9bc a822 d8bd ef66 bc3d
00000230: e165 08be e9a0 af3d fd2e c33d d827 efbd
00000240: 0f08 463d 9d76 a73d d998 6e3c 24cf 25be
00000250: eced 093d a679 0bbe 6e06 27be 5eeb 1dbe
00000260: b70f 21bd 87f4 bcbb 4602 033e 7928 dfbd
00000270: 7dde cc3d d7c2 bebb 74a0 153e fb94 78bd
00000280: c1d8 d0bd 7747 973d ab06 32bd 48d5 b73d
00000290: 0e9d a1bd e9e6 14be c022 55bd 269a 3abe
000002a0: cb45 143d 3c86 43bd 203a cd3d 3baa b3bd
000002b0: 5537 ba3c 5db5 35be 914a aabb 1c27 a1bd
000002c0: 399e 823c 770e 81bc 225a d43d 9e3c fabd
000002d0: 24fa 063e fc07 1cbe 83fb bcbd c104 193e
000002e0: 3835 883d 8ddc 44be a790 65be f946 b83d
000002f0: 5f8e 11be fcd9 cebd ac70 333c 2f37 0bbe
00000300: aff0 e5bd 508e d6bd 1a8e de3c 41af 8a3d
00000310: d885 3f3e 9203 313e 0a8f 163e 905b c0bd
00000320: b482 323d f660 3a3e 3ea4 ab3d f598 dbbd
00000330: 0c4c 0a3e a206 bbbd 91df 17be e522 d93d
00000340: 4a84 f7bd f6ed d73b 7cdc ca3c 02d9 f93d
00000350: f23b a8bd 1759 423e e456 7c3d 9730 f53d
00000360: 8d55 173d 89a4 5d3d debb b0bc 3d97 8abc
00000370: 20ba 263d fa01 3b3e f0b9 0a3b 9497 dbbd
00000380: 09fa 073e 308d 5cbd 6568 20be 6c5d 97bd
00000390: 2c3d a1bd 5a86 9c3d 207c 6b3d 4122 603d
000003a0: 13ba 193d 7404 13be 24fc 2b3c b847 0e3e
000003b0: 92ac 9ebd 80fb 503e 9bac 4ebb d8bb 26bd
000003c0: 9f88 7e3c 3c5c 423d a8eb 8fbd 8f99 323d
000003d0: de9a 4fbc ed89 363e dfdb 2f3e d034 d5bd
000003e0: 1d58 02be 114e 973d a1ba a23c 40f2 03bd
000003f0: 29ff a1b9 f14f 4a3e 8b36 59bd 70fc 8a3d
0.10795573 0.17150973 0.010226968 -0.051917195 -0.22611615 0.007911811 -0.079103746 -0.01604917
0.055498697 -0.08953166 -0.14430289 -0.104781315 -0.1192862 0.058894277 0.11631704 -0.17395422
0.020810299 0.043976244 -0.15226221 -0.10553016 -0.06499763 -0.03697574 -0.045988254 -0.23162872
0.08144453 0.008741804 -0.053464662 -0.101370886 0.09819231 -0.05674217 0.00043143748 0.14110601
0.013453323 0.045160897 0.07129659 0.12914199 0.081503354 -0.17126134 -0.04424188 -0.19009635
0.05835972 0.041291807 -0.0002816174 -0.10017611 0.13263398 -0.19676846 -0.121559165 -0.024717588
0.0029092329 -0.1347356 0.023545498 -0.14228243 0.07519234 -0.1493311 -0.07083937 0.12868775
0.05957767 -0.01812254 -0.1864296 -0.038724482 -0.06604415 -0.033573486 0.0025116783 -0.1425326
-0.050370812 0.00792013 -0.08478058 -0.1658928 -0.05975343 0.0004006876 -0.1356874 0.08087228
-0.08100076 -0.15389708 0.03818092 -0.046362627 -0.091120206 0.1104576 0.16127722 -0.09244818
0.12717064 0.066902906 -0.09546807 -0.0037189238 -0.028770251 -0.18276905 -0.18302897 -0.18772481
-0.0028041045 0.118108824 0.025317924 -0.14027102 0.11636874 -0.15365088 0.025617888 -0.051500287
-0.044026606 0.16550371 0.13244613 0.1461229 0.057239465 -0.094535984 -0.14047228 -0.19084759
-0.055922534 0.027331442 0.102429576 0.01334793 -0.016794963 -0.105519935 0.026282206 0.11256003
-0.19683324 -0.059089486 -0.055654053 -0.03882431 0.09765872 -0.061421983 -0.056604046 0.16194695
0.1361829 -0.074115194 -0.09125862 0.0011971764 -0.14364043 -0.028583184 0.030633872 -0.074390605
0.0060136286 0.06690204 -0.12282975 -0.12355414 -0.17390688 -0.04626912 -0.19087023 0.045033175
0.06987722 -0.030432606 -0.10553485 0.091993205 -0.13320114 0.08575613 0.09530447 -0.116775215
0.04834753 0.081769206 0.014562809 -0.16192299 0.033674166 -0.13620624 -0.16311046 -0.15421817
-0.039321627 -0.0057664546 0.12793836 -0.108963914 0.10003374 -0.0058215666 0.1461199 -0.060688954
-0.101975925 0.07386678 -0.04346339 0.08976227 -0.07891284 -0.1454121 -0.052035093 -0.18222865
0.036199372 -0.047735438 0.10020852 -0.08772703 0.022731462 -0.17744966 -0.0051968773 -0.07868788
0.015944587 -0.015753968 0.10368754 -0.12218593 0.13181359 -0.15237421 -0.092276596 0.1494322
0.06650776 -0.19224758 -0.22418462 0.08997912 -0.14214467 -0.10100171 0.010952156 -0.1359527
-0.112275474 -0.10476363 0.027167369 0.06771708 0.18703401 0.17286518 0.14703003 -0.09392464
0.04358168 0.1820105 0.08380936 -0.107225336 0.13505572 -0.091321245 -0.14831378 0.10602359
-0.12085779 0.0065896465 0.024763338 0.12199594 -0.08214559 0.18979298 0.061606303 0.119721584
0.036946822 0.05411199 -0.021573957 -0.01691782 0.040704846 0.18262473 0.0021167956 -0.107222706
0.13278975 -0.053845584 -0.15664823 -0.07390866 -0.07872996 0.07642813 0.05749142 0.054720167
0.03753097 -0.14357167 0.010497127 0.13894546 -0.07747759 0.2040844 -0.0031535986 -0.040706486
0.015535503 0.047451243 -0.0702737 0.043603476 -0.012671201 0.17826052 0.17173718 -0.10410464
-0.12728925 0.07387937 0.019864382 -0.03221345 -0.00030898422 0.19757058 -0.05303053 0.0678643

fc.0.bias f4 [32]
00000000: 467f 73bd 6b68 a2bd 8f2d 8ebd 33d7 463d
00000010: 656f 00bd feac bebd 5f9c 6e3d f662 49bd
00000020: d09b bcbd 6279 14bd aca6 7fbd 739b 97bc
00000030: 7861 c53d 3267 fbbb af43 87bd f5f1 313d
00000040: c996 a23d 4beb c7bd 0ff7 d3bc c49c 283c
00000050: 542a a0bc 4f12 e33d 3267 343d b84d eebd
00000060: d1b1 7f3b 4da1 f03d de31 b03d d2d4 b63d
00000070: e692 d63d 5cca ce3d 50de 51bc e0c7 b33c
-0.05944755 -0.079300724 -0.06942283 0.048545074 -0.031356234 -0.093103394 0.058254596 -0.049166642
-0.092094064 -0.036248572 -0.06241481 -0.018506741 0.09637731 -0.007672214 -0.066047065 0.04344364
0.07938916 -0.097616754 -0.025874643 0.010291282 -0.019551434 0.110874765 0.044043727 -0.116359174
0.00390159 0.11749516 0.086032614 0.08927311 0.104772374 0.10097191 -0.012809351 0.021945894

fc.3.weight f4 [1, 32]
00000000: 2b41 a3bd 9d9d 0abe 88e2 26be 27e9 9e3e
00000010: dd0c 853e 15c3 f1bd 60ea be3d c502 913e
00000020: 1bbb f1bd 7929 21be 67bf 8b3e 7f41 ddbd
00000030: 29f7 4cbe 39ba 39bd 1a72 7fbd 4ee3 9fbd
00000040: 81a7 cabd d441 573e bcdd 51be 82e4 edbd
00000050: 82ac 293e 848b 833e 0719 7c3e 93f1 973e
00000060: 38df 22be 37fd 40be 7885 283e 4594 14be
00000070: f029 733e 7c15 c3bd 8590 34be 2b97 09be
-0.07971414 -0.13536687 -0.16297352 0.31037256 0.25986376 -0.11804787 0.09322047 0.28322425
-0.11803266 -0.15738477 0.27294466 -0.10803508 -0.20016159 -0.04534361 -0.062364675 -0.07807027
-0.0989523 0.21021205 -0.20494741 -0.1161585 0.16569713 0.2569238 0.24618922 0.29676494
-0.15905464 -0.18846594 0.16457164 -0.14509685 0.23746467 -0.09525582 -0.17633255 -0.13436572
