5 第五讲 机器学习训练模型的数学范式v16/models/model90.pth (torch, 112459 bytes, 21 tensors)

conv1.0.weight f4 [16, 3, 3, 3]
00000000: afd5 5bbc e091 f3bd 7c8e 143e 9ed0 56bd
00000010: ad04 09be 13da 30be 6b3a 333d 4846 23be
00000020: 7cbc c03d f1f8 933d 9d2b 413e c3e4 0abe
00000030: c601 0b3d beac 143d fc3c c03c 2843 dc3d
00000040: 0d65 a03a 3be0 84bd 794e 153e 2780 f7bd
00000050: a2e4 1cbe 418d d63d aa1f 55bd 7cf0 1b3e
00000060: 22a1 fabd 2e7e 1b3e db55 233d b0ad 52bd
00000070: 4298 0d3e fe6f 8ebd 6422 9bbb 9cf2 96bd
00000080: d6fc b23d 3657 693d 815c 173e a95f bcbd
00000090: c408 093d cbfe 08bc 81de 223e 51fa 1fbe
000000a0: 3524 83bd f361 293e 758c 813d 49d6 4fbd
000000b0: 88de a83d 574f 383d d058 8dbd e088 21be
000000c0: 5d47 3ebe 1592 ca3d 611d 9cbc 6f43 983d
000000d0: 4de7 27be 5f30 293e ba42 a13d 3b2f 40bc
000000e0: a922 bbbd d489 8fbc 7281 09be 4231 2ebe
000000f0: cec7 84bd aecc e53d abc0 2ebe 8aae 223e
00000100: ea18 c13d c958 1abe 1603 303e 6509 593d
00000110: 7752 1abd f0fd da3c ad34 2e3d 2914 003e
00000120: 4af6 423e ae29 1a3d 8475 11bd 1798 8f3c
00000130: 75c6 1a3d 8230 a9bd 6913 a3bd ab14 4cbe
00000140: 4be1 373e 7459 98bd 85a3 5dbc c87c 1ebe
00000150: 84d4 8d3b 284d 2f3e 20cb 1cbe f509 e93d
00000160: a096 443e 8a07 3cbe 5c3d acbc 0905 b43c
00000170: ad83 3a3c 05d9 2f3b 01bd 283e 5605 233e
00000180: 9ce6 aa3c c32b 7d3d 1d32 bbbd 6771 fcbd
00000190: 9a72 c2bd 7915 193e cb51 333e 52eb 133e
000001a0: 2a89 113d c3aa b73d 79de a3bd 810d 16bd
000001b0: af51 39be 7a34 863d e2e6 d2bd 40f2 2b3e
000001c0: 00fa b53c 4b96 e83d f806 24bd 3da0 5b3d
000001d0: c7ec 21be 750c 3dbe 54cf d3bd f77d 533e
000001e0: ced6 ab3d 8a96 e03d ebb3 533e d9f1 bd3d
000001f0: 221f ba3d db81 44bd 9387 f2bd 3a24 d93d
00000200: ffdb 233e c640 2dbe c07b 693d c1b3 39bd
00000210: d6d8 273e 3395 15bd 369a 20bd a452 20bd
00000220: 9d60 72bd 84c2 1b3e 8487 c2bd 0dac 373d
00000230: 679a 613b 8b0f 0a3e ab26 af3d 30ed 12be
00000240: c101 febb 14f1 7d3b c60c f9bc 922f 253e
00000250: 5331 4a3e a979 08be 767e 5bbd 3681 473e
00000260: c661 5c3d 8e0b a6bd b541 d13d 0219 36bd
00000270: 2001 bfbd 29fd 51be f920 e03d ad08 89bd
00000280: 4ca1 1fbe 5612 1ebe a43d d3bc 9050 043e
00000290: 6373 d33d 24e8 033e 77fb 9dbd c669 1fbe
000002a0: b6b8 09bd 8e83 b4bd c3f7 8f3d df48 063e
000002b0: 1474 76bd 8539 4dbe fd17 253e 1eba 6f3d
000002c0: b273 01be 673b 66bd 294e 0abd b140 f4bd
000002d0: af2f 353e 2a11 723d 44b4 03be b2f6 debd
000002e0: 0f07 b1bd 734a 45be ec3a 27bc a76c 6dbd
000002f0: 4578 d8bd 2d06 a13c f453 c2bd f5b7 d43d
00000300: 8e49 cd3d 669d 85bd d1a7 b7bd 4d5b 48be
00000310: 362e 9dbc 91f0 26be ff4a 3a3e b49c dc3d
00000320: 03e1 ab3a de95 4ebc 10ad e8bb 97b9 413e
00000330: 219b b7bc 0e4f 1b3d 0cae ed3d 1a94 783d
00000340: 1f36 ddbc 5db1 f43d 42e9 2abe 026e 6c3c
00000350: cebc 59be f893 9d3d e537 d73d 58ac 83bd
00000360: 6be8 21be aa5f cebd e50e e23c 1042 10be
00000370: 4fac fcbc 3480 83bd b904 f0bd c8fe a53d
00000380: 103e 00be 40be a93d f669 16be 62e5 8abc
00000390: 9e61 3b3e fda8 00be eaa1 89bd 24a4 b13d
000003a0: d179 873d caa0 b7bd 7117 b33d b3b7 36be
000003b0: 82f9 5abe 6d45 80bd ae8e 253e 9ef0 983d
000003c0: 2195 123e 7a0b 243d 9280 ab3b 7656 403e
000003d0: 15bf ba3d dcf2 733d 056e 18be 1040 fabd
000003e0: d1e0 0e3e 1bc9 4b3e 573a 603d 3f79 aa3d
000003f0: a379 16be f332 77bd bf81 33bd 9b73 c1bd
-0.013417645 -0.11893058 0.14507478 -0.052445047 -0.1338069 -0.17270689 0.043756884 -0.15944779
0.094109505 0.07225216 0.18864293 -0.13563828 0.03393724 0.036297552 0.02346658 0.107549965
0.0012237147 -0.06488081 0.14580716 -0.1208499 -0.15321591 0.10476161 -0.05203215 0.15228456
-0.12237765 0.15184852 0.0398768 -0.051435173 0.13827613 -0.069549546 -0.0047343243 -0.07370493
0.08739631 0.056967936 0.14781381 -0.09197933 0.033455625 -0.008361529 0.15905191 -0.15622832
-0.0640339 0.16541271 0.06325618 -0.050741468 0.082455695 0.04499754 -0.06901705 -0.1577487
-0.1858191 0.09891144 -0.019056978 0.07434737 -0.16396828 0.16522358 0.07874055 -0.011730011
-0.0913747 -0.017521776 -0.13428286 -0.17010978 -0.06483422 0.1122068 -0.17065684 0.15886894
0.0942858 -0.15072931 0.17188677 0.052987475 -0.0376763 0.026732415 0.042530704 0.1250769
0.19039264 0.037637405 -0.035512462 0.017528577 0.03778692 -0.08261205 -0.079626866 -0.19929759
0.17957036 -0.07438937 -0.013527756 -0.15477288 0.0043283124 0.17119277 -0.15311861 0.11378852
0.19198084 -0.18362251 -0.021025352 0.021975057 0.011383933 0.0026832235 0.1647835 0.15920004
0.020861916 0.061809313 -0.09140418 -0.12326317 -0.09494515 0.14949597 0.1751167 0.14445236
0.0355312 0.08968117 -0.08001418 -0.036633972 -0.18097566 0.06552978 -0.10297944 0.1679163
0.022213936 0.11356791 -0.04004571 0.053619612 -0.1581298 -0.18461783 -0.10342279 0.2065352
0.0839058 0.10966213 0.20674102 0.092746444 0.09087969 -0.047975402 -0.11842265 0.10602613
0.1600189 -0.1691924 0.057002783 -0.045337442 0.1639131 -0.03651924 -0.039209567 -0.039141312
-0.05917417 0.1521092 -0.09498504 0.044841815 0.0034424306 0.13482492 0.08552297 -0.14348292
-0.007751674 0.003874843 -0.030401599 0.16131428 0.19745378 -0.1332766 -0.0535874 0.19482884
0.05380418 -0.08107673 0.10217611 -0.044457443 -0.093263865 -0.20506729 0.10943789 -0.06691108
-0.15588874 -0.15436682 -0.025786228 0.12921357 0.10324743 0.12881523 -0.07713979 -0.15567693
-0.03362342 -0.088141546 0.07029679 0.13113736 -0.060169294 -0.20041473 0.16122432 0.058527105
-0.1264179 -0.056208994 -0.033765946 -0.119264014 0.17693971 0.0590984 -0.12861735 -0.10886897
-0.086439244 -0.19266681 -0.010206919 -0.057964947 -0.105698146 0.019656265 -0.09488669 0.103866495
0.10023795 -0.06524162 -0.08967555 -0.19566078 -0.019187074 -0.16302706 0.18192671 0.10772076
0.0013113323 -0.012608973 -0.007100709 0.18918453 -0.022412838 0.03791719 0.116054624 0.060688116
-0.027003346 0.11947892 -0.16690543 0.014430525 -0.2126343 0.076942384 0.10508708 -0.06429356
-0.15811317 -0.1007684 0.027594993 -0.14087701 -0.030843882 -0.06420937 -0.11719651 0.08105236
-0.12523675 0.082882404 -0.14688858 -0.016955081 0.18298957 -0.12564464 -0.06720336 0.086738855
0.066150315 -0.08966215 0.087447055 -0.17843513 -0.21384242 -0.06263242 0.16167709 0.07467769
0.143147 0.040050007 0.0052338326 0.18782982 0.09118477 0.05955778 -0.14885719 -0.1221925
0.13952948 0.19900934 0.054743137 0.08323907 -0.14694838 -0.060351323 -0.043824907 -0.09445878

conv1.0.bias f4 [16]
00000000: 03cc 923d 0095 063e b07c 9c3d 0276 893d
00000010: 3f56 40be 3cc9 81ba 7dca fb3d b5da 003d
00000020: 542c 53be c865 963c 15d8 3b3e 4000 fbbd
00000030: c53c 2b3e 5bf5 27be 7f8a 383c ae78 6a3e
0.071678184 0.13142776 0.0764097 0.06711961 -0.187829 -0.0009901891 0.12294481 0.031458575
-0.20622379 0.01835908 0.18344148 -0.12255907 0.167224 -0.1640219 0.011263489 0.22897598

conv1.3.weight f4 [16]
00000000: cbbf 763f 7bbe 7a3f a583 833f cd3d 693f
00000010: fedb 823f 610b 823f 45af 803f ad60 6b3f
00000020: c0d0 713f a47e 853f e29d 703f 7939 8f3f
00000030: d872 6c3f e198 833f c1d7 713f 07ac 793f
0.963864 0.979469 1.027455 0.91109926 1.0223386 1.0159723 1.0053488 0.9194439
0.9445915 1.0429273 0.9399091 1.1189414 0.9236274 1.028103 0.9446984 0.9752812

conv1.3.bias f4 [16]
00000000: b8cc 17bc ed3c 1c3e 29ba cfba bda4 023d
00000010: 5f87 0d3e 041b 2bbd 8ab3 ab3d 1295 ff3c
00000020: 7a92 493e 1332 293d 06ad f6bd 73ea b43c
00000030: f7cd 363b 4cdf 7d3d ec6d 9f3c 6761 d8bd
-0.009265117 0.15257616 -0.0015848327 0.031895388 0.13821171 -0.04177381 0.08383854 0.031199012
0.19684783 0.04130752 -0.1204472 0.02208445 0.002789376 0.06198053 0.019461595 -0.10565453

conv1.3.running_mean f4 [16]
00000000: 5a5f ad3d bd01 623e ad96 e33d 3b0b 973e
00000010: 466f 503d d2e9 663c ca8d ab3c 404f 9c3d
00000020: ca44 2d37 6ccc 233d 8066 db3e eda8 e23b
00000030: 4799 333e 1bfb ac3c a244 7c3d d94b 313e
0.084654525 0.22070976 0.111127235 0.29500756 0.05088737 0.014093833 0.020941634 0.07632303
1.032762e-05 0.039989874 0.4285164 0.00691711 0.1753894 0.02111583 0.06158889 0.1731409

conv1.3.running_var f4 [16]
00000000: 9699 cd3a c9c2 473b 2820 5f3b a051 a83c
00000010: 3f4f a83b 7b6c 723a b0bf f33a 7187 113b
00000020: d1d1 7235 ef03 1e3b 07db fd3c 3859 543a
00000030: e254 8e3a bdf7 c73a 8dd5 a03b 9f77 1a3b
0.0015686031 0.0030481091 0.0034046266 0.020546734 0.0051364 0.0009247732 0.0018596556 0.0022205974
9.045735e-07 0.0024111231 0.03098823 0.0008100453 0.0010859037 0.0015256327 0.0049082697 0.0023569835

conv2.0.weight f4 [32, 16, 3, 3]
00000000: 9df8 8abb 4e30 02bd 786a 5fbc 05a7 ac3a
00000010: 1190 843d 32df 963c 2a60 793d 1f9b 75bc
00000020: afe2 13bc d893 33bd fd83 b4bd 025a 4cbd
00000030: 905a a0bc 652d 023d 61a7 0abd 54b4 fcbc
00000040: 7fd7 48bd 9cdd 393d 22d1 c73d a609 f5bc
00000050: 0f65 c6bd fbb1 a23d 26fb 723d 8f7a 96bd
00000060: d663 6ebd e17c 4cbd 2283 97bd 1435 c13d
00000070: ddef 503d 8070 71bd 766f faba f1ba 843d
00000080: a7e4 cabc 6432 1d3d 95f0 353c ed9d 213d
00000090: 7b02 1e3d 5cd5 143d bb38 0ebd 5d10 e5bd
000000a0: c0b6 94bc 78db c23b 34bb 65bd e2f6 5cbd
000000b0: cbcf 7f3c a9b6 cf3c 9bec 9b3d e61c bc3d
000000c0: 068c 1cbd 7f5c 8a3d e6d0 3c3d a4cc c23d
000000d0: ad70 d73d dc98 983d 1eb4 813d cc4d d43c
000000e0: fbdd c1bc 630f 01bd d0b1 503d 4e9c c1bb
000000f0: 6f22 443d 9def 2f3d 3898 973d 2366 693d
00000100: 6595 8dbd ab2b 24bd 8b7d 813d 56e0 5e3d
00000110: be69 66bd 3abe 0a3d b3c4 9bbd 1930 6bbd
00000120: e2e1 47bd 2e08 29be 8ff3 a9bd cf1f 22be
00000130: aade 49be c99d 1bbe c383 07be 0d7c b2bd
00000140: fbd1 36be f783 08be bda7 60bd 08d2 503d
00000150: cca1 91bd 915c f03b 0f23 583d 3995 e5bd
00000160: 8618 e1bd 655b 5d3d 4b44 b63d 4742 1abc
00000170: f620 18bc 67f7 36bd a138 013d 352c cabc
00000180: 742d ca3d 198f 4b3d 07aa f03c d2f1 0e3c
00000190: 5982 fbbb 2bd7 5e3d e6b0 adbd 44b4 d5bd
000001a0: d58b f5bd 6c75 bfbc 6738 5e3d c28c 3e3d
000001b0: 23d8 5f3d 8d24 95bc dfe1 423d ee29 333d
000001c0: faf8 9ebb b343 2d3b 10ab 27bd 80c1 6e3c
000001d0: 0df8 8cbd 761f 743d 3ddf 8abd 2351 f1bd
000001e0: dd8b 16bd 5b3d 87bd 5699 9cbc 8d31 12be
000001f0: c1ec 55bd 3799 543d 0a78 c63c 7f61 49bd
00000200: 6eb7 afbc bc6c 0bbd 6b36 72bd 3d76 75bd
00000210: c039 16bd 00ac 023d abdc f83c df75 2dbd
00000220: f79c 873b 2bdd d63c 8e92 263c 03b1 85bd
00000230: 2f9d 30bd 8c4c 593d 9412 8b3d 745f 073c
00000240: 648b f73c 038e d0bc 9195 f73c 9283 a63d
00000250: 979d 3e3c 4ee5 62bd d375 8e3c 13c6 373d
00000260: 5e5b 843d 20c0 14bd 3f88 4b3c 11ba 5ebd
00000270: 6791 99bd 625e b33c 62e3 f9bd ffbf b33c
00000280: 0306 39bc 4c2e 01bd e0db 0d3d fc66 c03d
00000290: 0d76 a43d 1b56 e73d aa06 4bbd 65ad 243d
000002a0: dec9 d33d 67d8 4cbb 5619 b73d b53f 913d
000002b0: 00c5 c83a 91c1 82bc 2833 9dbb 8a19 ccbc
000002c0: c420 963d fbfe 393d 7040 f2bc 4759 ad3d
000002d0: f5f5 2a3d 4c04 103d 307a 38bd 4cbd 533d
000002e0: ad35 4f3d 9de3 423d 0441 893d 1fa7 eabb
000002f0: ecaf 673d 2ce7 b43a c684 aabd 08ea 9abb
00000300: 9b58 90bd d26e 10be d792 bfbd 189d 623c
00000310: a023 3cbd 7229 a7bd 3279 dabc 4225 d3bc
00000320: de15 963d afc7 e43d 5d3d 223d 7320 9b3d
00000330: ed0e 043d 4165 6ebd dacb 933d dad6 42bd
00000340: 17c8 933d 6481 413d b3f1 36bd 0d74 81bd
00000350: 9175 67bd d690 053b 36fe c0bd 1536 af3b
00000360: dafe 353c 3e2a 3abd b1ad 533d 96fb ccbd
00000370: b6fc 8f3c 4a89 b8bc f128 06bd 316b bdbd
00000380: 9d04 68bd 877a 1b3d a5a9 abbd d50e 82bd
00000390: 6b19 523d c7a7 03bb 35eb a0bd 3835 c23d
000003a0: 12d2 9dbc e85f a6bc c12c 093d b029 02bd
000003b0: cf38 c03d 8ad5 d23d 6764 de3d d3fd bfbb
000003c0: 6a45 be3b 5791 f13d ff66 6c3d 301c 0a3d
000003d0: 27dd 523d c88b bc3d ac1b 54bd 5f55 3fbc
000003e0: d313 b1bb 6f5e 0d3d 5865 943c b9e5 463d
000003f0: cd42 a23d e659 5f3d 76f9 723d e1fc 6f3d
-0.004241063 -0.03178435 -0.013636224 0.0013172334 0.06472791 0.018416975 0.060882725 -0.014990597
-0.009026214 -0.043842167 -0.08814237 -0.049890526 -0.019574434 0.031781573 -0.03385103 -0.030847706
-0.049033638 0.04537736 0.09756686 -0.029911827 -0.09687244 0.07944103 0.059321545 -0.07347595
-0.05820068 -0.04992378 -0.073980585 0.09433952 0.05101 -0.05894518 -0.0019106704 0.06480969
-0.024767233 0.038378134 0.0111047225 0.03945725 0.038576584 0.036336288 -0.03472207 -0.11184762
-0.018153548 0.005946573 -0.056086734 -0.053946383 0.015613507 0.025355654 0.07613488 0.091851994
-0.038219474 0.067559235 0.04609766 0.09511688 0.10519538 0.074510306 0.06333183 0.025916003
-0.023665419 -0.031508815 0.050950825 -0.0059085255 0.0478844 0.042953122 0.0740208 0.05698217
-0.0691326 -0.040080708 0.063227735 0.054413162 -0.056253187 0.03387282 -0.07605877 -0.057418916
-0.048799403 -0.16507027 -0.08298408 -0.15832447 -0.19713846 -0.15196909 -0.13233857 -0.08715067
-0.17853539 -0.1333159 -0.054847468 0.05098155 -0.071109384 0.0073352535 0.05276781 -0.112101026
-0.109910056 0.05404224 0.088997446 -0.009415216 -0.009285202 -0.044669535 0.031548146 -0.024679283
0.09871951 0.049697015 0.02937795 0.008724647 -0.0076754508 0.05440442 -0.08481006 -0.104347736
-0.119895615 -0.02337142 0.05425301 0.046520956 0.054649483 -0.018205905 0.04757869 0.04374116
-0.0048514577 0.0026438057 -0.040934622 0.014572501 -0.068832494 0.059600316 -0.067808606 -0.11783054
-0.036754478 -0.066034995 -0.019116085 -0.14276715 -0.05222774 0.05190393 0.024227161 -0.049165245
-0.02144977 -0.034039244 -0.05913393 -0.059927214 -0.03667617 0.031902313 0.03037866 -0.04234874
0.0041385847 0.026228508 0.010166777 -0.06527903 -0.043118652 0.053051516 0.06790653 0.008262504
0.030217834 -0.025458341 0.030222686 0.08130564 0.011634252 -0.055394463 0.017390167 0.044866633
0.064627394 -0.036316037 0.01242262 -0.054376666 -0.074984364 0.021895591 -0.12201573 0.021942137
-0.011292937 -0.031538293 0.034633517 0.09394643 0.08030329 0.1129572 -0.049566902 0.040204424
0.103412375 -0.0031256916 0.08940379 0.07092229 0.00153175 -0.01596144 -0.004797358 -0.024914522
0.07330468 0.045409184 -0.029571742 0.08464294 0.04173847 0.035160348 -0.045038402 0.0516942
0.0505883 0.04758035 0.06701854 -0.0071610357 0.056564257 0.0013801805 -0.08326106 -0.0047276057
-0.0704815 -0.14104775 -0.09354179 0.013831399 -0.045932412 -0.08162202 -0.026669119 -0.025774602
0.073283896 0.11170899 0.0396093 0.075745486 0.032240797 -0.058202032 0.07216616 -0.04756818
0.072158985 0.047242537 -0.044664096 -0.06320963 -0.056508604 0.0020380518 -0.09423487 0.0053470233
0.011108125 -0.04545044 0.051679317 -0.10008924 0.017576557 -0.022526402 -0.03275389 -0.09248961
-0.056645025 0.037958648 -0.083819665 -0.06350485 0.05129377 -0.0020089017 -0.07857362 0.09482807
-0.019265208 -0.020309404 0.033489946 -0.031778038 0.093858354 0.102946356 0.10858994 -0.0058591156
0.0058066146 0.117952995 0.057715412 0.033718288 0.05148044 0.09206349 -0.051784202 -0.011678069
-0.0054039746 0.034513887 0.01811473 0.048558924 0.079228975 0.054529093 0.059319936 0.058590773

conv2.0.bias f4 [32]
00000000: 0f6e b7bd 55a4 96bd 8cbc e6bd 2e66 a73d
00000010: 0d46 01be 456a babd 3e1b bd3d 4fc0 5a3c
00000020: 0b25 ecbd 0000 2e3c 9896 f13b 1b3f 31be
00000030: fb23 dabc e588 d3bd 61b7 7bbe 5168 a0bc
00000040: 06ef 90bd f4f0 25bd fe5d afbd 2c6a ca3d
00000050: 4422 973c 0593 f9bd 9985 9ebd e410 a4bd
00000060: 0f61 c73c 5b37 28be e827 dbbd 95e3 f23c
00000070: cf11 e6bd db6d 1ebe 34e5 f4bd 432e febd
-0.08956539 -0.073555626 -0.11266431 0.08173786 -0.12624379 -0.091023006 0.09233712 0.013351514
-0.11530503 0.010620117 0.0073726885 -0.17309229 -0.026628485 -0.10328845 -0.24581672 -0.019580992
-0.0707684 -0.040512994 -0.085628495 0.09883532 0.018448956 -0.12186245 -0.077403255 -0.08011034
0.024338273 -0.16427366 -0.10700971 0.029649535 -0.112338655 -0.15471594 -0.119577795 -0.124111675

conv2.3.weight f4 [32]
00000000: f176 813f b4d4 6f3f b756 813f e55b 6c3f
00000010: e68e 7b3f 7777 773f eba6 713f 43c2 803f
00000020: 85fb 7a3f 57ab 813f ef29 7f3f 5525 7e3f
00000030: 3932 823f 8eca 7d3f 07ee 843f 102b 813f
00000040: 83bf 533f 4e93 733f f080 803f 60f9 703f
00000050: 44a8 723f 6938 6d3f c5d5 803f 2b39 833f
00000060: 18f9 7d3f 0236 833f c7e5 803f e40a 683f
00000070: 7371 723f 4dba 7f3f be7e 723f 43a1 6f3f
1.0114423 0.93683934 1.0104588 0.9232772 0.9826492 0.96666664 0.9439532 1.0059284
0.9804004 1.0130414 0.9967336 0.99275714 1.0171577 0.991372 1.038514 1.0091267
0.827141 0.95146644 1.0039349 0.94130516 0.94788 0.926642 1.0065237 1.0251821
0.9920821 1.0250857 1.0070122 0.9064162 0.9470436 0.9989365 0.94724643 0.9360544

conv2.3.bias f4 [32]
00000000: 53cc 163d a3bb aa3e 78e5 733d 2cff 15be
00000010: c131 1a3e e24e 10be 413d ef3e e744 163d
00000020: b65a b7bd 1ba8 413e 858e aebd 2bcf 063f
00000030: 3264 1cbe 2a8d 4a3e db63 9d3e 44fd 0abe
00000040: 86f5 1b3e 1eac b1bd f2cb b3bc dcd3 9fbd
00000050: 5bce 5e3e 4a7b 413e e8fe 9d3e 18c7 333e
00000060: e561 a53e b7b4 993e aeb1 a3bd e338 e1bd
00000070: b7f9 b83e da93 503e 6c85 843e 0864 d33e
0.036815953 0.3334628 0.05954501 -0.14648122 0.15058042 -0.14092591 0.4672642 0.036686804
-0.089528486 0.18911783 -0.08523277 0.52659863 -0.15272596 0.19780412 0.30740246 -0.13573176
0.15230379 -0.08675407 -0.021947835 -0.07804081 0.21758406 0.18894687 0.3085854 0.17556417
0.3230125 0.30020687 -0.07992874 -0.109971784 0.36128017 0.20368901 0.25883043 0.41287255

conv2.3.running_mean f4 [32]
00000000: 9d30 ea3d a19c 213f d617 2a3e 8cc0 663f
00000010: 6ebb 853e 550b 3b3e 8a56 f03e 245c ba3e
00000020: 6417 b43e fecf 253f a730 1e3e a3b1 cb3d
00000030: c53a fa3e 6697 ea3e b5a1 cb3d 972d 8f3e
00000040: 44c1 653f 5697 ec3e 92d4 723e 3189 0c3f
00000050: 743f eb3e 1417 ce3e 75cc 043f 653f 843e
00000060: ce9d 0a3f 68bf 483e 1fde 973e b1dd 883e
00000070: 29ad 423e 1984 d33e 15fb d83e 964e 533e
0.114350535 0.6312962 0.16610655 0.90137553 0.2611956 0.18266042 0.46941024 0.36398423
0.35174096 0.64770496 0.15448247 0.09945991 0.48872963 0.45818633 0.099429525 0.2796447
0.89748025 0.4620921 0.23713902 0.5489684 0.45946848 0.40251982 0.51874477 0.25829616
0.5414704 0.19604266 0.29661652 0.26731637 0.19011368 0.4131172 0.4237906 0.20635447

conv2.3.running_var f4 [32]
00000000: 7f63 5e3d 40fc 933f 5b60 b23d 20ff 813f
00000010: 2448 823e 7fdb 953d 670e 493e 027a d13e
00000020: eb40 e53e e55a c03e 9ec5 c93d 9f92 903d
00000030: d628 8e3e 7faa 533f 98a2 0a3e 6e11 1f3e
00000040: 6a02 e93f e460 073f 7da7 5d3e a9d1 c73e
00000050: 5c2a 433e 6273 223f 5bcb 3b3f 1160 463e
00000060: eee5 d83e fc73 1a3e a10f 193e 91ca c53d
00000070: ffd2 903e de2a 303f 20b8 c83e edce 093e
0.054294106 1.1561356 0.087097846 1.0155983 0.25445664 0.07317256 0.196344 0.40913397
0.4477609 0.37569347 0.098521456 0.07059216 0.2776553 0.8268203 0.13538587 0.15533993
1.8203862 0.5288222 0.21645923 0.39027146 0.19059128 0.6345731 0.7335717 0.19372584
0.42362922 0.15083307 0.14947368 0.09657777 0.28285977 0.6881541 0.39202976 0.13457842

conv3.0.weight f4 [64, 32, 3, 3]
00000000: 2e55 e5bc f427 eebc ed31 54bd 157d 18bd
00000010: e8e0 37bd ba7d 7abd c332 8abd 42de b5bc
00000020: ea69 02be 8738 40bd be5b 333d c8d8 a73b
00000030: e63c d8bb 0b9a 11bd 5d1a a4bb 7cfa b63b
00000040: efca 96ba 2d52 8d3d 471b 71bc 8c3f babc
00000050: 2140 c7bd 8bca 8c3c ba7b 2bbc c4ae f7bc
00000060: cbf6 a5bd 3844 f1bb aadf 5ebd d2a6 423d
00000070: 89c2 a8bc 7df5 a83d 40cd 423c f000 7abc
00000080: ff90 bf3c 83c8 78bb 8434 863c cdb1 1bbc
00000090: 19f3 66bd 093f 7bbd 4d3f a0bc 0c95 19b9
000000a0: 8ad3 6ebd bbc8 06bd a7ce 40bc a661 f63a
000000b0: 6f93 14bc abd8 95bb 7dfc 25bc 143a 6fbc
000000c0: 6142 093d a675 d13c 810e 093c 0db1 f83b
000000d0: 64b6 113d 22c2 303c 021a 91bc 2fab d0bd
000000e0: deb2 1dbd 95f4 d2bb 204a b5bd 3405 77bd
000000f0: b849 9fbd 6930 2abd e3bd 98bd 256e dfbc
00000100: e29f bebc fe46 c0bc b86f a1bc c0cc 1a3d
00000110: 302f cdbc 21f0 8e3a c11d 7f3d 1faf 413d
00000120: 0b0c 343d 2884 d83d 0872 b63d cfe3 cc3d
00000130: 4785 923d 7445 763d d273 52bc 9471 b33d
00000140: fb80 963d 6f9c ba3c 00ab c03b 9cf8 833c
00000150: 153c 01bc bd50 493d 1e44 993c 2db6 883c
00000160: f78f a93c b059 263d aef5 d6bc eb34 d1bc
00000170: 627e 943c 2882 12bc 362b dbbc fbdb 2f3c
00000180: e8c5 41bd da5f 4bbc ea1f dbbc 71bb 4dbd
00000190: 11e8 a0bd 17d9 24bd 9703 7fbd 06dd d9bd
000001a0: 5cfb 90bd 3136 93bd 5144 edbd 2feb abbd
000001b0: 9bb1 acbc 4a88 a13c 3fd5 063c aa11 42bd
000001c0: 8312 7c3c cad2 0dbd 2fd0 47bd 59c4 c9bb
000001d0: fbab 2ebd b5d9 a2bd 271d 43bd bafa 63bd
000001e0: 0ccf 94bd 67b7 0dbd e7a0 b8bb 1a9f 80bd
000001f0: fbf0 103d 27a9 4d3b c389 093d dd1e 983d
00000200: 63e6 323d 120d 843c b06f 0a3d dd03 253d
00000210: 6146 3a3d 11f7 973d 008a 873c 5f77 04bd
00000220: b7dc 06bd d45d 7f39 ea4b b6bc 1ceb a0bc
00000230: d210 3ebd 18ab 6abd d7d4 26bc 6206 87bd
00000240: 6f5d 7c3d d11d 8fba 5733 c4bc af25 d6bc
00000250: 9ad4 c73c 7da3 803c 43f0 efbc f3b4 473d
00000260: 20fe 3a3d c335 1f3d 1020 8e3d b567 9b3d
00000270: d0e3 093d 06db ad3d cb95 37bc ffad 583d
00000280: 9983 b73d 5c4d 923d b45f ab39 8a35 483d
00000290: e47a 8dbc e5d9 1b3d e60d 123d 210e 13bd
000002a0: d190 cabb 3250 243c ca7b b03c f9a6 7dbd
000002b0: 2d65 efbc a2f1 243d e6c1 00bd 323d 45bc
000002c0: 71dd d8ba 1ce6 573c e163 3b3d 40b8 0d3c
000002d0: 40f6 c53c 46fc 35bb 3b1d 05bd 7293 9bbc
000002e0: 4768 5c39 9fb6 1abd 970f 8ebc e78e e63c
000002f0: 1ffe ae3c 6c4f e6bc 5f91 31bd 3703 a93c
00000300: 428a f83b ee27 95ba e5f7 5dbd d006 803c
00000310: 9a4d 3b3c 6eb9 4fbd 77ec 993c 3d64 e93a
00000320: ca89 7a3d c12c 38bc 5570 ac3d 91e1 803d
00000330: 3999 24bc 1007 4bbc 58c7 983c e5cd 01bd
00000340: db04 8cbd 719f d8bd e555 82bd 56e3 5abd
00000350: 40d4 2bbd fe1c 88bd 6931 92bd b9ba ecbd
00000360: 1e8d 33bd 8f4d 16bd f3c3 97bd 3280 c03c
00000370: 52d0 773b c12b 44bd 9e29 ebbc 06cd 33bd
00000380: 5a69 28bd bc90 813c de42 853d e710 3fbb
00000390: 697d 63bc 7043 143d dfe2 d33c adc5 17bd
000003a0: 34f2 843d 05e7 b1bc da97 0bbd 7d75 0cbc
000003b0: 44de 22bc 4937 3bbc f8c8 df3b ee46 993c
000003c0: 70c5 51bd 8c7e 29bd d3db 263c db73 8abc
000003d0: fe72 26bd 601c 56bd 2b13 323b d18f 49bd
000003e0: 6124 77bd b7b9 41bd 843f 4cbc 1d4e 643c
000003f0: 7aea 28bd 777f babd 8562 c5bd 7b02 afbd
-0.027994718 -0.029071786 -0.051805425 -0.037228663 -0.04489222 -0.06115506 -0.06747963 -0.022200707
-0.12735716 -0.04692891 0.043788664 0.005122278 -0.0065990565 -0.035547297 -0.0050080256 0.0055840593
-0.0011504571 0.069004394 -0.014715976 -0.02273538 -0.097290285 0.017186424 -0.01046651 -0.030234702
-0.08103713 -0.0073628686 -0.05441252 0.047522373 -0.020600574 0.08249948 0.011889756 -0.015259013
0.02338457 -0.0037961311 0.016382463 -0.00950284 -0.05638418 -0.061339412 -0.019561434 -0.00014646741
-0.058307208 -0.032906275 -0.01176802 0.0018797412 -0.009068354 -0.004572948 -0.010130999 -0.014601249
0.03351057 0.025568794 0.008365274 0.0075894655 0.035574332 0.010788472 -0.017712597 -0.10188901
-0.03850066 -0.006437848 -0.08852029 -0.060307696 -0.077777326 -0.041550074 -0.07458093 -0.0272742
-0.023269597 -0.023471352 -0.019706592 0.03779292 -0.025046915 0.0010905304 0.062284235 0.04728615
0.043956798 0.10572082 0.089084685 0.100043885 0.07154327 0.06012483 -0.0128449965 0.08761898
0.0734882 0.022779671 0.00587976 0.016109757 -0.00788786 0.049149264 0.018709239 0.01668843
0.02069853 0.040612876 -0.026240196 -0.025537929 0.01812667 -0.0089421645 -0.026754003 0.0107336
-0.04730788 -0.0124129895 -0.026748616 -0.050227586 -0.07856763 -0.040246096 -0.062259283 -0.1063786
-0.07079193 -0.071880706 -0.11585296 -0.08394467 -0.021080783 0.019718308 0.008229553 -0.047380127
0.015385273 -0.034624852 -0.048782524 -0.0061574397 -0.042644482 -0.079516806 -0.047635224 -0.055659033
-0.072660536 -0.034598734 -0.0056344154 -0.06280346 0.035386067 0.003138134 0.033578645 0.07427762
0.043676745 0.016119514 0.03379792 0.040286887 0.045477275 0.07420171 0.016545296 -0.032340404
-0.032925334 0.00024353649 -0.022252996 -0.019643359 -0.04640276 -0.057292074 -0.010182581 -0.06593014
0.061612543 -0.001091892 -0.023950262 -0.026141016 0.024393369 0.015702957 -0.02928937 0.04875655
0.04565251 0.03886963 0.06939709 0.0758814 0.033664525 0.08489041 -0.011205147 0.05290031
0.08960647 0.071436614 0.00032686966 0.048879184 -0.017270513 0.038049597 0.035657786 -0.035902146
-0.0061818142 0.010028886 0.021543402 -0.061926816 -0.029223049 0.0402695 -0.031434916 -0.012038516
-0.0016545487 0.013177421 0.04574955 0.008649886 0.024165273 -0.0027768775 -0.03249858 -0.018991206
0.00021019681 -0.037771817 -0.017341418 0.028144313 0.021361409 -0.028114043 -0.043351527 0.020631416
0.007584841 -0.0011379698 -0.05419149 0.015628248 0.011432076 -0.05071395 0.018789513 0.0017806363
0.061166562 -0.011241139 0.08419863 0.062930234 -0.010046297 -0.012391821 0.018649742 -0.031690497
-0.068368636 -0.10577286 -0.06364039 -0.05343946 -0.041950464 -0.06646155 -0.071383305 -0.11559052
-0.04383575 -0.03669506 -0.07410421 0.023498628 0.0037813378 -0.04789329 -0.028706368 -0.043896697
-0.041116096 0.015816085 0.065068945 -0.0029154362 -0.013884881 0.036197126 0.025865017 -0.037053753
0.06491509 -0.021716604 -0.034080364 -0.008572933 -0.009940688 -0.011426755 0.0068293773 0.01871058
-0.05121368 -0.04138045 0.010184246 -0.016900947 -0.04063701 -0.052273154 0.002717207 -0.04920942
-0.060337428 -0.047296252 -0.012466315 0.013934639 -0.04123924 -0.09106343 -0.09637932 -0.08545395

conv3.0.bias f4 [64]
00000000: 8db5 44be 2bf4 87bd 749f a2bd 5d4e 03be
00000010: 4fe5 63bd e5bc 4cbc 5123 d1bd 8d88 20be
00000020: f0b3 71bd 1ff5 b4bd 3cc1 173d 985f d8bd
00000030: 567e 75bd b269 52bd 81de 29be 2acb 3dbd
00000040: f78e 16be 3beb eebd 24bb 30bd f165 fbbd
00000050: bb03 03be e7d7 d3bd 76a5 afbd ab9f afbd
00000060: 48fd a8bd 96a9 cabd 85c3 59be 61f2 97bd
00000070: cd51 67be 4f45 90bd da8d 39be d7f8 74bd
00000080: 1125 aebd a0b5 4dbe c16a 16be 2243 24be
00000090: 9279 20bc 8313 6cbd 012c f7bd 7aa5 e3bd
000000a0: 6626 c8bd bf5e 513a f54b 10be 5bf7 8dbd
000000b0: bf43 91bd d1a5 92bd 9e7f 26bd 53c2 59bd
000000c0: 75b9 13bc cc29 cdbd e2ef e7bd f28c c1bd
000000d0: eab7 05be fe68 34bd afab f7bc f060 01be
000000e0: 30bf 33bd 82b4 34bd ab21 6bbd 26fa a93c
000000f0: 1252 04bc 9be3 aabd 3348 1bbe 10b2 00be
-0.19209881 -0.06638368 -0.079405695 -0.12822862 -0.055638608 -0.012496208 -0.10211814 -0.1567709
-0.059009492 -0.08835816 0.037049517 -0.10565108 -0.059934936 -0.05137033 -0.16588785 -0.04633633
-0.14702974 -0.116659604 -0.04314722 -0.12275303 -0.12794392 -0.103439145 -0.08576481 -0.08575376
-0.082514346 -0.09895627 -0.21265991 -0.07419277 -0.22589798 -0.070444696 -0.18120518 -0.059807625
-0.085031636 -0.20088816 -0.14689161 -0.16041234 -0.00979461 -0.057635795 -0.1206894 -0.111155465
-0.09772949 0.00079868356 -0.14091475 -0.06931945 -0.07093 -0.07160533 -0.04064905 -0.053163838
-0.009016384 -0.10017738 -0.11325051 -0.09450711 -0.13058439 -0.04404544 -0.030233232 -0.12634635
-0.043883502 -0.04411746 -0.057405155 0.020749163 -0.008076208 -0.083441935 -0.1516426 -0.12567925

conv3.4.weight f4 [64]
00000000: 6445 8a3f 2901 893f 83a8 983f e5ad 9b3f
00000010: 78d5 953f 60b0 993f 2601 9b3f 6aa2 863f
00000020: 547a 783f 0b74 9b3f 4ecf 973f e697 7f3f
00000030: 640c 983f f523 853f 641e 883f d176 933f
00000040: 5c04 863f a242 8c3f 81f2 993f 0e27 953f
00000050: c922 863f 2c17 9d3f 41d7 983f 92b0 9b3f
00000060: 0dbe 843f 90b7 883f 084c 853f 0f08 9f3f
00000070: 5538 893f 0dda 973f b5ea 853f b99c 7f3f
00000080: e502 913f e2b8 893f db11 853f 118e 883f
00000090: 4b48 723f dfa5 9b3f ec8a 9c3f cdd0 983f
000000a0: 081c 8a3f a2bd 803f 3668 883f ab98 983f
000000b0: 930b 893f 9c76 9c3f c178 963f 00e8 793f
000000c0: 4658 953f df04 9d3f 557b 893f 3cfc 9a3f
000000d0: e081 823f e1ea 913f 6281 9f3f b3c1 893f
000000e0: 9a37 833f fe64 9d3f ff38 963f ca74 753f
000000f0: 9c1d 993f f9a3 9a3f cb3b 823f ed93 953f
1.0802426 1.0703479 1.1926426 1.2162443 1.170577 1.200695 1.2109725 1.0518315
0.9706166 1.2144789 1.1860139 0.99841154 1.1878781 1.0401598 1.0634274 1.1520635
1.047008 1.0957835 1.2027131 1.1652544 1.0479366 1.2272696 1.194069 1.216326
1.0370499 1.0681019 1.0413828 1.2424334 1.0720316 1.1863419 1.0462252 0.99848515
1.1329008 1.0759547 1.0396074 1.0668355 0.9464156 1.2159995 1.2229896 1.1938721
1.0789804 1.0057871 1.0656803 1.192159 1.0706657 1.2223697 1.1755601 0.9761963
1.1667564 1.2267112 1.0740763 1.2108226 1.0195885 1.1399804 1.246136 1.0762237
1.0251343 1.2296445 1.1736144 0.9588133 1.1962161 1.208129 1.0174497 1.1685768

conv3.4.bias f4 [64]
00000000: b083 b2bb 4eeb 533b 3b6c 4c3b 54df 26bc
00000010: bcaa 633b e4f1 8f3b ea4c 5a3b 306c 35bb
00000020: 6a7f e1bb 2965 513c efb9 093c 5493 38bc
00000030: fe3b 99bc 3d83 4bbc b4b3 233c b8ef b7bb
00000040: 3a4c 163c b64a f53b 1505 513c 8cbe 90bc
00000050: 3a05 28bc d7ae 83bb de0e 883c c21f 45bc
00000060: 2435 0ebd bdd0 e9bb 3395 70bc 632d a8bc
00000070: 2f71 c8bc 3ea5 1cbb 0b66 2cbb 67dd 57bc
00000080: 0128 773c 7a1e 86ba 02d1 2fbc 6d08 453c
00000090: df01 b5bc 4cc2 193b 288d 8abb 7b2e 16bc
000000a0: 2dbd d2bb 0c40 8b3c 43e1 af3c b7c3 d839
000000b0: 2d26 723c a9bb fcbb f9f6 253b dec9 0e3c
000000c0: 019c c6bc 6637 cd3b 7828 9d38 b0d1 603c
000000d0: 5de4 55bb 6a16 4238 d33c e339 4a6f 4dbc
000000e0: b47d ad3c d6ca 603c 8235 823b 0b4b e43a
000000f0: dde6 493c f9d2 3f3c 836b a23c 39e6 853c
-0.0054478273 0.0032336297 0.003119244 -0.0101850815 0.0034739217 0.0043928493 0.0033310005 -0.0027682893
-0.006881644 0.012780466 0.008406146 -0.0112655945 -0.018705364 -0.012421426 0.009991575 -0.0056132935
0.009173447 0.007485713 0.012757559 -0.017668985 -0.010255152 -0.0040186453 0.016608652 -0.012031497
-0.034718648 -0.0071354792 -0.014684009 -0.020529455 -0.024468033 -0.0023902203 -0.002630594 -0.013175345
0.015085221 -0.0010232471 -0.010730984 0.012025935 -0.022095619 0.0023461757 -0.004228253 -0.009166355
-0.006431243 0.016998313 0.021469718 0.0004134455 0.01477961 -0.0077128005 0.002532421 0.008715121
-0.02424431 0.0062627075 7.493881e-05 0.013721868 -0.0032637336 4.627408e-05 0.00043342132 -0.01253874
0.021178104 0.013720235 0.003973664 0.0017417384 0.0123231085 0.011708015 0.019826656 0.01634513

conv3.4.running_mean f4 [64]
00000000: f859 0b3e 84a3 853d 2f1c 573e 078e 313e
00000010: 7da2 0e3e 67ac 7f3e 2010 1b3e c191 a83d
00000020: d34f 2f3e 1528 203e 1504 863e 7103 d73e
00000030: 7089 2b3e 978b db3c ecfb 2f3e a3b8 193e
00000040: 7fa2 db3d 2db6 103e 6dd0 a13e d742 343e
00000050: f499 953d 5d42 f93d 11fd 463e 40d5 143e
00000060: b26d 933d 3118 213e 1563 1e3d 79c9 fe3d
00000070: 4fd1 3a3d 290e 1f3e eefe 0c3e 6f9e dd3e
00000080: 4973 493e 5537 013d 1a95 143d a1db cd3d
00000090: ba4e 453f a1ed d53d 49ac 223e f49b 623e
000000a0: 9772 0a3e 0eba 1e3f d485 1f3d eb8c 073e
000000b0: c2b6 bd3d bf6e 783e 61b2 4e3e 47ee b73d
000000c0: 8ce6 4f3e 3543 f13d e63a d03d 9a2f 4c3e
000000d0: e304 013e d07e 973e 3000 1e3e 8588 b33d
000000e0: 184f 2d3e d3a4 083e c02c 283e 9c78 8c3f
000000f0: f346 0d3e 663d 223e 40e7 ac3d c255 223e
0.13608539 0.06525329 0.21006845 0.17339335 0.13929172 0.2496811 0.1514287 0.08230925
0.17120294 0.1564029 0.2617499 0.41994813 0.16751647 0.02679996 0.17185944 0.1501184
0.10724353 0.14131995 0.3160433 0.17603622 0.07304755 0.12170861 0.19432475 0.14534473
0.07198657 0.15731885 0.03866871 0.124407716 0.04560977 0.15532745 0.13769123 0.43284938
0.19672884 0.03154691 0.036275007 0.100516565 0.7707325 0.10445715 0.15886034 0.22129804
0.13520275 0.62002647 0.038945988 0.1323735 0.09263374 0.24260996 0.20185234 0.08980995
0.2030279 0.11780397 0.10167484 0.19940034 0.1259952 0.29588938 0.15429759 0.087662734
0.16924703 0.13344125 0.16423321 1.0974307 0.13796596 0.15843734 0.08442545 0.15853027

conv3.4.running_var f4 [64]
00000000: abc6 ba3e 21eb c43d 800b 583f 7654 053f
00000010: 8691 0f3f ecad 753f b10d 143f 2c9e 283e
00000020: d8fe 023f 81e5 193f 57d3 7d3f 726f 913f
00000030: da97 273f 1f43 0a3d 2d98 cd3e bb76 163f
00000040: 6215 343e a08e 8a3e b897 a43f b99a 1b3f
00000050: 2995 ec3d 43b3 d63e abc0 303f 997d f93e
00000060: fda1 bc3d 8275 bb3e ec92 9a3d 0153 e63e
00000070: 6362 723d 14c7 223f 4251 7a3e 5d87 8e3f
00000080: a17e 6d3f b643 693d 3dcd 543d 2b4a 6c3e
00000090: bf7e 5240 e56d af3e c25d 023f 2ec9 823f
000000a0: 6933 813e c77c e93f 5766 753d 1cf2 123f
000000b0: 4971 173e 3131 983f 9202 583f dc16 303e
000000c0: 5ef2 603f 91fb d03e aeb9 363e dbf7 833f
000000d0: a0c2 753e c431 ac3f 8e91 1f3f 2500 003e
000000e0: 4075 ab3e c8e1 f83e 03dd 223f e142 e540
000000f0: cc03 103f 6951 1a3f e8fa 113e 0b88 203f
0.36479697 0.0961516 0.8439255 0.52082 0.56081426 0.9596851 0.5783339 0.16466588
0.5117011 0.6011582 0.99150604 1.1362135 0.6546608 0.033755418 0.40155163 0.5877492
0.17586282 0.2706194 1.2858801 0.60782963 0.115518875 0.4193364 0.6904399 0.48728636
0.09210584 0.3661309 0.075475544 0.44985202 0.05917586 0.6358502 0.2444506 1.113506
0.92771345 0.05694934 0.051953543 0.23075168 3.288986 0.3426353 0.50924313 1.0217645
0.25234535 1.8241204 0.059912052 0.5740068 0.14789309 1.1890012 0.8437892 0.1719622
0.8786982 0.4081693 0.17844269 1.0310014 0.24000025 1.3452687 0.62331474 0.12500055
0.33487892 0.48609757 0.6361849 7.164414 0.56255794 0.6028047 0.1425587 0.62707585

fc.0.weight f4 [32, 64]
00000000: 1401 143e abab 283e 7eb0 b0bc 0e10 d7bd
00000010: c21f 74be ddfb 11bd 9be7 edbd bc22 0d3c
00000020: 4c0e 763d 9f9d f7bd 7fe4 47be 9fcc cebd
00000030: b7b7 21be 1a71 a43d 280b 073e 2256 4ebe
00000040: 75d0 653d 6141 b03d d6d1 4ebe 5f53 22be
00000050: 0eff abbc 4353 93bd 9808 d3bd 5b5f 86be
00000060: 7d56 dd3d 8341 a63c 663a 63bc f0ac 2dbe
00000070: af50 223e fa02 cdbd e918 ad3c 2ae1 fc3d
00000080: 24a5 c1bc 0e62 613d 1cc7 b33d f506 293e
00000090: dc32 a13d 34df 54be 091b d2bd 771b 5ebe
000000a0: 655e d53d b515 933d ed33 343d eff1 12be
000000b0: 0596 133e 95e5 85be 6817 35be dbae 183c
000000c0: 56a0 26bd db55 2bbe 6c6a 723d 3111 49be
000000d0: c552 b03d 9fd7 53be 144c 0cbe 346a 043e
000000e0: 9ce8 8e3d 769c a5bd a9e5 63be d80e 333b
000000f0: 4192 c5bd 36f4 acbd c91b 893b f7ec 25be
00000100: e19d 75bb bb34 1e3d 41e3 f7bd 0009 53be
00000110: 9cbe c5bd 859b 5dbd 1be1 31be 4d77 d93d
00000120: aac7 6abd 55be 50be f518 08bc a529 f7bc
00000130: 78cd febd cec4 d73d 6940 313e 8139 0abe
00000140: 24fd 163e 35d6 b23d eb92 0abe 0101 f1bc
00000150: 9cad 0b3b bdcb 68be 2429 4fbe 390e 52be
00000160: 7744 283c a0fe 143e 1a53 5b3d 2ef4 40be
00000170: b088 1f3e 9ffe 4abe 4a83 5b3d 4d12 2fbd
00000180: 8595 a2bd 6eb2 343e 0e92 0f3e 81de 2a3e
00000190: 3fa4 333d 428a edbd c6de 3ebe 24f6 63be
000001a0: 7d93 51bc 39d5 503d 18ee 0a3e 22da 29bd
000001b0: 5345 953b 9357 1dbe e7c5 1cbc a782 093e
000001c0: cba7 5fbe a800 07be d2d8 c4bc de5b a9bd
000001d0: f3d4 d53d ad9b 88bd 1107 efbd 2cd1 353e
000001e0: d96a 103e f09b 0dbe c635 f4bd b366 96bb
000001f0: a834 3bbe f56d 97bd 46a8 563d e2ad 03be
00000200: becc 533d 72fe a13d 85ba 21be 47b6 2abe
00000210: 90ba 46be 832d c2bd 7b50 59be 2102 433d
00000220: 1172 6c3d 712f 94bd 3ab5 febd 1995 c93d
00000230: 97b7 26be 909f 983d ba50 da3d da46 1abe
00000240: 0930 773d ef71 f73d 8e7c 9ebc 8e53 49be
00000250: d4a1 713d f236 1fbe 30f8 4ebe dc28 47be
00000260: e913 bbbc d7fd d53c 78b1 093e 3f98 27be
00000270: a810 f03d 14fd 89bd ef3d 2b3e fe5a a5bd
00000280: a79e f3bd 8c52 8a3d 3486 eabc 1a17 033e
00000290: e2cd 9abd a99c 3dbe 4886 b0bd b5d3 3ebe
000002a0: 4bf4 513d 7995 30bd 9d98 fc3d f4b5 0cbe
000002b0: e08d 413d 1433 7abe 8269 8ebc 68bd 92bd
000002c0: bf30 30bc 3fb6 85bd 486c ef3d 163b 2bbe
000002d0: fa58 0e3e d8c6 34be b209 0bbe d30b 3d3e
000002e0: 1344 653d d7a6 6bbe 90a1 71be 4fe9 ba3d
000002f0: c108 2cbe f14d 11be 8ac9 c13c b879 27be
00000300: aa5d 15be cf9d d3bd fc2e 493d f5a8 aa3d
00000310: 5ed4 4a3e 963d 5e3e 0029 273e afa8 e2bd
00000320: df3e 04bc 013e 5f3e f897 db3d a773 d7bd
00000330: ddf9 253e 1aef a5bd c69f 1fbe b393 df3d
00000340: df79 1dbe 4a17 b33b 5e63 813d f4a3 1a3e
00000350: 2067 d9bd 70b7 533e 88fd c43d e94e 103e
00000360: 5edd 853c 9a0e 4b3c fff4 4cbd 0196 553c
00000370: e268 91bb c9f7 6a3e 2d9a 97bc 704d e6bd
00000380: 4c8c 163e 6b8b 85bd 2298 24be d328 d1bd
00000390: ec69 b9bd 744d e13d 153c b93d 63c3 9b3d
000003a0: 12eb ec3b 06bb 20be f4ec 0cbd 6942 393e
000003b0: c6b8 acbd 5236 4f3e 039a 663d eccd 19bd
000003c0: 1771 903c 146c 923d 844c b8bd be1b b53d
000003d0: 8f94 52bd 56c2 3c3e 2323 413e 296a febd
000003e0: 4ea0 07be 90ff 143e 38df e03c 9afa 0abd
000003f0: fadd f13c e556 6f3e 8065 4bbd e408 bb3d
0.14453536 0.16471736 -0.021568533 -0.10501109 -0.2384024 -0.035640586 -0.11616441 0.008614238
0.06007223 -0.12090611 -0.19520758 -0.10097622 -0.15792738 0.08029385 0.1318785 -0.20150045
0.056107003 0.0860622 -0.20197234 -0.15852116 -0.020995643 -0.07193615 -0.103043735 -0.26244625
0.10807512 0.02029491 -0.013868904 -0.16960502 0.15851091 -0.10010333 0.021130042 0.12347634
-0.023638315 0.055025153 0.087782115 0.1650656 0.07871029 -0.2078827 -0.10259063 -0.21690165
0.10418395 0.07181875 0.043994833 -0.14350103 0.14412697 -0.2615172 -0.1768471 0.009319033
-0.040680252 -0.1673197 0.059183523 -0.19635464 0.08609537 -0.20687722 -0.13700897 0.12931138
0.069779605 -0.08086483 -0.22255577 0.002732208 -0.09647036 -0.08445017 0.0041842205 -0.16203676
-0.0037478136 0.038624506 -0.12103892 -0.20608902 -0.096554965 -0.054103393 -0.17371027 0.10618458
-0.05731932 -0.20385106 -0.0083067315 -0.030171225 -0.12441534 0.105355844 0.17309727 -0.13498498
0.14745003 0.08732263 -0.13532607 -0.029419424 0.0021313196 -0.2273397 -0.20230538 -0.20513238
0.01027023 0.14550257 0.05354605 -0.18843147 0.15579486 -0.19823693 0.053592004 -0.042742062
-0.07938675 0.1764619 0.14020559 0.16686441 0.04385781 -0.11598636 -0.18639669 -0.22261864
-0.012791512 0.050984595 0.13567388 -0.041467793 0.004555383 -0.15365438 -0.009568668 0.13428746
-0.21841352 -0.13183844 -0.02402917 -0.082694754 0.104410075 -0.06670318 -0.1167127 0.17755574
0.14103259 -0.13829017 -0.11924319 -0.0045898794 -0.18281806 -0.073940195 0.05240657 -0.128593
0.05170893 0.0790986 -0.15793808 -0.16671096 -0.19407105 -0.09481337 -0.21222107 0.047609452
0.05772597 -0.07235611 -0.1243691 0.09842891 -0.16280971 0.07452309 0.106599286 -0.1506609
0.060348544 0.12082278 -0.019346502 -0.1966078 0.058992222 -0.15548304 -0.20211864 -0.1944918
-0.022836642 0.026122017 0.13446605 -0.16366671 0.11721927 -0.06737724 0.16722845 -0.08073996
-0.11895495 0.06754026 -0.028628446 0.12801781 -0.075588 -0.18516792 -0.08619362 -0.18635447
0.051258367 -0.0431113 0.12333796 -0.13741285 0.047254443 -0.24433547 -0.017384294 -0.071650326
-0.0107538095 -0.06528901 0.11690575 -0.16721758 0.1390113 -0.17653978 -0.13577917 0.18461542
0.055973124 -0.23012863 -0.23596787 0.09126531 -0.16800214 -0.14189889 0.023655672 -0.16355026
-0.14586511 -0.10332834 0.049117073 0.08333007 0.19807574 0.2170318 0.16324234 -0.1106733
-0.00807163 0.21800996 0.10722345 -0.10520106 0.16208597 -0.08102246 -0.15588292 0.10916843
-0.15378521 0.0054654228 0.06317781 0.15101606 -0.10615373 0.20675445 0.0961867 0.14092602
0.016340908 0.012393618 -0.050038334 0.013036252 -0.004437552 0.22946085 -0.018506134 -0.11245239
0.14701957 -0.065207325 -0.16073659 -0.10212865 -0.09053406 0.11001101 0.09044663 0.076056264
0.007230171 -0.15696344 -0.034405664 0.1809174 -0.0843368 0.20235565 0.05629922 -0.037549898
0.01763205 0.071495205 -0.08998969 0.08843182 -0.051411208 0.18433508 0.1886106 -0.12422592
-0.13244745 0.14550614 0.027450189 -0.0339304 0.029524792 0.23372991 -0.049657345 0.09132555

fc.0.bias f4 [32]
00000000: 02b4 56bd 3708 9dbd 8e25 a6bd 7632 8f3d
00000010: bc90 82bc eafe 9fbd 6958 963d 9f46 30bd
00000020: 1b10 d3bd f1c8 73bd 7cfd 0ebd 97e4 afbc
00000030: 3c6d a13d 3b20 60bd 6d63 a7bd add7 013d
00000040: 2c14 623d 4d9b c4bd 0733 73bd adec 683c
00000050: 97bb 8c3c 60f0 c73d dd81 6c3d f8de b6bd
00000060: 834e b5bb dcc0 bc3d 9710 ab3d 5230 503d
00000070: 231b bd3d 4a83 a43d a6d8 e7ba 3203 b33c
-0.052417763 -0.076675825 -0.08112632 0.069920465 -0.015938155 -0.07812293 0.07341082 -0.0430361
-0.10305806 -0.059517805 -0.03490971 -0.021471305 0.07882163 -0.054718237 -0.08173261 0.031699825
0.05519502 -0.09599934 -0.059374835 0.014216584 0.017179294 0.09762645 0.057741035 -0.08929247
-0.005533041 0.092164725 0.08352774 0.05082733 0.092336915 0.08032854 -0.0017688468 0.02185211

fc.3.weight f4 [1, 32]
00000000: d1fc 03be 5e42 3cbe 41da 57be 5b21 c63e
00000010: c44d ae3e b11a 27be 5c92 3a3e 89d5 ba3e
00000020: 05e8 2bbe 76ac 4dbe 90b1 b43e 2751 21be
00000030: e761 7ebe 88c9 c7bd 2538 f1bd 5dae 07be
00000040: 2398 10be c71f 973e 4f0c 7cbe 847f 2dbe
00000050: 7917 803e 461a ae3e 0d49 a73e c324 c13e
00000060: a884 51be 0839 6cbe 5636 843e d8bc 45be
00000070: 5e41 a33e 40e1 12be 5ca4 68be fb99 3bbe
-0.1288941 -0.18384692 -0.21079351 0.38697323 0.34043705 -0.16318776 0.18219894 0.3649104
-0.16787727 -0.2008532 0.3529172 -0.15753613 -0.24842034 -0.09755236 -0.11778287 -0.13250108
-0.14120536 0.29516432 -0.2461407 -0.16943175 0.25017908 0.3400442 0.3267292 0.3772336
-0.2046076 -0.2306863 0.25822705 -0.1931032 0.3188581 -0.14343739 -0.22718948 -0.18320458
