5 第五讲 机器学习训练模型的数学范式v16/models/model40.pth (torch, 112459 bytes, 21 tensors)

conv1.0.weight f4 [16, 3, 3, 3]
00000000: f628 44bc f3b2 dfbd c55f 253e 5afc 5dbd
00000010: 379c 02be 497f 22be fdc9 213d 033a 20be
00000020: dfb9 d23d dd71 873d 8458 413e a4a0 04be
00000030: 91b2 c93c 616a 073d be87 e13c 5ed6 c33d
00000040: 7414 adbb 6c38 88bd 3126 103e 3a9d f7bd
00000050: 18d8 17be 4a8c c53d 1b5e 63bd 60fa 1e3e
00000060: ea99 08be 579f 143e 10e3 163d a326 2abd
00000070: 472d 0e3e d202 9cbd 6907 573c 2dbe 96bd
00000080: f1c3 9a3d 82fe 813d edde 173e 6cdc d7bd
00000090: 2edc 433d 75ad ddbb b5e7 1d3e 1013 0bbe
000000a0: 836f 82bd 6291 1d3e 6fad 8f3d 92ef 57bd
000000b0: ec3d 8b3d 238f 633d 6877 8abd 51ae 25be
000000c0: a85a 2ebe c65e cf3d 7a77 d1bc 4888 a73d
000000d0: 68bf 26be 11a5 223e f498 873d ec21 6abc
000000e0: b6f4 a6bd 2c0c 01bd e335 0ebe 7687 27be
000000f0: 7804 9ebd 3909 dd3d 9550 2cbe 22ff 1c3e
00000100: 022d c83d b7af 0abe 9827 283e 1b50 5b3d
00000110: 7b30 debc 5e8a a33c 0752 2c3d 1ac1 043e
00000120: 3e13 453e 1b5d 3b3d 4615 92bc 564e 883c
00000130: 1475 2c3d b7f7 91bd a02a a3bd a85a 49be
00000140: c25a 3c3e 14aa 94bd eabe 54bc dc77 1fbe
00000150: 5a88 26bb ed17 2a3e 5238 19be b587 d33d
00000160: bfc3 443e 1a63 2ebe f20c 803b d680 113d
00000170: e369 3f3c 6373 0f3c 419d 283e 0037 2b3e
00000180: ef76 813c 2332 8f3d 6703 88bd 2d09 6cbd
00000190: 90bf 66bd af23 193e 0976 5d3e f9bc 253e
000001a0: c255 3b3d 2a89 ea3d 418c 51bd 740a a039
000001b0: 5950 38be 6cb6 6a3d 4884 f4bd 7230 293e
000001c0: 2cc7 433c 3c0c c23d 2b73 34bd 16ba 2e3d
000001d0: dd2f 37be 496e 3abe 91dc e1bd a677 443e
000001e0: cba8 a93d b6f4 cf3d 0714 433e 074d ba3d
000001f0: dee1 a93d e268 85bd 62ef e0bd 01b5 d83d
00000200: 1072 1b3e 5b61 28be 2d96 643d bf62 60bd
00000210: 4e9d 2b3e 8359 1bbd eab5 4cbd 9a68 22bd
00000220: f259 6cbd 319c 1c3e 4389 bfbd 30ff 433d
00000230: e63c 653b 388d 0d3e 8940 b63d d901 13be
00000240: c02c 70bc aa11 2dba 1625 11bd 61ee 1f3e
00000250: 5caf 463e 27f6 0ebe b087 68bd 1635 443e
00000260: 638b 3f3d d273 98bd 6692 e23d 112f 13bd
00000270: ca1e afbd 28ee 48be fe7a ee3d 710d 6dbd
00000280: 14d3 16be 85af 17be 1425 51bd 977f f63d
00000290: e260 db3d 34e9 dc3d 44fb a2bd 7e21 18be
000002a0: fb50 44bd 5fbf b7bd d1ec 953d 15ed e53d
000002b0: 09ed 7abd 9252 40be e93b 183e 44bf 883d
000002c0: dcc3 debd 771b 78bd a2b2 c8bc e65d dabd
000002d0: 9980 123e ff13 283d ec5d 09be 9eb8 0cbe
000002e0: f858 c4bd 914d 47be ba9e f2bc c79c 87bd
000002f0: e6fd e6bd 2a53 813c ef39 c7bd 69a3 ce3d
00000300: 4c7e cc3d 9f4e 84bd d34b b6bd 4610 48be
00000310: cb0e 98bc 8aa3 24be 1a79 333e 6969 cf3d
00000320: 081d f6bb 9a28 80bc c134 26bc 4686 3d3e
00000330: d734 c2bc b821 113d eef3 e93d 43ae 803d
00000340: 6b42 d3bc b6e1 f33d ba0c 24be 09bf a73c
00000350: 0e46 54be 269b b23d a084 e73d b54f 61bd
00000360: 5637 31be 2cae 84bd e8b7 753d da81 21be
00000370: 8cec 01bd c4f6 88bd 9df9 f6bd 1867 a33d
00000380: a695 00be 0697 693d 2342 bdbd 9ceb b73c
00000390: 0ca4 173e 2b97 13be 4393 03be 5e78 9b3d
000003a0: 0e08 7b3d 55bc 03be 62b6 883d 613c e5bd
000003b0: 0319 25be d295 c3bd 624f 133e d331 ed3c
000003c0: 67d7 0a3e d27d 183d 2fa1 dfbc 32ab 323e
000003d0: 45b4 b03d d1a8 763d 9093 28be e0f3 03be
000003e0: a5d5 0d3e 4017 3d3e 8182 433d 8cca a63d
000003f0: 8b7b 19be 4413 6abd bd34 19bd 929a cabd
-0.0119726565 -0.10922804 0.16149814 -0.05419574 -0.12754904 -0.15868868 0.03949927 -0.1564713
0.10289358 0.066135146 0.18881422 -0.12951905 0.02462128 0.033060435 0.027530547 0.09562372
-0.005281979 -0.066513866 0.14077069 -0.120905355 -0.14828527 0.09645899 -0.055509668 0.15525198
-0.13339964 0.14513908 0.036837637 -0.041540753 0.1388446 -0.076177254 0.013124325 -0.07360492
0.07556904 0.06347372 0.14831133 -0.10540089 0.0478174 -0.0067650625 0.1542042 -0.1358149
-0.063689254 0.1538749 0.07015502 -0.052718706 0.0679892 0.055556428 -0.06761056 -0.16179778
-0.1702677 0.101254985 -0.025569666 0.081802905 -0.16283953 0.1588328 0.0662097 -0.014290314
-0.08152144 -0.03150575 -0.13887744 -0.16360268 -0.07715696 0.10792775 -0.16827615 0.153317
0.097742096 -0.13543592 0.16421354 0.05354319 -0.027122727 0.01996344 0.042070415 0.12964287
0.19245622 0.04574309 -0.01783241 0.016638916 0.042103842 -0.07127326 -0.079671144 -0.19663489
0.18393996 -0.07259002 -0.012984971 -0.15573066 -0.0025410862 0.1661069 -0.1496289 0.103286184
0.19215296 -0.17029992 0.003907793 0.03552326 0.01168296 0.008755538 0.16466238 0.167202
0.015803782 0.06991985 -0.06641274 -0.05762594 -0.056335032 0.14955018 0.21627058 0.16185369
0.045736082 0.11451943 -0.051159147 0.00030525366 -0.179994 0.057302877 -0.11939293 0.16522387
0.011949342 0.0947499 -0.044055145 0.042657934 -0.17889352 -0.18206133 -0.11028398 0.19186267
0.08284148 0.10154097 0.19050609 0.09096723 0.08295034 -0.065141454 -0.10983159 0.10581399
0.1518023 -0.16443388 0.05580728 -0.05478167 0.16759226 -0.037927162 -0.049978174 -0.039650537
-0.057702966 0.15293957 -0.093523525 0.047850788 0.0034978925 0.13823402 0.08899028 -0.14356174
-0.014659107 -0.00066020584 -0.03543576 0.15618278 0.19402832 -0.13961087 -0.056770027 0.19160876
0.04676379 -0.07443966 0.110630795 -0.035933558 -0.085507944 -0.196221 0.11644553 -0.057874147
-0.14728957 -0.14813049 -0.05106075 0.120360546 0.10711838 0.107866675 -0.07958081 -0.14856526
-0.04792879 -0.08972048 0.0732056 0.112268604 -0.06126121 -0.18781498 0.14866604 0.06677106
-0.10877201 -0.060573068 -0.024499241 -0.10662441 0.14306869 0.041034695 -0.13414735 -0.13742301
-0.09587282 -0.19463183 -0.029616702 -0.066217 -0.11278896 0.015786726 -0.09727847 0.10089762
0.09985027 -0.06460308 -0.08901181 -0.19537458 -0.018561741 -0.1607801 0.17526665 0.10127527
-0.007510785 -0.01564436 -0.010144413 0.18508253 -0.023706837 0.035432547 0.11423479 0.06283238
-0.025788506 0.11908285 -0.1602048 0.020476835 -0.20729849 0.087209985 0.11304593 -0.055007655
-0.17306265 -0.06478533 0.05998984 -0.1577219 -0.03171973 -0.06687692 -0.12059329 0.07978648
-0.12557086 0.057028793 -0.0924113 0.022451214 0.14808673 -0.14413135 -0.12849145 0.075913176
0.06128698 -0.12864812 0.06675412 -0.11193157 -0.16122822 -0.0955006 0.14385751 0.028954422
0.13558732 0.037229367 -0.027298538 0.17448118 0.08628134 0.06021959 -0.1646254 -0.12886
0.1385103 0.184659 0.04773188 0.081441015 -0.14988534 -0.05714728 -0.03740381 -0.09892763

conv1.0.bias f4 [16]
00000000: 97c0 d33d f3da 063e 3057 bc3d 5c70 813c
00000010: 64e4 3abe 4f79 21ba b171 053e 1dcd 203d
00000020: b4dc 4dbe 08cd a43c 3138 f93d f3f6 11be
00000030: 7cd5 203e 2afe 29be c3dd 95bb 133e 303e
0.10339468 0.1316946 0.09196317 0.015800647 -0.18251187 -0.0006159739 0.13031651 0.03925811
-0.20103723 0.020117298 0.12168921 -0.1425436 0.15706438 -0.16600862 -0.004573555 0.1721118

conv1.3.weight f4 [16]
00000000: e297 7b3f 6b52 7d3f 5f3d 813f 1dc0 733f
00000010: 4dcd 833f bef1 813f 4604 7e3f b24e 7b3f
00000020: 85bf 763f f012 853f ad54 793f 5f40 883f
00000030: 355d 773f b64c 833f c160 783f 19bb 7f3f
0.9827863 0.98953885 1.0096854 0.95215017 1.0297028 1.0151899 0.9922527 0.98166955
0.96385986 1.0396404 0.9739483 1.0644644 0.966266 1.0257785 0.97022635 0.99894863

conv1.3.bias f4 [16]
00000000: 1566 64bc f714 a03d 6308 12bd 1800 883c
00000010: 8301 373d 7302 40bd 3696 393d a6b6 0cbd
00000020: 2583 993d 5129 343d 913d 78bd 42e4 4c3c
00000030: 01cf 4dbd f6de 803d 98b2 a4bb eca3 5fbc
-0.013940354 0.07816499 -0.03565253 0.016601607 0.044679176 -0.046877336 0.045309268 -0.034353875
0.07495717 0.043984715 -0.06060559 0.012505593 -0.050246242 0.062925264 -0.005026173 -0.013649922

conv1.3.running_mean f4 [16]
00000000: 3f2d c13d 0392 5b3e a9f3 093e f870 b93e
00000010: a0c3 a63c e72d 813c 66ed a23c b783 ab3d
00000020: aa9f dd35 9ddd 0c3d 2d28 a73e 31cd a73c
00000030: 426c 1b3e ba68 673c 24a2 9a3d 7fe6 ff3d
0.09432458 0.21442418 0.13471855 0.36219 0.020356953 0.015768958 0.019888591 0.08374732
1.6512251e-06 0.034391034 0.3264784 0.020483585 0.15178016 0.01412409 0.07550457 0.124951355

conv1.3.running_var f4 [16]
00000000: 67b6 8d3a 3d2e 343b 609c 7c3b 8bdd 453d
00000010: 2449 d13a 7fca 743a 173e e63a 1c86 123b
00000020: 93bd b833 b2b5 f23a e1f2 b33c 6408 c33a
00000030: 71c8 6e3a ebaf 8c3a f0a5 9d3b a46f e03a
0.0010811806 0.002749338 0.0038545355 0.048306983 0.0015967232 0.00093380356 0.0017566112 0.0022357767
8.602651e-08 0.0018517284 0.0219664 0.001487982 0.00091088476 0.001073358 0.004811041 0.0017123115

conv2.0.weight f4 [32, 16, 3, 3]
00000000: a8a1 3fbc 2fb2 13bd d9b7 d538 270f 79bc
00000010: 496f 783d d9ae c83c bb6e 343d eaeb 68bc
00000020: 6455 473a 7d4c 17bd aba6 acbd 81ea 51bd
00000030: 8cd8 cdbb e840 173d 47f5 03bd 9ba8 bcbc
00000040: d8b6 35bd 748d 443d 91d4 c03d e00e 18bd
00000050: 6ddb a4bd cf85 8b3d 975e 7e3d fe82 7cbd
00000060: b7d7 9abd 6d1b 2ebd 4a74 69bd 0029 b23d
00000070: 6ea3 483d ebf6 5bbd c06c 19bc 3cdb 823d
00000080: 6e92 9ebc 649c 053d 8f21 d13b 53a1 243d
00000090: 1da4 f13c 8318 163d 72ef f5bc 6cc0 e2bd
000000a0: 09fe 83bc b919 443c 3e4b 6cbd 74a9 6abd
000000b0: 6e5d 8e3c 4f87 833c 3f05 873d 9abb aa3d
000000c0: 3ea0 3cbd bf72 7f3d 8877 2b3d b4fa b23d
000000d0: d07b d13d fc79 963d 858e 623d f2a6 063c
000000e0: 2089 67bd ee54 21bd 3e84 0d3d 71eb 31bd
000000f0: 1902 203d 8077 d53c f72e 283d 4f1d 8d3d
00000100: 240d 55bd cc5d 17bc ef77 a03d c825 993d
00000110: af29 cfbc 1bc7 513d 122d 3bbd af38 89bc
00000120: b1c6 cfbb 695c eebd 028f 0cbd 4ce5 e7bd
00000130: 1816 18be 9275 d2bd 06b0 b3bd af82 22bd
00000140: d13a 04be 196e 03be 545d 78bd 6180 263c
00000150: d1fb 83bd 155e cd3b c31b 7f3c 74c8 ebbd
00000160: 29d6 01be 8707 1d3c 5846 903d 79b4 a0bc
00000170: e56a 09bc bd5b 7ebd c453 a23c 641d d3bc
00000180: 582f a93d 3a78 163d 794e d33c 8e92 cc3b
00000190: 640e d23c 2e5d 833d 11a3 8fbd 634e 77bd
000001a0: d9ee b1bd ad0d acbc 34eb 9e3d 31b7 7a3d
000001b0: 56d7 313d c2d6 04bd 1105 213d 40b2 143d
000001c0: 42b1 2cbb e348 9f3b 4cbf 34bd 38b8 ee3c
000001d0: f3ff 6ebd d3a3 573d 2ffb 9fbd e277 e3bd
000001e0: f29b 2dbd b19a 90bd 2761 a4bc c4be 07be
000001f0: 0e51 6bbd 7b75 1a3d d273 b03c 628e 76bd
00000200: 4124 2ebd bb74 05bd ba1c 82bd 7aef 9ebd
00000210: 2750 1dbd 63b8 df3c b76b 8a3c c792 35bd
00000220: 0d59 493b 7018 023d 5f40 633b cebf 86bd
00000230: 382c 1cbd 10d8 1c3d 381a 8b3d 1ca6 8a3c
00000240: 58fb 163d c73d 8bbc 2ad0 f13c 6b1c b53d
00000250: 03c3 c13c 7866 58bd 6046 ac3c 9b8d 613d
00000260: 546e 873d b34f 08bd 4aab e03c f0b3 1bbd
00000270: 1d7a 8abd c825 273d b2c3 d2bd 44d7 ce3c
00000280: 1ece b93a e8b1 adbc c5c1 503c 641b 9e3d
00000290: 56f1 633d f788 b83d 5a43 77bd d2f8 033d
000002a0: ec11 913d a089 69bc 6b75 b63d b9c9 803d
000002b0: 3b36 b13b 659c 82bb 33f4 69bc dd2e 93bc
000002c0: d585 b13d 2ba7 0f3d 3cf8 d0bc b834 b53d
000002d0: f3d6 ad3c 1354 473c e1bc 5cbd 0769 d43c
000002e0: 1bd1 563d cb7c 4d3d 840a 233d 5b70 a6bb
000002f0: a784 2f3d 4560 313c b7a6 8cbd 465b 6b3c
00000300: 6595 62bd cfc7 dfbd 187d 88bd 831d b63c
00000310: ef75 87bc f9a0 74bd ca33 6cbd c75e 5fbd
00000320: 9494 583d 7d33 9e3d 79a0 833c 5c33 703d
00000330: beab a0b9 83eb a2bd 4cb1 513d 36cf 64bd
00000340: 456d 893d e72a 1d3d 1253 4ebd 7392 70bd
00000350: 43fd 42bd 970e 9ebb 5490 a8bd d55f df3c
00000360: ed54 0d3d d570 cbbc 6c07 493d 40bb a6bd
00000370: fc7e 2f3d c74e 5cbb d5db 16bc 1db8 98bd
00000380: ee67 2cbd 3137 f33c e241 b2bd f7d3 79bd
00000390: 8395 1b3d 176a f0bb 6617 8fbd 20c0 a43d
000003a0: 172b c5bc 6f63 74bc 90b1 093d f344 e1bc
000003b0: 195d bf3d 9433 ce3d 1123 e83d 3539 7fbb
000003c0: 8683 0e3b acc1 f63d 64e7 603d 0a3a 883c
000003d0: 51cd 7e3d fcdb 7e3d 00de 8ebd 1358 f93b
000003e0: c25a c4bc 49f2 df3c 3016 0b3d f1af ce3c
000003f0: 5a66 873d 2edd 3c3d 5356 4a3d 3604 4e3d
-0.011696257 -0.0360586 0.00010190876 -0.0152013665 0.060653005 0.024497436 0.044050913 -0.014216403
0.0007603972 -0.03693818 -0.08430227 -0.05124903 -0.006281918 0.036927134 -0.032216337 -0.023029616
-0.044363827 0.047986463 0.09415544 -0.03712356 -0.08049665 0.06812631 0.062101927 -0.06164836
-0.075606756 -0.042506624 -0.056995668 0.086992264 0.048983984 -0.053702276 -0.009364307 0.06389472
-0.019356932 0.03261985 0.0063821743 0.040192913 0.0294972 0.03664447 -0.030021403 -0.11071858
-0.016112344 0.011969023 -0.057688944 -0.05729051 0.017378535 0.016055731 0.065927975 0.083365634
-0.046051256 0.06236529 0.04186204 0.08739224 0.102286935 0.073474854 0.0553117 0.008218514
-0.056527257 -0.039387636 0.034549944 -0.043437425 0.0390645 0.026057959 0.041060414 0.06890356
-0.052014485 -0.0092386715 0.078353755 0.07477909 -0.025288431 0.051215272 -0.04569728 -0.016750662
-0.0063408245 -0.116387196 -0.03431607 -0.11323032 -0.14852178 -0.10276331 -0.08773808 -0.03967541
-0.12913062 -0.12834968 -0.06063588 0.010162444 -0.064445145 0.006267319 0.015570584 -0.11512843
-0.12679352 0.009584314 0.07044667 -0.019617306 -0.008387302 -0.062099207 0.019815333 -0.02577085
0.08260983 0.03673575 0.025794255 0.0062430566 0.025641628 0.06414257 -0.07013524 -0.06037749
-0.08688135 -0.021002615 0.07759705 0.06120986 0.04341825 -0.03243137 0.039311472 0.036302805
-0.002635077 0.0048609837 -0.044127747 0.029140577 -0.05834956 0.05264647 -0.07811581 -0.1110685
-0.04238505 -0.07060755 -0.020065857 -0.13256365 -0.057450347 0.037709694 0.021539602 -0.06019438
-0.042515043 -0.032582026 -0.063531354 -0.0776052 -0.038406517 0.027309602 0.016897066 -0.04432943
0.0030723244 0.031761587 0.003467582 -0.065795526 -0.038128108 0.03829199 0.0679211 0.01692491
0.036860794 -0.016997231 0.029518206 0.08843311 0.02365256 -0.052832097 0.021029651 0.055066686
0.0661284 -0.033279132 0.027425427 -0.0380134 -0.067615725 0.040807515 -0.10291232 0.025249131
0.0014175808 -0.021202996 0.012741511 0.07720068 0.055650078 0.09010499 -0.060366966 0.032219715
0.070834965 -0.014254004 0.089091145 0.062884755 0.005408076 -0.003985929 -0.014279413 -0.017966682
0.086681046 0.035071533 -0.025508992 0.08847946 0.02122066 0.012166041 -0.053891066 0.025928987
0.052445512 0.05016784 0.03980495 -0.005079312 0.042851117 0.010826175 -0.06867736 0.014365023
-0.055318255 -0.10926782 -0.06664485 0.02223087 -0.016535727 -0.059723828 -0.057666577 -0.054533746
0.05287607 0.07724664 0.01606773 0.05864273 -0.00030645536 -0.079550765 0.051194474 -0.055861674
0.06710295 0.038370993 -0.05037219 -0.058733415 -0.04760481 -0.0048235166 -0.082306534 0.027267376
0.03450482 -0.024834076 0.049079344 -0.08141184 0.04284571 -0.003361629 -0.0092076855 -0.07456992
-0.042091303 0.029689403 -0.087039724 -0.06099316 0.037984382 -0.0073368656 -0.06986885 0.080444574
-0.024068398 -0.014916285 0.033616602 -0.027498698 0.09343929 0.100684315 0.113348134 -0.003894401
0.0021745875 0.12048659 0.05490817 0.016629238 0.062207524 0.062221512 -0.06975937 0.007609376
-0.023969058 0.02733721 0.033956707 0.02523038 0.06611319 0.04610937 0.04939873 0.050296985

conv2.0.bias f4 [32]
00000000: 5218 4ebd 3e56 71bd 07e5 4abd 01ea 5c3d
00000010: 67f1 39bd 7c4b 06bd dfd7 8d3d 53b4 a73b
00000020: 5191 9dbd 9395 8c3b bea1 2e3d 2ad3 aebd
00000030: 8ed3 b1ba 51d5 8bbd 3d4b e2bd c0b0 99bc
00000040: 2aa4 57bd da11 653c 0b48 93bd 13fe 993d
00000050: 4e62 1bbc a6d8 87bd 6cdb 82bd 99c1 88bd
00000060: 1ba2 123c a9c5 01be 230f d0bd b688 b23c
00000070: 8a24 be3b f17a 20bd 3a07 cdbd e9bb 8ebd
-0.050316162 -0.058920138 -0.049534824 0.0539341 -0.045396235 -0.03278683 0.0692594 0.005117932
-0.076937325 0.0042902916 0.042634718 -0.0853637 -0.0013567077 -0.06827796 -0.11049507 -0.018761039
-0.052646793 0.013981307 -0.071914755 0.07519164 -0.009483887 -0.06633119 -0.06389508 -0.06677551
0.008949782 -0.12673058 -0.10159137 0.021793704 0.0058026956 -0.039179746 -0.10011144 -0.06969435

conv2.3.weight f4 [32]
00000000: 8f2f 843f 071a 773f 2aa2 833f b955 733f
00000010: 78b7 7d3f 8315 7a3f b47d 713f c66f 823f
00000020: 6e1f 7e3f e7b3 813f 7268 803f ce25 763f
00000030: 284f 833f feba 823f bfb5 7e3f c5ab 823f
00000040: 5ac1 6c3f 9a2d 6c3f 7005 823f e08f 793f
00000050: 61c0 7a3f 6b72 763f b120 833f 9b44 853f
00000060: ec8b 823f 65e7 833f a073 813f 0680 723f
00000070: 43da 743f afa0 763f 2f90 7a3f 9909 793f
1.0327014 0.9652409 1.0283864 0.9505268 0.99108076 0.97689074 0.9433243 1.019036
0.9926671 1.0133027 1.0031874 0.96151435 1.0258532 1.0213315 0.9949607 1.020867
0.9248253 0.9225708 1.0157909 0.9748516 0.97949797 0.9626834 1.0244352 1.0411562
1.0198951 1.0304991 1.0113411 0.947266 0.9564554 0.96338934 0.97876257 0.9728027

conv2.3.bias f4 [32]
00000000: 5e99 5ebc 192d 273e c375 b53b a46b 0abd
00000010: 871f 893d 9078 e7bc be70 1b3e e246 4a3c
00000020: 3a27 cdba bfc7 f63d e79d c6bc 3e8e 153e
00000030: a6a1 6bbd 7af3 513d 8f9e 183e f1a4 98bc
00000040: b4b8 4e3d 5109 903d 5810 a3bc 3b26 92bc
00000050: a09e f33c 92da ae3d 4bb9 0f3e a939 b93c
00000060: a395 c33d f059 163e 5614 b7bc 9d4b 90bd
00000070: 2520 c43d 075d e13d 3f29 b43d c84e ce3d
-0.01358637 0.16325797 0.00553772 -0.03379406 0.066954665 -0.02825573 0.15179726 0.012346001
-0.0015651949 0.12049817 -0.024245216 0.14605042 -0.057527207 0.051257588 0.14904235 -0.018633338
0.050469115 0.07033027 -0.019905254 -0.017840495 0.029738724 0.08537783 0.14035527 0.022610502
0.09550025 0.14682746 -0.022348564 -0.07045672 0.095764436 0.11004072 0.087969296 0.1007362

conv2.3.running_mean f4 [32]
00000000: e9fd 533e a85b 163f 857f 873e 4905 253f
00000010: 9be7 cc3e 69ed 813e 9819 e03e 8673 7a3e
00000020: 1d24 bc3e 4c07 ca3e 8b1d 813e b6f6 863e
00000030: ae03 963e 3994 b53e 1d49 9f3e d81e 7c3e
00000040: 6256 ae3e 8a92 ea3e 33ce 583e 2cb4 fe3e
00000050: cdb7 b73e 8a14 be3e 30e4 d73e 89ab 563e
00000060: 8b4e bd3e a7d7 8b3e ef16 893e b9e7 8f3e
00000070: 9906 be3e 50cc d63e 707e aa3e 7f5b 593e
0.20702328 0.58733606 0.26464477 0.6446119 0.4002045 0.25376442 0.43769526 0.24458131
0.36746302 0.39458692 0.25217852 0.263601 0.29299682 0.35464647 0.31110469 0.24621141
0.3405028 0.45814925 0.21172409 0.49746835 0.35882416 0.37125045 0.4216628 0.20963873
0.36973986 0.27312967 0.2677531 0.28106478 0.3711441 0.41952753 0.3329959 0.21226309

conv2.3.running_var f4 [32]
00000000: 14f3 c53d 6c6c 733f 05ce 2f3e 0ac8 2a3f
00000010: 3426 a43e 6d37 d23d 163c 533e 7fe8 463e
00000020: 1fb6 9e3e 4b2b 103e c387 f13d 5b1f 0a3e
00000030: c562 eb3d d2f0 c73e c877 003f 6d8e e23d
00000040: 6e1a c03e 00f7 8c3e aea7 ff3d 6a59 bf3e
00000050: 1456 503e bb94 c23e d9ec dd3e be42 f73d
00000060: d951 a53e 4e91 063e b257 053e 010e e53d
00000070: daec 8b3e 6c06 043f d8da a43e dbed 513e
0.09665504 0.95087314 0.17168434 0.66711485 0.32060397 0.10264478 0.2062839 0.19424628
0.30998322 0.14079015 0.117934726 0.13488524 0.11493448 0.3905092 0.5018277 0.11062322
0.37520164 0.27532196 0.12483154 0.37372905 0.20345336 0.38004097 0.43344763 0.12073277
0.32289007 0.13141367 0.13021734 0.11184312 0.2732914 0.515723 0.32198215 0.20500891

conv3.0.weight f4 [64, 32, 3, 3]
00000000: fa84 1fbc 35bc 08bc 6698 cbbc 9a29 b3bc
00000010: e7b1 22bc 26cc 01bd d2fa 57bd d34a d43c
00000020: 7744 babd 820c 63bd 0252 093d c1d8 54bc
00000030: 209a b0bc 04fc 5fbd c606 e0bc 499c 47bc
00000040: a16f babc d2e2 4b3d 0579 0bbd 7ece e8bc
00000050: a199 cabd 48b8 0f3b 7d87 2dbc 2739 c5bc
00000060: f87f b9bd 6da5 c6b9 081f 1dbd cbb1 cc3c
00000070: 2dc5 51bd 5401 453d 26f5 aebc 3b1b 4ebd
00000080: 769a a4bc 07fe 1cbd b73e adbc 2224 5ebd
00000090: b5f1 abbd 1e69 9abd 5796 29bd 9158 efbc
000000a0: 0ec4 9abd fea9 72bd fa9e 0abd 6f10 2abc
000000b0: 4363 ddbc a129 7ebc 9283 8639 36b7 0fbc
000000c0: a305 513d 3332 233d 5e72 b03c 6b10 a9bb
000000d0: 0b9b 343d fc68 003d f220 8f3c 9121 8ebd
000000e0: 2fb4 34bc 849b f63c c1c9 65bd 4832 14bd
000000f0: a531 29bd 2d9f ffbb 6874 62bd f967 42bd
00000100: e3b7 3cbd 1295 3bbd 537c 65bd 5b77 2f3c
00000110: ca56 61bd a9b0 06bd fc4d 403d d24c fa3c
00000120: 01cd 68bc b8bf 483d 930d c63c d10a 283d
00000130: 50cc 2b3c aa79 97bc fa53 8fbd 2978 e93c
00000140: 9bc2 ed3b 14fd 843c 2fd1 2dba 445b a23c
00000150: ecad 1dbc d6c6 473d 468e d63c 124c 5b3c
00000160: a60e aa3c 5d67 393d 77cd cebc 8734 c4bc
00000170: 46a6 013d 8c7b 10bc 310c d8bc f87e bb3c
00000180: efb3 37bd c603 b8ba 2310 1cbc cac0 98bc
00000190: 8d15 f83b 0b70 0a3d 01f0 40bd 097e c2bc
000001a0: 35a6 aebb faf4 4cbd 3ff3 57bd e6e9 91bc
000001b0: 194e b4bc 571e 093d 7a3b cf3c cefb 3abd
000001c0: 7275 053d 775f 6fbc 3681 38bd 55f4 673c
000001d0: 8fbc bcbc 535f 9ebd a3c4 65bd 4944 74bd
000001e0: 0b93 a2bd 69b1 4cbd ccea 96bc 4672 83bd
000001f0: 6bc2 cb3c 7c74 09bc a43b edbb ff3d 283d
00000200: 1514 543c 3987 24bd 35b4 49bc 3910 063c
00000210: 1151 55bb 012d 013d 88a7 fabb 6b7c d7bc
00000220: e6a7 dbbc fbfe 573c 6fca afbc 432a 8cbc
00000230: af82 19bd 8902 5fbd 190b 173c 85ca 19bd
00000240: 612e 893d d62c 023b 9933 d3bc bf6f e9bc
00000250: 1aca c83c a1d6 513c 40be ffbc 23a0 443d
00000260: 29d4 2a3d 3923 eabb 7819 d93c 5581 f03c
00000270: 4de9 70bc fd37 2c3d 79cf 6abd ce14 123c
00000280: d0a4 403d 31f6 163d 89e0 a1bc edb1 183d
00000290: fa20 0dbd feb3 033d f624 b73c 7253 81bd
000002a0: f1e0 29bd bffc 33bc 61a2 c53c 7a24 61bd
000002b0: a1ac e4bc 5e30 193d 0c60 22bd 87f2 e4bc
000002c0: 873e 8cbc a5d4 ae3b 185f 243d 7c99 3ebb
000002d0: 0ed9 003d 197a 47bc 25cd 40bd 8833 10bd
000002e0: e751 a7bb ef9e 42bd 716c d4bc 5605 bd3c
000002f0: 76c9 bf3b 8a16 0fbd 13c3 52bd 3390 9f3c
00000300: db20 f6ba 3996 50bc eeee 7abd e8a6 233c
00000310: 1c2a 703b 3f8b 61bd 55bb be3a f5b4 96bc
00000320: 16a5 143d 6634 2ebd ddf0 693d 41a0 fc3c
00000330: 64af 2abd aa02 41bd 84d3 42bc fe5c 27bb
00000340: aba8 66bd 6099 b4bd 1bbe 26bd e551 f8bc
00000350: c441 83bc 59a3 1ebd 7a65 2fbd 34fd bdbd
00000360: 47c2 2fbd cf29 56bd 03f1 adbd 8690 1f39
00000370: 3a7e 36bc 0ac5 6ebd 80d6 5ebd 714d 6fbd
00000380: 5030 62bd 4230 333c 419b 673d 3973 aabc
00000390: b5fd f5bc b058 a73c c329 efba a845 63bd
000003a0: 8f54 113d ef6f 4ebd 5680 a3bc a668 083c
000003b0: dde1 d4b8 0d29 863c c48b 843a 5b63 9e3c
000003c0: 3e3c 62bd 190b 56bd acee b73c f0ca 87bc
000003d0: 2268 27bd ebfe 5ebd 67ba 273c 6d36 1dbd
000003e0: e91f 78bd 1926 3abd 4803 4a3b 5a7e b73c
000003f0: 7383 8fbb dccb debc 05ed 1bbd 2b4f 70bd
-0.009736294 -0.008345653 -0.024852943 -0.021870423 -0.009930111 -0.03168883 -0.052729435 0.025914585
-0.0909509 -0.05543185 0.033525474 -0.012991131 -0.021557868 -0.0546837 -0.02734698 -0.012183257
-0.022758307 0.04977686 -0.03405096 -0.028418776 -0.09892584 0.0021929909 -0.010591385 -0.024075104
-0.09057611 -0.00037888755 -0.03835967 0.024987122 -0.051213432 0.04809697 -0.02135713 -0.050318938
-0.020093184 -0.038328197 -0.021148069 -0.054233678 -0.08395711 -0.07539581 -0.04140314 -0.029217036
-0.07556926 -0.05924415 -0.033843018 -0.010379895 -0.02702487 -0.015512855 0.000256565 -0.008771708
0.051030766 0.039842796 0.02153891 -0.005159428 0.044093173 0.03135012 0.017471764 -0.06939996
-0.011029287 0.030103453 -0.05610061 -0.036180764 -0.04130711 -0.0078009577 -0.055286795 -0.047462437
-0.046073806 -0.04579646 -0.056026768 0.010709609 -0.05501441 -0.03288332 0.04694937 0.030554209
-0.014209033 0.049010962 0.024176395 0.04102594 0.010485724 -0.018490631 -0.06998439 0.02849968
0.007255865 0.016233958 -0.0006630597 0.01981891 -0.009623986 0.04877361 0.026190888 0.013384836
0.020758938 0.04526459 -0.025244458 -0.023950828 0.03165271 -0.008818518 -0.026373 0.022887692
-0.044849332 -0.001403921 -0.009525332 -0.018646616 0.0075709284 0.03379826 -0.047103886 -0.023741739
-0.005329872 -0.050038315 -0.052722212 -0.017811727 -0.022009896 0.0334762 0.025296915 -0.045650296
0.032582708 -0.014610163 -0.0450451 0.014157374 -0.02303913 -0.077330254 -0.05609573 -0.059635434
-0.079382025 -0.04997388 -0.018422507 -0.0641828 0.02487298 -0.008389588 -0.0072397757 0.04107475
0.012944241 -0.04016802 -0.012311031 0.008182579 -0.003254954 0.03153706 -0.007649366 -0.026304444
-0.026813459 0.013183351 -0.021458833 -0.017109996 -0.037478145 -0.054445777 0.0092189545 -0.037546653
0.06698299 0.001986315 -0.02578144 -0.028495668 0.024510432 0.012807519 -0.031218648 0.04800428
0.041706238 -0.007145312 0.026501402 0.029358545 -0.014704061 0.042045582 -0.057326768 0.008916093
0.047032177 0.03685588 -0.019760387 0.03727906 -0.034455277 0.032154076 0.022356492 -0.06314744
-0.041474286 -0.010985552 0.02412528 -0.054966427 -0.027914347 0.037399642 -0.03964238 -0.027947677
-0.01711966 0.005335408 0.04012975 -0.0029083183 0.031457 -0.012175106 -0.04707064 -0.035205394
-0.005106199 -0.047514852 -0.025930615 0.023073833 0.0058528734 -0.034933604 -0.05145557 0.01947794
-0.0018778102 -0.012731128 -0.061263017 0.009988524 0.0036646193 -0.055064436 0.0014551679 -0.018396834
0.03629025 -0.04253044 0.05711447 0.030838134 -0.04167117 -0.04712168 -0.01189125 -0.0025537605
-0.056313198 -0.088183165 -0.040708642 -0.030312488 -0.01602257 -0.03873 -0.042821385 -0.0927681
-0.042909887 -0.052285966 -0.08493235 0.00015217261 -0.011138493 -0.05829338 -0.054403782 -0.058423463
-0.055221856 0.0109367985 0.056544546 -0.020806896 -0.030028204 0.020428032 -0.0018246699 -0.05548635
0.035481032 -0.050399717 -0.019958656 0.008325731 -0.00010151018 0.016376996 0.0010112454 0.019334486
-0.055233233 -0.052256677 0.022452675 -0.01657626 -0.040870793 -0.054442327 0.010237313 -0.038381983
-0.060577307 -0.04544649 0.003082471 0.022399116 -0.0043796836 -0.027196817 -0.038067836 -0.05866925

conv3.0.bias f4 [64]
00000000: a670 c5bd 73f2 d83c de84 3cbd 7d2f afbd
00000010: 8d50 8e3c 982b 7a3c 9eec 49bd 86c1 b5bc
00000020: 8618 193c 210d 5abd 807a 513d 9d4b 6bbd
00000030: c270 03bc e348 be3c f255 34bd 872e f33b
00000040: fff0 19bd f33c 01bd 8d85 ebbc faf7 a2bd
00000050: 0249 3cbd f0dd ecbc 6274 1ebd cf0f 1fbd
00000060: 8f49 113d a609 493b d273 97bd 87db 06bd
00000070: 0c65 f8bd 601c fabc 7e6e bbbd f6c3 52bd
00000080: e7fc 0bbd a010 8fbd a975 88bc 73c7 75bd
00000090: d985 88bb 7adf 453c 5c9c cbbd ae28 8bbd
000000a0: f950 7cbd a16d 803b 7631 16bd 36f7 afbb
000000b0: b57c bf3c ea12 00bd c29a 19bb a97c 633c
000000c0: 76d4 a93c a436 a4bd 720b 99bc a778 6abd
000000d0: b6c1 3dbd 2fc5 58bc f3e0 6d3b 917d 76bd
000000e0: c510 853c 21ff dabc 43a4 0d3d ae61 1c3d
000000f0: b5cc d63c 3035 0bbd 3927 1ebd 980d 9bbd
-0.096406266 0.026482796 -0.04602515 -0.085539795 0.017372394 0.015269183 -0.04929792 -0.022187006
0.009344226 -0.053235177 0.051142216 -0.057445157 -0.008022489 0.023228114 -0.044027276 0.007421318
-0.037583347 -0.031552266 -0.028750205 -0.07957454 -0.045968063 -0.028914422 -0.03868521 -0.038833436
0.03547054 0.0030675917 -0.07395138 -0.0329242 -0.12128648 -0.030531108 -0.09151934 -0.051456414
-0.034176733 -0.06985593 -0.016657667 -0.060004663 -0.0041663465 0.012077207 -0.099419326 -0.067948684
-0.06160066 0.003919319 -0.036668263 -0.005370046 0.023374895 -0.031268038 -0.002343819 0.013884702
0.020731192 -0.08018234 -0.018682215 -0.05724397 -0.046327315 -0.013230606 0.003629741 -0.060178343
0.016243348 -0.026732983 0.03458048 0.038179092 0.026220659 -0.03398627 -0.038611624 -0.07570952

conv3.4.weight f4 [64]
00000000: 4e6d 843f 2b42 863f a12e 8c3f 0323 903f
00000010: d88a 8f3f 5ad3 8e3f 226b 943f c41a 833f
00000020: 35a9 773f 0546 8e3f eaaf 8f3f 5ae2 803f
00000030: 3d2e 8e3f 0bda 843f 24e9 853f 555d 8d3f
00000040: eabf 833f d583 873f 345a 8f3f b568 883f
00000050: c657 833f 67b2 933f e88a 8f3f 62a7 8f3f
00000060: 625d 833f 50cf 853f 67b4 813f 6166 913f
00000070: f4a1 833f a79d 8a3f 1491 833f 1d80 813f
00000080: 61cf 883f 05c1 863f f132 833f 2339 823f
00000090: 1dae 773f 3bfd 903f 3a0f 8f3f f54f 8e3f
000000a0: 6a4e 833f 359b 7d3f cda9 813f bbce 8c3f
000000b0: fdee 873f 59b0 913f 55c6 883f bbbe 7f3f
000000c0: 4e5e 8e3f 91d1 903f 1618 8a3f 8a51 8d3f
000000d0: 40b6 803f 11e1 8c3f 14e6 923f 30fd 853f
000000e0: 01b6 833f 94a5 8f3f e8e1 903f 0240 783f
000000f0: d974 8e3f ed1d 903f 94eb 823f ff05 8e3f
1.0345857 1.0488943 1.095173 1.1260685 1.1214247 1.1158249 1.1595194 1.0242543
0.96742564 1.1115118 1.122556 1.0069077 1.1107861 1.0379041 1.0461774 1.1044108
1.0292943 1.0587107 1.1199403 1.0656954 1.0261161 1.1538819 1.1214266 1.1222956
1.0262873 1.0453892 1.013318 1.1359369 1.0283799 1.0829362 1.0278649 1.0117222
1.0688287 1.0527655 1.0249921 1.0173687 0.9675005 1.132728 1.1176522 1.1118151
1.0258305 0.9906495 1.0129944 1.1000589 1.0619808 1.1381942 1.0685526 0.99900407
1.112253 1.1313955 1.07886 1.1040509 1.0055618 1.1006185 1.1476464 1.0467892
1.0289918 1.1222405 1.1318941 0.9697267 1.1129409 1.1259133 1.0228143 1.109558

conv3.4.bias f4 [64]
00000000: 2c63 4d3c 0d67 c33c b1ee 77bc 6d2e fabc
00000010: 81cc a9bc 8472 9dbc 2552 92bc 5599 be3c
00000020: 8312 0a3c 84f3 d9bb d4f1 25bc 0a8d 2e3c
00000030: b570 29bd 607e 3e3c 1433 023d e8c1 debc
00000040: ec6b d43c deb8 ad3c 4873 21bc 082e 18bd
00000050: 47da 353c c04f e3bc 653a 00bc 807d 05bd
00000060: 8585 f3ba 7784 813c 6180 1a3c cf42 28bd
00000070: 3086 10bb bfde d7bc 534b 9e3c 6c2c fb3b
00000080: 2198 b2bc 5ecb b03c 30e2 153c a0f7 ea3c
00000090: 8d70 7fbc f047 a3bc c49d d8bc 5945 03bd
000000a0: e52a 3a3c 168a 3d3d 042e 333d 91cb bfbc
000000b0: d255 eb3c 734d edbc 813e c7bc 21a0 8e3c
000000c0: 54c1 34bd 40f9 56bc 4d70 913c caed 38bc
000000d0: dc24 403c bd0d c7bc ece4 d2bc aaf9 413c
000000e0: e574 fb3c efc1 1fbc e643 87bc 8dea 933c
000000f0: 5099 3dbc 7ba9 41bc 9a74 173d f2f4 05bc
0.012535851 0.02385285 -0.015132592 -0.030539716 -0.020727398 -0.019219644 -0.017861435 0.023266474
0.008427265 -0.006651344 -0.010128457 0.0106537435 -0.04136725 0.01162681 0.031786993 -0.027192071
0.025930367 0.021206316 -0.009854145 -0.037153274 0.011099405 -0.027747989 -0.007826422 -0.03259039
-0.0018579221 0.015810234 0.009430022 -0.04107934 -0.0022052638 -0.02635133 0.019323027 0.0076652076
-0.021801056 0.021581348 0.009148166 0.02868253 -0.015590799 -0.019931763 -0.026442416 -0.032048557
0.011362766 0.046274267 0.043745056 -0.023412498 0.028727446 -0.028967595 -0.024321796 0.01741034
-0.044129685 -0.013120949 0.017753744 -0.011287162 0.011727538 -0.024298543 -0.025743924 0.01183931
0.030695388 -0.009750827 -0.016511869 0.018056178 -0.011572197 -0.011820192 0.036976434 -0.008176075

conv3.4.running_mean f4 [64]
00000000: 65fe 153f 5e71 3d3f 4830 ff3e 25fe bf3e
00000010: 57ad 1a3f d5fe 043f 133b f93e 87a3 333f
00000020: d546 233f ddc1 043f d7b4 243f ad39 263f
00000030: 71f1 1a3f 90b5 133f d26a 2d3f 207d 093f
00000040: 983f 313f f5fa 233f a386 e23e 1349 113f
00000050: 2d5f 133f 0294 f93e 7a83 0a3f 4cdc da3e
00000060: d126 3f3f e28b 343f 9c32 2d3f cb49 fd3e
00000070: c398 1c3f 3daf 023f 7d87 333f a0fc 493f
00000080: c64e 273f 45f0 1e3f 654c f93e 2d79 2c3f
00000090: bba7 513f 30ad 003f 7ee8 af3e 645a f53e
000000a0: 74ee 1a3f 2d4d 473f d498 ea3e 31da ef3e
000000b0: b301 383f b03a 083f 2aea d03e 65ae 2d3f
000000c0: 1421 013f a42b e13e f476 293f 0cd2 093f
000000d0: c442 373f b457 0e3f c866 fd3e 5755 323f
000000e0: cf62 323f d380 013f 0885 083f e120 5d3f
000000f0: 5bca 1c3f 4a0a 063f f12e 203f 0987 ea3e
0.585913 0.7400111 0.49841523 0.37498584 0.60420746 0.5195134 0.48677883 0.701714
0.63779956 0.5185831 0.6433844 0.64931756 0.6052466 0.5769892 0.6774112 0.5370655
0.6923766 0.64054805 0.44243345 0.5675213 0.575671 0.48745733 0.5410687 0.42746198
0.74668604 0.70525944 0.6765535 0.49470362 0.61170596 0.5104864 0.70128614 0.789011
0.65354574 0.6208537 0.48691097 0.673724 0.8189656 0.50264263 0.34357065 0.47920525
0.605201 0.77852136 0.45819724 0.46846154 0.7187759 0.5321455 0.40803653 0.6784423
0.504411 0.43978608 0.66197133 0.5383613 0.7158625 0.55602574 0.49492478 0.6966147
0.6968202 0.50587195 0.5332799 0.86378294 0.6124627 0.5235945 0.62571627 0.4580615

conv3.4.running_var f4 [64]
00000000: 168d b13f 324c df3f a9fa 0d40 9a37 b53f
00000010: 9843 4940 05c0 1e40 ce0c 0640 7f26 eb3f
00000020: 2d1d b03f f0d6 0c40 0bd4 4340 e924 eb3f
00000030: bb2a 3540 e183 aa3f 4011 b53f 08a7 2f40
00000040: a1cf f03f 4e52 cf3f 2bed f83f f0c3 3640
00000050: d6a5 993f b0c0 0840 e4a3 1a40 840c dd3f
00000060: 919f d13f 082a e53f fc76 0540 7748 0840
00000070: 875c fe3f 44e4 0240 5d96 0b40 66b8 f83f
00000080: 0441 6540 9b47 b73f ee43 853f ecad a63f
00000090: 21ef ae40 91b6 0940 e5a4 883f 9cfd 0c40
000000a0: f6e9 963f 783c f53f 51cb 393f f7a9 dc3f
000000b0: c01c c13f ad70 2040 b79b bf3f b3f7 dd3f
000000c0: 862f 0340 a1be 0040 d449 b13f 2a30 2a40
000000d0: 63e6 cf3f 2901 3140 1ffd 2a40 02ed cb3f
000000e0: 714d b83f 5aa3 0840 9c7d f83f 20ae 9240
000000f0: efe5 3040 d82e 1f40 3a79 b63f 83a9 0840
1.3871181 1.7445128 2.218424 1.4157593 3.1447506 2.48047 2.0945315 1.8371123
1.3758904 2.2006187 3.059817 1.8370639 2.830733 1.3321496 1.4145889 2.7445698
1.8813363 1.6196992 1.9447378 2.855709 1.2003734 2.1367607 2.416253 1.7269444
1.6376821 1.7903452 2.0853872 2.129423 1.9871987 2.0451822 2.1810524 1.9431274
3.5820932 1.4318727 1.0411355 1.3021827 5.4666905 2.151768 1.0675322 2.202979
1.1790149 1.9159079 0.7257586 1.7239369 1.5086899 2.5068772 1.4969395 1.7341217
2.0497756 2.011635 1.3850656 2.6591897 1.6242183 2.7656958 2.6716993 1.5931704
1.4398633 2.1349702 1.9413333 4.5837555 2.764034 2.487234 1.4255745 2.1353462

fc.0.weight f4 [32, 64]
00000000: 38d8 d13d 9320 2e3e 2425 d43c 8ebd 25bd
00000010: b93d 56be bd2a 263c 4086 94bd 34ef 4ebc
00000020: 2f5a 953d 0c56 8abd 751f 09be 4981 cabd
00000030: 512e ecbd ee21 1b3d a09c d13d ce54 2cbe
00000040: afa4 c43c 50f4 433d e459 08be d4af b7bd
00000050: 4174 9dbd 7184 e0bc edab 28bd 6d66 5abe
00000060: 1c0f 8c3d dcbb b93b 3f97 84bd 6677 c4bd
00000070: b9a1 b93d 62c9 38bd 1bd3 98bb b430 0d3e
00000080: 1fdc cb3c 8c21 2c3d 30b9 8f3d 638b e93d
00000090: ed1b 913d e4ea 25be e962 92bc 6494 31be
000000a0: 3b7e 623d d02b 283d 2024 10bb 2f44 d0bd
000000b0: b6d4 083e d56b 41be faee ebbd 7a86 f3bc
000000c0: 2d07 173c a490 e5bd 3806 aa3c 5b8c 09be
000000d0: 101e a33d 51c5 08be cc8b 49bd 8b29 ff3d
000000e0: 8a8d 873d a6b3 acbb 200d 2fbe 2723 23bd
000000f0: 52e3 8cbd 5cd4 5fbc 2873 293c 0c11 16be
00000100: 41c0 3ebd 9df6 25bc 10da 96bd e44f 25be
00000110: 2fbc 43bd 5bdd 063c f5b7 05be 06e4 973d
00000120: 5015 a4bd f240 08be d3b8 3b3d 4ab8 79bd
00000130: 163f a9bd c813 d33d 889f 1e3e 73ff b7bd
00000140: 65ab 013e 58c4 953d e940 acbd 8df8 623c
00000150: b0e8 86bc 84b2 35be 5c39 3ebe 7c7d 36be
00000160: bcb0 0dbc 4599 f73d fd6f b33c 839e 0cbe
00000170: a70f df3d 6c9c 0cbe 7163 d93c 8c76 40bd
00000180: 627d 2fbd a43b 1e3e c481 023e c517 0e3e
00000190: 2316 3a3d b3ed aabd c925 f7bd 0164 2dbe
000001a0: dd76 83bd f35b f83c abdf d33d d5c8 c73c
000001b0: 8427 57bc 1c51 d4bd 511c dc3c 01a2 dc3d
000001c0: 9e4e 38be 88fb 27bd 5aad 3cbd e657 f8bc
000001d0: cfe7 cb3d 3d29 92bd 1513 3ebd 2483 233e
000001e0: bf12 0a3e ce0f 89bd ac41 afbd 2b9b 80ba
000001f0: 57eb 08be 18d7 bcbc b111 133d 9d67 97bd
00000200: bac8 ddbb 1c0e 503d 9b0a e7bd 5c9a f0bd
00000210: 9466 25be 5392 dfbc 23c3 3ebe e652 293d
00000220: 68c7 a23d 36c3 47bc e50f c0bd 6b15 c63d
00000230: 50a7 fabd cfe4 b33d 8cf4 a83d 571b e9bd
00000240: ae3a 433d 3d6b be3d b055 e33c bc2b 17be
00000250: f332 133d 5b43 05be a195 25be c5f1 15be
00000260: 6e8f 42bd d55e 1fbc b36f f13d 0a3f dfbd
00000270: 2144 bb3d 0e87 223c b694 163e be28 6fbd
00000280: f2f0 9bbd bc69 8e3d 41ec 45bd 3931 b23d
00000290: f4ed b1bd 7b49 09be 56d1 24bd 2b35 33be
000002a0: 7317 0e3d 6112 47bd 6523 d43d 2ebd a0bd
000002b0: 0c63 f23c 23cc 2ebe 7c6d 2d3c 8805 b7bd
000002c0: cf88 e33c c820 3e3c 67bf db3d 69fb dfbd
000002d0: 7098 013e 0b9c 0abe 869d 99bd 0886 103e
000002e0: 29c5 8e3d 1024 3abe 6a21 5bbe 6d1d 983d
000002f0: 8e99 08be 35af c0bd 7110 693b 3304 0abe
00000300: d5d4 efbd 9221 dabd ac80 973c 723a 923d
00000310: 22f7 373e 139c 233e 0680 113e 9599 c2bd
00000320: 28c3 123d 8e0d 233e c098 833d ad8d eebd
00000330: cc6a 083e f303 c1bd ee0b 18be b45b d43d
00000340: 614b fbbd d46b 2d3a 2917 463c 0f75 e53d
00000350: aeda b6bd 6002 403e a323 833d eb21 d33d
00000360: 3327 4b3d 047a 693d 34af 7dbc f0b9 b7bc
00000370: 47f7 333d d5ad 2c3e b53c 43bb 4fee f2bd
00000380: 9564 033e 821d 34bd 8496 1bbe 5c13 96bd
00000390: 57b0 a7bd 1356 6c3d dff5 0b3d 0fd5 103d
000003a0: 1bd3 2c3d 123b 11be d0ab 293c 4588 083e
000003b0: d46f a3bd b689 3b3e aea2 49bc 778f e5bc
000003c0: 00af 0d3b 6c97 0c3d 5352 93bd 6f60 af3c
000003d0: 5838 acbc 182f 363e f4bb 223e 3201 d7bd
000003e0: 6dd7 00be f996 803d 5327 0c3c f911 04bd
000003f0: 1db4 14bc c03a 413e 6039 8dbd 7be6 523d
0.102463186 0.17004614 0.025896616 -0.040463977 -0.20921983 0.010142026 -0.07252169 -0.012630273
0.07292592 -0.067546934 -0.13390906 -0.098879404 -0.11532272 0.037874155 0.10234952 -0.16829225
0.024004309 0.047840416 -0.1331554 -0.089690834 -0.07688189 -0.027406903 -0.041179586 -0.21328135
0.068388194 0.0056681465 -0.064741604 -0.09593086 0.09064049 -0.04511393 -0.0046638376 0.1378811
0.024885235 0.04202418 0.070177436 0.11403539 0.070854045 -0.16202885 -0.01786943 -0.17341763
0.055296164 0.041057408 -0.0021994188 -0.10169255 0.13362393 -0.18888791 -0.115201905 -0.02972721
0.009218019 -0.11209229 0.020754918 -0.13432448 0.07964718 -0.1335652 -0.049205586 0.124590956
0.06618793 -0.005270439 -0.1709485 -0.039828446 -0.068792954 -0.01366147 0.010342397 -0.1465494
-0.046570066 -0.010129598 -0.07365811 -0.16143757 -0.047786888 0.008231486 -0.13058455 0.07416539
-0.080118775 -0.13306025 0.04583056 -0.060966767 -0.08263986 0.10306507 0.15490544 -0.0898427
0.12663038 0.0731284 -0.08410818 0.013853204 -0.016468376 -0.1774388 -0.18576568 -0.17821306
-0.008648094 0.12089781 0.021903986 -0.13732342 0.10891657 -0.13731545 0.026536675 -0.046988055
-0.042844184 0.15452439 0.12744814 0.13876255 0.045431267 -0.08346119 -0.12067754 -0.1693268
-0.06419156 0.030317282 0.10345396 0.024387756 -0.01313198 -0.10367033 0.026868971 0.10773087
-0.1799874 -0.041011363 -0.04606376 -0.03031535 0.09956323 -0.07136772 -0.046404917 0.15967995
0.13483714 -0.06692468 -0.08557448 -0.0009811869 -0.13371025 -0.023051783 0.035905544 -0.073928095
-0.0067683132 0.050794706 -0.1128132 -0.11748192 -0.16152412 -0.027291453 -0.18629126 0.041338824
0.0794819 -0.012192538 -0.09378032 0.09672054 -0.122389436 0.08783876 0.082497686 -0.11382168
0.047663383 0.09297798 0.02775082 -0.14762777 0.03593726 -0.13013975 -0.1617036 -0.14643009
-0.047500066 -0.0097272 0.11788883 -0.109006956 0.09143854 0.009919895 0.14705166 -0.058388464
-0.07614316 0.06953761 -0.048321012 0.08700795 -0.08687964 -0.13406937 -0.0402387 -0.1750075
0.03469033 -0.048601512 0.103583135 -0.07848583 0.029588245 -0.1707006 0.010585185 -0.08936602
0.027775196 0.011604495 0.107298665 -0.109366246 0.12655807 -0.13536088 -0.07500748 0.14113629
0.06971199 -0.18177819 -0.21399465 0.074274875 -0.13339826 -0.09408418 0.0035562778 -0.13478164
-0.11710516 -0.10650934 0.018493973 0.07140054 0.17965367 0.15977506 0.14208993 -0.0950195
0.035830647 0.1592314 0.06425619 -0.11648116 0.1332199 -0.094245814 -0.14848301 0.103690535
-0.12270237 0.0006615494 0.012090483 0.11203968 -0.089284286 0.18750906 0.064032815 0.10309204
0.04959793 0.05700113 -0.015483666 -0.02242753 0.043936994 0.16863187 -0.0029790823 -0.1186186
0.12831338 -0.043973453 -0.15194136 -0.07327911 -0.08187931 0.057699274 0.034170028 0.03535944
0.042193513 -0.1418269 0.010355905 0.13333233 -0.07980314 0.18314251 -0.012306852 -0.02802251
0.00216192 0.034324095 -0.071934365 0.021408288 -0.02102296 0.17791402 0.15892011 -0.10498275
-0.12582178 0.06278796 0.0085542975 -0.032243703 -0.0090761455 0.18870068 -0.06895709 0.051489335

fc.0.bias f4 [32]
00000000: df54 57bd 622a a1bd 21ab 8ebd c86e 333d
00000010: 6708 38bd 46aa d0bd 9b55 753d f78a 27bd
00000020: 359d a7bd f4da 2ebd f1ef 96bd c056 91bc
00000030: 95f0 c03d bacd bebb a3c3 73bd 3492 413d
00000040: 3e78 8e3d 3ea8 dbbd 9515 debc 4ab3 7a3c
00000050: d6d0 e2bc efb7 c83d 76f9 5d3d 5041 f7bd
00000060: 2298 143c fd41 e73d e8eb b33d 4886 c73d
00000070: e610 d03d 3796 c43d dbcb 76bc 1b54 b43c
-0.052571174 -0.07869412 -0.06966234 0.04380682 -0.044929888 -0.10188727 0.059896093 -0.04090401
-0.08184282 -0.04268928 -0.07369984 -0.017741561 0.094208874 -0.0058228644 -0.059512746 0.04725857
0.06956528 -0.10725449 -0.0271099 0.015301535 -0.027687471 0.098007075 0.054192983 -0.12073004
0.009069474 0.11291883 0.0878523 0.09742409 0.10159473 0.09598964 -0.015063251 0.02201276

fc.3.weight f4 [1, 32]
00000000: b65d 8bbd c705 fabd 0011 1bbe 7ae5 903e
00000010: e639 703e 678c debd 4a6e 743d 8ed9 823e
00000020: c452 dcbd a040 15be 770a 7c3e adf4 c1bd
00000030: 39c7 41be aca4 06bd d3d7 56bd 3d89 84bd
00000040: 6049 b0bd 3b61 373e 5efc 45be eed6 d6bd
00000050: 26b9 0b3e 9c64 6f3e 811e 5e3e 1a20 8b3e
00000060: 2672 1bbe 283a 37be 330d 0c3e 0323 0abe
00000070: 87d1 563e 2ea8 a9bd 7732 2cbe 0786 febd
-0.06804983 -0.12208133 -0.15143204 0.28300077 0.23459587 -0.10866623 0.059675492 0.25556606
-0.10757974 -0.14575434 0.24613367 -0.09470496 -0.18923654 -0.032871887 -0.05245192 -0.064714886
-0.08607745 0.17908184 -0.19334552 -0.10490213 0.13644847 0.23378223 0.21691324 0.2717293
-0.15180263 -0.17893279 0.1367691 -0.13489918 0.20978366 -0.08284031 -0.16816126 -0.124279074
