5 第五讲 机器学习训练模型的数学范式v16/models/model80.pth (torch, 112459 bytes, 21 tensors)

conv1.0.weight f4 [16, 3, 3, 3]
000000 47 67 4b bc 67 2e ee bd ff d1 18 3e 36 21 55 bd
       -0.01241476 -0.11629944 0.14923857 -0.052033626
000010 4a dc 06 be e5 91 2c be 33 fd 33 3d c8 28 21 be
       -0.13169971 -0.1685253 0.04394264 -0.15738213
000020 4e f3 c7 3d a7 e3 93 3d 28 88 42 3e db b0 07 be
       0.097632036 0.072211556 0.18997252 -0.13251059
000030 e6 5f 08 3d 8c cf 17 3d 7b 16 da 3c f5 81 da 3d
       0.03329458 0.037063166 0.026622048 0.106693186
000040 0c 00 03 3b 15 6f 7f bd db 30 16 3e 37 40 f3 bd
       0.0019989042 -0.062361795 0.14667074 -0.118774824
000050 97 d7 18 be 3f 02 d7 3d 90 02 4f bd 23 13 20 3e
       -0.14925991 0.10498475 -0.050539553 0.156323
000060 db 87 fa bd d1 20 1d 3e 2f 5c 31 3d 45 48 3d bd
       -0.122329436 0.1534455 0.043300804 -0.0462115
000070 46 79 12 3e 52 38 86 bd fd 0f 3d 3a fd ee 8e bd
       0.14304075 -0.06553711 0.000721216 -0.06979177
000080 75 a9 b8 3d 63 76 77 3d 7c 17 1b 3e eb 60 b8 bd
       0.09016696 0.060415637 0.15145677 -0.09002861
000090 eb e8 23 3d 9d c4 57 bb 3e 18 27 3e da 59 19 be
       0.04001705 -0.0032923587 0.16317841 -0.14975682
0000a0 21 b7 75 bd 4c fa 2b 3e e3 7f 89 3d ef 57 42 bd
       -0.0599891 0.167947 0.067138456 -0.04744714
0000b0 09 f2 ab 3d a8 65 4f 3d e7 2d 84 bd 98 b7 1d be
       0.08395774 0.050634056 -0.06454068 -0.15402067
0000c0 86 60 38 be 59 11 d3 3d 15 24 83 bc a7 de a0 3d
       -0.18005571 0.10306043 -0.016008416 0.078549676
0000d0 54 13 24 be 1a f7 2b 3e c5 f5 9d 3d 90 60 36 bc
       -0.16022998 0.1679348 0.077128924 -0.011131421
0000e0 7a 56 b4 bd 7a 33 9f bc cb 67 09 be a4 9a 2b be
       -0.088055566 -0.019433726 -0.134185 -0.1675821
0000f0 61 d3 87 bd bb 67 e6 3d b7 e3 2c be a4 72 22 3e
       -0.06632114 0.11250254 -0.16883741 0.15864044
000100 7a 32 c5 3d 66 69 15 be 08 70 2f 3e 48 c7 5e 3d
       0.09628768 -0.14590988 0.1713258 0.05438927
000110 b3 cb 0a bd d4 06 da 3c 2b 6b 34 3d 1e fe 02 3e
       -0.03388567 0.026614584 0.044047516 0.1279225
000120 22 cc 45 3e 27 d8 2b 3d ac 96 ec bc 95 da a2 3c
       0.19316152 0.041954186 -0.02888044 0.019879619
000130 37 5a 29 3d b1 60 9e bd ac 2c 9d bd 72 55 48 be
       0.0413458 -0.07733286 -0.07674536 -0.19563845
000140 a1 33 3c 3e 6e 42 96 bd 7f 66 3f bc 27 03 1c be
       0.1837907 -0.07336889 -0.011682152 -0.15235578
000150 ae 45 1e 3b 6f 69 2e 3e 90 0d 1a be 55 a4 e0 3d
       0.002415042 0.17032407 -0.15044236 0.10968844
000160 5b 37 43 3e 0e 4c 39 be 2a 5c d9 bb ad f1 10 3d
       0.19064085 -0.18095419 -0.0066333013 0.03538673
000170 0b bd b6 3c c7 e4 31 3c 50 ab 30 3e 2b 1d 2f 3e
       0.02230694 0.010857767 0.1725285 0.1710097
000180 a8 eb bd 3c fd 94 8b 3d ac 47 a3 bd b7 1e eb bd
       0.023183659 0.06815527 -0.07972655 -0.11480468
000190 91 cc b8 bd 86 6b 17 3e d4 3f 34 3e 8d 5a 0f 3e
       -0.09023393 0.1478711 0.17602473 0.13999386
0001a0 1b 13 0c 3d a1 d7 ab 3d 10 aa b0 bd 0b b5 1b bd
       0.034197908 0.08390737 -0.08626187 -0.038014453
0001b0 0e f1 3b be d6 20 7a 3d 82 b5 de bd c6 0b 28 3e
       -0.18353674 0.06106647 -0.108744636 0.16410741
0001c0 aa e1 8c 3c 8a 8b db 3d 3d eb 34 bd d1 b4 48 3d
       0.017197449 0.10719974 -0.044169653 0.049000565
0001d0 fd 75 28 be c6 f3 3d be b8 47 d9 bd 00 ae 4f 3e
       -0.16451259 -0.18550023 -0.106093824 0.2028122
0001e0 cc 42 a7 3d 4d 57 da 3d 8b 77 4f 3e cb e4 b8 3d
       0.08167037 0.106611826 0.20260446 0.09028014
0001f0 d9 3d b5 3d 33 47 54 bd 20 64 f5 bd 38 3d d3 3d
       0.08849687 -0.051825713 -0.11981988 0.10314411
000200 26 00 20 3e 45 28 30 be 45 48 5c 3d cd 75 4a bd
       0.15625057 -0.17202862 0.05377986 -0.04942875
000210 8f a8 24 3e 29 ee 1f bd 92 f0 2f bd 5a e8 1a bd
       0.16079925 -0.039045487 -0.042954035 -0.037819244
000220 8c 34 6e bd cc 3b 1d 3e d1 fe be bd 0b b8 3b 3d
       -0.05815558 0.15354842 -0.09325946 0.045829814
000230 a8 97 97 3b 47 30 0c 3e 0d 29 b1 3d 31 ff 11 be
       0.004626233 0.13690291 0.08650408 -0.14257504
000240 03 46 0e bc 31 b0 3d 3b 16 a9 fd bc 05 9f 24 3e
       -0.008683684 0.002894413 -0.030964416 0.16076286
000250 ef 0a 49 3e 95 8a 09 be a1 2c 5c bd 63 46 46 3e
       0.19633077 -0.13431771 -0.0537535 0.19362788
000260 67 3b 56 3d 43 8e a1 bd 89 7b d5 3d d3 93 2b bd
       0.052302744 -0.078884624 0.10423953 -0.041889023
000270 09 fc b9 bd 0e 34 50 be 0e 4c e4 3d 91 75 83 bd
       -0.09081275 -0.20332357 0.11147319 -0.064189084
000280 45 08 1e be 9b 83 1c be df 75 f7 bc d2 34 03 3e
       -0.15432842 -0.15284579 -0.030207573 0.12813118
000290 0f 22 d6 3d 88 07 00 3e 82 e5 9d bd 1b 6e 1d be
       0.10455715 0.12502873 -0.07709791 -0.15374033
0002a0 58 07 14 bd f3 dc b3 bd d3 f7 92 3d 21 2b 01 3e
       -0.036139816 -0.08782377 0.07176175 0.12614109
0002b0 01 93 7c bd 82 4b 4c be 5c c1 20 3e 13 58 6f 3d
       -0.06166363 -0.19950679 0.15698761 0.058433603
0002c0 75 9f ff bd 7a 04 72 bd 16 e1 09 bd bb 1d f2 bd
       -0.12481586 -0.0590863 -0.033661924 -0.11822077
0002d0 01 2f 2f 3e d8 35 65 3d b9 1e 05 be 13 ec e9 bd
       0.17107774 0.055959553 -0.13000001 -0.11421981
0002e0 a2 0a b5 bd 97 59 46 be b6 6e 67 bc 54 bc 74 bd
       -0.08839919 -0.19370113 -0.014125517 -0.059749916
0002f0 20 a2 db bd bf 11 8c 3c a5 14 c7 bd a5 b9 ce 3d
       -0.10724282 0.017098306 -0.097207345 0.10094003
000300 eb de c8 3d f2 c5 89 bd 08 81 bc bd 54 c7 4a be
       0.09808143 -0.06727208 -0.09204298 -0.198026
000310 ad d6 af bc 23 da 28 be 79 9b 37 3e a2 5a d7 3d
       -0.02146467 -0.16489463 0.17930402 0.10515334
000320 8b 08 0b bb 19 93 71 bc 56 97 17 bc 22 0e 3f 3e
       -0.0021214809 -0.0147445435 -0.00925239 0.18657735
000330 c1 d1 c8 bc db 57 12 3d 77 dc e9 3d 33 31 72 3d
       -0.024514081 0.035728317 0.114190035 0.05912895
000340 9e 84 eb bc 78 ea ef 3d 8d eb 2b be 03 18 5a 3c
       -0.02874976 0.11714643 -0.16789074 0.013311389
000350 15 1e 5b be 64 51 9c 3d 63 97 d5 3d a0 1d 84 bd
       -0.21398194 0.076327115 0.10429265 -0.06450963
000360 11 aa 1d be 7f aa c0 bd c0 e6 9e 3c e9 7d 0d be
       -0.15396906 -0.094075195 0.01939714 -0.13817562
000370 a4 56 f9 bc 8a c2 b1 bd 50 f4 db bd 43 0f b9 3d
       -0.030436821 -0.086796835 -0.10739958 0.09036114
000380 f5 19 05 be 63 73 b7 3d a0 69 03 be 08 2c e4 bb
       -0.12998183 0.08957555 -0.12833261 -0.0069632567
000390 60 62 3d 3e 22 d7 07 be 61 b7 ce bd d6 c7 c2 3d
       0.18494558 -0.1326566 -0.100935705 0.09510772
0003a0 fc 9b 96 3d a9 31 ed bd ff 39 c2 3d 04 e7 1e be
       0.073539704 -0.115817375 0.09483718 -0.15517813
0003b0 5f e2 47 be c3 2c 7e bd 09 cf 1c 3e 1c a6 3d 3d
       -0.19519947 -0.062054407 0.15313353 0.046300992
0003c0 80 0f 1b 3e c8 44 41 3d 02 43 9a bc ce 7b 3d 3e
       0.15142632 0.047184736 -0.01883078 0.18504259
0003d0 3b 55 b8 3d b3 77 72 3d ce e1 1b be c7 7a fd bd
       0.090006314 0.059196185 -0.15222856 -0.123769335
0003e0 e7 2e 0e 3e de 83 48 3e 82 7e 58 3d 7a b8 a8 3d
       0.1388508 0.19581553 0.052855022 0.08238311
0003f0 d2 24 18 be d2 e4 78 bd e7 3e 33 bd 3f a8 c5 bd
       -0.14857796 -0.060765095 -0.04376116 -0.09651231

conv1.0.bias f4 [16]
000000 c1 63 a9 3d fd 99 06 3e e9 43 a0 3d d5 9e 85 3d
       0.0827098 0.1314468 0.07825453 0.065244354
000010 76 ca 42 be cc 7a b7 ba 71 bc fe 3d 05 58 ae 3c
       -0.19022545 -0.0013998388 0.12438286 0.021282205
000020 b2 ad 46 be 7c 12 91 3c 4a 96 3c 3e f3 bf ff bd
       -0.19402197 0.01770901 0.18416706 -0.12487783
000030 1e e2 24 3e 92 55 26 be b5 0b 97 3a 6b 46 63 3e
       0.16101882 -0.1624358 0.0011523875 0.22194831

conv1.3.weight f4 [16]
000000 02 07 78 3f 1e a9 7b 3f af 8e 83 3f 24 63 6b 3f
       0.96885693 0.9830493 1.0277919 0.9194815
000010 e9 d7 82 3f 61 24 82 3f 50 4b 81 3f 23 de 6f 3f
       1.022214 1.0167352 1.0101109 0.9369833
000020 f8 92 75 3f d4 17 85 3f 81 71 72 3f 01 c1 8d 3f
       0.9592738 1.0397897 0.94704443 1.1074525
000030 08 50 6f 3f 8b a9 83 3f 8b e0 72 3f 71 04 7b 3f
       0.93481493 1.0286115 0.94873875 0.9805365

conv1.3.bias f4 [16]
000000 5e 4c 62 bb 1a a3 0e 3e e4 6e 74 bb e1 ae 05 3d
       -0.0034530382 0.13929406 -0.0037297541 0.03263748
000010 5a 0d dd 3d b2 f0 45 bd 89 1c 9b 3d de ed ad 3c
       0.10793562 -0.048325248 0.07573802 0.021231588
000020 4b fc 2f 3e c6 8a 2c 3d 04 e2 d7 bd 10 31 39 3c
       0.17186086 0.042124532 -0.10541156 0.011303201
000030 ad 67 d5 37 f2 fc 5f 3d 88 75 7a 3c 57 ab ba bd
       2.5439856e-05 0.054684587 0.015286811 -0.09114712

conv1.3.running_mean f4 [16]
000000 dc 55 e2 3d 8f 14 86 3e 86 9d 08 3e ad 9a a2 3e
       0.110515326 0.2618756 0.1334134 0.31758633
000010 05 0f 00 3d 2c 9c 43 3c 99 db b5 3c 4c 77 3c 3d
       0.031264324 0.01193909 0.022199439 0.046012208
000020 c9 ab 4f 37 e6 03 1f 3d 33 e0 c0 3e 65 56 94 3c
       1.2378158e-05 0.038822077 0.3767105 0.018107602
000030 33 e4 10 3e 80 ce db 3c ca 0a a9 3d 50 02 2d 3e
       0.14149551 0.026831865 0.08254011 0.16895413

conv1.3.running_var f4 [16]
000000 01 c0 f6 3a 31 0c c3 3b 7e 81 89 3b eb 27 cf 3c
       0.0018825532 0.005952381 0.004196345 0.025287589
000010 8e cc 3b 3b bc 1a 4b 3a ea 91 ff 3a 00 29 b8 3a
       0.002865586 0.0007747819 0.0019498442 0.0014050305
000020 22 31 b4 35 53 bf 19 3b 03 4c bc 3c 9a 69 bb 3a
       1.3425345e-06 0.0023459985 0.022985464 0.001429844
000030 1d 37 a9 3a 41 ca 04 3b 74 bf be 3b de 5e 0c 3b
       0.0012910102 0.0020262154 0.005821163 0.002141885

conv2.0.weight f4 [32, 16, 3, 3]
000000 8b 03 0b bc 81 7b 0a bd a9 8a 4b bc aa 79 78 bb
       -0.008484731 -0.03380919 -0.012423196 -0.0037914314
000010 8d da 80 3d 30 a6 95 3c c5 1f 62 3d 04 af 89 bc
       0.06291685 0.018267721 0.05520608 -0.016807087
000020 de 9c 1f bc f9 1a 28 bd 24 4b b0 bd 9d 1d 48 bd
       -0.00974199 -0.041041348 -0.08608082 -0.048856366
000030 d7 cb 7f bc 2d 35 0c 3d 37 16 04 bd 29 38 e8 bc
       -0.015612564 0.0342304 -0.03224775 -0.028347092
000040 5e 73 3f bd ff 6c 40 3d b8 fa c0 3d c3 f4 04 bd
       -0.046740882 0.046978947 0.09422821 -0.032459985
000050 f3 a8 c3 bd 87 1c 9b 3d 3b e0 70 3d 0b 3d 95 bd
       -0.09553709 0.075738005 0.058807593 -0.07287034
000060 56 0c 81 bd 3a ce 4c bd 98 17 95 bd 00 4a c0 3d
       -0.06301181 -0.05000136 -0.07279891 0.093891144
000070 c0 b9 54 3d de 66 67 bd ca ff 0b bb 35 6f 87 3d
       0.051934958 -0.056494586 -0.002136218 0.06613008
000080 16 01 b4 bc ae d2 1a 3d 72 cf 32 3c 07 7c 27 3d
       -0.021973174 0.037798576 0.010913717 0.040889766
000090 ce aa 1e 3d 22 0d 1a 3d 39 20 06 bd 1d c0 e2 bd
       0.03873711 0.03761018 -0.032745574 -0.11071799
0000a0 f9 f1 87 bc 5a 8d 0e 3c 53 7d 60 bd c5 d9 57 bd
       -0.016594874 0.008700693 -0.05480702 -0.052697916
0000b0 a9 09 92 3c cd 3e c9 3c 4b fa 98 3d 80 1f ba 3d
       0.017826872 0.024566079 0.074696146 0.090880394
0000c0 19 88 1e bd 11 42 89 3d 4c 5b 3c 3d 93 3b c1 3d
       -0.03870401 0.06702054 0.045985505 0.09435191
0000d0 93 82 d7 3d d0 11 99 3d f3 86 7b 3d 69 90 b2 3c
       0.10522952 0.074741006 0.061407994 0.021797376
0000e0 8c 44 f4 bc c7 97 06 bd 41 5a 41 3d ac f7 52 bc
       -0.029817842 -0.03285959 0.047205213 -0.012876432
0000f0 71 a2 42 3d 27 b1 24 3d c7 33 8b 3d 9e 18 72 3d
       0.047518197 0.04020801 0.06796985 0.059105508
000100 c0 22 86 bd ca f4 0c bd e8 34 88 3d cd 2a 70 3d
       -0.06549597 -0.034413137 0.06650716 0.058634568
000110 90 e7 50 bd 45 ba 1b 3d 83 cd 8d bd 23 b8 4b bd
       -0.051002085 0.038019437 -0.06923964 -0.049736153
000120 7d 11 2d bd d4 3f 21 be cd fd 99 bd ff c4 1a be
       -0.042253006 -0.15747005 -0.07519112 -0.1511421
000130 4c ec 41 be 8a a5 13 be f1 5c 00 be 9f e2 a3 bd
       -0.18937796 -0.14418617 -0.12535454 -0.08002209
000140 58 cf 2e be 10 c0 0a be 86 11 71 bd 08 47 2c 3d
       -0.17071283 -0.13549829 -0.058854602 0.04205993
000150 39 53 95 bd ac ef 84 3b e7 62 37 3d cb 43 ea bd
       -0.07291264 0.0040568914 0.044772055 -0.11438712
000160 90 49 ec bd db 8e 35 3d c7 27 b0 3d 9c 25 23 bc
       -0.115374684 0.04432569 0.08601337 -0.009957697
000170 e5 ca f3 bb 6c 33 42 bd d4 93 fb 3c d4 8a bf bc
       -0.0074399584 -0.04741232 0.030710138 -0.023381628
000180 95 e9 c4 3d d3 2b 46 3d 04 05 f5 3c cd 59 c9 3b
       0.09614865 0.048381638 0.029909618 0.0061447383
000190 d9 95 14 bb e5 21 6b 3d 9d cb a5 bd 9e 24 c5 bd
       -0.0022672324 0.05740537 -0.08095477 -0.09626125
0001a0 c3 64 ea bd 17 dd a1 bc 84 c2 80 3d 55 b0 4b 3d
       -0.11445 -0.019758744 0.06287101 0.04972871
0001b0 5e 32 60 3d a2 81 8d bc c7 46 49 3d 2e 27 3f 3d
       0.054735534 -0.017273728 0.049139764 0.046668224
0001c0 32 ab 5a ba 07 05 a7 3b b9 a8 12 bd 07 d2 b0 3c
       -0.000834155 0.005097035 -0.035805438 0.021584524
0001d0 97 9a 82 bd b3 c4 61 3d 58 4d 96 bd 89 a6 f6 bd
       -0.06377142 0.055119228 -0.07338971 -0.12043483
0001e0 ad 0a 28 bd 71 52 91 bd 5b fc b8 bc 08 19 15 be
       -0.041025806 -0.070958026 -0.02258127 -0.1456033
0001f0 33 70 65 bd 3a 5e 43 3d 96 fd b9 3c 69 76 56 bd
       -0.056015205 0.047697283 0.022703927 -0.05235902
000200 9c f9 d8 bc 28 d0 0d bd 9c 15 7c bd 7c a9 84 bd
       -0.02648621 -0.03462234 -0.061544046 -0.06477639
000210 f8 21 1a bd 53 17 f6 3c e4 df db 3c 07 eb 34 bd
       -0.03763005 0.030040419 0.026840158 -0.044169452
000220 8e c2 40 3b f3 c7 d7 3c df d9 02 3c a2 96 87 bd
       0.0029412839 0.02634046 0.007986515 -0.06620528
000230 6b 93 32 bd 13 5f 4b 3d 31 a0 8a 3d 9f 74 13 3c
       -0.04359762 0.049651217 0.06768835 0.008999973
000240 0b 4b f7 3c cd b6 e7 bc ac e7 c8 3c f8 e6 a2 3d
       0.03018715 -0.028285408 0.024524532 0.0795421
000250 e7 f1 23 3c 00 3e 73 bd 78 45 72 3c 03 a5 2e 3d
       0.0100064045 -0.0593853 0.01478707 0.042637836
000260 20 a6 76 3d cc 22 25 bd 38 59 44 3c 37 26 5d bd
       0.060217023 -0.040316388 0.011984162 -0.053991523
000270 5e 77 9f bd 8f b3 ba 3c bd 81 f7 bd b5 fd 9c 3c
       -0.07786439 0.022790698 -0.120852925 0.019163946
000280 a2 88 32 bc 60 6d 02 bd 3a a0 05 3d 8e d9 b5 3d
       -0.010896834 -0.03184259 0.032623507 0.08879386
000290 6a de 93 3d f3 64 dd 3d 54 cc 56 bd 62 e1 13 3d
       0.072201565 0.1081027 -0.052440956 0.036103614
0002a0 49 73 c5 3d a4 5c 01 bc 22 0d b0 3d e4 96 87 3d
       0.096411295 -0.007895622 0.08596255 0.06620577
0002b0 b3 0d 06 ba 79 ca 80 bc f7 3b 22 bc ca 40 d6 bc
       -0.00051137357 -0.015721546 -0.009901992 -0.02615394
0002c0 84 fa 97 3d b9 bf 28 3d 52 b8 f8 bc 3d ce ac 3d
       0.07420829 0.041198466 -0.030361328 0.08437774
0002d0 dd 43 17 3d 0d 82 f8 3c f4 cc 42 bd 73 9d 3c 3d
       0.036929954 0.03033545 -0.04755874 0.046048593
0002e0 6c c4 4d 3d 92 b7 41 3d 35 c1 81 3d 5d 64 c2 bb
       0.05023615 0.047294207 0.063356794 -0.0059323744
0002f0 4a ae 5e 3d e9 ab a1 bb 35 4f b6 bd c2 53 0c bc
       0.054365434 -0.0049338234 -0.08901826 -0.008564891
000300 39 04 9b bd 87 42 12 be 47 c8 c2 bd cd d6 03 3c
       -0.07569165 -0.1428319 -0.09510856 0.008046818
000310 37 c4 40 bd 97 b0 ae bd 8c fe dd bc b7 c8 d8 bc
       -0.047062125 -0.085297756 -0.027098916 -0.026462896
000320 c7 96 92 3d 81 a5 e2 3d ff d5 19 3d d9 85 97 3d
       0.07157665 0.110667236 0.0375576 0.07398576
000330 01 15 f8 3c 72 4c 7b bd c4 6d 8e 3d b7 55 3f bd
       0.030283453 -0.0613522 0.0695453 -0.046712603
000340 ab 56 95 3d 60 96 43 3d c4 d0 32 bd 75 c3 7a bd
       0.07291921 0.04775083 -0.043656126 -0.06122156
000350 df 97 5d bd ab 2a 88 3a e0 cd bc bd 96 9b 0b 3c
       -0.054099914 0.0010388693 -0.09218955 0.008520981
000360 b3 96 c2 3c d3 e5 21 bd cd 19 4d 3d e7 b3 c0 bd
       0.0237535 -0.039525818 0.050073434 -0.09409314
000370 2a b3 d4 3c 1c d1 8d bc 8a 2a aa bc b5 e4 b3 bd
       0.025964338 -0.017311625 -0.020772237 -0.08783857
000380 b7 57 62 bd 32 53 1a 3d c8 15 ab bd 04 ab 7f bd
       -0.055259433 0.037676997 -0.08353764 -0.062418953
000390 fc d3 4c 3d 2b 54 3f bb 60 2c 9c bd c8 42 bf 3d
       0.05000685 -0.0029194455 -0.07625651 0.093389094
0003a0 90 bc a1 bc c8 02 9b bc af c6 08 3d 04 ef fd bc
       -0.019743234 -0.018922225 0.033392604 -0.03099776
0003b0 bf 32 c1 3d f3 3a d1 3d 57 4b df 3d a0 6f b1 bb
       0.09433507 0.10216322 0.10903042 -0.005414918
0003c0 f4 be 9a 3b 3c 5c f2 3d 36 98 6b 3d 7c 08 fc 3c
       0.0047224704 0.118339986 0.057518207 0.030765764
0003d0 07 db 5e 3d ec 71 b2 3d 2e 26 5e bd e9 20 ee bb
       0.0544081 0.08713135 -0.05423563 -0.007267107
0003e0 45 f1 26 bc 4b 7d 09 3d 67 19 bd 3c 49 d4 2d 3d
       -0.010189359 0.033566754 0.023083402 0.04243878
0003f0 01 4a 98 3d 84 ea 46 3d bd 2c 56 3d df 0a 58 3d
       0.0743599 0.048563495 0.05228876 0.052744742

conv2.0.bias f4 [32]
000000 ef cd aa bd ec c5 8f bd fa 91 dc bd 3e 29 a4 3d
       -0.0834006 -0.070201725 -0.1077003 0.08015679
000010 f8 79 e1 bd 74 eb 9d bd 09 19 b7 3d 2a f9 41 3c
       -0.11009592 -0.07710925 0.08940322 0.0118391905
000020 ca ee d7 bd 81 48 3c 3c e9 59 91 3c d0 80 11 be
       -0.10543592 0.011491896 0.017743068 -0.14209294
000030 3d 6b 92 bc 9d f1 cb bd 2d ca 70 be 95 37 a6 bc
       -0.0178734 -0.099581935 -0.23514624 -0.020290175
000040 a1 84 8b bd 91 34 d3 bc 15 60 ac bd ee 76 ba 3d
       -0.06812406 -0.025781902 -0.08416764 0.09104715
000050 f4 8a 63 3c f2 c1 e7 bd 63 9b 8b bd 1f 15 a0 bd
       0.0138881095 -0.11316289 -0.06816747 -0.078165285
000060 62 03 b7 3c b8 6c 1d be 92 eb d0 bd 4c f1 ec 3c
       0.02234048 -0.15373504 -0.102011815 0.028923653
000070 a4 46 e4 bd d3 09 11 be cf f1 f5 bd 6c 8d e0 bd
       -0.11146286 -0.14163904 -0.12009012 -0.10964474

conv2.3.weight f4 [32]
000000 b1 cc 81 3f f1 fb 70 3f 03 cf 81 3f 76 03 6e 3f
       1.0140592 0.9413443 1.01413 0.9297403
000010 f8 df 7b 3f f2 87 77 3f c6 6b 70 3f eb e4 80 3f
       0.98388624 0.9669181 0.9391445 1.006986
000020 73 8d 7b 3f 1d 9f 81 3f 3c 2c 7f 3f 75 37 7c 3f
       0.9826271 1.0126683 0.9967687 0.9852212
000030 6d ae 82 3f 7f ea 7e 3f 38 2d 84 3f 67 8b 81 3f
       1.020948 0.9957656 1.03263 1.0120667
000040 b1 66 57 3f 74 78 71 3f 80 e4 80 3f b1 99 73 3f
       0.8414107 0.9432442 1.0069733 0.9515639
000050 4d 92 75 3f 37 92 6e 3f 57 58 81 3f 8b f9 82 3f
       0.9592636 0.93191856 1.0105084 1.0232404
000060 6e 04 80 3f d9 11 83 3f 2c 77 81 3f 51 b4 69 3f
       1.0001352 1.0239822 1.0114493 0.91290766
000070 68 e4 6f 3f a3 d1 7e 3f eb 94 73 3f 7d 79 71 3f
       0.93707895 0.9953863 0.95149106 0.94326

conv2.3.bias f4 [32]
000000 57 61 be 3c d7 3c a2 3e 60 76 60 3d 49 e5 06 be
       0.023239775 0.31687042 0.05480039 -0.13173403
000010 fe 8d 11 3e e5 bd f4 bd fb 41 e0 3e 54 b8 e9 3c
       0.14214322 -0.11950282 0.4380034 0.028530277
000020 5d d0 93 bd 73 6b 42 3e e4 31 95 bd b9 42 fa 3e
       -0.072174765 0.18986301 -0.072849065 0.4887903
000030 1f 01 10 be 5b 2e 3b 3e 90 32 98 3e 2b 82 f7 bd
       -0.14062928 0.18279402 0.29726076 -0.120853744
000040 af b0 1b 3e 71 d2 54 bd 05 d8 de bc a2 3f a7 bd
       0.15204118 -0.051958505 -0.027202616 -0.08166434
000050 fa 69 3d 3e 08 a3 3b 3e bf 44 96 3e 13 4e 16 3e
       0.18497458 0.1832391 0.29349324 0.1467822
000060 ea cb 93 3e 78 f9 93 3e 7a 23 9f bd 59 39 d8 bd
       0.28866512 0.28901267 -0.077704385 -0.10557813
000070 f3 dd ab 3e 1d 27 4b 3e a7 21 7b 3e c3 c1 c3 3e
       0.3356777 0.1983914 0.24524556 0.38233766

conv2.3.running_mean f4 [32]
000000 41 f5 3d 3e 20 c9 1d 3f 84 c8 31 3e c5 45 66 3f
       0.18550588 0.6163502 0.17361647 0.8995021
000010 e1 8e 98 3e 52 d1 43 3e 1e 15 ff 3e 22 e4 b9 3e
       0.29796508 0.19122818 0.498208 0.36306864
000020 f3 35 bc 3e 30 55 15 3f 3a 8c 39 3e 23 96 28 3e
       0.3675991 0.5833311 0.18119898 0.16463523
000030 d7 e7 03 3f fd 65 e8 3e fc 86 be 3d 5c f3 91 3e
       0.51525635 0.4539031 0.0930309 0.2850598
000040 03 21 4c 3f f2 ad f6 3e ef 62 77 3e 36 3a 0f 3f
       0.7973787 0.48179585 0.24158834 0.559482
000050 45 c4 ec 3e 41 8a d5 3e dd a4 08 3f f0 b0 79 3e
       0.46243492 0.41707042 0.5337656 0.24383903
000060 02 3f 03 3f f4 d4 73 3e ae f8 aa 3e 8e ae 9c 3e
       0.5126802 0.23811704 0.33392853 0.30601925
000070 51 ff 1a 3e d1 f2 c3 3e c3 b2 d9 3e 99 e4 68 3e
       0.15136458 0.38271192 0.42519197 0.22743453

conv2.3.running_var f4 [32]
000000 87 1d af 3d e4 8c 88 3f 22 6d a9 3d 1d 2f 8c 3f
       0.08550554 1.0667996 0.082727686 1.0951878
000010 84 39 8c 3e 18 89 8d 3d c7 8e 55 3e ad d2 d1 3e
       0.2738763 0.06910914 0.20855246 0.40981045
000020 b8 f7 e1 3e 73 ce 9d 3e 09 5d cd 3d 19 dc be 3d
       0.44134307 0.3082157 0.10027511 0.09319324
000030 2f 40 8f 3e 51 54 39 3f ca a1 e1 3d d9 bb 15 3e
       0.27978656 0.7239428 0.11017187 0.1462244
000040 a0 86 c3 3f 80 7d f5 3e bc 2d 46 3e 71 5a c3 3e
       1.5275459 0.4794731 0.19353384 0.3815494
000050 9d e8 4f 3e 51 02 1b 3f a6 e6 24 3f 10 39 14 3e
       0.20303579 0.6055041 0.6441444 0.14474893
000060 64 e0 c8 3e a1 3e 1c 3e 02 bc 1d 3e 8d ba 02 3e
       0.39233696 0.15258266 0.1540375 0.12766476
000070 fd 9e 38 3e 99 d0 14 3f 17 59 b1 3e 4d 8c e7 3d
       0.18029399 0.58130795 0.34638283 0.11306057

conv3.0.weight f4 [64, 32, 3, 3]
000000 53 05 ad bc 68 ee b1 bc 93 4b 3b bd 51 10 01 bd
       -0.021120703 -0.021720126 -0.04572637 -0.0315097
000010 fe 8d 09 bd 6e b9 66 bd be 68 7c bd c2 7b f0 bb
       -0.03358268 -0.056329183 -0.061623327 -0.007338972
000020 da ef fa bd 33 38 61 bd a1 23 0c 3d 4c eb d7 bb
       -0.12252779 -0.054985236 0.034213666 -0.006589329
000030 f5 03 82 bc b7 f9 3d bd 4b d5 93 bc da 3d 94 bb
       -0.015871027 -0.046380725 -0.018046042 -0.004523975
000040 1d 12 58 bc eb 0b 65 3d fa 12 61 bc 53 98 62 bc
       -0.013187912 0.05591957 -0.0137374345 -0.013830262
000050 3e 08 ba bd ab a8 9e 3c 2d 8e 92 b9 ac c5 ae bc
       -0.09083603 0.019367537 -0.0002795322 -0.021334492
000060 aa db a0 bd 5f 60 79 3b b2 5a 33 bd 11 99 db 3c
       -0.078543976 0.0038051826 -0.043787666 0.026806386
000070 30 45 2a bd e5 02 79 3d 22 93 1c bc 9b ba 18 bd
       -0.04156989 0.060793776 -0.009556564 -0.037287336
000080 37 1c 1c 3a 07 5e d2 bc d5 4f c4 bb d9 c0 03 bd
       0.0005955132 -0.025679601 -0.005990962 -0.032166336
000090 03 6b 79 bd 36 09 60 bd c8 c5 34 bc 1e c7 59 bb
       -0.06089307 -0.054696284 -0.011033483 -0.0033230255
0000a0 d4 33 56 bd f9 c5 ca bc 34 50 5e bc a5 0c 10 3c
       -0.05229552 -0.024752604 -0.013568927 0.008792077
0000b0 6f 8d 9a b9 28 13 cd ba 0d 7a ee 39 45 b9 e4 ba
       -0.00029478545 -0.0015645968 0.00045485832 -0.0017450234
0000c0 ec 65 1e 3d 25 d1 13 3d 1c fa c2 3c fe 3d 11 3c
       0.03867142 0.036088128 0.023800902 0.008864878
0000d0 26 df 38 3d 53 ac c0 3c a9 7b 05 bc db ab bb bd
       0.045134686 0.02351967 -0.008147159 -0.09163638
0000e0 e5 90 e3 bc de 6c 82 3b 79 23 a0 bd 2a ff 4e bd
       -0.027779052 0.003980263 -0.07819266 -0.050536312
0000f0 ee 53 88 bd 27 4f fe bc 1e b1 86 bd e1 00 f7 bc
       -0.06656633 -0.031043602 -0.06576751 -0.030151786
000100 22 13 da bc 61 21 e2 bc 27 a5 c5 bc cc 29 07 3d
       -0.026620451 -0.027603807 -0.024126602 0.032998845
000110 97 b9 00 bd f5 34 4a bb a9 7e 6c 3d 31 23 29 3d
       -0.031426992 -0.0030854319 0.05773798 0.041293327
000120 c2 16 d6 3c 6f 14 c1 3d 7d cb a4 3d 7c b1 aa 3d
       0.026133899 0.094277255 0.08046625 0.08334634
000130 b3 e1 70 3d 73 8e 50 3d 5a bc ed bc 4c b8 9c 3d
       0.058808994 0.0509171 -0.029020477 0.07652339
000140 ed 4a 87 3d 5a b6 11 3d e9 39 99 3c 1f d2 fc 3c
       0.06606088 0.035574295 0.018704372 0.030861912
000150 8f 3e c3 3b 8f 44 81 3d 2c 88 0e 3d b0 53 f7 3c
       0.0059583853 0.06311905 0.034797832 0.030191272
000160 73 f5 0d 3d 35 1d 64 3d a8 a7 a8 bc 86 f8 aa bc
       0.034657907 0.055691916 -0.020587757 -0.020870458
000170 91 92 cc 3c ab 16 a6 bb fa 27 c1 bc de fe 7c 3c
       0.024972232 -0.00506862 -0.023578633 0.015441624
000180 6b a4 30 bd 13 fc ed bb 08 9b b8 bc a1 ed 3d bd
       -0.04312555 -0.0072627156 -0.022534862 -0.0463692
000190 27 0a 79 bd ba d0 ca bc 35 fd 80 bd 8b ed b8 bd
       -0.060800698 -0.024757732 -0.062982954 -0.09029683
0001a0 2b 54 76 bd 23 bb 8f bd 23 f3 d1 bd 7e 04 95 bd
       -0.060138863 -0.07018115 -0.10251453 -0.072762474
0001b0 6d 8e a6 bb 59 57 28 3d 09 bf de 3c 36 d3 fb bc
       -0.0050828964 0.041098926 0.027190702 -0.030740362
0001c0 2b bf 15 3d c2 49 78 bc e8 df 02 bd 9f 38 7c 3c
       0.036559265 -0.015154304 -0.031951815 0.015394359
0001d0 b5 de bf bc e5 f9 a7 bd 89 04 41 bd 52 5c 52 bd
       -0.023421625 -0.082019605 -0.047123466 -0.051357575
0001e0 77 46 9a bd 79 0d 0e bd c4 7d fe ba ec db 81 bd
       -0.07532971 -0.034680817 -0.0019416143 -0.06340775
0001f0 d1 13 16 3d 57 a4 e9 3b e6 2f bb 3c 2e 8f 76 3d
       0.036639992 0.0071301865 0.022849988 0.06019514
000200 71 f8 09 3d 4d 2a 89 3b ba 8b 94 3c f1 b9 f0 3c
       0.033684198 0.004185951 0.018133033 0.029385539
000210 b7 b5 0b 3d 96 18 73 3d 21 65 cd 3b 5e dc ad bc
       0.034108844 0.05934962 0.006268159 -0.021223243
000220 ad 20 ac bc 47 8a 56 3c e9 2d 48 bc a9 a9 10 bc
       -0.021011675 0.013094491 -0.012217977 -0.008829513
000230 96 d5 14 bd f3 89 3d bd c7 cf d9 3a e8 e6 5e bd
       -0.036336504 -0.046274137 0.0016617709 -0.054419428
000240 07 c9 4e 3d 86 f4 56 bc 2e f2 1b bd 89 ea 1b bd
       0.050484683 -0.013119822 -0.038072757 -0.038065467
000250 28 a0 40 3c 97 dd 8d 3a 55 18 2c bd 33 3b 11 3d
       0.011756934 0.0010823485 -0.042015392 0.035456847
000260 91 9f fc 3c 2b 2c 1f 3d 7e 93 8a 3d 0b 77 91 3d
       0.030837806 0.03886048 0.06766413 0.07102784
000270 88 b2 fe 3c 34 62 a9 3d 46 c1 8c bc 85 72 52 3d
       0.03109099 0.08270684 -0.017182004 0.051378746
000280 3d 19 b1 3d e8 22 8a 3d 21 37 de 3a 59 f7 48 3d
       0.08647392 0.06744939 0.0016953686 0.049064014
000290 12 82 8d bc e5 6c 1f 3d 52 0f 10 3d 88 64 19 bd
       -0.017273936 0.03892221 0.03517086 -0.03744939
0002a0 6a 5d df bb 3d 0c 17 3c fd 89 a6 3c 4b 8c aa bd
       -0.0068165557 0.009219226 0.02032947 -0.0832754
0002b0 30 9f 4a bd 83 c6 b9 3c c6 43 60 bd 7e 19 11 bd
       -0.04946822 0.022677666 -0.054752134 -0.035424702
0002c0 00 45 b3 bc 9a b5 22 bc 37 3f be 3c 3e 33 2d bc
       -0.021883488 -0.0099309925 0.023223503 -0.010571299
0002d0 6d a1 9c 3b 66 1d c6 bc e6 3d 65 bd b7 97 29 bd
       0.0047799856 -0.02418394 -0.055967234 -0.041404452
0002e0 86 52 b7 bc c1 bc 7a bd 18 25 23 bd f2 c8 a3 3b
       -0.022378217 -0.061215166 -0.039830297 0.00499832
0002f0 73 46 e3 ba e9 8f fb bc ad d0 23 bd ad bf eb 3c
       -0.0017339721 -0.03070827 -0.03999393 0.028777922
000300 79 ff bd 3b 50 e7 29 3b f2 d0 3c bd 09 66 80 3c
       0.005798277 0.0025925227 -0.046097703 0.015673654
000310 dd 6e 84 3c ab 0a 2f bd 0a a9 1b 3c 0c 06 1f bc
       0.016166145 -0.042734783 0.009500751 -0.0097060315
000320 81 40 48 3d 82 99 bb bc 1a 46 93 3d c8 56 48 3d
       0.04888964 -0.022900347 0.07191105 0.048910886
000330 ec b2 b6 bc 29 6b d4 bc 1e 5f 8f 3b ec 17 9a bc
       -0.022302113 -0.025930004 0.0043753525 -0.018810235
000340 6c a9 6f bd 45 39 c6 bd 4a 7d 56 bd c6 07 35 bd
       -0.058511183 -0.09678892 -0.05236558 -0.044196866
000350 0f f7 07 bd 0e c2 5b bd 59 7d 77 bd fa 07 dc bd
       -0.033194598 -0.05365186 -0.060422275 -0.10743709
000360 1d df 7c bd be e7 60 bd 82 05 bb bd 62 6f 7f 3b
       -0.061736215 -0.054908507 -0.0913191 0.0038976301
000370 46 5f 7b bc c9 a0 85 bd 74 d9 4b bd 04 17 82 bd
       -0.015342539 -0.06524808 -0.049767926 -0.06352046
000380 e3 af 71 bd 08 95 63 3c eb 15 82 3d 16 31 c4 bb
       -0.05900563 0.013890512 0.06351837 -0.005987297
000390 9d ac ab bc cf 89 07 3d 41 53 94 3c 32 49 33 bd
       -0.020956332 0.03309041 0.018106105 -0.043770976
0003a0 21 8a 75 3d d4 66 f3 bc cb cb 65 bd f2 13 03 bd
       0.059946183 -0.029712118 -0.056102555 -0.032001443
0003b0 a7 fb fa bc 40 cc 06 bd e0 85 8f bc 2a e6 67 bb
       -0.030637575 -0.03290963 -0.017519891 -0.0035384991
0003c0 8b ad 9a bd 51 cf 87 bd 7c e4 42 bc a8 91 c1 bb
       -0.07552632 -0.06631339 -0.011895295 -0.005907256
0003d0 18 32 f0 bc 72 0f 2a bd 30 15 5f 3c 06 71 12 bd
       -0.029320762 -0.041518636 0.013615891 -0.03575232
0003e0 b4 71 4f bd fb 47 16 bd 9a c5 3d 3b 71 a5 c0 3c
       -0.050645545 -0.03668974 0.002895689 0.023516389
0003f0 18 a7 26 bd 18 f7 a9 bd cd c5 b6 bd 8c f8 b7 bd
       -0.040686697 -0.082990825 -0.08924446 -0.089829534

conv3.0.bias f4 [64]
000000 d3 f3 2d be df 12 77 bd 4b 25 a2 bd 18 cb 06 be
       -0.16987543 -0.06032073 -0.07917269 -0.13163412
000010 10 45 3b bd 77 f6 a8 bc f5 13 c8 bd 76 e2 df bd
       -0.04572016 -0.020625336 -0.097694315 -0.10931866
000020 6b 4f 08 bd 18 d3 b9 bd eb fa 23 3d 7c e4 cc bd
       -0.033278864 -0.09073466 0.040034216 -0.100045174
000030 a1 bd 6c bd b2 39 f2 bc 8b b1 22 be c1 33 15 bd
       -0.05779803 -0.029568527 -0.1588804 -0.03642631
000040 66 db 08 be 76 4c 00 be 2a 63 86 bd a5 9a 02 be
       -0.13364944 -0.12529168 -0.06561883 -0.12754305
000050 0f 7d fc bd 84 c2 cf bd d0 34 af bd ef 24 bb bd
       -0.123285405 -0.10144523 -0.08554995 -0.09137904
000060 28 e5 96 bd 7c d1 c1 bd 22 13 48 be e4 b9 7d bd
       -0.07367927 -0.09463784 -0.19538549 -0.061944857
000070 70 5f 6c be 8a 50 4c bd 57 c2 3b be 1c 80 70 bd
       -0.23083282 -0.049881496 -0.18335854 -0.058715925
000080 66 05 73 bd 02 19 34 be 62 55 02 be 7f 1e 23 be
       -0.05933132 -0.17587665 -0.12727883 -0.15929602
000090 e4 3f 55 bc 6c 85 49 bd f3 2d 02 be 79 40 d3 bd
       -0.013015721 -0.049199507 -0.1271284 -0.103150316
0000a0 cf 95 af bd f1 2b 77 bc bd 4e 05 be 7e 4b 8a bd
       -0.085734956 -0.01508616 -0.13018318 -0.0675268
0000b0 72 30 45 bd 00 94 91 bd 82 75 e8 bc 4f 4a 21 bd
       -0.048141904 -0.07108307 -0.028376345 -0.039377507
0000c0 e4 df 74 bc 1b d8 c6 bd f9 08 e4 bd 5f 1a 94 bd
       -0.014945958 -0.097091876 -0.11134524 -0.072315924
0000d0 cd 73 03 be 1f 03 d7 bc 3f 38 90 bc ca b8 ea bd
       -0.12837143 -0.026246605 -0.017604945 -0.11461027
0000e0 21 e2 eb bc 7d 02 03 bd 32 28 29 bd 60 3e 71 3c
       -0.02879435 -0.031984795 -0.0412981 0.014724344
0000f0 2c af 48 bc 6f 2b b4 bd bb 6f 0b be 20 8d f9 bd
       -0.0122487955 -0.08797347 -0.1361684 -0.121851206

conv3.4.weight f4 [64]
000000 f3 16 89 3f 07 82 87 3f 8a 88 96 3f 8b 8f 97 3f
       1.0710129 1.0586556 1.1760418 1.1840681
000010 b3 08 95 3f 04 04 98 3f cc dc 99 3f 91 05 86 3f
       1.164328 1.1876225 1.2020507 1.0470449
000020 a4 67 75 3f e5 2a 9a 3f d1 c8 96 3f 81 7f 7f 3f
       0.9586127 1.204434 1.1780034 0.9980393
000030 97 6a 96 3f 8d f7 84 3f 5c 12 87 3f 7b d3 93 3f
       1.1751279 1.0388047 1.0552478 1.1548914
000040 ad ed 83 3f b4 02 88 3f dc c8 95 3f 23 fd 93 3f
       1.0306908 1.0625825 1.1701922 1.1561626
000050 ba 36 83 3f 0f 2e 9b 3f c0 f3 96 3f 43 16 9a 3f
       1.0251076 1.2123431 1.1793137 1.2038044
000060 19 a4 83 3f f8 5b 86 3f f0 a4 83 3f 43 d5 9d 3f
       1.0284454 1.0496817 1.028471 1.2330707
000070 5e 66 87 3f b3 8e 97 3f c8 76 83 3f 5e ed 7e 3f
       1.0578115 1.1840423 1.0270624 0.99580944
000080 71 cc 8f 3f 9b f9 87 3f 4b 2a 84 3f 99 b9 85 3f
       1.1234266 1.0623049 1.0325407 1.0447265
000090 2c 56 70 3f 84 1d 9a 3f 68 55 99 3f 96 e2 97 3f
       0.9388149 1.2040257 1.1979189 1.1866024
0000a0 2b ee 88 3f 13 83 80 3f 84 bc 85 3f 09 a8 96 3f
       1.0697683 1.0040001 1.0448155 1.177003
0000b0 40 26 89 3f ff f7 9a 3f ef fa 94 3f a6 86 7a 3f
       1.0714798 1.2106932 1.1639079 0.9786171
0000c0 4a 0f 93 3f 05 eb 9a 3f 0f 7e 86 3f 21 37 9a 3f
       1.1489041 1.2102972 1.050722 1.2048074
0000d0 c4 53 80 3f ac 80 92 3f f5 e9 9e 3f 14 0b 87 3f
       1.0025563 1.1445518 1.2415148 1.0550256
0000e0 ad 1a 83 3f 55 8f 9b 3f 21 cf 95 3f 5a 86 78 3f
       1.0242516 1.2153116 1.1703836 0.97080004
0000f0 d2 89 97 3f d8 6f 98 3f ad 49 81 3f ef 5a 94 3f
       1.1838934 1.1909132 1.0100609 1.1590251

conv3.4.bias f4 [64]
000000 a3 82 bc ba 59 55 07 3c f8 e5 18 bb a9 da 72 bc
       -0.0014382194 0.008260095 -0.0023330431 -0.01482264
000010 7a e6 bc ba b1 03 2f b9 76 f7 62 bb d9 8a 20 3b
       -0.0014411949 -0.00016690676 -0.0034632361 0.0024496822
000020 85 e2 b4 bb 63 bf c6 3b 0d 74 5e 3b 3d e7 c7 bb
       -0.0055201673 0.0060652955 0.0033943683 -0.006100564
000030 1e 5d d1 bc af 40 15 bc 7c de 7d 3c 2d 9f 20 bc
       -0.025557097 -0.00910966 0.015494939 -0.009803575
000040 86 e1 46 3c 6c 86 65 3c 26 3e ed 3b a5 96 b9 bc
       0.01213873 0.014009099 0.0072400747 -0.02265484
000050 62 64 b5 bb 12 b6 1d bc 9b fd 35 3c 57 a9 86 bc
       -0.005535648 -0.0096259285 0.011107828 -0.01643817
000060 f8 16 f9 bc 12 a8 64 bb b2 51 d1 bb 28 1c ce bc
       -0.03040646 -0.0034890217 -0.0063879127 -0.02515991
000070 ed c7 a1 bc e3 66 07 bc 5c 46 cc 3a e0 9d fe bb
       -0.019748652 -0.008264276 0.0015584934 -0.007770285
000080 94 b9 1e 3c eb 7d b9 3b 4e 93 a0 bb 19 fa 8e 3c
       0.0096878 0.0056607625 -0.0049003726 0.01745324
000090 2b 20 fc bc 1c 58 84 bb 04 38 22 bc 04 cc 5f bc
       -0.030777058 -0.004038824 -0.0099010505 -0.013659481
0000a0 d7 85 00 bb 24 52 bd 3c 52 0e e8 3c ce 95 c6 bb
       -0.0019611025 0.023110457 0.028327141 -0.0060603386
0000b0 3a ee 8d 3c 23 35 46 bc ef 47 9e bb 76 22 4c 3c
       0.01732551 -0.01209763 -0.0048303525 0.012459388
0000c0 7e 0e ed bc 97 2f 31 3a 54 bd df 3b 43 75 f4 3b
       -0.028937574 0.00067591056 0.0068279896 0.0074602677
0000d0 3c 2b 80 bb 5a 7a 83 bb b9 c9 c0 bb 93 1e 91 bb
       -0.003911404 -0.004012388 -0.005883422 -0.0044286936
0000e0 66 94 ab 3c 88 6a f3 3b bd e7 a0 ba 5c e4 24 bb
       0.020944785 0.007428471 -0.0012276095 -0.0025160527
0000f0 18 32 e5 3b 72 13 a9 3b 27 5b cf 3c 5c 49 2d 3c
       0.006994497 0.0051597888 0.02531202 0.010576572

conv3.4.running_mean f4 [64]
000000 1c bc d5 3d 12 ab c5 3d dd df 52 3e 65 8d 1e 3e
       0.1043627 0.0965177 0.2059321 0.15483625
000010 dc 3a 3c 3e c6 28 70 3e 8a 6d 3c 3e 93 96 3b 3e
       0.18381828 0.23453054 0.18401161 0.18319158
000020 c9 c4 65 3e 9e d1 31 3e a3 6f 69 3e 2f 14 1c 3f
       0.22438349 0.17365119 0.22796492 0.609683
000030 41 57 40 3e cc 09 01 3e c0 a4 9c 3d 71 a9 52 3e
       0.18783285 0.12601393 0.07648611 0.2057245
000040 15 8b 2c 3e 8c 43 f8 3d e1 9f 62 3e 37 00 46 3e
       0.1684993 0.121222585 0.22131301 0.1933602
000050 43 9e df 3d d8 b5 04 3e 40 c4 4c 3e 32 9c 1c 3e
       0.10918858 0.12959993 0.19996738 0.15293959
000060 f9 b6 c1 3d 10 a4 2e 3e cb c3 9b 3d 13 3a 2d 3e
       0.094587274 0.17054772 0.07605704 0.16916685
000070 03 8d 4e 3d dc cd a9 3e 8f 66 ab 3d c0 7f be 3e
       0.050427448 0.3316487 0.08369171 0.3720684
000080 5b d9 82 3e f2 96 be 3d 7a 9d aa 3d 10 54 17 3e
       0.25556454 0.09306134 0.083308175 0.14778161
000090 9a 32 62 3f 32 ee 18 3e 79 74 1c 3e c5 37 82 3e
       0.8835846 0.14934614 0.15278806 0.25433174
0000a0 9f 40 73 3e a7 26 53 3f 07 ec 93 3d 9d 31 55 3e
       0.2375512 0.82480854 0.07222753 0.20819707
0000b0 ec 55 fe 3d 87 c2 55 3e a4 8f 64 3e bc 72 9a 3e
       0.12418732 0.20874988 0.2232042 0.3016566
0000c0 1f fe 64 3e a0 29 22 3e 5c 91 1d 3e 95 73 83 3e
       0.22362565 0.15836191 0.15387481 0.2567412
0000d0 9a 59 3f 3e 1b 9e f6 3e 68 87 85 3e 06 22 1c 3e
       0.18686524 0.481675 0.2607987 0.15247354
0000e0 69 d3 bd 3e 46 4e 72 3e 4a d1 8b 3e 21 d3 78 3f
       0.37075356 0.23662671 0.27308112 0.9719716
0000f0 60 22 38 3e cb 1c 50 3e 8d 2f 90 3e 9c 3d 2c 3e
       0.17981863 0.20323484 0.28161278 0.16820377

conv3.4.running_var f4 [64]
000000 3c fc 40 3e d7 45 1a 3e 3a de 56 3f a9 d2 f1 3e
       0.1884622 0.15065704 0.8393284 0.47231033
000010 28 80 3b 3f b2 21 4a 3f 8d fb 2d 3f 3f 1c a3 3e
       0.73242426 0.78957665 0.6796196 0.31857488
000020 10 2b f3 3e 8a dd 1f 3f dd 66 4e 3f e2 41 32 40
       0.47493792 0.62447417 0.80625707 2.7852712
000030 c3 bd 3c 3f 84 40 57 3e 22 2d ee 3d 34 62 40 3f
       0.73727053 0.21020705 0.11629702 0.75149846
000040 68 2f ae 3e 0e 92 63 3e ce d8 6d 3f 0c f6 32 3f
       0.34020543 0.22223684 0.9290894 0.6990669
000050 71 35 34 3e ff dc da 3e 33 56 47 3f 4b b3 10 3f
       0.17598511 0.42746732 0.77865905 0.5652358
000060 d2 ef 0b 3e 14 bc ba 3e 27 6a 0b 3e 54 79 1c 3f
       0.13665703 0.36471617 0.13614713 0.6112263
000070 e1 7d a3 3d 33 ff a6 3f b8 24 eb 3d 06 86 57 3f
       0.07982994 1.3046631 0.11481613 0.8418888
000080 a9 9e 73 3f 76 2c 07 3e d0 82 d1 3d 93 ae 8e 3e
       0.9516397 0.13200554 0.10230029 0.27867565
000090 e0 dd 68 40 a6 38 0f 3f db af 0a 3f 07 c8 96 3f
       3.6385422 0.55945814 0.54174584 1.1779794
0000a0 81 0b eb 3e d3 c4 76 40 55 33 d7 3d 42 6d 71 3f
       0.45907214 3.8557632 0.10507838 0.9430734
0000b0 ed 0c 50 3e 37 33 78 3f de 83 54 3f 21 a0 80 3f
       0.20317431 0.9695315 0.83013713 1.0048867
0000c0 4d 78 63 3f 5a 61 00 3f ae 13 97 3e a4 27 8c 3f
       0.8885544 0.50148547 0.29507202 1.0949597
0000d0 55 ae 99 3e 36 41 14 40 38 c7 7a 3f 2c eb 7e 3e
       0.30015817 2.3164802 0.97960234 0.24894398
0000e0 62 43 87 3f 9f 3c 3d 3f 5e a1 77 3f 80 ff cc 40
       1.0567439 0.73920625 0.967306 6.406189
0000f0 6d 94 2e 3f c7 5b 48 3f a7 84 35 3f 1e b7 1c 3f
       0.6819523 0.7826504 0.70905536 0.61216915

fc.0.weight f4 [32, 64]
000000 65 bf 19 3e a5 a3 25 3e 74 b3 6b bc 14 97 ab bd
       0.15014417 0.16175707 -0.014386047 -0.08378425
000010 b6 8c 73 be 38 e7 e9 bc 55 4a ce bd b0 4e 03 bb
       -0.23784146 -0.028552637 -0.100727715 -0.0020035915
000020 75 86 56 3d bf 01 e3 bd f1 2b 40 be ac 40 c9 bd
       0.052374322 -0.110843174 -0.18766762 -0.09826788
000030 5e 6d 19 be d3 59 a2 3d c1 21 fb 3d ee 1e 4e be
       -0.14983127 0.07927289 0.122622974 -0.20128986
000040 c1 99 1c 3d 04 2d 72 3d a5 1c 2a be 7e c0 18 be
       0.03823257 0.05912496 -0.1661249 -0.1491718
000050 97 f7 40 bd 62 1f 52 bd 0f a2 b9 bd 78 28 84 be
       -0.04711112 -0.05129946 -0.09064113 -0.25812125
000060 04 d4 d0 3d 9a e8 f7 bb 49 6c a3 bc a8 01 22 be
       0.10196689 -0.00756557 -0.019949095 -0.15820944
000070 7e 1d 10 3e 8d 9a c7 bd 95 2f 72 3b 62 53 e6 3d
       0.1407375 -0.09746275 0.003695463 0.11246373
000080 cb e7 59 bc aa 7c 3a 3d 2b 2a ab 3d 39 a6 1a 3e
       -0.013299893 0.045529045 0.08357652 0.15102471
000090 ae 43 80 3d 05 dd 44 be 70 58 a8 bd 56 c7 5b be
       0.06262909 -0.19224937 -0.08219993 -0.2146276
0000a0 dc 70 d3 3d 37 ea 61 3d 53 0d fb 3c cf 47 09 be
       0.103242606 0.055155005 0.030646002 -0.13406299
0000b0 d1 bd 1a 3e 6b f3 83 be e4 99 25 be 85 ba fd 3b
       0.15111472 -0.2577165 -0.16171986 0.007743182
0000c0 6b 81 ee bc cc 1c 15 be 30 09 2e 3d ad d6 37 be
       -0.029114446 -0.14561766 0.04248923 -0.17952986
0000d0 43 90 9e 3d 8d d7 4e be 5a f6 f2 bd 2b 84 f5 3d
       0.077423595 -0.20199414 -0.11863394 0.119881
0000e0 2c 3a 85 3d 26 f1 89 bd 8a 91 53 be f1 8e 57 bb
       0.06505236 -0.067354485 -0.20660987 -0.0032891596
0000f0 3d cd b8 bd e9 8d a5 bd 8c bd cc bb a7 cb 23 be
       -0.09023521 -0.08083708 -0.0062481817 -0.15995656
000100 fe 2f 78 bc 2b ca 8d 3c a8 16 e0 bd 62 5d 49 be
       -0.015148161 0.017308315 -0.10941821 -0.19664529
000110 58 df a9 bd c8 70 1a bd 11 d2 20 be 87 13 c3 3d
       -0.082945526 -0.037705213 -0.15705134 0.09525209
000120 b1 67 84 bd 8f 8d 42 be f9 2f 5e b9 c1 11 11 bd
       -0.0646509 -0.18999313 -0.00021189441 -0.035417322
000130 32 8f eb bd ab b3 d8 3d 0c 3e 2c 3e 6d 5a 03 be
       -0.11501922 0.10581144 0.16820544 -0.12827463
000140 4c ba 0c 3e c7 53 91 3d 72 6f e0 bd 3c 67 b9 bc
       0.13742942 0.070960574 -0.109587565 -0.022632234
000150 9e 15 5e bc 22 ce 5a be 96 cd 4a be 6c 2f 47 be
       -0.013554959 -0.21367696 -0.19804987 -0.19451684
000160 b6 a7 ad 3b e3 07 0c 3e 6b e5 29 3d 1f b3 33 be
       0.0052995337 0.13674884 0.041478556 -0.17548798
000170 7b 95 14 3e 43 06 4a be 13 4c 21 3d 70 5d 2f bd
       0.14510147 -0.19728951 0.03937919 -0.04281372
000180 bc 85 94 bd 50 10 30 3e 26 40 0e 3e 29 2b 1f 3e
       -0.0725207 0.17193723 0.13891658 0.15543808
000190 9c e6 46 3d 30 32 db bd b4 c7 2e be c0 e4 5f be
       0.04855977 -0.10702932 -0.17068368 -0.21864605
0001a0 3e 0e b3 bc a2 de 3c 3d cd cd f7 3d bd 28 d2 bc
       -0.021857377 0.046110757 0.120998 -0.025654191
0001b0 bd 90 e1 3a 19 f1 11 be fa 86 92 3b 06 26 06 3e
       0.0017209273 -0.14252128 0.004471657 0.13100442
0001c0 9e 22 55 be c3 f2 ed bd 5b 54 35 bd 34 87 9d bd
       -0.20813987 -0.11618569 -0.0442699 -0.076918036
0001d0 fc a5 c5 3d 08 af 82 bd f6 ad c6 bd 70 62 27 3e
       0.096508 -0.06381041 -0.09701149 0.16346145
0001e0 51 9e 0f 3e 74 d5 fe bd 0b eb e1 bd b3 cc 42 ba
       0.14025237 -0.12443057 -0.11031159 -0.0007431015
0001f0 66 5b 2c be b3 b6 7a bd 96 58 52 3d 21 6a ec bd
       -0.1683174 -0.06120939 0.051354013 -0.1154368
000200 26 db 2c 3d f5 8a 98 3d 55 e4 12 be f1 60 1b be
       0.042201184 0.07448379 -0.14344914 -0.15173699
000210 74 9e 41 be 99 fd b9 bd 94 59 55 be bc 5a 33 3d
       -0.18908101 -0.09081573 -0.20834953 0.043787703
000220 5b fb 5e 3d e3 79 7e bd da 63 01 be 54 22 cb 3d
       0.05443893 -0.06212796 -0.12635747 0.09918657
000230 55 32 1d be 35 13 93 3d 9c 5e cb 3d 1e f9 12 be
       -0.15351231 0.07181398 0.09930155 -0.14352843
000240 12 d2 69 3d 64 b3 d4 3d 59 a8 f1 bb 5f 36 48 be
       0.057085104 0.103857785 -0.007374805 -0.19551991
000250 60 44 1d 3d 2c 8d 17 be 6e c0 42 be c7 c0 38 be
       0.038395286 -0.14799947 -0.19018719 -0.18042289
000260 e7 d9 fd bc 6a 2b 02 3c 6c ec fa 3d 80 fc 24 be
       -0.030987693 0.007944921 0.12252125 -0.16111946
000270 53 88 e5 3d b3 f4 73 bd 85 da 18 3e bf 44 c2 bd
       0.112076424 -0.059559535 0.14927109 -0.094857685
000280 b8 65 e0 bd fe 1e 65 3d 05 e9 0b bd 6a ef ed 3d
       -0.10956901 0.05593776 -0.03415777 0.1161793
000290 f3 dd 9f bd ac 00 34 be 27 c5 a0 bd a2 27 39 be
       -0.07806005 -0.17578381 -0.07850104 -0.18081525
0002a0 a0 30 40 3d f6 5d 44 bd 09 2f ea 3d 0c fa 03 be
       0.046921372 -0.04794117 0.114347525 -0.12888354
0002b0 0e 04 44 3d 86 86 66 be 40 39 59 bc 17 b8 a1 bd
       0.04785543 -0.22512254 -0.013258278 -0.078964405
0002c0 51 5f 42 3b 6f ca 51 bd 6e 9b c9 3d 0d ba 20 be
       0.0029658864 -0.051218446 0.09844099 -0.15695973
0002d0 09 d0 f7 3d d0 a4 35 be 47 8e 08 be a6 68 2f 3e
       0.121002264 -0.17738652 -0.13335524 0.17129764
0002e0 b4 0a 58 3d ed 38 6c be 9a 15 75 be 79 60 cf 3d
       0.052744582 -0.2306859 -0.23934022 0.101258226
0002f0 35 27 25 be 11 5b 08 be c7 90 90 3c ec 56 23 be
       -0.16128238 -0.13315989 0.01764716 -0.15951127
000300 ec 15 0e be e3 a1 d1 bd 02 4b 1c 3d 44 49 8c 3d
       -0.1387555 -0.102359556 0.03815747 0.06849912
000310 8c 69 47 3e c0 c3 50 3e 5a 52 27 3e bc fc df bd
       0.19473857 0.20387173 0.16340008 -0.10936877
000320 57 ae 32 3c d9 0a 5c 3e c1 19 c3 3d ab 4c e4 bd
       0.010905824 0.21488513 0.095263965 -0.11147436
000330 02 26 1d 3e 1e bb ab bd b0 32 18 be 36 61 ed 3d
       0.1534653 -0.08385299 -0.14863086 0.11590807
000340 ea 66 0d be 5b db 8b 3c f3 44 37 3d 42 9c 1a 3e
       -0.1380879 0.01707237 0.04474349 0.1509867
000350 d4 2e b6 bd 35 40 54 3e de 90 ae 3d 60 a1 13 3e
       -0.088956505 0.20727618 0.08523725 0.14417028
000360 f5 f2 b2 3c f3 7b 22 3d 20 36 20 bd fd 17 81 3c
       0.021844367 0.03966899 -0.039114118 0.015758509
000370 9b 84 9f 3b 76 f9 6a 3e 9c 80 b0 39 62 23 dc bd
       0.0048681027 0.22946724 0.00033665157 -0.10748936
000380 6b 51 1c 3e fe 06 60 bd 09 35 21 be df d5 b8 bd
       0.15265433 -0.05469417 -0.15742888 -0.09025168
000390 1a 50 98 bd 51 11 ce 3d 98 ea a5 3d 62 ef 94 3d
       -0.07437153 0.100618966 0.08101386 0.07272221
0003a0 29 98 b6 3c 8f c4 1a be 5e 71 91 bc dd df 30 3e
       0.022289352 -0.15114044 -0.017754253 0.17272897
0003b0 ce b3 a1 bd cf 36 55 3e 9b 16 49 3d bc a1 f3 bc
       -0.07895623 0.20821689 0.049093824 -0.029740207
0003c0 d5 18 5e 3c 85 4a 6e 3d 11 47 95 bd 04 1f 9a 3d
       0.013555725 0.058176536 -0.072889455 0.07525447
0003d0 b8 03 14 bd 24 ec 42 3e f2 07 44 3e 35 9c e3 bd
       -0.03613636 0.19035393 0.19143656 -0.111137785
0003e0 d5 a3 08 be 89 e2 0a 3e 54 5a 04 3d 41 e1 1c bd
       -0.13343747 0.13562979 0.032312706 -0.038300756
0003f0 8b fa d7 3c 58 28 65 3e 39 55 43 bd 51 ee bc 3d
       0.026364585 0.22378671 -0.047688697 0.09225143

fc.0.bias f4 [32]
000000 d8 0e 81 bd e7 c2 a3 bd ee 7f a1 bd 7d 1b 7a 3d
       -0.06301659 -0.07996159 -0.07885729 0.06106137
000010 b6 3b 9e bc a5 4a ac bd 89 c4 92 3d 83 f9 29 bd
       -0.019315582 -0.08412675 0.07166392 -0.04149772
000020 2d b7 be bd b6 31 52 bd f8 a1 22 bd fe e5 a4 bc
       -0.09312282 -0.05131694 -0.039705247 -0.0201292
000030 2b ca 9d 3d cc e8 68 bd bd 2a 80 bd 9e 9b 3f 3d
       0.07704576 -0.056862637 -0.06258152 0.046779267
000040 c8 69 7d 3d 17 65 b5 bd e7 21 49 bd 5e 66 7a 3c
       0.06186846 -0.08857172 -0.049104597 0.015283195
000050 b2 bc c9 3b 04 f7 db 3d 82 2f 45 3d 71 2f ce bd
       0.0061565274 0.10740474 0.04814101 -0.100676425
000060 90 de cb bb bb 87 cf 3d 1e 96 93 3d 05 c3 7b 3d
       -0.0062216 0.101333104 0.07206367 0.061465282
000070 6c 0b b5 3d 1e 36 b5 3d b1 ef 09 bc 30 86 a9 3c
       0.08840069 0.08848213 -0.008418963 0.020693868

fc.3.weight f4 [1, 32]
000000 88 e2 eb bd 2c e5 2c be 82 2a 4a be 72 a0 bc 3e
       -0.11517817 -0.16884297 -0.19742778 0.3684116
000010 4f bd a3 3e cd f2 17 be 89 13 25 3e 71 b1 af 3e
       0.31980368 -0.14838715 0.16120733 0.34315065
000020 4d 10 21 be 01 6a 42 be 07 97 a9 3e f3 fd 13 be
       -0.15728875 -0.1898575 0.33123037 -0.14452343
000030 12 1f 6f be 3e dc a8 bd c5 df d3 bd f9 2b f7 bd
       -0.23351696 -0.08245133 -0.10345415 -0.12068934
000040 cb d5 03 be 06 90 8c 3e 93 94 72 be 3b 4a 1f be
       -0.12874524 0.2745363 -0.23689489 -0.1555566
000050 ab 51 6a 3e ae 8f a3 3e 70 9b 9c 3e d7 4e b6 3e
       0.22882716 0.31945556 0.3058734 0.35607025
000060 fe bf 43 be 2d 9a 61 be 3a 2a 72 3e 78 a5 39 be
       -0.19116208 -0.2203147 0.2364892 -0.18129528
000070 56 01 9a 3e 1d 0d 08 be b7 64 5b be 4b c9 2d be
       0.30079144 -0.13286252 -0.21425138 -0.16971318
