5 第五讲 机器学习训练模型的数学范式v16/models/model190.pth (torch, 112459 bytes, 21 tensors)

conv1.0.weight f4 [16, 3, 3, 3]
000000 1e 40 b0 bc dd 8a fd bd e1 e1 0f 3e 69 b7 6a bd
       -0.021514948 -0.12380002 0.1405101 -0.05730382
000010 28 cd 06 be f7 3e 33 be f2 b2 21 3d c6 af 20 be
       -0.13164198 -0.17504488 0.039477296 -0.15692052
000020 31 4a c2 3d 44 93 92 3d 29 32 43 3e 69 66 0d be
       0.09486807 0.07156995 0.19062103 -0.13808598
000030 37 60 18 3d f9 61 3f 3d 5f c3 c8 3c 77 17 e5 3d
       0.037201133 0.046724293 0.024507223 0.11186116
000040 11 55 4d 3c 52 15 79 bd 77 1b 26 3e 90 27 d6 bd
       0.012532488 -0.06081135 0.16221415 -0.10456765
000050 71 fd 16 be 43 98 00 3e eb 78 d9 bc ca ed 25 3e
       -0.14745118 0.12558083 -0.026546916 0.1620399
000060 2a 3e d0 bd b9 4b 35 3e eb ed 52 3d f1 1a 9b bd
       -0.10168107 0.17704667 0.051496428 -0.07573498
000070 ef 8a f1 3d 40 5d 7c bd cc a7 d5 bc cc c0 a8 bd
       0.117940776 -0.061612368 -0.026080988 -0.08239898
000080 26 b0 c8 3d 07 ad 38 3d ad 71 12 3e 79 3d 95 bd
       0.09799223 0.045086887 0.14301176 -0.072871156
000090 1f e1 06 3c ef 4d a2 bc 7c e5 34 3e 7e 02 35 be
       0.008232384 -0.019812552 0.17665666 -0.17676732
0000a0 35 1c 7e bd 49 66 40 3e 30 0d 63 3d ba 77 2d bd
       -0.06203862 0.18789019 0.0554325 -0.04235051
0000b0 7d 8a ea 3d 96 02 c3 3c 4e 78 9a bd 57 31 11 be
       0.11452196 0.023804944 -0.075424775 -0.14178978
0000c0 ca eb 51 be 6a 40 cb 3d 50 10 de ba 01 af 81 3d
       -0.20500103 0.099243954 -0.0016942117 0.063322075
0000d0 2a 41 23 be a1 d1 3f 3e 3c 5d bb 3d e2 16 07 bc
       -0.15942827 0.18732311 0.091486424 -0.008245202
0000e0 51 83 d4 bd dd d3 1a bb 87 d9 fe bd 16 4a 34 be
       -0.10376609 -0.0023624816 -0.12443834 -0.17606387
0000f0 a7 1a 51 bd 59 65 f9 3d c6 6f 2f be ce 43 2b 3e
       -0.05105081 0.12177534 -0.17132482 0.16725084
000100 1b ec ba 3d de 52 30 be 1e 92 3b 3e 9c 02 6c 3d
       0.09127065 -0.17219111 0.18317458 0.057619676
000110 ce cd 51 bd 3b 93 18 3d d2 ab 43 3d 4a 45 f2 3d
       -0.05122166 0.037249785 0.047771282 0.11829622
000120 b3 9a 3c 3e 9d 17 c7 3c 73 70 85 bd da f3 6c 3c
       0.18418388 0.024303252 -0.065155886 0.014462436
000130 e9 ec 06 3d dd a1 d3 bd aa 54 ad bd 89 9d 51 be
       0.03294078 -0.10333607 -0.08463414 -0.20470251
000140 83 89 28 3e d3 3f 99 bd 5e c6 7f bb ae 76 1b be
       0.16458707 -0.07482877 -0.0039028148 -0.15181991
000150 90 a7 4b 3c ac 3c 3f 3e 21 97 20 be 07 c4 02 3e
       0.012430087 0.18675488 -0.15682651 0.12770091
000160 92 e3 53 3e a5 89 3e be e2 06 39 bd bb 1f 2a 3c
       0.2069228 -0.18607195 -0.04517258 0.010383542
000170 73 b3 82 bc f0 db 7f bb 73 48 29 3e f9 c9 f1 3d
       -0.015954709 -0.0039041005 0.16531543 0.11806101
000180 73 b4 01 3d ca 42 84 3d 8f 36 03 be 7e 1a 0d be
       0.03166623 0.064580515 -0.12813781 -0.13779637
000190 05 eb ad bd 1b 34 10 3e 46 41 34 3e ad 9a 2b 3e
       -0.08492092 0.14082377 0.17603025 0.16758223
0001a0 f9 32 b7 3b be 76 e3 3d 6e eb 6a bd 31 6c 82 bd
       0.005590793 0.11106633 -0.05735343 -0.06368292
0001b0 a0 14 54 be 3c 51 6c 3d 25 b0 c1 bd 26 d8 20 3e
       -0.20710993 0.05769466 -0.09457425 0.15707454
0001c0 56 b4 c2 3c ff f4 01 3e 93 80 39 bd 66 04 56 3d
       0.023767632 0.12691115 -0.045288634 0.05225029
0001d0 24 f4 15 be 82 dc 64 be 41 17 fe bd 29 72 50 3e
       -0.14643914 -0.22349742 -0.12406779 0.20356049
0001e0 2c 50 79 3d d2 b4 c7 3d b4 b9 53 3e 49 97 98 3d
       0.060867473 0.097512856 0.20676309 0.0745073
0001f0 18 43 96 3d 2b 4d 58 bd 1d d6 0d be a9 9a cf 3d
       0.07337016 -0.052807968 -0.13851209 0.10136921
000200 43 95 2e 3e 6a dd 31 be d4 d6 74 3d f8 51 09 bd
       0.17049126 -0.17369619 0.05977519 -0.033525437
000210 21 2d 29 3e c4 42 1f bd cd b2 07 bd dc 65 5c bd
       0.16521122 -0.038882032 -0.033129502 -0.05380808
000220 67 74 70 bd 34 08 1d 3e 36 9e da bd a7 34 4e 3d
       -0.05870476 0.1533516 -0.106747076 0.050343182
000230 44 2a eb 3b 9f 38 00 3e d3 3c bd 3d d4 4a 0f be
       0.0071766693 0.12521599 0.09240117 -0.13993388
000240 7f d3 4e bc d4 27 30 3c 3a 13 bd bc 75 c5 23 3e
       -0.012623667 0.010751683 -0.023080457 0.15993293
000250 5b e4 56 3e d0 0c fa bd b5 9d 59 bd 31 0d 56 3e
       0.20985548 -0.12209475 -0.053128917 0.2090347
000260 32 f3 86 3d 8d ea c7 bd 44 38 c7 3d d0 e0 4f bd
       0.065893546 -0.09761534 0.09727529 -0.050751507
000270 00 93 d5 bd 12 b7 4e be 2c 7e dd 3d 20 20 9b bd
       -0.10428429 -0.20187023 0.10815081 -0.07574487
000280 21 02 1a be 83 e1 1d be 63 f9 73 bc f7 03 07 3e
       -0.15039875 -0.15418057 -0.014891001 0.13185106
000290 ba 9d da 3d 10 be 07 3e 22 15 b2 bd 42 cc 27 be
       0.10674615 0.13256097 -0.08695437 -0.16386512
0002a0 ce b6 12 bd 21 98 d2 bd 46 c6 6e 3d 83 de 0f 3e
       -0.035818867 -0.102829225 0.058294557 0.14049725
0002b0 d5 90 7a bd 3d 8a 50 be f4 d4 25 3e 6e d5 2e 3d
       -0.06117328 -0.20365234 0.16194516 0.04268401
0002c0 3e 79 12 be f2 cd 78 bd 87 ac 5d bd ff 64 0f be
       -0.14304063 -0.06074328 -0.054119613 -0.1400337
0002d0 e6 37 45 3e f3 aa 91 3d 05 02 e6 bd b5 2e cd bd
       0.19259605 0.07112684 -0.11230854 -0.10018674
0002e0 c1 1c b1 bd 6e 8d 3d be 6c 88 aa bb 9d d8 79 bd
       -0.086480625 -0.18510982 -0.005204251 -0.060997594
0002f0 4e d5 d0 bd ac 13 2f 3c bd 53 c2 bd ad 8f df 3d
       -0.10196935 0.0106858425 -0.09488628 0.10916076
000300 62 33 b4 3d 0a 5a 93 bd c0 aa b8 bd 76 8e 55 be
       0.08798863 -0.07194908 -0.09016943 -0.20855126
000310 a1 ba 00 bd 40 cd 2d be 18 64 3c 3e fc b5 f5 3d
       -0.031427983 -0.16972828 0.18397558 0.119976014
000320 25 05 98 3c f8 3d 68 bc 76 c9 5a bb f8 48 4b 3e
       0.01855714 -0.014174931 -0.003338424 0.19852054
000330 f5 6b d2 bc 3d 4d 0b 3d ba 6d f0 3d d1 19 8c 3d
       -0.025686244 0.034009207 0.11739679 0.068408616
000340 c9 c7 36 bc ef 72 09 3e 27 f8 26 be 8b 76 a3 3c
       -0.011156031 0.1342275 -0.163056 0.019953987
000350 94 79 54 be 77 ab 9c 3d 86 cc cb 3d 17 54 90 bd
       -0.20749503 0.07649892 0.09951119 -0.07047289
000360 85 85 12 be 12 dc 12 be 79 cd 8b bd 94 7f 0b be
       -0.14308746 -0.14341763 -0.068263 -0.13622886
000370 90 9b 01 bd 70 26 89 bd a2 c3 d6 bd 81 c5 c6 3d
       -0.031642497 -0.066967845 -0.10486533 0.0970564
000380 48 47 0a be 11 43 a5 3d cd 40 78 be 24 85 fb bd
       -0.13503754 0.080694325 -0.2424347 -0.12281254
000390 71 82 3d 3e d6 4a e6 bd 42 a5 5d bd 80 48 ca 3d
       0.1850679 -0.112447426 -0.05411268 0.098771095
0003a0 58 b9 ad 3d 1a 9a bd bd d1 6a 8b 3d ce cf 90 be
       0.08482617 -0.09257908 0.06807483 -0.28283542
0003b0 9d 97 ad be 3c 0b 4e bd 92 de 4b 3e d7 44 ea 3d
       -0.33904734 -0.050303683 0.19909123 0.114389114
0003c0 2a 19 20 3e 6a 8e 85 3d e7 da b6 3c d2 ef 48 3e
       0.156346 0.06521304 0.022321178 0.19622734
0003d0 75 83 b4 3d 78 31 4c 3d 7d 51 0c be a1 61 ff bd
       0.08814136 0.049851865 -0.1370296 -0.12469793
0003e0 3d e2 03 3e ee e5 59 3e 88 25 67 3d 92 47 95 3d
       0.12879272 0.21279117 0.056432277 0.072890416
0003f0 b2 87 16 be 93 96 8d bd c5 3e 6c bd a1 0f bc bd
       -0.14700201 -0.069134854 -0.05767705 -0.091826685

conv1.0.bias f4 [16]
000000 23 c8 a5 3d e7 d3 87 3d f9 f7 4c 3d c0 7e b7 3d
       0.08094814 0.06632214 0.050041173 0.089597225
000010 f8 f1 53 be 61 4d ea ba 93 ec ee 3d 6c 6a e2 3c
       -0.20697773 -0.0017875844 0.11666217 0.027638637
000020 d8 51 4a be a2 66 1f 3c b5 1d 88 3e 8a ea db bd
       -0.19757783 0.009729059 0.26585165 -0.10738094
000030 da b3 21 3e 9f 52 30 be fd 8e 90 3c c8 97 70 3e
       0.15791264 -0.17219017 0.017646307 0.234954

conv1.3.weight f4 [16]
000000 ee c7 6d 3f cb df 79 3f 38 25 83 3f 09 b6 61 3f
       0.92883193 0.97607106 1.0245733 0.8816839
000010 d9 a0 81 3f 5b 17 82 3f 53 41 7e 3f 0a c5 63 3f
       1.0127212 1.0163378 0.99318427 0.8897253
000020 ec 9f 75 3f ec a0 85 3f c0 60 68 3f 4b d8 96 3f
       0.95947146 1.0439734 0.9077263 1.1784757
000030 d6 9a 61 3f d0 4e 82 3f e7 d2 6b 3f ee 69 75 3f
       0.88126886 1.0180302 0.92118686 0.9586476

conv1.3.bias f4 [16]
000000 54 bf e0 bb fc f0 44 3e 7f 77 7d bc cd 96 1e 3c
       -0.0068587456 0.19232553 -0.015470385 0.009679508
000010 ba 3b 66 3e 1f 5c 90 bc 3c 56 a2 3d 1d 08 b3 3d
       0.22483721 -0.017622052 0.07926604 0.08741782
000020 66 81 8c 3e ed 66 40 3d 7c c0 2e be d1 c5 a4 3d
       0.27442473 0.046973158 -0.17065614 0.08045543
000030 a2 1b 21 3d 61 04 fb 3d 04 ce 3c 3d c8 76 0a be
       0.039332993 0.122566946 0.04609491 -0.13521874

conv1.3.running_mean f4 [16]
000000 ad 40 0e 3e 63 3f 09 3e ce e8 5f 3d 9d 22 8e 3e
       0.1389186 0.13403086 0.05466538 0.27760783
000010 a7 ae 69 3c de 48 5c 3c fb ef 9b 3c 33 87 a1 3d
       0.014262832 0.013445107 0.01903533 0.07887115
000020 6b d2 15 38 22 97 04 3d 4b 64 06 3f b7 49 2a 3c
       3.5720335e-05 0.032370694 0.52496785 0.010393552
000030 50 ee 3e 3e e3 87 43 3c 15 01 8a 3d 86 4e 63 3e
       0.18645597 0.011934253 0.06738488 0.22197923

conv1.3.running_var f4 [16]
000000 05 94 8a 3b fe 06 1b 3b 7a 1b 17 3b 49 26 6d 3c
       0.004229071 0.002365529 0.0023057149 0.01447446
000010 c5 b5 9b 3a ef 91 76 3a bf 53 e8 3a da ff 35 3b
       0.0011879733 0.0009405901 0.0017725154 0.0027770908
000020 7c ba 9d 36 1a fc 16 3b 1a 6e 19 3d 57 b8 a6 3a
       4.7006743e-06 0.0023038448 0.037458517 0.0012719732
000030 f7 5b ba 3a 96 55 6e 3a 24 1d a3 3b e1 65 a9 3a
       0.0014218081 0.0009091733 0.004977839 0.0012924039

conv2.0.weight f4 [32, 16, 3, 3]
000000 67 62 92 3c ec d5 78 bc 16 3a 37 bc 20 b0 af 3c
       0.017869188 -0.015187722 -0.011183282 0.021446288
000010 4b a4 96 3d b1 fe cc 3c dc 31 a8 3d 1a 9c 24 bc
       0.07355555 0.02502379 0.08212635 -0.010046983
000020 cf 46 d1 ba b9 17 82 bd 73 36 bb bd 0b 9b 54 bd
       -0.0015966537 -0.06352181 -0.09141245 -0.051905673
000030 92 43 53 bd d4 32 a1 3c e2 3d 4a bd bb 66 6a bd
       -0.051578112 0.019677557 -0.049375422 -0.057226878
000040 bd 5f 7f bd 82 08 c1 3c 2b c6 03 3e ea d9 00 3b
       -0.062347163 0.023563627 0.12868564 0.0019661137
000050 ae 79 bc bd 76 1a d3 3d d3 b4 a3 3d 10 3e 3a bd
       -0.09202896 0.103077814 0.07993474 -0.045469344
000060 6f 6c a4 bc cd 7a 19 bd 06 26 37 bd a3 37 cb 3d
       -0.020071236 -0.037470628 -0.044713996 0.09922721
000070 8b ad 68 3d 43 c0 5b bd 21 dc a3 3b 89 29 84 3d
       0.05680613 -0.053650152 0.0050006066 0.06453235
000080 3a 95 cb bc 61 fd 26 3d 67 78 78 3c bc 8f 30 3d
       -0.02485143 0.040768985 0.015165425 0.043105826
000090 ea e9 87 3c 47 5d e2 3c 1c 1f 14 bd d2 cb de bd
       0.016591031 0.027632369 -0.03616248 -0.108787194
0000a0 72 73 a3 bc 42 c8 82 bb f9 95 88 bd ad 2e 8c bd
       -0.01995251 -0.0039911577 -0.0666923 -0.0684484
0000b0 32 d4 18 bc f2 48 25 3c de ba 87 3d a4 e2 ac 3d
       -0.009327935 0.010088192 0.06627439 0.08441666
0000c0 bb 38 46 bd c2 7f 71 3d 80 7e 13 3d 60 10 ac 3d
       -0.048393946 0.05895973 0.03600931 0.08401561
0000d0 ab 4b bb 3d a4 c5 7f 3d 28 cf 7d 3d 02 9d c3 3c
       0.09145292 0.062444344 0.061965138 0.023878578
0000e0 c4 c8 83 bc 8d aa ea bc 80 34 62 3d bb 78 69 3c
       -0.016086943 -0.028645778 0.05522585 0.014249976
0000f0 1d aa 34 3d 30 3b 16 3d 60 bc b4 3d ae ae 68 3d
       0.044107545 0.03667754 0.08824992 0.056807213
000100 27 cb a5 bd 4c 0d 6a bd 2d 84 82 3d 27 83 78 3d
       -0.08095389 -0.057141587 0.06372867 0.06067195
000110 95 7d 3c bd 10 0a 1b 3d c0 90 a6 bd 96 ce 73 bd
       -0.0460182 0.037851393 -0.081330776 -0.059523188
000120 7e f7 b1 bd 12 19 59 be 96 c8 04 be 58 f5 50 be
       -0.086897835 -0.2120097 -0.12967142 -0.20406091
000130 bc e9 78 be 74 99 4a be 3b fa 35 be 92 15 06 be
       -0.24307913 -0.197851 -0.17771237 -0.13094166
000140 d2 4f 66 be db 57 ef bd 71 bc 16 bd ef 85 af 3d
       -0.22491387 -0.11686679 -0.036800805 0.08570468
000150 75 53 67 bd 00 3f 91 3c 8f 33 ac 3d 44 8c c0 bd
       -0.056476075 0.017730236 0.084082715 -0.094017535
000160 63 a0 b5 bd 71 72 cd 3d ca ed e5 3d 9e 4f ad 3a
       -0.08868482 0.100315936 0.11226995 0.001322258
000170 a0 19 f9 bb d9 06 b7 bc 61 93 39 3d da 02 95 bc
       -0.0076019317 -0.022342132 0.045306567 -0.018189836
000180 e2 1e ed 3d 5a 36 7d 3d 4e 2c 11 3d 03 04 ee 3c
       0.11578156 0.06181941 0.035442643 0.029054647
000190 ea 39 ab 3c a5 2a 76 3c fb 28 ce bd a2 eb 9a bd
       0.020901639 0.015024816 -0.1006641 -0.07564475
0001a0 3e 7f 13 be c3 22 bf bd 4a 98 17 3d f1 c1 db 3b
       -0.14404008 -0.09332802 0.03701047 0.006706469
0001b0 cb 63 95 3d 38 4b 5e bc ad ae 12 3d 0b aa 32 3d
       0.072944246 -0.013567738 0.035811115 0.043619197
0001c0 fd 53 1b bc 07 1f 43 3c 73 26 38 bd 42 e3 52 bc
       -0.009480474 0.011909253 -0.044958543 -0.012871565
0001d0 6a d1 94 bd 2c 35 42 3d 35 e6 be bd 7d 09 19 be
       -0.07266505 0.04741399 -0.09321252 -0.14945026
0001e0 0e b3 28 bd 6e e8 90 bd 4b 5e 0c bd 87 4f 26 be
       -0.041186385 -0.070755824 -0.034269612 -0.16241275
0001f0 cf 0c 8a bd 01 b1 ea 3c 9d 4f ab 3c 45 4b 2c bd
       -0.06740724 0.028648855 0.020911986 -0.04206397
000200 18 29 df bb 91 25 11 bd 89 90 35 bd ad f4 fb bc
       -0.0068103187 -0.035436217 -0.044327293 -0.030756319
000210 13 bf 07 bd fe b3 26 3d 28 25 53 3d 8a ec 71 bd
       -0.033141207 0.040698998 0.051549107 -0.05906347
000220 12 05 0e bc 0a b3 ff 3b b4 57 9f bb ce c0 91 bd
       -0.008668201 0.0078033255 -0.00486275 -0.07116853
000230 33 9f 44 bd 89 22 5c 3d cf 53 5c 3d 12 96 30 bc
       -0.048003387 0.053743873 0.053790864 -0.010777967
000240 ef c1 0e 3d 64 78 c3 bb 17 5b 40 3d 23 d1 c2 3d
       0.03485292 -0.0059652794 0.04696187 0.09512546
000250 a8 1f 05 3d c0 8e 02 bd e4 3b 31 3d 24 4b 8b 3d
       0.032500893 -0.03187442 0.043270007 0.06801441
000260 94 20 bb 3d 1e fa 82 bc 81 e7 90 3c 60 be 37 bd
       0.09137073 -0.015988406 0.017688515 -0.04485929
000270 88 c3 81 bd f4 c3 64 3c 04 d7 00 be d2 96 0f 3d
       -0.06336123 0.0139627345 -0.12582022 0.035055943
000280 98 2b 5f bc 1c 66 af bc 93 5d 0b 3d 46 e0 d6 3d
       -0.013621233 -0.021410994 0.034024786 0.104919955
000290 01 1a a7 3d c8 d3 f8 3d fb 1d 4b bd 9e 54 30 3d
       0.08159257 0.12149769 -0.04958914 0.043049447
0002a0 99 d0 00 3e f1 88 d8 3b fb 89 bb 3d 75 11 c4 3d
       0.12579574 0.0066081216 0.09157177 0.09573642
0002b0 a8 ba cd 3c a3 46 0a bc 25 fe f6 3c f6 da 89 bb
       0.025113419 -0.008439693 0.030150482 -0.0042070104
0002c0 1b 59 a7 3d 7a 05 a4 3d ec 2f 91 bb d1 35 c8 3d
       0.081712924 0.08008857 -0.0044307616 0.0977589
0002d0 87 35 92 3d 8f f0 8f 3d 4f a0 df bc a3 1e c0 3d
       0.07139116 0.07028305 -0.02729812 0.093808435
0002e0 0f 78 78 3d 6c 1c 20 3d b7 5f c5 3d 35 63 7a 3b
       0.06066137 0.039089605 0.09637397 0.0038206105
0002f0 b6 dc 8c 3d b3 ce 90 3c 6f 1f 82 bd 8b 44 0f 3c
       0.06878035 0.017676687 -0.06353652 0.008744369
000300 e0 ef 72 bd 26 03 1f be 9e 9f d8 bd b6 77 01 3d
       -0.059310794 -0.15528545 -0.105773196 0.031608306
000310 23 17 7b bd 4b c1 b1 bd 67 9b d5 bb 10 b0 e5 bc
       -0.06130136 -0.08679446 -0.0065187695 -0.028038055
000320 ff 6a 77 3d 8c 78 04 3e 63 f5 fd 3c ea 46 70 3d
       0.060404774 0.1293661 0.031000799 0.05866138
000330 2d e5 61 3d 82 bd 6f bd 18 84 8c 3d 25 a8 44 bd
       0.0551502 -0.058530338 0.068611324 -0.048011918
000340 3e 8c 85 3d c3 aa 36 3d d8 77 1d bd 00 b7 8b bd
       0.0652089 0.044596445 -0.03844437 -0.06822014
000350 89 2d 90 bd 0f 1a 64 3c 48 c1 c8 bd 7a c5 e1 bb
       -0.07039935 0.0139222285 -0.098024905 -0.006889996
000360 18 82 39 bb 92 00 6e bd 0b c6 c3 3d f0 2d f9 bd
       -0.0028306302 -0.058106013 0.09559258 -0.12166965
000370 cc fb 44 bc c5 3a 0c bd 03 16 60 bd bb e8 d4 bd
       -0.012022924 -0.034235734 -0.054708492 -0.10395952
000380 a8 ec 5c bd 44 09 b3 3c 6c 2b b0 bd f5 85 61 bd
       -0.05393663 0.021855004 -0.08602032 -0.055059392
000390 12 47 00 3d e1 f7 3a bb 63 a7 a0 bd df cb a1 3d
       0.031317778 -0.0028529095 -0.078444265 0.079002135
0003a0 d7 38 aa bc 19 cc 8a bc 4d 54 41 3d ed 4b 9b bc
       -0.020779056 -0.016943024 0.047199536 -0.018957103
0003b0 04 96 d7 3d f5 de 00 3e 2c 7b 08 3e 91 83 55 3c
       0.1052666 0.12585051 0.13328236 0.013031856
0003c0 e4 d9 15 3d 3b ee 18 3e 01 8c ad 3d 45 f3 8e 3c
       0.03658475 0.14934628 0.08473969 0.017449984
0003d0 2f fb 8d 3b e6 a8 ac 3d d8 1d 82 bd d6 7d 7c bd
       0.004332922 0.08430652 -0.063533485 -0.061643444
0003e0 bd 03 ba bc dd 80 dd 3c a8 0d 03 bd 0f 33 32 3d
       -0.02270686 0.027038986 -0.031995445 0.043505725
0003f0 88 46 b0 3d 54 19 85 3d 87 ed 8a 3d a9 a1 ac 3d
       0.08607203 0.064989716 0.06783586 0.08429272

conv2.0.bias f4 [32]
000000 bc 50 05 be 4a 45 ab bd 8e 31 e1 bd ed 7a 59 3c
       -0.13019079 -0.08362825 -0.1099578 0.013273937
000010 61 29 1a be 14 e1 f5 bd 63 fc a9 3d 10 3a 2d 3d
       -0.15054847 -0.12005821 0.08300092 0.0422917
000020 85 f9 26 be fa a8 20 ba d8 14 0d bd 28 c4 64 be
       -0.16306122 -0.0006128695 -0.034443706 -0.22340453
000030 fd 8e b7 bc 72 e8 b7 bd a1 7f 79 be 61 ab 4b bc
       -0.02240705 -0.08979882 -0.24365093 -0.012430997
000040 76 9d 90 be d7 2c b9 bd ab 14 95 bd 33 26 00 3e
       -0.28245133 -0.09041756 -0.07279333 0.12514572
000050 87 84 dc 3b 98 13 e3 bd 07 c3 c6 bd 31 43 e5 bd
       0.0067296657 -0.110877216 -0.09705167 -0.11194456
000060 c2 25 83 3b 9b ec 4c be a2 fb 1e be 78 77 80 bd
       0.004002304 -0.20012133 -0.15525678 -0.06272787
000070 ed e9 b9 bd 89 7c 70 be 7f ed e6 bd 06 42 20 be
       -0.09077821 -0.23485006 -0.112757675 -0.15650186

conv2.3.weight f4 [32]
000000 8e 38 86 3f 1c b8 6a 3f b3 3a 7c 3f 0d e5 57 3f
       1.0486009 0.9168718 0.9852707 0.8433388
000010 43 6c 75 3f 98 49 78 3f 9a 15 71 3f 2f 9e 7a 3f
       0.9586832 0.96987295 0.94173586 0.9789762
000020 84 2e 73 3f d2 33 80 3f bb 9c 7e 3f 36 37 8a 3f
       0.9499285 1.0015814 0.994579 1.0798099
000030 48 15 7e 3f cd f0 79 3f c0 f0 85 3f 18 30 7f 3f
       0.9925122 0.9763306 1.0464096 0.9968276
000040 13 f5 47 3f 99 11 82 3f be fa 7a 3f e7 5f 64 3f
       0.7810833 1.016162 0.9803885 0.89208835
000050 60 58 66 3f 3d f7 65 3f 0d 82 7f 3f 1d 12 81 3f
       0.899786 0.8983038 0.99807817 1.0083653
000060 96 d4 76 3f 17 32 87 3f 37 a4 7f 3f b7 ce 5e 3f
       0.9641813 1.0562161 0.99859947 0.8703417
000070 c2 70 86 3f 14 71 84 3f 1a bb 66 3f 5f 1d 70 3f
       1.0503161 1.0347009 0.90129244 0.93794817

conv2.3.bias f4 [32]
000000 f7 f5 e5 3d 15 d9 c0 3e f4 e9 b8 3d 59 e3 4b be
       0.11228555 0.3766562 0.09028998 -0.19910945
000010 a7 90 2f 3e 96 8e 2c be 3d 50 09 3f df 7e 95 3d
       0.17145024 -0.16851267 0.5363806 0.07299589
000020 fd 20 06 be 8f a6 3b 3e 11 be cd bd 71 84 1b 3f
       -0.13098522 0.18325256 -0.10046018 0.60748965
000030 ec ea 49 be 44 7d 75 3e 85 fa b0 3e 9b c1 19 be
       -0.19718522 0.23973566 0.3456613 -0.15015261
000040 18 6a 6f 3e fe 97 23 be 5b 6d 15 3c 4c 57 7a bb
       0.23380315 -0.15975949 0.009120311 -0.0038199006
000050 d7 38 a0 3e 41 7c 68 3e 8e 00 ad 3e 48 e8 82 3e
       0.31293365 0.22703649 0.33789486 0.25567842
000060 b2 08 c1 3e 88 1a ae 3e ac 2f 7b bd 5d 97 37 be
       0.37701946 0.34004617 -0.06132476 -0.17928834
000070 84 2a dc 3e c8 3c 61 3e f4 74 9a 3e ad 81 fa 3e
       0.43001187 0.21995842 0.30167353 0.4892706

conv2.3.running_mean f4 [32]
000000 7d f5 36 3d 9c 3f 59 3f ec ed 8c 3e 64 66 3e 3f
       0.04466771 0.84862685 0.2752527 0.74374986
000010 3b 0e 7c 3e db 1d 9e 3d 38 74 01 3f 98 83 17 3f
       0.24614803 0.07720538 0.5056796 0.5918517
000020 c6 28 66 3e 1e 99 f1 3e 52 2e 02 3e 66 1d a4 3d
       0.22476491 0.47187132 0.12712982 0.0801342
000030 7f e5 20 3f f2 63 18 3f 2c 20 4c 3d 21 7b 86 3e
       0.62850183 0.59527504 0.04983537 0.26265815
000040 94 b6 a8 3e 99 5f ca 3e d8 8f 97 3e d2 9b 3a 3f
       0.32951796 0.3952606 0.29601932 0.7289401
000050 fd f7 2d 3f 54 32 16 3f 5e c5 b2 3e ca 0e 31 3e
       0.67956525 0.58670545 0.34916204 0.17290798
000060 1b e4 0c 3f c2 98 03 3e c5 9b 3d 3e 83 ee bd 3d
       0.5503556 0.12851241 0.18516453 0.09274008
000070 91 3c 75 3e 98 b8 aa 3e da e4 c4 3e 6b 3f 30 3e
       0.23948886 0.3334396 0.3845585 0.17211692

conv2.3.running_var f4 [32]
000000 d9 25 06 3d 57 67 0d 40 ea 21 52 3e e1 32 77 3f
       0.032750938 2.2094324 0.2052075 0.9656201
000010 e6 c0 8a 3e 91 09 04 3d cb e1 82 3e 46 4d 51 3f
       0.27100295 0.032235686 0.2556289 0.81758535
000020 df 16 9d 3e 2f 18 cb 3e 2c 39 0b 3e 4f a4 ba 3d
       0.30681512 0.39666888 0.13596028 0.091133706
000030 88 be d1 3e 32 0e bb 3f 34 80 6a 3d 9f d3 1d 3e
       0.40965676 1.4613707 0.05725117 0.15412758
000040 70 92 03 3f 2b b1 02 3f c6 b2 d1 3e 2d 99 2e 3f
       0.5139532 0.51051587 0.40956706 0.6820248
000050 f5 38 3b 3f 97 1e b4 3f e1 0e 09 3f 73 c1 c4 3d
       0.73133785 1.4071835 0.5353833 0.0960721
000060 63 fd e5 3e 6f 61 1a 3e 81 fa 1d 3e f3 c6 e6 3c
       0.4491988 0.1507623 0.15427591 0.028171038
000070 17 30 dd 3e 2f 26 12 3f eb a6 60 3e f9 bd 02 3e
       0.43200752 0.57089514 0.21938674 0.12767781

conv3.0.weight f4 [64, 32, 3, 3]
000000 4e 22 35 bd e6 8a 8c bd e8 d4 87 bd d6 ce 56 bd
       -0.04422217 -0.0686243 -0.066324055 -0.052443348
000010 d3 72 ae bd e5 73 86 bd 56 a6 a4 bd bd 97 96 bd
       -0.08517995 -0.06565074 -0.080395386 -0.073531605
000020 72 9b f6 bd e9 ae 86 bd 96 70 bd 3c e1 6e 86 bc
       -0.120413676 -0.0657633 0.023124974 -0.016410293
000030 c6 4f 9a bc 65 a8 48 bd 19 2d a8 bc e1 06 47 ba
       -0.018836867 -0.04898872 -0.020529317 -0.00075922726
000040 83 b1 05 bc c1 70 67 3d f1 86 f6 bb f0 91 26 bd
       -0.008159998 0.056504015 -0.0075234105 -0.04066652
000050 9c 5a ca bd 35 0a ba 3c 1a 8a ea bc d4 9c ed bc
       -0.098805636 0.022709945 -0.028630305 -0.029005446
000060 9b 0d 9d bd 82 e6 01 bd 58 39 5d bd fe 44 23 3d
       -0.07668611 -0.03171397 -0.054009765 0.039860718
000070 00 4e 8d bc 91 1e a2 3d 4a bb f6 3b da ff e9 bb
       -0.017249107 0.07915986 0.007529651 -0.0071410956
000080 c6 9e d2 3c d1 29 8b 3b 07 9d 03 3d 0a 31 2d bb
       0.025710475 0.0042469283 0.032132175 -0.0026426935
000090 61 5f 94 bd 2e c0 a8 bd 44 7b f7 bc 5d e6 6b bc
       -0.072447546 -0.0823978 -0.030210145 -0.014398185
0000a0 56 65 90 bd 13 d3 3d bd 23 83 0b bd e3 7e 97 bc
       -0.07050578 -0.046343874 -0.03406061 -0.018493121
0000b0 99 2f 01 bd 8f 37 81 3b 8f b4 a3 3c 89 08 15 bc
       -0.031539533 0.0039433907 0.019983558 -0.009096273
0000c0 2e eb f2 3c ab 17 f6 3c 19 2e 97 bc 02 02 14 3d
       0.029653158 0.030040583 -0.018454598 0.036134727
0000d0 b2 10 0b 3d 3b 92 c3 bb 46 d7 9c bc fa 15 f6 bd
       0.03395147 -0.0059683598 -0.01914562 -0.120159104
0000e0 14 77 53 bd e7 3d 24 bc 9e b2 f2 bd 5b d4 bb bd
       -0.051627234 -0.010024524 -0.11850475 -0.09171363
0000f0 47 c6 99 bd 57 32 71 bd ca 6b b7 bd fb 40 50 bd
       -0.075085215 -0.0588859 -0.08956106 -0.05084322
000100 b6 60 30 bd 2c f2 3d bd 87 2c 00 bd 2e 20 cc 3c
       -0.04306098 -0.04637353 -0.031292465 0.024917688
000110 83 b6 1b bd 21 41 15 bc aa 61 5f 3d 7b 35 00 3d
       -0.038015854 -0.009109766 0.0545365 0.031301003
000120 fb 1e 86 3d 2a 88 23 3e 24 75 dd 3d 57 90 07 3e
       0.06548878 0.15969911 0.108133584 0.13238655
000130 9e 7e 0a 3e 27 ed 96 3d c8 52 ec 3c a6 3d 11 3e
       0.13524863 0.07369452 0.028848067 0.14183673
000140 2f d2 a2 3d 82 b7 d3 3c 5e 6a e4 3b b8 fe 2d 3c
       0.079502456 0.02584434 0.006970688 0.010619812
000150 a9 f0 bc 3a 1b df 4b 3d 3e 24 30 3c 7f a3 0d 3d
       0.0014414984 0.049773317 0.010750828 0.03457975
000160 1d c4 23 3d 41 7e 6c 3d ef fd f2 bc ad d9 1b bd
       0.03998195 0.057737593 -0.0296621 -0.03804939
000170 e4 fa bf 3b 73 ac cf ba 02 b8 05 bd 8a 16 02 3b
       0.005858766 -0.001584424 -0.032646187 0.001984986
000180 6b 03 34 bd ee bc ce bc 17 5c 03 bd 9d df 94 bd
       -0.043948572 -0.025236573 -0.032070246 -0.07269213
000190 69 03 fb bd 65 a5 d0 bd dc ae 9c bd cb 07 1a be
       -0.1225651 -0.101877965 -0.07650539 -0.15042035
0001a0 c1 c1 13 be 3a 52 b5 bd e4 a0 18 be dc f3 27 be
       -0.1442938 -0.08853574 -0.14905125 -0.16401619
0001b0 b7 fb ed bc 3c c1 ea 3b 98 00 aa 3c 50 79 65 bd
       -0.029050691 0.0071641486 0.020752236 -0.056023896
0001c0 a0 03 8b 3b 6a 67 a3 bc 50 38 66 bd f5 20 87 bc
       0.0042423755 -0.019946773 -0.056206048 -0.016495207
0001d0 57 63 e8 bc e6 79 07 be 97 b6 bb bd a2 48 01 be
       -0.028367681 -0.13230094 -0.091656856 -0.12625363
0001e0 00 cc f9 bd 3d 07 9a bd fb 36 92 bd 07 50 00 be
       -0.12197113 -0.07520912 -0.07139393 -0.12530528
0001f0 3b 32 88 bc 51 00 8c bd a0 70 e9 3c f2 43 45 3d
       -0.016625514 -0.06835998 0.028496087 0.0481605
000200 2d d8 fc 3c 72 b7 94 3c f0 66 9b 3c 4b 3d 28 3d
       0.0308648 0.01815388 0.018969983 0.04107408
000210 d2 92 5d 3d 4e 55 8b 3d ef 7a 9a 3c f0 0a ef bc
       0.054095097 0.0680338 0.018857447 -0.02918002
000220 ae 65 6e bd c0 c8 2e bd ae 80 97 bc 26 cd 40 bd
       -0.058202438 -0.04267192 -0.018493976 -0.047070645
000230 05 57 a8 bd 5a 90 6f bd 60 81 27 bd 8e 7a c8 bd
       -0.08219723 -0.058487274 -0.040894866 -0.097890005
000240 3c f3 f2 3c 20 34 21 bd 1e 73 76 bd ab 02 66 bd
       0.029656999 -0.03935635 -0.060168378 -0.056154888
000250 78 74 a3 bb 8f 7f 84 bc c6 7a 63 bd 10 fe a5 3c
       -0.0049882494 -0.016174106 -0.055537008 0.020262748
000260 70 49 47 3c 35 62 89 3d 23 dd b3 3d c0 c7 ce 3d
       0.012163505 0.06708185 0.08782413 0.10096693
000270 ae 85 89 3d df 5f d0 3d bf ab 59 3c 44 c5 b4 3d
       0.067149505 0.10174536 0.013285576 0.08826688
000280 83 95 df 3d 87 1c b7 3d eb cd 77 bc f8 2f 0a 3d
       0.10917189 0.08940988 -0.015124778 0.033737153
000290 66 68 09 bd 6e 81 04 3d 86 22 e4 3c 41 a6 3f bd
       -0.033546828 0.032349996 0.027848493 -0.04678941
0002a0 5f ea 3b bb fa 70 f8 3b fd b9 e0 3b 68 e2 99 bd
       -0.0028673632 0.007581827 0.006858109 -0.07513887
0002b0 a6 86 9e bc 12 54 a2 3c e7 71 19 bd 5c d4 00 3c
       -0.019351315 0.019815478 -0.03746214 0.00786313
0002c0 75 7b 3e bc 7c e0 a6 3c 80 41 84 3d 06 c6 f8 ba
       -0.011626114 0.020370714 0.06457806 -0.0018979914
0002d0 f0 e3 43 3a e6 21 dc bc 22 22 49 bd 4d 3d f5 bc
       0.0007472625 -0.026871633 -0.049104817 -0.029936457
0002e0 10 eb 79 bc 9c f3 4d bd e4 35 c6 bc df 5b 85 3c
       -0.015253797 -0.050281152 -0.024195619 0.01627916
0002f0 aa 67 d2 3a c9 8d 8d bd 6a 4c b3 bd 32 9e 3b bd
       0.0016052623 -0.06911809 -0.08754809 -0.045805164
000300 40 b5 0e bd 44 eb 35 bd 36 5b f4 bd 44 53 1c bd
       -0.034840822 -0.04441382 -0.119314596 -0.038165346
000310 40 4d 20 bd b8 66 f7 bd d9 84 ca 3b 5f ba 62 3a
       -0.03913617 -0.12080139 0.0061803875 0.0008648987
000320 09 83 4a 3d 5d 7f 17 bc a9 20 ba 3d 3e 0b 6b 3d
       0.04944137 -0.009246674 0.09088261 0.05738377
000330 ee 40 83 3b 50 60 05 3b c8 28 3d 3c 70 b8 45 bd
       0.004005543 0.0020351596 0.011545368 -0.048271596
000340 32 69 97 bd 1a 9d d2 bd 24 e1 8e bd ef 01 6a bd
       -0.07393111 -0.10283871 -0.06976536 -0.05713075
000350 d6 9f 22 bd db 94 94 bd 12 95 90 bd 6d 57 d2 bd
       -0.039703213 -0.072549544 -0.07059683 -0.102705814
000360 7b 90 39 bd 1b 70 40 bd c6 f8 b8 bd 7f e8 d3 3c
       -0.045303803 -0.046981912 -0.09031825 0.025867699
000370 7e c6 f5 bb 1f 61 83 bd df db 95 bc 1a 2b 3d bd
       -0.0075004688 -0.06415009 -0.01829332 -0.046183683
000380 4c dd 60 bd b3 1a 83 3d 1f 1a ae 3d aa 34 15 bc
       -0.054898545 0.06401577 0.08501076 -0.009106794
000390 86 de 49 3d 5d 12 4c 3d 15 b4 a7 3c da ed c0 3c
       0.04928448 0.0498222 0.020471612 0.023550916
0003a0 67 ba b0 3d ca d8 b5 bc 3b 72 21 bd 40 27 ca bc
       0.086293034 -0.0221981 -0.03941558 -0.024676919
0003b0 6b f1 6c bd 42 1c eb bc ff 31 27 bb 97 f4 bf bc
       -0.05784742 -0.028699998 -0.0025511978 -0.02343206
0003c0 04 99 51 bd 97 e9 3c bd 6a 45 01 bd 4d b8 58 ba
       -0.051171318 -0.046121206 -0.03156034 -0.0008267209
0003d0 0a 0f e9 bc 67 0e b3 bc 86 b6 db 3c 35 b8 ee bc
       -0.028449554 -0.021857454 0.026820432 -0.029140571
0003e0 86 cf b4 bc 79 75 ef bc 67 f2 41 3b bf f1 70 3d
       -0.022071611 -0.02923082 0.0029593946 0.058824297
0003f0 09 00 38 bd 03 d3 e1 bd 81 31 35 be b4 72 57 bd
       -0.04492191 -0.110265754 -0.17694665 -0.052599624

conv3.0.bias f4 [64]
000000 4f a8 67 be 04 9c 8b bd 2e 30 9c bd da cf 45 be
       -0.22622798 -0.06816867 -0.07626377 -0.1931757
000010 ae 63 b3 bc a0 b4 b5 bc 52 f4 c6 bd 88 57 2c be
       -0.021898117 -0.022180855 -0.09714569 -0.16830266
000020 4b b0 8a bd 1d e7 ae bd 35 c9 99 3c 5e ee 25 be
       -0.067719065 -0.08540175 0.0187727 -0.16204211
000030 81 5b be bd 5b 40 1a bd e2 01 46 be 47 4e 14 bc
       -0.09294797 -0.03765903 -0.19336656 -0.009051866
000040 e6 85 20 be e8 2c 1a be 60 a9 98 bd 9c 9d 20 be
       -0.15676078 -0.15056193 -0.07454181 -0.15685123
000050 dd 4c 28 be 5b 32 03 be 2d 7e bb bd c4 01 45 bd
       -0.16435571 -0.12812178 -0.091549255 -0.048097387
000060 24 6a c9 bd 31 3f e8 bd 3d 45 8c be 52 a1 e8 bd
       -0.09834698 -0.11340178 -0.27396575 -0.113588944
000070 56 77 71 be 12 0e b2 bd 8a b1 52 be 59 cd 0a be
       -0.2358068 -0.0869409 -0.20575538 -0.13554896
000080 91 a3 06 be 88 bb 63 be ce f2 2f be 47 69 2a be
       -0.13148333 -0.22239506 -0.17182466 -0.16641723
000090 2e fa f4 bd 24 e2 c8 bd a6 9d 2f be 58 c1 f9 bd
       -0.119617805 -0.09808758 -0.17149982 -0.121950805
0000a0 54 06 08 be 69 c0 37 bd bb 70 2c be 99 53 f2 bc
       -0.13283664 -0.04486123 -0.16839878 -0.029580878
0000b0 54 43 9c bd 0a e0 b7 bd fd 9e ac bd 65 5e 8d bd
       -0.07630029 -0.08978279 -0.08428762 -0.0690277
0000c0 7b b5 63 ba ed 2a 08 be 8f 47 25 be b7 b3 06 be
       -0.00086864055 -0.13297625 -0.16140579 -0.13154493
0000d0 f7 81 33 be 38 e2 51 bd e4 e8 9d bd 04 e9 1d be
       -0.17530046 -0.05124113 -0.07710436 -0.1542092
0000e0 41 f1 7e bd 75 6d b2 bd 78 46 bd bd 5e 20 45 bc
       -0.062241796 -0.087122835 -0.092419565 -0.012031643
0000f0 6a 80 15 3c e8 c9 1d bd ae 65 50 be 48 4f da bd
       0.009124855 -0.03852263 -0.20351288 -0.10659653

conv3.4.weight f4 [64]
000000 7e 0a 97 3f e9 64 93 3f e3 82 a0 3f 30 b5 aa 3f
       1.1800077 1.151517 1.2539943 1.3336544
000010 d8 be 9f 3f e6 78 9f 3f 02 91 a3 3f 5c ac 92 3f
       1.2480116 1.245877 1.2778628 1.145885
000020 3e 9f 88 3f 23 f1 a4 3f 93 72 9c 3f 5e 93 86 3f
       1.0673597 1.2886089 1.2222465 1.0513723
000030 fa 20 a3 3f 8f 72 90 3f a2 58 92 3f ae bf a1 3f
       1.2744439 1.128496 1.1433299 1.2636621
000040 a9 fc 8d 3f d0 c2 94 3f 3a b5 a3 3f 8e b9 a6 3f
       1.1092731 1.1621952 1.2789681 1.3025377
000050 24 b0 97 3f 7d 17 a8 3f ef 68 a3 3f 34 0a a8 3f
       1.1850629 1.3132168 1.2766398 1.3128114
000060 ad 95 8a 3f fd 83 92 3f 9b 89 8f 3f 04 83 ad 3f
       1.0826927 1.144653 1.1213869 1.3555608
000070 7d 98 94 3f 23 9b a8 3f 02 ea 96 3f 35 5d 86 3f
       1.1609036 1.3172344 1.1790164 1.0497195
000080 98 db 99 3f 4a ba 99 3f fc bd 8a 3f cf 56 95 3f
       1.202014 1.2009976 1.0839229 1.1667117
000090 55 37 7a 3f de 6f a8 3f 39 80 a5 3f a7 d4 a0 3f
       0.9774068 1.3159139 1.2929755 1.2564896
0000a0 c7 4a 93 3f c6 40 82 3f 24 24 97 3f bd f8 a3 3f
       1.1507195 1.0176017 1.1807904 1.2810284
0000b0 f8 58 8f 3f 5c 5f a2 3f c0 1d a5 3f bc 1f 7e 3f
       1.1199026 1.2685351 1.2899704 0.9926717
0000c0 2c 1d 9f 3f 72 a6 a9 3f f1 ab 95 3f f6 f4 a5 3f
       1.2430778 1.325392 1.1693097 1.2965381
0000d0 18 fe 8a 3f ed 4a 98 3f 3c df aa 3f b0 4f 95 3f
       1.0858793 1.1897866 1.3349376 1.1664944
0000e0 be cb 8a 3f 83 d9 a8 3f da 22 a2 3f a9 00 75 3f
       1.0843427 1.3191379 1.2666886 0.9570413
0000f0 d3 25 a0 3f f7 1f a0 3f 73 3e 8e 3f 52 bb 9c 3f
       1.2511543 1.2509755 1.1112808 1.2244666

conv3.4.bias f4 [64]
000000 06 8d 3b bc d6 45 c7 bb 9a 91 5c 3c 0b b3 f3 3a
       -0.011447197 -0.006081323 0.0134624485 0.0018592788
000010 c6 44 41 3c 55 36 59 3c 27 1f 2d 3c 13 ed 3f bc
       0.011796182 0.013257583 0.010566509 -0.011714238
000020 79 e5 b3 bc 37 1c 9a 3c 16 e3 6c 3c 78 86 ae bc
       -0.021960007 0.018812282 0.014458438 -0.021304354
000030 77 51 3a bc bc 2b 84 bc d6 a9 fd b9 d6 55 ca 3b
       -0.011371962 -0.016134135 -0.00048382458 0.006174783
000040 70 27 13 3b f3 6a b0 bb 8f 50 93 3c 1d 07 1a bc
       0.0022453927 -0.005383843 0.01798275 -0.00940111
000050 7e 94 73 bc ea 9a 19 3c 15 da fa 3c b0 d1 1b bb
       -0.014866946 0.009375313 0.030621568 -0.0023776107
000060 0c 74 4b bd 61 8a 94 bc be 41 d9 bc b1 fc 19 bc
       -0.049671218 -0.01813239 -0.026520606 -0.009398625
000070 9e 80 0f bd ca 58 24 3b 99 f7 8d bc 36 aa 9b bc
       -0.03503477 0.0025077336 -0.017329978 -0.019002061
000080 37 9d 0e 3d fe ec 4d bc 8e a8 cb bc 96 36 a9 3b
       0.0348179 -0.01256871 -0.024860647 0.005163978
000090 b5 e9 66 bb 7e 15 6a 3c ea 56 8f 37 fa 56 40 ba
       -0.0035234515 0.014287351 1.7087401e-05 -0.0007337179
0000a0 90 42 93 bc b3 92 9d 3b e1 bd b6 3b bc 40 77 3c
       -0.017976075 0.0048087477 0.0055768345 0.0150911175
0000b0 41 fe e6 3b 40 a6 1b 39 76 53 34 3c 82 2c e3 3a
       0.0070493524 0.00014843885 0.011006227 0.001733199
0000c0 16 2a ac bb 57 bb 5a 3c 64 9d c0 bb 20 2e ba 3c
       -0.0052540405 0.013350329 -0.0058781374 0.022727072
0000d0 c9 b4 4e bc 0a 23 dc 3b e5 e5 08 3c 60 43 b1 bc
       -0.012616345 0.006718044 0.008355592 -0.021638572
0000e0 5e bf 5d 3c a2 57 b1 3c 2a d9 58 3c d0 20 62 bc
       0.013534395 0.021648232 0.01323537 -0.013801768
0000f0 63 52 d3 3c 72 da b9 3c 7e 8a 2f 3c 66 a5 c3 3c
       0.025796121 0.02268717 0.010714171 0.023882579

conv3.4.running_mean f4 [64]
000000 cb 85 09 3d 82 ef 08 3d 7f 38 bd 3d dd e2 ba 3c
       0.03357486 0.033431537 0.092392914 0.022813255
000010 3d b5 b5 3d 16 8b b2 3d 15 e4 36 3d 0a c6 e0 3c
       0.08872459 0.08717935 0.04465111 0.027438182
000020 90 65 1c 3d b4 69 aa 3d 53 83 3a 3d 89 bf 71 3c
       0.038182795 0.083209425 0.045535397 0.014755138
000030 a9 e3 2e 3d e5 4a 6d 3d 7c cb 32 3c 02 9c c8 3d
       0.042697582 0.057932753 0.010912772 0.09795381
000040 88 69 b3 3d de e4 b4 3c 58 ed aa 3c e6 ac ff 3c
       0.08760363 0.022081789 0.020865127 0.031210374
000050 e6 60 90 3c 67 47 f5 3c 5c af be 3d 5a 42 10 3e
       0.01762433 0.029941274 0.09310791 0.14087811
000060 b0 c2 30 3d d6 89 3e 3d 75 03 a1 3c 6e 59 df 3c
       0.04315442 0.04651817 0.019654969 0.027264323
000070 76 20 b0 3c 2a 95 1b 3d 1e d3 2b 3d 49 f9 63 3c
       0.021499854 0.03798405 0.041949384 0.013914415
000080 a8 4e 9b 3c d7 c5 15 3d 50 d3 0c 3d 71 31 16 3d
       0.018958405 0.036565628 0.03438121 0.036668245
000090 fa 75 c4 3d 82 48 5d 3c 92 ce a9 3c c3 b9 3e 3d
       0.09592815 0.013506057 0.020728383 0.046563875
0000a0 e6 64 f9 3c 8b ad bc 3d 9d 42 31 3c 60 bf 27 3e
       0.03044362 0.09212788 0.0108191045 0.16381598
0000b0 26 ac 0b 3d 5a 48 f6 3c e3 5a ce 3c db 33 df 3d
       0.03409972 0.030063797 0.025189823 0.108985625
0000c0 8f 04 de 3d db 71 81 3c ae 78 c1 3c 4c b8 57 3d
       0.10840713 0.01580136 0.023617115 0.052665994
0000d0 c4 c7 dd 3c 8d 0b 13 3e f9 01 06 3d 76 8a 0d 3d
       0.027072795 0.14359875 0.032716725 0.034555875
0000e0 10 83 f7 3c 9b 16 74 3c 92 b4 e5 3c dd 1c 19 3f
       0.030213863 0.014897968 0.028040204 0.59809667
0000f0 01 68 0e 3e 04 2c c3 3d df 49 a6 3c a9 73 1c 3d
       0.13906862 0.0952988 0.020298896 0.03819624

conv3.4.running_var f4 [64]
000000 ff 6e dc 3d 7d e4 82 3d 27 69 a4 3e f1 37 76 3d
       0.10763358 0.06391237 0.32111475 0.060111944
000010 2f 7a 84 3e 7f 0e 90 3e 47 ca 01 3e 2e 3a 7e 3d
       0.2587447 0.2813606 0.12674819 0.062067203
000020 de 0e b1 3d ca 95 7f 3e 08 a1 f8 3d 6b e0 17 3d
       0.08645414 0.24959484 0.12140089 0.037079256
000030 98 63 fb 3d 2b 0b dd 3d 75 28 ec 3c 8e 7b b7 3e
       0.122748554 0.10793146 0.028827885 0.35836452
000040 c7 88 2c 3e 70 de 4e 3d 27 0a 48 3d 53 6c e0 3d
       0.16849051 0.0505051 0.048837807 0.10958161
000050 55 e2 1d 3d 38 29 bd 3d 80 5b 9b 3e 36 cf 01 3f
       0.038545925 0.092363775 0.30343246 0.50706804
000060 84 60 bc 3d 36 78 36 3e f3 2b 89 3d 76 e0 b0 3d
       0.091980964 0.17819294 0.06697836 0.086365625
000070 4e 9d 85 3d 87 82 01 3e e1 5b b9 3d 7d 66 f0 3c
       0.06524144 0.12647448 0.09050728 0.029345745
000080 dd 21 5c 3d 9b d8 00 3e 27 94 22 3e 13 ca f0 3d
       0.053743232 0.12582628 0.15876828 0.117572926
000090 20 e2 1f 3f f3 91 1f 3d 2f 36 6e 3d 3e 3a 16 3e
       0.62454414 0.038957547 0.058157142 0.14670655
0000a0 27 25 93 3d 9b a8 81 3e e6 30 14 3d c6 04 32 3f
       0.071848206 0.25323948 0.036179446 0.69538534
0000b0 c4 98 86 3d 0b 14 b8 3d f8 98 9f 3d 72 24 59 3e
       0.065721065 0.08988198 0.07792848 0.21205309
0000c0 9c 94 b6 3e f8 e3 26 3d 05 d6 a7 3d 15 79 39 3e
       0.35660255 0.04074475 0.08195118 0.18112595
0000d0 8c ff 26 3d 69 19 1c 3f 62 d8 de 3d e9 69 ac 3d
       0.040771052 0.6097627 0.108811155 0.08418638
0000e0 c4 7b 90 3d 2e 55 0a 3d 93 8f b9 3d 93 bc 21 40
       0.070548564 0.03377264 0.09060588 2.5271347
0000f0 51 1e 07 3f 8c 68 92 3e 95 e4 83 3d 0e 34 c1 3d
       0.52780634 0.28595388 0.06440083 0.09433757

fc.0.weight f4 [32, 64]
000000 0a ea 52 3e 61 b9 76 3e ae ac 9b bd 66 1c 45 be
       0.20597091 0.24094154 -0.076012954 -0.19249114
000010 39 78 a7 be 30 1e c8 bd 94 a2 49 be c4 f1 a6 3d
       -0.3270891 -0.09771383 -0.19690925 0.08151582
000020 82 42 f9 3d 52 8d 34 be 92 c3 46 be cd 1f 18 bd
       0.121708885 -0.17632034 -0.19410542 -0.037139703
000030 2b 23 62 be a8 67 0e 3e be 7b 45 3e 0c b1 99 be
       -0.22083728 0.13906729 0.19285485 -0.3001789
000040 d0 4e c5 3d 6c 50 cf 3d 47 d5 90 be 1d 34 6f be
       0.09634173 0.10122761 -0.28287718 -0.23359723
000050 13 10 6c 3d 11 04 1c be a3 fd 45 be d7 71 a1 be
       0.057632517 -0.15235926 -0.19335036 -0.31532165
000060 7c 4e 26 3e ab d4 7c 3d 19 91 47 3d 30 ce 85 be
       0.16240877 0.061726253 0.04872236 -0.2613387
000070 9f aa 5a 3e 20 ed 25 be 38 42 d7 3d 7b 79 3b 3e
       0.2135415 -0.16203737 0.10510677 0.1830806
000080 2b de 89 bd b1 e5 12 3e 4f e6 fd 3d 17 58 43 3e
       -0.06731828 0.14345433 0.123974435 0.19076572
000090 fd 06 11 3e d7 68 95 be 51 d5 2a be 1c 14 82 be
       0.14162822 -0.2918155 -0.16682936 -0.25405967
0000a0 ff 39 22 3e 72 d0 a8 3d ab 99 f5 3d 58 f9 59 be
       0.15842436 0.08242883 0.119922005 -0.21286523
0000b0 3d 90 2b 3e c1 bb 99 be ec 2a 87 be 82 8a 41 3d
       0.16754241 -0.30026057 -0.26399934 0.047251232
0000c0 1a a5 b6 bd 54 ce 87 be ab 93 f1 3d 92 45 9b be
       -0.089182094 -0.26524603 0.117957436 -0.30326515
0000d0 30 66 e7 3d 71 34 8a be c7 1d 4d be 70 fa 20 3e
       0.112987876 -0.26993135 -0.2003089 0.15720534
0000e0 71 18 dc 3d 96 eb 1e be 5a 4e a1 be ba 50 f9 3b
       0.10746849 -0.15519556 -0.3150509 0.0076085003
0000f0 76 50 18 be e7 fc 0a be 30 f1 dc 3d cf c1 3e be
       -0.14874443 -0.13573037 0.1078819 -0.1862862
000100 80 8b 86 3d fd 29 9f 3d f6 a5 24 be 13 6d 90 be
       0.06569576 0.077716805 -0.16078934 -0.28208217
000110 2f fe 04 be a1 11 ec bd 9b 94 7a be a3 a5 14 3e
       -0.12987588 -0.115268 -0.24470751 0.1451631
000120 bd a3 5a bc 56 00 81 be 54 ed 33 bd 09 cf 4f bc
       -0.013344702 -0.2519557 -0.043927506 -0.012683638
000130 42 39 38 be cc 70 02 3e a1 ed 64 3e 37 7e 59 be
       -0.17990592 0.12738341 0.22356273 -0.21239553
000140 af 9d 2b 3e 7e 0c ee 3d ac 9d 51 be 57 1f e1 bd
       0.1675937 0.116234764 -0.20470303 -0.10992306
000150 07 a1 e2 3c 99 0f 98 be af a9 74 be a1 89 8c be
       0.027664674 -0.296994 -0.23892854 -0.27448753
000160 51 65 36 3d 4f 74 41 3e 43 dc e4 3d 90 f7 89 be
       0.044530217 0.18892024 0.11174824 -0.26946688
000170 79 8d 34 3e 80 a8 92 be cf f9 d1 3d 0f 90 1e bd
       0.17632093 -0.2864418 0.10252725 -0.038711604
000180 6c 21 1a be 61 a4 84 3e ea 2f 1f 3e 8f b3 5f 3e
       -0.15051812 0.2590666 0.15545622 0.2184584
000190 3d ec ba 3d 91 6b 2a be 49 7c 73 be 78 92 8d be
       0.0912709 -0.16642596 -0.2377788 -0.2765081
0001a0 b0 25 99 3c 91 31 82 3d 54 9d 36 3e ab 20 ee bd
       0.018694729 0.0635711 0.17833453 -0.11627325
0001b0 db 74 7e 3d 3b fa 6a be c0 a9 ca bd 64 8f 19 3e
       0.06212316 -0.22947018 -0.098956585 0.14996105
0001c0 af bb 98 be fe f7 56 be 9e a8 4c 3d dc 2e 20 be
       -0.2983069 -0.20993039 0.049965493 -0.15642875
0001d0 e6 3a 04 3e 7a ff d6 bd 2b d5 22 be d8 f3 4f 3e
       0.12913093 -0.10497947 -0.1590163 0.20307863
0001e0 0d 75 41 3e e6 7f 4c be 63 25 4e be 18 8c 39 bd
       0.18892308 -0.19970664 -0.2013145 -0.04529962
0001f0 48 14 5a be 43 7b cf bd 38 05 e2 3d 0b e4 31 be
       -0.21296799 -0.10130932 0.11036152 -0.17372148
000200 4e d6 b7 3d 05 87 03 3e 8f 68 35 be b3 ad 74 be
       0.08976422 0.12844475 -0.17715667 -0.23894386
000210 54 d3 55 be 8f d2 04 be 81 66 84 be 43 16 d3 3d
       -0.20881397 -0.12970947 -0.25859454 0.103069805
000220 62 8b 79 3d c8 0c dc bd 62 b0 0a be 6a 39 f0 3d
       0.06092394 -0.10744625 -0.13543847 0.11729701
000230 0d ec 66 be 2e 5f c0 3d 41 e4 17 3e e1 dd 51 be
       -0.22550984 0.09393154 0.14833166 -0.20494796
000240 02 e2 8c 3d a9 c5 1c 3e 14 a5 97 bd 1b 9e 93 be
       0.06879045 0.15309776 -0.07404533 -0.28831562
000250 72 c1 e6 3d fe 06 61 be 41 b4 7a be ad b8 7d be
       0.112673655 -0.21975324 -0.24482824 -0.2477748
000260 50 59 28 3d f0 80 6c 3d da 0b 37 3e 42 a6 71 be
       0.0411008 0.057740152 0.17875615 -0.23598579
000270 55 70 1b 3e 0e e2 24 be cc 31 53 3e f9 50 65 bd
       0.1517957 -0.16101858 0.20624465 -0.055985425
000280 17 0c 26 be 9b 12 01 3e 89 4c fe 3b d3 3a 31 3e
       -0.1621555 0.12604754 0.0077605885 0.17307596
000290 a2 8b a9 bc 24 e5 6d be 5f f2 1c be 91 20 72 be
       -0.020696465 -0.23231941 -0.15326832 -0.23645236
0002a0 db db 98 3d ee 50 38 bc b2 93 33 3e 4c 1c 39 be
       0.07463809 -0.011249764 0.1753681 -0.180772
0002b0 f8 d2 c7 3d 32 57 82 be af 97 8e bd c1 8d 60 bd
       0.09757036 -0.2545715 -0.06962525 -0.054822687
0002c0 ea b5 af bd 44 a2 16 be 10 1f 16 3e c5 b4 60 be
       -0.08579619 -0.14710337 0.14660287 -0.21943958
0002d0 3d 45 32 3e 08 df 60 be ac 82 4b be ea a1 5f 3e
       0.17409225 -0.2196008 -0.19874066 0.21839109
0002e0 31 3a aa 3d 7b 5f 9c be eb 9b 99 be d5 15 70 3d
       0.083118804 -0.30541596 -0.30001768 0.05861457
0002f0 5e 60 41 be 37 a8 36 be 7a f0 98 3d ff 76 37 be
       -0.18884417 -0.17837606 0.07467742 -0.17916487
000300 ae b3 51 be 2c 2c 14 be 9f 65 a5 3d cd 4b 27 3e
       -0.20478699 -0.14469975 0.08076023 0.1633751
000310 61 3a 68 3e a6 b6 57 3e 2e 4b 45 3e d6 cc 1c be
       0.2267852 0.21065769 0.1926696 -0.15312514
000320 aa 4d 3b bd 8a dd 80 3e 0f 67 03 3e ac ff 12 be
       -0.045728363 0.2516902 0.12832282 -0.14355344
000330 2d b3 58 3e 59 02 07 be 6e 80 56 be f2 15 1b 3e
       0.211621 -0.1318449 -0.2094743 0.1514509
000340 3b 6f 34 be 0b 4f 28 bd 96 31 06 3e 5a 99 5f 3e
       -0.17620556 -0.041091006 0.13104853 0.21835843
000350 54 b0 1c be 8d 2b 67 3e 6d ab 1e 3e 73 8d 45 3e
       -0.15301639 0.22575207 0.15495081 0.1929224
000360 c2 73 0a bc b3 c6 1e bd b6 f3 05 be f2 7b 9c 3d
       -0.00845045 -0.038763713 -0.1308125 0.07640828
000370 bf e9 4c bd 16 f7 98 3e 55 97 9a bd e9 3a f6 bd
       -0.050027605 0.29876012 -0.075483955 -0.12022955
000380 93 b7 30 3e 26 96 19 be 1c d9 34 be 6e c0 21 be
       0.17257528 -0.14998683 -0.17660946 -0.15796062
000390 44 8a e5 bd 2a 60 32 3e db ac 06 3e f5 98 22 3e
       -0.11208013 0.17419496 0.13151877 0.15878661
0003a0 af 06 fb bc 54 99 24 be 3e 96 dd bd d4 36 53 3e
       -0.030642835 -0.16074115 -0.10819672 0.20626384
0003b0 e5 ae af bd 11 29 69 3e b4 25 ff 3d 4a 82 85 bd
       -0.0857828 0.22769572 0.12458363 -0.06518991
0003c0 8f db 3e 3d b1 fe f4 3d da 45 05 be 0b c9 1f 3e
       0.046596106 0.11962641 -0.13014928 0.15604036
0003d0 f4 11 d9 bd 01 45 57 3e 68 f2 80 3e e4 df 26 be
       -0.105991274 0.21022417 0.2518494 -0.16296345
0003e0 3c c2 23 be bd ee 47 3e 8a d6 d7 3d ad 40 20 bd
       -0.15992063 0.19524665 0.10538967 -0.03912418
0003f0 4f 3e 50 3d 85 23 80 3e 76 76 be bd 33 e3 00 3e
       0.050840672 0.250271 -0.092999384 0.1258667

fc.0.bias f4 [32]
000000 72 82 69 bc b3 24 bb bd 97 68 dd bd c6 d2 8a 3d
       -0.014252292 -0.09137859 -0.108109646 0.06778483
000010 06 3c d8 3c d8 59 99 bd 91 c9 1d 3d 08 12 b1 bc
       0.026395809 -0.074878395 0.038522307 -0.021615043
000020 8a 18 db bd 6e 1f 1b bd ff c6 09 bd 1c 02 e5 3b
       -0.1069804 -0.03787177 -0.033637043 0.006988777
000030 63 11 97 3d 33 6b 0d bd dd ac 3d bd 49 52 61 3c
       0.07376363 -0.03452606 -0.046307433 0.0137525285
000040 7f aa 50 3d 8a 00 2e bd fc d6 39 bd c6 68 5f 3c
       0.050943848 -0.042480983 -0.04537104 0.01363582
000050 57 7a 55 3c db 55 b5 3d b5 06 a2 3d b2 53 06 bd
       0.013029656 0.08854266 0.079114355 -0.03279466
000060 17 cb 03 bd e3 41 a8 3d 06 95 8e 3d 51 33 14 3d
       -0.032176103 0.08215692 0.06962018 0.03618175
000070 04 74 bc 3d 1f dd 8c 3d 3b a7 eb bc 07 d7 44 3d
       0.09201816 0.06878113 -0.028766265 0.04805663

fc.3.weight f4 [1, 32]
000000 d7 fc 68 be ec bb 8d be a2 2f 96 be f3 00 05 3f
       -0.22752701 -0.27682436 -0.29333216 0.51954573
000010 0c fa f2 3e 96 10 82 be b5 f5 a8 3e 9b dc fe 3e
       0.47456396 -0.2540328 0.3299996 0.49777684
000020 7a a8 82 be bf 85 91 be 71 a8 f9 3e c9 9a 79 be
       -0.25519162 -0.28422353 0.48761323 -0.24375452
000030 98 98 a5 be d3 27 4c be 32 a7 5e be 35 a1 64 be
       -0.32342982 -0.19937067 -0.21743467 -0.2232712
000040 98 a3 76 be d5 d6 db 3e 5b 70 a8 be b8 c8 85 be
       -0.24085844 0.4293734 -0.3289822 -0.261297
000050 c2 48 c5 3e ed 11 f1 3e 50 d5 ee 3e 02 73 01 3f
       0.38532072 0.4708399 0.4664712 0.50566113
000060 ca d4 93 be a9 bf 9d be 78 4b ca 3e 18 bd 8d be
       -0.28873283 -0.30810288 0.39510703 -0.2768333
000070 d7 a6 e4 3e ac c2 71 be 21 95 9d be 43 6f 87 be
       0.4465854 -0.23609418 -0.3077784 -0.26452073
