5 第五讲 机器学习训练模型的数学范式v16/models/model95.pth (torch, 112459 bytes, 21 tensors)

conv1.0.weight f4 [16, 3, 3, 3]
0	0xbc7810cf	-0.015140726
1	0xbdf91028	-0.12161285
2	0x3e1171a8	0.14203513
3	0xbd5d94ce	-0.05409699
4	0xbe0b9aa3	-0.13633208
5	0xbe33ca08	-0.17557538
6	0x3d2c59ad	0.04207771
7	0xbe25e7b7	-0.16201673
8	0x3dbb7c07	0.09154516
9	0x3d911f72	0.07086076
10	0x3e3ec5c3	0.18630128
11	0xbe0e0622	-0.13869527
12	0x3d05b968	0.03264752
13	0x3d0beb60	0.034160018
14	0x3ca9abb0	0.02071175
15	0x3dd9abe1	0.106284864
16	0xba6f3b4c	-0.00091259624
17	0xbd89d91e	-0.06730865
18	0x3e1410e8	0.14459574
19	0xbdfbc8d9	-0.12294168
20	0xbe1fd626	-0.15609035
21	0x3dd44bc5	0.103660144
22	0xbd5cdac3	-0.053919565
23	0x3e195d47	0.14976989
24	0xbdfce5c0	-0.12348509
25	0x3e1989b2	0.14993933
26	0x3d1a2b74	0.037639096
27	0xbd5cc6b0	-0.05390042
28	0x3e0ba897	0.1363853
29	0xbd8e71ea	-0.06955321
30	0xbbf26625	-0.0073974305
31	0xbd99ad5b	-0.07503768
32	0x3db3d6ce	0.08781205
33	0x3d6210f4	0.05519195
34	0x3e162acb	0.14664762
35	0xbdbb1d88	-0.09136492
36	0x3d03eb1c	0.03220664
37	0xbc03a4ee	-0.008034928
38	0x3e25732f	0.1615722
39	0xbe217dd0	-0.1577065
40	0xbd81840f	-0.06324016
41	0x3e2c9040	0.16851902
42	0x3d80d79b	0.062911235
43	0xbd4b3977	-0.04961535
44	0x3daf9cc3	0.08574822
45	0x3d388073	0.045044374
46	0xbd8aa628	-0.06769973
47	0xbe1ec0e4	-0.1550327
48	0xbe3e8e56	-0.18608984
49	0x3dcd6713	0.100294255
50	0xbc845ef7	-0.016158564
51	0x3d98fd44	0.074701816
52	0xbe265871	-0.16244675
53	0x3e2c1ce8	0.16807902
54	0x3da61619	0.081096835
55	0xbc29a9d8	-0.010355435
56	0xbdba40a4	-0.090943605
57	0xbc763c3f	-0.015029012
58	0xbe07ced7	-0.13262497
59	0xbe2d862a	-0.16945711
60	0xbd7fac22	-0.062420018
61	0x3de8fa21	0.11375833
62	0xbe2de1b8	-0.16980636
63	0x3e24867c	0.16066927
64	0x3dc2aeb6	0.0950598
65	0xbe1a83b3	-0.15089302
66	0x3e320f56	0.17388663
67	0x3d5dc043	0.054138433
68	0xbd19b519	-0.037526224
69	0x3ceb800e	0.028747585
70	0x3d32dfba	0.043670394
71	0x3e0094a4	0.12556702
72	0x3e43c9d2	0.19119957
73	0x3d1aa560	0.03775537
74	0xbd13ab41	-0.036051992
75	0x3c98872c	0.018619142
76	0x3d1d37d0	0.038383305
77	0xbda97085	-0.082734145
78	0xbda0c885	-0.07850746
79	0xbe4b7b32	-0.19871214
80	0x3e382096	0.1798118
81	0xbd9bc488	-0.07605845
82	0xbc853889	-0.01626231
83	0xbe21e824	-0.15811211
84	0x3b7585f8	0.0037463885
85	0x3e2d7622	0.16939595
86	0xbe20d3f9	-0.15705861
87	0x3de82a20	0.1133616
88	0x3e41fca9	0.18944038
89	0xbe40d720	-0.18832064
90	0xbccf5498	-0.025308892
91	0x3c83ef6c	0.016105376
92	0x3bbe822b	0.005813857
93	0x3a3622ab	0.0006947915
94	0x3e24cf82	0.16094783
95	0x3e1c288c	0.15249842
96	0x3ca0dff3	0.019638037
97	0x3d6819aa	0.0566651
98	0xbdcbc2be	-0.099492535
99	0xbe04851c	-0.12941402
100	0xbdd23e3d	-0.10265777
101	0x3e124475	0.14283927
102	0x3e303aca	0.17209926
103	0x3e0f99ee	0.14023563
104	0x3ce0b79b	0.0274313
105	0x3db39bd4	0.08769956
106	0xbdaff865	-0.08592299
107	0xbd3e9722	-0.04653085
108	0xbe409575	-0.18807013
109	0x3d7343f9	0.059390996
110	0xbddd14a0	-0.107949495
111	0x3e259082	0.16168407
112	0x3c8941fc	0.016755097
113	0x3ddf6509	0.10907943
114	0xbd3b3eac	-0.045714065
115	0x3d467815	0.048454363
116	0xbe26b3e5	-0.16279562
117	0xbe446557	-0.19179283
118	0xbde0957c	-0.10966012
119	0x3e4e5bc0	0.20152187
120	0x3d9ed536	0.077555105
121	0x3dd50b09	0.104024954
122	0x3e4ef7f6	0.20211777
123	0x3db1df37	0.08685153
124	0x3daee645	0.08540014
125	0xbd591bd9	-0.053005073
126	0xbdfd4c79	-0.123681016
127	0x3dcff9b0	0.10155046
128	0x3e2059ba	0.15659228
129	0xbe31c55e	-0.17360446
130	0x3d59915b	0.053117137
131	0xbd462582	-0.048375614
132	0x3e23dc7e	0.1600208
133	0xbd24aa74	-0.04020162
134	0xbd2e9e4f	-0.042631444
135	0xbd215019	-0.039383028
136	0xbd71d850	-0.059044182
137	0x3e1bb22f	0.1520469
138	0xbdc35c45	-0.095390834
139	0x3d387850	0.045036614
140	0x3b65be4b	0.003505605
141	0x3e097492	0.13423374
142	0x3daf629d	0.08563731
143	0xbe12e58a	-0.14345375
144	0xbbcfac28	-0.0063376613
145	0x3bb2a72e	0.0054520583
146	0xbcee3237	-0.029076679
147	0x3e2680a7	0.16260014
148	0x3e4bf17a	0.19916335
149	0xbe06d900	-0.13168716
150	0xbd572768	-0.052527815
151	0x3e49347c	0.19648927
152	0x3d633a96	0.055475794
153	0xbda5aec6	-0.08089976
154	0x3dd1d57f	0.10245799
155	0xbd367839	-0.044548247
156	0xbdbebe27	-0.093136124
157	0xbe517262	-0.2045379
158	0x3de08fe4	0.10964945
159	0xbd89330a	-0.06699188
160	0xbe1f1be9	-0.1553799
161	0xbe1dc07f	-0.15405463
162	0xbcd0fdaf	-0.02551159
163	0x3e02a9ad	0.12760039
164	0x3dce1bfb	0.100639306
165	0x3e040db2	0.1289585
166	0xbda2071e	-0.07911514
167	0xbe228f04	-0.15874869
168	0xbd0aa812	-0.03385169
169	0xbdb84694	-0.08997837
170	0x3d89c962	0.06727864
171	0x3e07552e	0.13216087
172	0xbd7aea67	-0.0612587
173	0xbe4f8c16	-0.20268282
174	0x3e25e5cb	0.1620094
175	0x3d695859	0.05696902
176	0xbe044882	-0.12918285
177	0xbd645e15	-0.055753786
178	0xbd0ff502	-0.035145767
179	0xbdfa0af8	-0.122091234
180	0x3e3781e1	0.17920639
181	0x3d756302	0.059908874
182	0xbe03666c	-0.1283204
183	0xbdda9393	-0.10672679
184	0xbdb0051a	-0.08594723
185	0xbe454abf	-0.19266795
186	0xbc08fcc2	-0.008361043
187	0xbd6a8024	-0.05725111
188	0xbdd8ade3	-0.10580041
189	0x3c9bf231	0.019036384
190	0xbdc3f14e	-0.095675096
191	0x3dd36c76	0.10323422
192	0x3dcbd554	0.099527985
193	0xbd875fd6	-0.06610076
194	0xbdb912b4	-0.090367705
195	0xbe490553	-0.19630937
196	0xbca42a13	-0.020039594
197	0xbe27d571	-0.16390015
198	0x3e3a7498	0.1820854
199	0x3ddcca79	0.10780806
200	0x3ad72cfe	0.0016416607
201	0xbc4d2240	-0.012520373
202	0xbbe8ec95	-0.007108281
203	0x3e41f1f0	0.18939948
204	0xbcb6d5f6	-0.022318821
205	0x3d1b1004	0.03785707
206	0x3deda24f	0.116032235
207	0x3d79c3f0	0.060977876
208	0xbcda7500	-0.026667118
209	0x3df5a764	0.11994818
210	0xbe2aa890	-0.16665864
211	0x3c6fbf49	0.014633008
212	0xbe5960a9	-0.21228279
213	0x3d9dc5be	0.07703732
214	0x3dd72f4d	0.10507069
215	0xbd83cfd4	-0.064361244
216	0xbe2c6f56	-0.16839346
217	0xbdd463c2	-0.1037059
218	0x3ce55a3f	0.027997134
219	0xbe18cd19	-0.14921989
220	0xbd0debc4	-0.03464867
221	0xbd221280	-0.039568424
222	0xbde0ef84	-0.10983184
223	0x3db50eb6	0.088406965
224	0xbdd36575	-0.10322086
225	0x3d952cb7	0.07283919
226	0xbe19654d	-0.1498005
227	0xbc84e711	-0.016223462
228	0x3e33f4c1	0.17573835
229	0xbe03436d	-0.1281869
230	0xbd504469	-0.05084649
231	0x3dbf7935	0.0934929
232	0x3d950508	0.0727635
233	0xbd9b12ab	-0.0757192
234	0x3d9f405f	0.0777595
235	0xbe37d0e4	-0.17950779
236	0xbe589c7f	-0.21153449
237	0xbd8e1487	-0.06937509
238	0x3e241c92	0.16026524
239	0x3db48f70	0.08816421
240	0x3e18fd8a	0.14940467
241	0x3d3e7e4c	0.046507165
242	0x3c87daa7	0.016583754
243	0x3e3fe8aa	0.18741098
244	0x3db83c92	0.08995928
245	0x3d6d81be	0.05798506
246	0xbe188fe2	-0.14898637
247	0xbdfc7812	-0.12327589
248	0x3e0d438d	0.137953
249	0x3e4bb486	0.19893083
250	0x3d5ccc77	0.05390593
251	0x3da72503	0.08161356
252	0xbe17cfea	-0.14825407
253	0xbd7f4896	-0.062325083
254	0xbd3c904a	-0.046036042
255	0xbdc3bb72	-0.09557237

conv1.0.bias f4 [16]
0	0x3d9769ba	0.073932126
1	0x3e060b9d	0.13090368
2	0x3da374b0	0.07981241
3	0x3d82e720	0.0639174
4	0xbe469c30	-0.19395518
5	0xba5284fe	-0.00080306816
6	0x3df86c7f	0.12130069
7	0x3d049aa2	0.03237403
8	0xbe4e3d5e	-0.20140597
9	0x3c914bac	0.017736278
10	0x3e391450	0.18074155
11	0xbdf06478	-0.11737913
12	0x3e294b8d	0.16532727
13	0xbe28eabc	-0.16495794
14	0x3c48f5aa	0.012265602
15	0x3e677eda	0.22606984

conv1.3.weight f4 [16]
0	0x3f761c30	0.9613676
1	0x3f7bb1d9	0.9831825
2	0x3f8419ee	1.0320413
3	0x3f6a1cf0	0.91450405
4	0x3f827682	1.0192416
5	0x3f820924	1.015904
6	0x3f7f379b	0.9969422
7	0x3f6cd3fe	0.92510974
8	0x3f721995	0.94570285
9	0x3f8559a2	1.0417979
10	0x3f6f3089	0.93433434
11	0x3f905a2a	1.1277516
12	0x3f6bf43d	0.92169553
13	0x3f82ff27	1.0234116
14	0x3f71bc89	0.94428307
15	0x3f7a1358	0.97685766

conv1.3.bias f4 [16]
0	0xbbd61921	-0.0065337573
1	0x3e1c26d3	0.15249185
2	0xb9815b9d	-0.00024673055
3	0x3cdca37c	0.026933424
4	0x3e15c890	0.1462729
5	0xbd105eda	-0.035246707
6	0x3dac2623	0.084057115
7	0x3d15ce17	0.036573496
8	0x3e4a3e6d	0.19750376
9	0x3d173162	0.03691233
10	0xbdfe5f38	-0.12420505
11	0x3c942516	0.01808409
12	0x3c0a9490	0.008458272
13	0x3d80783b	0.06272932
14	0x3c819249	0.015816825
15	0xbde046a8	-0.109509766

conv1.3.running_mean f4 [16]
0	0x3d840676	0.06446545
1	0x3e65a1ab	0.22424953
2	0x3e03158e	0.12801191
3	0x3e830b37	0.25594494
4	0x3cbb0786	0.022830736
5	0x3c65b26b	0.014019589
6	0x3caf0e87	0.021369232
7	0x3da26d43	0.07930996
8	0x36f12069	7.1861327e-06
9	0x3d20610b	0.039155047
10	0x3edac8a5	0.42731205
11	0x3c5a0ea4	0.013309155
12	0x3e4e8379	0.2016734
13	0x3c86e968	0.016468719
14	0x3da8085e	0.08204721
15	0x3e368329	0.17823471

conv1.3.running_var f4 [16]
0	0x3aaf8396	0.0013390656
1	0x3b55f3ba	0.0032646493
2	0x3b76f10b	0.0037680294
3	0x3c73f816	0.014890691
4	0x3afcfb6f	0.0019301007
5	0x3a7178b3	0.0009211406
6	0x3af83094	0.0018935376
7	0x3b135eae	0.0022486853
8	0x3515eeb4	5.5854184e-07
9	0x3b191f34	0.0023364546
10	0x3d02c604	0.031927124
11	0x3a9c5ee1	0.0011930132
12	0x3acd6e14	0.0015673065
13	0x3a9c557f	0.0011927335
14	0x3bb3fcc9	0.005492781
15	0x3b0639be	0.0020481194

conv2.0.weight f4 [32, 16, 3, 3]
0	0x3adaf71d	0.0016705726
1	0xbcda6c7e	-0.026663061
2	0xbc286307	-0.010277516
3	0x3bf98860	0.007615134
4	0x3d8e492b	0.069475494
5	0x3cb582c4	0.02215708
6	0x3d8910fb	0.06692692
7	0xbc3247d9	-0.010881388
8	0xbbb506bb	-0.005524484
9	0xbd371263	-0.04469527
10	0xbdb50c0b	-0.08840188
11	0xbd4c3fa8	-0.049865395
12	0xbcab22cc	-0.020890616
13	0x3d020742	0.031745203
14	0xbd0b1460	-0.033954978
15	0xbd000deb	-0.031263273
16	0xbd48517a	-0.048905827
17	0x3d39f923	0.04540361
18	0x3dd2e5fd	0.10297773
19	0xbcccc8eb	-0.024998149
20	0xbdc09b31	-0.094046004
21	0x3dadb567	0.084818654
22	0x3d809d49	0.0628
23	0xbd90d503	-0.07071879
24	0xbd595633	-0.05306072
25	0xbd42d5c4	-0.047567144
26	0xbd9331fc	-0.07187268
27	0x3dc57f8c	0.09643468
28	0x3d558e34	0.05213757
29	0xbd6f7a35	-0.058466155
30	0xb9c0726f	-0.00036706353
31	0x3d860c8f	0.06545364
32	0xbcc9433d	-0.024568195
33	0x3d240af2	0.0400495
34	0x3c4e6f43	0.012599769
35	0x3d260477	0.0405316
36	0x3d19a1da	0.03750787
37	0x3d0e1c90	0.034695208
38	0xbd122608	-0.0356808
39	0xbde7ade4	-0.11312464
40	0xbca198d5	-0.019726196
41	0x3b857c8a	0.004073684
42	0xbd6aaf6a	-0.057296194
43	0xbd61868c	-0.055059955
44	0x3c6c7565	0.014432286
45	0x3ccf9ed2	0.025344286
46	0x3d9c76d2	0.07639851
47	0x3dbc79b1	0.09202898
48	0xbd1c65e7	-0.03818312
49	0x3d8abb4b	0.067740045
50	0x3d3c84c8	0.046025068
51	0x3dc32506	0.09528546
52	0x3dd79823	0.10527065
53	0x3d986353	0.074408196
54	0x3d6c1d04	0.05764486
55	0x3ca7fd50	0.020506531
56	0xbceb198d	-0.028698707
57	0xbd195846	-0.0374377
58	0x3d387405	0.04503252
59	0xbc2e76c0	-0.010648429
60	0x3d28a8e1	0.04117668
61	0x3d159ce9	0.036526594
62	0x3d8d2582	0.0689192
63	0x3d785033	0.06062336
64	0xbd87f254	-0.06638017
65	0xbd1cad7c	-0.038251385
66	0x3d87f6a0	0.06638837
67	0x3d68b012	0.05680854
68	0xbd5ffe90	-0.05468613
69	0x3d13aeb8	0.036055297
70	0xbd99d90e	-0.07512103
71	0xbd693b8f	-0.056941565
72	0xbd409487	-0.047016647
73	0xbe27eae9	-0.16398205
74	0xbda81587	-0.08207231
75	0xbe20c833	-0.1570137
76	0xbe48bd43	-0.19603448
77	0xbe1a9a28	-0.15097868
78	0xbe06406b	-0.13110511
79	0xbdaf6add	-0.085653044
80	0xbe35d228	-0.1775595
81	0xbe084e8d	-0.13311215
82	0xbd5eb127	-0.054368164
83	0x3d5a51d8	0.05330071
84	0xbd90c664	-0.0706909
85	0x3bf0ba8b	0.0073464564
86	0x3d5fdd3f	0.054654356
87	0xbde5d5f4	-0.11222449
88	0xbddf7be0	-0.10912299
89	0x3d682679	0.056677315
90	0x3dbb0205	0.091312446
91	0xbc06ef17	-0.008235714
92	0xbc1503e5	-0.009095167
93	0xbd2ea9f0	-0.042642534
94	0x3d05f36e	0.032702856
95	0xbcc7f5d6	-0.024409216
96	0x3dcdba41	0.10045291
97	0x3d50aa50	0.050943673
98	0x3cf507dc	0.029910974
99	0x3c012d41	0.0078843245
100	0xbc3cbbb4	-0.011519361
101	0x3d536dfb	0.051618557
102	0xbdb6c1c6	-0.08923678
103	0xbddebc27	-0.10875731
104	0xbe001371	-0.12507416
105	0xbce500b9	-0.027954446
106	0x3d495442	0.04915262
107	0x3d2d44b7	0.04230186
108	0x3d775a25	0.060388703
109	0xbc64f60d	-0.013974679
110	0x3d4d9a15	0.050195772
111	0x3d3fa9cc	0.04679279
112	0xbb6b0391	-0.003586028
113	0x3b8564f6	0.0040708734
114	0xbd1f8db5	-0.0389535
115	0x3c70a0b1	0.014686749
116	0xbd8b8c67	-0.06813889
117	0x3d752ce2	0.059857257
118	0xbd8c3eab	-0.068478905
119	0xbdf8139a	-0.12113114
120	0xbd1be39a	-0.038058855
121	0xbd8b422e	-0.06799732
122	0xbcb1d6bf	-0.021708844
123	0xbe15041c	-0.14552349
124	0xbd5ce4ac	-0.053929016
125	0x3d4f1d48	0.050565034
126	0x3cc1e2df	0.02366775
127	0xbd49d0ef	-0.04927152
128	0xbcac9b6b	-0.021070203
129	0xbd101eae	-0.03518551
130	0xbd74c11f	-0.059754487
131	0xbd744a26	-0.059641026
132	0xbd1af73f	-0.03783345
133	0x3cfefcfe	0.031126495
134	0x3cf8cdb4	0.030371524
135	0xbd30d165	-0.043168444
136	0x3b4c1ab1	0.003114384
137	0x3cc75088	0.024330392
138	0x3c1d28d4	0.009592254
139	0xbd888adb	-0.066671096
140	0xbd3943d4	-0.0452307
141	0x3d581f28	0.052764088
142	0x3d876a6f	0.066120975
143	0x3bb4861e	0.005509152
144	0x3cd918a4	0.026501007
145	0xbcdff14c	-0.027336739
146	0x3cef04b2	0.029177044
147	0x3d9e1655	0.07719103
148	0x3c1a06a5	0.009400998
149	0xbd630df0	-0.055433214
150	0x3c647ef5	0.013946285
151	0x3d311f09	0.043242488
152	0x3d856af0	0.06514537
153	0xbd0bc434	-0.03412266
154	0x3c51611a	0.0127794985
155	0xbd5e1771	-0.054221574
156	0xbd950c50	-0.07277739
157	0x3cb32be6	0.021871518
158	0xbdfaea51	-0.122517236
159	0x3cc7c351	0.024385126
160	0xbc31303d	-0.010814724
161	0xbcfe123f	-0.03101456
162	0x3cfab12c	0.03060206
163	0x3dba691a	0.09102078
164	0x3d9d57a4	0.07682732
165	0x3ddc9a28	0.107715905
166	0xbd5746f6	-0.052557908
167	0x3d1b2ff5	0.037887532
168	0x3dca1f32	0.09869231
169	0xbba2bd82	-0.0049664387
170	0x3db27d2e	0.087152824
171	0x3d9d0d55	0.076685585
172	0x3bf728a4	0.0075426865
173	0xbc3953c3	-0.011311474
174	0x3a7ab658	0.00095639145
175	0xbc9aa920	-0.018879473
176	0x3d9f0e0b	0.0776635
177	0x3d53d3b8	0.051715583
178	0xbcbeabe3	-0.023275321
179	0x3db7aeae	0.089688644
180	0x3d407404	0.04698564
181	0x3d254254	0.04034646
182	0xbd25eacc	-0.040507123
183	0x3d6c6c8e	0.057720713
184	0x3d638e42	0.05555559
185	0x3d506b1c	0.050883397
186	0x3d97451e	0.0738623
187	0xbb17b862	-0.0023150672
188	0x3d78c19b	0.06073151
189	0xbafadd08	-0.0019139359
190	0xbdb2b55e	-0.08725999
191	0xbc0c409d	-0.008560327
192	0xbd9887bd	-0.07447765
193	0xbe164b54	-0.14677173
194	0xbdcac949	-0.09901673
195	0x3c21906e	0.009861095
196	0xbd553959	-0.052056644
197	0xbdb2675f	-0.08711123
198	0xbcfab7d1	-0.030605229
199	0xbcec6288	-0.028855577
200	0x3d926a6e	0.07149206
201	0x3ddecc64	0.10878828
202	0x3d1586a8	0.03650537
203	0x3d9870bb	0.07443377
204	0x3cf50690	0.029910356
205	0xbd7baffb	-0.061447125
206	0x3d9157be	0.070968136
207	0xbd458488	-0.048222095
208	0x3d90950e	0.0705968
209	0x3d3961b4	0.045259193
210	0xbd3a193f	-0.045434233
211	0xbd84bbaa	-0.064811066
212	0xbd717168	-0.058946043
213	0x3aa6af75	0.0012717085
214	0xbdc3dadd	-0.09563229
215	0x3b0ad6f1	0.0021185244
216	0x3c197f12	0.009368675
217	0xbd3cb23d	-0.04606842
218	0x3d53855e	0.05164086
219	0xbdcd6f19	-0.10030956
220	0x3c83d01f	0.01609045
221	0xbcb9a0b0	-0.02265963
222	0xbd0b9f28	-0.03408733
223	0xbdbd998c	-0.09257802
224	0xbd6279e6	-0.055292033
225	0x3d129b2a	0.035792507
226	0xbdad722a	-0.08469041
227	0xbd814a3e	-0.06312989
228	0x3d47f4a5	0.048817296
229	0xbb25e895	-0.0025315632
230	0xbda10484	-0.078621894
231	0x3dbd906a	0.092560604
232	0xbc9ff241	-0.019524695
233	0xbca7a861	-0.020466032
234	0x3d2c7c7d	0.04211091
235	0xbcc1a1ea	-0.023636777
236	0x3dcf33dc	0.10117313
237	0x3de4023f	0.11133241
238	0x3def6c8f	0.11690628
239	0x3ab50835	0.001381165
240	0x3c6bf140	0.01440078
241	0x3e018bcf	0.12650989
242	0x3d85e68b	0.06538113
243	0x3cf219d0	0.029553324
244	0x3d33550e	0.043782286
245	0x3db570e5	0.088594235
246	0xbd5e9b46	-0.0543473
247	0xbc94350e	-0.018091705
248	0xbc1acc3d	-0.009448108
249	0x3d068447	0.032840993
250	0x3c4476f4	0.011991251
251	0x3d3a3b1f	0.04546654
252	0x3d99bc8b	0.07506665
253	0x3d512880	0.051064014
254	0x3d644082	0.055725582
255	0x3d5d718b	0.05406336

conv2.0.bias f4 [32]
0	0xbdb58a57	-0.08864277
1	0xbd95ca56	-0.07313983
2	0xbddf75b7	-0.10911124
3	0x3dabfcd8	0.083978355
4	0xbe0a6480	-0.135149
5	0xbdb234ea	-0.08701499
6	0x3dcbea74	0.09956828
7	0x3ca3db0a	0.020001907
8	0xbdfadfe8	-0.12249738
9	0x3c0b8440	0.008515418
10	0x3babffaa	0.0052489834
11	0xbe3771e6	-0.17914543
12	0xbcc96a6f	-0.024586884
13	0xbdd677c9	-0.10472066
14	0xbe79921a	-0.2437214
15	0xbca34a1f	-0.019932805
16	0xbd990b55	-0.074728645
17	0xbd44724d	-0.04796057
18	0xbda301b9	-0.07959313
19	0x3dcc91f4	0.09988776
20	0x3c9c6525	0.019091198
21	0xbe01d8fc	-0.12680429
22	0xbda7a874	-0.08186427
23	0xbda80424	-0.08203915
24	0x3ce08d41	0.027411105
25	0xbe2fcbf4	-0.17167646
26	0xbde54112	-0.11194052
27	0x3cef2dd7	0.029196663
28	0xbde666eb	-0.11250099
29	0xbe279183	-0.16364102
30	0xbdf3c56c	-0.119028896
31	0xbdfe7992	-0.124255314

conv2.3.weight f4 [32]
0	0x3f81035d	1.0079151
1	0x3f6f9d42	0.9359933
2	0x3f812e64	1.0092282
3	0x3f6b26a6	0.9185585
4	0x3f7a614e	0.97804725
5	0x3f78749b	0.97052926
6	0x3f70f6c0	0.9412651
7	0x3f805213	1.0025047
8	0x3f7a0285	0.97660094
9	0x3f817d0b	1.0116285
10	0x3f7f441e	0.99713314
11	0x3f7c532f	0.9856443
12	0x3f8261a6	1.018605
13	0x3f7d4db0	0.98946667
14	0x3f849470	1.03578
15	0x3f810a9e	1.0081365
16	0x3f51e7ff	0.8199462
17	0x3f74993d	0.95546323
18	0x3f8039c1	1.0017625
19	0x3f709207	0.9397282
20	0x3f72992e	0.94764984
21	0x3f6bfb43	0.9218027
22	0x3f80a8cc	1.0051513
23	0x3f8347b0	1.0256252
24	0x3f7d6dfb	0.9899594
25	0x3f82b399	1.0211059
26	0x3f813ee8	1.0097322
27	0x3f667b40	0.90031815
28	0x3f73eeb3	0.952861
29	0x3f7f91dc	0.9983194
30	0x3f71876d	0.9434727
31	0x3f6e3d55	0.93062335

conv2.3.bias f4 [32]
0	0x3d47abc8	0.048747808
1	0x3eb07f30	0.34472036
2	0x3d865987	0.06560045
3	0xbe2280c9	-0.1586944
4	0x3e1df162	0.15424111
5	0xbe1bcb2e	-0.15214226
6	0x3ef98f96	0.4874236
7	0x3d219e61	0.039457683
8	0xbdcece52	-0.10097946
9	0x3e432c7f	0.19059943
10	0xbdc37c5e	-0.095452055
11	0x3f0d9fdc	0.5532205
12	0xbe22e575	-0.15907843
13	0x3e536603	0.20644383
14	0x3ea1efd5	0.3162829
15	0xbe11976c	-0.14217919
16	0x3e1d4b08	0.15360653
17	0xbddc5319	-0.10758037
18	0xbcc51dc8	-0.024062052
19	0xbd9e5f97	-0.07733076
20	0x3e6818b0	0.22665668
21	0x3e48cc62	0.19609216
22	0x3ea15ba0	0.31515217
23	0x3e43075e	0.19045779
24	0x3eaf3ee3	0.34227666
25	0x3e9e3535	0.3089997
26	0xbdaa3ad3	-0.08312001
27	0xbdfbefe3	-0.12301614
28	0x3ec08b28	0.37606168
29	0x3e566ea4	0.20940644
30	0x3e8bd579	0.27311304
31	0x3eddf91a	0.43354112

conv2.3.running_mean f4 [32]
0	0x3e005e24	0.12535912
1	0x3f2d9c3f	0.6781654
2	0x3e82cb62	0.25545794
3	0x3f753ca1	0.9579564
4	0x3e932268	0.28737187
5	0x3e01a588	0.12660801
6	0x3f04168b	0.515969
7	0x3eca47f2	0.39508015
8	0x3eb4b2be	0.3529262
9	0x3f1f7c57	0.622991
10	0x3e18d071	0.14923264
11	0x3e2a1623	0.16610007
12	0x3f0d62d7	0.5522894
13	0x3eec53ef	0.46157786
14	0x3da38c74	0.07985774
15	0x3e8aeb48	0.2713263
16	0x3f6060c1	0.87647635
17	0x3eda3fa2	0.42626673
18	0x3e7654ce	0.24055788
19	0x3f175a79	0.59122425
20	0x3f00ee89	0.50363976
21	0x3edc9b16	0.4308707
22	0x3f090e26	0.53537214
23	0x3e762618	0.24037969
24	0x3f10fff8	0.5664058
25	0x3e37918a	0.17926612
26	0x3e9bc713	0.3042532
27	0x3e9e88b1	0.30963662
28	0x3e333c56	0.17503485
29	0x3ed588c7	0.41705915
30	0x3ecb9b52	0.39766937
31	0x3e80aa52	0.25129944

conv2.3.running_var f4 [32]
0	0x3d7e95b0	0.062154472
1	0x3fb02982	1.3762667
2	0x3e26c290	0.16285157
3	0x3f9d649b	1.2296327
4	0x3e912cd3	0.2835451
5	0x3d53449f	0.051579114
6	0x3e74ea61	0.23917533
7	0x3ee163b2	0.44021374
8	0x3eefe90c	0.46857488
9	0x3ea33a6b	0.31880507
10	0x3dd63b5c	0.10460541
11	0x3de1364c	0.109966844
12	0x3eacf2a5	0.33778873
13	0x3f56ec85	0.8395465
14	0x3daefc28	0.08544189
15	0x3e279f31	0.1636932
16	0x3ff7b74a	1.935281
17	0x3efe7e3a	0.49705678
18	0x3e5a402e	0.21313545
19	0x3ecd37dd	0.40081683
20	0x3e7633ff	0.24043272
21	0x3f3a8426	0.7285789
22	0x3f42430b	0.7588355
23	0x3e2dcd05	0.1697274
24	0x3edffd32	0.4374786
25	0x3e1e181b	0.15438883
26	0x3e187439	0.14888085
27	0x3dbc771d	0.092024066
28	0x3e7b6dd6	0.24553618
29	0x3f34e2ed	0.7065876
30	0x3ea9a6dd	0.3313512
31	0x3e352a58	0.17691934

conv3.0.weight f4 [64, 32, 3, 3]
0	0xbccd5ba7	-0.025068117
1	0xbcd6407d	-0.026153797
2	0xbd45ce77	-0.048292603
3	0xbd0abbe7	-0.033870604
4	0xbd303fe4	-0.04302968
5	0xbd6c0e53	-0.05763085
6	0xbd819c51	-0.06328643
7	0xbcade455	-0.021227041
8	0xbdfc2ad9	-0.1231286
9	0xbd61b7de	-0.05510699
10	0x3d0b7135	0.03404351
11	0xbbb9282c	-0.005650541
12	0xbc654754	-0.013994057
13	0xbd357544	-0.044301286
14	0xbc72d1de	-0.014820544
15	0xbaae148d	-0.0013281271
16	0xbc17fa10	-0.009275928
17	0x3d73097f	0.059335228
18	0xbc11df27	-0.008903301
19	0xbca65e53	-0.02030865
20	0xbdbb49e9	-0.091449566
21	0x3cb715e3	0.022349304
22	0xbc19b9a1	-0.009382636
23	0xbcd13a31	-0.025540443
24	0xbd9b7594	-0.075907856
25	0xbbb88200	-0.0056307316
26	0xbd4a2372	-0.04935021
27	0x3d16ac6e	0.036785536
28	0xbd0110d9	-0.031510208
29	0x3d91bb3c	0.0711579
30	0x3afa3f1d	0.0019092296
31	0xbcd7102a	-0.026252825
32	0x3c467deb	0.012114982
33	0xbc630469	-0.013856032
34	0x3bc00120	0.005859509
35	0xbca45da8	-0.02006419
36	0xbd52e34c	-0.0514863
37	0xbd716c98	-0.058941454
38	0xbc6d1095	-0.0144692855
39	0x3b6add62	0.003583752
40	0xbd69f7a4	-0.057120934
41	0xbce7934c	-0.028268479
42	0xbc1cbe2b	-0.009566824
43	0x3a6c09fb	0.0009004173
44	0xbbd30fa8	-0.0064410754
45	0x3b502670	0.0031761192
46	0xbc0278c4	-0.007963363
47	0xbc22328c	-0.009899747
48	0x3d1fa7a7	0.038978245
49	0x3cd0e7f9	0.025501238
50	0x3c39e443	0.011345926
51	0x3c7763b7	0.015099457
52	0x3d1b19f2	0.03786654
53	0x3c8a7c90	0.0169051
54	0xbc67ca8d	-0.014147413
55	0xbdc6f317	-0.097143345
56	0xbd099c5f	-0.033596393
57	0xbb1a6147	-0.0023556517
58	0xbdaaa60f	-0.083324544
59	0xbd634df3	-0.05549426
60	0xbd95e362	-0.073187605
61	0xbd1525f8	-0.036413163
62	0xbd8e4c75	-0.06948177
63	0xbcc1ee47	-0.02367319
64	0xbc9f17e6	-0.019420575
65	0xbca7daef	-0.020490138
66	0xbc6ec57d	-0.014573452
67	0x3d2e3344	0.04252936
68	0xbcaae323	-0.02086026
69	0x3bccdabc	0.006251661
70	0x3d88b86a	0.06675799
71	0x3d512cd5	0.051068146
72	0x3d588c2c	0.052868053
73	0x3de4dd08	0.11174971
74	0x3dc55840	0.09635973
75	0x3ddcc104	0.10779002
76	0x3d9b6e14	0.07589355
77	0x3d8909b9	0.066913076
78	0xbbabd2e5	-0.0052436464
79	0x3dbc24e8	0.09186727
80	0x3da3ea85	0.080037154
81	0x3ce33819	0.02773671
82	0x3c491d93	0.012275117
83	0x3cb55a64	0.022137828
84	0xbb833cec	-0.004005065
85	0x3d5ff915	0.054680903
86	0x3cc513ed	0.024057353
87	0x3ca367f6	0.019947033
88	0x3cd07359	0.025445627
89	0x3d3a461c	0.045477018
90	0xbcd20508	-0.025637165
91	0xbccc86cf	-0.024966625
92	0x3c95b784	0.018275984
93	0xbbf38ade	-0.0074323257
94	0xbcd3f510	-0.02587369
95	0x3c42d3aa	0.011891285
96	0xbd3e1312	-0.046404906
97	0xbc50def8	-0.012748472
98	0xbcd1df0c	-0.025619052
99	0xbd626e6f	-0.0552811
100	0xbdb8de50	-0.09026778
101	0xbd6d77a1	-0.057975415
102	0xbd830ed1	-0.063993104
103	0xbdf07bbc	-0.117423505
104	0xbdb11612	-0.08646788
105	0xbd99318b	-0.07480153
106	0xbe005913	-0.12533979
107	0xbdc8226b	-0.0977219
108	0xbc662fd5	-0.01404949
109	0x3ccf2fe8	0.025291398
110	0x3c8589bf	0.016301034
111	0xbd264df8	-0.0406017
112	0x3ca70b89	0.020391243
113	0xbcddcf54	-0.0270764
114	0xbd2d1827	-0.04225936
115	0xbae6963f	-0.0017592384
116	0xbd0fcc39	-0.03510687
117	0xbd9befe3	-0.07614114
118	0xbd33b58b	-0.043874305
119	0xbd542b10	-0.05179888
120	0xbd8f42c2	-0.06995155
121	0xbd00cfff	-0.03144836
122	0xbb1938e3	-0.0023379854
123	0xbd7bb9b6	-0.061456405
124	0x3d1573f2	0.036487527
125	0x3ba3a950	0.004994549
126	0x3d234915	0.03986462
127	0x3d9c2dd3	0.07625928
128	0x3d3d0d77	0.04615542
129	0x3cbb2b08	0.022847667
130	0x3d1367b5	0.035987575
131	0x3d332c3c	0.043743357
132	0x3d57b51f	0.052662965
133	0x3d9eef8a	0.07760532
134	0x3caeacfb	0.021322718
135	0xbcdf716b	-0.027275762
136	0xbcfceb4d	-0.030873919
137	0x3b65f25c	0.0035087084
138	0xbc91dc52	-0.017805252
139	0xbc9166d0	-0.01774922
140	0xbd29b5f2	-0.041433282
141	0xbd57c25f	-0.0526756
142	0xbc0daaee	-0.00864671
143	0xbd7c7678	-0.061636418
144	0x3d56c6ab	0.05243556
145	0xbc3313d5	-0.010930021
146	0xbd0d0ffb	-0.03443907
147	0xbd0c98f2	-0.034325548
148	0x3c782df5	0.015147676
149	0x3bb241c9	0.005439971
150	0xbd19a589	-0.037511382
151	0x3d226085	0.03964283
152	0x3d12efc6	0.035873197
153	0x3d4857d0	0.04891187
154	0x3d988a16	0.07448213
155	0x3da5d32b	0.08096918
156	0x3d397a10	0.045282423
157	0x3db82f19	0.08993358
158	0xbba56bd5	-0.005048255
159	0x3d82e89b	0.06392022
160	0x3dc30c05	0.09523777
161	0x3da01fa7	0.07818537
162	0x3ba6bc9b	0.0050884015
163	0x3d578068	0.052612692
164	0xbc6d9c3a	-0.014502579
165	0x3d301dfa	0.042997338
166	0x3d23de03	0.04000665
167	0xbcff40db	-0.031158855
168	0xb97501dd	-0.00023365715
169	0x3c7bfe5f	0.015380471
170	0x3cd4b712	0.025966201
171	0xbd82c9c4	-0.0638614
172	0xbd0349a2	-0.032052644
173	0x3d1361f1	0.035982076
174	0xbd0399fd	-0.032129277
175	0xbc5aaffe	-0.013347624
176	0xbbb83bd3	-0.005622366
177	0x3c48fd9c	0.012267496
178	0x3d332a79	0.043741677
179	0x3bab0137	0.0052186507
180	0x3c8db9af	0.017300455
181	0xbc035530	-0.008015916
182	0xbd16298f	-0.036660727
183	0xbcbb0cc0	-0.022833228
184	0xbb971b6c	-0.0046114232
185	0xbd2f90be	-0.042862646
186	0xbcbcf388	-0.023065343
187	0x3cabcb76	0.020971041
188	0x3c7922ff	0.015206098
189	0xbcd39327	-0.025827004
190	0xbd2a44c2	-0.04156948
191	0x3cbea601	0.023272516
192	0x3c13461b	0.008988882
193	0xb9f6cc42	-0.0004707296
194	0xbd558810	-0.052131712
195	0x3c8272ec	0.01592394
196	0x3c3178ee	0.010832055
197	0xbd4cb443	-0.0499766
198	0x3c773766	0.015088892
199	0xbb45b4c1	-0.0030167552
200	0x3d5e3469	0.0542492
201	0xbc5a44ce	-0.013322068
202	0x3da3e538	0.080027044
203	0x3d69b06d	0.05705302
204	0xbc4ad867	-0.012380696
205	0xbc8177a4	-0.01580412
206	0x3c59bff6	0.013290396
207	0xbcda491f	-0.026646195
208	0xbd7f94ed	-0.062397886
209	0xbdcd937e	-0.100378975
210	0xbd6b56d3	-0.05745585
211	0xbd4242c7	-0.047426965
212	0xbd15b0c9	-0.03654555
213	0xbd757922	-0.059929974
214	0xbd85cf94	-0.06533733
215	0xbddfe3b0	-0.109321
216	0xbd79bf8a	-0.06097368
217	0xbd5f14e3	-0.05446328
218	0xbdbcee8f	-0.09225189
219	0x3c0af86a	0.008482078
220	0xbc5240c5	-0.012832825
221	0xbd86db20	-0.065847635
222	0xbd3642ad	-0.04449718
223	0xbd7aeb11	-0.061259333
224	0xbd70f53a	-0.058827616
225	0x3c9d7473	0.019220566
226	0x3d85d886	0.06535439
227	0xbbbbae68	-0.005727578
228	0xbc17b56f	-0.009259566
229	0x3d16153a	0.036641337
230	0x3cc8135c	0.024423294
231	0xbd0329f2	-0.032022424
232	0x3d86802c	0.065674156
233	0xbcbabbc8	-0.02279462
234	0xbd230d19	-0.039807413
235	0xbc90fa79	-0.01769756
236	0xbc9dcc83	-0.019262558
237	0xbc9b7947	-0.018978728
238	0xba288435	-0.0006428392
239	0x3c28447b	0.010270233
240	0xbd677d5b	-0.056516033
241	0xbd3e7e51	-0.046507183
242	0x3ab36f0a	0.0013689708
243	0xbbf0504f	-0.0073337923
244	0xbd02a9ec	-0.03190033
245	0xbd2b72fa	-0.041857697
246	0x3c43559f	0.011922269
247	0xbd2a3187	-0.04155114
248	0xbd49ca70	-0.049265325
249	0xbd18c0da	-0.037293293
250	0xbb95ec35	-0.004575277
251	0x3cd2d941	0.02573836
252	0xbd2e80ed	-0.042603422
253	0xbdc44663	-0.09583738
254	0xbdde73ff	-0.10861968
255	0xbdb0683f	-0.08613633

conv3.0.bias f4 [64]
0	0xbe53a13a	-0.20666972
1	0xbd973aef	-0.073842876
2	0xbdb186dc	-0.086683005
3	0xbe113a62	-0.14182428
4	0xbd61ee92	-0.05515916
5	0xbc4e2bf0	-0.012583718
6	0xbdcd195e	-0.10014604
7	0xbe23b48b	-0.1598684
8	0xbd8d2e45	-0.06893591
9	0xbdb4de20	-0.088314295
10	0x3d0298a0	0.031883836
11	0xbddf2e21	-0.1089747
12	0xbd761c25	-0.060085434
13	0xbd631fdf	-0.055450317
14	0xbe3473da	-0.17622319
15	0xbd426cb9	-0.047466967
16	0xbe2266f0	-0.1585958
17	0xbe007a2c	-0.12546605
18	0xbd536347	-0.05160835
19	0xbe0e4ade	-0.13895747
20	0xbe05ee58	-0.13079202
21	0xbdc5a46a	-0.096505
22	0xbdb8c13a	-0.0902123
23	0xbdc443ec	-0.095832676
24	0xbd9bcf54	-0.07607904
25	0xbddb33f9	-0.10703272
26	0xbe5cee30	-0.21575236
27	0xbda9181f	-0.08256554
28	0xbe673c29	-0.22581543
29	0xbd94ba8b	-0.07262143
30	0xbe458a1c	-0.19290966
31	0xbd8f3d3a	-0.069941
32	0xbdbe9304	-0.09305385
33	0xbe574021	-0.21020557
34	0xbe0b5ef0	-0.13610435
35	0xbe29f931	-0.16598965
36	0xbc23da96	-0.010000845
37	0xbd8816a4	-0.06644943
38	0xbe07a1b3	-0.13245277
39	0xbdd3adaf	-0.10335862
40	0xbde101d3	-0.10986676
41	0xbc651b82	-0.013983609
42	0xbe178d39	-0.14799966
43	0xbd960df1	-0.07326878
44	0xbdaa713c	-0.08322379
45	0xbd8ebdfd	-0.06969831
46	0xbd3f0c4c	-0.046642587
47	0xbd47def2	-0.0487966
48	0xbc5b51cd	-0.013386202
49	0xbdccd879	-0.100022264
50	0xbde56cef	-0.11202418
51	0xbdc822de	-0.097722754
52	0xbe12e643	-0.1434565
53	0xbd5f97ce	-0.05458813
54	0xbcecdc32	-0.028913591
55	0xbe00261e	-0.1251454
56	0xbd3293f8	-0.043598145
57	0xbd769704	-0.060202613
58	0xbd7380b8	-0.059448928
59	0x3cbf5117	0.023354096
60	0x3b34c6b4	0.0027584257
61	0xbda0b8d1	-0.07847751
62	0xbe36950a	-0.17830291
63	0xbdf1aecd	-0.11800919

conv3.4.weight f4 [64]
0	0x3f898f1d	1.07468
1	0x3f898f23	1.0746807
2	0x3f99ce9d	1.2016178
3	0x3f9bcbdb	1.2171587
4	0x3f970d53	1.1800941
5	0x3f9a8e8d	1.2074753
6	0x3f9be1b8	1.2178259
7	0x3f878795	1.0588251
8	0x3f78b3a9	0.9714914
9	0x3f9cb122	1.2241557
10	0x3f982dd8	1.188899
11	0x3f804c3f	1.0023268
12	0x3f996abd	1.1985699
13	0x3f852568	1.040204
14	0x3f889d89	1.0673076
15	0x3f942819	1.1574737
16	0x3f85e5f8	1.0460806
17	0x3f8c1884	1.0944982
18	0x3f9a5028	1.2055712
19	0x3f95a3ec	1.169065
20	0x3f872fda	1.0561478
21	0x3f9f3508	1.2438059
22	0x3f997390	1.1988392
23	0x3f9c1161	1.2192804
24	0x3f8628a4	1.0481153
25	0x3f88a7ab	1.0676168
26	0x3f85b47f	1.0445708
27	0x3f9f6449	1.245248
28	0x3f8a3bbc	1.079948
29	0x3f994e61	1.1977044
30	0x3f85ab2d	1.0442864
31	0x3f7e8df4	0.99435353
32	0x3f90f6fa	1.1325371
33	0x3f8aec30	1.0853329
34	0x3f85638b	1.0421003
35	0x3f899a4c	1.0750213
36	0x3f704d67	0.93868107
37	0x3f9becff	1.21817
38	0x3f9c773e	1.222389
39	0x3f9a1b4c	1.203958
40	0x3f88c301	1.068451
41	0x3f7e567c	0.99350715
42	0x3f895bff	1.07312
43	0x3f992769	1.1965152
44	0x3f88e051	1.0693456
45	0x3f9dd99e	1.2332036
46	0x3f970638	1.1798773
47	0x3f7b76cc	0.98228145
48	0x3f974ee7	1.1820954
49	0x3f9dcb2e	1.232763
50	0x3f8a2058	1.079112
51	0x3f9aee5e	1.2103994
52	0x3f8205d1	1.0158025
53	0x3f918f09	1.1371776
54	0x3fa15de3	1.2606777
55	0x3f8afa4d	1.0857636
56	0x3f840c00	1.0316162
57	0x3f9e374c	1.2360625
58	0x3f96db05	1.178559
59	0x3f77a668	0.9673829
60	0x3f9a4ec2	1.2055285
61	0x3f9be525	1.2179304
62	0x3f81bbe6	1.0135467
63	0x3f97200f	1.1806659

conv3.4.bias f4 [64]
0	0xbbc7f119	-0.006101739
1	0x3b24802a	0.0025100806
2	0x3b8f2dd5	0.0043694773
3	0xbc145272	-0.00905286
4	0x3b9fe2cb	0.0048793308
5	0x3bb99991	0.0056640585
6	0x3ba21e1b	0.0049474365
7	0xbb57410c	-0.0032845167
8	0xbc0ce4e1	-0.008599491
9	0x3c64f906	0.013975387
10	0x3c1896f9	0.009313338
11	0xbc585ca9	-0.013205686
12	0xbc8cda97	-0.017194076
13	0xbc5602df	-0.013062208
14	0x3c0951d7	0.008381329
15	0xbb565f23	-0.0032710514
16	0x3c0724b9	0.008248501
17	0x3baf6c8c	0.005353516
18	0x3c62a8c8	0.013834186
19	0xbc846715	-0.016162435
20	0xbc411820	-0.011785537
21	0xbb31d1fe	-0.0027133222
22	0x3c96cf9e	0.018409546
23	0xbc39c9ba	-0.011339599
24	0xbd171a51	-0.03689033
25	0xbc0c13af	-0.008549615
26	0xbc7d626d	-0.015465361
27	0xbc98c09d	-0.018646533
28	0xbcd1cbe8	-0.025609925
29	0xb81f85af	-3.8033057e-05
30	0xbb6babb3	-0.0035960495
31	0xbc8b3327	-0.016992165
32	0x3c88b9f4	0.016690232
33	0xbb52f1d8	-0.0032187607
34	0xbc3adb04	-0.011404756
35	0x3c0e49b1	0.008684562
36	0xbc4f13a7	-0.012638963
37	0x3b81d36b	0.0039619706
38	0xbb12358f	-0.0022309755
39	0xbbfffcbe	-0.0078121116
40	0xbbf2643d	-0.0073972032
41	0x3c7bd1f8	0.015369885
42	0x3ca36c39	0.019949066
43	0x3ac2d968	0.0014865818
44	0x3c71e08f	0.014763012
45	0xbbc40b43	-0.005982788
46	0x3b3502f8	0.0027620178
47	0x3c04a600	0.008096218
48	0xbcb548f2	-0.02212951
49	0x3bdd041d	0.006744875
50	0xba38fdda	-0.000705687
51	0x3c791304	0.015202288
52	0xbb8570f8	-0.004072305
53	0x3b032f1f	0.00200171
54	0x3b2ad943	0.002606944
55	0xbc7b041a	-0.015320802
56	0x3c9c5a05	0.019085893
57	0x3c7fa93a	0.015604312
58	0x3bba32ad	0.0056823106
59	0xb97a2e81	-0.00023859182
60	0x3c5a9248	0.01334054
61	0x3c534942	0.012895884
62	0x3c90f20e	0.017693546
63	0x3c920604	0.017825134

conv3.4.running_mean f4 [64]
0	0x3d6ea42d	0.05826204
1	0x3d265156	0.04060491
2	0x3e278cef	0.16362356
3	0x3e110f31	0.14165951
4	0x3e14f725	0.14547403
5	0x3e5e9e87	0.21740161
6	0x3e2420ae	0.16028091
7	0x3d523e3c	0.051328883
8	0x3dcde6c4	0.10053781
9	0x3e246c44	0.16056925
10	0x3e60c724	0.21950966
11	0x3e8f28ce	0.2796082
12	0x3e2616c3	0.1621962
13	0x3cc22135	0.023697475
14	0x3db17f18	0.08666819
15	0x3e29a652	0.16567352
16	0x3df2a14f	0.118471734
17	0x3dbd4162	0.092409864
18	0x3e45f684	0.1933232
19	0x3dcc7c17	0.09984606
20	0x3dacddc8	0.08440739
21	0x3e139fc4	0.14416414
22	0x3e415d2c	0.18883198
23	0x3df2d85b	0.11857673
24	0x3e0ccedb	0.13750784
25	0x3e1fcd45	0.15605648
26	0x3d5fa917	0.054604616
27	0x3dd8aa2f	0.10579335
28	0x3ddb9d8b	0.10723408
29	0x3e199837	0.14999472
30	0x3d68b530	0.05681342
31	0x3e9d4494	0.30716383
32	0x3e4c8736	0.19973454
33	0x3d56a234	0.052400783
34	0x3e75d8c5	0.24008472
35	0x3da41ca2	0.08013274
36	0x3f5b15f0	0.8558035
37	0x3e09ac8f	0.13444732
38	0x3e27249c	0.16322559
39	0x3e8748e1	0.2642279
40	0x3e0f52fe	0.13996503
41	0x3f17299c	0.59047866
42	0x3d3d13fd	0.04616164
43	0x3e0f5e06	0.14000711
44	0x3d636193	0.055512976
45	0x3e78daa4	0.24302155
46	0x3e48e82a	0.19619814
47	0x3dc6a19b	0.096987925
48	0x3e4f768e	0.20260069
49	0x3dcf6f32	0.10128631
50	0x3e294203	0.16529088
51	0x3e361f22	0.17785314
52	0x3de81675	0.11332408
53	0x3e86a132	0.26294857
54	0x3e29645b	0.16542189
55	0x3e1a2e16	0.15056643
56	0x3e4912c9	0.19636072
57	0x3de5c35c	0.112189025
58	0x3e169704	0.14706045
59	0x3f8e2ccb	1.110742
60	0x3e190dcf	0.14946674
61	0x3e209e79	0.15685453
62	0x3d1949d5	0.037423927
63	0x3e182fb7	0.14861952

conv3.4.running_var f4 [64]
0	0x3e5be268	0.21473086
1	0x3d96894a	0.073504046
2	0x3f301cee	0.68794143
3	0x3ee1b3ae	0.44082397
4	0x3f10b77f	0.5652999
5	0x3f53a1c5	0.82668716
6	0x3f18e9af	0.5973157
7	0x3df85151	0.12124885
8	0x3e98adee	0.29820198
9	0x3f1ab38b	0.6043021
10	0x3f330cfc	0.6994169
11	0x3f15ca87	0.5851216
12	0x3f2611ff	0.6487121
13	0x3d2d2dc4	0.042279974
14	0x3e136da0	0.14397287
15	0x3f24c87c	0.64368415
16	0x3e874fa4	0.26427948
17	0x3e10698a	0.1410276
18	0x3f3b012a	0.7304865
19	0x3eadae32	0.33921963
20	0x3e18d364	0.14924389
21	0x3f0495e2	0.51791203
22	0x3f347c52	0.705022
23	0x3ed10fdf	0.4083242
24	0x3e71fe62	0.23632196
25	0x3eea5358	0.4576671
26	0x3dccedd6	0.10006301
27	0x3ed0637e	0.40700907
28	0x3e316376	0.17323098
29	0x3f18d6bb	0.5970265
30	0x3dbf7c55	0.09349886
31	0x3f18da20	0.5970783
32	0x3f5994d2	0.84992707
33	0x3e18c8ba	0.14920321
34	0x3f46b458	0.7761893
35	0x3e7332f1	0.23749901
36	0x406e8af5	3.7272313
37	0x3edf4886	0.43610018
38	0x3f0acb81	0.5421677
39	0x3fa0bfd5	1.2558542
40	0x3e78e086	0.24304399
41	0x400b4d96	2.1766105
42	0x3dfc2b20	0.12312913
43	0x3f0f1029	0.55884033
44	0x3dc7c4dc	0.09754345
45	0x3f93550e	1.1510332
46	0x3f4dbde2	0.80367863
47	0x3e176007	0.14782725
48	0x3f4c9ec6	0.7992977
49	0x3eae0613	0.3398901
50	0x3e9d3832	0.30706936
51	0x3f5c2af8	0.86003065
52	0x3e58a35b	0.21156065
53	0x3f941084	1.156754
54	0x3f2fa768	0.68614817
55	0x3e82385a	0.25433618
56	0x3eba9817	0.3644416
57	0x3ee3f399	0.44521788
58	0x3f029a00	0.51016235
59	0x40dbe3ab	6.8715415
60	0x3f0d9fdb	0.55322045
61	0x3f19933d	0.5999029
62	0x3db4f42b	0.08835634
63	0x3f0acf53	0.542226

fc.0.weight f4 [32, 64]
0	0x3e05f9ec	0.13083619
1	0x3e27eadf	0.1639819
2	0xbd03188f	-0.032005843
3	0xbdd75c72	-0.105156794
4	0xbe7be9c9	-0.246009
5	0xbd07e1af	-0.033174213
6	0xbe0495fe	-0.12947842
7	0x3c75793b	0.014982517
8	0x3d62de67	0.05538788
9	0xbe02e6a1	-0.1278329
10	0xbe48854e	-0.19582102
11	0xbdb5db19	-0.0887968
12	0xbe3108b9	-0.17288484
13	0x3d9ef8bf	0.07762288
14	0x3e09de54	0.13463718
15	0xbe54e27f	-0.20789526
16	0x3d7dabc3	0.061931383
17	0x3db3e034	0.08782998
18	0xbe587b5b	-0.21140806
19	0xbe2627eb	-0.16226165
20	0xbc9a7226	-0.018853258
21	0xbda7bd70	-0.08190429
22	0xbddcdb76	-0.10784046
23	0xbe8a6614	-0.27031004
24	0x3df1e31c	0.11810896
25	0x3cb760ac	0.022384964
26	0xbc65ea02	-0.014032843
27	0xbe305cd9	-0.17222919
28	0x3e2816ab	0.16414897
29	0xbdda9c32	-0.10674323
30	0x3cb41550	0.021982819
31	0x3dfaf49f	0.12253689
32	0xbc7d8e24	-0.0154757835
33	0x3d6bdc79	0.057583306
34	0x3dc12283	0.09430411
35	0x3e282fbf	0.16424464
36	0x3d9384ec	0.07203087
37	0xbe53c852	-0.20681885
38	0xbde3b6d3	-0.11118855
39	0xbe6b395b	-0.22971098
40	0x3dc8be1f	0.09801888
41	0x3d913e79	0.07091994
42	0x3d45e70f	0.048316058
43	0xbe1adfe5	-0.15124471
44	0x3e114991	0.1418822
45	0xbe8bff9d	-0.27343455
46	0xbe3aef84	-0.1825543
47	0x3c65f1e9	0.014034727
48	0xbd521a14	-0.0512944
49	0xbe2f92d9	-0.17145862
50	0x3d7e9955	0.062157948
51	0xbe4e308b	-0.20135705
52	0x3dad6fb4	0.08468571
53	0xbe53fff8	-0.20703113
54	0xbe117977	-0.14206491
55	0x3e039932	0.12851408
56	0x3d96faf0	0.07372081
57	0xbda9d79c	-0.08293077
58	0xbe6d0d40	-0.23149586
59	0x3b36554e	0.0027821842
60	0xbdd5903c	-0.10427901
61	0xbdbf1903	-0.093309425
62	0xbae8dc40	-0.0017765835
63	0xbe2df5a5	-0.16988237
64	0xbc309107	-0.010776765
65	0x3d266b6f	0.0406298
66	0xbe025d6c	-0.1273095
67	0xbe54b66f	-0.20772718
68	0xbdd72adc	-0.10506222
69	0xbd8011c8	-0.062533915
70	0xbe3ab584	-0.18233305
71	0x3ddcd628	0.107830346
72	0xbd6c1dea	-0.057645716
73	0xbe5770b5	-0.21039088
74	0xbc61be80	-0.013778329
75	0xbcd89ce3	-0.026441997
76	0xbe034d3d	-0.12822433
77	0x3dd72d71	0.10506714
78	0x3e2f523d	0.17121215
79	0xbe0d8633	-0.13820724
80	0x3e0cfc9f	0.13768242
81	0x3db55a91	0.08855165
82	0xbe0def72	-0.13860872
83	0xbccff515	-0.025385419
84	0x3ba6e094	0.00509269
85	0xbe6fc720	-0.23415804
86	0xbe52ab59	-0.20573176
87	0xbe546fd7	-0.20745789
88	0x3c9d47e7	0.019199325
89	0x3e129ddb	0.1431803
90	0x3d694160	0.056947112
91	0xbe469b94	-0.19395286
92	0x3e2462cd	0.16053315
93	0xbe50af95	-0.20379479
94	0x3d59ce45	0.05317523
95	0xbd493c6c	-0.04912989
96	0xbda83f0c	-0.0821515
97	0x3e3b8b91	0.18314959
98	0x3e0dc404	0.13844305
99	0x3e2dd0ce	0.16974184
100	0x3d19ca2b	0.037546318
101	0xbdf0481d	-0.117325045
102	0xbe3e00db	-0.18555014
103	0xbe663fbb	-0.22485249
104	0xbc8bce23	-0.017066067
105	0x3d2f9e05	0.04287531
106	0x3e0e9407	0.13923655
107	0xbd214c6d	-0.039379526
108	0x3b2070b7	0.0024481246
109	0xbe26ce20	-0.16289568
110	0xbc965bf5	-0.018354395
111	0x3e0bee82	0.13665202
112	0xbe6e4cd8	-0.23271501
113	0xbe0c62ce	-0.13709566
114	0xbcd383e3	-0.025819724
115	0xbdaa198a	-0.083056524
116	0x3dc6b3a9	0.09702236
117	0xbd938fd7	-0.0720517
118	0xbdff66ee	-0.12470804
119	0x3e376f2d	0.17913504
120	0x3e100f32	0.14068297
121	0xbe12576b	-0.1429116
122	0xbdf8fa52	-0.1215712
123	0xbbe41601	-0.006960631
124	0xbe441f5d	-0.19152589
125	0xbd9a675a	-0.07539244
126	0x3d47073a	0.048590876
127	0xbe0ac692	-0.13552311
128	0x3d6741c2	0.056459196
129	0x3dab5899	0.08366508
130	0xbe241724	-0.16024452
131	0xbe2d3c6b	-0.16917579
132	0xbe4c7e35	-0.19970019
133	0xbdc49c14	-0.09600082
134	0xbe5b2fdb	-0.21404974
135	0x3d5ec888	0.05439046
136	0x3d6fc0f7	0.058533635
137	0xbd991cbf	-0.07476186
138	0xbdf482da	-0.119390205
139	0x3dd67a78	0.10472578
140	0xbe2dfd82	-0.16991237
141	0x3d99e2f5	0.07513992
142	0x3de6d093	0.11270251
143	0xbe1ed4c7	-0.15510856
144	0x3d85fdad	0.065425254
145	0x3dfc1cf7	0.12310212
146	0xbc669e77	-0.014075867
147	0xbe485f31	-0.19567563
148	0x3d7ea85f	0.06217229
149	0xbe291af1	-0.16514184
150	0xbe524082	-0.2053242
151	0xbe49ed86	-0.19719514
152	0xbc8ac8d6	-0.01694147
153	0x3cda927d	0.02668118
154	0x3e0c7a8a	0.1371862
155	0xbe27f4e8	-0.16402018
156	0x3e00c683	0.12575726
157	0xbd8f46a1	-0.06995893
158	0x3e297bcd	0.16551133
159	0xbd99991d	-0.07499907
160	0xbdf2e4e9	-0.118600674
161	0x3d8f3204	0.069919616
162	0xbce17f23	-0.027526444
163	0x3e09417f	0.13403891
164	0xbdb9f9bd	-0.09080837
165	0xbe3ac9a9	-0.1824099
166	0xbdb2f882	-0.08738805
167	0xbe413ebf	-0.18871592
168	0x3d56ced3	0.052443337
169	0xbd2dc4ae	-0.042423896
170	0x3e03d545	0.12874325
171	0xbe0f1fd8	-0.13976991
172	0x3d54b766	0.051932715
173	0xbe7c24bf	-0.24623393
174	0xbcdfff23	-0.027343338
175	0xbd88200c	-0.066467375
176	0xbcb93dce	-0.022612479
177	0xbd8ae0dc	-0.0678117
178	0x3e009282	0.12555888
179	0xbe2c196e	-0.16806576
180	0x3e0a23b8	0.13490188
181	0xbe33bd5b	-0.17552702
182	0xbe1020b7	-0.1407498
183	0x3e476f1e	0.19475982
184	0x3d6df921	0.058098916
185	0xbe748e98	-0.2388252
186	0xbe6e5022	-0.23272756
187	0x3dcc8ca5	0.09987763
188	0xbe2b6970	-0.1673944
189	0xbe1a87b7	-0.15090834
190	0x3cb01829	0.021495895
191	0xbe2b0428	-0.16700804
192	0xbe15b98b	-0.1462156
193	0xbdd5e535	-0.104441084
194	0x3d62e4d6	0.055394016
195	0x3db8036f	0.0898503
196	0x3e4d9429	0.2007605
197	0x3e5cfd0e	0.21580908
198	0x3e2bc284	0.1677342
199	0xbdf23db0	-0.11828172
200	0xbc437190	-0.011928931
201	0x3e65e4d3	0.22450571
202	0x3dd7778f	0.10520851
203	0xbdd6d0d5	-0.1048905
204	0x3e266898	0.16250837
205	0xbda90927	-0.08253699
206	0xbe21be1c	-0.15795177
207	0x3deab64a	0.1146055
208	0xbe1d8696	-0.15383372
209	0x3b860034	0.0040893797
210	0x3d8e3ba5	0.0694497
211	0x3e1a393f	0.150609
212	0xbdddc2f7	-0.10828202
213	0x3e5d3d36	0.21605381
214	0x3dd3dcf8	0.10344881
215	0x3e146a1f	0.14493607
216	0x3ba2b6cd	0.004965639
217	0x3c3998c9	0.011327931
218	0xbd5ef4d1	-0.054432694
219	0x3c795bcf	0.015219643
220	0xbbfb81ec	-0.0076754
221	0x3e712838	0.23550498
222	0xbcb296ea	-0.021800477
223	0xbdde73a3	-0.108619
224	0x3e0f7a6f	0.14011548
225	0xbd8a16ba	-0.06742616
226	0xbe248dac	-0.16069669
227	0xbdd6caf6	-0.104879305
228	0xbda217bb	-0.079146825
229	0x3de93137	0.1138634
230	0x3db68b08	0.08913237
231	0x3da89d0a	0.08233078
232	0x3c0d162e	0.008611245
233	0xbe168204	-0.14698035
234	0xbd236475	-0.039890725
235	0x3e3a9b6c	0.18223351
236	0xbda89aa6	-0.08232622
237	0x3e51b13a	0.20477763
238	0x3d7b0f89	0.061294112
239	0xbd2bb4a1	-0.041920308
240	0x3cd388f0	0.025822133
241	0x3d8efa06	0.06981282
242	0xbdc3eef6	-0.095670626
243	0x3dbc4d78	0.091944635
244	0xbd58f6c0	-0.052969694
245	0x3e364b2d	0.17802115
246	0x3e4a58a4	0.19760376
247	0xbe02f3aa	-0.12788263
248	0xbe0c60cf	-0.13708805
249	0x3e1535eb	0.1457135
250	0x3d0b5467	0.03401604
251	0xbd40a5e7	-0.047033217
252	0x3d14864e	0.036260895
253	0x3e766597	0.24062191
254	0xbd42b873	-0.047539186
255	0x3dce91bc	0.100863904

fc.0.bias f4 [32]
0	0xbd4ef8f5	-0.050530393
1	0xbda88b41	-0.082296856
2	0xbdac9f4f	-0.08428823
3	0x3d8dab44	0.06917432
4	0xbc2cedd3	-0.010554749
5	0xbda23ca4	-0.079217225
6	0x3d83fdad	0.06444869
7	0xbd2c122c	-0.042009518
8	0xbde7b063	-0.1131294
9	0xbd88b5c7	-0.06675296
10	0xbd1108f5	-0.035408933
11	0xbc988b9d	-0.01862126
12	0x3d94cfa7	0.07266169
13	0xbd4652e0	-0.04841888
14	0xbd9f8965	-0.07789878
15	0x3ca05812	0.019573245
16	0x3d61fc5f	0.05517232
17	0xbdc2c018	-0.09509295
18	0xbd722a14	-0.05912216
19	0x3c3859d9	0.01125189
20	0x3cfb9128	0.030708864
21	0x3dbce66c	0.09223637
22	0x3d6ad09f	0.057327863
23	0xbdbc8922	-0.092058435
24	0xbb9a813d	-0.0047151134
25	0x3db49efd	0.08819387
26	0x3da33e2d	0.079708435
27	0x3d4a603f	0.049408194
28	0x3dbf3a5c	0.09337303
29	0x3d959b81	0.07305051
30	0x3b4bafb7	0.0031080076
31	0x3cd2c010	0.025726348

fc.3.weight f4 [1, 32]
0	0xbe0a60ed	-0.13513537
1	0xbe42280d	-0.1896059
2	0xbe5e7ed8	-0.21728075
3	0x3ec98d8a	0.39365798
4	0x3eb26094	0.34839308
5	0xbe2d4f2e	-0.16924736
6	0x3e449df6	0.19200882
7	0x3ebf5e6c	0.37376726
8	0xbe31b347	-0.17353545
9	0xbe527c17	-0.20555149
10	0x3eb8d6f8	0.36101508
11	0xbe28ac2a	-0.16471925
12	0xbe820a36	-0.25398415
13	0xbdd50778	-0.10401815
14	0xbdfee1a2	-0.1244538
15	0xbe0d3522	-0.137898
16	0xbe170d08	-0.14751065
17	0x3e9b25fa	0.3030241
18	0xbe808b0b	-0.2510608
19	0xbe32b262	-0.1745086
20	0x3e84ff71	0.25976136
21	0x3eb23cf8	0.3481214
22	0x3eac2ac8	0.3362639
23	0x3ec53a15	0.38520876
24	0xbe5624ba	-0.20912448
25	0xbe722f0c	-0.2365076
26	0x3e887257	0.26649734
27	0xbe4d0370	-0.20020843
28	0x3ea70288	0.3261912
29	0xbe16a1aa	-0.14710107
30	0xbe6ef0b8	-0.23334014
31	0xbe409c68	-0.18809664
