5 第五讲 机器学习训练模型的数学范式v16/models/model75.pth (torch, 112459 bytes, 21 tensors)

conv1.0.weight f4 [16, 3, 3, 3]
000000 10 e4 4c bc be c7 ed bd 8e 8b 19 3e 45 21 57 bd
       -0.012505546 -0.116103634 0.14994642 -0.052521963
000010 e9 0b 07 be 4e 9e 2b be a1 f9 30 3d 23 4b 21 be
       -0.13188137 -0.16759607 0.043206815 -0.15751319
000020 14 df c9 3d 37 26 92 3d fd bb 41 3e 99 fc 07 be
       0.09857002 0.07136195 0.18919368 -0.13279952
000030 f3 33 03 3d 4f 16 13 3d d0 24 da 3c e2 63 d7 3d
       0.032031965 0.035909947 0.026628882 0.10517098
000040 bf 61 76 3a 8f 49 7f bd cb 45 15 3e 33 5b f5 bd
       0.00093987206 -0.06232601 0.14577405 -0.119802855
000050 23 6a 19 be 7c 49 d4 3d 0e ae 54 bd 19 e3 1f 3e
       -0.14981894 0.103655785 -0.051923804 0.15613975
000060 5e d6 fd bd 49 de 1b 3e 46 ec 30 3d 9b 75 4e bd
       -0.12394403 0.15221514 0.043194078 -0.050405126
000070 81 80 0d 3e b5 8d 92 bd 32 46 71 bb d7 2a 9b bd
       0.13818552 -0.07155935 -0.0036815521 -0.075765304
000080 ba 34 aa 3d 1d 33 5e 3d 79 e9 13 3e 8b 35 c9 bd
       0.08310838 0.054247964 0.14444532 -0.09824666
000090 93 32 0a 3d ec 56 2f bc 85 4c 1e 3e 37 fb 1f be
       0.033739638 -0.010701876 0.15458877 -0.15623175
0000a0 8f 38 8c bd be 06 22 3e 99 75 70 3d 44 e5 69 bd
       -0.06846725 0.15822884 0.0587059 -0.05710341
0000b0 a0 b4 95 3d bd d8 3c 3d b6 16 8f bd e5 16 24 be
       0.07309842 0.046105135 -0.06986754 -0.16024359
0000c0 3a 1f 3d be af fb c6 3d 43 3e ba bc ed 14 95 3d
       -0.18468943 0.097159736 -0.022734767 0.07279382
0000d0 1a e5 2a be 53 78 24 3e 9f 47 9b 3d 6a 10 3c bc
       -0.16688958 0.16061525 0.0758202 -0.011478523
0000e0 23 c1 b2 bd bd 64 ab bc 67 07 0a be d3 14 2b be
       -0.08728244 -0.02092206 -0.13479386 -0.16707163
0000f0 49 96 8a bd 8e 57 e5 3d 4c 7b 2c be ca 87 21 3e
       -0.06766946 0.1119834 -0.16843909 0.15774456
000100 31 4d c5 3d d8 31 14 be 0e 50 2e 3e f3 b3 5d 3d
       0.09633864 -0.14472139 0.17022726 0.05412669
000110 7a 4f 07 bd 99 0e d2 3c bf 87 33 3d 51 b1 03 3e
       -0.03303478 0.025641726 0.04383063 0.1286061
000120 06 8c 45 3e 5b 7b 2d 3d b9 db e1 bc 4b d0 9e 3c
       0.19291696 0.04235397 -0.027570592 0.019386431
000130 5a 6f 29 3d f4 8c 9c bd 07 e5 9d bd 67 44 48 be
       0.04136596 -0.07644072 -0.07709699 -0.19557343
000140 44 fb 3c 3e ab e3 93 bd 75 89 30 bc ce 8f 1b be
       0.18455225 -0.072211586 -0.01077496 -0.15191576
000150 2d 29 0d 3b f7 2e 2e 3e b6 75 18 be 29 9d e0 3d
       0.0021539435 0.17010103 -0.14888653 0.10967476
000160 f0 f9 44 3e 7f 41 35 be 3a 82 41 bb 4d 77 18 3d
       0.19235969 -0.17700766 -0.0029527084 0.03722315
000170 c0 86 b4 3c 09 6a 39 3c 77 cf 2f 3e 0f f0 30 3e
       0.02203691 0.011316785 0.17168985 0.17279075
000180 5e f2 c2 3c 88 fa 91 3d 28 23 96 bd 26 2b d5 bd
       0.02379721 0.07127863 -0.07330924 -0.104086205
000190 a5 60 a9 bd 0b 97 19 3e 7b f2 3b 3e 78 8a 13 3e
       -0.082703866 0.14999025 0.18354218 0.1440829
0001a0 40 19 22 3d 9e fb bb 3d af 0f 9d bd 18 0b d7 bc
       0.03957486 0.091788515 -0.07669007 -0.026250407
0001b0 b8 e0 39 be 56 bf 7d 3d 90 64 de bd 63 65 29 3e
       -0.1815213 0.06195005 -0.108590245 0.16542582
0001c0 59 c7 8f 3c 8c d9 da 3d 76 cb 30 bd 21 7c 4a 3d
       0.017551111 0.10686025 -0.043162785 0.049434785
0001d0 80 20 29 be 70 eb 39 be 10 8f d3 bd 80 ce 51 3e
       -0.16516304 -0.18156219 -0.103300214 0.2048893
0001e0 19 dc ad 3d 71 fa de 3d 31 1b 51 3e b1 de be 3d
       0.08489246 0.10887612 0.20420529 0.09319819
0001f0 23 33 ba 3d bf 02 4f bd a4 1c ed bd 2b 7c d9 3d
       0.09091785 -0.05053973 -0.115777284 0.10619386
000200 bd 7e 22 3e 8a c0 2c be 12 98 66 3d f0 79 42 bd
       0.1586866 -0.16870323 0.05629737 -0.04747957
000210 35 c0 27 3e a4 0e 15 bd dd 75 29 bd fb e0 1d bd
       0.16381915 -0.036390916 -0.04137217 -0.038544636
000220 d9 cf 70 bd 74 95 1c 3e 4e 2c c0 bd 53 91 39 3d
       -0.05879197 0.15291387 -0.093834504 0.045304608
000230 ea 39 7e 3b a9 b9 0b 3e 5c 32 b0 3d ff d3 12 be
       0.0038791844 0.13645042 0.08603355 -0.14338683
000240 f9 e2 25 bc 0a 2b d8 3a 57 c2 03 bd cb 40 23 3e
       -0.010124915 0.0016492319 -0.03216776 0.15942685
000250 32 ce 47 3e 5b 00 0b be 25 0b 61 bd a3 0f 45 3e
       0.19512251 -0.13574354 -0.05494227 0.19244246
000260 40 b7 4f 3d b1 d5 a1 bd aa 8a d5 3d e6 fe 2a bd
       0.05071187 -0.079020865 0.10426839 -0.041746996
000270 f9 26 ba bd b9 2e 50 be 4d 05 e4 3d ff 86 83 bd
       -0.09089465 -0.20330323 0.111338235 -0.06422233
000280 3e 0f 1e be eb db 1c be f8 18 f7 bc 73 d8 04 3e
       -0.15435502 -0.15318267 -0.030163273 0.12973194
000290 26 48 db 3d cc 3b 00 3e 1a 43 9a bd 20 c9 1a be
       0.107071206 0.1252281 -0.0753233 -0.15115786
0002a0 0b f3 11 bd 08 37 b0 bd 34 15 98 3d c6 75 01 3e
       -0.035632174 -0.086042464 0.07425919 0.12642583
0002b0 5e 0d 75 bd 20 86 49 be 67 53 21 3e 1e 20 78 3d
       -0.0598272 -0.19680071 0.15754472 0.060577504
0002c0 ea cb f9 bd dd 3f 6e bd b5 05 01 bd 74 5d ec bd
       -0.12197097 -0.058166374 -0.031499583 -0.11541262
0002d0 79 da 2e 3e 0f f1 68 3d 7a 8e 03 be ae 2d ea bd
       0.17075528 0.056870516 -0.12847319 -0.11434494
0002e0 61 b6 b2 bd 96 bf 44 be 06 a0 62 bc 26 cf 6f bd
       -0.08726192 -0.19213709 -0.013832098 -0.05854716
0002f0 2c 4a d8 bd ce 36 99 3c af 42 c4 bd cb 3b d1 3d
       -0.10561022 0.01870289 -0.095830314 0.10216483
000300 1a 04 cc 3d 6b 05 87 bd f8 1f ba bd 78 8a 49 be
       0.0996172 -0.0659283 -0.09088129 -0.19681728
000310 aa 73 a6 bc 76 d8 27 be 19 e8 37 3e fa 2e d7 3d
       -0.020318825 -0.16391167 0.17959632 0.10507007
000320 66 95 22 bb 99 c9 6e bc 2e 78 19 bc 66 b3 3e 3e
       -0.0024808287 -0.014574432 -0.009367032 0.18623123
000330 73 80 c9 bc 6e 61 11 3d e3 de e8 3d db 20 70 3d
       -0.024597382 0.035493307 0.11370637 0.058625083
000340 e5 92 f3 bc f8 d0 ed 3d 09 95 2c be 2e e1 4a 3c
       -0.02973313 0.11612123 -0.16853727 0.012382789
000350 e3 24 5c be e8 cb 9a 3d 0d d2 d3 3d 49 1c 86 bd
       -0.21498446 0.07558423 0.103427984 -0.06548364
000360 45 1f 2b be cc 50 bd bd 68 57 bc 3c 2e d4 1a be
       -0.16711147 -0.092439264 0.022990897 -0.15120003
000370 d9 25 04 bd 9e 99 c6 bd cb c3 fb bd 4e b9 98 3d
       -0.032262657 -0.09697269 -0.12293204 0.07457219
000380 10 2c 09 be 0f 03 9b 3d a4 4c 02 be 20 87 c7 bb
       -0.13395715 0.07568943 -0.12724549 -0.006089106
000390 86 18 2f 3e bd e8 0a be 42 a8 e4 bd 2a 91 a1 3d
       0.17099199 -0.13565345 -0.11164905 0.07889016
0003a0 a0 91 6b 3d 35 7a fe bd c7 04 a6 3d 00 98 1d be
       0.057511926 -0.12425653 0.0810638 -0.15390015
0003b0 45 b5 46 be b5 9a 9b bd 11 67 18 3e a0 cb 12 3d
       -0.19405086 -0.075978674 0.14883067 0.035838723
0003c0 a5 34 0a 3e 91 12 fc 3c 31 83 e6 bc cd ab 3d 3e
       0.13496645 0.030770572 -0.028138729 0.18522568
0003d0 86 58 ba 3d 27 9e 78 3d 33 2b 1c be 0b 22 fc bd
       0.09098916 0.0606977 -0.15250854 -0.12311181
0003e0 3e 69 0f 3e 53 56 48 3e f0 14 5b 3d d0 fd aa 3d
       0.1400499 0.1956418 0.053486764 0.08349192
0003f0 4f 3b 17 be c8 a4 72 bd ab 86 2b bd 24 7d c4 bd
       -0.14768718 -0.05923918 -0.041876476 -0.09594181

conv1.0.bias f4 [16]
000000 1c 7b b3 3d 58 36 07 3e 8d 5a aa 3d 67 31 7c 3d
       0.087637156 0.13204324 0.083180524 0.06157055
000010 70 9f 3b be cd 8a 34 bb 31 cd 01 3e 7b 4e e6 3c
       -0.1832254 -0.0027548552 0.1267593 0.028113594
000020 74 87 56 be 46 f8 89 3c fc ad 28 3e 53 f2 01 be
       -0.20950109 0.016842019 0.1647262 -0.12690096
000030 87 47 20 3e 38 26 26 be 60 1d 37 ba c8 a6 5e 3e
       0.15652286 -0.16225517 -0.0006985273 0.2174331

conv1.3.weight f4 [16]
000000 3d d2 77 3f d6 25 7c 3f e4 6b 83 3f 24 4a 6d 3f
       0.96805173 0.98495233 1.0267301 0.92691255
000010 5e 09 83 3f 87 64 82 3f ab e6 80 3f 6c 3e 70 3f
       1.0237234 1.0186929 1.0070394 0.9384525
000020 26 ff 74 3f 13 11 85 3f 56 06 73 3f 5c 49 8d 3f
       0.95701826 1.0395836 0.9493154 1.1038013
000030 01 36 6f 3f 7d 8f 83 3f bd 61 73 3f 4f ff 7b 3f
       0.9344178 1.0278164 0.9507101 0.98436445

conv1.3.bias f4 [16]
000000 1c 6c a7 bb e2 59 06 3e 7e 1f 09 bc e7 ed d8 3c
       -0.005109323 0.13120225 -0.008369325 0.026480628
000010 b1 58 d0 3d 6f c6 46 bd 06 55 9c 3d 94 49 5e 3c
       0.101731665 -0.048529085 0.076334044 0.013567347
000020 78 03 26 3e d8 dc 2b 3d 82 13 cf bd a0 bc 39 3c
       0.1621226 0.04195866 -0.10111143 0.011336476
000030 4e 67 c5 bb 17 db 70 3d 34 e4 2e 3c d4 ea a9 bd
       -0.006024278 0.05880269 0.010674525 -0.08296743

conv1.3.running_mean f4 [16]
000000 3e 87 eb 3d c3 b5 4c 3e 99 24 0e 3e 5c 05 af 3e
       0.11500405 0.19991212 0.13881148 0.34183776
000010 a7 af ef 3c 82 59 5b 3c 5f 7e b5 3c 47 6a 57 3d
       0.029258562 0.01338804 0.022154985 0.05259159
000020 78 5b c9 35 2e 20 2c 3d aa 31 c2 3e 7c 43 c9 3c
       1.5002288e-06 0.042022876 0.37928516 0.024568312
000030 da 55 28 3e d0 06 82 3c c0 85 c1 3d 3d 9a 2a 3e
       0.16439 0.01587239 0.09449339 0.166604

conv1.3.running_var f4 [16]
000000 82 1e f6 3a 0d a5 0b 3b fd b6 8d 3b 05 d5 00 3d
       0.0018777403 0.0021308095 0.0043247924 0.03145315
000010 e8 31 29 3b 43 b5 5b 3a e8 5a fe 3a 3f bf bc 3a
       0.00258171 0.0008381197 0.0019405754 0.0014400257
000020 b3 b8 b8 33 9b 70 1e 3b d1 12 d4 3c b4 6d ef 3a
       8.601764e-08 0.0024176005 0.025887879 0.0018266947
000030 11 a5 91 3a 19 fd 92 3a 37 71 d4 3b af a6 05 3b
       0.0011111816 0.0011214345 0.006483223 0.002039354

conv2.0.weight f4 [32, 16, 3, 3]
000000 31 21 21 bc a7 11 0e bd ca de 4b bc e3 97 c1 bb
       -0.009834574 -0.034684803 -0.012443254 -0.005907999
000010 6d c2 7c 3d 2a 84 8f 3c 94 2d 58 3d ee 24 92 bc
       0.061708856 0.017519075 0.05277784 -0.017839875
000020 9c 4a 23 bc 05 ac 27 bd f2 c9 b0 bd b9 7c 4c bd
       -0.009966519 -0.040935535 -0.08632268 -0.049923632
000030 1e 7a 72 bc 01 14 0b 3d 85 ce 09 bd a4 24 e6 bc
       -0.014799623 0.033954624 -0.033644218 -0.028093643
000040 57 60 40 bd fc f4 3a 3d 2e aa c0 3d e0 00 07 bd
       -0.046966877 0.04564379 0.09407459 -0.03295982
000050 e5 ee c2 bd af bc 99 3d 32 9d 70 3d 34 12 95 bd
       -0.09518222 0.07506692 0.058743663 -0.072788626
000060 3e ce 83 bd 3b 4f 4b bd 57 4d 92 bd 30 0e be 3d
       -0.06435822 -0.049636107 -0.07143658 0.0928005
000070 1f 66 50 3d 2f 9f 69 bd 37 84 55 bb 08 e1 85 3d
       0.05087864 -0.057036575 -0.0032580027 0.06537062
000080 18 48 b7 bc 23 9b 15 3d a8 3c 1e 3c 01 73 23 3d
       -0.022373244 0.036524903 0.009658016 0.0399046
000090 7c e7 1e 3d 2f 48 1c 3d 93 b7 03 bd e5 f6 e1 bd
       0.03879498 0.038154777 -0.032157492 -0.110334195
0000a0 3a 5f 83 bc 8d f8 0e 3c b3 4b 5f bd 45 26 58 bd
       -0.016036619 0.008726251 -0.05451555 -0.05277087
0000b0 5b e4 88 3c 58 77 c5 3c c7 c8 97 3d 35 23 b9 3d
       0.01671045 0.02410476 0.07411342 0.09039918
0000c0 7c 8a 1f bd 66 0b 89 3d 4f 60 3c 3d 2d a3 c0 3d
       -0.03895043 0.06691627 0.045990285 0.09406123
0000d0 8e 16 d8 3d 06 c7 99 3d f5 b4 76 3d 85 51 a7 3c
       0.10551177 0.07508664 0.060231168 0.020424614
0000e0 9d 2e 05 bd b7 22 0b bd d4 44 3b 3d af c7 82 bc
       -0.032515157 -0.033968654 0.045719936 -0.015964357
0000f0 0c bb 3f 3d 2f 3d 1f 3d 4b ee 85 3d 78 47 75 3d
       0.04680924 0.03887671 0.065395914 0.05988261
000100 08 d5 83 bd 92 b8 04 bd ad 5e 8a 3d 40 a2 74 3d
       -0.06437117 -0.032402582 0.06756339 0.059725046
000110 ad a1 49 bd f6 36 23 3d 4b 20 88 bd 6b aa 3f bd
       -0.04922645 0.039847337 -0.066467844 -0.046793383
000120 c1 6d 2e bd ac e5 20 be 6b 15 99 bd 5e fa 1a be
       -0.04258514 -0.15712613 -0.07474788 -0.1513457
000130 02 94 41 be 4d 42 13 be 60 9c 00 be 0f 3b a3 bd
       -0.18904117 -0.1438076 -0.12559652 -0.07970249
000140 14 5d 2e be 12 28 0b be 3e a4 74 bd e2 36 1b 3d
       -0.17027694 -0.13589504 -0.059726946 0.037894137
000150 ed a7 95 bd 6b 51 5b 3b 26 43 29 3d c1 b8 eb bd
       -0.0730742 0.0033465277 0.041323803 -0.115098484
000160 27 8c f0 bd 2b eb 25 3d 68 33 ab 3d 0c 16 41 bc
       -0.11745482 0.040507477 0.08359414 -0.011785042
000170 ba 53 06 bc 4c 0f 4c bd 19 50 eb 3c 47 47 c8 bc
       -0.008198673 -0.049819276 0.028724717 -0.02444805
000180 3a 14 c0 3d ed a5 3d 3d f4 07 e9 3c 8a 46 c1 3b
       0.09378858 0.046300817 0.028446175 0.0058983015
000190 ec 8a e2 3a b4 ee 71 3d 34 65 a0 bd ce be ba bd
       0.0017283834 0.059065536 -0.07831803 -0.09118424
0001a0 c8 2d e6 bd a4 34 92 bc 34 68 87 3d 12 15 4a 3d
       -0.11239201 -0.017847367 0.06611672 0.0493365
0001b0 cb e7 60 3d 11 e5 8c bc 5b 4f 4a 3d 18 c3 44 3d
       0.054908555 -0.017199071 0.049392086 0.04803762
0001c0 74 1c 5f 3a fb eb e9 3b 6b e2 0b bd 62 3d c4 3c
       0.0008511015 0.0071387268 -0.034151476 0.02395505
0001d0 8e 0d 7a bd 1e cb 66 3d 7b dd 95 bd b8 9c f3 bd
       -0.061048083 0.05634605 -0.07317635 -0.11895126
0001e0 5a 27 22 bd 1b 55 8f bd 93 37 ad bc 8b d2 12 be
       -0.03958831 -0.069986545 -0.021144664 -0.14338128
0001f0 4a 1e 61 bd 97 dc 45 3d e6 ca b8 3c 91 1f 5a bd
       -0.054960527 0.048306074 0.022557687 -0.05325276
000200 8f 0f e7 bc 48 c0 0b bd 77 07 7d bd fc 5f 87 bd
       -0.028205661 -0.03411892 -0.061774697 -0.066101044
000210 82 81 18 bd 73 0f f5 3c 59 17 d5 3c 7c ae 37 bd
       -0.037232883 0.029914593 0.02601211 -0.044844136
000220 3b 42 30 3b a8 85 da 3c 08 b3 e9 3b e0 f3 87 bd
       0.0026894945 0.02667506 0.007131938 -0.06638312
000230 cc fb 31 bd 21 b5 45 3d 50 8c 8a 3d 89 8e 1e 3c
       -0.043453023 0.04826844 0.06765044 0.009677538
000240 aa 1a 09 3d da 5a ca bc 2c e0 d9 3c de ad a9 3d
       0.033472694 -0.024701525 0.026596151 0.08285116
000250 87 bd 6f 3c 72 9b 66 bd 47 3d 96 3c 24 00 41 3d
       0.014632589 -0.056300588 0.018339766 0.047119275
000260 ba 00 83 3d c2 d5 28 bd 11 58 4a 3c 3f d2 59 bd
       0.06396623 -0.04121948 0.012350098 -0.053179022
000270 41 27 9f bd 6c 0f c7 3c 67 e0 f3 bd 8e fa 9e 3c
       -0.07771159 0.024299346 -0.11908036 0.019406583
000280 fa 63 19 bc bc d9 fc bc aa b5 09 3d d1 0d b8 3d
       -0.009362215 -0.030865543 0.033620514 0.0898701
000290 4f c2 92 3d d5 e8 dd 3d 18 b9 4b bd 92 bc 1b 3d
       0.07165968 0.10835425 -0.049737066 0.03802163
0002a0 83 8a c5 3d c9 e4 b0 bb 7c 61 b8 3d 80 e5 87 3d
       0.0964556 -0.005398367 0.09002969 0.066355705
0002b0 0f 6f 79 3a 64 2a 5b bc f1 50 15 bc bf 73 c0 bc
       0.0009515145 -0.013376806 -0.009113536 -0.023492692
0002c0 e2 ec 9e 3d 33 0e 30 3d 1d 9d db bc 23 36 b4 3d
       0.077600256 0.04298229 -0.026808316 0.08799388
0002d0 d5 65 10 3d f3 7c ef 3c a6 f3 3e bd d2 a5 39 3d
       0.035253365 0.029234385 -0.04661908 0.045324154
0002e0 c1 cf 53 3d a1 18 4c 3d 99 fe 81 3d df 09 33 bb
       0.0517118 0.049828175 0.06347389 -0.0027319116
0002f0 89 9d 67 3d b1 1e b4 bb 64 9f b5 bd 71 5c 00 bc
       0.05654672 -0.0054968228 -0.08868292 -0.00783454
000300 5a 49 9a bd c0 15 10 be 35 d3 be bd 51 6c f5 3b
       -0.07533522 -0.14070797 -0.09317628 0.007489719
000310 92 e8 39 bd b4 35 ac bd 9f 74 01 bd af e2 fa bc
       -0.045387812 -0.084086806 -0.03160536 -0.03062567
000320 56 76 88 3d cc 89 d8 3d 41 48 06 3d 3d e3 8c 3d
       0.06663196 0.10573158 0.03278375 0.0687928
000330 2c 36 cd 3c 95 3a 88 bd 77 c8 82 3d 40 90 41 bd
       0.025050245 -0.06651799 0.06385892 -0.04725671
000340 ca 79 94 3d 54 ed 41 3d 89 29 35 bd 47 78 78 bd
       0.07249792 0.047345474 -0.044229064 -0.06066158
000350 93 2a 5a bd 00 a8 01 3a 29 3f b9 bd 12 c2 3d 3c
       -0.05326326 0.00049459934 -0.0904525 0.0115819145
000360 d7 ee dd 3c c6 b9 18 bd b3 67 4b 3d 73 e3 ba bd
       0.027091427 -0.037286542 0.049659442 -0.09125414
000370 0d 01 e5 3c 85 f5 7a bc d1 77 90 bc 02 b3 ae bd
       0.027954603 -0.0153173255 -0.017635258 -0.08530237
000380 db a8 5b bd 55 41 0a 3d 49 81 b2 bd 95 d3 87 bd
       -0.05362783 0.03375371 -0.087160654 -0.06632153
000390 cb 9e 3b 3d 9f 77 e7 bb fb c3 a2 bd 53 2c b6 3d
       0.045805734 -0.0070638205 -0.079475366 0.08895173
0003a0 6e b8 c6 bc b7 36 b9 bc cd 3d 14 3d e9 bc e4 bc
       -0.024257865 -0.022609098 0.03619175 -0.02792211
0003b0 4b e9 c6 3d 9f d5 d7 3d bf cf e6 3d 0d e6 03 bb
       0.09712466 0.10538792 0.11270093 -0.0020126135
0003c0 60 8d 0d 3c 1e 90 fb 3d 21 b5 7b 3d 73 3b c5 3c
       0.008639663 0.122833475 0.061452035 0.0240762
0003d0 d7 64 50 3d 80 d8 a6 3d a8 21 78 bd 01 fa 12 bc
       0.05087742 0.08146763 -0.060578972 -0.008970738
0003e0 f6 98 6e bc d8 37 f3 3c 94 e0 b9 3c 12 bf 19 3d
       -0.014562836 0.029689714 0.022690095 0.037535734
0003f0 a8 22 91 3d f0 19 3a 3d 89 61 48 3d 01 d7 49 3d
       0.07086688 0.045434892 0.04892114 0.04927731

conv2.0.bias f4 [32]
000000 07 03 aa bd 67 df 8b bd e9 9a ce bd 1a 82 9c 3d
       -0.08301359 -0.0682972 -0.100881405 0.076420024
000010 d2 f6 c6 bd 32 f1 8e bd ce 1f 9e 3d 5c 9d 44 3c
       -0.09715046 -0.06979598 0.0772091 0.012000408
000020 58 7f d3 bd 93 ee 03 3c 75 7d c8 3c 27 61 09 be
       -0.10327023 0.008052486 0.024473885 -0.13415967
000030 ca 49 af bc 02 af c6 bd e9 aa 6d be 81 66 b0 bc
       -0.02139749 -0.09701349 -0.23209728 -0.021533253
000040 51 a5 7c bd c3 15 a0 bc 55 7d a7 bd 24 20 a9 3d
       -0.061681096 -0.019541627 -0.08178202 0.082580835
000050 a1 01 a2 3b 10 44 da bd 2c 52 8b bd 5e 86 98 bd
       0.004944042 -0.10657513 -0.068027824 -0.074475035
000060 fa e1 a6 3c 15 50 1c be 77 e8 d7 bd f2 1e c2 3c
       0.020371426 -0.15264924 -0.10542386 0.023696396
000070 1d f3 e5 bd bb f0 08 be e5 e9 f5 bd 3e 53 d9 bd
       -0.11228011 -0.13373081 -0.120075025 -0.1061158

conv2.3.weight f4 [32]
000000 08 5f 82 3f fb 47 72 3f 09 23 82 3f a7 c2 6e 3f
       1.0185251 0.94641083 1.0166942 0.93265766
000010 1d 22 7c 3f 11 e4 77 3f 90 ae 70 3f d6 23 81 3f
       0.9848955 0.96832377 0.9401636 1.0089061
000020 db f2 7b 3f d2 5d 81 3f 66 c2 7e 3f c4 57 7c 3f
       0.98417443 1.0106757 0.9951538 0.9857142
000030 59 f9 82 3f 6b fe 7f 3f 3c db 83 3f 16 80 81 3f
       1.0232345 0.99997586 1.030128 1.0117214
000040 3e 3e 5a 3f e4 e2 6e 3f fd d5 80 3f 5b 16 74 3f
       0.85251224 0.9331496 1.0065304 0.9534661
000050 e7 2b 76 3f ca 5a 6f 3f ef a6 81 3f 80 64 83 3f
       0.9616074 0.9349791 1.0129069 1.0265045
000060 17 a2 80 3f d0 34 83 3f d7 aa 81 3f 6f 6d 6a 3f
       1.0049466 1.0250492 1.0130261 0.9157323
000070 2b 76 70 3f ce 0a 7e 3f 3b 93 74 3f b0 09 73 3f
       0.9393031 0.99235237 0.95537156 0.94936657

conv2.3.bias f4 [32]
000000 6b 38 cd 3b e7 84 9e 3e 1d 3b 16 3d c7 68 01 be
       0.006262829 0.3096077 0.03667747 -0.12637626
000010 7b cf fc 3d 24 80 ec bd 7b 8e d0 3e cf 65 95 3c
       0.12344261 -0.115478784 0.40733704 0.018237023
000020 f8 79 82 bd bb 97 48 3e e3 73 9c bd 52 a9 e6 3e
       -0.0637092 0.1958913 -0.07639291 0.45051056
000030 a6 3e 10 be 3b aa 1f 3e ab c3 96 3e 66 94 f1 bd
       -0.14086398 0.15592282 0.29446158 -0.11795883
000040 1e 22 12 3e 6c 68 56 bc 8b d6 0a bd 8f 2d a7 bd
       0.14270827 -0.01308642 -0.03389601 -0.081629865
000050 53 a2 1d 3e 35 3d 26 3e 5d b6 93 3e 3a ad f3 3d
       0.15393953 0.16234286 0.2885007 0.11898275
000060 04 22 84 3e 27 7d 91 3e ba c2 ae bd 21 0b e5 bd
       0.25807202 0.28415796 -0.08533235 -0.11183763
000070 ec 73 9e 3e d0 07 50 3e 5c cf 6c 3e 3c 16 b3 3e
       0.30947816 0.2031548 0.23125976 0.349779

conv2.3.running_mean f4 [32]
000000 7d 12 3a 3e 34 b8 3b 3f 12 16 49 3e 79 0d 60 3f
       0.18171115 0.73327947 0.19637325 0.8752056
000010 bb 59 9e 3e da 8c 67 3e 57 c2 e0 3e 3d ca a9 3e
       0.30927834 0.22612324 0.4389827 0.33162108
000020 2e 82 b2 3e f4 47 14 3f 83 08 38 3e 18 01 2f 3e
       0.34864944 0.5792229 0.17971997 0.17090261
000030 7d ef fd 3e d0 a7 e4 3e 5c 48 ba 3d 6e 57 87 3e
       0.49596778 0.4465928 0.09095833 0.2643389
000040 62 4d 3f 3f b1 6e ec 3e 1d a3 5b 3e 1a f7 0a 3f
       0.7472745 0.461782 0.21448942 0.542833
000050 5a 79 d1 3e b1 79 d3 3e 0d 4d 1c 3f 53 44 5f 3e
       0.40912896 0.4130378 0.6105507 0.21803407
000060 f1 71 05 3f 8c 72 6c 3e 9e 56 a5 3e 70 45 94 3e
       0.52126986 0.23090571 0.32292646 0.28959227
000070 f0 89 0a 3e fc 40 b8 3e ae fc e4 3e 2b 73 0f 3e
       0.13529181 0.3598708 0.4472403 0.14008777

conv2.3.running_var f4 [32]
000000 99 4e a6 3d fd df b6 3f fa f0 c4 3d a3 05 8d 3f
       0.0812046 1.4287106 0.09616275 1.1017345
000010 75 2f 8e 3e 73 22 a6 3d e7 f4 36 3e c4 17 a8 3e
       0.27770582 0.081120394 0.1786686 0.32830632
000020 9f 26 c8 3e 47 d2 8c 3e 62 4b d3 3d 91 77 ba 3d
       0.39091966 0.2750418 0.103171125 0.09104837
000030 02 6b 95 3e dc b6 32 3f 08 45 ea 3d 58 8a 03 3e
       0.29183203 0.6981027 0.11438948 0.12845743
000040 65 df ac 3f d9 96 e6 3e 60 2c 2a 3e 09 73 d5 3e
       1.3505675 0.45036963 0.1661849 0.41689327
000050 a0 54 40 3e 64 9b 12 3f ae 32 45 3f 35 7a 04 3e
       0.18782282 0.5726836 0.77030456 0.12937243
000060 7b 4a da 3e 09 0b 13 3e 1e 33 21 3e 95 6a e2 3d
       0.4263495 0.14359678 0.15742156 0.11055485
000070 ee 40 2c 3e 9b 5b 04 3f b4 c6 c5 3e f9 ea 97 3d
       0.16821644 0.5170228 0.3862816 0.07417864

conv3.0.weight f4 [64, 32, 3, 3]
000000 74 3e db bc 5a 5d e4 bc 2f 8b 59 bd 84 a4 18 bd
       -0.026763178 -0.027876545 -0.05311125 -0.03726627
000010 8a 2a 1e bd a8 16 82 bd 39 46 88 bd 69 d6 31 bc
       -0.038614787 -0.063519776 -0.06654019 -0.010854342
000020 f0 88 03 be 50 e4 26 bd 6b ee 45 3d df 49 fe 3b
       -0.12845206 -0.04074508 0.048323076 0.007760271
000030 b0 1b 06 bb 76 d9 07 bd 1d 4e 8c bb e8 23 1c 3c
       -0.002046328 -0.03316637 -0.0042817728 0.009530045
000040 df 14 fc 39 20 84 90 3d 2a 97 f0 bc 31 2e db bc
       0.00048080736 0.07056451 -0.029368956 -0.026755424
000050 7f 23 d5 bd 80 46 a4 3b 74 17 38 bc 06 27 06 bd
       -0.10407161 0.005013287 -0.01123606 -0.03275206
000060 e2 04 bd bd d4 f0 bc bb 5f f8 5d bd 55 a2 1d 3d
       -0.09229447 -0.0057660136 -0.054191943 0.03848489
000070 bb c1 f5 bc 83 dc 92 3d 31 4e bf 3a a4 37 d5 bc
       -0.029999604 0.071709655 0.0014595446 -0.026027508
000080 c6 c9 30 3c 67 01 70 bc 11 fa aa 3b b4 1d b6 bc
       0.010790294 -0.014648772 0.0052177985 -0.02223096
000090 c3 35 92 bd c2 49 7c bd 4d 8e 9f bc 9c 10 5c bc
       -0.071391605 -0.06159378 -0.019477034 -0.013431694
0000a0 14 bb 72 bd 9f 81 07 bd ad a6 c2 bc 87 84 16 3b
       -0.059260443 -0.0330826 -0.023761118 0.0022967176
0000b0 01 67 08 bc f1 74 9d bc 65 5c 6b bc ea 00 89 bc
       -0.008325339 -0.019220801 -0.01436529 -0.016724069
0000c0 63 77 bf 3c e1 4c be 3c 6e 81 18 3c af ce 11 bc
       0.023372358 0.023230018 0.009308202 -0.008899375
0000d0 7c 83 01 3d e1 5e 19 3c d7 7f d8 bb 76 9d b8 bd
       0.031619534 0.009361 -0.0066070366 -0.09014408
0000e0 d4 7a e0 bc 7a a7 9e 3b dd 2d 9e bd 13 70 4e bd
       -0.027402319 0.004841742 -0.077235915 -0.05039985
0000f0 55 bb 89 bd c4 7f fd bc e7 6c 89 bd 90 62 dc bc
       -0.06725184 -0.030944712 -0.067102246 -0.026902467
000100 57 e4 c3 bc 86 31 c6 bc b4 8e b3 bc d8 c5 0f 3d
       -0.023912592 -0.024193536 -0.021918632 0.035100788
000110 c3 c9 eb bc 18 39 eb b9 b7 8d 79 3d 15 40 39 3d
       -0.02878273 -0.0004486523 0.060926165 0.04522713
000120 11 8a 15 3c cc 62 a0 3d d5 f5 80 3d fd b2 88 3d
       0.009127156 0.07831344 0.06296889 0.06674764
000130 cf 8a 2f 3d fd c2 06 3d 51 50 3b bd 52 cf 78 3d
       0.042856988 0.0329008 -0.045730893 0.06074459
000140 b7 1c 48 3d bb 94 ca 3c b0 4e 0a 3c 06 d6 aa 3c
       0.04885551 0.024729123 0.008441612 0.020854007
000150 d8 7a 89 bb 47 c3 5b 3d 9c 01 d0 3c bb 58 a1 3c
       -0.0041955523 0.053653028 0.025391392 0.01969563
000160 ee 27 cb 3c 2b 2f 3c 3d fe 19 9d bc a2 24 a3 bc
       0.024799313 0.04594342 -0.019177433 -0.019914929
000170 84 a4 d1 3c 3a 8b 93 bb 0d 97 c3 bc 97 7d 7a 3c
       0.025591142 -0.004502681 -0.023875738 0.015288732
000180 96 82 2f bd 7b 1d f2 bb f6 5e bc bc 6f fd 3a bd
       -0.042849146 -0.0073887683 -0.0229945 -0.04565185
000190 65 4e 66 bd 46 2b 86 bc 2b 4b 85 bd 85 68 b0 bd
       -0.056227107 -0.016378056 -0.06508478 -0.086136855
0001a0 c1 99 5c bd f5 b0 91 bd 9c 17 cc bd c6 6a 86 bd
       -0.05385757 -0.0711383 -0.09965441 -0.06563334
0001b0 4f 81 8a bc 0c 90 fd 3c 71 b4 7c 3c 80 d6 2b bd
       -0.016907362 0.030952476 0.01542388 -0.04195261
0001c0 c8 22 dd 3c 2c 6a d5 bc 36 2e 30 bd 7f d6 d1 3b
       0.026994124 -0.026051603 -0.04301282 0.0064037438
0001d0 44 4d 0c bd d6 17 ba bd 62 be 67 bd 67 7a 72 bd
       -0.034253374 -0.090865776 -0.056578048 -0.059198763
0001e0 46 3e ad bd f4 f4 34 bd ed 0c 22 bc 8e 82 94 bd
       -0.08459143 -0.044178918 -0.009890777 -0.07251464
0001f0 47 d0 e2 3c 75 15 82 ba 7c 09 96 3c db 95 5e 3d
       0.027687205 -0.0009924608 0.01831507 0.054342132
000200 18 88 fd 3c 26 80 8b ba c3 25 3f 3c 3e 1b d9 3c
       0.030948684 -0.001064305 0.011666718 0.026502248
000210 05 08 f4 3c 8b 88 5e 3d 54 58 a1 3b 23 fd c9 bc
       0.02978898 0.054329436 0.0049238596 -0.024656838
000220 24 1f c5 bc 28 23 16 3c bd f5 88 bc f3 33 52 bc
       -0.0240627 0.009163655 -0.01671874 -0.0128297685
000230 f2 c3 29 bd cb ab 54 bd fd f2 32 bb 59 e5 71 bd
       -0.041446634 -0.051921647 -0.0027305477 -0.059056614
000240 81 71 85 3d 94 ad 13 3b fa b5 b6 bc 8f 16 c3 bc
       0.0651579 0.002253388 -0.02230357 -0.023814468
000250 a1 de dc 3c e2 28 8a 3c 96 21 e3 bc bb 0b 50 3d
       0.026961626 0.016865198 -0.027725976 0.050792437
000260 b9 c1 3d 3d c0 bb cd 3c 5c a5 57 3d cf a8 68 3d
       0.046327326 0.02511394 0.052647933 0.056801613
000270 90 ae 93 3c 79 ee 8a 3d 73 00 00 bd 9b 5a 23 3d
       0.018027574 0.06783766 -0.03125043 0.03988133
000280 66 0e 95 3d cb 3a 66 3d c0 55 eb 3a 4d 2d 4c 3d
       0.07278137 0.056208413 0.0017954633 0.04984789
000290 6d b3 80 bc f8 36 22 3d be 68 0e 3d 36 49 1b bd
       -0.015710557 0.039603204 0.03476786 -0.037911616
0002a0 56 e4 00 bc 7c a8 01 3c 49 e6 b3 3c 47 d3 98 bd
       -0.0078669395 0.007913705 0.021960394 -0.07462173
0002b0 4e af 27 bd fe 65 f6 3c 29 b5 42 bd f3 62 eb bc
       -0.040938668 0.03007793 -0.04753605 -0.028733706
0002c0 0d 4f 7f bc 8e 54 0d bb 28 8b 01 3d 9e bb 6e bb
       -0.015582812 -0.002156529 0.03162685 -0.0036427747
0002d0 55 c6 5e 3c e5 ed 84 bc 5c 4a 4a bd 8f ca 0f bd
       0.013597091 -0.016226718 -0.04938732 -0.035105284
0002e0 7c 9b 6b bc 60 b3 5c bd 3f 63 06 bd ca b3 64 3c
       -0.014380332 -0.053882003 -0.032809492 0.013958881
0002f0 f2 66 ad 3b ec 90 26 bd 36 5b 47 bd 53 04 af 3c
       0.005291813 -0.040665552 -0.04867097 0.021364367
000300 4e fb 85 bb 59 51 bd bb e7 02 5b bd 14 f3 c4 3b
       -0.0040887957 -0.0057775197 -0.053469565 0.0060104225
000310 9b 98 06 3c 70 05 4e bd 30 5b a8 3c 9e 70 36 b7
       0.008215095 -0.050298154 0.020551294 -1.0874266e-05
000320 5e 2e 77 3d 0e cc 51 bc 1e 0b a6 3d f2 65 73 3d
       0.060346954 -0.012804998 0.08107589 0.059423395
000330 34 3d 47 bc 2e 6b 8a bc ed a2 78 3c 9c 67 97 bc
       -0.012160588 -0.01689681 0.015175563 -0.018482022
000340 53 f3 75 bd 4b 77 ca bd e9 c0 57 bd 3c 4e 3a bd
       -0.060046505 -0.098860346 -0.052674208 -0.045484766
000350 0c 78 0f bd 72 92 58 bd 05 31 79 bd ae 0b df bd
       -0.035026595 -0.052874036 -0.060837764 -0.108908996
000360 a0 67 52 bd fc b7 33 bd cf d8 a0 bd 5b 37 4e 3c
       -0.051368356 -0.043876633 -0.07853853 0.01258644
000370 a5 43 8d bb f6 c6 55 bd 46 8a 26 bd e1 51 52 bd
       -0.0043110424 -0.052191697 -0.04065921 -0.051347617
000380 84 7d 3c bd 82 6d 12 3c 1a 6b 69 3d 8d 6c 3b bc
       -0.04601814 0.0089372415 0.056986906 -0.011439455
000390 5b 10 dd bc 63 97 d5 3c ac 1c 3a 3c c8 21 4e bd
       -0.026985338 0.026073163 0.011359375 -0.050325185
0003a0 b9 da 53 3d 89 00 15 bd 48 94 4d bd 77 65 d7 bc
       0.051722262 -0.036377463 -0.05019024 -0.0262935
0003b0 02 bb d0 bc 43 d9 d7 bc 53 f0 71 bc 48 d7 c8 b8
       -0.025479797 -0.026348716 -0.01476677 -9.5768424e-05
0003c0 31 67 92 bd 38 78 82 bd d2 7b f6 bb fe 5e 62 bc
       -0.071485884 -0.06370586 -0.0075220848 -0.013816593
0003d0 a7 6d 1a bd f3 0c 54 bd d1 61 b6 3b d0 b9 36 bd
       -0.03770223 -0.05177016 0.00556586 -0.0446108
0003e0 92 89 7c bd 7c 32 40 bd c6 d3 ea bb 95 5c 3b 3c
       -0.061654635 -0.046923146 -0.0071663586 0.0114356475
0003f0 1c 77 26 bd f8 43 a3 bd 01 cf ab bd ae bc b9 bd
       -0.040640935 -0.079719484 -0.08389092 -0.09069191

conv3.0.bias f4 [64]
000000 62 b1 19 be ed 86 13 bd 28 92 9c bd 67 11 06 be
       -0.15009072 -0.036017347 -0.076450646 -0.13092576
000010 5f c9 28 bd c2 58 8a bc 3c 60 c6 bd 90 88 c9 bd
       -0.041207667 -0.016888026 -0.09686324 -0.098405
000020 34 88 e6 bc 15 32 c2 bd 7f 6c 30 3d 98 7b d6 bd
       -0.028141119 -0.09482209 0.04307222 -0.104727924
000030 e2 aa 66 bd 09 1e c1 bc 87 2b 15 be 91 c9 1c bd
       -0.05631531 -0.023573892 -0.14567386 -0.038278166
000040 f7 61 f3 bd 68 65 f4 bd d7 5c 8b bd 30 63 03 be
       -0.1188392 -0.11933404 -0.06804817 -0.12830806
000050 ec 35 e1 bd 62 dd cf bd 92 47 a4 bd 68 f7 b1 bd
       -0.10996613 -0.10149647 -0.080214635 -0.08689767
000060 f9 8f 60 bd 14 14 98 bd 45 09 41 be 48 fb 7a bd
       -0.054824803 -0.074257046 -0.18851192 -0.061274797
000070 42 58 58 be 71 6e 5d bd 06 bc 23 be 2b 53 5c bd
       -0.21127418 -0.054060403 -0.15989694 -0.053790253
000080 30 40 6e bd 03 3a 2c be 96 c9 ec bd 72 65 10 be
       -0.058166683 -0.16819005 -0.11561887 -0.14101198
000090 56 b2 06 bb 5c 00 33 bd be ee 00 be 9d 52 d9 bd
       -0.0020553074 -0.043701515 -0.12591073 -0.1061146
0000a0 f4 a0 ae bd 87 81 46 bc d4 58 fe bd 38 d7 8d bd
       -0.08526793 -0.012115843 -0.12419286 -0.06925815
0000b0 f7 0a 29 bd 4f 5e 8f bd 29 e8 67 bc 1c d0 ae bc
       -0.041270223 -0.0700041 -0.014154472 -0.021339469
0000c0 8d f3 3c bc a8 d3 be bd d6 0e d7 bd e7 1e 9a bd
       -0.011532676 -0.09317714 -0.105008766 -0.075254254
0000d0 fb ce f0 bd 8f 45 0d bd 1c 0f 94 bc 74 0e c2 bd
       -0.117582284 -0.034490164 -0.018073611 -0.09475413
0000e0 63 92 be bc 80 85 13 bd ac 0c 2e bd 5c 86 9d 3c
       -0.023263162 -0.036015987 -0.042492554 0.019229107
0000f0 52 43 58 3a 20 cf a7 bd 24 76 05 be b5 87 fa bd
       0.00082497776 -0.08193803 -0.13033348 -0.12232915

conv3.4.weight f4 [64]
000000 bb 93 89 3f 82 9d 87 3f c9 1f 96 3f ce 4f 96 3f
       1.0748209 1.0594943 1.172845 1.1743104
000010 60 03 95 3f 08 9b 96 3f 7c 93 98 3f fa 5b 85 3f
       1.1641655 1.1766062 1.1920009 1.0418694
000020 5f 7e 74 3f ba 8d 98 3f d7 95 96 3f dc 9f 7d 3f
       0.95505327 1.1918252 1.1764477 0.9907205
000030 73 f0 95 3f 27 12 84 3f 91 56 86 3f 33 d8 92 3f
       1.1714004 1.031804 1.0495168 1.1472229
000040 33 4f 83 3f bc b5 87 3f ed 1f 95 3f ea ce 92 3f
       1.0258545 1.0602336 1.1650368 1.1469395
000050 5b b3 82 3f 32 ac 9a 3f b6 e2 96 3f 75 7e 99 3f
       1.0210985 1.20838 1.1787937 1.1991717
000060 08 02 84 3f 0e 49 86 3f 47 41 83 3f 6e 00 9c 3f
       1.031312 1.0491045 1.0254296 1.2187631
000070 6c 65 87 3f ca 1c 95 3f bc 4b 83 3f 09 3a 80 3f
       1.0577826 1.1649411 1.0257487 1.0017711
000080 e1 c6 8f 3f 51 e3 87 3f e5 df 82 3f eb b9 84 3f
       1.1232568 1.0616246 1.0224577 1.0369238
000090 29 35 74 3f 75 0f 9a 3f d6 51 98 3f 19 c5 96 3f
       0.95393616 1.2035967 1.1899974 1.17789
0000a0 50 6a 87 3f 3c 8e 80 3f 74 76 84 3f 99 b4 94 3f
       1.0579319 1.0043406 1.0348649 1.1617614
0000b0 84 9c 88 3f 84 4b 9a 3f 0e 88 94 3f 56 ed 7c 3f
       1.0672765 1.2054296 1.160402 0.98799646
0000c0 e3 fb 92 3f d8 54 9a 3f 4a 47 86 3f 0e d1 98 3f
       1.148312 1.2057142 1.0490506 1.1938798
0000d0 f1 5a 7f 3f c5 16 92 3f 6a 5d 9d 3f f6 a7 86 3f
       0.9974814 1.1413199 1.2294133 1.0520008
0000e0 9a c6 82 3f ed 66 99 3f 45 29 95 3f 8d 62 77 3f
       1.0216858 1.1984535 1.165322 0.9663475
0000f0 75 7e 97 3f 58 a7 97 3f 3e a2 80 3f 95 36 93 3f
       1.1835467 1.1847944 1.0049512 1.1501032

conv3.4.bias f4 [64]
000000 15 8e 06 3b c8 c6 0e 3c 34 0b 78 bb 5f e5 88 bc
       0.0020531465 0.008714385 -0.0037848474 -0.016710935
000010 45 5a 88 bb 0b 4a fe ba 2c b9 c3 bb 94 e8 6c 3b
       -0.0041611516 -0.0019400729 -0.005973002 0.003614937
000020 e2 0a f8 ba 9b 7a 60 3b 1e de e4 3a 34 62 e2 ba
       -0.0018924142 0.0034252766 0.0017461216 -0.0017271698
000030 2e 91 dd bc 5e 34 04 bc 21 e1 88 3c a0 df 58 bc
       -0.027046766 -0.008069126 0.016708912 -0.01323691
000040 23 59 72 3c f9 a4 80 3c 50 6a ad 3b 81 75 d0 bc
       0.01479176 0.015703665 0.0052922145 -0.025446655
000050 cb 27 08 bb e5 31 41 bc 57 47 1a 3c 5e c3 9a bc
       -0.0020775672 -0.011791681 0.009416423 -0.018891986
000060 ec 49 f1 bc fa 4a 02 bb a4 be 6e bb 7b ae dd bc
       -0.029454194 -0.0019881115 -0.0036429549 -0.027060738
000070 ff 28 8d bc 75 5a 46 bc aa 8e b6 3b ee e3 17 bb
       -0.017231463 -0.012106528 0.005571206 -0.0023176628
000080 fb df 06 3c 6e 26 f6 3b 45 40 7b bb 9c 1d a1 3c
       0.008232112 0.0075119054 -0.0038337868 0.01966744
000090 fa 5a e3 bc d0 6e c9 bb c7 ae 49 bc ba bb 8c bc
       -0.027753342 -0.006147243 -0.012309737 -0.017179359
0000a0 8a 66 ec 3a 7b d1 b2 3c 7e 11 fa 3c 26 e9 0c bc
       0.001803593 0.021828404 0.030525919 -0.008600509
0000b0 9b 29 95 3c 1a 37 6f bc ae b7 f0 bb 2e 0f 2c 3c
       0.018208316 -0.01460054 -0.007346115 0.010501666
0000c0 8f 81 fb bc 2b c2 5c ba a0 78 02 3c e5 c3 a0 3b
       -0.030701427 -0.0008421267 0.00796333 0.004906165
0000d0 3c 23 9c ba f2 c6 df bb 00 32 ff bb 3b 40 24 ba
       -0.0011912356 -0.006829136 -0.007787943 -0.00062656746
0000e0 25 4e b3 3c f9 79 a6 3b ab 81 83 bb 83 06 d1 bb
       0.021887848 0.0050804582 -0.0040132604 -0.00637895
0000f0 47 73 aa 3b 7c b6 55 3b f2 9d e4 3c fb 59 05 3c
       0.0052017304 0.003260999 0.027907345 0.008139129

conv3.4.running_mean f4 [64]
000000 a0 4e 75 3e 5d 3b 1f 3e 71 63 57 3e 24 d3 15 3e
       0.23955774 0.15549989 0.21034028 0.14631325
000010 e5 d2 61 3e fb d0 37 3e 02 51 43 3e 85 f4 8a 3e
       0.22053106 0.17950813 0.19073871 0.2713968
000020 15 35 ab 3e 2f a1 2c 3e 03 be 97 3e 68 b1 06 3f
       0.33438936 0.16858362 0.29637155 0.5261445
000030 a8 4a 80 3e e0 d0 dc 3d a6 21 fb 3d 4d 88 68 3e
       0.25056958 0.10782027 0.12262277 0.22708245
000040 59 d6 80 3e a5 62 0e 3e e8 58 4e 3e 0b c6 10 3e
       0.25163534 0.13904817 0.20151103 0.14138047
000050 06 6b 4f 3e 82 9b 25 3e 60 17 7d 3e 1b 20 2f 3e
       0.2025567 0.16172603 0.24715948 0.17102091
000060 e1 13 31 3e a1 23 8e 3e 2f e2 28 3e 62 c2 46 3e
       0.1729274 0.27761558 0.16492532 0.19410089
000070 54 73 a4 3d 15 62 88 3e e4 43 47 3e 52 c1 05 3f
       0.080298096 0.2663733 0.19459492 0.5224811
000080 0d 48 6a 3e 84 6c c5 3d 29 a6 a2 3d 87 8a 61 3e
       0.22879048 0.09639838 0.07941849 0.220255
000090 56 2b 43 3f 12 e4 2c 3e a5 25 3f 3e 96 5e 77 3e
       0.76238 0.16883877 0.18666704 0.24157175
0000a0 46 6b a2 3e 41 9f 59 3f fb 5f a8 3d 14 e5 52 3e
       0.31722468 0.8500863 0.08221432 0.20595199
0000b0 d5 1e 87 3e 03 b3 66 3e 90 bc 88 3e 16 98 d3 3e
       0.2639071 0.22529225 0.26706362 0.4132697
0000c0 b5 8a 7b 3e 01 96 22 3e d0 af 65 3e be 56 73 3e
       0.24564631 0.15877534 0.22430348 0.23763558
0000d0 ff 0d 8c 3e f2 f0 01 3f 95 8d 47 3e 0a 09 7f 3e
       0.27354428 0.5075828 0.19487603 0.24905792
0000e0 36 6d bb 3e ee 83 36 3e 85 dc 4d 3e c2 34 8a 3f
       0.3660676 0.17823765 0.20103653 1.079735
0000f0 6f 83 60 3e fb 01 36 3e fc 30 14 3e dd 66 4f 3e
       0.21925138 0.17774193 0.14471811 0.20254083

conv3.4.running_var f4 [64]
000000 1e 06 28 3f 2b a8 84 3e 5a 80 57 3f c6 78 eb 3e
       0.65634334 0.25909552 0.84180224 0.4599058
000010 30 c5 6b 3f 37 f3 1a 3f cb d3 2e 3f f3 1e f8 3e
       0.9209776 0.60527366 0.6829192 0.48461112
000020 86 dc 34 3f f6 d9 1b 3f 34 ef 92 3f 81 cd 1b 40
       0.7064899 0.60879457 1.1479249 2.434418
000030 2c 21 78 3f 72 43 0c 3e 0b de 28 3e e5 fa 5c 3f
       0.96925616 0.13697603 0.16490953 0.86320335
000040 25 a1 e6 3e 9a 7d 6a 3e 06 4f 57 3f 23 55 f6 3e
       0.4504482 0.22899476 0.84104955 0.4811183
000050 33 f0 af 3e 97 bf 0c 3f 2b 46 76 3f 48 ed 28 3f
       0.34362945 0.5497984 0.9620082 0.6598706
000060 15 f3 8b 3e 4c 04 09 3f 6d e2 15 3f d9 ce 35 3f
       0.27333894 0.5352218 0.58548623 0.7101875
000070 43 2e ce 3d e9 29 81 3f bd db 93 3e 5e c3 ab 3f
       0.100674175 1.0090915 0.28878585 1.3418996
000080 46 db 5c 3f 1d 27 0b 3e 90 58 c0 3d f4 18 e9 3e
       0.86272085 0.1358914 0.09391892 0.4552685
000090 79 3c 18 40 e5 ca 15 3f a7 9d 28 3f 61 8d 78 3f
       2.378691 0.5851272 0.6586556 0.9709073
0000a0 8c 47 18 3f 1f 8b 86 40 37 4d c8 3d b1 9a 65 3f
       0.5948417 4.2044826 0.097803526 0.89689165
0000b0 8a 95 fe 3e 2e be 79 3f 5d a3 7d 3f 28 9b b4 3f
       0.49723464 0.97555816 0.990774 1.410985
0000c0 a0 a0 6e 3f 5a 85 fa 3e cb aa e7 3e 00 08 7a 3f
       0.93213844 0.48929864 0.45247492 0.9766846
0000d0 bd 9a 18 3f 57 4e 23 40 76 3f 38 3f 09 e1 e0 3e
       0.5961111 2.5516565 0.71971834 0.43921688
0000e0 fa 37 68 3f 30 2d fe 3e 0b 52 18 3f bf d3 bf 40
       0.90710413 0.4964385 0.5950019 5.994598
0000f0 80 37 48 3f d0 e7 1f 3f 02 88 5c 3e 69 8a 47 3f
       0.78209686 0.6246309 0.21536258 0.7794557

fc.0.weight f4 [32, 64]
000000 30 9c 1b 3e 5e e7 24 3e 39 b4 8b bc cd d2 9d bd
       0.151963 0.16103885 -0.01705371 -0.07706223
000010 9f 18 74 be 06 29 d0 bc 5f 96 c3 bd ed bd 46 b9
       -0.23837517 -0.025410186 -0.095501654 -0.00018953504
000020 ed c7 4b 3d 6f 52 d8 bd 14 ea 3d be 73 56 e1 bd
       0.04975121 -0.10562598 -0.18546325 -0.11002817
000030 21 f2 18 be 8f cf 91 3d 91 99 e9 3d 10 13 4b be
       -0.14936115 0.07119667 0.114062436 -0.1983149
000040 07 13 df 3c dd d5 79 3d f7 52 26 be d4 64 0e be
       0.027230753 0.06099497 -0.16242586 -0.1390565
000050 fc 75 61 bd 07 b5 4d bd 58 04 b3 bd 1f 58 84 be
       -0.05504416 -0.05022147 -0.08741063 -0.2584848
000060 8c 4b d2 3d f8 38 10 bc 87 51 09 bd 48 98 18 be
       0.10268316 -0.008802645 -0.033525016 -0.1490184
000070 a2 8d 11 3e 81 60 cb bd a9 ab 08 3c 6c ce f0 3d
       0.14214185 -0.09930516 0.008341708 0.11758122
000080 61 a2 86 bc 58 be 2d 3d f3 76 98 3d ef f1 11 3e
       -0.01643485 0.042417854 0.07444563 0.14252447
000090 1b 8d 8b 3d d7 d1 43 be cb d6 94 bd 2c c4 57 be
       0.06814023 -0.19123016 -0.07267531 -0.21070927
0000a0 27 35 c2 3d 93 b0 52 3d 69 f4 c3 3c e8 84 04 be
       0.09482794 0.051437926 0.023920255 -0.12941325
0000b0 65 78 10 3e ee 8b 81 be 44 e9 25 be 89 a3 5e 3c
       0.14108427 -0.2530207 -0.16202265 0.0135887945
0000c0 c0 a4 d8 bc 82 f5 13 be 3b 5a 27 3d 6a 62 2f be
       -0.026445746 -0.14449123 0.040857535 -0.17127386
0000d0 1a 32 94 3d 3e fa 40 be 45 73 e4 bd 36 d8 f7 3d
       0.072361186 -0.1884546 -0.111547984 0.12101786
0000e0 89 5d 74 3d 3f d4 83 bd 27 3d 4b be ba 8c 32 bc
       0.059659515 -0.06436967 -0.19847547 -0.01089781
0000f0 a6 07 bf bd 51 a6 a1 bd e1 7e 31 bc 59 68 1e be
       -0.09327631 -0.078930505 -0.010833473 -0.15469493
000100 be e5 80 bc 62 b9 41 3c df a8 e4 bd 25 83 41 be
       -0.01573455 0.011823984 -0.11165022 -0.18897684
000110 4b 93 a4 bd 19 f1 f9 bc ba d9 1c be 1e 07 bd 3d
       -0.080359064 -0.030510472 -0.15317431 0.09229873
000120 cb a4 94 bd 7a 3d 35 be 1c e5 2c 3c dc 37 38 bd
       -0.07257994 -0.17699233 0.010552671 -0.044975147
000130 17 20 e5 bd 74 a8 d2 3d bd a3 26 3e 5d e0 fa bd
       -0.11187761 0.10286036 0.16273399 -0.12249825
000140 7e e9 0a 3e 23 34 90 3d c8 ff d3 bd 5c d8 8c bc
       0.13565633 0.07041194 -0.10351521 -0.017193012
000150 ca 00 65 bc cd 45 56 be 1d ef 4b be a6 e5 47 be
       -0.013977239 -0.20925064 -0.19915433 -0.19521198
000160 00 8c b8 3b 85 c2 08 3e 99 5f 0f 3d ad 1b 28 be
       0.0056319237 0.13355453 0.03500328 -0.16416807
000170 e9 7e 10 3e 94 0d 44 be 3c ef 1e 3d a8 78 2c bd
       0.14110912 -0.19145805 0.03880237 -0.042107254
000180 8f 93 86 bd 5f 6c 32 3e 55 dd 07 3e e6 40 1d 3e
       -0.06571113 0.17424153 0.13268025 0.15356788
000190 f8 02 65 3d 3d b8 db bd 21 f6 29 be 14 68 55 be
       0.055911034 -0.107285 -0.16597797 -0.20840484
0001a0 f6 8b dd bc da 5f 1f 3d 70 40 e2 3d f5 28 92 bc
       -0.027044278 0.03890977 0.11047447 -0.017841795
0001b0 6a 20 28 bb b5 0a 0d be 18 c3 19 3c 68 7e 0a 3e
       -0.0025654086 -0.13773616 0.009384893 0.13524783
0001c0 59 11 54 be 7e 25 e3 bd 9c 84 46 bd 40 db 94 bd
       -0.20709743 -0.110911354 -0.04846631 -0.07268381
0001d0 49 09 bd 3d d0 77 8b bd 0f 76 a8 bd 82 33 28 3e
       0.09230287 -0.06809962 -0.08225643 0.16425899
0001e0 95 30 0a 3e 8a a7 eb bd 28 5a d9 bd 71 23 2c bb
       0.13495095 -0.11506565 -0.10612899 -0.0026266242
0001f0 87 77 2b be ab 2b 67 bd 81 d1 30 3d 63 a2 db bd
       -0.16744815 -0.05643813 0.04316855 -0.10724332
000200 92 ed 2e 3d cf a9 a1 3d 8c d1 18 be 2f 6e 14 be
       0.042707033 0.078937165 -0.14923686 -0.14495157
000210 6c f2 41 be 01 59 b3 bd f2 a7 4e be 19 a2 2a 3d
       -0.18940133 -0.087572105 -0.20181254 0.041658495
000220 03 e3 4f 3d c0 84 55 bd 3a f3 fd bd 04 15 bc 3d
       0.050753605 -0.052128553 -0.123999074 0.09183696
000230 65 8a 1c be 31 0f 96 3d 9e cc bc 3d f5 6c 0f be
       -0.15287168 0.07327116 0.09218715 -0.14006408
000240 49 3d 63 3d 78 d7 cb 3d 22 80 63 bb b7 32 44 be
       0.055478368 0.09953207 -0.0034713824 -0.19159971
000250 fc 94 1e 3d e0 c9 1a be 1e ad 47 be 05 ad 37 be
       0.0387163 -0.15116072 -0.19499633 -0.17937095
000260 6e f9 f0 bc 31 3d 8a 3b 69 db f8 3d fa 7c 1d be
       -0.029415812 0.0042187204 0.12151224 -0.15379706
000270 66 0b ea 3d 58 1e 43 bd bb f5 15 3e f7 91 b7 bd
       0.11427955 -0.04763636 0.1464452 -0.089633875
000280 06 b8 db bd 63 90 80 3d 3c bd 2e bd 1c 31 e8 3d
       -0.10728459 0.062775396 -0.042660937 0.11337492
000290 5a 35 9a bd 52 0e 3a be f0 ae 99 bd 56 bd 39 be
       -0.07529707 -0.18169525 -0.0750407 -0.18138632
0002a0 1b 08 31 3d 43 2d 30 bd cd f4 df 3d 44 5f fe bd
       0.04322062 -0.043011915 0.10935364 -0.12420514
0002b0 53 62 37 3d 58 f8 63 be 00 3c 84 bc 73 54 96 bd
       0.044771504 -0.22262704 -0.016141891 -0.07340326
0002c0 85 33 c0 3b ec 43 4a bd 79 7e be 3d d4 19 1b be
       0.0058655166 -0.04938118 0.093014665 -0.15146571
0002d0 7d a0 ea 3d 3f 65 3d be fc 26 04 be ed 8d 2f 3e
       0.11456392 -0.18495654 -0.12905496 0.17143984
0002e0 5a 5f 47 3d 34 a7 64 be f0 de 70 be 16 21 c9 3d
       0.04867492 -0.22329408 -0.23522544 0.09820764
0002f0 e5 11 26 be cb df 07 be d2 c3 43 3c 4c 23 1d be
       -0.16217764 -0.13268964 0.011948543 -0.15345496
000300 ae 1c 14 be 01 bb cc bd a2 38 f8 3c 6c ea 82 3d
       -0.14464065 -0.09996606 0.030300442 0.06392369
000310 ca 6d 41 3e 4c ba 4c 3e 18 ba 24 3e 67 2e da bd
       0.18889537 0.19992942 0.16086614 -0.10653382
000320 93 a1 7d 3c f4 2b 56 3e d7 f2 c6 3d 59 54 d0 bd
       0.015480417 0.20915204 0.09714287 -0.10172338
000330 3b e0 1c 3e 86 f3 a4 bd 4c 48 17 be d3 33 df 3d
       0.15319912 -0.08054261 -0.14773673 0.108985566
000340 17 7a 03 be b0 72 73 3c 2a fd 1c 3d c5 64 18 3e
       -0.12839542 0.014858887 0.038327374 0.1488219
000350 12 9b aa bd 7a 0f 54 3e df 2a af 3d 4d ff 0e 3e
       -0.083303586 0.20709029 0.08553099 0.13964577
000360 49 d5 d1 3c ab 58 37 3d f8 77 f5 bc 94 70 25 3c
       0.025614398 0.044762295 -0.029964432 0.0100976415
000370 14 3e ac 38 f4 37 5a 3e 4c 35 dc 3b 35 bc e8 bd
       8.213162e-05 0.21310407 0.0067202207 -0.11364023
000380 0e 03 22 3e 36 29 4d bd 37 7e 19 be d9 ef a8 bd
       0.15821478 -0.05008813 -0.14989553 -0.08248872
000390 d4 ca 9f bd 46 e5 c8 3d d6 14 a4 3d 2f 11 8c 3d
       -0.07802358 0.098093554 0.08011787 0.06839215
0003a0 39 44 0c 3d 7d f3 18 be ac c2 35 bc 2a 3d 28 3e
       0.03424475 -0.14936633 -0.011093777 0.16429582
0003b0 a2 72 a1 bd cd 18 56 3e ce 0b 4b 3d f5 91 1b bd
       -0.078831926 0.20907898 0.049571805 -0.037980992
0003c0 fb a5 76 3c 2c 8d 71 3d ec fe 93 bd 0e af 95 3d
       0.015054221 0.058972523 -0.07226357 0.0730878
0003d0 9a 07 f8 bc 2a 78 3f 3e 2e 3e 44 3e 79 05 da bd
       -0.030277062 0.18698183 0.19164345 -0.10645575
0003e0 d9 25 08 be cb b8 f0 3d 13 db ee 3c e7 91 14 bd
       -0.13295688 0.117539965 0.029157197 -0.036271956
0003f0 10 3d c3 3c d6 d6 60 3e 79 a3 41 bd 9b 3b b5 3d
       0.023832828 0.21956953 -0.04727504 0.088492595

fc.0.bias f4 [32]
000000 51 15 80 bd a9 10 a7 bd 9b 8d 99 bd d9 2a 75 3d
       -0.06254066 -0.081574745 -0.07497712 0.059855316
000010 d5 e1 96 bc 8e d1 b2 bd c6 ba 8b 3d f8 3e 4f bd
       -0.018418232 -0.08731376 0.068227336 -0.05059716
000020 36 8b aa bd 43 8e 3f bd 48 96 3c bd d0 34 ad bc
       -0.08327334 -0.04676653 -0.046041757 -0.021143347
000030 15 c2 9f 3d 28 ff 35 bd 8c ee 5d bd c4 3f 2a 3d
       0.0780069 -0.04443279 -0.054182574 0.041564718
000040 08 2a 85 3d f6 3f b9 bd 88 d8 2d bd f5 20 2d 3c
       0.065021574 -0.09045403 -0.04244283 0.01056694
000050 90 5e a2 bb 8d 7f e6 3d c6 79 40 3d d9 e1 c4 bd
       -0.0049551204 0.11254797 0.046991132 -0.096133895
000060 72 e3 c2 bb fb d4 d8 3d 7e 4a 9c 3d fc b9 87 3d
       -0.0059475238 0.10587498 0.07631396 0.066272706
000070 93 1f b9 3d 14 d3 b4 3d 26 89 1c bc 8f 8e 88 3c
       0.090392254 0.088293225 -0.009554183 0.01666954

fc.3.weight f4 [1, 32]
000000 1c 29 df bd 62 20 26 be a2 92 45 be bb 56 b7 3e
       -0.10896513 -0.1622329 -0.19294217 0.35808358
000010 98 c5 9d 3e 30 e3 11 be e3 cc 1b 3e 85 93 ab 3e
       0.30814815 -0.14246821 0.15214877 0.33510986
000020 b2 ab 1a be 2d 5c 3d be 0b 1e a5 3e 87 b4 0d be
       -0.15104559 -0.18492194 0.32249483 -0.13838397
000030 5e 69 67 be e4 85 9a bd c2 50 c2 bd b9 6e ea bd
       -0.22598788 -0.07545069 -0.094880596 -0.114469
000040 b1 ad fc bd c1 32 88 3e b4 8f 6e be 84 92 17 be
       -0.123378165 0.26601222 -0.23297006 -0.14801985
000050 83 b6 5f 3e 4d 1f 9e 3e 9a 0b 98 3e 3d 9c b2 3e
       0.21846966 0.30883256 0.2969635 0.34884825
000060 c6 8d 3d be 53 10 5b be 7e e0 67 3e 7d 49 33 be
       -0.18511114 -0.21392946 0.2264423 -0.17508502
000070 fb cc 94 3e 87 11 02 be 4c 5e 54 be a1 e7 26 be
       0.29062638 -0.12701999 -0.20739096 -0.16299297
