5 第五讲 机器学习训练模型的数学范式v16/models/model155.pth (torch, 112459 bytes, 21 tensors)

conv1.0.weight f4 [16, 3, 3, 3]
00000000: 8bde 8dbc 22b6 f9bd 368a 113e f445 62bd
00000010: 89b8 08be 447e 33be a4b6 293d 17b6 22be
00000020: 3a17 c03d 9f43 963d 684f 433e a70b 0cbe
00000030: f928 153d 5d59 2d3d edeb c03c 05d0 e23d
00000040: d2de ff3b f870 80bd a1a2 223e 4ecf debd
00000050: ba3f 18be 3b08 f43d e9e5 12bd 09f4 213e
00000060: ba1b ddbd 83e5 2b3e 9ecd 403d ba2d 8ebd
00000070: 479e fb3d 650b 82bd 9568 a2bc 8d8d a3bd
00000080: 4836 c13d 49db 3d3d 92e5 133e 9872 a0bd
00000090: e6fc 673c 9eeb 8ebc 2c2a 313e 3584 2fbe
000000a0: b3c8 80bd 9beb 393e 7d1c 5f3d c03a 38bd
000000b0: 3e14 d93d f4f0 f73c 865d 94bd 0846 13be
000000c0: 1198 4bbe e59a cd3d a420 a2bb 7a70 853d
000000d0: fa86 23be 3739 3b3e e746 ad3d 2e5b 54bc
000000e0: d779 d3bd efff 26bc b364 06be 3694 35be
000000f0: f8bb 71bd 15b9 eb3d 7788 31be 46f5 253e
00000100: b547 b73d e461 2bbe 0f31 353e 8b05 5b3d
00000110: f378 46bd 1a79 fb3c 4f5b 323d 0eb5 f53d
00000120: b558 3d3e a99c df3c 8527 65bd 604a 683c
00000130: 2a41 093d 2b10 c5bd 4284 adbd 5785 50be
00000140: a156 2f3e 9f05 9fbd 675d 07bc 756d 1cbe
00000150: d8ea 0e3c f7f8 393e 6d9a 1fbe b426 fc3d
00000160: 1c08 4f3e 95c5 3dbe c88b 4fbd 60b2 dd3b
00000170: 63b6 07bc b5f6 3bbc 01ff 233e 62dd 043e
00000180: 1ff2 b03c fdd1 763d f0bb eebd 8e4d 0dbe
00000190: 295d adbd 36e6 1e3e 2085 343e bd7b 2c3e
000001a0: 0468 d73c 6e64 e13d 1f73 5abd a10f 2cbd
000001b0: 383b 4cbe f494 7f3d cad2 c0bd 41eb 243e
000001c0: 7056 d53c 0960 023e 63ca 30bd f378 633d
000001d0: e1fb 13be 5a61 5bbe 23d9 f1bd ed5d 513e
000001e0: 66c3 873d 4d96 cf3d de64 553e c52a a03d
000001f0: aeca a13d 262f 47bd 3cd7 09be 13b0 d03d
00000200: fe56 2a3e a110 32be 779b 6e3d cb81 15bd
00000210: 30d4 263e 2955 1dbd 3293 07bd b75a 4dbd
00000220: d256 6dbd 639e 1d3e d25f d6bd 6306 483d
00000230: 4ba2 d93b e65c 013e d3e8 b83d d9d4 0fbe
00000240: ff8e 57bc 6837 063c 966a d4bc ff65 213e
00000250: 55cd 513e a97e 01be 3262 66bd 8a3f 503e
00000260: 2e08 7b3d 985a c2bd 2a47 c83d 2f93 4cbd
00000270: 87e5 d4bd a97f 51be 9881 db3d 33ee 9bbd
00000280: 8a76 1dbe b816 1fbe 69ff abbc 8857 043e
00000290: 06b9 d53d e45a 053e a125 acbd e44d 25be
000002a0: 0608 16bd 8739 c7bd 56a2 823d ef5f 063e
000002b0: 2b29 86bd 01ff 52be 5b7e 203e 0e0c 363d
000002c0: 7b7a 0fbe c513 85bd 0b78 4cbd 8367 09be
000002d0: 38f3 3a3e 02a1 833d fa52 f4bd 4f8c dabd
000002e0: cfb0 b4bd 2cea 40be 49bc 3bbc 42b0 79bd
000002f0: 2519 d2bd 0e26 3e3c 0b4c c6bd 1e56 da3d
00000300: 0096 ba3d 59df 90bd a4ab b8bd b9df 50be
00000310: 3d69 e1bc 7149 2bbe cc4c 3a3e 0c67 eb3d
00000320: 437f 5c3c df15 63bc d5e6 97bb a75a 493e
00000330: e5d8 c0bc e7cb 133d 92b2 f23d 029f 873d
00000340: 6e71 80bc 9caa 063e 6db9 26be ea4e a13c
00000350: 4f7f 53be f9ba a23d e08d d43d caf7 85bd
00000360: 86ab 0dbe d314 13be 8e83 37bd f2dc 0abe
00000370: 4efb 13bd 80de 6abd 74f2 dcbd bd1b ba3d
00000380: aa92 f5bd 4aa5 bb3d 6582 5ebe 54cf b5bd
00000390: fdff 3b3e 6c58 ffbd 01aa 6ebd 37bd c13d
000003a0: 5c6a 9b3d ddb1 b2bd 4be8 ac3d e355 80be
000003b0: 8278 98be 1eb8 6abd 12a6 323e b5f7 c13d
000003c0: 3e79 1a3e a8ea 553d 1fce 673c 6dbc 453e
000003d0: e79c b33d 8841 523d a91f 11be a873 00be
000003e0: 9c9b 053e ab1e 543e 20b8 5f3d f66f 983d
000003f0: 84e7 16be aeca 8abd eb4a 61bd 92a7 bfbd
-0.01731803 -0.12192942 0.1421288 -0.055242494 -0.13351645 -0.17528635 0.041433945 -0.15889774
0.0937943 0.073371165 0.1907326 -0.1367632 0.036416028 0.04232155 0.023549998 0.11074833
0.0078085447 -0.06271547 0.1588235 -0.10879384 -0.1486806 0.11915632 -0.03586379 0.15815748
-0.10796304 0.1678677 0.04707109 -0.069423154 0.122860484 -0.063498296 -0.01982526 -0.07985983
0.094341815 0.046351705 0.14443043 -0.07834357 0.014159417 -0.017446335 0.17301244 -0.17140277
-0.0628828 0.18156283 0.054470528 -0.044977903 0.10599564 0.030266263 -0.07244401 -0.14382184
-0.19882227 0.100393094 -0.0049477387 0.06515594 -0.15969458 0.18283544 0.08460789 -0.012961192
-0.103259735 -0.010192855 -0.13124351 -0.17732319 -0.05901715 0.11509911 -0.17337213 0.16206846
0.08949224 -0.16736561 0.17694496 0.053472083 -0.04845519 0.030697394 0.04354411 0.11997424
0.1849087 0.027296381 -0.055945892 0.014177889 0.03350941 -0.096222244 -0.08472492 -0.20363365
0.1712289 -0.07764744 -0.008262015 -0.1527613 0.008722983 0.18161379 -0.15586253 0.123120695
0.20217937 -0.18532403 -0.050670415 0.0067656487 -0.0082832305 -0.011472394 0.16015245 0.12975076
0.021599827 0.060258854 -0.1165694 -0.13799116 -0.084650345 0.15517506 0.17628908 0.16844077
0.026294716 0.110054836 -0.053332444 -0.042007092 -0.19944465 0.062397912 -0.09415205 0.16105367
0.026042193 0.12731947 -0.04316176 0.055535268 -0.14451553 -0.21423855 -0.11808994 0.20445986
0.06629066 0.101360895 0.20839259 0.07820658 0.07899986 -0.04862895 -0.13461012 0.101898335
0.16634747 -0.17389156 0.05825373 -0.036500733 0.1629188 -0.038411293 -0.03309936 -0.05013534
-0.057944126 0.15392451 -0.10467495 0.048834216 0.0066416613 0.12633094 0.09028783 -0.14046039
-0.0131566515 0.008191921 -0.02592973 0.15761565 0.20488484 -0.12645973 -0.05624599 0.20336738
0.061287098 -0.09489936 0.097791985 -0.049945053 -0.10395341 -0.20458855 0.107180774 -0.07613792
-0.1537725 -0.1553601 -0.020995812 0.12924016 0.10435681 0.13022953 -0.08405615 -0.16142994
-0.036628745 -0.09727769 0.063786194 0.13122533 -0.06550821 -0.20605089 0.15673201 0.04444509
-0.14011566 -0.06497911 -0.04991917 -0.13418393 0.18256843 0.06427194 -0.11929889 -0.10671293
-0.08822786 -0.1883933 -0.011458465 -0.06095911 -0.10258702 0.011605753 -0.09682473 0.10660957
0.091106415 -0.0707385 -0.09017113 -0.20397843 -0.027516002 -0.16727234 0.18193358 0.11494264
0.013458076 -0.013860195 -0.0046356716 0.19663487 -0.023540923 0.03608313 0.11850466 0.06622125
-0.015679087 0.1315102 -0.16281672 0.01969095 -0.20654033 0.079458185 0.10378623 -0.06541403
-0.13834962 -0.14363413 -0.044803195 -0.13560846 -0.036128335 -0.0573411 -0.10788432 0.09087322
-0.119908646 0.09162386 -0.21729429 -0.08877435 0.1835937 -0.12468037 -0.058267597 0.09459918
0.07588646 -0.08725331 0.08442744 -0.25065526 -0.2977944 -0.057304494 0.17446163 0.094710745
0.15085313 0.05222574 0.014148264 0.1931016 0.08770161 0.051332027 -0.14172234 -0.1254412
0.13047642 0.20714824 0.054618955 0.0744323 -0.14736754 -0.06776939 -0.055003088 -0.093581334

conv1.0.bias f4 [16]
00000000: 1ae7 983d 6b9f e93d 736d 5e3d 1f24 9d3d
00000010: ab59 4abe aafa b238 2881 f43d fc76 003d
00000020: cce8 4fbe 4147 1a3c 2006 713e 3add debd
00000030: 9d7f 163e cd19 31be 4d1d 813c ba95 6b3e
0.07465954 0.1140736 0.054303598 0.07672905 -0.19760768 8.534391e-05 0.11938697 0.031363472
-0.20303649 0.009416402 0.23537493 -0.10882039 0.14697118 -0.17294998 0.015761042 0.23006335

conv1.3.weight f4 [16]
00000000: c208 733f f942 793f c3db 833f 7057 643f
00000010: dcbc 813f bc2a 823f b8a8 803f 3f62 673f
00000020: 3a07 703f bd7c 853f ab4a 6b3f d028 953f
00000030: 57c1 643f 5757 823f 42df 6c3f e05b 743f
0.9493524 0.9736782 1.0301441 0.8919592 1.013576 1.0169291 1.0051489 0.90384287
0.93761027 1.0428692 0.9191081 1.165308 0.89357513 1.0182904 0.92528164 0.9545269

conv1.3.bias f4 [16]
00000000: 9cf4 27bc 5a34 393e 88b2 36bc fa73 dc3c
00000010: 88f0 4c3e e437 e5bc b47f a23d dc0c 883d
00000020: fe14 7d3e 171b 3a3d 7200 1ebe f7d3 803d
00000030: bec5 1f3d 8874 db3d 75df 293d e728 08be
-0.0102511905 0.18086377 -0.011150964 0.02691077 0.2001363 -0.027980752 0.07934514 0.06643078
0.24715039 0.04543599 -0.15429857 0.06290429 0.03900694 0.10715586 0.04147287 -0.13296853

conv1.3.running_mean f4 [16]
00000000: 54c0 ef3d 8d37 433e 337a 6e3d d02d 853e
00000010: 39d6 943c a161 313c 5e0f 973c b47a a93d
00000020: d655 b137 a16a 053d 21bb e73e 0c70 233c
00000030: eba2 2a3e e339 613c 1341 943d 2b0d 503e
0.117066056 0.1906416 0.058222007 0.26011515 0.018168556 0.010826499 0.018439945 0.08275357
2.1140015e-05 0.032572392 0.45259956 0.0099754445 0.16663711 0.013746711 0.072389744 0.20317523

conv1.3.running_var f4 [16]
00000000: 4d2c 473b 5269 223b fa54 193b 06b6 6a3c
00000010: 366f cd3a cd24 443a b31b dc3a dab9 313b
00000020: 8ce9 2b36 a928 133b 02d1 ea3c 1cc1 993a
00000030: 845a b43a 7b9d 853a 9c91 a93b 3cbf bc3a
0.0030391396 0.0024782014 0.0023396597 0.014325624 0.0015673402 0.00074822904 0.0016792923 0.0027118833
2.5616928e-06 0.0022454655 0.028664116 0.0011730525 0.0013759886 0.0010194028 0.0051748287 0.0014400254

conv2.0.weight f4 [32, 16, 3, 3]
00000000: 13b3 533c 1863 acbc 91e3 5dbc 67db 9b3c
00000010: 32ff 8f3d 7eba b33c 1927 a23d 497e 3fbc
00000020: bd57 53bb 0e5f 64bd db2d b2bd 2329 4dbd
00000030: 71e8 1cbd 930b f83c 6f73 27bd 1ffa 32bd
00000040: 823f 4fbd dc23 123d 0218 fa3d cadb 24bc
00000050: d1ad bbbd 5e7e d33d ee4d 8e3d 6e4c 63bd
00000060: 3cd7 e0bc 4ce8 3cbd 655d 59bd bb67 ce3d
00000070: 6ee0 5f3d d408 60bd aa91 753b 047a 853d
00000080: 9d69 babc fb59 293d e08b 843c 0214 393d
00000090: c77a 043d ae30 063d 67df 12bd 9eff dbbd
000000a0: 8fea 86bc 8a2f c23a aed9 6dbd 6a33 6abd
000000b0: 35cd 423b 9805 b23c 348e 9b3d a58d bd3d
000000c0: c386 25bd a65e 8a3d 642a 3c3d ed46 bf3d
000000d0: 0afc d23d 3fce 953d 5227 863d 1ee7 d03c
000000e0: 085c 95bc d829 d9bc 6bdc 523d b0ec e53b
000000f0: b1d7 3f3d a088 133d 2689 aa3d 24d3 743d
00000100: b9f5 96bd 6ffe 53bd 9fe5 883d de75 723d
00000110: a7e5 4fbd ef44 1c3d 77cf a1bd acd7 73bd
00000120: 6a01 96bd 7736 43be 88c0 ddbd 0d2a 3bbe
00000130: 085d 64be 75d1 35be 6849 20be 9ef2 e4bd
00000140: 740f 51be 83e9 f6bd 5ce8 31bd 86c2 a53d
00000150: d275 6abd 8d50 623c eae7 aa3d 9b40 c4bd
00000160: ea4e c3bd 53ca c03d 0736 d93d 7797 b0ba
00000170: 91e9 05bc ab7b eabc b834 293d 38be a4bc
00000180: 6554 e43d b91e 733d aac0 0d3d 834c 993c
00000190: bce3 bb3a cbe3 cd3c 3e99 bfbd ad66 c0bd
000001a0: 2081 0ebe 317e 6ebd 48d4 333d 57da ac3c
000001b0: 9d14 973d 4085 49bc 628f 423d 975a 553d
000001c0: 3ef2 0abc ddae 813c 361e 1ebd 7fb9 24bb
000001d0: 65e5 80bd 026a 723d 2ace aabd 2738 0fbe
000001e0: 7841 10bd 471e 97bd d12f e7bc 820b 1cbe
000001f0: ec84 86bd 309d 2d3d dc93 c43c 0165 2ebd
00000200: e3ad 03bc 5db6 07bd 973f 49bd c84a 1abd
00000210: a0af 08bd 15b6 1d3d 6b6a 433d 0e6b 49bd
00000220: 3f7e 54bb 5328 253c 8fe9 c63b 8278 8ebd
00000230: 3644 52bd c444 6b3d 457b 723d b2e9 e0bb
00000240: 3694 de3c 1be4 88bc d62c 263d 1895 b23d
00000250: e0c5 ad3c 58f9 2ebd 4133 ee3c 41ed 693d
00000260: 8011 a63d d8a1 9dbc 7024 603c 0310 53bd
00000270: 89e0 81bd 01aa 5a3c bfdb 02be 2f62 0d3d
00000280: 2075 87bc 8fd6 e9bc 5577 cd3c 070a c73d
00000290: 9faf a53d 870c ec3d 085c 5abd f5ef 173d
000002a0: a6f0 eb3d 4d50 413b 55f9 b13d 5fb9 ba3d
000002b0: 5016 a53c 64db 3cbc 3ce3 ac3c 631d 0abc
000002c0: 3f16 9c3d fe0b 8f3d 7f9a 38bc 719d be3d
000002d0: d9bd 8d3d 01a7 833d c8e4 08bd e8b2 b33d
000002e0: 8060 7f3d 68e6 2c3d ff44 c73d cd80 4d3a
000002f0: 754d 893d 2769 963c 3a7b 86bd ec0a 133c
00000300: c77e 6fbd ef5a 18be 6245 cbbd 3472 f03c
00000310: 590d 63bd 1dab a9bd 85cd afbb 4a2b 5abc
00000320: 861e 973d c13c 083e f08a 473d a573 963d
00000330: e6ed 6a3d 38d2 3abd 4d45 a53d 7f5e 3abd
00000340: aae2 8f3d 3af4 433d f1e9 1cbd d2b8 86bd
00000350: 2cd4 85bd 34cb 673c 7afe c6bd 6bc4 e4bb
00000360: c56c f83b 194b 48bd 33fd ca3d 8c86 e4bd
00000370: baff 1b3b 226f c9bc 43d3 30bd fe37 c3bd
00000380: b947 48bd d641 f73c 5c57 a9bd 0b9f 68bd
00000390: 11a5 303d 85bd 383b 096d a1bd 1e12 b23d
000003a0: a41b 89bc 285d 83bc 52a4 353d f7ab babc
000003b0: e41c cf3d 45da f43d b90d 003e 6f94 ac3b
000003c0: c882 dc3c 19e4 0d3e a167 983d a927 cd3c
000003d0: 6668 353c c5a4 a83d 607c 71bd 8155 6abd
000003e0: a326 b8bc 2e53 0d3d 3830 f3bc 59b8 203d
000003f0: 0ea9 b03d 91a8 893d e87d 8e3d efb7 9d3d
0.012921113 -0.021043345 -0.013543026 0.019025518 0.070310965 0.021939512 0.079176135 -0.011687824
-0.003224834 -0.055754714 -0.087001525 -0.05008806 -0.03830761 0.030278957 -0.04088157 -0.043695565
-0.050597675 0.03567873 0.122116104 -0.010062167 -0.09164012 0.10326837 0.06948458 -0.05549281
-0.027446382 -0.046119973 -0.053067584 0.10078379 0.054657392 -0.05469592 0.0037470856 0.06517413
-0.022755438 0.041345578 0.016179979 0.045185097 0.032343652 0.03276127 -0.035857584 -0.107421145
-0.016469268 0.0014815193 -0.058068924 -0.05717794 0.0029724364 0.021731183 0.075954825 0.09255532
-0.040411722 0.06756334 0.045938864 0.093397 0.10301979 0.07314729 0.065504685 0.02550083
-0.01823236 -0.02650921 0.05147974 0.0070167407 0.04683656 0.036018968 0.0832694 0.059771672
-0.073710866 -0.05175632 0.06684422 0.05919444 -0.050756123 0.038151678 -0.07900899 -0.059531853
-0.073244885 -0.19063745 -0.10827738 -0.1827776 -0.22301114 -0.17755683 -0.15653002 -0.11179088
-0.20416051 -0.120562576 -0.043434486 0.08093743 -0.05724127 0.01381315 0.08345015 -0.09582635
-0.09536536 0.0941359 0.10606008 -0.0013472874 -0.008173362 -0.028623423 0.041310042 -0.020110235
0.111489095 0.05935547 0.034607567 0.018713241 0.0014334838 0.025133034 -0.093554005 -0.09394584
-0.13916445 -0.058225814 0.04390362 0.021100206 0.073769785 -0.012299836 0.04750002 0.052088346
-0.008480607 0.015830452 -0.03860303 -0.0025134978 -0.062937535 0.05918313 -0.08340104 -0.13986264
-0.035218686 -0.07378822 -0.028221043 -0.15238765 -0.065683216 0.042386234 0.023996286 -0.042576794
-0.008037063 -0.0331329 -0.04913291 -0.037668973 -0.033370614 0.038503725 0.04770891 -0.04917436
-0.0032423881 0.010080415 0.006070323 -0.06956579 -0.051334582 0.057438627 0.05919959 -0.006863796
0.027170282 -0.016710332 0.040570103 0.087198436 0.021212518 -0.04271826 0.029077174 0.05711103
0.081088066 -0.019242212 0.013680562 -0.05152894 -0.06341655 0.013346196 -0.12779139 0.034517463
-0.016535342 -0.028544692 0.025081316 0.097187094 0.08090138 0.11525827 -0.053310424 0.037094075
0.115205094 0.0029497326 0.086901344 0.09117388 0.020152241 -0.011526916 0.021104448 -0.008429858
0.076214306 0.06984709 -0.0112673035 0.09307373 0.06920976 0.06428338 -0.033421308 0.08774358
0.06234789 0.04221192 0.09729957 0.0007839322 0.06704227 0.018360687 -0.06566472 0.008974772
-0.058470514 -0.14878438 -0.09925343 0.029351331 -0.05543265 -0.082845904 -0.005365076 -0.013315985
0.07378869 0.13304426 0.048716486 0.07346276 0.057355784 -0.045610636 0.08069859 -0.045500275
0.070256546 0.047840334 -0.03830904 -0.065782204 -0.06534609 0.0141475685 -0.09716506 -0.0069814227
0.0075813257 -0.048899744 0.09911575 -0.11158475 0.0023803548 -0.024589125 -0.043170225 -0.09532164
-0.048896525 0.03018276 -0.082686156 -0.0567923 0.04312617 0.0028189134 -0.07882125 0.08694862
-0.016736813 -0.016035631 0.04434616 -0.022787077 0.10112932 0.11955694 0.12505235 0.005266718
0.02691783 0.13856544 0.07441641 0.025043325 0.011072254 0.08234552 -0.058956504 -0.05721045
-0.02247936 0.034503154 -0.029686078 0.039238308 0.086259946 0.067216046 0.069576085 0.07701098

conv2.0.bias f4 [32]
00000000: f3f4 e4bd 7f37 9dbd f01d e7bd d29c 343d
00000010: 1662 0bbe 638f f4bd f971 b53d c341 1b3d
00000020: e4e5 1abe 4935 903b e0fd e2bc aa69 55be
00000030: 95cb 16bd 399c b9bd 58ee 77be 3bf0 8bbc
00000040: 38a0 48be e8e8 a0bd dc00 9abd db24 fc3d
00000050: bf57 483c 5de2 e8bd ed89 b8bd 9538 d9bd
00000060: 58cc fe3c 74f4 48be 478b 07be 316d 36bd
00000070: 595f bebd 49c7 5bbe adaa e9bd 314a 1cbe
-0.11179533 -0.07676601 -0.11285007 0.044094868 -0.13611636 -0.11941411 0.08859629 0.037904512
-0.15126759 0.0044008833 -0.027708948 -0.20841089 -0.036815245 -0.09063 -0.24212015 -0.017082324
-0.19592369 -0.07856923 -0.07519695 0.12311717 0.012227952 -0.113713 -0.09010682 -0.10606495
0.031103298 -0.19624501 -0.13236724 -0.044537727 -0.0929553 -0.2146274 -0.11409507 -0.15262677

conv2.3.weight f4 [32]
00000000: dc96 823f 2b9a 6b3f 7b3f 7d3f 9805 5d3f
00000010: dd87 773f 8621 773f 4dc7 733f 000c 7c3f
00000020: b5fb 743f 8b00 813f bca1 7f3f 06ca 883f
00000030: 4f5b 7f3f 969f 7a3f 8fb2 853f 486b 803f
00000040: c28b 473f 8f43 813f 00ac 7c3f da25 663f
00000050: c0bc 693f a3bc 673f c824 7f3f b930 823f
00000060: 0879 773f e728 863f 7030 803f f61f 5c3f
00000070: 17a0 833f 503a 843f a1f9 693f b915 713f
1.0202289 0.92032117 0.9892499 0.8633666 0.96691686 0.9653553 0.95225984 0.9845581
0.95696574 1.0078291 0.9985616 1.0686653 0.997487 0.9789976 1.0445117 1.003274
0.7794763 1.0098742 0.9869995 0.89901507 0.91303635 0.9052221 0.996655 1.0171119
0.96669054 1.0481232 1.0014782 0.8598627 1.028323 1.0330296 0.9139653 0.9417377

conv2.3.bias f4 [32]
00000000: 502d c13d f8e9 bc3e e183 a53d 0ef7 3bbe
00000010: b5f1 253e f695 29be ee39 063f 7b5d 813d
00000020: f78e f0bd 0277 3e3e 50ed d3bd 52f2 173f
00000030: 0356 3cbe 88ed 703e d27b ac3e ebc1 1abe
00000040: e1c2 533e 400a 0fbe 41e9 d83a 7c2a c3bc
00000050: c07e 943e a28d 653e 2ade aa3e 67ad 733e
00000060: 7a07 bc3e 7371 a93e 4d0f 8cbd 6520 19be
00000070: 8595 d53e cfb3 633e bee4 963e 3756 f23e
0.09432471 0.36897254 0.080817945 -0.18355963 0.16205485 -0.16561112 0.52432144 0.06316658
-0.117460184 0.18600085 -0.10347998 0.59354126 -0.18392186 0.23528111 0.33688217 -0.15113036
0.20679809 -0.13968754 0.0016549007 -0.023823969 0.29002953 0.2241731 0.33372623 0.23796616
0.36724454 0.33094367 -0.06838856 -0.14953764 0.41715637 0.2223656 0.2947139 0.47331402

conv2.3.running_mean f4 [32]
00000000: b2ed 993d e897 463f 8531 833e 8b36 623f
00000010: b3a3 983e e610 ad3d 1dec 063f 5cd0 0f3f
00000020: dee6 883e 1b98 083f effb fb3d a5ea ca3d
00000030: 425c 033f 0209 1c3f fe7c 9e3d 667a 943e
00000040: 1c4b 043f cb90 c63e ee47 9d3e 4862 3e3f
00000050: 4f1f 213f 61ff 143f f82f d73e 6c8e 4c3e
00000060: 4d77 283f 7819 0e3e 1e87 633e c9c6 213e
00000070: d2f2 723e c0f4 c43e d942 d23e bb5b 603e
0.0751604 0.7757554 0.25623718 0.88364476 0.29812393 0.08450489 0.5270403 0.56177306
0.26738638 0.53357095 0.12303912 0.09908036 0.5131265 0.60951245 0.07738684 0.28999633
0.5167711 0.38782343 0.3071894 0.74368715 0.629384 0.5820218 0.42028785 0.19976205
0.6580704 0.13876903 0.22219512 0.15798487 0.23725441 0.3846798 0.41066626 0.21909992

conv2.3.running_var f4 [32]
00000000: 939d 643d a9ce f03f 224d 313e fe15 963f
00000010: 4355 a13e b0a7 133d 147a 763e 9088 3e3f
00000020: 205f c63e 09ce c13e 4425 ed3d cf77 c83d
00000030: dead 8d3e 52ab b73f 23ad cf3d ac9f 343e
00000040: 8ace 483f 13c8 023f 9be3 ca3e 98e6 043f
00000050: b7be 083f 4fad aa3f 1344 253f 10d2 0c3e
00000060: a4d7 203f 4bc4 153e d753 233e c287 3d3d
00000070: 3d7d d03e a758 343f f96a 883e d665 233e
0.055814337 1.8813068 0.1731458 1.1725461 0.31510362 0.03604859 0.24070007 0.7442713
0.3874445 0.37852505 0.115793735 0.09788477 0.27671713 1.4349158 0.10140445 0.17639035
0.78440154 0.5108654 0.39626774 0.5191436 0.5341601 1.333414 0.64557 0.13752007
0.6282904 0.14625661 0.15949951 0.046272047 0.4072055 0.7044777 0.26644114 0.15956816

conv3.0.weight f4 [64, 32, 3, 3]
00000000: be26 39bd f439 66bd bad8 76bd 00ed 56bd
00000010: 881d 92bd e1f1 80bd eec0 97bd 7f2f 54bd
00000020: c769 f4bd a447 7ebd f3cf db3c 7402 58bc
00000030: 0ab0 9bbc e898 49bd b401 adbc e9ae 53bb
00000040: 10f0 2abc 8bb9 5d3d b1d8 5abc d046 1ebd
00000050: f353 c1bd 40a9 973c 1a28 d5bc d11a c3bc
00000060: 59ab 9dbd 5439 b9bc 2d23 39bd ca0c e93c
00000070: e7c3 03bd ba71 903d fe81 c8bb eb79 debc
00000080: f0e8 5a3c 002f 7cbc e339 e83b 4963 97bc
00000090: 4bc9 9dbd 6471 a4bd a8d9 aebc fcdb a3bc
000000a0: 94a5 95bd 4b0c 22bd 9fe3 1bbd e1d1 b9bc
000000b0: 1c1f c7bc cfc1 823b bf9e 2a3c 0a96 b5bb
000000c0: 614f ea3c 1a1c e23c 0e30 e3bb 16d7 f13c
000000d0: 0bbc 1b3d 21dc 9b3b 7a28 11bd 3e70 02be
000000e0: e941 7bbd da8f dfbc 184c f8bd a3d0 c1bd
000000f0: 93eb c2bd 4cbe 8ebd 6d7f cfbd dfc3 12bd
00000100: 4db6 f9bc 6e13 11bd f134 b4bc 2c66 0b3d
00000110: 963f 00bd dcb1 eab9 23e0 773d 6114 1b3d
00000120: 58b8 393d be5c 083e 49d0 e33d 2907 cf3d
00000130: d211 cf3d 1435 a03d d819 eabb b301 dc3d
00000140: ee1f a93d 48a0 c23c 0495 b13b 1205 4b3c
00000150: 8931 7dbb 1f51 413d a870 473c 9de8 b73c
00000160: 6fd9 ce3c 6559 333d 8f15 17bd 88a2 21bd
00000170: 8315 f4b8 ba4c 2fbc 2ce4 11bd 7b39 7cbb
00000180: 8c1c 56bd 9f20 d3bc 5b6f 23bd 3a0c 89bd
00000190: 8cd8 f0bd 4717 bcbd fcbd 90bd f334 13be
000001a0: 8016 01be 9742 a8bd 2f9d 0fbe 4bda 0dbe
000001b0: eac9 c4bc 02dc 763c 9475 a43c 60b7 4abd
000001c0: 2eb0 4b3c fe92 abbc 81cf 4abd bb1e 09bc
000001d0: 7cdb e2bc d880 f7bd 5343 a6bd 69bf cbbd
000001e0: b328 eabd a91b 8abd d9bb 45bd 35c6 e7bd
000001f0: 2487 93bb 36a1 36bd 8cb7 fd3c a186 613d
00000200: b73b ff3c 79d7 853c f555 a83c 5764 123d
00000210: 8573 3e3d 8836 883d 73d8 3f3c 95ea 0bbd
00000220: a1b8 54bd 384a 04bd 9abd cfbc 6225 2ebd
00000230: 3396 98bd 78c8 80bd 18fa 14bd 4e4d c0bd
00000240: 7b9a 433d fda8 92bc ffc2 17bd f1ed 15bd
00000250: bd30 603c 8ba1 ea3b b6d8 1bbd a6e0 223d
00000260: ee38 1f3d 74a5 873d 3aee b03d d537 d13d
00000270: b000 843d a869 d03d c4ca a23c e35d ad3d
00000280: 242d e13d 0a92 cb3d eaca a539 d3ec 433d
00000290: 1338 cdbc c1d4 283d ec84 1b3d 1611 21bd
000002a0: 75d3 b53b 9129 953c 4115 663c a09b 7fbd
000002b0: f18d 6dbc d345 193d 7ac0 0abd c094 d43b
000002c0: 89fb 823a 6307 8f3c 8fa7 653d 467c cf3b
000002d0: 57b9 1f3c 3454 78bc ec20 1cbd 56d4 b9bc
000002e0: 9386 0ebc 759f 30bd 2337 95bc 9f3b b83c
000002f0: 06e9 383c e929 81bd 5f7c 9ebd 407a b3bc
00000300: bdc6 f5bc f04a 12bd fbe2 cabd 1772 e8bc
00000310: 1178 e8bc de25 cebd cdca 183c 30f8 ccba
00000320: af11 583d f862 61bc 7825 aa3d d683 663d
00000330: 9c3c d9bb efb1 dfbb fecc 4f3c 63a9 56bd
00000340: 9be5 a4bd dc78 edbd 81e8 9bbd e73d 86bd
00000350: 43b3 58bd 8f7b 9cbd 20f3 a3bd adc0 f0bd
00000360: 1849 52bd 8dcf 59bd d177 cabd 9ab7 833c
00000370: 7084 92bc 3432 9cbd 15ce e6bc 6143 74bd
00000380: 079c 8abd 9a08 653d c029 b13d a798 92ba
00000390: 17a7 163d 8ce8 613d 50d6 073d 8b49 353c
000003a0: 496a b53d e594 04bc 75f3 0cbd cd16 86bc
000003b0: ae31 39bd e90c c8bc 66f0 963b 7fac 44bc
000003c0: 5376 49bd e7f8 2cbd ce23 c8bc b5e0 2fbb
000003d0: 27e3 f0bc 4929 04bd 2d83 b73c 1b45 0ebd
000003e0: 37fd 0dbd 7170 cabc 747c 973a dc0c 323d
000003f0: 7c19 52bd e1c1 e3bd 7912 1abe 408f 97bd
-0.045202963 -0.056207612 -0.06026528 -0.052472115 -0.07134539 -0.06296135 -0.07409845 -0.05180311
-0.11934238 -0.06208004 0.026832556 -0.013184179 -0.01900484 -0.04921809 -0.021118976 -0.00323003
-0.010433212 0.054132026 -0.013357327 -0.03864175 -0.0943984 0.018513322 -0.026020098 -0.023816498
-0.076986976 -0.022610344 -0.045199562 0.028448481 -0.03216925 0.070529416 -0.006119012 -0.027157744
0.013361201 -0.015392065 0.0070869788 -0.01847996 -0.07704409 -0.0802944 -0.021344021 -0.020002358
-0.07306972 -0.039562505 -0.038058873 -0.022683086 -0.024306826 0.003990389 0.010413825 -0.0055415677
0.028602304 0.02760129 -0.006933219 0.029521506 0.03802113 0.004756466 -0.035438992 -0.1273813
-0.061342154 -0.027290273 -0.12123889 -0.094636224 -0.095175885 -0.0696989 -0.101317264 -0.03583133
-0.030482436 -0.03541892 -0.0219979 0.034032986 -0.03131064 -0.00044764474 0.060516488 0.03786123
0.04534182 0.13316628 0.111237116 0.101087876 0.10110821 0.07822624 -0.007144194 0.107425116
0.08258043 0.023758069 0.0054193754 0.012391346 -0.0038634262 0.047196504 0.012172855 0.022449786
0.025250165 0.043786425 -0.036885794 -0.039461643 -0.000116388335 -0.010699445 -0.035617992 -0.003848641
-0.05227332 -0.02577239 -0.03990112 -0.06691785 -0.11760053 -0.09184127 -0.07067487 -0.14375667
-0.1260624 -0.08215826 -0.14024805 -0.13852803 -0.024022061 0.015067102 0.020075597 -0.049491286
0.012432141 -0.020944115 -0.049514297 -0.008369143 -0.027692549 -0.12085122 -0.0811831 -0.09948618
-0.11433544 -0.06743557 -0.04827485 -0.11317102 -0.004502194 -0.044587336 0.030971311 0.055060033
0.031156404 0.016338097 0.0205488 0.035740223 0.046496887 0.06651026 0.01170932 -0.03415926
-0.05193389 -0.032297343 -0.025358964 -0.04251612 -0.07450523 -0.062882364 -0.03637132 -0.09389745
0.047754746 -0.017902846 -0.037051197 -0.03660387 0.013683495 0.0071603707 -0.03804847 0.039765023
0.03887265 0.066233546 0.08639188 0.10215727 0.06445444 0.10176402 0.019872077 0.08465173
0.10994938 0.09939964 0.00031622435 0.047833275 -0.025051152 0.041218523 0.03796856 -0.039322935
0.0055488893 0.018208297 0.014043153 -0.062404275 -0.0144991735 0.037420105 -0.033874966 0.006487459
0.0009993176 0.017459577 0.056068 0.006331953 0.009748778 -0.015156794 -0.038117334 -0.022684257
-0.008699077 -0.04312082 -0.018214768 0.022489367 0.011286026 -0.06306822 -0.07738566 -0.02190888
-0.030001992 -0.035715997 -0.09906574 -0.028374715 -0.028377565 -0.10065816 0.009325695 -0.001563793
0.05275124 -0.013756506 0.08307928 0.056278072 -0.0066295397 -0.0068266313 0.012683151 -0.052407634
-0.08051606 -0.11595318 -0.07612706 -0.06554776 -0.052905332 -0.076407544 -0.08005357 -0.117555
-0.05133924 -0.05317645 -0.098861344 0.016078759 -0.017885417 -0.07626763 -0.02817444 -0.05963457
-0.06768041 0.055916406 0.08650541 -0.001118441 0.036780443 0.055153415 0.03316337 0.011064897
0.08858163 -0.00809214 -0.034411866 -0.016368294 -0.045213394 -0.024420219 0.0046062944 -0.012004017
-0.04918511 -0.04222956 -0.024431136 -0.0026836817 -0.02940519 -0.032265935 0.022401417 -0.034733873
-0.034665313 -0.02471182 0.0011557476 0.043469295 -0.051293835 -0.11120964 -0.1504611 -0.0740037

conv3.0.bias f4 [64]
00000000: 1fc3 5ebe 0c41 8bbd 1002 bcbd 0751 2ebe
00000010: ec9f 2fbd a2a3 64bc 1ff3 dabd c666 22be
00000020: e8aa 71bd 9ce5 b2bd 8e2a ad3c a7c2 19be
00000030: 606f c5bd 15c8 31bd d625 39be 4b4f d3bc
00000040: 2ea5 2fbe e3ae 19be 7374 7bbd d7ad 06be
00000050: a97a 16be 29e8 f7bd c853 b1bd 7db6 9dbd
00000060: 0bf3 d6bd 9b06 d4bd 22f9 82be d20a d7bd
00000070: 529d 6dbe c677 97bd 0f0d 5abe 0495 fbbd
00000080: 8574 f3bd fd12 53be 0207 17be de84 3abe
00000090: 4abb b8bd 407b 95bd e311 2dbe 4d6e dcbd
000000a0: 1529 f8bd fb10 43bd fa6f 2abe 5237 38bd
000000b0: 0536 b7bd db5c a2bd 5b02 9abd 666e 74bd
000000c0: 0016 44bc 06f8 e5bd a560 0fbe 25f7 01be
000000d0: b6c3 39be 6bc4 3abd 95ab 4ebd 60b0 1dbe
000000e0: 24eb 48bd feae afbd 65b4 bcbd 3087 08bd
000000f0: a7c4 293c 2c2f 81bd 032b 3bbe 2384 c9bd
-0.2175412 -0.06799516 -0.09180081 -0.17023097 -0.042877123 -0.013955029 -0.10690903 -0.15859517
-0.05900088 -0.08735201 0.021138456 -0.1501566 -0.09640384 -0.043403704 -0.1808084 -0.025794646
-0.17152855 -0.1500812 -0.06139035 -0.13152252 -0.14695229 -0.12104828 -0.08658558 -0.077008225
-0.104955755 -0.103528224 -0.25580698 -0.10500111 -0.23204544 -0.07395892 -0.21294044 -0.12284282
-0.11887459 -0.20612712 -0.14748767 -0.18214747 -0.090200976 -0.07298899 -0.16901354 -0.10763226
-0.12117211 -0.047623616 -0.16644278 -0.044974633 -0.0894585 -0.07927867 -0.075199805 -0.059675597
-0.011968136 -0.11228947 -0.1400171 -0.12691934 -0.18141064 -0.045597475 -0.050456602 -0.15399313
-0.049052373 -0.08578299 -0.09214095 -0.03333205 0.010361827 -0.063078254 -0.18278126 -0.09839656

conv3.4.weight f4 [64]
00000000: 65e6 943f 4680 903f 796d 9e3f fd3f a73f
00000010: 9712 9e3f 6a21 9e3f 6e18 a03f fd83 923f
00000020: 0362 843f b837 a23f e148 9a3f e039 843f
00000030: 1f37 9e3f 8ac1 903f ce76 8f3f 1f25 9c3f
00000040: 5a4f 893f 5666 933f aeb7 a23f 5438 a23f
00000050: 6328 953f b4ae a33f f6c4 a13f 316c a33f
00000060: 1569 893f 7650 8f3f 777f 8b3f 1fd4 a73f
00000070: 007c 8f3f cd24 a63f 05c9 903f 96be 833f
00000080: cb7c 973f 5c9e 943f 7118 893f e9f9 8f3f
00000090: 5794 743f eeea a43f a7ef a13f 38f3 9f3f
000000a0: d87e 913f c397 803f 079b 933f a303 a13f
000000b0: 7f96 8e3f a6a6 a03f ca22 9e3f 1764 7b3f
000000c0: 86d0 9c3f 30ee a53f 632f 923f ba3c a03f
000000d0: 71e6 883f bd7c 973f 5741 a83f 8ebb 913f
000000e0: eeac 8a3f e9e4 a33f b1b5 9d3f 9bcb 6f3f
000000f0: 6da5 9d3f 5958 9e3f e17a 8a3f 5b03 9d3f
1.1632811 1.1289146 1.2377158 1.3066403 1.2349423 1.2353947 1.2507455 1.144653
1.0342411 1.2673254 1.2053491 1.0330162 1.2360572 1.1309063 1.1208131 1.2198828
1.0727341 1.1515605 1.2712305 1.267344 1.165295 1.278769 1.2638233 1.2767392
1.0735193 1.119643 1.0898274 1.3111609 1.1209717 1.2979981 1.1311346 1.0292537
1.1834959 1.1610827 1.0710584 1.1248142 0.9553885 1.2884195 1.2651261 1.24961
1.1366835 1.0046314 1.1531686 1.2579235 1.1139678 1.2550857 1.2354367 0.981996
1.2251136 1.2963314 1.1420711 1.2518532 1.0695325 1.1834942 1.314494 1.1385362
1.0834024 1.2804233 1.2321073 0.9367005 1.2316109 1.2370712 1.081875 1.2266649

conv3.4.bias f4 [64]
00000000: 6942 67bc 564d f6bb bd0d 693c 52af 403b
00000010: 907e 3b3c a0ab 683c d0a2 173c 8e25 4fbc
00000020: c569 bfbc 04e3 9d3c 84e6 643c d576 a4bc
00000030: 94d0 49bc 0d20 85bc 5a11 503a 363a 8c3b
00000040: 8899 af3a b89d 9dbb 585a a03c 1712 efbb
00000050: 5877 71bc 857e 043c e3de ed3c f30f 67bb
00000060: 76c6 45bd f61f a3bc 550c cbbc eedc fdbb
00000070: dcd5 0bbd 6a76 af3b cdd9 7dbc 5b8f a9bc
00000080: a72c 083d fc96 3fbc f65f aebc 77ff 9c3b
00000090: 69fe bfbb 4162 5c3c 84ec 1b3b 95ee 3ab6
000000a0: 598f a0bc e73a 8b3b 6b50 f33b 8a93 5f3c
000000b0: 851d d53b 6ed0 a039 e4a4 403c 92a1 643b
000000c0: 7d38 bfbb ae70 813c fe2f a9bb 8b8a bc3c
000000d0: 6c26 74bc dbec da3b e16e 0b3c 053c 91bc
000000e0: cc5d 563c e915 b83c e1d2 5c3c d0a2 1cbc
000000f0: c385 c33c 41ce b63c 10e9 1d3c 9d66 d03c
-0.0141149545 -0.0075165434 0.014224467 0.0029401374 0.011443749 0.014201075 0.009255126 -0.012643231
-0.023365865 0.019273289 0.013970975 -0.020076195 -0.012317795 -0.016250635 0.0007937156 0.0042794
0.0013397196 -0.0048100613 0.01957433 -0.0072958576 -0.014737926 0.008086805 0.029036945 -0.003525731
-0.04828497 -0.019912701 -0.024786154 -0.007747284 -0.0341395 0.005354692 -0.015493822 -0.02069824
0.03324571 -0.011693712 -0.021285992 0.004791196 -0.0058591855 0.01345116 0.0023792097 -2.7855033e-06
-0.019599603 0.004248965 0.007425358 0.013646016 0.006503763 0.0003067287 0.011758063 0.0034886342
-0.0058355913 0.0158008 -0.005163192 0.023015281 -0.014901739 0.0066810674 0.008510322 -0.017728815
0.013083886 0.022471385 0.013478012 -0.009560302 0.023867493 0.022315146 0.009638086 0.025439555

conv3.4.running_mean f4 [64]
00000000: 00b2 373d 62df 023d f861 803d e5d6 283d
00000010: 3494 b43d 1b5e 073e 6be3 bb3d d29f 4f3d
00000020: a271 603d 5001 f13d e17e e33d 834a a23c
00000030: bf07 aa3d 2dd2 503d 823d 103d a527 d03d
00000040: 279f 1d3d 9646 523c ecd4 b23d 3e8c 8c3d
00000050: 9ac6 c93c d633 5c3d ba16 083e da4d c73d
00000060: f47a dd3c 9eb5 493d 1f3a 0b3d a6a1 1d3d
00000070: 630e bf3c 4213 743d c944 963c f38c 243d
00000080: eb54 c63d 9fe3 4f3d 9eda 663d d09c ab3c
00000090: 558d aa3e 8517 2a3d f8fc f33c b1aa cb3d
000000a0: 0754 4e3d 1f19 c93d 878f 963c ee3b f63d
000000b0: b04c 6f3d 89fd 823d 7c80 1c3d 4150 a93d
000000c0: e655 ea3d aaf2 213d 3a04 363d 36e2 853d
000000d0: 42f1 bd3c bbbd 2b3e 55eb 493d f97d 803c
000000e0: 2f51 df3d 1675 923c a476 263d 6e8c ac3e
000000f0: a8af 1e3e 9457 cb3d 12a5 203d 91d9 d53d
0.04484749 0.031951316 0.06268686 0.041220564 0.0881733 0.13219492 0.09174236 0.050689526
0.05479587 0.117678285 0.111081846 0.01981092 0.08302259 0.05098169 0.03521491 0.101638116
0.038481858 0.012834212 0.08732018 0.068626866 0.024630833 0.053760372 0.1328992 0.09731646
0.027036168 0.04924547 0.033990975 0.038484238 0.02332229 0.05958868 0.018343346 0.040173482
0.096841656 0.050754186 0.056360833 0.020948797 0.33310953 0.041526336 0.02978371 0.09944666
0.050373103 0.098192446 0.018378986 0.120231494 0.058422744 0.06396014 0.03820847 0.0826726
0.11442165 0.039538063 0.044437625 0.06537287 0.02318633 0.16771595 0.049296696 0.015685068
0.109041564 0.017878097 0.04064049 0.3370089 0.15496695 0.099288136 0.039219923 0.10441888

conv3.4.running_var f4 [64]
00000000: 4f9b 383e 7737 c13d 4fd3 5b3e 0638 de3d
00000010: 00df 953e 48b4 f33e 43fc 993e aa51 b33d
00000020: a24e 043e db3c e03e 0965 af3e 9f42 d93c
00000030: 43cd 923e e58f f83d 9022 cc3d 68a8 b73e
00000040: 879f 6c3d fba5 cf3c 29d0 8a3e 6d23 883e
00000050: 0a23 4c3d e1f4 3f3e a9e4 eb3e 702f c53e
00000060: d5b9 473d 66a7 1b3e 0733 0c3e 8dd0 0a3e
00000070: 1112 803d 2cff 6b3e 766e 2f3d ad0b 733d
00000080: c5e3 ac3e 2225 313e 697d da3d bbbc 943d
00000090: ff5d 3f40 34d6 063e 66ea ca3d 552d b93e
000000a0: e01c ca3d 42dc 813e d850 7d3d 368b f13e
000000b0: a721 473e 0f4c 463e c69f fc3d c0db 023e
000000c0: 1b4f d83e 31ef ef3d a2ec f63d 12c9 753e
000000d0: 8669 653d e0de 1f3f 7483 2d3e 00b6 273d
000000e0: 3c5c 563e 011e 2b3d e404 153e 8f03 893f
000000f0: 5552 333f d3fb b23e 194d cf3d c098 9a3e
0.18027996 0.09434407 0.21467327 0.108505294 0.29271698 0.4759848 0.30075273 0.087558106
0.12920621 0.4379643 0.3425677 0.026521025 0.28672227 0.12136821 0.0996753 0.3587067
0.057769325 0.0253477 0.2711194 0.26589528 0.049838103 0.18745758 0.4607289 0.38512754
0.048761208 0.15200576 0.1369134 0.13556118 0.06253446 0.23046559 0.042829953 0.059337307
0.33767524 0.17299321 0.10668451 0.0726256 2.990112 0.1316765 0.09907989 0.36167398
0.09868789 0.25363356 0.061844677 0.47176522 0.19446431 0.19364952 0.12335162 0.1277914
0.42247853 0.11715544 0.12056853 0.24002483 0.056008838 0.62449455 0.16944677 0.040945053
0.20933622 0.04177666 0.14552647 1.0704211 0.70047504 0.34957752 0.10122127 0.30194664

fc.0.weight f4 [32, 64]
00000000: 525c 353e 7622 563e 39f8 8cbd 8241 33be
00000010: 8025 a0be 98d4 9dbd c4bd 35be bdfc 893d
00000020: 4d47 d83d ad3d 2bbe b4ef 4bbe 6e1d 34bd
00000030: 3b8f 56be d3bb 143e e5ae 253e 6e52 86be
00000040: 1beb 493d 31d4 d73d b41d 94be c1e8 5bbe
00000050: 64be ff3c 5154 0ebe 34ea 47be 83f0 9bbe
00000060: 58f2 163e f9eb 153d b7a5 523c ac78 71be
00000070: 9c91 3b3e 3f2b 32be 4ecf 923d 72c3 1d3e
00000080: dd0b 82bd e570 c73d 502d dd3d 12b0 343e
00000090: 8649 e53d c82a 8dbe bee4 1abe 607f 83be
000000a0: 203d 1a3e 74a3 8f3d fcdb ce3d 5da5 44be
000000b0: b7a4 1b3e 7754 9bbe baf3 59be 6934 e33c
000000c0: aa42 afbd db6c 7cbe 373b c73d 7837 7bbe
000000d0: 0b46 d33d 35b4 89be fa65 2fbe 7beb 103e
000000e0: 9d75 d93d 0968 17be bb70 90be ee5b e83b
000000f0: 5c86 09be ddb1 eabd edfa 5e3d 0241 5bbe
00000100: 7088 3c3d 6462 803d 3005 17be 30b8 84be
00000110: af9a 0fbe d252 dcbd 2967 65be cfe2 153e
00000120: c04a 09bd 027c 7fbe 0834 20bd 4907 3dbc
00000130: e8ab 24be be01 023e 1be4 513e 7efe 32be
00000140: 4f74 0c3e c0ff dd3d fc14 49be c53d 91bd
00000150: 797a 0d3d 19ff 8bbe ded3 7cbe 144e 81be
00000160: 2517 fa3c 5f38 2a3e bb11 a13d ea1f 83be
00000170: 2753 1d3e eb41 8bbe 9b36 a53d 5955 3cbd
00000180: 5917 01be d4c0 733e 229c 253e 1350 3a3e
00000190: 3356 403d 2947 1dbe 56f6 5ebe 3343 85be
000001a0: 02ef 673c 917a 7f3d 1c4f 273e 2ef3 9cbd
000001b0: 8ebe 373d 0a3d 52be 3446 8fbd dd31 0a3e
000001c0: a9c3 92be 17fd 3dbe 462e c73c b50c 03be
000001d0: 28ee f23d 0290 d3bd fe00 19be a8ab 3d3e
000001e0: a7f5 363e 94d0 2fbe bb9e 34be 328d d3bc
000001f0: 2467 5abe 2cb5 c4bd c18f d43d 6ec5 2fbe
00000200: ee8c 9e3d 1bbd e23d 5f86 37be 16a0 48be
00000210: 302e 60be 212a 07be dd56 82be 5c0c ca3d
00000220: 40cc 7e3d 808b e0bd 5f8f 04be dcf8 e03d
00000230: 5915 4fbe 0918 d03d db64 163e c4ee 40be
00000240: 83b9 423d e6de 133e 8d2b 85bd 8fe6 83be
00000250: 6bc4 cb3d ea4c 3cbe 1311 83be 111d 73be
00000260: 7fd3 6b3c bcc3 1b3d 026f 1e3e c801 5abe
00000270: 70ac f43d b23f 0abe b551 383e 24d3 5bbd
00000280: 2a58 23be 56a5 bd3d 9f0b 10bc f037 193e
00000290: 2760 7bbd e10a 58be 9fa3 0cbe 4322 69be
000002a0: a899 743d 1bf4 d7bb 5da4 293e 65b0 3cbe
000002b0: a472 a43d 2e25 79be 7e44 3ebd 8833 93bd
000002c0: 4575 82bd cd15 eabd 66f1 113e 37ab 4abe
000002d0: 5621 1a3e 309c 5dbe a2a4 39be 3967 583e
000002e0: ab9c c33d 6d85 8bbe 9433 89be 87ed 993d
000002f0: 1c57 3abe 59a2 3ebe 6bcd 5b3d 639f 4bbe
00000300: 99f9 47be 5e6f 02be 3ec4 ac3d 9a0d 163e
00000310: 8c02 703e f901 583e 06cb 353e 436a 17be
00000320: 5bdc afbc c501 7a3e f038 ea3d 11f7 00be
00000330: 498f 433e 59f4 f3bd 8ee0 45be 95a9 123e
00000340: c1cb 25be b751 a5bc 599b ef3d 3d0c 553e
00000350: 4cd3 17be 2b62 5b3e 1cd8 143e b5a0 2e3e
00000360: 8094 64bc 97e3 aebc 81cd dbbd 5915 593d
00000370: 0b46 b9bc b171 943e af59 59bd 4862 cfbd
00000380: 0f5b 2c3e 0a01 00be 286b 2fbe 0690 08be
00000390: ec8b b7bd 19f6 1f3e ba05 e43d eb11 193e
000003a0: 4360 54bc eff5 18be 43b0 c2bd 5cbe 583e
000003b0: 2cdc adbd 2a1b 653e e322 ba3d fa80 78bd
000003c0: 6123 433d 68eb f43d f6cc e7bd ae79 023e
000003d0: c276 bcbd 5ed1 5b3e 2618 703e 7100 0fbe
000003e0: 232b 23be f9b1 313e 0843 a73d 4c7c 06bd
000003f0: 1db8 583d a084 743e 4e40 9bbd 3aa2 093e
0.17710999 0.20911583 -0.06883282 -0.17505458 -0.3127861 -0.07706565 -0.17748171 0.06737659
0.105604745 -0.16722746 -0.19915658 -0.04397338 -0.20953076 0.14524774 0.16179998 -0.26234764
0.04929648 0.10538519 -0.28928912 -0.21475507 0.031218715 -0.13899352 -0.19522935 -0.30456933
0.14740884 0.036601994 0.012856892 -0.23581189 0.18317264 -0.1739931 0.071684465 0.15406588
-0.06349919 0.0973833 0.10799658 0.1764529 0.11195664 -0.27571702 -0.1512632 -0.25683117
0.1506238 0.07013598 0.101005524 -0.19203706 0.15199552 -0.3033788 -0.2128438 0.027734952
-0.08557637 -0.246509 0.09728091 -0.24532878 0.10316094 -0.268953 -0.17128745 0.14152329
0.10618136 -0.1478578 -0.28211007 0.007091037 -0.1343016 -0.11459706 0.05443852 -0.21411517
0.046028554 0.062687665 -0.14748073 -0.25921774 -0.14023851 -0.10757984 -0.22402634 0.14637302
-0.033518553 -0.24949649 -0.03911212 -0.011537381 -0.16081202 0.12695977 0.20497172 -0.17479894
0.13716243 0.10839796 -0.19636911 -0.0709186 0.034540627 -0.27343062 -0.24690196 -0.2525488
0.030528614 0.16623066 0.0786471 -0.25610286 0.15363751 -0.2719873 0.08067056 -0.04597983
-0.12606563 0.23804027 0.16172841 0.18194608 0.046957206 -0.15359177 -0.21773657 -0.2602783
0.014156105 0.062372748 0.16338772 -0.0766357 0.04485946 -0.20531097 -0.06995812 0.13495584
-0.28664902 -0.18553577 0.024314057 -0.12797816 0.11861831 -0.10330202 -0.14941785 0.18522513
0.17867146 -0.1716941 -0.17638676 -0.025824163 -0.21328408 -0.09604868 0.103789814 -0.17165157
0.07741724 0.11071225 -0.17922352 -0.19592318 -0.21892619 -0.13199665 -0.25456896 0.098656386
0.062206507 -0.109641075 -0.12945317 0.10984966 -0.20222987 0.10160834 0.14686911 -0.18841082
0.0475402 0.14440498 -0.06502447 -0.2576184 0.09949573 -0.18388715 -0.25598964 -0.23741557
0.014393686 0.038028464 0.15472034 -0.21289742 0.11946952 -0.1350086 0.17999919 -0.053668156
-0.159516 0.09260051 -0.008791833 0.14962745 -0.061370995 -0.210979 -0.13734291 -0.22766976
0.05971685 -0.006590379 0.16566606 -0.18426664 0.080296785 -0.24330589 -0.046452038 -0.07187563
-0.06370024 -0.114299394 0.14252242 -0.19791876 0.15051779 -0.21641612 -0.18129209 0.21133126
0.095513664 -0.27250233 -0.26797163 0.07516008 -0.18197292 -0.18616618 0.0536627 -0.1988502
-0.19528808 -0.12737796 0.08435868 0.14653626 0.23438472 0.21094503 0.17753229 -0.1478663
-0.021467378 0.24414738 0.11436641 -0.12594248 0.19097628 -0.1191184 -0.19323942 0.14322503
-0.16191007 -0.020180566 0.11699552 0.2080545 -0.14826697 0.21424167 0.14535564 0.17053492
-0.013951421 -0.021348758 -0.10732556 0.052998874 -0.022616407 0.2899299 -0.053064045 -0.101261675
0.16831611 -0.12500396 -0.1713072 -0.1333619 -0.08962235 0.15621223 0.11133905 0.14948241
-0.012962404 -0.14937566 -0.095062755 0.21166366 -0.0848926 0.22373644 0.09088685 -0.060669877
0.04764116 0.11958963 -0.1131839 0.1274173 -0.09202339 0.21466586 0.23446712 -0.13965012
-0.15934424 0.17353047 0.08167082 -0.032833382 0.05290996 0.23878717 -0.075806245 0.13440791

fc.0.bias f4 [32]
00000000: b481 e8bc d987 98bd b30a a7bd 09f4 6e3d
00000010: 34bd 283c e64b aebd 18b8 573d 1ac1 a8bc
00000020: 922e e1bd e161 62bd 829f 16bd ab85 efba
00000030: 91a5 9f3d 9ee6 5dbd c255 8fbd 9a13 f83b
00000040: 7ffb 2e3d eef6 54bd 2bd0 3fbd a372 753b
00000050: 8566 133d 70e3 c73d 403c 8a3d 0ecb 44bd
00000060: ec5e 20bd 6cfb d93d 928a 943d 4eea 0d3d
00000070: 7e3a c03d 9b8d 9b3d 8ac0 f3bc 3947 083d
-0.02838216 -0.07447786 -0.081563376 0.0583382 0.010299016 -0.0851057 0.0526658 -0.02059989
-0.10995211 -0.055269126 -0.036773212 -0.0018274089 0.07795251 -0.05417501 -0.06998779 0.007570696
0.042720314 -0.051993303 -0.046829384 0.0037452362 0.035986442 0.09760177 0.06749773 -0.04804521
-0.039153025 0.10643658 0.07252993 0.03464728 0.093861565 0.075953685 -0.029754896 0.03327105

fc.3.weight f4 [1, 32]
00000000: 92f8 4ebe 2273 80be 93d7 8abe 2baf f33e
00000010: 1244 da3e 09c4 6abe f06c 903e 11c3 e83e
00000020: 2339 72be e8a4 87be 2fb3 e13e 7f18 65be
00000030: 2dbf 9abe 76fb 35be c7f5 45be 65af 4abe
00000040: dec4 5bbe fb44 c53e 1312 9dbe a756 71be
00000050: 56a4 ad3e 7922 dd3e 1b74 d73e a336 ec3e
00000060: be9f 89be f65f 95be 062a b43e 7fd4 81be
00000070: 9ed3 cf3e 6db3 58be 7997 94be 241b 78be
-0.2021201 -0.2508784 -0.27117595 0.4759458 0.4263006 -0.22926344 0.28208113 0.45461324
-0.23654608 -0.26493 0.4408202 -0.22372626 -0.3022398 -0.17771706 -0.19332038 -0.1979347
-0.21461818 0.3852919 -0.30677852 -0.23568211 0.3391444 0.43190363 0.4208077 0.46135435
-0.26879686 -0.29174775 0.3518831 -0.25357434 0.4059114 -0.21162196 -0.29021814 -0.24229103
