5 第五讲 机器学习训练模型的数学范式v16/models/model110.pth (torch, 112459 bytes, 21 tensors)

conv1.0.weight f4 [16, 3, 3, 3]
-0.014360078 -0.12058628 0.14328547 -0.052504804 -0.1343304 -0.17435887 0.04424065 -0.16002338
0.093038976 0.07376979 0.18965168 -0.13583437 0.036529217 0.038662996 0.02375305 0.11085823
0.0036358282 -0.064085566 0.14998472 -0.11743022 -0.15202805 0.11015003 -0.047114514 0.15412444
-0.116346516 0.15670781 0.042044416 -0.05431893 0.1370059 -0.06419165 -0.007252821 -0.07252744
0.09386092 0.057048738 0.14902487 -0.08395859 0.029086221 -0.0077563664 0.16735029 -0.15995704
-0.061027758 0.17518847 0.06293499 -0.047052033 0.09403501 0.04380046 -0.06574967 -0.14916009
-0.18703486 0.10296134 -0.010056958 0.075076535 -0.15966542 0.17475201 0.0808364 -0.012851698
-0.0960454 -0.014815775 -0.13395922 -0.17321786 -0.062754475 0.112316184 -0.17272462 0.1587392
0.09082384 -0.15780008 0.17256835 0.051381104 -0.042680115 0.027020419 0.041031893 0.12160824
0.1887875 0.033972975 -0.041727547 0.01702012 0.036463883 -0.08617991 -0.08046798 -0.20044014
0.17758705 -0.07357691 -0.01082847 -0.15287013 0.009562253 0.17710356 -0.15325448 0.12046198
0.1964502 -0.18492655 -0.038415045 0.010510891 0.0030418574 -0.005259875 0.1603274 0.14721845
0.01781825 0.055933904 -0.10463829 -0.13996074 -0.10119753 0.15068194 0.16886447 0.14812124
0.0309936 0.08957383 -0.07867919 -0.04364139 -0.19271627 0.060308866 -0.10377329 0.1609938
0.020333873 0.115288675 -0.045250162 0.051598337 -0.15622085 -0.20155062 -0.11406564 0.20052904
0.07188698 0.1021999 0.202901 0.08212326 0.08274852 -0.052439068 -0.13013266 0.09948124
0.15754636 -0.17615862 0.053362858 -0.04598657 0.15853512 -0.040559754 -0.040616576 -0.04223002
-0.05942281 0.15096524 -0.098492205 0.044967525 0.002789487 0.13087024 0.08543361 -0.14415807
-0.0065514967 0.00705625 -0.02823026 0.1621556 0.20114845 -0.13023995 -0.053300504 0.19841096
0.057136096 -0.08309774 0.10187608 -0.046248607 -0.0952787 -0.20430619 0.10883991 -0.06940658
-0.15507297 -0.15441921 -0.023683777 0.12758593 0.10029325 0.13007747 -0.08073156 -0.16058895
-0.033855785 -0.09176793 0.065842 0.13044518 -0.06488175 -0.20684789 0.15926023 0.051215187
-0.1351472 -0.05962749 -0.04096667 -0.12764102 0.17785397 0.057956047 -0.12980801 -0.10886227
-0.08971325 -0.19533437 -0.011545949 -0.06100028 -0.10814212 0.01557089 -0.097656615 0.102877304
0.09547293 -0.06907422 -0.09189706 -0.20024455 -0.023826241 -0.16664186 0.18073203 0.108497255
0.0042303177 -0.014556012 -0.007733607 0.19039188 -0.02438802 0.03598125 0.11540898 0.061582375
-0.024124691 0.123397276 -0.16682497 0.015509681 -0.2107805 0.07641102 0.104116954 -0.06506449
-0.16316986 -0.10009187 -0.0028586432 -0.15220541 -0.042414904 -0.041651048 -0.12114273 0.0758801
-0.09580724 0.078554206 -0.17266615 -0.05986324 0.1820182 -0.12278944 -0.041371126 0.089319795
0.06727965 -0.062862866 0.0817749 -0.20574366 -0.26151988 -0.057806853 0.1733967 0.10483671
0.14933196 0.04531256 0.03336512 0.18840517 0.088660054 0.055094935 -0.14743988 -0.12462389
0.1350148 0.20121092 0.053623866 0.07919051 -0.14751309 -0.06348489 -0.048560753 -0.09445254
00000000: 8846 6bbc f1f5 f6bd 6db9 123e 470f 57bd
00000010: e98d 09be 228b 32be af35 353d 2bdd 23be
00000020: 388b be3d 9e14 973d 0d34 423e 2a18 0bbe
00000030: a99f 153d 175d 1e3d c295 c23c a409 e33d
00000040: 1347 6e3b 4b3f 83bd 9895 193e 417f f0bd
00000050: 3ead 1bbe 5796 e13d 26fb 40bd ccd2 1d3e
00000060: 1547 eebd 0378 203e c436 2c3d 877d 5ebd
00000070: 464b 0c3e e976 83bd 12a9 edbb 4489 94bd
00000080: 273a c03d f0ab 693d fa99 183e 7bf2 abbd
00000090: 3a46 ee3c 1e29 febb e05d 2b3e c7cb 23be
000000a0: 3ef8 79bd 9b64 333e 0fe4 803d a2b9 40bd
000000b0: 6d95 c03d 1c68 333d c3a7 86bd 6cbd 18be
000000c0: 1186 3fbe 65dd d23d f0c5 24bc bac1 993d
000000d0: 557f 23be 31f2 323e 8e8d a53d ee8f 52bc
000000e0: 73b3 c4bd ddbd 72bc 9b2c 09be 0660 31be
000000f0: 6b85 80bd 0706 e63d b9de 30be 878c 223e
00000100: d901 ba3d 5896 21be c2b5 303e fe74 523d
00000110: 58d1 2ebd ed59 dd3c 0f11 283d be0d f93d
00000120: 8351 413e 3f27 0b3d 81ea 2abd c76d 8b3c
00000130: 275b 153d 187f b0bd 65cc a4bd 2e40 4dbe
00000140: 61d9 353e 7eaf 96bd e569 31bc fd89 1cbe
00000150: ffaa 1c3c a35a 353e beee 1cbe c5b4 f63d
00000160: 3e2a 493e 635d 3dbe 1859 1dbd df35 2c3c
00000170: e659 473b 085b acbb de2c 243e 6fc0 163e
00000180: 94f7 913c f31a 653d 9a4c d6bd de51 0fbe
00000190: a740 cfbd 5e4c 1a3e cfea 2c3e 18ad 173e
000001a0: 4ae6 fd3c 7c72 b73d 8e22 a1bd 50c1 32bd
000001b0: 6a57 45be 6e06 773d 1787 d4bd 8fdb 243e
000001c0: 3993 a63c 781c ec3d 3c58 39bd c758 533d
000001d0: 5cf8 1fbe 4963 4ebe 3f9b e9bd 7c57 4d3e
000001e0: 7b39 933d 2e4e d13d 48c5 4f3e 3d30 a83d
000001f0: 0e78 a93d 59ca 56bd 7f41 05be d2bc cb3d
00000200: d553 213e ed62 34be 0393 5a3d 6a5c 3cbd
00000210: 0857 223e fc21 26bd 915d 26bd 63f9 2cbd
00000220: 5565 73bd a296 1a3e 48b6 c9bd de2f 383d
00000230: d3cf 363b d902 063e d1f7 ae3d 2c9e 13be
00000240: f0ad d6bb 1d38 e73b 2543 e7bc 1e0c 263e
00000250: dcf9 4d3e 9f5d 05be a151 5abd 3e2c 4b3e
00000260: 8a07 6a3d 262f aabd 68a4 d03d 2e6f 3dbd
00000270: 7b21 c3bd a435 51be 75e7 de3d 0925 8ebd
00000280: 73cb 1ebe 1220 1ebe 7b04 c2bc e3a5 023e
00000290: 8c66 cd3d 0733 053e 9756 a5bd 6e71 24be
000002a0: 5dac 0abd d3f0 bbbd 2cd8 863d 6c93 053e
000002b0: b9e0 84bd efcf 53be 1d15 233e 04c7 513d
000002c0: 0764 0abe f43b 74bd abcc 27bd 54b4 02be
000002d0: 5a1f 363e 5263 6d3d 64ec 04be 2ff3 debd
000002e0: 95bb b7bd bc05 48be 382b 3dbc 6edb 79bd
000002f0: 9e79 ddbd 0c1d 7f3c 3100 c8bd 56b1 d23d
00000300: 5087 c33d c976 8dbd 8734 bcbd e80c 4dbe
00000310: 402f c3bc 2aa4 2abe d111 393e cf33 de3d
00000320: 7a9e 8a3b 577c 6ebc 336a fdbb 17f6 423e
00000330: 63c9 c7bc 1361 133d 8b5b ec3d cd3d 7c3d
00000340: 25a1 c5bc b6b7 fc3d 2ad4 2abe 511c 7e3c
00000350: d8d6 57be 617d 9c3d 453b d53d 8840 85bd
00000360: 0016 27be f7fc ccbd 1358 3bbb bcdb 1bbe
00000370: 40bb 2dbd 4a9a 2abd ae19 f8bd 0767 9b3d
00000380: 9636 c4bd 07e1 a03d 65cf 30be 2833 75bd
00000390: fb62 3a3e 0879 fbbd c574 29bd 4ced b63d
000003a0: eac9 893d 3fbe 80bd 9979 a73d 77ae 52be
000003b0: efe5 85be e1c6 6cbd e88e 313e a1b4 d63d
000003c0: 7aea 183e aa99 393d dda9 083d 49ed 403e
000003d0: 6793 b53d 3aab 613d 7bfa 16be cf3a ffbd
000003e0: 5241 0a3e 3c0a 4e3e b3a4 5b3d a22e a23d
000003f0: ac0d 17be 5e04 82bd a4e7 46bd 5570 c1bd

conv1.0.bias f4 [16]
0.07703681 0.12849222 0.073411845 0.0641976 -0.193311 -0.0023663135 0.11631081 0.028625462
-0.20313825 0.013041438 0.19018121 -0.119526766 0.16318668 -0.16542067 0.013124274 0.23476422
00000000: 7ac5 9d3d 7793 033e f358 963d 087a 833d
00000010: 52f3 45be 2714 1bbb 5d34 ee3d f27f ea3c
00000020: 7903 50be c1ab 553c ddbe 423e 73ca f4bd
00000030: 691a 273e 0964 29be 3207 573c 0866 703e

conv1.3.weight f4 [16]
0.95920026 0.97598594 1.0326189 0.9126002 1.0165336 1.0137632 0.992458 0.91963464
0.9380807 1.0442581 0.93214166 1.1324004 0.9166909 1.0243039 0.9433269 0.9703661
00000000: 268e 753f 37da 793f db2c 843f 2ba0 693f
00000010: c61d 823f fec2 813f ba11 7e3f 2d6d 6b3f
00000020: 0f26 703f 40aa 853f d6a0 6e3f 7ff2 903f
00000030: 41ac 6a3f 641c 833f df7d 713f ea69 783f

conv1.3.bias f4 [16]
-0.0022499782 0.16203351 0.0045498805 0.035672646 0.1595716 -0.0347534 0.091074124 0.048164666
0.21570686 0.04131729 -0.128522 0.032467972 0.025207726 0.07630566 0.023735777 -0.12508325
00000000: 5f74 13bb 1dec 253e 2a17 953b 7b1d 123d
00000010: bd66 233e 9559 0ebd 1285 ba3d 5048 453d
00000020: 42e2 5c3e 523c 293d 459b 03be 23fd 043d
00000030: 6f80 ce3c 2446 9c3d 8871 c23c d315 00be

conv1.3.running_mean f4 [16]
0.09896775 0.22809194 0.09050689 0.2440111 0.01965761 0.0114631755 0.018658722 0.067530766
1.493142e-05 0.032134667 0.45040342 0.010901762 0.17094275 0.013335759 0.062672935 0.19046718
00000000: 9baf ca3d ef90 693e ad5b b93d 0cde 793e
00000010: ff08 a13c 0bd0 3b3c 2dda 983c 924d 8a3d
00000020: f681 7a37 a49f 033d 479b e63e 4e9d 323c
00000030: 9e0b 2f3e 3a7e 5a3c ab5a 803d d409 433e

conv1.3.running_var f4 [16]
0.00207877 0.0037800176 0.0028896637 0.013337003 0.001600613 0.0007624684 0.0016674 0.0021162918
1.3359728e-06 0.0021562416 0.035119973 0.0010829818 0.0011624175 0.0009629125 0.004906407 0.0019121552
00000000: f93b 083b 2cba 773b 8360 3d3b 7283 5a3c
00000010: a9cb d13a 63e0 473a a98c da3a 7cb1 0a3b
00000020: ad4f b335 bb4f 0d3b f6d9 0f3d d7f2 8d3a
00000030: 425c 983a f76b 7c3a edc5 a03b 48a1 fa3a

conv2.0.weight f4 [32, 16, 3, 3]
0.004581606 -0.025622994 -0.0120639345 0.010891093 0.068763494 0.021019008 0.071178995 -0.011804461
-0.006302947 -0.04653456 -0.08677873 -0.04786198 -0.025126334 0.03288039 -0.03265781 -0.033323072
-0.0474763 0.046798714 0.10789063 -0.02047236 -0.093511425 0.08873414 0.06270415 -0.0691245
-0.04701166 -0.049842853 -0.07193534 0.098550655 0.053827565 -0.05635372 0.0012189024 0.06556757
-0.023586133 0.041421097 0.014413855 0.04293434 0.03932218 0.03566385 -0.03398902 -0.111689925
-0.018532464 0.0042904275 -0.056194175 -0.053727794 0.014235461 0.02399148 0.07541 0.09077597
-0.039007045 0.066757694 0.04444112 0.09402463 0.1035463 0.07243508 0.058439236 0.021606378
-0.026073772 -0.03665587 0.04568438 -0.007205633 0.04104582 0.035047904 0.07016623 0.06540049
-0.06340628 -0.03799009 0.06935719 0.060171254 -0.05145913 0.03804413 -0.07526161 -0.056908753
-0.049113918 -0.16607149 -0.08428889 -0.15846357 -0.1978636 -0.15293613 -0.13249797 -0.08721006
-0.179618 -0.13597149 -0.057049513 0.0562682 -0.07372902 0.0030425382 0.056198504 -0.11450191
-0.11107985 0.060770318 0.09655172 -0.0051980787 -0.008008889 -0.03830238 0.035553996 -0.02269821
0.10410769 0.053931706 0.03215863 0.010920728 -0.013460096 0.04235428 -0.09407585 -0.112374924
-0.13347429 -0.0361598 0.040720746 0.034771625 0.06631041 -0.010222428 0.052179016 0.04797815
-0.004791154 0.0068736817 -0.03945956 0.008050064 -0.06897768 0.06404907 -0.06793597 -0.12461647
-0.035884216 -0.067905106 -0.022727104 -0.14762367 -0.055895045 0.050875526 0.020616503 -0.050889824
-0.021468174 -0.039305955 -0.061725896 -0.058686767 -0.041720692 0.027983809 0.02962067 -0.045589853
-0.00033030586 0.01763584 0.0067495317 -0.07021012 -0.050254647 0.05201095 0.06081439 -0.0017545864
0.023748433 -0.027412102 0.030675983 0.07900489 0.008573802 -0.05514527 0.015430047 0.044084754
0.06749674 -0.029770426 0.012342183 -0.05433241 -0.07031105 0.01910462 -0.12413127 0.028012881
-0.012179944 -0.030064179 0.026910532 0.09287956 0.0793479 0.112041585 -0.054996297 0.034365807
0.10331446 -0.003469317 0.08335722 0.08425138 0.011022972 -0.012329299 0.009570477 -0.015834114
0.07521491 0.059327915 -0.018931957 0.09164778 0.055883747 0.04744263 -0.040469777 0.066716924
0.055646297 0.046589114 0.08045907 -0.0054430133 0.06315213 0.0057218443 -0.079760745 -0.0015058441
-0.06955914 -0.14586046 -0.096422784 0.015128439 -0.052438248 -0.084233135 -0.024570823 -0.022810899
0.07455055 0.11644306 0.042284448 0.07618005 0.03681352 -0.05737715 0.07518517 -0.05075259
0.06768084 0.04272374 -0.0478048 -0.07017384 -0.06561447 0.0015540388 -0.10148388 -0.006979439
0.010534308 -0.047520284 0.063873835 -0.10063389 0.016168557 -0.021506876 -0.030553218 -0.08873088
-0.05005578 0.038209993 -0.08081418 -0.059177496 0.052938752 0.0037778898 -0.07691911 0.09528437
-0.015672363 -0.017918227 0.04267851 -0.025638556 0.09822278 0.11344082 0.1161728 -0.0013901665
0.018005162 0.12739435 0.064910255 0.026986491 0.034485657 0.09016356 -0.061114073 -0.032853894
-0.012072785 0.03332529 -0.0026392555 0.04359507 0.07967115 0.057033546 0.06038983 0.059930522
00000000: 4c21 963b 50e7 d1bc cfa7 45bc 8e70 323c
00000010: e0d3 8c3d 0e30 ac3c 4bc6 913d 7f67 41bc
00000020: f488 cebb 069b 3ebd 0cb9 b1bd ec0a 44bd
00000030: bed5 cdbc 96ad 063d 32c4 05bd c67d 08bd
00000040: 8276 42bd 02b0 3f3d c3f5 dc3d a7b5 a7bc
00000050: eb82 bfbd 3fba b53d 096b 803d 2591 8dbd
00000060: 4c8f 40bd 0528 4cbd d652 93bd edd4 c93d
00000070: 4b7a 5c3d 29d3 66bd 94c3 9f3a 4a48 863d
00000080: b537 c1bc 2ba9 293d 1728 6c3c ebdb 2f3d
00000090: 4b10 213d 4214 123d 1238 0bbd b0bd e4bd
000000a0: 65d1 97bc b796 8c3b dd2b 66bd ad11 5cbd
000000b0: da3b 693c c889 c43c 8f70 9a3d c0e8 b93d
000000c0: dac5 1fbd 42b8 883d e407 363d fc8f c03d
000000d0: 1510 d43d d858 943d fb5d 6f3d dcff b03c
000000e0: aa98 d5bc 7724 16bd 8b1f 3b3d 3b1d ecbb
000000f0: a91f 283d 648e 0f3d 50b3 8f3d b1f0 853d
00000100: 27db 81bd 7f9b 1bbd 240b 8e3d 2276 763d
00000110: cfc6 52bd 29d4 1b3d c222 9abd 2719 69bd
00000120: ad2b 49bd a50e 2abe a79f acbd 4644 22be
00000130: c19c 4abe 4a9b 1cbe 8cad 07be 309b b2bd
00000140: c8ed 37be 1c3c 0bbe c0ac 69bd 7c79 663d
00000150: 3eff 96bd 5265 473b 6730 663d fa7f eabd
00000160: d57d e3bd 4cea 783d e8bc c53d a554 aabb
00000170: b737 03bc f5e2 1cbd 11a1 113d 99f1 b9bc
00000180: 6a36 d53d 7ee7 5c3d c5b8 033d daec 323c
00000190: bc87 5cbc ae7b 2d3d d7aa c0bd d324 e6bd
000001a0: 7cad 08be 4c1c 14bd ccca 263d b16c 0e3d
000001b0: c1cd 873d f87b 27bc aab9 553d bd84 443d
000001c0: 1dff 9cbb 9f3c e13b 59a0 21bd 6ae4 033c
000001d0: 2b44 8dbd 292c 833d 0422 8bbd eb36 ffbd
000001e0: 54fb 12bd d511 8bbd 312e babc a92a 17be
000001f0: 34f2 64bd db62 503d f1e3 a83c d971 50bd
00000200: 06de afbc 48ff 20bd 4bd4 7cbd 8961 70bd
00000210: 51e3 2abd 4d3e e53c 0ca7 f23c 6dbc 3abd
00000220: e72c adb9 0a79 903c 2d2b dd3b 53ca 8fbd
00000230: d1d7 4dbd 6f09 553d 8318 793d 26fa e5ba
00000240: 138c c23c 588f e0bc 334c fb3c 51cd a13d
00000250: 2279 0c3c 02e0 61bd 4fce 7c3c 3792 343d
00000260: bb3b 8a3d 1ce1 f3bc de36 4a3c a98b 5ebd
00000270: 3dff 8fbd 4b81 9c3c 8938 febd 457b e53c
00000280: 638e 47bc 2749 f6bc 7a73 dc3c a437 be3d
00000290: 2781 a23d 0f76 e53d cc43 61bd 29c3 0c3d
000002a0: 8896 d33d 7b5d 63bb 31b7 aa3d fd8b ac3d
000002b0: b299 343c d400 4abc 7dcd 1c3c 8bb6 81bc
000002c0: 460a 9a3d d401 733d 3117 9bbc d5b1 bb3d
000002d0: 5be6 643d 3453 423d a3c3 25bd e2a2 883d
000002e0: 5fed 633d 3ad4 3e3d bac7 a43d 4e5b b2bb
000002f0: e755 813d 4f7e bb3b 9a59 a3bd be5f c5ba
00000300: 0675 8ebd 725c 15be 4f79 c5bd 46dd 773c
00000310: 7dc9 56bd 6c82 acbd c048 c9bc ecdd babc
00000320: f5ad 983d b379 ee3d 7532 2d3d 4904 9c3d
00000330: c6c9 163d 4d04 6bbd affa 993d f3e1 4fbd
00000340: 419c 8a3d 17ff 2e3d f7ce 43bd 4db7 8fbd
00000350: e160 86bd e4b0 cb3a c8d6 cfbd c7b3 e4bb
00000360: 1798 2c3c a1a4 42bd 49d0 823d 2419 cebd
00000370: ec73 843c 302f b0bc be4a fabc 89b8 b5bd
00000380: 4a07 4dbd 1582 1c3d e881 a5bd 1a64 72bd
00000390: 4ed6 583d 7996 773b c487 9dbd 7424 c33d
000003a0: 5463 80bc 3fc9 92bc a9cf 2e3d f307 d2bc
000003b0: 0629 c93d a953 e83d 01ec ed3d 3f36 b6ba
000003c0: 907f 933c aa73 023e abef 843d c612 dd3c
000003d0: d540 0d3d aca7 b83d c052 7abd ce91 06bd
000003e0: eecc 45bc 1980 083d 5cf7 2cbb be90 323d
000003f0: a12a a33d 029c 693d 545b 773d b579 753d

conv2.0.bias f4 [32]
-0.09034066 -0.069604784 -0.11703726 0.0782181 -0.14211917 -0.10294903 0.095033996 0.0242435
-0.125412 0.0069881734 -0.0061226604 -0.18823199 -0.037914008 -0.10504791 -0.24202047 -0.021169158
-0.0924055 -0.05823622 -0.08061417 0.10740812 0.015084126 -0.12550211 -0.079258755 -0.08995224
0.030092359 -0.17282313 -0.1238756 0.010424646 -0.10684939 -0.18222201 -0.12658745 -0.14153518
00000000: 8604 b9bd f48c 8ebd 3bb1 efbd d030 a03d
00000010: b087 11be f1d6 d2bd 2fa1 c23d 4e9a c63c
00000020: 016c 00be 0cfd e43b 99a0 c8bb e3bf 40be
00000030: b84b 1bbd 5c23 d7bd 37d4 77be f16a adbc
00000040: 183f bdbd 1a89 6ebd 0b19 a5bd caf8 db3d
00000050: 6923 773c a083 00be 6a52 a2bd e138 b8bd
00000060: 4084 f63c 8cf8 30be 7eb2 fdbd 22cc 2a3c
00000070: dad3 dabd 6898 3abe 24a0 01be 99ee 10be

conv2.3.weight f4 [32]
1.0069125 0.9315687 1.0073111 0.90268564 0.98247206 0.96923757 0.9469544 0.9973018
0.9721794 1.0128676 1.0010679 1.0201825 1.0141654 0.9909923 1.038254 1.007033
0.80840445 0.97363025 0.99893683 0.9254202 0.9390521 0.9228794 1.0031513 1.0281231
0.9832182 1.0259078 1.0043828 0.8858141 0.98672944 1.0087336 0.93047875 0.93754727
00000000: 82e2 803f 497b 6e3f 92ef 803f 6816 673f
00000010: 4a83 7b3f f41f 783f 9b6b 723f 2c4f 7f3f
00000020: c0e0 783f a5a5 813f fe22 803f 5795 823f
00000030: 2cd0 813f acb1 7d3f 82e5 843f 75e6 803f
00000040: 98f3 4e3f d53f 793f 53ba 7f3f 57e8 6c3f
00000050: b865 703f d341 6c3f 4367 803f 8a99 833f
00000060: 30b4 7b3f f250 833f 9e8f 803f b6c4 623f
00000070: 4d9a 7c3f 2f1e 813f db33 6e3f 1903 703f

conv2.3.bias f4 [32]
0.0603172 0.3408697 0.06884098 -0.15850185 0.15954751 -0.14855206 0.48852038 0.048175953
-0.09074104 0.18499134 -0.09390623 0.5576703 -0.16121879 0.21113122 0.3155205 -0.1388889
0.16445409 -0.11466872 -0.009075346 -0.056078006 0.24445024 0.20678492 0.31052837 0.2002434
0.34533852 0.30793008 -0.074124545 -0.1282176 0.37916592 0.21031584 0.2739413 0.43416646
00000000: 2b0f 773d 7986 ae3e 80fc 8c3d 4f4e 22be
00000010: 6c60 233e 081e 18be 581f fa3e 2654 453d
00000020: 70d6 b9bd 5f6e 3d3e e951 c0bd 7bc3 0e3f
00000030: 8a16 25be c832 583e e78b a13e e438 0ebe
00000040: a766 283e 6fd7 eabd c3b0 14bc 0db2 65bd
00000050: 2a51 7a3e 6dbf 533e 93fd 9e3e 9b0c 4d3e
00000060: 36d0 b03e 03a9 9d3e 9cce 97bd 794b 03be
00000070: 0922 c23e 095d 573e 0942 8c3e 114b de3e

conv2.3.running_mean f4 [32]
0.09705463 0.63842595 0.20859908 0.94043624 0.29585525 0.12553129 0.519769 0.4441655
0.34952265 0.55246985 0.10966848 0.09963134 0.4910482 0.5097436 0.10768113 0.25878504
0.79713815 0.39593956 0.2420653 0.61393946 0.50911206 0.4787714 0.4936877 0.19224441
0.6399516 0.18615563 0.26891622 0.24628232 0.20681816 0.3942415 0.34721693 0.18055806
00000000: 94c4 c63d e26f 233f ff9a 553e 6ec0 703f
00000010: 577a 973e 468b 003e 950f 053f a969 e33e
00000020: a2f4 b23e aa6e 0d3f de99 e03d 840b cc3d
00000030: ab6a fb3e 8e7e 023f ed87 dc3d 797f 843e
00000040: 3f11 4c3f 97b8 ca3e f7df 773e 232b 1d3f
00000050: 2b55 023f 8621 f53e a2c4 fc3e b8db 443e
00000060: ded3 233f 959f 3e3e 63af 893e 6f31 7c3e
00000070: 24c8 533e 06da c93e 6bc6 b13e 36e4 383e

conv2.3.running_var f4 [32]
0.049171478 1.2734195 0.11987884 1.1663908 0.324325 0.040148605 0.23581973 0.5368076
0.49112496 0.2910589 0.078457415 0.09577694 0.2754795 1.0628335 0.15113363 0.14801389
1.7072048 0.4839578 0.23905136 0.3934316 0.29399443 0.9173432 0.6799815 0.14072332
0.62946934 0.16591276 0.17542951 0.07422623 0.3170401 0.70381576 0.27489993 0.117804125
00000000: 0868 493d 69ff a23f 0a83 f53d 4b4c 953f
00000010: ed0d a63e dd72 243d ba7a 713e 396c 093f
00000020: bb74 fb3e ac05 953e 48ae a03d b326 c43d
00000030: a60b 8d3e ee0a 883f c6c2 1a3e f490 173e
00000040: b085 da3f 51c9 f73e e1c9 743e de6f c93e
00000050: 7086 963e 01d7 6a3f 4513 2e3f c619 103e
00000060: e724 213f 09e5 293e cba3 333e ec03 983d
00000070: 1453 a23e 452d 343f afbf 8c3e 4a43 f13d

conv3.0.weight f4 [64, 32, 3, 3]
-0.045882106 -0.049134627 -0.06656783 -0.05227111 -0.06488151 -0.07318664 -0.07965915 -0.04332988
-0.13507587 -0.052734204 0.03592561 -0.004111547 -0.012506051 -0.043525327 -0.014715022 -0.00074791204
-0.008671319 0.058535527 -0.022286927 -0.038379617 -0.1033039 0.009405069 -0.027091201 -0.036242932
-0.08882528 -0.022186048 -0.05956361 0.04277516 -0.023039076 0.08075047 0.0075523877 -0.019365579
0.020443615 -0.0063950843 0.0137250945 -0.0112506915 -0.05724081 -0.06171629 -0.012273407 -0.0022317495
-0.060597304 -0.02795266 -0.014369177 -0.0044710827 -0.0077571427 -0.002330205 -0.01164434 -0.010426522
0.030997017 0.016848892 0.003063817 0.01067327 0.02947401 0.006639136 -0.020222573 -0.10500951
-0.045761865 -0.009143716 -0.094200805 -0.07028083 -0.079314634 -0.046067443 -0.08154267 -0.035044853
-0.030414533 -0.033415705 -0.025854915 0.030447837 -0.033280797 -0.005176932 0.054558434 0.037793986
0.045331087 0.11145257 0.10331714 0.10060524 0.0758003 0.07039587 -0.011847243 0.089098915
0.078456834 0.01648029 0.00015669793 0.008916846 -0.009588441 0.04655479 0.011590666 0.015059407
0.020133257 0.03717662 -0.04322868 -0.042804603 -0.0015549082 -0.023046507 -0.042578034 -0.0061185234
-0.06234094 -0.030391982 -0.042927768 -0.03191239 -0.08458634 -0.056249447 -0.042871226 -0.11519483
-0.08770978 -0.054253664 -0.11750643 -0.097528554 -0.026507951 0.013350149 0.008536163 -0.05322879
0.008199993 -0.03354704 -0.054382406 -0.013348003 -0.04057614 -0.096503995 -0.060790084 -0.06935348
-0.09174109 -0.04928691 -0.020739974 -0.083395354 0.018041592 -0.013506519 0.032381676 0.06332762
0.0380288 0.016025756 0.02391942 0.03574054 0.042691812 0.063637756 0.009039068 -0.041855242
-0.048612956 -0.01950795 -0.03277083 -0.036593664 -0.06172832 -0.06794363 -0.02911173 -0.08285893
0.057069816 -0.008777183 -0.030154906 -0.029709043 0.017661035 0.009750461 -0.031851366 0.042810746
0.040173065 0.04797062 0.069403924 0.08082161 0.04354464 0.08405066 -0.005460279 0.0616974
0.08929757 0.07234246 -0.009553928 0.03811633 -0.031035919 0.028362943 0.02543281 -0.04783124
-0.012216816 0.001998761 0.006946291 -0.059123192 -0.022795228 0.0414715 -0.030786822 -0.00711299
-0.0016301944 0.0155493785 0.046601165 0.006199222 0.030180074 0.0036528881 -0.022375813 -0.009194772
0.004956608 -0.030059708 -0.006176686 0.03493452 0.026877316 -0.036517728 -0.04930792 0.013927832
-0.0027021593 -0.00955879 -0.06421458 0.004966273 0.00080916804 -0.06263753 0.019623196 0.0019153751
0.05721229 -0.008549987 0.08353182 0.057625476 -0.006703388 -0.010320041 0.01501488 -0.04875569
-0.08255881 -0.12013607 -0.077472135 -0.06768119 -0.057017747 -0.080602385 -0.086368635 -0.12606925
-0.04255027 -0.039260928 -0.0822798 0.023394024 -0.0035866536 -0.05950974 -0.024366539 -0.047669146
-0.050002895 0.037466027 0.07577448 -0.0012063371 0.012438035 0.046119764 0.028988728 -0.011708266
0.075405 -0.019050773 -0.044073243 -0.016905965 -0.027861254 -0.026836125 -0.0011185614 -0.0007318472
-0.060726557 -0.04920398 -0.012538106 -0.015362608 -0.040338702 -0.049768005 0.004925893 -0.04899074
-0.0548799 -0.041397907 -0.010124764 0.023262946 -0.03658385 -0.097760536 -0.12112671 -0.077856265
00000000: e0ee 3bbd 6441 49bd b754 88bd 3b1a 56bd
00000010: 99e0 84bd e1e2 95bd 5624 a3bd ac7a 31bd
00000020: 5451 0abe d2ff 57bd bc26 133d 28ba 86bb
00000030: 2ee6 4cbc 9d47 32bd 4717 71bc 870f 44ba
00000040: 2612 0ebc f3c2 6f3d 1393 b6bc f233 1dbd
00000050: ff90 d3bd b817 1a3c 5eee ddbc 7873 14bd
00000060: 07ea b5bd 84bf b5bc f9f8 73bd 0235 2f3d
00000070: 72bc bcbc 8160 a53d 057a f73b 90a4 9ebc
00000080: 5e79 a73c db8d d1bb 38df 603c d254 38bc
00000090: 5775 6abd 38ca 7cbd 6616 49bc 8b42 12bb
000000a0: e134 78bd fafc e4bc b26c 6bbc 2982 92bb
000000b0: a12f febb 5ab6 18bb e7c7 3ebc 01d4 2abc
000000c0: 75ed fd3c b006 8a3c 52ca 483b f0de 2e3c
000000d0: 7b73 f13c 1c8d d93b cfa9 a5bc 3a0f d7bd
000000e0: cb70 3bbd 86cf 15bc 5aec c0bd 65ef 8fbd
000000f0: b66f a2bd 37b1 3cbd d8ff a6bd 318b 0fbd
00000100: e627 f9bc e8de 08bd b0cd d3bc be6d f93c
00000110: 7251 08bd 41a3 a9bb aa78 5f3d decd 1a3d
00000120: 17ad 393d 3f41 e43d f097 d33d 1f0a ce3d
00000130: 303d 9b3d b62b 903d f01a 42bc 7e79 b63d
00000140: faad a03d ac01 873c 484f 2439 f617 123c
00000150: d618 1dbc 3cb0 3e3d c7e6 3d3c bbbb 763c
00000160: 80ee a43c 8346 183d 8e10 31bd e153 2fbd
00000170: 10ce cbba 07cc bcbc 4e66 2ebd e57d c8bb
00000180: 3759 7fbd 9bf8 f8bc 07d5 2fbd 91b6 02bd
00000190: 9a3b adbd d265 66bd bd99 2fbd 44eb ebbd
000001a0: 2fa1 b3bd 1739 5ebd 36a7 f0bd 0dbd c7bd
000001b0: 3427 d9bc 95ba 5a3c 43db 0b3c 6f06 5abd
000001c0: 4359 063c 9f68 09bd 16c0 5ebd 95b1 5abc
000001d0: 2b33 26bd e3a3 c5bd 06ff 78bd 3309 8ebd
000001e0: c1e2 bbbd 12e1 49bd e1e6 a9bc 2fcb aabd
000001f0: f6cb 933c 724a 5dbc a6a2 043d e9b1 813d
00000200: 16c4 1b3d 7248 833c a9f2 c33c ac64 123d
00000210: 9cdd 2e3d 8354 823d 9918 143c 6770 2bbd
00000220: 611e 47bd 23cf 9fbc b53a 06bd 3de3 15bd
00000230: d6d6 7cbd 0826 8bbd b97b eebc f1b1 a9bd
00000240: 0ac2 693d 2cce 0fbc 6c07 f7bc 6160 f3bc
00000250: e0ad 903c 66c0 1f3c 9476 02bd 525a 2f3d
00000260: 838c 243d d77c 443d a523 8e3d cd85 a53d
00000270: dd5b 323d c122 ac3d 24ec b2bb 6ab6 7c3d
00000280: a5e1 b63d 4928 943d 1488 1cbc de1f 1c3d
00000290: 0a3f febc 6759 e83c 7858 d03c b1ea 43bd
000002a0: 0a29 48bc a5fd 023b b69d e33b 292b 72bd
000002b0: 0fbd babc 05de 293d a534 fcbc 1614 e9bb
000002c0: 3fac d5ba d2c2 7e3c dde0 3e3d d822 cb3b
000002d0: 343c f73c 4b65 6f3b 7b4d b7bc aba5 16bc
000002e0: 0b6b a23b c73f f6bc cc65 cabb 8017 0f3d
000002f0: d12d dc3c 9d93 15bd 1af7 49bd 9031 643c
00000300: b616 31bb 799c 1cbc ef82 83bd 1ebc a23b
00000310: 591e 543a 1b48 80bd d3c0 a03c 530d fb3a
00000320: 6f57 6a3d 3f15 0cbc bb12 ab3d b108 6c3d
00000330: 18a8 dbbb 6415 29bc f900 763c 0cb4 47bd
00000340: 9814 a9bd e609 f6bd b6a9 9ebd 709c 8abd
00000350: 718b 69bd dd12 a5bd 0ae2 b0bd 4c18 01be
00000360: 3149 2ebd 11d0 20bd 5082 a8bd d3a4 bf3c
00000370: 100e 6bbb 7cc0 73bd 569c c7bc b940 43bd
00000380: d6cf 4cbd fa75 193d a72f 9b3d f51d 9eba
00000390: e6c8 4b3c 14e8 3c3d c579 ed3c 07d4 3fbc
000003a0: f06d 9a3d 5e10 9cbc 2586 34bd 617e 8abc
000003b0: 493d e4bc 6fd7 dbbc b19c 92ba 6fd9 3fba
000003c0: 69bc 78bd 1d8a 49bd a16c 4dbc 73b3 7bbc
000003d0: 323a 25bd 89d9 4bbd 6369 a13b 84aa 48bd
000003e0: bfc9 60bd da90 29bd 57e2 25bc ef91 be3c
000003f0: f2d8 15bd ad36 c8bd 4811 f8bd 1b73 9fbd

conv3.0.bias f4 [64]
-0.19088835 -0.055484854 -0.085705444 -0.15643126 -0.041514076 -0.022591952 -0.1003197 -0.14765242
-0.06555584 -0.07836527 0.022672828 -0.12049045 -0.0856223 -0.042028088 -0.17811018 -0.025351599
-0.17027609 -0.11981892 -0.040479816 -0.12871276 -0.14636128 -0.096011974 -0.09308815 -0.09969583
-0.0953027 -0.104817554 -0.22376001 -0.08304028 -0.23572522 -0.081725165 -0.19394317 -0.09227302
-0.10275509 -0.19247675 -0.14728467 -0.17277576 -0.025480723 -0.06949858 -0.13816346 -0.10607312
-0.12019823 -0.027806465 -0.14353432 -0.063684195 -0.09416374 -0.061734248 -0.03679773 -0.04187385
-0.013051485 -0.10662552 -0.13855955 -0.104489736 -0.1584321 -0.042694986 -0.03861814 -0.13159418
-0.05152845 -0.06255914 -0.071200594 0.02149343 0.014818497 -0.046814203 -0.17108065 -0.102918796
00000000: 3c78 43be 1644 63bd 5686 afbd 842f 20be
00000010: aa0a 2abd c212 b9bc 6a74 cdbd 3232 17be
00000020: 2442 86bd f87d a0bd 5ebc b93c b2c3 f6bd
00000030: bf5a afbd a525 2cbd 8462 36be 28ae cfbc
00000040: db5c 2ebe 9f63 f5bd 2ace 25bd 47cd 03be
00000050: bbdf 15be eda1 c4bd 00a5 bebd 542d ccbd
00000060: 102e c3bd 96aa d6bd 5821 65be 0611 aabd
00000070: f461 71be 865f a7bd 0a99 46be a3f9 bcbd
00000080: 4371 d2bd a018 45be cbd1 16be 21ec 30be
00000090: f3bc d0bc 4655 8ebd b97a 0dbe dd3c d9bd
000000a0: 7d2a f6bd 62ca e3bc a9fa 12be dc6c 82bd
000000b0: ebd8 c0bd 0ddd 7cbd 37b9 16bd ea83 2bbd
000000c0: e5d5 55bc 7b5e dabd 8ee2 0dbe b7fe d5bd
000000d0: 063c 22be f0e0 2ebd 0e2e 1ebd a0c0 06be
000000e0: 7f0f 53bd 021f 80bd 9ed1 91bd fd12 b03c
000000f0: 48c9 723c 40c0 3fbd c42f 2fbe 17c7 d2bd

conv3.4.weight f4 [64]
1.1063594 1.1106571 1.2204751 1.2324511 1.2001926 1.2013342 1.2363366 1.084856
0.98753375 1.2415354 1.1924165 1.0146524 1.1949338 1.0647637 1.084135 1.1741395
1.0411668 1.125446 1.2274303 1.1997122 1.0850837 1.2585574 1.2140151 1.2198653
1.0641248 1.087574 1.0750186 1.2565417 1.0966858 1.2179698 1.0747067 1.0095434
1.1392357 1.1211411 1.0368596 1.0887975 0.94466186 1.2360001 1.2313755 1.218801
1.0776492 0.9870932 1.0922067 1.2004973 1.0799062 1.2441952 1.1996514 1.0046008
1.1991621 1.2598901 1.0828413 1.2126658 1.0244979 1.1526556 1.2756327 1.1129194
1.0580251 1.2402987 1.1911402 0.9648395 1.2169464 1.2474016 1.0412474 1.2001129
00000000: 2f9d 8d3f 032a 8e3f 8738 9c3f f5c0 9d3f
00000010: e99f 993f 52c5 993f 4740 9e3f 90dc 8a3f
00000020: 03cf 7c3f a2ea 9e3f 1ba1 983f 21e0 813f
00000030: 97f3 983f 2d4a 883f f0c4 8a3f 344a 963f
00000040: f444 853f 9d0e 903f 701c 9d3f 2b90 993f
00000050: 06e4 8a3f 6918 a13f d964 9b3f 8c24 9c3f
00000060: 3e35 883f a035 8b3f 369a 893f 5cd6 a03f
00000070: 3360 8c3f 6fe6 9b3f fd8f 893f b838 813f
00000080: 7ad2 913f 8d81 8f3f d1b7 843f b75d 8b3f
00000090: 5cd5 713f 4035 9e3f b69d 9d3f ac01 9c3f
000000a0: 69f0 893f 24b2 7c3f 6ecd 8b3f e5a9 993f
000000b0: 5e3a 8a3f ca41 9f3f 2d8e 993f c296 803f
000000c0: 257e 993f 1444 a13f 8b9a 8a3f a238 9b3f
000000d0: bf22 833f 388a 933f ef47 a33f 2574 8e3f
000000e0: 5e6d 873f 1cc2 9e3f 4877 983f b9ff 763f
000000f0: e6c4 9b3f dbaa 9f3f 9847 853f 4d9d 993f

conv3.4.bias f4 [64]
-0.008239167 -0.0014370858 0.008731682 -0.0031129946 0.0066280146 0.0085942205 0.0072234864 -0.005231549
-0.016149782 0.016030917 0.011898006 -0.012684517 -0.013885827 -0.015379076 0.0065942104 -0.0005367463
0.0072245384 -0.0015047826 0.018062389 -0.014509622 -0.011880989 0.00047498694 0.023386594 -0.007397879
-0.04325209 -0.013064306 -0.018022459 -0.013551072 -0.029719085 0.0015604792 -0.0058937413 -0.017244888
0.020839319 -0.006696515 -0.012498627 0.004766187 0.0070531284 0.007757025 0.00084277237 -0.0043137837
-0.012973211 0.012246638 0.015177587 0.005058053 0.013605265 -0.003288158 0.0054384265 0.008671407
-0.014610872 0.009962786 -0.0010153148 0.019662458 -0.009109103 0.002754433 0.0050165546 -0.016095914
0.017699454 0.018410845 0.00958841 0.00014129536 0.017152298 0.015526641 0.01612528 0.020600801
00000000: 92fd 06bc 995c bcba 540f 0f3c 6203 4cbb
00000010: d12f d93b c6ce 0c3c ffb2 ec3b 6a6d abbb
00000020: 8c4c 84bc 4553 833c dbef 423c b8d2 4fbc
00000030: 6181 63bc 85f8 7bbc 3f14 d83b 6fb4 0cba
00000040: d2bb ec3b 203c c5ba 93f7 933c c4b9 6dbc
00000050: 7ba8 42bc ab07 f939 3e95 bf3c e869 f2bb
00000060: 1b29 31bd ac0b 56bc d6a3 93bc 5105 5ebc
00000070: 7075 f3bc fe88 cc3a 4920 c1bb 2745 8dbc
00000080: 38b7 aa3c 706e dbbb 0bc7 4cbc ad2d 9c3b
00000090: ee1d e73b a42e fe3b 7fed 5c3a a45a 8dbb
000000a0: 978d 54bc 1fa6 483c 6aab 783c 06be a53b
000000b0: 9ee8 5e3c 237e 57bb d434 b23b 8412 0e3c
000000c0: 7062 6fbc f43a 233c 5014 85ba 2a13 a13c
000000d0: 593e 15bc b883 343b e961 a43b 94db 83bc
000000e0: 72fe 903c 57d2 963c b518 1d3c af28 1439
000000f0: fa82 8c3c 7463 7e3c 2a19 843c 03c3 a83c

conv3.4.running_mean f4 [64]
0.08242981 0.113107406 0.14010401 0.055990223 0.120624736 0.18632723 0.12470561 0.09396692
0.114495434 0.12678687 0.10892214 0.2160294 0.08930965 0.114904955 0.02456654 0.18871675
0.048466235 0.075265996 0.11777171 0.10295722 0.041601155 0.13742858 0.14558639 0.08981274
0.064577654 0.08979747 0.035665218 0.07291048 0.025703575 0.0966509 0.037959024 0.21269245
0.10492563 0.074931026 0.09142385 0.055180162 0.613096 0.08459109 0.09407896 0.17414999
0.05246983 0.27579024 0.069061756 0.12787321 0.04182383 0.15860683 0.1279677 0.15741672
0.13955586 0.06787085 0.03938629 0.13517608 0.032742206 0.29420218 0.08196893 0.17004064
0.07280236 0.06543463 0.089916945 1.0839051 0.15426356 0.19176906 0.09720211 0.14532615
00000000: f6d0 a83d dba4 e73d 6d77 0f3e 0156 653d
00000010: 1a0a f73d 91cc 3e3e a865 ff3d bb71 c03d
00000020: 957c ea3d 6bd4 013e 9212 df3d d036 5d3e
00000030: fae7 b63d 4a53 eb3d c53f c93c f73e 413e
00000040: 8884 463d 0f25 9a3d 4b32 f13d 3cdb d23d
00000050: f965 2a3d 14ba 0c3e 9914 153e beef b73d
00000060: 4a41 843d bce7 b73d b115 123d 1752 953d
00000070: 4e90 d23c e8f0 c53d ec7a 1b3d 0dcc 593e
00000080: 40e3 d63d 7075 993d 6d3c bb3d 9804 623d
00000090: dcf3 1c3f 183e ad3d 78ac c03d 6054 323e
000000a0: 9bea 563d 6134 8d3e 4070 8d3d 32f1 023e
000000b0: 774f 2b3d d469 223e f709 033e d931 213e
000000c0: bbe7 0e3e dfff 8a3d 8553 213d 996b 0a3e
000000d0: b11c 063d aba1 963e 54df a73d 221f 2e3e
000000e0: 6719 953d 9702 863d 6026 b83d 67bd 8a3f
000000f0: 44f7 1d3e 1c5f 443e e611 c73d 61d0 143e

conv3.4.running_var f4 [64]
0.19900696 0.25539905 0.6440144 0.14646289 0.4464034 0.7336692 0.46281046 0.15457845
0.3970634 0.43432134 0.32660553 0.44429657 0.3251418 0.18767409 0.03452501 0.81056297
0.104083546 0.12356621 0.3306923 0.32628825 0.09996011 0.4701839 0.528919 0.30046177
0.101993956 0.22596695 0.06526726 0.2524527 0.055620495 0.3892507 0.05192659 0.40875477
0.39820802 0.15663365 0.2128077 0.14525603 2.6258817 0.30073956 0.3613048 0.6600846
0.08438612 0.69085294 0.11327492 0.49491173 0.07955545 0.60045034 0.5560646 0.23660417
0.53931385 0.1902145 0.097173624 0.5956844 0.06895011 1.3205997 0.3268078 0.30440176
0.105804235 0.22183248 0.32992917 6.033848 0.49252987 0.69556904 0.20183279 0.49087098
00000000: 7bc8 4b3e aac3 823e 21de 243f 5efa 153e
00000010: fd8e e43e bfd1 3b3f 7ef5 ec3e d049 1e3e
00000020: e54b cb3e 5e5f de3e d738 a73e d77a e33e
00000030: fc78 a63e a32d 403e 196a 0d3d 0e81 4f3f
00000040: c129 d53d 4810 fd3d 8050 a93e 410f a73e
00000050: e3b7 cc3d f2bb f03e 3c67 073f 20d6 993e
00000060: 35e2 d03d e163 673e d7aa 853d 7b41 813e
00000070: 51d2 633d de4b c73e fab0 543d 4e48 d13e
00000080: ece1 cb3e 9264 203e 43ea 593e ffbd 143e
00000090: 720e 2840 89fa 993e f1fc b83e 4efb 283f
000000a0: a1d2 ac3d bddb 303f aefc e73d 1265 fd3e
000000b0: f8ed a23d 1db7 193f 405a 0e3f 5d48 723e
000000c0: 7910 0a3f 97c7 423e f702 c73d c67e 183f
000000d0: b735 8d3d 6909 a93f 5a53 a73e 8cda 9b3e
000000e0: e4af d83d 0e28 633e 7aec a83e 4815 c140
000000f0: e02c fc3e d010 323f 41ad 4e3e 7153 fb3e

fc.0.weight f4 [32, 64]
0.1390778 0.1929381 -0.061745457 -0.12765215 -0.2554808 -0.0427478 -0.14737664 0.03172225
0.07755151 -0.14122786 -0.19369629 -0.06842842 -0.1819944 0.0890127 0.14466372 -0.22483823
0.0414925 0.104899794 -0.23450616 -0.17206141 0.0036098396 -0.09478 -0.12410837 -0.26009095
0.14121456 0.015449754 0.0042696856 -0.18349266 0.17736089 -0.11904382 0.039540164 0.14606158
-0.029327685 0.06965881 0.08472167 0.16996145 0.09851639 -0.23377195 -0.10900718 -0.23694836
0.10813234 0.05911709 0.057699066 -0.15834287 0.1559032 -0.29696214 -0.1923715 0.03142247
-0.056887172 -0.20452945 0.061476476 -0.2033071 0.08777591 -0.21874847 -0.1521974 0.13362254
0.094101146 -0.07777173 -0.23988646 0.010846667 -0.12554552 -0.112219185 0.0075022313 -0.1838873
0.005565647 0.06401198 -0.14074825 -0.21259756 -0.1081563 -0.06990554 -0.19244061 0.1202217
-0.067057274 -0.22112902 -0.018169584 -0.015723052 -0.13227123 0.11448531 0.18420166 -0.14885756
0.12994787 0.11100291 -0.14995366 -0.038330384 0.01672397 -0.23841494 -0.2164846 -0.20675439
0.034810845 0.15132447 0.07565721 -0.19810311 0.16753156 -0.20956811 0.0698037 -0.040586527
-0.09159107 0.21042468 0.13757978 0.17117845 0.04374061 -0.12447802 -0.19213355 -0.23397419
-0.017328832 0.0509521 0.14739703 -0.030546917 0.017997025 -0.17187662 -0.029258585 0.14226021
-0.251226 -0.1593455 -0.013992515 -0.08598946 0.09871407 -0.0881945 -0.1258781 0.18908224
0.15941437 -0.14111172 -0.13548538 -0.003465185 -0.1947149 -0.08656406 0.0686716 -0.148487
0.07261318 0.10399933 -0.17552203 -0.16581404 -0.20654655 -0.09558765 -0.23489979 0.07192726
0.051437475 -0.08477095 -0.11739984 0.11746821 -0.1688725 0.09133416 0.12220141 -0.16330005
0.05510315 0.14543001 -0.032813203 -0.2123867 0.06940617 -0.17224805 -0.22460534 -0.20072834
0.0077435724 0.03540172 0.14696196 -0.16692027 0.13186193 -0.0815601 0.17320247 -0.056388106
-0.1293618 0.07812436 -0.025592564 0.14109091 -0.068124115 -0.193129 -0.10067346 -0.19979392
0.05343978 -0.041771352 0.14292207 -0.1508607 0.05776616 -0.24661392 -0.0380365 -0.058313504
-0.040556695 -0.094236806 0.12602326 -0.1732356 0.1379285 -0.18742497 -0.1594837 0.20731075
0.085488506 -0.24435692 -0.24524865 0.09707376 -0.18234526 -0.16764504 0.0396926 -0.16871957
-0.1635002 -0.120551094 0.07085627 0.10810764 0.22475082 0.20906582 0.18250388 -0.1299442
0.002418867 0.23943782 0.10558748 -0.12011806 0.16126008 -0.093617894 -0.1655749 0.13101336
-0.14975068 -0.009128883 0.08657812 0.17165515 -0.12564193 0.22922157 0.11698787 0.14520067
-2.4386061e-05 0.0008343491 -0.07917002 0.02340332 -0.015880175 0.24266966 -0.035921656 -0.10990823
0.15193965 -0.08007172 -0.15091012 -0.110609785 -0.09496031 0.1257568 0.09296745 0.10109894
0.0067913383 -0.14460573 -0.052309837 0.18128633 -0.08480957 0.21010233 0.07274478 -0.055590514
0.04314978 0.09070185 -0.0963587 0.104609266 -0.058798384 0.20200776 0.21137983 -0.12918651
-0.15025903 0.15404376 0.049626462 -0.04989716 0.050362352 0.2600385 -0.058376037 0.12006148
00000000: 696a 0e3e 9191 453e cee8 7cbd 3fb7 02be
00000010: 61ce 82be 5118 2fbd e7e9 16be 31ef 013d
00000020: 53d3 9e3d 099e 10be 5258 46be 3324 8cbd
00000030: bd5c 3abe 4a4c b63d ba22 143e fe3b 66be
00000040: 0af4 293d b4d5 d63d 6222 70be de30 30be
00000050: 0f93 6c3b 041c c2bd 872c febd a42a 85be
00000060: 8d9a 103e f720 7d3c b8e8 8b3b 80e5 3bbe
00000070: 189e 353e 3fcd f3bd def4 213d 2b91 153e
00000080: 9d40 f0bc 47a9 8e3d 8e82 ad3d 600a 2e3e
00000090: f6c2 c93d ea61 6fbe 283f dfbd 97a2 72be
000000a0: 7d74 dd3d c324 723d db55 6c3d a224 22be
000000b0: 17a5 1f3e 6c0b 98be 09fd 44be d9b4 003d
000000c0: 8602 69bd 2b70 51be c2ce 7b3d bd2f 50be
000000d0: dbc3 b33d 99ff 5fbe a3d9 1bbe 59d4 083e
000000e0: 1ab8 c03d c946 9fbd cca4 75be 38b6 313c
000000f0: 018f 00be 2cd3 e5bd 47d5 f53b f44c 3cbe
00000100: 0860 b63b b718 833d 4f20 10be 2db3 59be
00000110: 0d81 ddbd a32a 8fbd 270f 45be cb36 f63d
00000120: 5355 89bd a56f 62be 61d8 94bc a1cd 80bc
00000130: 1c72 07be 4677 ea3d 5c9f 3c3e 1e6e 18be
00000140: 0e11 053e 7e55 e33d 748d 19be 5200 1dbd
00000150: b500 893c 0c23 74be 24ae 5dbe 6cb7 53be
00000160: d195 0e3d cdf4 1a3e 2bf2 9a3d 8bdb 4abe
00000170: 658d 2b3e 0699 56be 3ef5 8e3d 0f3e 26bd
00000180: 1994 bbbd 9179 573e b7e1 0c3e 6749 2f3e
00000190: 5b29 333d 55ee febd a8be 44be ee96 6fbe
000001a0: 32f5 8dbc 26b3 503d 3fef 163e 873d fabc
000001b0: 7f6e 933c 6d00 30be b3af efbc a9ac 113e
000001c0: b2a0 80be 772b 23be dd40 65bc 3e1b b0bd
000001d0: 9a2a ca3d 519f b4bd 30e6 00be c69e 413e
000001e0: 853d 233e 977f 10be aebc 0abe 2818 63bb
000001f0: 5863 47be 7f48 b1bd b2a3 8c3d fa0c 18be
00000200: 38b6 943d 9afd d43d 0cbc 33be 28cb 29be
00000210: f080 53be 75c3 c3bd 9289 70be 994e 933d
00000220: 1ab0 523d 649c adbd 546f f0bd 2c93 f03d
00000230: eaec 2cbe 670d bb3d bc44 fa3d 2138 27be
00000240: d7b3 613d 9beb 143e 2367 06bd e67b 59be
00000250: d224 8e3d cb61 30be f1fe 65be bb8b 4dbe
00000260: cbbd fd3b 6501 113d 327d 163e 26ed 2abe
00000270: d006 073e fb08 a7bd fd5b 313e 37f7 66bd
00000280: 6b77 04be aaff 9f3d 7fa7 d1bc 237a 103e
00000290: a884 8bbd 9cc3 45be e32d cebd c796 4cbe
000002a0: ace3 5a3d 7018 2bbd 2a5a 123e 3a7b 1abe
000002b0: 369c 6c3d 5c88 7cbe 29cc 1bbd 24da 6ebd
000002c0: c71e 26bd 3aff c0bd 3e0c 013e ac64 31be
000002d0: 213d 0d3e 55ec 3fbe b24f 23be 4549 543e
000002e0: 9914 af3d b338 7abe 7622 7bbe 9cce c63d
000002f0: b7b8 3abe 24ab 2bbe b594 223d d3c4 2cbe
00000300: 996c 27be 7ee3 f6bd 181d 913d 8a67 dd3d
00000310: 1425 663e 5a15 563e 4ce2 3a3e 1810 05be
00000320: db85 1e3b 302f 753e 403e d83d 7500 f6bd
00000330: 5d21 253e bdba bfbd 778c 29be 5e28 063e
00000340: 3e58 19be 4f91 15bc df4f b13d 5ec6 2f3e
00000350: 47a8 00be 0fb9 6a3e 5697 ef3d 7caf 143e
00000360: ab90 ccb7 38b8 5a3a e423 a2bd 52b8 bf3c
00000370: 2417 82bc 657e 783e 9622 13bd 9117 e1bd
00000380: 1196 1b3e a4fc a3bd 2f88 1abe 6287 e2bd
00000390: 8d7a c2bd 64c6 003e b865 be3d f60c cf3d
000003a0: e089 de3b 8613 14be d742 56bd 20a3 393e
000003b0: a4b0 adbd 1125 573e 37fb 943d e1b2 63bd
000003c0: d3bd 303d e4c1 b93d b657 c5bd 623d d63d
000003d0: 93d6 70bd 1fdb 4e3e f473 583e 7849 04be
000003e0: 81dd 19be a6bd 1d3e 1e45 4b3d f760 4cbd
000003f0: c148 4e3d c423 853e b61b 6fbd cbe2 f53d

fc.0.bias f4 [32]
-0.05884423 -0.09079391 -0.086006165 0.05352865 0.0005957852 -0.07868848 0.053776715 -0.048129715
-0.110308364 -0.059517004 -0.03499534 -0.017043566 0.073487274 -0.058340523 -0.08579984 0.009131211
0.04078024 -0.07661038 -0.053658362 -0.0011238413 0.038801864 0.08839667 0.06422701 -0.08278156
-0.013282018 0.098458834 0.07647568 0.06127122 0.10715316 0.068673834 -0.009969783 0.027173065
00000000: a606 71bd 28f2 b9bd 0024 b0bd dc40 5b3d
00000010: 782e 1c3a 6d27 a1bd f944 5c3d aa23 45bd
00000020: 5ae9 e1bd 1ac8 73bd 4657 0fbd f39e 8bbc
00000030: 7f80 963d 79f6 6ebd d4b7 afbd 139b 153c
00000040: 2e09 273d e7e5 9cbd dfc8 5bbd db4d 93ba
00000050: b4ee 1e3d 5009 b53d 7389 833d 6189 a9bd
00000060: d29c 59bc c9a4 c93d 489f 9c3d 88f7 7a3d
00000070: 1e73 db3d dea4 8c3d 4d58 23bc 0c9a de3c

fc.3.weight f4 [1, 32]
-0.15681277 -0.20964469 -0.23688215 0.41661388 0.36419094 -0.1880514 0.21452743 0.3947525
-0.19517927 -0.22690777 0.38009936 -0.1863343 -0.27175096 -0.12687883 -0.14671187 -0.15980563
-0.1680076 0.32064775 -0.2706043 -0.19589393 0.28022206 0.37234375 0.35952085 0.40841523
-0.22685452 -0.25590265 0.28687108 -0.22144938 0.34735164 -0.16918913 -0.2501914 -0.20651017
00000000: 8793 20be 19ad 56be 3c91 72be 6a4e d53e
00000010: 3c77 ba3e 8c90 40be 14ad 5b3e 001d ca3e
00000020: 13dd 47be 835a 68be 629c c23e 6bce 3ebe
00000030: f122 8bbe 86ec 01be a33b 16be 16a4 23be
00000040: 2f0a 2cbe f12b a43e a68c 8abe 6b98 48be
00000050: 4479 8f3e d7a3 be3e 1e13 b83e cd1b d13e
00000060: 8d4c 68be ac05 83be c4e0 923e a0c3 62be
00000070: 13d8 b13e ea3f 2dbe 1619 80be 6777 53be
