5 第五讲 机器学习训练模型的数学范式v16/models/model195.pth (torch, 112459 bytes, 21 tensors)

conv1.0.weight f4 [16, 3, 3, 3]
0	0xbcb709d4	-0.022343554
1	0xbdff715b	-0.12472793
2	0x3e0eb86c	0.13937539
3	0xbd6bb2a3	-0.057543408
4	0xbe072171	-0.1319635
5	0xbe33efbe	-0.17571923
6	0x3d20c5ca	0.039251126
7	0xbe20d8c3	-0.15707688
8	0x3dc15504	0.094400436
9	0x3d92b9f9	0.07164378
10	0x3e430558	0.19045007
11	0xbe0deff2	-0.13861063
12	0x3d1bc9d0	0.03803426
13	0x3d41e8c9	0.04734114
14	0x3cc983dd	0.02459901
15	0x3de7014a	0.11279543
16	0x3c5c3409	0.0134401405
17	0xbd774fc5	-0.06037881
18	0x3e258d88	0.16167271
19	0xbdd82c3e	-0.105553135
20	0xbe188c23	-0.14897208
21	0x3e00f594	0.1259368
22	0xbcd9ebf7	-0.026601775
23	0x3e251ec9	0.16125025
24	0xbdcf57d9	-0.101241775
25	0x3e358dd2	0.17729881
26	0x3d5142af	0.051088985
27	0xbd9abe61	-0.07555843
28	0x3df180a6	0.11792116
29	0xbd797484	-0.060902134
30	0xbcd4bbaa	-0.025968391
31	0xbda72684	-0.08161643
32	0x3dcc5639	0.09977383
33	0x3d3e353a	0.04643748
34	0x3e13c4e9	0.14430584
35	0xbd90b130	-0.07065046
36	0x3c03b699	0.00803914
37	0xbca3c166	-0.01998968
38	0x3e3543b3	0.17701606
39	0xbe35621e	-0.1771321
40	0xbd7b723b	-0.061388236
41	0x3e41d1f9	0.18927754
42	0x3d66bc36	0.056331836
43	0xbd294db3	-0.041333865
44	0x3dedc454	0.11609712
45	0x3ccf036d	0.025270188
46	0xbd96fcea	-0.07372458
47	0xbe0ed73d	-0.13949294
48	0xbe509a5b	-0.20371382
49	0x3dcfaf9f	0.10140919
50	0x3a9e32b4	0.0012069554
51	0x3d863b3b	0.06554266
52	0xbe20ba0b	-0.1569597
53	0x3e42e554	0.19032794
54	0x3db961a5	0.09051827
55	0xbc1c5a22	-0.009542974
56	0xbdd84b57	-0.10561245
57	0xbb4a0718	-0.0030826982
58	0xbe0057a4	-0.12533432
59	0xbe35bdc2	-0.17748168
60	0xbd537269	-0.051622782
61	0x3df7dbfa	0.12102504
62	0xbe30aec5	-0.1725417
63	0x3e2a4b79	0.16630353
64	0x3db7f2b3	0.08981838
65	0xbe327aab	-0.17429607
66	0x3e3ad950	0.1824696
67	0x3d67bc4d	0.056576062
68	0xbd589494	-0.05287607
69	0x3d164853	0.036690067
70	0x3d401cb4	0.046902373
71	0x3def5c54	0.11687532
72	0x3e3a6ba9	0.18205132
73	0x3cb24fed	0.021766627
74	0xbd8bc84e	-0.068253145
75	0x3c4dd331	0.012562559
76	0x3cfc7700	0.030818462
77	0xbdd90aae	-0.1059774
78	0xbdb12086	-0.086487815
79	0xbe53b093	-0.20672826
80	0x3e25fbc1	0.16209318
81	0xbd9ac28c	-0.07556638
82	0xbb6e6338	-0.0036375057
83	0xbe1b2dd1	-0.15154196
84	0x3c47575f	0.012166827
85	0x3e3f94ac	0.18709058
86	0xbe20bf8a	-0.15698066
87	0x3e03040f	0.12794517
88	0x3e54295d	0.20718904
89	0xbe3ebb14	-0.18626052
90	0xbd40b67c	-0.04704903
91	0x3c1ffdce	0.009765102
92	0xbc898f16	-0.016791862
93	0xbba90778	-0.005158361
94	0x3e289498	0.16462934
95	0x3dee1195	0.11624447
96	0x3cff431c	0.03115993
97	0x3d82290d	0.06355486
98	0xbe054c9a	-0.13017502
99	0xbe0e3721	-0.13888218
100	0xbdacc00f	-0.0843507
101	0x3e0fe77a	0.14053145
102	0x3e337830	0.17526317
103	0x3e2b9e5f	0.16759633
104	0x3b70dba4	0.003675201
105	0x3de2d5f0	0.110759616
106	0xbd6f670d	-0.058447886
107	0xbd87e067	-0.06634598
108	0xbe5362c3	-0.20643143
109	0x3d6e8b36	0.05823823
110	0xbdc0e67a	-0.0941896
111	0x3e21cca5	0.15800722
112	0x3cca3a6d	0.024686063
113	0x3e02d7c2	0.12777618
114	0xbd3507bb	-0.044196825
115	0x3d59e9d9	0.05320153
116	0xbe144219	-0.14478339
117	0xbe635ef6	-0.22204193
118	0xbdfb5a92	-0.12273134
119	0x3e51a3be	0.20472619
120	0x3d8047b6	0.06263678
121	0x3dcb46d8	0.09925622
122	0x3e5577c9	0.20846476
123	0x3d9c8fa4	0.07644585
124	0x3d99d78e	0.07511817
125	0xbd4dc2ac	-0.05023448
126	0xbe0b4af8	-0.13602817
127	0x3dd46fb5	0.10372869
128	0x3e30a544	0.17250544
129	0xbe2ee7e1	-0.17080642
130	0x3d8039d5	0.062610306
131	0xbcfd2f02	-0.030906204
132	0x3e2c79a8	0.16843283
133	0xbd131d6e	-0.03591674
134	0xbcf11ddf	-0.029433189
135	0xbd611851	-0.05495483
136	0xbd71e9e6	-0.059060954
137	0x3e1d380a	0.15353408
138	0xbddbe5e8	-0.107372105
139	0x3d4f971e	0.050681226
140	0x3bf143ad	0.007362804
141	0x3dfff338	0.12497562
142	0x3dbe5c26	0.0929492
143	0xbe0f5661	-0.13997795
144	0xbc64b00f	-0.013957991
145	0x3c27aefc	0.010234591
146	0xbcbbee78	-0.02294086
147	0x3e22fcf3	0.15916805
148	0x3e5723d5	0.21009763
149	0xbdf9b374	-0.12192431
150	0xbd5ae908	-0.053444892
151	0x3e569035	0.20953448
152	0x3d86f448	0.06589562
153	0xbdcae6c2	-0.09907295
154	0x3dc60916	0.09669702
155	0xbd4fb875	-0.05071302
156	0xbdd71187	-0.1050139
157	0xbe4e5321	-0.20148899
158	0x3dddc3e1	0.108283766
159	0xbd9ba3fb	-0.07599636
160	0xbe195a2e	-0.14975807
161	0xbe1df604	-0.15425879
162	0xbc6f0904	-0.014589552
163	0x3e075b63	0.13218455
164	0x3ddd0084	0.10791114
165	0x3e075022	0.13214162
166	0xbdb31abc	-0.087453336
167	0xbe276671	-0.16347672
168	0xbd1543e0	-0.036441684
169	0xbdd46843	-0.10371449
170	0x3d6da01f	0.05801403
171	0x3e0f7a42	0.14011481
172	0xbd7cf842	-0.061760195
173	0xbe5096bc	-0.2037
174	0x3e249387	0.16071902
175	0x3d282e07	0.04105952
176	0xbe139129	-0.14410843
177	0xbd7ede53	-0.062223744
178	0xbd663cde	-0.05621039
179	0xbe113565	-0.14180525
180	0x3e458f14	0.19292861
181	0x3d929c32	0.07158698
182	0xbde33b38	-0.110952795
183	0xbdce25cb	-0.10065802
184	0xbdb1fc30	-0.08690679
185	0xbe3cf74a	-0.18453708
186	0xbbbf91f4	-0.0058462564
187	0xbd7d5d77	-0.061856713
188	0xbdd150c7	-0.10220485
189	0x3c4b2166	0.0123980995
190	0xbdbeead7	-0.09322136
191	0x3de37b50	0.11107504
192	0x3db72b7d	0.089438416
193	0xbd9072a4	-0.07053116
194	0xbdb60be7	-0.08888989
195	0xbe5439e4	-0.20725209
196	0xbcf6a90d	-0.030109907
197	0xbe2ce879	-0.16885556
198	0x3e3ea622	0.18618062
199	0x3dfa4fea	0.12222274
200	0x3cad7d67	0.02117796
201	0xbc49178d	-0.012273681
202	0xbab83074	-0.0014052526
203	0x3e4d24ca	0.20033565
204	0xbcc4dbc2	-0.02403057
205	0x3d127aea	0.03576175
206	0x3df31adf	0.1187036
207	0x3d9496fc	0.072553605
208	0xbbe6b8be	-0.007041066
209	0x3e0df399	0.13862456
210	0xbe23183d	-0.15927215
211	0x3cc2024e	0.02368274
212	0xbe50ef2b	-0.20403735
213	0x3da35efa	0.079771
214	0x3dd28392	0.10279001
215	0xbd8ae0d6	-0.06781165
216	0xbe0fe3c8	-0.14051735
217	0xbe308e43	-0.17241769
218	0xbd96e54b	-0.07367953
219	0xbe0bc973	-0.13651066
220	0xbccc57b8	-0.024944171
221	0xbd814341	-0.06311656
222	0xbdd4699d	-0.10371707
223	0x3dcd68eb	0.10029777
224	0xbe07f5f7	-0.13277422
225	0x3da3d6c4	0.07999948
226	0xbe8b3a38	-0.27192855
227	0xbe072921	-0.13199283
228	0x3e3b84a4	0.18312317
229	0xbdd91f75	-0.10601703
230	0xbd4b51a8	-0.04963842
231	0x3dcc4d91	0.09975732
232	0x3db5262a	0.0884517
233	0xbdb72fe1	-0.08944679
234	0x3d871df5	0.06597511
235	0xbe9cc60b	-0.30619845
236	0xbeb1ef51	-0.34752896
237	0xbd5512e4	-0.05201997
238	0x3e521898	0.20517194
239	0x3df32a9c	0.118733615
240	0x3e213920	0.15744448
241	0x3d8e3075	0.06942836
242	0x3cd48b28	0.025945261
243	0x3e4ab7c9	0.19796671
244	0x3db7a138	0.08966297
245	0x3d520580	0.051274776
246	0xbe0a4954	-0.13504535
247	0xbdfbf6a9	-0.12302906
248	0x3e054c94	0.13017493
249	0x3e5bf40c	0.21479815
250	0x3d6e32b1	0.05815381
251	0x3d97b5d2	0.07407726
252	0xbe1549e8	-0.14578974
253	0xbd8b4981	-0.06801129
254	0xbd67aa8f	-0.05655914
255	0xbdb925d4	-0.09040418

conv1.0.bias f4 [16]
0	0x3da33801	0.07969666
1	0x3d7b7e66	0.06139984
2	0x3d4ced0e	0.05003076
3	0x3db8e8ea	0.090288
4	0xbe53c30b	-0.20679872
5	0xbadd18ca	-0.001686835
6	0x3dee9ea0	0.11651349
7	0x3ccffc8a	0.025388975
8	0xbe47bd82	-0.19505885
9	0x3c2b009f	0.01043716
10	0x3e8c0609	0.27348354
11	0xbdd8aab9	-0.10579438
12	0x3e243414	0.16035491
13	0xbe2e81e5	-0.17041738
14	0x3ca49fa9	0.020095663
15	0x3e6a8201	0.22901155

conv1.3.weight f4 [16]
0	0x3f6d153b	0.9261052
1	0x3f79b8c0	0.9754753
2	0x3f8360c2	1.0263903
3	0x3f61842a	0.8809229
4	0x3f81f5c4	1.0153127
5	0x3f8260ce	1.0185792
6	0x3f7f4ea5	0.9972938
7	0x3f622275	0.8833383
8	0x3f7215f7	0.94564766
9	0x3f8570a2	1.0424998
10	0x3f681f10	0.906724
11	0x3f971991	1.1804677
12	0x3f5fe9d9	0.874662
13	0x3f820daa	1.016042
14	0x3f6b916b	0.92018765
15	0x3f74dfe4	0.9565413

conv1.3.bias f4 [16]
0	0xbbb63a4d	-0.005561149
1	0x3e479e1d	0.19493909
2	0xbc82d7b9	-0.015972005
3	0x3ba487a7	0.005021054
4	0x3e688903	0.22708516
5	0xbc92fb98	-0.017942235
6	0x3d9f0403	0.07764437
7	0x3db65b36	0.08904116
8	0x3e8e4da4	0.2779361
9	0x3d4e1dd3	0.05032141
10	0xbe318d23	-0.17338996
11	0x3da6678c	0.08125219
12	0x3d19c720	0.037543416
13	0x3dfd87d2	0.12379421
14	0x3d456390	0.048190653
15	0xbe077691	-0.13228823

conv1.3.running_mean f4 [16]
0	0x3e1428bf	0.14468668
1	0x3e1169d9	0.14200534
2	0x3d6d563e	0.057943575
3	0x3e8d02ad	0.27541104
4	0x3cab3ccd	0.020903016
5	0x3c544e02	0.012958052
6	0x3c9eed30	0.01940021
7	0x3db50f15	0.08840767
8	0x38bf4df7	9.122112e-05
9	0x3d2c602f	0.042083915
10	0x3f041284	0.5159075
11	0x3c1c6116	0.0095446315
12	0x3e588e4c	0.21148032
13	0x3bc69884	0.0060606617
14	0x3d5c363c	0.05376266
15	0x3e52f317	0.20600544

conv1.3.running_var f4 [16]
0	0x3b9729ff	0.0046131606
1	0x3b37c1c5	0.002803908
2	0x3b19f0c1	0.0023489448
3	0x3c67a4b4	0.014138389
4	0x3af459ab	0.0018642446
5	0x3a6d6b4c	0.0009056821
6	0x3aeb1559	0.0017935439
7	0x3b616bcc	0.0034396527
8	0x373e272a	1.1334001e-05
9	0x3b3ac6c1	0.0028499814
10	0x3d11f043	0.035629522
11	0x3a9faf8e	0.0012183057
12	0x3b19c28c	0.0023461906
13	0x3a0d3f00	0.0005388111
14	0x3b96c368	0.004600931
15	0x3ac6a3db	0.0015155034

conv2.0.weight f4 [32, 16, 3, 3]
0	0x3c623b1c	0.013808038
1	0xbc99efd4	-0.018791117
2	0xbc6cd468	-0.0144549385
3	0x3c90b32e	0.017663565
4	0x3d9054a5	0.07047395
5	0x3cb5dd51	0.022200258
6	0x3da1b7c7	0.07896381
7	0xbc4f19bf	-0.012640416
8	0xbb8e6ed1	-0.0043467064
9	0xbd810e90	-0.06301606
10	0xbdb8720d	-0.090061285
11	0xbd51d268	-0.05122605
12	0xbd51a634	-0.051183894
13	0x3ca61595	0.020273963
14	0xbd46f279	-0.048571084
15	0xbd69a59c	-0.057042703
16	0xbd80538e	-0.06265937
17	0x3cc2cf3c	0.023780458
18	0x3dfdf210	0.123996854
19	0xbb36aa77	-0.00278726
20	0xbdc60b2c	-0.096700996
21	0x3dc8c49b	0.098031245
22	0x3d9d3411	0.076759465
23	0xbd47af67	-0.04875126
24	0xbcbc950e	-0.023020294
25	0xbd1fc215	-0.03900345
26	0xbd43016b	-0.047608774
27	0x3dc22e8b	0.094815336
28	0x3d5c0504	0.05371572
29	0xbd65e2b7	-0.056124415
30	0x3b13b5a5	0.0022538688
31	0x3d7f07e3	0.06226338
32	0xbcdfd944	-0.02732528
33	0x3d1d1a99	0.038355444
34	0x3c593727	0.013257778
35	0x3d2720db	0.040802818
36	0x3c5ca4b3	0.013467002
37	0x3ce20327	0.027589394
38	0xbd0e41d7	-0.03473076
39	0xbddee1d9	-0.10882921
40	0xbc9ef38c	-0.019403242
41	0xbb40b3d9	-0.0029404073
42	0xbd8b13e1	-0.06790901
43	0xbd8d3bd4	-0.06896177
44	0xbc1479a9	-0.009062209
45	0x3c32f93b	0.010923679
46	0x3d8b9032	0.068146124
47	0x3db11af7	0.08647721
48	0xbd3f5217	-0.046709146
49	0x3d78d9fc	0.06075476
50	0x3d1af084	0.03782703
51	0x3daf288d	0.08552656
52	0x3dbeb68c	0.09312162
53	0x3d841094	0.064484745
54	0x3d8187d8	0.06324738
55	0x3cd5ce02	0.026099209
56	0xbc4ccae4	-0.012499545
57	0xbce5b147	-0.028038634
58	0x3d6f4304	0.05841352
59	0x3c9229ac	0.017842136
60	0x3d39c0ea	0.045349993
61	0x3d24ae4f	0.040205296
62	0x3dbc880c	0.092056364
63	0x3d4ef936	0.050530635
64	0xbdb1e32d	-0.086859085
65	0xbd7f8fb8	-0.06239292
66	0x3d6d696e	0.057961874
67	0x3d681907	0.056664493
68	0xbd48c149	-0.049012456
69	0x3d0a45df	0.03375804
70	0xbdadb763	-0.08482244
71	0xbd7dec8a	-0.06199316
72	0xbdbec293	-0.09314456
73	0xbe5f81ed	-0.21826907
74	0xbe0ae0f4	-0.13562375
75	0xbe57698a	-0.21036354
76	0xbe7f6c39	-0.24943627
77	0xbe50ba3a	-0.2038354
78	0xbe3c52f2	-0.18391016
79	0xbe0c57b7	-0.13705336
80	0xbe6c7579	-0.23091687
81	0xbdef2805	-0.11677555
82	0xbd16b0c0	-0.036789656
83	0x3dafc90f	0.08583271
84	0xbd67e1dc	-0.05661188
85	0x3c9628c2	0.018329982
86	0x3dab4c94	0.083642155
87	0xbdc12e1e	-0.09432624
88	0xbdb30f7b	-0.08743187
89	0x3dce264b	0.100658976
90	0x3ddf9be1	0.109184034
91	0xbad6ae05	-0.0016378766
92	0xbc28fd52	-0.0103143025
93	0xbccb677d	-0.02482962
94	0x3d304efd	0.04304408
95	0xbca6a5e1	-0.02034277
96	0x3de87fdf	0.113525145
97	0x3d74f898	0.05980739
98	0x3d08bd6b	0.033383768
99	0x3cfceeb2	0.030875538
100	0x3cac5ec3	0.02104128
101	0x3c42ad6e	0.011882169
102	0xbdcf9fbb	-0.10137888
103	0xbd97e893	-0.07417407
104	0xbe123d2b	-0.14281146
105	0xbdc92ed6	-0.09823386
106	0x3d0ef674	0.034903005
107	0x3bb12b75	0.005406792
108	0x3d8bdc1c	0.06829092
109	0xbc913fa4	-0.017730542
110	0x3cff313b	0.031151405
111	0x3d226bba	0.039653517
112	0xbc30ab7a	-0.010783071
113	0x3c22994d	0.009924245
114	0xbd40ee2d	-0.047102142
115	0xbc5cdcdc	-0.013480391
116	0xbd96fc92	-0.07372393
117	0x3d353519	0.04424009
118	0xbdc06221	-0.093937166
119	0xbe186e5e	-0.14885852
120	0xbd29322f	-0.041307624
121	0xbd8d6688	-0.06904322
122	0xbd0c001b	-0.034179788
123	0xbe26335d	-0.16230531
124	0xbd88f5f3	-0.06687536
125	0x3ce59239	0.028023826
126	0x3cacabc7	0.021078004
127	0xbd29fbac	-0.04149978
128	0xbbc30fc6	-0.005952808
129	0xbd0ce4ab	-0.034397762
130	0xbd2d6368	-0.04233113
131	0xbcee8744	-0.029117234
132	0xbd00ad86	-0.031415485
133	0x3d2f0187	0.042726066
134	0x3d5a2bd9	0.053264473
135	0xbd7241b2	-0.059144683
136	0xbc0f16f9	-0.008733504
137	0x3bf44742	0.0074547837
138	0xbbada6dd	-0.0052994327
139	0xbd90ece9	-0.07076437
140	0xbd41863c	-0.047247157
141	0x3d616dad	0.055036236
142	0x3d5cde38	0.05392286
143	0xbc311c15	-0.010809918
144	0x3d0e4412	0.034732886
145	0xbbaf53a3	-0.0053505464
146	0x3d42dee7	0.047575857
147	0x3dc29fcc	0.09503135
148	0x3d067944	0.03283049
149	0xbd0101a8	-0.03149572
150	0x3d2f9ece	0.042876057
151	0x3d8abfaf	0.06774842
152	0x3dbb49b9	0.09144921
153	0xbca65fbc	-0.020309322
154	0x3c676f6c	0.014125686
155	0xbd3edb84	-0.046596065
156	0xbd8b54d7	-0.06803291
157	0x3c150cf7	0.009097329
158	0xbe055534	-0.13020784
159	0x3cffb0a2	0.031212155
160	0xbc9d9533	-0.019236183
161	0xbcd943ad	-0.026521528
162	0x3d0c45d7	0.034246292
163	0x3dd676e7	0.104718976
164	0x3da8b5fa	0.08237834
165	0x3df7adda	0.120937064
166	0xbd52bd36	-0.051449977
167	0x3d3542f4	0.044253305
168	0x3dfdae35	0.12386743
169	0x3b9be760	0.0047578067
170	0x3dc12d7d	0.09432504
171	0x3db9af97	0.09066694
172	0x3ca5e0fc	0.020248882
173	0xbc3899dd	-0.011267153
174	0x3cc21091	0.02368954
175	0xbc16740a	-0.009182939
176	0x3da0ecd0	0.078576684
177	0x3d9715c1	0.07377196
178	0xbc0fffa0	-0.008788973
179	0x3dbf58fe	0.09343146
180	0x3d8c86eb	0.06861671
181	0x3d8e333c	0.06943366
182	0xbccec5b2	-0.025240753
183	0x3dbaa318	0.09113139
184	0x3d6c9074	0.05775495
185	0x3d1cf6e5	0.038321394
186	0x3dc27e50	0.094967484
187	0x3997650b	0.00028876247
188	0x3d862d05	0.065515555
189	0x3c56de1e	0.01311448
190	0xbd8b3d3f	-0.06798791
191	0x3b923a30	0.004462503
192	0xbd846d0a	-0.0646611
193	0xbe254375	-0.16139014
194	0xbde3698d	-0.111041166
195	0x3cdb16f6	0.026744347
196	0xbd8a3395	-0.0674812
197	0xbdbce306	-0.09222989
198	0xbb5ead4a	-0.00339778
199	0xbcd313ec	-0.025766335
200	0x3d840726	0.06446676
201	0x3e0859d3	0.13315515
202	0x3d03ab18	0.03214559
203	0x3d8211aa	0.063510254
204	0x3d72f585	0.059316177
205	0xbd64f412	-0.055896826
206	0x3d9a77a3	0.0754235
207	0xbd3f50e5	-0.046708006
208	0x3d882158	0.06646985
209	0x3d3f91bf	0.046769854
210	0xbd19e350	-0.037570298
211	0xbd8bcdb0	-0.06826341
212	0xbd8e5598	-0.069499195
213	0x3c64191c	0.013922002
214	0xbdca6f07	-0.09884458
215	0xbbd87036	-0.0066051735
216	0x3cb8f5ce	0.022578146
217	0xbd16e140	-0.03683591
218	0x3e004a1d	0.12528272
219	0xbdef15c0	-0.1167407
220	0xbbfde2fb	-0.0077480054
221	0xbce12276	-0.027482253
222	0xbd4a9a54	-0.049463585
223	0xbdcfe140	-0.10150385
224	0xbd518534	-0.051152423
225	0x3c99fab6	0.018796306
226	0xbdb557c3	-0.0885463
227	0xbd61fbcb	-0.05517177
228	0x3cde6f49	0.027152674
229	0xbbcd3d83	-0.0062634363
230	0xbda08652	-0.078381196
231	0x3d9958a3	0.07487609
232	0xbcc27e9a	-0.023742009
233	0xbc84e1e9	-0.016221004
234	0x3d39f12a	0.045396008
235	0xbca62612	-0.020281825
236	0x3dd6a43e	0.104805455
237	0x3dfe1ebb	0.12408205
238	0x3e078b27	0.13236676
239	0x3c4f0976	0.012636533
240	0x3d0eca99	0.03486118
241	0x3e18273e	0.1485872
242	0x3dabbcfd	0.08385656
243	0x3c877ccc	0.016539
244	0x3b415916	0.0029502562
245	0x3db2950d	0.087198354
246	0xbd81bd1f	-0.063349
247	0xbd86c22d	-0.06580005
248	0xbcb13c3a	-0.021635164
249	0x3cf24e36	0.02957831
250	0xbd15e1af	-0.03659218
251	0x3d2aeb83	0.041728508
252	0x3db5e2d4	0.08881155
253	0x3d89148a	0.06693371
254	0x3d92a338	0.07160038
255	0x3daf3872	0.08555688

conv2.0.bias f4 [32]
0	0xbe0ac929	-0.13553299
1	0xbda8bc59	-0.082390495
2	0xbde0cdb2	-0.10976733
3	0x3c2eb321	0.010662825
4	0xbe1e5a39	-0.15464105
5	0xbdef230e	-0.11676608
6	0x3da4bf52	0.08044304
7	0x3d2b7117	0.041855898
8	0xbe27f231	-0.16400982
9	0x3b1a9726	0.0023588627
10	0xbd0f5e3f	-0.03500199
11	0xbe67dc73	-0.22642688
12	0xbcc62c9c	-0.024191193
13	0xbdb26083	-0.087098144
14	0xbe781c1a	-0.2422947
15	0xbc11fb02	-0.008909943
16	0xbe954f62	-0.29162127
17	0xbdba96dc	-0.091108054
18	0xbd975a6b	-0.07390293
19	0x3e094870	0.13406539
20	0x3bc80ea1	0.0061052595
21	0xbddc5888	-0.107590735
22	0xbdcb0b00	-0.099142075
23	0xbdecc17b	-0.11560341
24	0x3a0db2d9	0.00054053735
25	0xbe4d34fb	-0.20039742
26	0xbe2496a3	-0.16073088
27	0xbd74a68c	-0.059729144
28	0xbdb62825	-0.08894376
29	0xbe729e18	-0.2369312
30	0xbdee6953	-0.11641183
31	0xbe1f81fe	-0.15576932

conv2.3.weight f4 [32]
0	0x3f86b5b3	1.05242
1	0x3f6a42d0	0.915082
2	0x3f7befba	0.9841267
3	0x3f5747dc	0.84094024
4	0x3f750113	0.95704764
5	0x3f78ff5d	0.97264653
6	0x3f703e03	0.9384462
7	0x3f7a3543	0.9773752
8	0x3f7396cc	0.9515197
9	0x3f7ff8e3	0.99989146
10	0x3f7e09c6	0.99233663
11	0x3f8a6205	1.0811163
12	0x3f7dd637	0.9915499
13	0x3f799f88	0.9750905
14	0x3f862d48	1.0482569
15	0x3f7f0046	0.9960979
16	0x3f478fb1	0.7795363
17	0x3f82834f	1.0196322
18	0x3f7b4d6a	0.98165
19	0x3f640e63	0.8908445
20	0x3f65abf5	0.8971551
21	0x3f6583c4	0.89654183
22	0x3f7f53e7	0.997374
23	0x3f812a8e	1.0091112
24	0x3f76d1a3	0.9641363
25	0x3f875449	1.0572597
26	0x3f802370	1.0010815
27	0x3f60d7b5	0.8782914
28	0x3f86a596	1.0519283
29	0x3f848de5	1.0355803
30	0x3f66bfd1	0.9013644
31	0x3f706133	0.93898314

conv2.3.bias f4 [32]
0	0x3de66938	0.11250538
1	0x3ec08c1d	0.37606898
2	0x3dbaeb5e	0.09126924
3	0xbe4cdc27	-0.20005856
4	0x3e2ec8e6	0.17068824
5	0xbe2de475	-0.1698168
6	0x3f09503a	0.5363804
7	0x3d975813	0.07389846
8	0xbe052943	-0.13004021
9	0x3e3994c2	0.18123153
10	0xbdcc74ed	-0.09983239
11	0x3f1b783d	0.60730344
12	0xbe4cafcb	-0.19988935
13	0x3e7488e7	0.23880349
14	0x3eb0d475	0.34537092
15	0xbe175a4d	-0.14780541
16	0x3e6f3996	0.23361811
17	0xbe23b627	-0.15987454
18	0x3c3afee1	0.011413307
19	0xbbbf6273	-0.0058405935
20	0x3ea0b8af	0.31390902
21	0x3e678146	0.22607908
22	0x3eac81a6	0.33692664
23	0x3e833ca3	0.256322
24	0x3ec04851	0.37555173
25	0x3eaea490	0.34109926
26	0xbd7aaa32	-0.061197467
27	0xbe3780b7	-0.17920195
28	0x3edc6757	0.43047592
29	0x3e612433	0.21986465
30	0x3e987194	0.29774153
31	0x3efab60f	0.48967025

conv2.3.running_mean f4 [32]
0	0x3d1778a2	0.03698028
1	0x3f55c993	0.835107
2	0x3eb09a12	0.34492546
3	0x3f33aff3	0.7019035
4	0x3e915e31	0.28392175
5	0x3d92faee	0.07176767
6	0x3ef5e494	0.48025954
7	0x3f1a3f49	0.60252815
8	0x3e5fda5c	0.21860641
9	0x3ee1730e	0.44033092
10	0x3df5a067	0.11993485
11	0x3dac7e10	0.08422482
12	0x3f1576b9	0.5838428
13	0x3f23ceda	0.63987505
14	0x3d5eeb27	0.054423478
15	0x3e80ffbb	0.25195107
16	0x3eba24b8	0.3635614
17	0x3ebb5ecc	0.36595762
18	0x3e8fc021	0.2807627
19	0x3f3bba87	0.73331493
20	0x3f378ceb	0.716994
21	0x3f22bf6f	0.63573354
22	0x3eb675c3	0.3563672
23	0x3e46f16a	0.1942803
24	0x3f0fd30e	0.5618142
25	0x3e08ddae	0.13365814
26	0x3e211f85	0.1573468
27	0x3de177e8	0.110091984
28	0x3e713acd	0.23557587
29	0x3ebb111e	0.36536497
30	0x3ecb4906	0.3970415
31	0x3e66430b	0.22486512

conv2.3.running_var f4 [32]
0	0x3cd91c88	0.026502863
1	0x400705be	2.1097255
2	0x3e98989e	0.29803938
3	0x3f5e0989	0.867333
4	0x3ea74a40	0.32673836
5	0x3d009807	0.031394985
6	0x3e7d5f71	0.2474344
7	0x3f50b54c	0.8152664
8	0x3e9fe508	0.31229424
9	0x3ec58c3b	0.3858355
10	0x3dfbbc84	0.12291816
11	0x3dc728f7	0.0972461
12	0x3ec732b1	0.38905862
13	0x3fd6397b	1.6736292
14	0x3d7389f5	0.059457738
15	0x3e0b9074	0.13629323
16	0x3f0b342c	0.5437648
17	0x3eec7022	0.461793
18	0x3ec004a0	0.3750353
19	0x3f2c7cf6	0.67378175
20	0x3f512b07	0.8170628
21	0x3fc870c6	1.5659416
22	0x3f07db8d	0.5306938
23	0x3e01f97e	0.1269283
24	0x3ee4c3d6	0.4468066
25	0x3e0ad23f	0.13556765
26	0x3e011f2b	0.12609546
27	0x3d0c7212	0.034288473
28	0x3edfe146	0.43726557
29	0x3f20a099	0.6274505
30	0x3e74713b	0.23871319
31	0x3e4821a8	0.19544089

conv3.0.weight f4 [64, 32, 3, 3]
0	0xbd1d2cfd	-0.038372982
1	0xbd8f518b	-0.06997975
2	0xbd8bb945	-0.06822447
3	0xbd463859	-0.04839358
4	0xbdb2fd26	-0.087396905
5	0xbd896e46	-0.06710486
6	0xbda0cc64	-0.078514844
7	0xbd9fe3c8	-0.07807118
8	0xbdf88ec4	-0.121366054
9	0xbd88df34	-0.066831976
10	0x3c9f97c4	0.019481547
11	0xbca68910	-0.020329028
12	0xbcabf7c6	-0.020992171
13	0xbd5bcdcc	-0.05366306
14	0xbccdadc9	-0.025107281
15	0xbb22e95e	-0.0024858336
16	0xbc423e95	-0.011855741
17	0x3d56a642	0.05240465
18	0xbc410a2c	-0.01178221
19	0xbd2f68a7	-0.042824414
20	0xbdd467b5	-0.10371343
21	0x3c95b453	0.018274462
22	0xbcfca126	-0.03083856
23	0xbd08cc95	-0.03339823
24	0xbda2e65d	-0.079540946
25	0xbd098a02	-0.03357888
26	0xbd6ba640	-0.057531595
27	0x3d06514e	0.032792382
28	0xbcb7a26a	-0.022416312
29	0x3d9a0717	0.075208835
30	0x3a019513	0.0004943173
31	0xbc43732e	-0.011929316
32	0x3cb317e2	0.021861974
33	0xbaec3161	-0.0018020087
34	0x3ce4123b	0.027840724
35	0xbbe3a8b0	-0.0069475994
36	0xbd9ffa22	-0.07811381
37	0xbdac043c	-0.08399245
38	0xbd08086e	-0.033211164
39	0xbc9c3206	-0.019066822
40	0xbd92bfc8	-0.071654856
41	0xbd43fceb	-0.047848623
42	0xbd21a5f3	-0.039464902
43	0xbca56634	-0.020190336
44	0xbd0cea84	-0.03440334
45	0x3a207267	0.0006120563
46	0x3cb576ad	0.022151316
47	0xbc45036d	-0.012024743
48	0x3cdd6f86	0.027030718
49	0x3cf0f622	0.02941424
50	0xbc9fbd77	-0.019499524
51	0x3d120c1d	0.035656083
52	0x3d0ec012	0.03485114
53	0xbbacc4cc	-0.0052724835
54	0xbca8b1e5	-0.02059264
55	0xbdf8a273	-0.1214036
56	0xbd4842a7	-0.04889169
57	0xbc250f4d	-0.010074449
58	0xbdf4c4a9	-0.119515724
59	0xbdb77829	-0.089584656
60	0xbd98b464	-0.07456282
61	0xbd74135d	-0.05958878
62	0xbdb3548c	-0.087563604
63	0xbd3c633a	-0.045993067
64	0xbd22eb75	-0.03977533
65	0xbd352b04	-0.044230476
66	0xbcdab132	-0.026695821
67	0x3ce4f578	0.02794908
68	0xbd10aec4	-0.03532292
69	0xbb4fde94	-0.003171836
70	0x3d7520b8	0.059845656
71	0x3d11bc88	0.035580188
72	0x3d71ac68	0.05900231
73	0x3e2274d9	0.15864886
74	0x3dd00f27	0.1015914
75	0x3e021ee7	0.12707101
76	0x3e095ec9	0.13415064
77	0x3d89a8fa	0.06721683
78	0x3cc9550c	0.024576686
79	0x3e0d8e21	0.13823749
80	0x3d976002	0.07391359
81	0x3cb1696c	0.021656714
82	0xbac9d29c	-0.001539785
83	0x3b6962b3	0.0035611808
84	0xbb8cb64f	-0.004294194
85	0x3d1c879d	0.03821527
86	0xba200de0	-0.0006105583
87	0x3cef19b0	0.029187053
88	0x3d0148ce	0.031563573
89	0x3d426b06	0.047465347
90	0xbcef5b4e	-0.029218342
91	0xbd282aab	-0.041056316
92	0x3b814966	0.0039455174
93	0xbab17e75	-0.0013541715
94	0xbd0f56e7	-0.034994986
95	0xba347baa	-0.00068848825
96	0xbd3c7222	-0.046007283
97	0xbce24b7a	-0.02762388
98	0xbd092d26	-0.033490323
99	0xbd828863	-0.0637367
100	0xbdf2e162	-0.118593946
101	0xbdda254e	-0.106516466
102	0xbd8bd5e1	-0.068279035
103	0xbe178a14	-0.14798766
104	0xbe15a3d8	-0.14613283
105	0xbda49458	-0.08036107
106	0xbe15d6fe	-0.14632794
107	0xbe2985aa	-0.16554895
108	0xbd03a1b6	-0.03213664
109	0x3b9640d7	0.004585366
110	0x3c986129	0.018601017
111	0xbd71df91	-0.0590511
112	0x3adb32cc	0.0016723513
113	0xbcb60151	-0.022217425
114	0xbd6ee95a	-0.05832801
115	0xbc9a4596	-0.01883201
116	0xbcf5cb1c	-0.030004077
117	0xbe08737a	-0.13325301
118	0xbdbbfa7f	-0.09178638
119	0xbe031233	-0.12799911
120	0xbdfaaedf	-0.12240385
121	0xbd995701	-0.07487298
122	0xbd92e772	-0.07173051
123	0xbe02c872	-0.12771776
124	0xbc906056	-0.017624062
125	0xbd8dddb5	-0.06927053
126	0x3d18d37f	0.037311073
127	0x3d5ddf1f	0.054167863
128	0x3d2036fd	0.03911494
129	0x3ce35ac6	0.027753245
130	0x3cd6284d	0.026142264
131	0x3d4c3ffb	0.049865704
132	0x3d7c0af3	0.06153388
133	0x3d976cb3	0.073937796
134	0x3cd4f811	0.025997194
135	0xbcde5877	-0.027141793
136	0xbd781f9b	-0.060577016
137	0xbd371b04	-0.0447035
138	0xbc8735b6	-0.016505104
139	0xbd4869db	-0.048929077
140	0xbdab29c7	-0.08357578
141	0xbd682128	-0.056672245
142	0xbd2cc5b1	-0.04218072
143	0xbdc967e4	-0.09834269
144	0x3cf7f2ed	0.030267203
145	0xbd165c43	-0.03670908
146	0xbd6eee89	-0.058332954
147	0xbd63120a	-0.055437125
148	0xbae77355	-0.0017658273
149	0xbc690ef4	-0.0142247565
150	0xbd5c9aab	-0.05385844
151	0x3cbe3e4d	0.023223067
152	0x3c691209	0.014225491
153	0x3d91f784	0.07127288
154	0x3db7363c	0.08945891
155	0x3dc67451	0.09690154
156	0x3d90ae66	0.07064514
157	0x3dcf3e8e	0.10119353
158	0x3c225f60	0.0099104345
159	0x3dbcd9a7	0.092212014
160	0x3ddddd8a	0.10833271
161	0x3db23328	0.087011635
162	0xbc236127	-0.009971893
163	0x3d10086b	0.035164278
164	0xbd02ae3f	-0.031904455
165	0x3d1a6327	0.037692215
166	0x3ceb9686	0.028758299
167	0xbd3a7b08	-0.045527488
168	0x3b089f51	0.0020846913
169	0x3c1b2b87	0.009470827
170	0x3c0def48	0.008663006
171	0xbd98a80f	-0.0745393
172	0xbc76f6d0	-0.015073493
173	0x3cd5cb94	0.02609805
174	0xbd1e0335	-0.038577277
175	0x3c395234	0.011311103
176	0xbbea75c2	-0.007155151
177	0x3ca2f0da	0.019890238
178	0x3d8ddbf1	0.06926716
179	0x3b24464b	0.0025066312
180	0x3b2bc75d	0.002621136
181	0xbce2541d	-0.027627999
182	0xbd436392	-0.04770238
183	0xbcf29803	-0.0296135
184	0xbc837dc6	-0.016051184
185	0xbd4d451d	-0.05011474
186	0xbcc4768f	-0.023982314
187	0x3c8ca850	0.017170101
188	0x3a1225db	0.0005575099
189	0xbd96b421	-0.073585756
190	0xbdbaf130	-0.09128034
191	0xbd47cc16	-0.048778616
192	0xbd200abd	-0.03907274
193	0xbd43a43f	-0.04776406
194	0xbdf78c80	-0.12087345
195	0xbd357942	-0.044305094
196	0xbd30bb91	-0.043147627
197	0xbdfd05c9	-0.12354619
198	0x3c0e3641	0.008679927
199	0x3a044fac	0.00050472724
200	0x3d2aa790	0.041663706
201	0xbbeb2997	-0.0071765888
202	0x3db455ac	0.08805403
203	0x3d4c6d86	0.049909137
204	0x3b9e9da0	0.0048405677
205	0xbafc437f	-0.001924619
206	0x3baf75fa	0.00535464
207	0xbd424ba2	-0.04743541
208	0xbd91ec6c	-0.07125172
209	0xbdcb2255	-0.09918658
210	0xbd8d8016	-0.06909196
211	0xbd61e687	-0.05515149
212	0xbd15795b	-0.036492687
213	0xbd8f0009	-0.069824286
214	0xbd89e6f8	-0.06733507
215	0xbdc97154	-0.09836069
216	0xbd52504c	-0.05134611
217	0xbd5a714f	-0.053330716
218	0xbdc1d935	-0.09465257
219	0x3c9e38c2	0.019314174
220	0xbc5a31ec	-0.013317566
221	0xbd8cbc70	-0.06871879
222	0xbcbcf9f0	-0.023068398
223	0xbd51159a	-0.05104599
224	0xbd780624	-0.06055273
225	0x3d9d97a7	0.07694941
226	0x3db8d328	0.0902465
227	0xbc2b0b35	-0.010439684
228	0x3d7c13d1	0.061542336
229	0x3d587b60	0.052852035
230	0x3cb32f3d	0.02187311
231	0x3d083da6	0.033261918
232	0x3db6bd25	0.08922795
233	0xbca04e9a	-0.01956873
234	0xbd16c561	-0.03680933
235	0xbce7d6b6	-0.028300624
236	0xbd692f2e	-0.05692976
237	0xbce13f13	-0.027495896
238	0xbbc9806d	-0.0061493427
239	0xbcb0f3c5	-0.021600613
240	0xbd51bb27	-0.051203873
241	0xbd49eb61	-0.04929674
242	0xbcfb082a	-0.030643541
243	0xbb094c40	-0.002094999
244	0xbceb72f0	-0.02874133
245	0xbca6ec52	-0.020376358
246	0x3cd6acea	0.026205499
247	0xbcee9a58	-0.029126331
248	0xbca80342	-0.020509366
249	0xbcfa33a7	-0.030542208
250	0x3ad2fc0f	0.0016096848
251	0x3d76e431	0.060276214
252	0xbd1c8861	-0.038216
253	0xbdde8bef	-0.10866534
254	0xbe3baf6d	-0.18328638
255	0xbd3837ce	-0.044975094

conv3.0.bias f4 [64]
0	0xbe68114e	-0.22662851
1	0xbd96ee54	-0.07369676
2	0xbd9928a0	-0.07478452
3	0xbe46e167	-0.19421922
4	0xbc96374c	-0.018336914
5	0xbc58c666	-0.013230896
6	0xbdcd1a88	-0.10014826
7	0xbe31f9de	-0.17380473
8	0xbd8799b2	-0.06621112
9	0xbdb15a41	-0.08659793
10	0x3ce8c9c3	0.02841652
11	0xbe24c75d	-0.16091676
12	0xbdd60af0	-0.10451305
13	0xbd0efb6c	-0.034907743
14	0xbe4310ef	-0.19049428
15	0xbb2f3f30	-0.0026740544
16	0xbe24ba09	-0.16086592
17	0xbe1ad0e6	-0.15118751
18	0xbd9f3144	-0.077730685
19	0xbe2339be	-0.15939996
20	0xbe25e698	-0.16201246
21	0xbe077a0b	-0.1323015
22	0xbdc029c0	-0.09382963
23	0xbd52d6b3	-0.051474284
24	0xbdc0a15c	-0.09405777
25	0xbde6f024	-0.11276272
26	0xbe8c386f	-0.27386805
27	0xbde44f1b	-0.11147901
28	0xbe74c3cd	-0.23902817
29	0xbdad4b66	-0.08461647
30	0xbe52ef1c	-0.20599025
31	0xbe108293	-0.1411231
32	0xbe0291e2	-0.12750962
33	0xbe643a1c	-0.22287792
34	0xbe2cd2c1	-0.16877271
35	0xbe2bb1a9	-0.1676699
36	0xbe00925c	-0.12555832
37	0xbdcf7bc2	-0.10131027
38	0xbe326894	-0.17422706
39	0xbe09591c	-0.13412899
40	0xbe09ea98	-0.13468397
41	0xbd30b5ff	-0.043142315
42	0xbe23e5a6	-0.16005573
43	0xbd03b42b	-0.032154243
44	0xbda2d2b5	-0.079503454
45	0xbdb197de	-0.086715445
46	0xbda19d04	-0.078912765
47	0xbda25543	-0.07926419
48	0xbc2e5a5c	-0.010641661
49	0xbe0949a9	-0.13407005
50	0xbe2983aa	-0.16554132
51	0xbe0b45bd	-0.13600822
52	0xbe29ec93	-0.16594152
53	0xbd311c82	-0.043240078
54	0xbda5639b	-0.08075639
55	0xbe1ed21f	-0.15509842
56	0xbd818488	-0.063241065
57	0xbda9a62f	-0.0828365
58	0xbdc14e83	-0.09438803
59	0xbc3dbadb	-0.011580194
60	0x3c592655	0.013253768
61	0xbd3bd1ad	-0.04585426
62	0xbe504d2f	-0.20341943
63	0xbdc4750a	-0.09592636

conv3.4.weight f4 [64]
0	0x3f976fba	1.1830971
1	0x3f931894	1.1491876
2	0x3fa0e6ff	1.2570494
3	0x3fabf35d	1.3433644
4	0x3fa0b84b	1.2556242
5	0x3f9ffed3	1.2499641
6	0x3fa3a6bd	1.278526
7	0x3f92bda7	1.1464127
8	0x3f88fb41	1.0701677
9	0x3fa4c1c4	1.2871633
10	0x3f9d88d3	1.230738
11	0x3f86dbc8	1.0535822
12	0x3fa34574	1.275557
13	0x3f902dda	1.1263993
14	0x3f934e75	1.1508318
15	0x3fa274d7	1.2691907
16	0x3f8f5091	1.1196462
17	0x3f9553cc	1.1666198
18	0x3fa47ab8	1.2849951
19	0x3fa71c31	1.3055478
20	0x3f9894c4	1.19204
21	0x3fa84ee8	1.314908
22	0x3fa38138	1.277381
23	0x3fa882e7	1.3164948
24	0x3f8acbd1	1.084345
25	0x3f9366a3	1.1515697
26	0x3f907d82	1.1288302
27	0x3faebeea	1.3652012
28	0x3f94f99a	1.1638672
29	0x3fa963bf	1.3233565
30	0x3f97b562	1.1852229
31	0x3f86ac81	1.0521394
32	0x3f9a034e	1.2032259
33	0x3f9b0767	1.2111634
34	0x3f8bef07	1.093232
35	0x3f969515	1.1764246
36	0x3f7b7f19	0.9824081
37	0x3fa8b57b	1.3180383
38	0x3fa5c860	1.2951775
39	0x3fa0bdab	1.2557882
40	0x3f9413f3	1.1568588
41	0x3f81bea1	1.01363
42	0x3f98cc35	1.1937319
43	0x3fa3fc76	1.281142
44	0x3f902043	1.1259845
45	0x3fa35c77	1.2762593
46	0x3fa68fe0	1.3012657
47	0x3f7e1c65	0.99262077
48	0x3f9f14e1	1.2428247
49	0x3faaac96	1.3333919
50	0x3f95ac70	1.1693249
51	0x3fa65dfc	1.2997432
52	0x3f8befb7	1.093253
53	0x3f993258	1.1968489
54	0x3fab0600	1.3361206
55	0x3f95f594	1.171557
56	0x3f8b4d9f	1.0883063
57	0x3fa9c122	1.3262064
58	0x3fa2d6a5	1.2721754
59	0x3f777c3b	0.96673936
60	0x3fa042e7	1.2520417
61	0x3fa04f6b	1.2524236
62	0x3f8ea5eb	1.1144384
63	0x3f9d12fa	1.2271416

conv3.4.bias f4 [64]
0	0xbc3830fb	-0.011242147
1	0xbbcb8c53	-0.0062117963
2	0x3c62bc4c	0.013838839
3	0x3b012d5a	0.001971087
4	0x3c3f5f19	0.011680388
5	0x3c561c14	0.013068218
6	0x3c264c23	0.010149988
7	0xbc4a7d26	-0.012358939
8	0xbcae72d3	-0.021294987
9	0x3c9c5ba6	0.01908667
10	0x3c66d60c	0.014089119
11	0xbca87999	-0.020565795
12	0xbc39eed7	-0.011348448
13	0xbc82e6f7	-0.015979273
14	0xb8d568ea	-0.00010176173
15	0x3bcc6b98	0.006238412
16	0x3b3a7dc1	0.0028456303
17	0xbbaa5a8b	-0.005198782
18	0x3c989e18	0.018630072
19	0xbc13b938	-0.009016328
20	0xbc6bc89a	-0.014391089
21	0x3c1e5ffc	0.009666439
22	0x3cfa780f	0.030574827
23	0xbb1eb968	-0.0024219397
24	0xbd473033	-0.04862995
25	0xbc9504dd	-0.018190796
26	0xbcd63eda	-0.026153017
27	0xbc10057d	-0.008790371
28	0xbd0dbe29	-0.03460518
29	0x3b3a1a50	0.002839703
30	0xbc8edbbf	-0.017438767
31	0xbc93a33a	-0.018022168
32	0x3d0d2e72	0.03446812
33	0xbc58dc00	-0.013236046
34	0xbccd37ae	-0.025050964
35	0x3bae08ab	0.005311092
36	0xbb6c427d	-0.0036050372
37	0x3c65a9c4	0.014017526
38	0x3a0041dd	0.0004892627
39	0xba383b72	-0.0007027901
40	0xbc9694ab	-0.018381437
41	0x3ba555ba	0.00504562
42	0x3ba565ce	0.0050475365
43	0x3c7a796c	0.015287738
44	0x3bea413f	0.007148891
45	0xb891f602	-6.959961e-05
46	0x3c352b02	0.011057617
47	0x3a8838bb	0.0010392884
48	0xbba248ef	-0.004952542
49	0x3c604c43	0.013690057
50	0xbbb95b0f	-0.005656607
51	0x3cb75eee	0.022384133
52	0xbc458a5e	-0.012056915
53	0x3bc20e6f	0.005922131
54	0x3c0825c9	0.00830979
55	0xbca9fe56	-0.02075116
56	0x3c59e090	0.013298169
57	0x3cae6a9b	0.021291068
58	0x3c56ee81	0.013118387
59	0xbc1fee8b	-0.009761463
60	0x3cd314d8	0.025766775
61	0x3cbb2b6b	0.022847852
62	0x3c2760f9	0.010215991
63	0x3cc40f73	0.023933148

conv3.4.running_mean f4 [64]
0	0x3ce5e72c	0.028064333
1	0x3ca379c5	0.019955525
2	0x3de463a7	0.1115182
3	0x3cbe1cb0	0.023207039
4	0x3da616d1	0.08109821
5	0x3e00eca3	0.1259027
6	0x3d2f62b5	0.042818744
7	0x3cb8d31d	0.022561604
8	0x3cf75e87	0.030196441
9	0x3d9fa45e	0.077950224
10	0x3d5cd80e	0.053916983
11	0x3c1d7d0d	0.009612334
12	0x3d17f357	0.0370973
13	0x3d133fc3	0.03594948
14	0x3c5532e9	0.013012626
15	0x3e031e8a	0.12804618
16	0x3d3dfe6f	0.046385225
17	0x3cb5e981	0.02220607
18	0x3ca68a24	0.020329542
19	0x3ccc6626	0.024951052
20	0x3cbb02b7	0.022828443
21	0x3cc16f3d	0.023612613
22	0x3d959fc6	0.07305865
23	0x3e02f57a	0.12788954
24	0x3d81561b	0.063152514
25	0x3d1546f0	0.036444604
26	0x3c7494a3	0.014928016
27	0x3d155e74	0.03646703
28	0x3cd5fc72	0.026121352
29	0x3d19b0f4	0.03752227
30	0x3d3aba02	0.045587547
31	0x3c4f4411	0.012650506
32	0x3ceb2b64	0.028707214
33	0x3cfb5a11	0.030682595
34	0x3cabd2e4	0.020974584
35	0x3d02bdb9	0.031919215
36	0x3d8d8c7e	0.069115624
37	0x3c841e68	0.01612778
38	0x3d23b972	0.039971776
39	0x3d263518	0.040577978
40	0x3cfb5113	0.030678308
41	0x3d88ce9e	0.06680034
42	0x3c643973	0.013929713
43	0x3e374590	0.1789763
44	0x3d29404e	0.04132109
45	0x3d0b346d	0.033985544
46	0x3cf087f2	0.029361699
47	0x3dacdb21	0.08440233
48	0x3d95b05d	0.07309029
49	0x3c6d4c55	0.014483531
50	0x3c8b3b9a	0.016996194
51	0x3d1072a3	0.035265576
52	0x3cc69440	0.024240613
53	0x3dfd6f71	0.123747714
54	0x3cbcef46	0.023063313
55	0x3cb07523	0.02154023
56	0x3ccd1261	0.025033178
57	0x3c62218e	0.013801945
58	0x3cef0820	0.029178679
59	0x3f279e03	0.6547548
60	0x3e1bfc71	0.15233018
61	0x3e00b1e9	0.12567867
62	0x3c8effa1	0.017455878
63	0x3d562457	0.05228075

conv3.4.running_var f4 [64]
0	0x3e00b902	0.12570575
1	0x3d8127ed	0.06306443
2	0x3ed3f260	0.41395855
3	0x3d8e6d03	0.06954386
4	0x3e642e33	0.22283249
5	0x3f00ea1d	0.5035723
6	0x3e07dbfa	0.13267508
7	0x3d643668	0.05571595
8	0x3d650e60	0.055921912
9	0x3e69e3d7	0.2284082
10	0x3e15e5bb	0.14638416
11	0x3c9b0bf2	0.018926594
12	0x3dfdc2a5	0.12390641
13	0x3d8ed01d	0.06973288
14	0x3d1fa67b	0.038977128
15	0x3f067c76	0.5253366
16	0x3d9d7bac	0.07689604
17	0x3d28bec1	0.041197542
18	0x3d470e63	0.048597705
19	0x3da773c6	0.08176379
20	0x3d3eee3e	0.046613924
21	0x3d8e2c5d	0.069420554
22	0x3e65ebfb	0.224533
23	0x3ef92b69	0.48665932
24	0x3e0113f0	0.12605262
25	0x3e03ae58	0.12859476
26	0x3d68d3b8	0.056842536
27	0x3e0022f8	0.1251334
28	0x3dc63d28	0.096796334
29	0x3dfd0ae2	0.12355591
30	0x3dcb6c7d	0.09932802
31	0x3d4ef7e7	0.050529387
32	0x3da288ba	0.07936235
33	0x3dea8f4a	0.114531115
34	0x3da9bceb	0.08287986
35	0x3df9f831	0.12205542
36	0x3ead7865	0.33880916
37	0x3d428009	0.047485385
38	0x3de84341	0.11340953
39	0x3e0b4561	0.13600685
40	0x3de362e8	0.11102849
41	0x3e398b57	0.1811956
42	0x3d5ce1f6	0.05392643
43	0x3f5044aa	0.81354773
44	0x3dabfdf7	0.08398049
45	0x3de2b672	0.11069955
46	0x3dc0e9d7	0.094196014
47	0x3e25ada9	0.16179527
48	0x3e54702a	0.20745912
49	0x3d198e03	0.03748895
50	0x3d60a877	0.05484816
51	0x3de52599	0.11188812
52	0x3d397e8b	0.045286696
53	0x3ede47d7	0.43414184
54	0x3d94bda6	0.07262735
55	0x3d76d6d1	0.06026346
56	0x3d8e9a36	0.06963007
57	0x3ced6efa	0.028983582
58	0x3dbcaaf8	0.09212297
59	0x402c1358	2.6886806
60	0x3f0e4e5b	0.5558831
61	0x3ee7a6df	0.452445
62	0x3d4c72d6	0.049914204
63	0x3e00e8e0	0.12588835

fc.0.weight f4 [32, 64]
0	0x3e56a558	0.20961511
1	0x3e74f2d4	0.23920757
2	0xbdb11d49	-0.08648164
3	0xbe4a0e2d	-0.1973197
4	0xbea9325d	-0.33046237
5	0xbddc066b	-0.10743412
6	0xbe4c103e	-0.19928071
7	0x3da766c6	0.08173899
8	0x3e004f8c	0.12530345
9	0xbe335945	-0.17514522
10	0xbe4b5b92	-0.1985915
11	0xbd0c4304	-0.0342436
12	0xbe64a4c1	-0.22328474
13	0x3e0cbb29	0.13743271
14	0x3e495147	0.19659911
15	0xbe9d08bc	-0.30670726
16	0x3ddc8ccb	0.10769042
17	0x3dd5c05c	0.1043708
18	0xbe93b506	-0.28849047
19	0xbe6c02d3	-0.23047952
20	0x3d7b2a40	0.06131959
21	0xbe20ef2a	-0.15716234
22	0xbe46b87f	-0.19406317
23	0xbea3e9ac	-0.32014215
24	0x3e2701d1	0.16309287
25	0x3d8fdc58	0.07024449
26	0x3d64d1b8	0.055864066
27	0xbe88b1db	-0.26698193
28	0x3e5d8ccf	0.21635745
29	0xbe282605	-0.16420753
30	0x3dd949d6	0.10609786
31	0x3e3c5507	0.1839181
32	0xbd83ef63	-0.06442144
33	0x3e182b24	0.14860207
34	0x3e09b8e9	0.13449444
35	0x3e48a598	0.19594419
36	0x3e1705bd	0.14748283
37	0xbe951fb9	-0.29125765
38	0xbe26beef	-0.16283773
39	0xbe801d39	-0.25022295
40	0x3e2407b7	0.16018568
41	0x3da44a5f	0.08021998
42	0x3e03f1c0	0.12885189
43	0xbe5df246	-0.21674451
44	0x3e298326	0.16553935
45	0xbe9a5605	-0.30143753
46	0xbe8a5cfd	-0.2702407
47	0x3d7a0ef7	0.061049428
48	0xbdc0ee1d	-0.094204165
49	0xbe8a3fc5	-0.27001777
50	0x3dea38d8	0.11436623
51	0xbe9e5a90	-0.3092847
52	0x3de75f4e	0.11297475
53	0xbe8d4a87	-0.27595922
54	0xbe5330c3	-0.2062407
55	0x3e203de7	0.15648614
56	0x3ddac97f	0.106829636
57	0xbe219f7f	-0.15783499
58	0xbea0690e	-0.3133015
59	0x3c5d5eee	0.0135114025
60	0xbe15eccf	-0.14641117
61	0xbe11b67e	-0.14229771
62	0x3de1a90a	0.1101857
63	0xbe35584d	-0.17709465
64	0x3d888696	0.06666295
65	0x3d9d62bd	0.076848485
66	0xbe27a287	-0.16370593
67	0xbe929f71	-0.2863727
68	0xbe0dbd5f	-0.1384177
69	0xbde5ed6e	-0.11226927
70	0xbe7a4ad7	-0.24442612
71	0x3e134c08	0.14384472
72	0xbc3b2ff7	-0.01142501
73	0xbe8253b0	-0.25454473
74	0xbd4cdb55	-0.05001386
75	0xbc14286f	-0.009042843
76	0xbe362b94	-0.17790061
77	0x3e00aa14	0.1256488
78	0x3e672fad	0.2257678
79	0xbe57b45a	-0.21064892
80	0x3e349b96	0.17637476
81	0x3df318ce	0.118699655
82	0xbe57d2e3	-0.2107654
83	0xbde014e4	-0.109414846
84	0x3cd6c55c	0.026217155
85	0xbe97ae77	-0.29625294
86	0xbe74db37	-0.23911749
87	0xbe8d5dc9	-0.27610615
88	0x3d33c4d3	0.043888878
89	0x3e47cc57	0.19511543
90	0x3def4673	0.11683359
91	0xbe8ae0bf	-0.27124593
92	0x3e370644	0.17873484
93	0xbe95335e	-0.29140753
94	0x3de3b048	0.11117607
95	0xbd1641fd	-0.036684025
96	0xbe19a554	-0.15004474
97	0x3e873efe	0.26415247
98	0x3e237463	0.15962367
99	0x3e655e0b	0.22399156
100	0x3dbf437f	0.09339046
101	0xbe2af513	-0.16695051
102	0xbe73bbf1	-0.23802163
103	0xbe8a0891	-0.2695966
104	0x3ca5e8d0	0.020252615
105	0x3d816232	0.063175574
106	0x3e3adaae	0.18247482
107	0xbdee84db	-0.11646434
108	0x3d7a7948	0.06115082
109	0xbe72f88f	-0.2372763
110	0xbdd94fe0	-0.10610938
111	0x3e158552	0.14601639
112	0xbe96f3a5	-0.2948276
113	0xbe5e3734	-0.21700746
114	0x3d42909c	0.04750119
115	0xbe1fc25b	-0.15601484
116	0x3e091d15	0.1339
117	0xbddb5123	-0.10708835
118	0xbe1fa9cb	-0.15592115
119	0x3e54ca1c	0.20780224
120	0x3e4151d6	0.18878874
121	0xbe53af68	-0.20672381
122	0xbe554ecf	-0.20830844
123	0xbd358970	-0.044320524
124	0xbe539c12	-0.20665005
125	0xbdc695b5	-0.09696523
126	0x3de36856	0.11103885
127	0xbe320e4b	-0.17388265
128	0x3db6cce2	0.08925797
129	0x3e04cd15	0.12968858
130	0xbe3d8d44	-0.1851092
131	0xbe7d53ac	-0.2473895
132	0xbe5b2063	-0.21399073
133	0xbe0a3b38	-0.13499153
134	0xbe844f2c	-0.25841653
135	0x3dcca7d0	0.09992945
136	0x3d81119c	0.06302187
137	0xbdcfd0f8	-0.101472795
138	0xbe10f404	-0.14155585
139	0x3deef739	0.11668248
140	0xbe6cb91b	-0.23117487
141	0x3dc745df	0.09730124
142	0x3e19c186	0.1501523
143	0xbe567f2c	-0.2094695
144	0x3da8512c	0.08218607
145	0x3e1fd465	0.15608366
146	0xbdacef36	-0.08444063
147	0xbe964b41	-0.2935429
148	0x3ded2c0b	0.11580666
149	0xbe627f13	-0.22118787
150	0xbe7c4ecd	-0.24639435
151	0xbe81ccfa	-0.25351697
152	0x3d1f4092	0.03887994
153	0x3d718b6f	0.058970865
154	0x3e3afb14	0.18259841
155	0xbe7a239e	-0.2442765
156	0x3e1e32cf	0.1544907
157	0xbe27c0dc	-0.16382164
158	0x3e571038	0.2100228
159	0xbd66ef3f	-0.056380507
160	0xbe232b4d	-0.15934487
161	0x3e0573d5	0.13032468
162	0x3c32c52b	0.010911266
163	0x3e3336ab	0.17501323
164	0xbcb5a974	-0.022175528
165	0xbe70706d	-0.23480387
166	0xbe216a3c	-0.15763181
167	0xbe736ae3	-0.23771243
168	0x3da18473	0.07886591
169	0xbc4067f9	-0.011743539
170	0x3e3917da	0.18075505
171	0xbe37370e	-0.17892095
172	0x3dd5861b	0.10425969
173	0xbe87c14e	-0.26514667
174	0xbd9a688c	-0.07539472
175	0xbd5de0fd	-0.054169644
176	0xbdbb0cd6	-0.09133308
177	0xbe1ea7c6	-0.15493688
178	0x3e13c56c	0.14430779
179	0xbe651c58	-0.22374094
180	0x3e350b67	0.17680131
181	0xbe66bd40	-0.2253313
182	0xbe4cc9a7	-0.199988
183	0x3e622eb1	0.22088124
184	0x3da86096	0.08221547
185	0xbe9e5059	-0.30920675
186	0xbe9c97a8	-0.30584455
187	0x3d814d23	0.06313541
188	0xbe480495	-0.19532998
189	0xbe3ca4b4	-0.18422204
190	0x3d9fc172	0.07800569
191	0xbe3a676c	-0.18203515
192	0xbe522a6e	-0.20523998
193	0xbe138109	-0.14404692
194	0x3daaeb86	0.08345704
195	0x3e2983e2	0.16554216
196	0x3e6ded60	0.23235083
197	0x3e566b10	0.20939279
198	0x3e45ca7a	0.1931552
199	0xbe1fb70e	-0.15597174
200	0xbd4b9c6b	-0.04970972
201	0x3e7c19c5	0.24619205
202	0x3e06fc94	0.13182288
203	0xbe154421	-0.1457677
204	0x3e579a04	0.21054846
205	0xbe05fae0	-0.13083982
206	0xbe5d2f62	-0.21600106
207	0x3e1e8410	0.15480065
208	0xbe3cd83d	-0.18441863
209	0xbd394ea7	-0.045241024
210	0x3e0abdde	0.13548991
211	0x3e6156c0	0.22005749
212	0xbe21e67f	-0.15810584
213	0x3e656873	0.22403125
214	0x3e2091db	0.1568064
215	0x3e465547	0.19368468
216	0xbc554227	-0.01301626
217	0xbd334788	-0.04376939
218	0xbe0cf171	-0.13763978
219	0x3da17911	0.0788442
220	0xbd6325e1	-0.055456046
221	0x3e98780e	0.29779094
222	0xbdb4a2fe	-0.08820151
223	0xbdfaf45a	-0.122536376
224	0x3e2f2ac9	0.17106165
225	0xbe26f81e	-0.16305587
226	0xbe3ba7ae	-0.18325683
227	0xbe27acbc	-0.16374487
228	0xbdf1ab98	-0.11800307
229	0x3e2fb2b2	0.1715801
230	0x3e05e3dc	0.13075203
231	0x3e23f55c	0.16011566
232	0xbd0e6334	-0.034762576
233	0xbe23e0ad	-0.16003676
234	0xbdebdc1d	-0.11516593
235	0x3e512a1b	0.20426218
236	0xbdb8711f	-0.09005951
237	0x3e6ceee6	0.23138008
238	0x3e039557	0.12849937
239	0xbd760b13	-0.060069155
240	0x3d489279	0.048967812
241	0x3df47988	0.11937243
242	0xbe08c6f1	-0.1335714
243	0x3e1c9502	0.15291217
244	0xbde29654	-0.11063829
245	0x3e5beabc	0.21476263
246	0x3e814f85	0.2525598
247	0xbe2fd95d	-0.17172761
248	0xbe2a7e7d	-0.16649814
249	0x3e489e37	0.19591604
250	0x3ddf057e	0.108897194
251	0xbd41215b	-0.04715095
252	0x3d35358d	0.044240523
253	0x3e7d2fb8	0.24725235
254	0xbdcb698d	-0.099322416
255	0x3df779e7	0.12083798

fc.0.bias f4 [32]
0	0xbc301d70	-0.010749206
1	0xbdc5a41f	-0.09650444
2	0xbddaf773	-0.106917284
3	0x3d877fa5	0.06616143
4	0x3c9a6ada	0.018849779
5	0xbd9956a5	-0.07487229
6	0x3d161627	0.03664222
7	0xbcbb2fdc	-0.02284997
8	0xbddea0fc	-0.10870549
9	0xbd09561e	-0.033529393
10	0xbd1afbd8	-0.037837833
11	0x3c76fd50	0.015075043
12	0x3d96ff72	0.07372941
13	0xbd10ace9	-0.03532115
14	0xbd4be840	-0.049782038
15	0x3c8969d4	0.016774096
16	0x3d4a371a	0.049368955
17	0xbd2d449d	-0.042301763
18	0xbd4da806	-0.050209068
19	0x3c307493	0.010769981
20	0x3c63f45c	0.01391324
21	0x3dbb081c	0.09132406
22	0x3d9cd29c	0.07657358
23	0xbce54465	-0.027986715
24	0xbd13cceb	-0.036084097
25	0x3da57885	0.08079628
26	0x3d8fee43	0.07027867
27	0x3d12b9d7	0.035821762
28	0x3dc557df	0.09635901
29	0x3d7b7cfc	0.06139849
30	0xbce8edbf	-0.028433679
31	0x3d54d503	0.051960956

fc.3.weight f4 [1, 32]
0	0xbe6fd16b	-0.2341973
1	0xbe9076e3	-0.28215703
2	0xbe99dc50	-0.30050898
3	0x3f05d266	0.5227417
4	0x3ef4f6c9	0.47844532
5	0xbe84dbb6	-0.25948876
6	0x3eaaaf57	0.333369
7	0x3f002da5	0.5006965
8	0xbe8562b9	-0.26051882
9	0xbe945deb	-0.28977904
10	0x3efba2f2	0.49147755
11	0xbe7e1fda	-0.24816838
12	0xbea82701	-0.32842258
13	0xbe52449f	-0.2053399
14	0xbe6623d0	-0.22474599
15	0xbe6b36cd	-0.22970124
16	0xbe7e1d0a	-0.24815765
17	0x3edd7688	0.43254495
18	0xbeab580b	-0.3346561
19	0xbe88d472	-0.26724583
20	0x3ec79621	0.38981727
21	0x3ef2513b	0.473276
22	0x3eefca0d	0.4683384
23	0x3f0218af	0.50818914
24	0xbe96a1c5	-0.29420295
25	0xbea08ef6	-0.3135907
26	0x3ecbdb6f	0.39815852
27	0xbe902c71	-0.28158906
28	0x3ee5f3bb	0.44912514
29	0xbe789fed	-0.24279757
30	0xbea0a85c	-0.31378448
31	0xbe8b1b2f	-0.27169177
