5 第五讲 机器学习训练模型的数学范式v16/models/model150.pth (torch, 112459 bytes, 21 tensors)

conv1.0.weight f4 [16, 3, 3, 3]
-0.017198533 -0.12179547 0.1420763 -0.055468973 -0.1339456 -0.17593022 0.041188758 -0.15975802
0.09270936 0.073556885 0.19111322 -0.13632046 0.036172472 0.041998927 0.023170093 0.11046084
0.0069107837 -0.063642435 0.15788198 -0.10923229 -0.14868538 0.11775723 -0.037066966 0.15721992
-0.10930793 0.1661018 0.045599587 -0.07030089 0.121929444 -0.0654553 -0.020820543 -0.08146291
0.092212096 0.045072798 0.1426488 -0.08079513 0.014000737 -0.018101946 0.17136733 -0.17167617
-0.064169906 0.17990433 0.0540036 -0.04639572 0.1041359 0.029733352 -0.073705494 -0.1460239
-0.19935907 0.0988665 -0.006998797 0.06451998 -0.16129424 0.18072006 0.085873194 -0.0112875225
-0.10077689 -0.009130549 -0.12988722 -0.17513508 -0.058018833 0.116322085 -0.1716042 0.16388802
0.09191903 -0.1639192 0.17851041 0.055507205 -0.045373056 0.032121513 0.045358215 0.122529335
0.18517932 0.027929528 -0.054455813 0.014207801 0.03376435 -0.0950791 -0.08478447 -0.20351177
0.17195997 -0.07744363 -0.008924849 -0.15307811 0.009524699 0.18177181 -0.1558568 0.12434282
0.20276447 -0.18513441 -0.05439524 0.002057197 -0.011357209 -0.013866735 0.1573241 0.12748179
0.019858757 0.058250945 -0.1184982 -0.14760055 -0.0962624 0.14666407 0.16802913 0.15861873
0.018695448 0.1027727 -0.061597418 -0.048901685 -0.20084578 0.059958346 -0.09758872 0.15941943
0.023510192 0.1239899 -0.044976257 0.05332896 -0.14775245 -0.21477762 -0.11967316 0.20180398
0.06549933 0.09973674 0.20595221 0.07722965 0.07781405 -0.050888453 -0.13634412 0.09931604
0.16292113 -0.17582157 0.05571691 -0.039628692 0.16072953 -0.040541038 -0.036063433 -0.0476563
-0.05689238 0.15486197 -0.10232559 0.049769633 0.007604523 0.12849958 0.09121605 -0.13940217
-0.010199089 0.009822785 -0.024432627 0.16038926 0.20635952 -0.124982946 -0.05370292 0.20479053
0.0628293 -0.09135523 0.09998764 -0.047736336 -0.10074863 -0.20273831 0.1092931 -0.07320673
-0.15201575 -0.15324193 -0.021070907 0.12930575 0.10417569 0.13051742 -0.08326975 -0.16077483
-0.036070425 -0.096146755 0.06482248 0.13175988 -0.06461357 -0.20513724 0.15773635 0.046234183
-0.13822393 -0.06368946 -0.047759026 -0.13190855 0.1825786 0.06430218 -0.11952702 -0.10625257
-0.08736802 -0.18783472 -0.010778152 -0.05977697 -0.10163231 0.012431759 -0.09633679 0.106927305
0.09199331 -0.07007198 -0.08955221 -0.2030819 -0.026633833 -0.16627048 0.18228994 0.114935145
0.013275172 -0.01335754 -0.004340217 0.19692317 -0.022917377 0.036740348 0.11931354 0.06382159
-0.018256824 0.12912332 -0.165012 0.01755626 -0.20831135 0.077559195 0.10222455 -0.06644534
-0.14330609 -0.14147095 -0.036988426 -0.138095 -0.036971036 -0.058109205 -0.10568208 0.09252745
-0.11988859 0.08756874 -0.21822606 -0.08486323 0.18260896 -0.12461995 -0.058460414 0.09691612
0.07754113 -0.08703066 0.08117078 -0.25337923 -0.29731774 -0.0578004 0.17425174 0.09412179
0.15344511 0.05402433 0.013936783 0.1934434 0.08877066 0.05295539 -0.1417016 -0.12464412
0.13189922 0.20711488 0.05513592 0.07581165 -0.14705648 -0.066811405 -0.053491786 -0.09356656
00000000: f0e3 8cbc e76f f9bd 737c 113e 6f33 63bd
00000010: 0929 09be 0d27 34be 8bb5 283d 9b97 23be
00000020: 68de bd3d fea4 963d 2fb3 433e 9797 0bbe
00000030: 9629 143d 1107 2c3d 35cf bd3c 4b39 e23d
00000040: db73 e23b f756 82bd d0ab 213e 2eb5 dfbd
00000050: fb40 18be b42a f13d 88d3 17bd 42fe 203e
00000060: d6dc dfbd 9716 2a3e a2c6 3a3d eaf9 8fbd
00000070: 25b6 f93d 6e0d 86bd d88f aabc 07d6 a6bd
00000080: b2d9 bc3d 419e 383d 8712 123e eb77 a5bd
00000090: 5963 653c 884a 94bc eb7a 2f3e e1cb 2fbe
000000a0: 836b 83bd d738 383e e132 5d3d 7009 3ebd
000000b0: 3445 d53d 5c93 f33c e8f2 96bd 4a87 15be
000000c0: c924 4cbe 857a ca3d 2a56 e5bb 0d23 843d
000000d0: 512a 25be ae0e 393e 49de af3d 4def 38bc
000000e0: 1d64 cebd 4c98 15bc 2801 05be 9c56 33be
000000f0: 28a5 6dbd 463a ee3d 03b9 2fbe 43d2 273e
00000100: 0b40 bc3d 6fda 27be 6fcb 363e 865b 633d
00000110: 19d9 39bd d991 033d 89c9 393d a9f0 fa3d
00000120: a69f 3d3e 77cc e43c 0f0d 5fbd d6c7 683c
00000130: 7d4c 0a3d d5b8 c2bd 7ba3 adbd 6465 50be
00000140: 4616 303e c49a 9ebd 8839 12bc 82c0 1cbe
00000150: 7c0d 1c3c 6422 3a3e ed98 1fbe 73a7 fe3d
00000160: 7da1 4f3e e093 3dbe 8bcd 5ebd 0ad2 063b
00000170: 9613 3abc 4d31 63bc 9219 213e 968a 023e
00000180: d5ae a23c 8b98 6e3d 2faf f2bd 9924 17be
00000190: 3925 c5bd 1b2f 163e d40f 2c3e f36c 223e
000001a0: 3227 993c 7e7a d23d 934d 7cbd 224d 48bd
000001b0: 84aa 4dbe e296 753d 98dc c7bd d93e 233e
000001c0: 7298 c03c 6bee fd3d 0639 38bd 786f 5a3d
000001d0: 6b4c 17be aaee 5bbe 3417 f5bd b4a5 4e3e
000001e0: 8324 863d c742 cc3d 23e5 523e 942a 9e3d
000001f0: f95c 9f3d 6970 50bd cb9d 0bbe 3566 cb3d
00000200: ccd4 263e 920a 34be 6a37 643d b251 22bd
00000210: 4896 243e 5c0e 26bd 40b7 13bd 4133 43bd
00000220: fc07 69bd 2394 1e3e 1490 d1bd 3edb 4b3d
00000230: 5d2f f93b 6595 033e 7bcf ba3d 71bf 0ebe
00000240: 141a 27bc bfef 203c ef26 c8bc 153d 243e
00000250: e94f 533e 0ff7 ffbd 98f7 5bbd 9cb4 513e
00000260: a6ac 803d 7318 bbbd 52c6 cc3d 2d87 43bd
00000270: 4c55 cebd a29a 4fbe 10d5 df3d 69ed 95bd
00000280: 04aa 1bbe 74eb 1cbe e59c acbc ba68 043e
00000290: 105a d53d 5ca6 053e 5589 aabd 28a2 24be
000002a0: 95be 13bd 97e8 c4bd a6c1 843d 10ec 063e
000002b0: 1f54 84bd 7f0f 52be a385 213e 0e60 3d3d
000002c0: 938a 0dbe 9f6f 82bd f89e 43bd 0913 07be
000002d0: e2f5 3a3e ddb0 833d 95ca f4bd f39a d9bd
000002e0: 01ee b2bd bf57 40be d996 30bc b2d8 74bd
000002f0: 9a24 d0bd 94ae 4b3c 394c c5bd b4fc da3d
00000300: fd66 bc3d e681 8fbd 2667 b7bd b4f4 4fbe
00000310: 322f dabc cf42 2abe 37aa 3a3e 1e63 eb3d
00000320: 1b80 593c 95d9 5abc 6138 8ebb 3aa6 493e
00000330: 39bd bbbc 0c7d 163d a85a f43d e5b4 823d
00000340: 568f 95bc e738 043e e8f8 28be 25d2 8f3c
00000350: 924f 55be 5bd7 9e3d 1b5b d13d 7f14 88bd
00000360: d5be 12be c3dd 10be 2d81 17bd c768 0dbe
00000370: f16e 17bd eb03 6ebd d96f d8bd 087f bd3d
00000380: 2688 f5bd 3d57 b33d a776 5fbe c6cc adbd
00000390: d8fd 3a3e bf38 ffbd 3074 6fbd f57b c63d
000003a0: e2cd 9e3d 213d b2bd de3c a63d ecba 81be
000003b0: 083a 98be 1dc0 6cbd 0c6f 323e edc2 c03d
000003c0: b720 1d3e 9e48 5d3d 1b57 643c 0716 463e
000003d0: 64cd b53d c0e7 583d 391a 11be 6b45 ffbd
000003e0: 9710 073e ec15 543e 34d6 613d 2343 9b3d
000003f0: f995 16be 6bd4 88bd 341a 5bbd d39f bfbd

conv1.0.bias f4 [16]
0.07670787 0.11868026 0.056291685 0.07691705 -0.19858514 0.0020448265 0.12095379 0.033721574
-0.19996683 0.0121855885 0.22524928 -0.11018542 0.14772747 -0.17456762 0.016830683 0.23027298
00000000: 0419 9d3d a30e f33d 1c92 663d b086 9d3d
00000010: e759 4bbe 7f02 063b 9fb6 f73d a21f 0a3d
00000020: 1bc4 4cbe 10a6 473c bfa7 663e e5a8 e1bd
00000030: df45 173e dbc1 32be 80e0 893c aecc 6b3e

conv1.3.weight f4 [16]
0.9503293 0.97836137 1.0282421 0.894564 1.0116582 1.0164156 1.0053399 0.9061298
0.93946797 1.0442731 0.9187304 1.1601532 0.89586884 1.0162203 0.9281547 0.95763755
00000000: c848 733f e475 7a3f 709d 833f 2502 653f
00000010: 047e 813f e819 823f faae 803f 1ff8 673f
00000020: f980 703f beaa 853f ea31 6b3f e67f 943f
00000030: a957 653f 8213 823f 8c9b 6d3f bc27 753f

conv1.3.bias f4 [16]
-0.00072181836 0.17654888 -0.002026592 0.022427062 0.19641854 -0.024468308 0.0819718 0.069968924
0.24436145 0.0403469 -0.14812958 0.061467286 0.042632427 0.103079736 0.031025443 -0.14003533
00000000: 6938 3dba 3bc9 343e 92d0 04bb f5b8 b73c
00000010: f121 493e c371 c8bc d5e0 a73d de4b 8f3d
00000020: e339 7a3e ca42 253d 48af 17be 1fc5 7b3d
00000030: 579f 2e3d 781b d33d 1229 fe3c 6c65 0fbe

conv1.3.running_mean f4 [16]
0.11635863 0.19290638 0.06332492 0.24078757 0.0220688 0.013786877 0.018855229 0.08073272
2.2883403e-05 0.038842272 0.43212244 0.012230641 0.14929385 0.012544893 0.073535405 0.1994471
00000000: 6f4d ee3d 4089 453e 7fb0 813d 0491 763e
00000010: a1c9 b43c 5ae2 613c 4876 9a3c 3257 a53d
00000020: bcf5 bf37 1319 1f3d 273f dd3e 0763 483c
00000030: 7de0 183e 1889 4d3c bb99 963d dc3b 4c3e

conv1.3.running_var f4 [16]
0.0029448962 0.0025597364 0.002405698 0.01125764 0.0019009749 0.00092190277 0.0017266267 0.0025262237
2.7591248e-06 0.00253691 0.027140575 0.0013091083 0.0012025369 0.00091906585 0.005337303 0.0015227887
00000000: 29ff 403b 40c1 273b eaa8 1d3b f771 383c
00000010: 222a f93a d9ab 713a fa4f e23a 008f 253b
00000020: 6729 3936 4942 263b e955 de3c 6396 ab3a
00000030: 719e 9d3a 77ed 703a 8be4 ae3b 4f98 c73a

conv2.0.weight f4 [32, 16, 3, 3]
0.007701931 -0.026849175 -0.019448405 0.013529946 0.065355755 0.016041337 0.073160194 -0.016259821
-0.008913587 -0.054527055 -0.08761234 -0.050461788 -0.035636332 0.02972684 -0.040626373 -0.041248742
-0.050908893 0.03608489 0.11783665 -0.016105877 -0.096930556 0.09785284 0.06488211 -0.061953664
-0.034946963 -0.04924594 -0.05884886 0.09858448 0.051959597 -0.058580264 0.0011634675 0.06319415
-0.026416155 0.038855124 0.013882089 0.04169319 0.033679154 0.033052463 -0.036058754 -0.107446775
-0.016976954 0.0010391643 -0.05736443 -0.05707235 0.0034390367 0.021984212 0.07597584 0.09210634
-0.040472604 0.067279935 0.0457666 0.093625076 0.102891594 0.07318966 0.06662986 0.02723799
-0.01662926 -0.02707351 0.05274715 0.0076212566 0.046471886 0.037892547 0.08413525 0.05451733
-0.07893478 -0.0568407 0.06125405 0.052620772 -0.0575724 0.032850847 -0.08453126 -0.06585854
-0.07084717 -0.18766758 -0.10534708 -0.17974101 -0.21988808 -0.1746416 -0.15389828 -0.10878087
-0.2013488 -0.11871671 -0.04130383 0.08168136 -0.056768812 0.016899662 0.08430228 -0.09597032
-0.09253653 0.095097445 0.10182569 -0.0056937193 -0.012807577 -0.032846384 0.036963284 -0.025041297
0.107552454 0.055218007 0.029824635 0.01892479 -0.0011154886 0.02695676 -0.09224712 -0.09769863
-0.13912812 -0.052509338 0.041850865 0.021384314 0.06962649 -0.016295059 0.043564178 0.04732641
-0.0112987375 0.010495977 -0.0436399 -0.0035538261 -0.06677099 0.061932378 -0.07978046 -0.13887493
-0.035123132 -0.07236363 -0.028355082 -0.15266937 -0.06419734 0.043261454 0.025204824 -0.04205281
-0.007877374 -0.032627407 -0.049170494 -0.038547352 -0.032852273 0.039124053 0.0473279 -0.047961745
-0.0028862478 0.011733748 0.006934752 -0.06994193 -0.050983436 0.05797644 0.05988218 -0.0056847967
0.024944926 -0.021608062 0.03601211 0.08545264 0.016302017 -0.047674716 0.026501963 0.053058643
0.07678681 -0.025539428 0.009085562 -0.056370355 -0.06999163 0.009322592 -0.13124496 0.028531685
-0.020973552 -0.033096187 0.025824323 0.095807925 0.08126479 0.11750279 -0.054748733 0.036865342
0.11617884 0.002201747 0.08652059 0.08598797 0.012611609 -0.017867394 0.015308698 -0.015552898
0.06938343 0.06288913 -0.017885996 0.08714924 0.06465353 0.05847954 -0.03893449 0.08057394
0.056731846 0.037471093 0.09026522 -0.0057052206 0.061833717 0.015013461 -0.068921946 0.005591607
-0.06209611 -0.1504036 -0.10131614 0.025164736 -0.057287786 -0.08519608 -0.0049897972 -0.01220858
0.07596742 0.13431254 0.050622724 0.075911224 0.057950433 -0.044741396 0.08216177 -0.04899177
0.067348555 0.04442254 -0.04209288 -0.069568045 -0.06851687 0.010320905 -0.10127607 -0.010788
0.007831373 -0.049791783 0.09246198 -0.11069774 0.0056518316 -0.025007091 -0.044028852 -0.09580677
-0.051335514 0.0317249 -0.08305357 -0.057623867 0.045405403 0.0030227324 -0.0793258 0.08817525
-0.017216634 -0.017349929 0.03961521 -0.028677247 0.09533551 0.11438468 0.118550576 -0.001010377
0.021349598 0.13207304 0.06812294 0.022747438 0.012002188 0.08104219 -0.06342854 -0.057675373
-0.023079652 0.03147643 -0.030350221 0.037659943 0.08636024 0.06582159 0.06900324 0.076418184
00000000: 7b60 fc3b cdf2 dbbc 4352 9fbc b5ac 5d3c
00000010: 3dd9 853d 1f69 833c 03d5 953d 5133 85bc
00000020: 4b0a 12bc c357 5fbd 196e b3bd 05b1 4ebd
00000030: 67f7 11bd b485 f33c d767 26bd 71f4 28bd
00000040: d885 50bd c0cd 133d 5754 f13d 79f0 83bc
00000050: 8783 c6bd 1267 c83d e9e0 843d 20c3 7dbd
00000060: 8c24 0fbd 1cb6 49bd 810b 71bd a9e6 c93d
00000070: 96d3 543d dcf1 6fbd 7e7f 983a ef6b 813d
00000080: b166 d8bc 8d26 1f3d b471 633c 7ac6 2a3d
00000090: 27f3 093d 0562 073d 58b2 13bd 0e0d dcbd
000000a0: 4113 8bbc 9134 883a f7f6 6abd b2c4 69bd
000000b0: 7661 613b 3c18 b43c 3999 9b3d 40a2 bc3d
000000c0: 9ac6 25bd 10ca 893d c275 3b3d 81be bf3d
000000d0: d4b8 d23d 76e4 953d 3c75 883d 3522 df3c
000000e0: 163a 88bc 44c9 ddbc 650d 583d bcbb f93b
000000f0: 4e59 3e3d 3735 1b3d 1a4f ac3d 904d 5f3d
00000100: 8fa8 a1bd cbd1 68bd 87e5 7a3d e188 573d
00000110: 09d1 6bbd 9c8e 063d ba1e adbd d8e0 86bd
00000120: 5218 91bd ee2b 40be 36c0 d7bd 070e 38be
00000130: 572a 61be 3fd5 32be 8397 1dbe 81c8 debd
00000140: 612e 4ebe bf21 f3bd 342e 29bd 8f48 a73d
00000150: 6a86 68bd 2971 8a3c aca6 ac3d 168c c4bd
00000160: cb83 bdbd 73c2 c23d fd89 d03d 6192 babb
00000170: dfd6 51bc ee89 06bd d066 173d 6823 cdbc
00000180: 7644 dc3d 472c 623d cb52 f43c 2908 9b3c
00000190: 9635 92ba 6cd4 dc3c 0fec bcbd 3816 c8bd
000001a0: 9a77 0ebe 0814 57bd d06b 2b3d 282e af3c
000001b0: 5598 8e3d 377d 85bc 5a70 323d 56d9 413d
000001c0: 571e 39bc 51f7 2b3c c0bf 32bd 4fe7 68bb
000001d0: 3bbf 88bd ceac 7d3d f063 a3bd 3b35 0ebe
000001e0: 46dd 0fbd 6233 94bd eb48 e8bc 5c55 1cbe
000001f0: e579 83bd ec32 313d 597a ce3c 913f 2cbd
00000200: 1a10 01bc 51a4 05bd 0067 49bd d4e3 1dbd
00000210: 1b90 06bd 8b40 203d e6da 413d 8973 44bd
00000220: 3427 3dbb e83e 403c eb3c e33b b73d 8fbd
00000230: 02d4 50bd b478 6d3d 0447 753d 8847 babb
00000240: 4d59 cc3c 6403 b1bc 6f81 133d cb01 af3d
00000250: cf8b 853c 9046 43bd a51a d93c 0554 593d
00000260: 6742 9d3d 1038 d1bc 9cdb 143c 9ae4 66bd
00000270: c657 8fbd c9bd 183c 1465 06be 48bb e93c
00000280: bad0 abbc de8f 07bd 888d d33c f236 c43d
00000290: 276e a63d 4ea5 f03d 3540 60bd 1d00 173d
000002a0: 2cef ed3d 2f4b 103b b531 b13d 761a b03d
000002b0: eca0 4e3c a45e 92bc 55d1 7a3c 95d1 7ebc
000002c0: e618 8e3d 04cc 803d a785 92bc 4d7b b23d
000002d0: 1269 843d 3e88 6f3d c679 1fbd f303 a53d
000002e0: a75f 683d 4a7b 193d f9dc b83d dcf2 babb
000002f0: 5a45 7d3d 05fb 753c f326 8dbd cd39 b73b
00000300: 7e58 7ebd 6703 1abe d67e cfbd 4726 ce3c
00000310: 99a6 6abd 487b aebd 7481 a3bb 7f06 48bc
00000320: cf94 9b3d 3a89 093e c659 4f3d 5877 9b3d
00000330: 6f5d 6d3d c142 37bd 6e44 a83d 98ab 48bd
00000340: 0aee 893d 69f4 353d 9569 2cbd b179 8ebd
00000350: 9352 8cbd 0319 293c d469 cfbd 27c0 30bc
00000360: 294f 003c 78f2 4bbd b55c bd3d 7fb5 e2bd
00000370: 0033 b93b acdb ccbc 9957 34bd 5736 c4bd
00000380: 3045 52bd f8f1 013d fd17 aabd 0107 6cbd
00000390: 04fb 393d 0919 463b 9175 a2bd 3a95 b43d
000003a0: e609 8dbc 7021 8ebc 8f43 223d 8cec eabc
000003b0: 443f c33d 8442 ea3d a5ca f23d a06e 84ba
000003c0: 5ae5 ae3c 283e 073e 0a84 8b3d d658 ba3c
000003d0: d3a4 443c 73f9 a53d d3e6 81bd 033d 6cbd
000003e0: 8a11 bdbc 6eed 003d 07a1 f8bc 5041 1a3d
000003f0: a3dd b03d 78cd 863d 9251 8d3d 2381 9c3d

conv2.0.bias f4 [32]
-0.109294556 -0.07672089 -0.11532825 0.04860665 -0.1408267 -0.11820615 0.082948126 0.040195864
-0.15403341 0.0033479708 -0.02417715 -0.21160023 -0.034097176 -0.096170805 -0.2412747 -0.013130135
-0.17808448 -0.07520634 -0.072346196 0.124379255 0.014576741 -0.12166022 -0.091423415 -0.100075416
0.03134911 -0.19178104 -0.1299111 -0.03317503 -0.09428409 -0.21738428 -0.11754804 -0.15297738
00000000: d3d5 dfbd d81f 9dbd 3831 ecbd c417 473d
00000010: e034 10be 1116 f2bd b5e0 a93d 6ba4 243d
00000020: efba 1dbe a169 5b3b 290f c6bc bbad 58be
00000030: 7ba9 0bbd 33f5 c4bd b710 77be c71f 57bc
00000040: c75b 36be c805 9abd 3e2a 94bd 8dba fe3d
00000050: 48d3 6e3c fe28 f9bd 333c bbbd 57f4 ccbd
00000060: ed67 003d 4062 44be 6a07 05be 8ae2 07bd
00000070: 0418 c1bd fc99 5ebe 07bd f0bd 1aa6 1cbe

conv2.3.weight f4 [32]
1.0188801 0.921129 0.9903373 0.8678756 0.96687365 0.96628785 0.9524614 0.98657763
0.9595627 1.0073137 0.9998305 1.0622959 0.99911183 0.9792873 1.0467665 1.0040007
0.7808488 1.0047171 0.98938894 0.90612185 0.91646516 0.9049099 0.99772704 1.0174211
0.9689572 1.0453972 1.0013801 0.8637939 1.0222484 1.029171 0.9144445 0.93699795
00000000: aa6a 823f 1ccf 6b3f bf86 7d3f 182d 5e3f
00000010: 0885 773f a45e 773f 83d4 733f 5a90 7c3f
00000020: e7a5 753f a8ef 803f e4f4 7f3f 50f9 873f
00000030: cbc5 7f3f 93b2 7a3f 72fc 853f 1883 803f
00000040: b5e5 473f 929a 803f 9848 7d3f 9af7 673f
00000050: 769d 6a3f 2da8 673f 0a6b 7f3f db3a 823f
00000060: 940d 783f 93cf 853f 392d 803f 9921 5d3f
00000070: 09d9 823f e0bb 833f 0919 6a3f 19df 6f3f

conv2.3.bias f4 [32]
0.09311692 0.36830845 0.08066811 -0.18839751 0.16122483 -0.16300651 0.52256435 0.06477792
-0.11833433 0.18547694 -0.10333656 0.5926404 -0.18053256 0.23380785 0.33390704 -0.15220608
0.19983956 -0.13985154 0.0007647262 -0.03047744 0.28850526 0.22233345 0.33279994 0.23670493
0.36508837 0.32928362 -0.06829509 -0.14758137 0.4149117 0.22015381 0.2968334 0.47207376
00000000: 15b4 be3d ed92 bc3e 5235 a53d 47eb 40be
00000010: 1f18 253e 2eeb 26be c7c6 053f 49aa 843d
00000020: 4559 f2bd abed 3d3e 1ea2 d3bd 48b7 173f
00000030: 87dd 38be 536b 6f3e ddf5 aa3e e9db 1bbe
00000040: bea2 4c3e 3e35 0fbe e877 483a d3ab f9bc
00000050: f6b6 933e 61ab 633e c164 aa3e c762 723e
00000060: ddec ba3e dd97 a83e 4cde 8bbd 921f 17be
00000070: 4e6f d43e 0070 613e 8cfa 973e a7b3 f13e

conv2.3.running_mean f4 [32]
0.06710392 0.7048968 0.22115484 0.8785503 0.3000763 0.07853021 0.5101652 0.5709468
0.27121267 0.51306456 0.108705945 0.0881716 0.5052192 0.57035124 0.08290869 0.29423478
0.5852521 0.41767672 0.31374663 0.73043764 0.65795356 0.5441172 0.3940346 0.22764944
0.65276164 0.15102823 0.24732594 0.1491241 0.21474408 0.3609234 0.34989792 0.18701549
00000000: c86d 893d 1e74 343f 6a76 623e ace8 603f
00000010: 9aa3 993e 72d4 a03d 309a 023f 9229 123f
00000020: 63dc 8a3e 3358 033f 39a1 de3d 5093 b43d
00000030: 0c56 013f 8a02 123f 08cc a93d f1a5 963e
00000040: 15d3 153f b9d9 d53e 66a3 a03e f6fd 3a3f
00000050: a56f 283f 444b 0b3f e7be c93e ef1c 693e
00000060: 631b 273f 25a7 1a3e 0343 7d3e fdb3 183e
00000070: dfe5 5b3e f4ca b83e d225 b33e fd80 3f3e

conv2.3.running_var f4 [32]
0.03990813 1.5311222 0.14383346 1.1864144 0.3458017 0.03699049 0.2507757 0.7169179
0.4093561 0.33448765 0.09550083 0.08541925 0.26168904 1.3352152 0.109236546 0.17899717
0.89661515 0.535261 0.38459086 0.49107525 0.56009495 1.2374121 0.6019042 0.14660735
0.6195652 0.14577027 0.17940845 0.04121999 0.35491067 0.6478818 0.22018695 0.13624236
00000000: b576 233d d0fb c33f 1449 133e 6ddc 973f
00000010: ec0c b13e 5783 173d ac65 803e ee87 373f
00000020: 1f97 d13e f741 ab3e f095 c33d 4af0 ae3d
00000030: 1bfc 853e 55e8 aa3f 69b7 df3d 094b 373e
00000040: 9288 653f dd06 093f 18e9 c43e 376e fb3e
00000050: 6262 0f3f 8563 9e3f 6516 1a3f 3d20 163e
00000060: d39b 1e3f cd44 153e d9b6 373e 4bd6 283d
00000070: dab6 b53e 95db 253f b078 613e 1e83 0b3e

conv3.0.weight f4 [64, 32, 3, 3]
-0.043765206 -0.053999245 -0.05934144 -0.051302005 -0.069083445 -0.06270202 -0.07325266 -0.04882153
-0.11916932 -0.062462017 0.025880953 -0.0139581915 -0.019774783 -0.05054998 -0.022026 -0.004336584
-0.011771193 0.053166885 -0.018005144 -0.043786816 -0.09910486 0.014521708 -0.030244539 -0.028185712
-0.08101562 -0.025899192 -0.04978454 0.027031079 -0.035468545 0.06658391 -0.007950762 -0.03088478
0.009014152 -0.018081136 0.0032954598 -0.022520177 -0.077459514 -0.0811882 -0.020700112 -0.020443713
-0.0735177 -0.03897774 -0.038321596 -0.02299311 -0.024288151 0.009252441 0.01237483 -0.0008158084
0.034000374 0.032233573 -0.00076891494 0.032294825 0.042451665 0.0087260725 -0.029255468 -0.120519936
-0.055715397 -0.021829626 -0.11503452 -0.08838478 -0.092081 -0.06568037 -0.09721381 -0.034837026
-0.029112725 -0.03479024 -0.021101391 0.03515224 -0.0300622 -7.934096e-05 0.061361186 0.03912565
0.043369424 0.12639482 0.10873868 0.09919508 0.09426863 0.07544964 -0.009722799 0.10132601
0.07956318 0.023909459 0.005052524 0.012814091 -0.0043141115 0.046823602 0.012135346 0.021967433
0.024289826 0.04379104 -0.034842763 -0.03678752 0.0024056297 -0.009642768 -0.033374723 -0.000732438
-0.051564977 -0.024461852 -0.038148087 -0.063769646 -0.11473058 -0.08811399 -0.065241665 -0.13902535
-0.119528174 -0.07911403 -0.13635573 -0.13105527 -0.02144781 0.017668812 0.021568751 -0.047007408
0.015085275 -0.019692974 -0.047538605 -0.0064403173 -0.027353143 -0.116692536 -0.078385204 -0.0946088
-0.11029317 -0.06485389 -0.043919202 -0.1084196 -0.0010995533 -0.040371418 0.036677256 0.061312273
0.039062787 0.021506825 0.025726402 0.043001015 0.052964713 0.073160715 0.020399963 -0.031895604
-0.04911877 -0.0281098 -0.02406427 -0.040330768 -0.07023525 -0.062111795 -0.03450231 -0.09016468
0.048153676 -0.018463213 -0.037449755 -0.035668515 0.013115156 0.0066867233 -0.036493424 0.03986688
0.038895134 0.0667852 0.08451664 0.10242571 0.06650874 0.101181775 0.02040596 0.08518356
0.108792625 0.09904124 0.0018655438 0.049447432 -0.022689193 0.04225077 0.039441086 -0.03670928
0.005980849 0.019429918 0.017070232 -0.056863695 -0.013438205 0.03762713 -0.029195357 0.007297013
0.00076547306 0.020428153 0.05664161 0.0064124344 0.01284978 -0.012500651 -0.03541203 -0.020243617
-0.0070013325 -0.040455755 -0.016420979 0.024421813 0.013650188 -0.06021775 -0.0748486 -0.017672312
-0.026843514 -0.033154108 -0.09505306 -0.0247743 -0.025392748 -0.096950285 0.011285326 -0.0008308104
0.0538254 -0.012460264 0.083735414 0.056947827 -0.0061627324 -0.0064728544 0.014027559 -0.050321933
-0.080208555 -0.116969734 -0.07404206 -0.06432441 -0.053036164 -0.0740214 -0.07937636 -0.118239865
-0.0517363 -0.053100247 -0.09925478 0.01565303 -0.017680587 -0.07621854 -0.02951409 -0.060178947
-0.06790496 0.058116466 0.08889981 0.0061448948 0.039177235 0.058375508 0.038381122 0.012987985
0.090769835 -0.0048187813 -0.03422424 -0.016185287 -0.0446953 -0.023532398 0.0039203567 -0.012353506
-0.050128426 -0.04402591 -0.025314992 -0.003883055 -0.030065162 -0.034904856 0.020332891 -0.036283895
-0.037731692 -0.026244508 -0.00018305345 0.039744366 -0.05243019 -0.11300506 -0.14989589 -0.0765373
00000000: 2543 33bd 502e 5dbd 0310 73bd 0d22 52bd
00000010: 9f7b 8dbd eb69 80bd 7e05 96bd 16f9 47bd
00000020: 0b0f f4bd 2cd8 7fbd 4b04 d43c e6b0 64bc
00000030: bafe a1bc 7f0d 4fbd df6f b4bc e719 8ebb
00000040: f6db 40bc 85c5 593d 867f 93bc ce59 33bd
00000050: 7df7 cabd 75ec 6d3c 65c3 f7bc b9e5 e6bc
00000060: 84eb a5bd 8b2a d4bc e0ea 4bbd 4870 dd3c
00000070: 7747 11bd 255d 883d ea43 02bc 1402 fdbc
00000080: 18b0 133c e41e 94bc a4f8 573b 3c7c b8bc
00000090: 18a3 9ebd 0046 a6bd 4893 a9bc 9379 a7bc
000000a0: 7390 96bd 1fa7 1fbd 1bf7 1cbd 0c5c bcbc
000000b0: f2f7 c6bc 8d97 173c cdbf 4a3c fadb 55ba
000000c0: fa43 0b3d 5a07 043d 0291 49ba 9447 043d
000000d0: cce1 2d3d cdf7 0e3c 2aa9 efbc 28d3 f6bd
000000e0: d435 64bd 0bd4 b2bc 3897 ebbd 1403 b5bd
000000f0: f794 bcbd 6e83 86bd 0918 c7bd 45b1 0ebd
00000100: cf7d eebc 3680 0ebd d3dc acbc ccfb 0f3d
00000110: 0145 f6bc db63 a6b8 de55 7b3d 3842 203d
00000120: 23a4 313d a56d 013e 63b2 de3d ca26 cb3d
00000130: e90f c13d 5785 9a3d 604c 1fbc 0384 cf3d
00000140: 05f2 a23d c5dd c33c a58f a53b 31f2 513c
00000150: 645d 8dbb 1bca 3f3d 55d3 463c 0cf5 b33c
00000160: 75fb c63c 3c5e 333d 49b7 0ebd 83ae 16bd
00000170: c5a7 1d3b b3fc 1dbc efb3 08bd 1501 40ba
00000180: cc35 53bd 3964 c8bc 2b41 1cbd a999 82bd
00000190: def7 eabd 1c75 b4bd 6c9d 85bd a95c 0ebe
000001a0: 30cb f4bd 8906 a2bd d6a0 0bbe 5a33 06be
000001b0: 51b3 afbc 2fbe 903c f3b0 b03c d78a 40bd
000001c0: 3b28 773c 2953 a1bc d7b7 42bd 4c09 d3bb
000001d0: b313 e0bc 7ffc eebd 6c88 a0bd 42c2 c1bd
000001e0: 63e1 e1bd 1ed2 84bd 9fe4 33bd 180b debd
000001f0: e31e 90ba 805c 25bd e43a 163d 9422 7b3d
00000200: 4d00 203d 152f b03c 2dc0 d23c d521 303d
00000210: 87f1 583d 49d5 953d d31d a73c f7a4 02bd
00000220: c330 49bd 8646 e6bc 6f22 c5bc e031 25bd
00000230: 80d7 8fbd f068 7ebd 4b52 0dbd 42a8 b8bd
00000240: ca3c 453d 2a40 97bc ea64 19bd 2619 12bd
00000250: f4e0 563c 4d1c db3b 217a 15bd 744b 233d
00000260: 8150 1f3d aec6 883d 0f17 ad3d 92c4 d13d
00000270: bc35 883d 6438 cf3d 662a a73c b874 ae3d
00000280: abce de3d 22d6 ca3d 4385 f43a 6489 4a3d
00000290: b0de b9bc 250f 2d3d fa8c 213d 785c 16bd
000002a0: fffa c33b 7e2b 9f3c dfd6 8b3c e8e9 68bd
000002b0: eb2b 5cbc e81e 1a3d 1a2b efbc c81b ef3b
000002c0: 07aa 483a f158 a73c 0801 683d 661f d23b
000002d0: e287 523c 88cf 4cbc 340c 11bd f1d5 a5bc
000002e0: 6f6b e5bb efb4 25bd 4a85 86bc 4110 c83c
000002f0: 0aa5 5f3c e3a6 76bd 394a 99bd 86c5 90bc
00000300: eee6 dbbc 9acc 07bd 2eab c2bd 79f3 cabc
00000310: 7404 d0bc df8d c6bd 17e6 383c beca 59ba
00000320: 0678 5c3d 2326 4cbc 797d ab3d 2042 693d
00000330: bff0 c9bb 3d1a d4bb d9d3 653c 5f1e 4ebd
00000340: 6244 a4bd d48d efbd 5da3 97bd 84bc 83bd
00000350: 733c 59bd 8898 97bd 1390 a2bd be27 f2bd
00000360: 71e9 53bd a57f 59bd 1746 cbbd c83a 803c
00000370: e1d6 90bc 7718 9cbd 88c7 f1bc 337e 76bd
00000380: c111 8bbd 880b 6e3d 1b11 b63d 1d5b c93b
00000390: 4f78 203d 281b 6f3d 8635 1d3d 8fcb 543c
000003a0: 89e5 b93d dee6 9dbb b72e 0cbd 0297 84bc
000003b0: 6b12 37bd 04c7 c0bc 5676 803b 5c66 4abc
000003c0: 7753 4dbd 8354 34bd 6361 cfbc da7a 7ebb
000003d0: 374b f6bc 65f8 0ebd 2a91 a63c 6c9e 14bd
000003e0: 8c8c 1abd b9fe d6bc 09f2 3fb9 fdca 223d
000003f0: 0ac1 56bd 326f e7bd 4f7e 19be 97bf 9cbd

conv3.0.bias f4 [64]
-0.21531853 -0.0681925 -0.08922889 -0.16085225 -0.046151407 -0.011621182 -0.10632436 -0.15756978
-0.061203457 -0.08537375 0.021541247 -0.15005253 -0.098286696 -0.03451739 -0.18535878 -0.037188143
-0.16505812 -0.1511665 -0.062325507 -0.14235619 -0.15054858 -0.11536578 -0.08475938 -0.07809527
-0.09788344 -0.098154165 -0.26015672 -0.111365795 -0.23731205 -0.07353112 -0.21749182 -0.1225317
-0.121650316 -0.19943388 -0.15777549 -0.1821204 -0.06763862 -0.07317229 -0.15864253 -0.11076205
-0.12126249 -0.04495538 -0.1668944 -0.05059632 -0.09278874 -0.070360534 -0.06391803 -0.06729846
-0.016539779 -0.1130303 -0.14130002 -0.1198275 -0.17542632 -0.049377352 -0.058043618 -0.1569079
-0.046981055 -0.07666673 -0.08536334 -0.02627006 0.008110511 -0.057839848 -0.18064883 -0.09615524
00000000: 767c 5cbe 82a8 8bbd a3bd b6bd 74b6 24be
00000010: 4209 3dbd c566 3ebc 96c0 d9bd f959 21be
00000020: 7ab0 7abd 6fd8 aebd 4577 b03c 5fa7 19be
00000030: 894a c9bd 1b62 0dbd b1ce 3dbe 9852 18bd
00000040: ff04 29be 64cb 1abe 0849 7fbd d2c5 11be
00000050: 6829 1abe e544 ecbd 5396 adbd 6af0 9fbd
00000060: 1d77 c8bd 0d05 c9bd 4333 85be c013 e4bd
00000070: ee01 73be 7c97 96bd 2db6 5ebe e6f1 fabd
00000080: cd23 f9bd 6538 4cbe e68f 21be c57d 3abe
00000090: 1e86 8abd 5bdb 95bd 3073 22be 37d7 e2bd
000000a0: 7858 f8bd 2223 38bd 5ee6 2abe 163e 4fbd
000000b0: 0608 bebd 2f19 90bd 75e7 82bd c6d3 89bd
000000c0: 6e7e 87bc 6e7c e7bd f4b0 10be 1f68 f5bd
000000d0: f5a2 33be e83f 4abd 25bf 6dbd 77ac 20be
000000e0: 356f 40bd 7203 9dbd fad2 aebd 4f34 d7bc
000000f0: f3e1 043c 7ae9 6cbd 02fc 38be 0aed c4bd

conv3.4.weight f4 [64]
1.1566186 1.1302651 1.2420367 1.2986417 1.2320108 1.2367221 1.2497132 1.1367056
1.0331407 1.2644076 1.2051902 1.0293428 1.2314595 1.1330436 1.1094377 1.2146459
1.0743786 1.1494954 1.2637603 1.2498888 1.154482 1.2781285 1.2592106 1.2742621
1.0787534 1.1179228 1.0808667 1.3027439 1.1100907 1.2920727 1.1261258 1.0281643
1.1804894 1.154633 1.0626833 1.1177835 0.9656081 1.2819644 1.2658111 1.2481711
1.1318047 1.0002277 1.1457297 1.2509772 1.112158 1.2588048 1.2374166 0.97718453
1.2253772 1.2873013 1.1330081 1.2484596 1.0734214 1.1797366 1.303078 1.1372113
1.0742424 1.2753028 1.2356647 0.939669 1.2303708 1.2419311 1.0723152 1.2331687
00000000: 140c 943f 87ac 903f 0ffb 9e3f e439 a63f
00000010: 88b2 9d3f e94c 9e3f 9af6 9f3f 927f 913f
00000020: f43d 843f 1cd8 a13f ac43 9a3f 81c1 833f
00000030: 77a0 9d3f 9307 913f 0e02 8e3f 8479 9b3f
00000040: 3d85 893f aa22 933f e6c2 a13f 5bfc 9f3f
00000050: 11c6 933f b799 a33f d02d a13f 051b a33f
00000060: 9714 8a3f 1818 8f3f d759 8a3f 50c0 a63f
00000070: 7417 8e3f a362 a53f e424 903f e39a 833f
00000080: 471a 973f 04cb 933f 0206 883f 8813 8f3f
00000090: 1832 773f 6917 a43f 1906 a23f 12c4 9f3f
000000a0: fade 903f 7607 803f 45a7 923f 0520 a03f
000000b0: 315b 8e3f 8420 a13f ab63 9e3f c428 7a3f
000000c0: 29d9 9c3f 4ac6 a43f 6906 913f 86cd 9f3f
000000d0: df65 893f 9c01 973f 43cb a63f 2490 913f
000000e0: c680 893f 1f3d a33f 432a 9e3f 268e 703f
000000f0: ca7c 9d3f 99f7 9e3f a041 893f 79d8 9d3f

conv3.4.bias f4 [64]
-0.013607268 -0.0060265604 0.013478379 0.0025286102 0.010686382 0.012917889 0.009453417 -0.011525553
-0.023094123 0.018656278 0.013506313 -0.020082954 -0.012782703 -0.01530659 0.0012200895 0.0031169392
0.0023460307 -0.0046441816 0.018483084 -0.007981198 -0.014075575 0.0073513202 0.02825969 -0.0041008457
-0.0481624 -0.018643199 -0.024559008 -0.008462085 -0.033410717 0.0050806883 -0.0155869275 -0.02050211
0.03310372 -0.009592202 -0.020224903 0.0051632673 0.00086540135 0.012672856 0.0016555368 1.814879e-05
-0.018035952 0.0048897443 0.008223167 0.013260953 0.007862638 -0.00011592432 0.010612101 0.0065013748
-0.0070079784 0.015240561 -0.003902512 0.023038797 -0.015019921 0.0063864393 0.007841836 -0.018175293
0.014203538 0.022110386 0.013594072 -0.009338141 0.022796467 0.021772088 0.01031151 0.024941612
00000000: 05f1 5ebc 747a c5bb 6bd4 5c3c 0ab7 253b
00000010: ef15 2f3c 8ea5 533c 81e2 1a3c acd5 3cbc
00000020: e32f bdbc 0dd5 983c 9549 5d3c 0285 a4bc
00000030: 8b6e 51bc 7ec8 7abc 69eb 9f3a 9045 4c3b
00000040: ddbf 193b 382e 98bb d669 973c 92c3 02bc
00000050: 3e9d 66bc 58e3 f03b de80 e73c 6360 86bb
00000060: f045 45bd 9fb9 98bc f92f c9bc 8fa4 0abc
00000070: add9 08bd e77b a63b 5060 7fbc 0af4 a7bc
00000080: c497 073d 9c28 1dbc b2ae a5bc a030 a93b
00000090: 1adc 623a d0a1 4f3c 99fe d83a 3b3e 9837
000000a0: 22c0 93bc 263a a03b 76ba 063c 7844 593c
000000b0: 4bd2 003c 651c f3b8 61de 2d3c 7c09 d53b
000000c0: 2fa3 e5bb 8cb3 793c 49c1 7fbb dcbb bc3c
000000d0: 1d16 76bc 5645 d13b 0b7b 003c 5ae4 94bc
000000e0: f5b5 683c d720 b53c acb9 5e3c 01ff 18bc
000000f0: a8bf ba3c 615b b23c 9cf1 283c 5a52 cc3c

conv3.4.running_mean f4 [64]
0.046771187 0.036727563 0.07410156 0.047473274 0.09107768 0.16927329 0.109580986 0.0379366
0.06362922 0.12697935 0.10830106 0.021495974 0.08275926 0.07581358 0.02715506 0.09798427
0.04647109 0.020583656 0.057697106 0.05046006 0.0325965 0.061649043 0.14738867 0.11318015
0.06469749 0.0656093 0.044476263 0.042184122 0.023920728 0.075492024 0.015080188 0.025885124
0.06706179 0.0673543 0.032823525 0.023058502 0.5486466 0.048002478 0.044646867 0.0866924
0.037918422 0.09942647 0.01666357 0.12501433 0.09355037 0.082019046 0.051990192 0.052458946
0.13182844 0.042654976 0.040910542 0.069214426 0.03506852 0.17812228 0.04575369 0.01501851
0.12641855 0.02384286 0.048490547 0.40216398 0.15147759 0.12859057 0.032796208 0.09196324
00000000: 2593 3f3d a46f 163d 8fc2 973d 5673 423d
00000010: ef86 ba3d fa55 2d3e ff6b e03d 6963 1b3d
00000020: 0950 823d e006 023e f2cc dd3d 5318 b03c
00000030: b07d a93d 2644 9b3d 4a74 de3c faab c83d
00000040: 7858 3e3d 0e9f a83c cd53 6c3d 35af 4e3d
00000050: e883 053d b583 7c3d 0eed 163e ffca e73d
00000060: 1e80 843d 2b5e 863d be2c 363d 42c9 2c3d
00000070: 67f5 c33c 909b 9a3d e512 773c 0a0d d43c
00000080: b157 893d 0df1 893d f671 063d 2fe5 bc3c
00000090: 1b74 0c3f 3f9e 443d a2df 363d c98b b13d
000000a0: 5950 1b3d 1ba0 cb3d 0a82 883c c203 003e
000000b0: 5697 bf3d 9af9 a73d abf3 543d 31df 563d
000000c0: 09fe 063e fcb6 2e3d d091 273d 4bc0 8d3d
000000d0: 02a4 0f3d b065 363e 3968 3b3d 3210 763c
000000e0: dd73 013e 1a52 c33c 069e 463d 70e8 cd3e
000000f0: f11c 1b3e 3fad 033e 5155 063d 3957 bc3d

conv3.4.running_var f4 [64]
0.20437577 0.11070171 0.2770444 0.120021865 0.29623133 0.63596135 0.36463574 0.0753005
0.115763456 0.464099 0.34567922 0.03072164 0.30804884 0.12959574 0.08079624 0.35330287
0.07588892 0.03229517 0.16166541 0.18962 0.08633869 0.21889547 0.5238606 0.43135774
0.10708184 0.14465897 0.23845175 0.16801515 0.101336 0.2837302 0.025583792 0.038899027
0.25794888 0.23564826 0.102949575 0.07154894 3.917055 0.16814718 0.14760153 0.33715123
0.080627084 0.23058163 0.069560364 0.4977657 0.40751958 0.25904486 0.18321449 0.09135149
0.50464857 0.13756543 0.1074323 0.26642525 0.13417858 0.6830581 0.16661626 0.05482853
0.25980997 0.06109057 0.19156368 1.2103562 0.61851585 0.48711187 0.10033665 0.258671
00000000: e247 513e 94b7 e23d c3d8 8d3e 06ce f53d
00000010: a2ab 973e 5dce 223f 89b1 ba3e 2637 9a3d
00000020: 6415 ed3d 629e ed3e defc b03e f3ab fb3c
00000030: 94b8 9d3e bfb4 043e 8078 a53d 1de4 b43e
00000040: a66b 9b3d f147 043d 9e8b 253e bf2b 423e
00000050: 57d2 b03d 2226 603e ba1b 063f ecda dc3e
00000060: b94d db3d 7b21 143e b22c 743e 2a0c 2c3e
00000070: 4089 cf3d 1645 913e 1a95 d13c 9654 1f3d
00000080: e011 843e c74d 713e 3ad7 d23d 4088 923d
00000090: 07b1 7a40 c62e 2c3e db24 173e 169f ac3e
000000a0: d01f a53d 971d 6c3e aa75 8e3d 25db fe3e
000000b0: 68a6 d03e 87a1 843e 949c 3b3e 7d16 bb3d
000000c0: a630 013f f4dd 0c3e 7705 dc3d e468 883e
000000d0: 1c66 093e e5dc 2e3f 749d 2a3e e193 603d
000000e0: d005 853e 1b3a 7a3d 4529 443e f4ec 9a3f
000000f0: 0e57 1e3f ba66 f93e 4d7d cd3d 8670 843e

fc.0.weight f4 [32, 64]
0.17219578 0.20657691 -0.07533066 -0.17980124 -0.31186214 -0.079591066 -0.1754163 0.060047
0.10908818 -0.1697488 -0.1970393 -0.046919353 -0.2110312 0.13682027 0.15245707 -0.2591067
0.053188663 0.103938 -0.2885756 -0.20571291 0.026122719 -0.13615687 -0.18940768 -0.3051198
0.154937 0.03168999 0.008831556 -0.23021597 0.17761718 -0.17022938 0.068964414 0.15603273
-0.06292231 0.09489586 0.09769409 0.17000952 0.111893274 -0.26770416 -0.14911638 -0.25911012
0.14495248 0.06927121 0.09556661 -0.1908168 0.15530817 -0.3041069 -0.21212526 0.021811936
-0.09129325 -0.23623553 0.09112836 -0.23532157 0.10413228 -0.26593128 -0.16726567 0.14035122
0.10078994 -0.14597355 -0.29013038 0.006788049 -0.13245007 -0.119707674 0.053685226 -0.21550344
0.03821088 0.063040644 -0.1503906 -0.2535795 -0.13608481 -0.10860301 -0.21993631 0.14120072
-0.03641402 -0.24819706 -0.03835518 -0.010292822 -0.15682045 0.12071187 0.19547774 -0.17202772
0.14323439 0.10825393 -0.19289178 -0.06481429 0.029993301 -0.26547793 -0.24713528 -0.24774708
0.034421246 0.16168444 0.076583415 -0.2516346 0.14765032 -0.26487726 0.07530968 -0.04343055
-0.114717446 0.23457946 0.1567916 0.1771663 0.059378874 -0.14872643 -0.21718203 -0.25996247
0.014967869 0.058498934 0.15912932 -0.07572838 0.039203662 -0.20198622 -0.06617993 0.1272165
-0.28449723 -0.17855853 0.012650889 -0.12116749 0.119695514 -0.092896745 -0.14306147 0.18514407
0.17074116 -0.17173712 -0.17757604 -0.013032562 -0.2144874 -0.09907123 0.102651864 -0.17562473
0.07911581 0.11357487 -0.18451844 -0.19477962 -0.21321553 -0.1268499 -0.24950533 0.09523655
0.06841063 -0.10391568 -0.12810461 0.10727252 -0.20295301 0.10462673 0.14281951 -0.18370791
0.053615052 0.14227583 -0.058250036 -0.24674234 0.09662543 -0.18487293 -0.25263414 -0.23232132
0.02184099 0.036503494 0.1524291 -0.20411517 0.11516515 -0.12730365 0.17960893 -0.05352717
-0.1656486 0.092115425 -0.012209178 0.14820974 -0.06139646 -0.20511523 -0.13076286 -0.2297554
0.06088348 -0.009687013 0.16428527 -0.1740107 0.07853847 -0.24296966 -0.048305187 -0.08018568
-0.05883131 -0.107497916 0.14041492 -0.20115487 0.14976871 -0.2078231 -0.17296961 0.21201369
0.0969071 -0.26639894 -0.2683327 0.078578494 -0.17723335 -0.18591098 0.04645517 -0.20130788
-0.19243023 -0.12781376 0.088043004 0.14779349 0.23482321 0.21442467 0.18028085 -0.14422487
-0.022485372 0.24369335 0.113825835 -0.12265059 0.19106926 -0.12076472 -0.18643883 0.1413048
-0.16481328 -0.020098982 0.116375454 0.20216727 -0.14528677 0.21642452 0.14217713 0.1716612
-0.016200101 -0.019781921 -0.104240425 0.05081355 -0.015630264 0.28426066 -0.05286399 -0.101055875
0.16576636 -0.11726853 -0.16811335 -0.12808758 -0.08805808 0.15647678 0.11388063 0.15020218
-0.016346857 -0.14729325 -0.09164267 0.21220727 -0.087481186 0.22789955 0.09104275 -0.05813663
0.046668872 0.117219344 -0.10662147 0.12933287 -0.091554545 0.20953423 0.22979593 -0.13764435
-0.1535243 0.1741277 0.081760906 -0.037884817 0.053226735 0.24553868 -0.06486963 0.14528258
00000000: 1754 303e e688 533e f646 9abd d11d 38be
00000010: 65ac 9fbe a400 a3bd 55a0 33be d8f3 753d
00000020: a069 df3d a1d2 2dbe acc4 49be 822e 40bd
00000030: 9018 58be 9d1a 0c3e b51d 1c3e a2a9 84be
00000040: 5bdc 593d 72dd d43d 2ec0 93be 68a6 52be
00000050: 50ff d53c b56c 0bbe 16f4 41be aa38 9cbe
00000060: cea7 1e3e 5dcd 013d 3bb2 103c bcbd 6bbe
00000070: 47e1 353e 9c50 2ebe 373d 8d3d 0bc7 1f3e
00000080: 69dd 80bd c358 c23d d713 c83d fa16 2e3e
00000090: 4d28 e53d 8510 89be f7b1 18be 15aa 84be
000000a0: 6c6e 143e 10de 8d3d 6db8 c33d 7b65 43be
000000b0: 1b09 1f3e e6b3 9bbe 5d37 59be f2ae b23c
000000c0: f5f7 babd bae7 71be 81a1 ba3d 23f8 70be
000000d0: 4e43 d53d 2528 88be b147 2bbe 3bb8 0f3e
000000e0: f56a ce3d 177a 15be f88b 94be 486e de3b
000000f0: fea0 07be 4c29 f5bd 0ae5 5b3d efac 5cbe
00000100: 0383 1c3d 741b 813d feff 19be 2cd5 81be
00000110: d159 0bbe 416b debd fc36 61be ec96 103e
00000120: de26 15bd 5f27 7ebe 521a 1dbd 39a3 28bc
00000130: 8a95 20be c937 f73d 512b 483e 0928 30be
00000140: 09ac 123e 3db4 dd3d 6c85 45be 5bbd 84bd
00000150: 83b4 f53c b9ec 87be 0811 7dbe 69b1 7dbe
00000160: 4bfd 0c3d 9b90 253e c4d7 9c3d 40d6 80be
00000170: a531 173e fe9d 87be f63b 9a3d 3be4 31bd
00000180: fbf0 eabd 9935 703e fa8d 203e 156b 353e
00000190: 4337 733d be4b 18be f764 5ebe cd19 85be
000001a0: cb3b 753c 949c 6f3d ccf2 223e 7b17 9bbd
000001b0: 0594 203d 7ad5 4ebe 5889 87bd 0b45 023e
000001c0: 9fa9 91be 0cd8 36be ad45 4f3c a926 f8bd
000001d0: ec22 f53d a640 bebd b57e 12be 6896 3d3e
000001e0: c5d6 2e3e dbdb 2fbe 7ed6 35be 8786 55bc
000001f0: 96a2 5bbe dbe5 cabd 243b d23d f8d6 33be
00000200: 7807 a23d f199 e83d 67f2 3cbe 4f74 47be
00000210: 2c55 5abe f1e4 01be 537e 7fbe 610b c33d
00000220: df1a 8c3d bed1 d4bd db2d 03be b2b1 db3d
00000230: ead2 4fbe 8a46 d63d 473f 123e ed1d 3cbe
00000240: 759b 5b3d c1b0 113e 9797 6ebd 06aa 7cbe
00000250: 8ee3 c53d 544f 3dbe 4359 81be a4e5 6dbe
00000260: e0eb b23c b084 153d 6016 1c3e 9103 51be
00000270: b5db eb3d e35b 02be 67eb 373e 4e3f 5bbd
00000280: c99f 29be 03a7 bc3d 0109 48bc 4bc4 173e
00000290: db7a 7bbd ba09 52be b3e6 05be 0045 6bbe
000002a0: f560 793d 47b6 1ebc 663a 283e dc2f 32be
000002b0: c7d8 a03d 0acd 78be a9db 45bd 6438 a4bd
000002c0: 1af9 70bd de27 dcbd eec8 0f3e 8bfb 4dbe
000002d0: f85c 193e 94cf 54be f21e 31be 1e1a 593e
000002e0: 3b77 c63d 7165 88be e762 89be c3ed a03d
000002f0: a97c 35be 735f 3ebe c747 3e3d a723 4ebe
00000300: 6e0c 45be 9ce1 02be e44f b43d 2d57 173e
00000310: 7f75 703e 2492 5b3e 8b9b 383e afaf 13be
00000320: 3e33 b8bc c08a 793e 851d e93d 3c30 fbbd
00000330: a9a7 433e 7e53 f7bd d2e9 3ebe 35b2 103e
00000340: d0c4 28be 9fa6 a4bc 4156 ee3d f004 4f3e
00000350: 0ec6 14be 649e 5d3e e296 113e f4c7 2f3e
00000360: 13b6 84bc b20d a2bc 017c d5bd de21 503d
00000370: 0a0b 80bc 9d8a 913e e987 58bd 62f6 cebd
00000380: a8be 293e 7c2a f0bd e825 2cbe 6429 03be
00000390: cb57 b4bd 733b 203e 3f3a e93d 9ace 193e
000003a0: d8e9 85bc 0bd4 16be 27af bbbd dd4c 593e
000003b0: 5629 b3bd 805e 693e 9f74 ba3d ad20 6ebd
000003c0: dc27 3f3d b210 f03d 5b5c dabd d66f 043e
000003d0: f380 bbbd 2490 563e a04f 6b3e a4f2 0cbe
000003e0: 7935 1dbe 884e 323e 4372 a73d 1c2d 1bbd
000003f0: 4704 5a3d 7e6e 7b3e 5eda 84bd f5c4 143e

fc.0.bias f4 [32]
-0.028685719 -0.072496414 -0.088543855 0.057400405 0.010721084 -0.08077677 0.050004207 -0.017015973
-0.10731715 -0.060264092 -0.03282531 -0.0015171865 0.07720964 -0.05366815 -0.065843806 0.011651836
0.04048148 -0.054436445 -0.04187163 0.007683172 0.044280395 0.08811169 0.06535599 -0.0526948
-0.04155775 0.10442964 0.077026494 0.035389584 0.09466305 0.08055223 -0.02827307 0.033652708
00000000: 50fe eabc 0079 94bd 7b56 b5bd b01c 6b3d
00000010: 7ca7 2f3c 4b6e a5bd 36d1 4c3d 1565 8bbc
00000020: 18c9 dbbd 7bd7 76bd d573 06bd 55dc c6ba
00000030: 1620 9e3d 22d3 5bbd 1ed9 86bd 58e7 3e3c
00000040: e9cf 253d c0f8 5ebd 9681 2bbd 1ec3 fb3b
00000050: 5c5f 353d e773 b43d 5cd9 853d 81d6 57bd
00000060: 7638 2abd 35df d53d 11c0 9d3d abf4 103d
00000070: b3de c13d 91f8 a43d ed9c e7bc 6cd7 093d

fc.3.weight f4 [1, 32]
-0.19640592 -0.24414223 -0.2661921 0.47228396 0.4207291 -0.22269075 0.27562878 0.45081177
-0.23112345 -0.26029974 0.43665332 -0.2184812 -0.29692623 -0.17061205 -0.18595529 -0.193318
-0.2078192 0.37948442 -0.30250725 -0.22944225 0.33387673 0.4279595 0.41654268 0.45762247
-0.26248187 -0.28784433 0.34748167 -0.2481888 0.40028492 -0.20675288 -0.285735 -0.23787482
00000000: a21e 49be 6c00 7abe 554a 88be 34cf f13e
00000010: ce69 d73e 0b09 64be 371f 8d3e cdd0 e63e
00000020: a0ab 6cbe 0246 85be 0691 df3e 89b9 5fbe
00000030: b706 98be edb4 2ebe 106b 3ebe 27f5 45be
00000040: 8ece 54be c84b c23e 3be2 9abe e9f2 6abe
00000050: e4f1 aa3e 821d db3e 1545 d53e 7e4d ea3e
00000060: 0664 86be 5560 93be 1ee9 b13e 3425 7ebe
00000070: 25f2 cc3e 07b7 53be dc4b 92be 7595 73be
