5 第五讲 机器学习训练模型的数学范式v16/models/model140.pth (torch, 112459 bytes, 21 tensors)

conv1.0.weight f4 [16, 3, 3, 3]
-0.01853022 -0.12360151 0.14053293 -0.056394406 -0.13592896 -0.1774152 0.040602867 -0.16156107
0.0910727 0.072002515 0.18915379 -0.13760038 0.035057124 0.039795797 0.021822067 0.10963727
0.0047949553 -0.06527494 0.15333651 -0.113684066 -0.15161474 0.113732174 -0.041713193 0.15427655
-0.11285431 0.16172081 0.042485528 -0.063842915 0.1282674 -0.0626973 -0.016012337 -0.07769633
0.09448967 0.049237665 0.14530827 -0.07994936 0.01964612 -0.013104749 0.1729207 -0.16798632
-0.062195025 0.18070704 0.05694201 -0.045731537 0.103378706 0.033591572 -0.07101426 -0.14604267
-0.19664574 0.09976856 -0.007423001 0.06677017 -0.16119806 0.17943615 0.084008865 -0.012213624
-0.10030372 -0.010963575 -0.13133559 -0.17535283 -0.059493084 0.11485343 -0.17286935 0.16210295
0.091402605 -0.16263708 0.17671508 0.054346833 -0.044951938 0.030677916 0.044090148 0.12164483
0.18385933 0.027647926 -0.05296032 0.012955096 0.032838356 -0.09447629 -0.08546251 -0.20434609
0.17131965 -0.07473171 -0.008705666 -0.1530032 0.010673451 0.18048073 -0.15525255 0.12470289
0.20158212 -0.18433824 -0.045038335 0.008456065 -0.0042088623 -0.007875801 0.1602168 0.13553362
0.023603642 0.060978323 -0.11046743 -0.14572278 -0.09766122 0.14802526 0.16565593 0.15253869
0.021429833 0.09741437 -0.06736879 -0.045977514 -0.19670089 0.062868334 -0.095991634 0.16201848
0.02563151 0.12485602 -0.042656567 0.055739243 -0.14703396 -0.21041241 -0.116589434 0.20351996
0.06813667 0.10210063 0.20707774 0.07959791 0.08068305 -0.04973749 -0.13311392 0.101554416
0.16407253 -0.17434938 0.057307683 -0.038958136 0.16179532 -0.038474966 -0.035345163 -0.047326364
-0.05799468 0.15388584 -0.10247812 0.04799814 0.0057975315 0.12821941 0.089115106 -0.14162023
-0.011451664 0.007491614 -0.026635436 0.15857567 0.20325373 -0.12820405 -0.055667732 0.20129146
0.05904189 -0.09080067 0.09951365 -0.047856696 -0.10096789 -0.2042424 0.10803589 -0.073600434
-0.15396799 -0.15513037 -0.021590233 0.1285573 0.10273505 0.13038874 -0.082836084 -0.1609734
-0.035811894 -0.095482185 0.06493364 0.13111988 -0.06544032 -0.20642592 0.15746573 0.046688788
-0.1382545 -0.06375122 -0.047231365 -0.13177614 0.18188013 0.062903486 -0.12180449 -0.106752716
-0.087786116 -0.18936838 -0.011248627 -0.060331263 -0.10317463 0.012731387 -0.09695116 0.10674017
0.09204104 -0.07017996 -0.089410074 -0.20338595 -0.026299456 -0.16565955 0.18163173 0.11329623
0.012323333 -0.014348072 -0.0053407853 0.19645756 -0.024219844 0.036349922 0.11944019 0.06209615
-0.020878926 0.12776645 -0.16710076 0.015714973 -0.20904756 0.07539841 0.101338774 -0.0662936
-0.1442652 -0.12887254 -0.017768651 -0.14295636 -0.04231244 -0.060020458 -0.11455263 0.0821318
-0.12106681 0.08965246 -0.21181762 -0.0757827 0.1812525 -0.12841302 -0.060396653 0.09085451
0.06897618 -0.088137545 0.08618239 -0.24803695 -0.2871709 -0.058220264 0.16936456 0.09019372
0.14863068 0.045731325 0.011407385 0.19321531 0.08931449 0.054139156 -0.14196679 -0.12374769
0.13348977 0.20640959 0.055308197 0.07709055 -0.14628899 -0.06545896 -0.051576607 -0.09279662
00000000: b0cc 97bc ca22 fdbd dde7 0f3e d2fd 66bd
00000010: f630 0bbe 55ac 35be 314f 263d 4470 25be
00000020: 5384 ba3d 0e76 933d 88b1 413e 1de7 0cbe
00000030: 0f98 0f3d eb00 233d 31c4 b23c 8189 e03d
00000040: 001f 9d3b deae 85bd 3f04 1d3e 31d3 e8bd
00000050: e540 1bbe 6aec e83d 74db 2abd acfa 1d3e
00000060: 2920 e7bd 249a 253e 4e05 2e3d 13c0 82bd
00000070: 8858 033e 7167 80bd 4e2c 83bc 411f 9fbd
00000080: cd83 c13d 6fad 493d b1cb 143e 7dbc a3bd
00000090: e6f0 a03c 4db5 56bc 2012 313e 9b04 2cbe
000000a0: 36c0 7ebd 440b 393e 063c 693d fe50 3bbd
000000b0: 37b8 d33d 5197 093d ed6f 91bd 368c 15be
000000c0: 805d 49be 7553 cc3d a53c f3bb cdbe 883d
000000d0: 1b11 25be 1cbe 373e d70c ac3d a71b 48bc
000000e0: 096c cdbd 91a0 33bc d67c 06be b18f 33be
000000f0: 05af 73bd 4638 eb3d aa04 31be 51fe 253e
00000100: 4a31 bb3d 568a 26be ccf4 343e c99a 5e3d
00000110: 861f 38bd 4150 fb3c df97 343d ed20 f93d
00000120: 9f45 3c3e e77d e23c ecec 58bd 9c41 543c
00000130: 8381 063d c97c c1bd f806 afbd 1a40 51be
00000140: 6b6e 2f3e f00c 99bd 36a2 0ebc dfac 1cbe
00000150: b3df 2e3c f1cf 383e 86fa 1ebe 3b64 ff3d
00000160: 8b6b 4e3e 2ac3 3cbe 1e7a 38bd 4f8b 0a3c
00000170: 7fea 89bb 8109 01bc df0f 243e 53c9 0a3e
00000180: 6d5c c13c 68c4 793d bf3c e2bd 5a38 15be
00000190: 9b02 c8bd ef93 173e b5a1 293e 1a33 1c3e
000001a0: 9e8d af3c 2f81 c73d a6f8 89bd eb52 3cbd
000001b0: f56b 49be 1dc1 803d 4397 c4bd 2ce8 253e
000001c0: 2cf9 d13c 83b4 ff3d a7b8 2ebd d54e 643d
000001d0: 1290 16be 5a76 57be 71c6 eebd 8967 503e
000001e0: 3d8b 8b3d 231a d13d 300c 543e 3b04 a33d
000001f0: 283d a53d 8ab9 4bbd 044f 08be c3fb cf3d
00000200: a102 283e a588 32be 76bb 6a3d 9192 1fbd
00000210: acad 253e ed97 1dbd 17c6 10bd 4ad9 41bd
00000220: d48b 6dbd 4094 1d3e 0ce0 d1bd b399 443d
00000230: 38f9 bd3b f34b 033e fb81 b63d e504 11be
00000240: c39f 3bbc 377c f53b 8f32 dabc a961 223e
00000250: bf21 503e ec47 03be d903 64bd 591f 4e3e
00000260: e9d5 713d b4f5 b9bd d0cd cb3d 6205 44bd
00000270: 41c8 cebd eb24 51be ec41 dd3d d3bb 96bd
00000280: c9a9 1dbe 7fda 1ebe 00de b0bc 86a4 033e
00000290: c166 d23d a084 053e f7a5 a9bd 36d6 24be
000002a0: 7eaf 12bd 2a8c c3bd eefb 843d 4a44 063e
000002b0: 9305 86bd 5161 53be b23e 213e be3c 3f3d
000002c0: 9692 0dbe 0090 82bd ad75 41bd 53f0 06be
000002d0: c93e 3a3e 8bd3 803d a274 f9bd 2ba1 dabd
000002e0: 35c9 b3bd c9e9 41be 294c 38bc ea1d 77bd
000002f0: 384d d3bd 4f97 503c 548e c6bd 979a da3d
00000300: 0380 bc3d 83ba 8fbd a11c b7bd 6844 50be
00000310: f571 d7bc a8a2 29be abfd 393e db07 e83d
00000320: cee7 493c 2d14 6bbc c101 afbb 2c2c 493e
00000330: b268 c6bc a8e3 143d 0f9d f43d 8858 7e3d
00000340: 480a abbc 35d5 023e 761c 2bbe b0bc 803c
00000350: 9010 56be 7b6a 9a3d b48a cf3d f0c4 87bd
00000360: 42ba 13be 2af7 03be 908f 91bc 2763 12be
00000370: cf4f 2dbd 03d8 75bd 929a eabd b834 a83d
00000380: e0f1 f7bd b59b b73d b8e6 58be f633 9bbd
00000390: 419a 393e b47e 03be 7b62 77bd ee11 ba3d
000003a0: 6243 8d3d 7581 b4bd 6580 b03d 66fd 7dbe
000003b0: 1008 93be 5f78 6ebd e76d 2d3e 7cb7 b83d
000003c0: a432 183e c550 3b3d 0ae6 3a3c 3cda 453e
000003d0: 84ea b63d 05c1 5d3d be5f 11be 6e6f fdbd
000003e0: 8bb1 083e 095d 533e d98a 623d a6e1 9d3d
000003f0: c8cc 15be 590f 86bd fe41 53bd 280c bebd

conv1.0.bias f4 [16]
0.077003844 0.12279306 0.05919887 0.056251287 -0.19577798 -0.002832989 0.1190937 0.031147491
-0.20513918 0.010662298 0.20077197 -0.11029804 0.15921824 -0.17208947 0.016520003 0.23157704
00000000: 31b4 9d3d ee7a fb3d 847a 723d c067 663d
00000010: 067a 48be aba9 39bb 66e7 f33d 0629 ff3c
00000020: 0110 52be ebb0 2e3c 2b97 4d3e f0e3 e1bd
00000030: 1b0a 233e 3938 30be f554 873c 8822 6d3e

conv1.3.weight f4 [16]
0.9534749 0.98176455 1.0292434 0.9002343 1.0136682 1.0143051 1.0036724 0.9082664
0.9403584 1.0443981 0.919131 1.1575822 0.89503 1.0171536 0.9296984 0.95884347
00000000: ee16 743f ec54 7b3f 3fbe 833f c175 663f
00000010: e1bf 813f c0d4 813f 5678 803f 2684 683f
00000020: 54bb 703f d6ae 853f 2b4c 6b3f a72b 943f
00000030: b020 653f 1732 823f b700 6e3f c476 753f

conv1.3.bias f4 [16]
0.0014940597 0.1670564 -0.005713592 0.024073776 0.19233485 -0.023813486 0.08112212 0.062509164
0.23863807 0.038456228 -0.14290647 0.05809716 0.03647477 0.10170289 0.02519759 -0.1381597
00000000: 53d4 c33a d510 2b3e 1539 bbbb 5e36 c53c
00000010: 6df3 443e 8014 c3bc 5b23 a63d ce04 803d
00000020: 8a5d 743e 4784 1d3d 1356 12be 4af7 6d3d
00000030: 9266 153d 9b49 d03d 2d6b ce3c bd79 0dbe

conv1.3.running_mean f4 [16]
0.10760972 0.20766245 0.062071852 0.24264579 0.017222775 0.014751875 0.018244758 0.06578061
1.6322321e-05 0.032505248 0.40509596 0.011986457 0.18858874 0.015355646 0.080216385 0.19786665
00000000: 7c62 dc3d 77a5 543e 0e3f 7e3d 2378 783e
00000010: c716 8d3c d9b1 713c 0876 953c fcb7 863d
00000020: ebeb 8837 3924 053d bd68 cf3e d862 443c
00000030: 681d 413e 3f96 7b3c 7d48 a43d 8e9d 4a3e

conv1.3.running_var f4 [16]
0.0024461884 0.0030117568 0.0023619167 0.013753925 0.0014865221 0.0010150854 0.0016571804 0.0020246136
1.7953089e-06 0.002149099 0.026445827 0.0012501247 0.0014316768 0.0011297913 0.005375757 0.0016646385
00000000: 3b50 203b e560 453b 63ca 1a3b 2558 613c
00000010: 68d7 c23a 9d0c 853a bf35 d93a 61af 043b
00000020: 58f6 f035 e6d7 0c3b eba4 d83c 39db a33a
00000030: 1aa7 bb3a 8115 943a 1e27 b03b 0030 da3a

conv2.0.weight f4 [32, 16, 3, 3]
0.011481514 -0.021798363 -0.013971307 0.017310875 0.07138418 0.021612853 0.07739634 -0.009525968
-0.0029641981 -0.05241912 -0.088029906 -0.049630456 -0.03246608 0.030267855 -0.03878517 -0.0386667
-0.049711894 0.038604297 0.11919524 -0.011821369 -0.092551954 0.09808851 0.06975061 -0.059291277
-0.035072044 -0.043513786 -0.056617554 0.09933436 0.053631946 -0.057759386 0.0024091236 0.0655375
-0.024982808 0.041177426 0.015918592 0.043429222 0.035969116 0.033233922 -0.034481674 -0.10782784
-0.0173904 0.0022867583 -0.05591256 -0.055656962 0.0067738118 0.024724064 0.07819482 0.094884254
-0.037973594 0.06932838 0.048047863 0.09589524 0.105042346 0.07536924 0.06454985 0.026659383
-0.019076163 -0.030818313 0.051003937 0.0043104705 0.043383293 0.036648326 0.080990754 0.061889123
-0.07047853 -0.04719284 0.06656694 0.057870917 -0.0528007 0.038028296 -0.07859584 -0.06061335
-0.059288703 -0.17598912 -0.09371987 -0.16809864 -0.20790249 -0.16278885 -0.14203191 -0.09700319
-0.18957373 -0.1260809 -0.045920588 0.074927054 -0.06554711 0.012581664 0.07767239 -0.10486097
-0.098008476 0.08763904 0.1016716 -0.004643716 -0.011197429 -0.033048447 0.03764062 -0.02420089
0.108326264 0.05640645 0.031151414 0.017058916 -0.005930362 0.036769085 -0.09416137 -0.103198335
-0.13835026 -0.049045537 0.041102026 0.022991085 0.06889853 -0.012820525 0.04757008 0.04630899
-0.008396871 0.009884038 -0.043259513 0.000535703 -0.06599867 0.066598654 -0.07095429 -0.1326526
-0.0329193 -0.06739679 -0.024698766 -0.14874446 -0.058817234 0.04871753 0.021999497 -0.04561469
-0.01184054 -0.03747631 -0.054395434 -0.044799782 -0.03774595 0.0343746 0.041719697 -0.04732967
-0.002968529 0.012272974 0.005681276 -0.071734756 -0.052804504 0.05563854 0.058593396 -0.0069627506
0.024440324 -0.022668935 0.03498864 0.08303376 0.014237598 -0.04945057 0.02281914 0.049837284
0.07382493 -0.02404438 0.0105649065 -0.055124454 -0.06802295 0.012581497 -0.12887779 0.029684696
-0.017545028 -0.032231845 0.026215138 0.097440295 0.08416883 0.11680866 -0.052432902 0.039802685
0.11370335 0.002114635 0.089247346 0.08981168 0.015510354 -0.0140819745 0.01687366 -0.013384907
0.07276965 0.06544959 -0.016557027 0.090622745 0.06553062 0.05810427 -0.03687228 0.079478696
0.057574652 0.04205399 0.09002528 -0.0043404265 0.06408178 0.018255789 -0.065723725 0.009177539
-0.057661694 -0.1435572 -0.09433079 0.029264804 -0.050184216 -0.07907802 -0.011931902 -0.015569934
0.07617409 0.1283233 0.04777037 0.07638787 0.05130145 -0.048801593 0.08139044 -0.046210263
0.07042306 0.046949435 -0.04081122 -0.067131616 -0.06547136 0.0106873885 -0.09906173 -0.008044545
0.011843963 -0.048554663 0.08251958 -0.108856134 0.0069854073 -0.026495324 -0.038398396 -0.093541615
-0.05391035 0.031047154 -0.084991604 -0.061153863 0.04542189 0.000549314 -0.08197104 0.08857959
-0.019641157 -0.02018386 0.04341418 -0.025869682 0.09756474 0.116390966 0.11928203 -0.00015516937
0.022194698 0.13162912 0.06806801 0.024266224 0.014703254 0.08168785 -0.061831724 -0.054556962
-0.021748427 0.031387568 -0.024624174 0.037202805 0.085725345 0.0651854 0.068080425 0.07300419
00000000: f61c 3c3c 7b92 b2bc e9e7 64bc 89cf 8d3c
00000010: de31 923d 700d b13c f981 9e3d ce12 1cbc
00000020: fe42 42bb 6eb5 56bd 0649 b4bd 4e49 4bbd
00000030: 27fb 04bd 4bf4 f73c 33dd 1ebd f960 1ebd
00000040: b39e 4bbd 8a1f 1e3d a21c f43d 6aae 41bc
00000050: e18b bdbd a1e2 c83d 68d9 8e3d 69db 72bd
00000060: b4a7 0fbd 833b 32bd cfe7 67bd d06f cb3d
00000070: 2cad 5b3d 1b95 6cbd 63e2 1d3b 8638 863d
00000080: bfa8 ccbc a9a9 283d b567 823c d7e2 313d
00000090: 5a54 133d 4b20 083d a83c 0dbd d8d4 dcbd
000000a0: 5076 8ebc 70dd 153b 9204 65bd 8ef8 63bd
000000b0: daf6 dd3b 1f8a ca3c 9b24 a03d ad52 c23d
000000c0: 338a 1bbd 0afc 8d3d d6cd 443d b964 c43d
000000d0: 7120 d73d 305b 9a3d b632 843d c764 da3c
000000e0: 9d45 9cbc b076 fcbc 81e9 503d d93e 8d3b
000000f0: aeb2 313d 8e1c 163d 7bde a53d 737f 7d3d
00000100: 0c57 90bd 484d 41bd 3f54 883d 0e0a 6d3d
00000110: 8c45 58bd 8fc3 1b3d dbf6 a0bd b445 78bd
00000120: b6d8 72bd 7e36 34be 34f0 bfbd 0d22 2cbe
00000130: 64e4 54be 1fb2 26be d070 11be 9ca9 c6bd
00000140: 9e1f 42be 5a1b 01be 3a17 3cbd 5b73 993d
00000150: 903d 86bd 5323 4e3c b412 9f3d 59c1 d6bd
00000160: abb8 c8bd 197c b33d 3339 d03d 502a 98bb
00000170: 6c75 37bc cf5d 07bd 0d2d 1a3d f240 c6bc
00000180: 29da dd3d 730a 673d 4031 ff3c 24bf 8b3c
00000190: 7b53 c2bb 2e9b 163d add7 c0bd a659 d3bd
000001a0: b1ab 0dbe f9e3 48bd 995a 283d cd57 bc3c
000001b0: ac1a 8d3d 2e0d 52bc d8d8 423d 7fae 3d3d
000001c0: 0893 09bc a9f0 213c e330 31bd 6b6e 0c3a
000001d0: 502a 87bd e064 883d 7c50 91bd 15d6 07be
000001e0: 63d6 06bd 5407 8abd 1155 cabc 7850 18be
000001f0: 57ea 70bd 088c 473d 4a38 b43c 78d6 3abd
00000200: d3fe 41bc c280 19bd bfcd 5ebd fa7f 37bd
00000210: 7f9b 1abd 61cc 0c3d 46e2 2a3d c2dc 41bd
00000220: a78b 42bb 9514 493c ff29 ba3b ace9 92bd
00000230: 8949 58bd 3de5 633d a1ff 6f3d c927 e4bb
00000240: 1337 c83c 34b4 b9bc 4050 0f3d 9b0d aa3d
00000250: d044 693c ae8c 4abd 35ef ba3c 2e22 4c3d
00000260: 8631 973d b8f8 c4bc 6e18 2d3c 2eca 61bd
00000270: 9e4f 8bbd a022 4e3c 8af8 03be 522d f33c
00000280: 97ba 8fbc 8a05 04bd 21c1 d63c c78e c73d
00000290: b560 ac3d 6139 ef3d e2c3 56bd 2408 233d
000002a0: 4ddd e83d b095 0a3b 50c7 b63d 30ef b73d
000002b0: 241f 7e3c 15b8 66bc a13a 8a3c 5e4c 5bbc
000002c0: 4108 953d 6f0a 863d 9aa2 87bc 6b98 b93d
000002d0: eb34 863d befe 6d3d 6307 17bd bac5 a23d
000002e0: 66d3 6b3d ce40 2c3d 2d5f b83d 233a 8ebb
000002f0: 4f3d 833d 2a8d 953c 299a 86bd 635d 163c
00000300: ab2e 6cbd a900 13be 8030 c1bd bebc ef3c
00000310: f78d 4dbd a8f3 a1bd 067e 43bc 0919 7fbc
00000320: 2901 9c3d 2f67 033e ddaa 433d 3e71 9c3d
00000330: 7821 523d 2ee4 47bd 08b0 a63d f946 3dbd
00000340: f739 903d 0d4e 403d aa29 27bd 4d7c 89bd
00000350: d915 86bd 281a 2f3c e0e0 cabd 44cd 03bc
00000360: 2e0d 423c 41e1 46bd 0700 a93d f7ef debd
00000370: d8e5 e43b b90c d9bc a347 1dbd bf92 bfbd
00000380: 19d1 5cbd 9a56 fe3c 1410 aebd 797c 7abd
00000390: 4e0c 3a3d d7ff 0f3a 6fe0 a7bd 3769 b53d
000003a0: 7ee6 a0bc 9f58 a5bc 11d3 313d a8ec d3bc
000003b0: 06d0 c73d 635e ee3d 234a f43d f6b4 22b9
000003c0: a8d1 b53c c9c9 063e 3e67 8b3d f6c9 c63c
000003d0: ebe5 703c f64b a73d 4343 7dbd 1f77 5fbd
000003e0: c229 b2bc 4090 003d a3b8 c9bc f861 183d
000003f0: c590 af3d ec7f 853d c06d 8b3d 3983 953d

conv2.0.bias f4 [32]
-0.099106 -0.07520729 -0.11249886 0.05793806 -0.13699105 -0.121444665 0.08937746 0.03767534
-0.14601827 0.003892583 -0.020973237 -0.21323718 -0.03582673 -0.096118495 -0.23902552 -0.013467009
-0.15879567 -0.07257385 -0.07438234 0.115790054 0.015429588 -0.11791859 -0.0887516 -0.09746647
0.03445783 -0.19206832 -0.13229913 -0.034483604 -0.10169171 -0.21482363 -0.12550844 -0.14945357
00000000: 16f8 cabd 4806 9abd cd65 e6bd 7650 6d3d
00000010: 6247 0cbe fbb7 f8bd 880b b73d 7551 1a3d
00000020: d085 15be b51a 7f3b 11d0 abbc d95a 5abe
00000030: 0dbf 12bd c6d9 c4bd 1bc3 74be bba4 5cbc
00000040: 559b 22be 99a1 94bd c555 98bd 5623 ed3d
00000050: 62cc 7c3c 4d7f f1bd 66c3 b5bd 809c c7bd
00000060: a723 0d3d 8fad 44be 6c79 07be ae3e 0dbd
00000070: be43 d0bd bafa 5bbe 4985 00be 5b0a 19be

conv2.3.weight f4 [32]
1.0182192 0.922046 0.99216837 0.8770007 0.9714017 0.97517246 0.9552752 0.991991
0.96443695 1.0094218 1.0026816 1.0487909 0.9995833 0.985988 1.0406231 1.0063256
0.77974975 0.9970658 0.9913451 0.9113736 0.9256662 0.9117572 0.99843997 1.0252101
0.97104716 1.0390947 1.0053338 0.8699577 1.0142729 1.025883 0.9194876 0.93705153
00000000: 0255 823f 350b 6c3f bffe 7d3f 1e83 603f
00000010: c8ad 783f e7a4 793f ea8c 743f 1ff3 7d3f
00000020: 57e5 763f bc34 813f df57 803f c83e 863f
00000030: b1e4 7f3f b669 7c3f 2333 853f 47cf 803f
00000040: ae9d 473f b43f 7f3f cbc8 7d3f c84f 693f
00000050: 76f8 6c3f eb68 693f c399 7f3f 163a 833f
00000060: 8c96 783f 0e01 853f c7ae 803f 8cb5 5e3f
00000070: b2d3 813f 2250 833f 8a63 6b3f 9ce2 6f3f

conv2.3.bias f4 [32]
0.0845335 0.35712016 0.07748036 -0.1763219 0.16315298 -0.15647319 0.5102523 0.063673116
-0.107378855 0.18362795 -0.09865344 0.5814715 -0.1731553 0.2286725 0.32406262 -0.14616129
0.18767002 -0.13391882 -0.00040689786 -0.03831054 0.27703148 0.21580034 0.32282922 0.22752339
0.3604601 0.3195076 -0.06731825 -0.13711548 0.4033185 0.21510798 0.2845692 0.46122104
00000000: e61f ad3d 74d8 b63e 06ae 9e3d ba8d 34be
00000010: 9311 273e 823a 20be e59f 023f 0d67 823d
00000020: 72e9 dbbd f708 3c3e d10a cabd 51db 143f
00000030: 9f4f 31be 2029 6a3e 89eb a53e 4eab 15be
00000040: 922c 403e 0422 09be e854 d5b9 83eb 1cbd
00000050: 12d7 8d3e c4fa 5c3e df49 a53e e4fb 683e
00000060: 3a8e b83e 8096 a33e 27de 89bd 0068 0cbe
00000070: c37f ce3e 4445 5c3e 0eb3 913e 2a25 ec3e

conv2.3.running_mean f4 [32]
0.07349008 0.72148573 0.20939152 0.8953952 0.29221615 0.06949961 0.53726596 0.534239
0.2506607 0.5430484 0.1178563 0.082770765 0.5320578 0.5577063 0.10572802 0.29465958
0.5858244 0.43296787 0.30710807 0.66963464 0.5382852 0.52367693 0.43724942 0.2096455
0.5928928 0.1366741 0.24921508 0.14719376 0.2390061 0.3892797 0.30996323 0.19040617
00000000: f881 963d 4ab3 383f bb6a 563e 9f38 653f
00000010: 5b9d 953e d055 8e3d 438a 093f e3c3 083f
00000020: 9956 803e 3805 0b3f a55e f13d b883 a93d
00000030: f134 083f d7c5 0e3f ef87 d83d 9fdd 963e
00000040: 96f8 153f f7ad dd3e 453d 9d3e 2d6d 2b3f
00000050: 0fcd 093f b10f 063f 28df df3e 4fad 563e
00000060: d3c7 173f 4cf4 0b3e 3d32 7f3e f6b9 163e
00000070: 04be 743e ab4f c73e 80b3 9e3e d6f9 423e

conv2.3.running_var f4 [32]
0.045341168 1.6485608 0.12594792 1.1465323 0.3078377 0.034237195 0.25162598 0.67928344
0.33419573 0.31717998 0.09954677 0.07890209 0.2943703 1.2544167 0.14950491 0.17771855
0.96911526 0.53423405 0.38874662 0.40708962 0.3609838 1.1093683 0.64823806 0.13139555
0.48150417 0.13957669 0.17404155 0.045207713 0.39348885 0.6995935 0.16951767 0.13901056
00000000: a9b7 393d 0a04 d33f 7ef8 003e 92c1 923f
00000010: e79c 9d3e 4d3c 0c3d 1fd5 803e 85e5 2d3f
00000020: b41b ab3e 6a65 a23e 2ddf cb3d 6b97 a13d
00000030: b4b7 963e ba90 a03f d117 193e dafb 353e
00000040: f017 783f 90c3 083f cc09 c73e 0d6e d03e
00000050: ded2 b83e c8ff 8d3f eef2 253f 8e8c 063e
00000060: b787 f63e 31ed 0e3e f337 323e b92b 393d
00000070: 5f77 c93e 8f18 333f 0a96 2d3e c958 0e3e

conv3.0.weight f4 [64, 32, 3, 3]
-0.04403361 -0.05041704 -0.05940805 -0.052262127 -0.067778245 -0.06307826 -0.07540597 -0.045763467
-0.11992333 -0.0603286 0.02701927 -0.010986204 -0.020221006 -0.051228747 -0.020103207 -0.007054906
-0.013474984 0.053763047 -0.009538635 -0.030230004 -0.09380466 0.023013992 -0.018309716 -0.023861459
-0.07332133 -0.013611375 -0.045186866 0.037389293 -0.022934845 0.08020696 0.0022034722 -0.01918674
0.021734934 -0.008556748 0.01324869 -0.010455023 -0.058382493 -0.060331214 -0.0095468005 -0.0020470724
-0.054154307 -0.026944686 -0.01958324 -0.0043767975 -0.011555812 0.013151546 0.007943598 -0.0046567614
0.037698794 0.026976863 0.002470108 0.02876497 0.037689034 0.010463755 -0.027812203 -0.120485865
-0.05894478 -0.018329749 -0.112414345 -0.08908083 -0.08869245 -0.06404219 -0.09933212 -0.038912028
-0.03378478 -0.038935006 -0.028644498 0.027301757 -0.037184685 -0.007317214 0.053913098 0.031910755
0.053503264 0.13574599 0.11532105 0.10922815 0.10206699 0.08278862 -0.0008881435 0.108523116
0.08860994 0.02785585 0.008845869 0.016577858 -0.0010111637 0.051665988 0.016321998 0.023162555
0.026040567 0.044129778 -0.03565465 -0.035475496 0.0023671184 -0.012900387 -0.033698406 -0.0023077729
-0.05426864 -0.023873925 -0.039106946 -0.06448789 -0.11774409 -0.088053286 -0.07064007 -0.14311035
-0.11683879 -0.08449894 -0.13922973 -0.1286846 -0.011624906 0.026660295 0.02611533 -0.037933037
0.022681365 -0.015974715 -0.038314153 0.0012727322 -0.02248538 -0.09851705 -0.06096047 -0.07720314
-0.0927293 -0.047468033 -0.026502347 -0.09000392 0.016730135 -0.022492837 0.03700237 0.061632242
0.040644463 0.020744141 0.025152449 0.043972686 0.043920297 0.06563725 0.015498014 -0.037712228
-0.053534504 -0.032008123 -0.031191992 -0.042708315 -0.07333057 -0.067764826 -0.0357679 -0.093239136
0.04671821 -0.016836233 -0.036379866 -0.039003305 0.012393363 0.005961466 -0.039559375 0.038058903
0.036877874 0.064633235 0.08000056 0.09757391 0.05799086 0.09378208 0.014543619 0.077502325
0.10218973 0.09302966 -0.0030278293 0.042744428 -0.029087171 0.034338288 0.030964036 -0.042214558
-0.0029982054 0.011001484 0.010557238 -0.060377393 -0.016343411 0.038722448 -0.036557242 -0.0002081922
-0.0016539609 0.013158954 0.047033686 0.0022020547 0.0064994693 -0.017848654 -0.04020184 -0.028967928
-0.01197943 -0.0467673 -0.02306181 0.019363578 0.00793648 -0.040444586 -0.054413643 0.0024160256
-0.0068115876 -0.012733842 -0.07532266 -0.004054237 -0.00568232 -0.07705308 0.010120328 -0.006408574
0.049086187 -0.016765594 0.07628405 0.052471038 -0.01370984 -0.014441711 0.0101716565 -0.05177132
-0.08228072 -0.12024114 -0.0773985 -0.068155974 -0.05832632 -0.07905767 -0.08413596 -0.12276838
-0.053397518 -0.05279164 -0.09688776 0.012369051 -0.018553462 -0.07514672 -0.030018108 -0.059295803
-0.06518201 0.05183359 0.08096482 0.0025589764 0.027383115 0.050475962 0.0366445 -0.0014442276
0.08224998 -0.008887515 -0.039916333 -0.02197088 -0.04704684 -0.03044737 -0.0036372317 -0.015101676
-0.05800667 -0.05085259 -0.026575422 -0.0031458118 -0.028586617 -0.035571344 0.019601285 -0.037344754
-0.038525883 -0.025927166 0.00027763844 0.03898979 -0.045626525 -0.10933954 -0.13947494 -0.07668597
00000000: 965c 34bd 1982 4ebd db55 73bd d010 56bd
00000010: 52cf 8abd 2d2f 81bd 726e 9abd 7972 3bbd
00000020: 5d9a f5bd 1f1b 77bd 8457 dd3c 7bff 33bc
00000030: 86a6 a5bc 3cd5 51bd 7baf a4bc d72c e7bb
00000040: 2ec6 5cbc a436 5c3d ef47 1cbc eaa4 f7bc
00000050: a81c c0bd d787 bc3c 42fe 95bc 1b79 c3bc
00000060: 7e29 96bd 3f02 5fbc dd15 39bd 8425 193d
00000070: dbe1 bbbc 8c43 a43d 2168 103b 832d 9dbc
00000080: 760d b23c 9a31 0cbc 0911 593c 8b4b 2bbc
00000090: 7b22 6fbd dd1d 77bd 2f6a 1cbc 2d28 06bb
000000a0: e8d0 5dbd 1abb dcbc 086d a0bc 3d6b 8fbb
000000b0: 9754 3dbc 9579 573c dd25 023c bf97 98bb
000000c0: 0d6a 1a3d 95fe dc3c 89e1 213b 84a4 eb3c
000000d0: d15f 1a3d 2b70 2b3c 6bd6 e3bc 4bc1 f6bd
000000e0: 1570 71bd 4528 96bc 7e39 e6bd 0370 b6bd
000000f0: 63a4 b5bd 8d28 83bd a36e cbbd 3862 1fbd
00000100: e961 0abd 507a 1fbd dea7 eabc efa7 df3c
00000110: f84e 18bd 3dc5 efbb fbd3 5c3d dab4 023d
00000120: 3d26 5b3d ff00 0b3e 712d ec3d 02b3 df3d
00000130: 8008 d13d 148d a93d 4dd2 68ba 5e41 de3d
00000140: 2179 b53d f431 e43c 44ee 103c 4ace 873c
00000150: 0689 84ba b79f 533d b6b5 853c 66bf bd3c
00000160: 0753 d53c 6dc1 343d 9c0a 12bd c14e 11bd
00000170: a821 1b3b 255c 53bc 5707 0abd 013e 17bb
00000180: cb48 5ebd 4093 c3bc 9b2e 20bd 3a12 84bd
00000190: d023 f1bd 4855 b4bd beab 90bd 858b 12be
000001a0: 2d49 efbd c80d adbd 3d92 0ebe e5c5 03be
000001b0: 6476 3ebc b166 da3c d1ef d53c ac5f 1bbd
000001c0: 45ce b93c 68dd 82bc 4def 1cbd ced1 a63a
000001d0: 4233 b8bc 4fc3 c9bd b0b1 79bd ae1c 9ebd
000001e0: dce8 bdbd d76d 42bd 731b d9bc fa53 b8bd
000001f0: a30d 893c e642 b8bc cc8f 173d 1772 7c3d
00000200: cf7a 263d 9eef a93c 820c ce3c b41c 343d
00000210: c5e5 333d d36c 863d 62eb 7d3c 2378 1abd
00000220: ff46 5bbd f31a 03bd 5986 ffbc eaee 2ebd
00000230: 562e 96bd 49c8 8abd 5d81 12bd 29f4 bebd
00000240: 985b 3f3d 24ec 89bc 0e03 15bd eec1 1fbd
00000250: 880d 4b3c 6758 c33b 0309 22bd a7e3 1b3d
00000260: 410d 173d 6e5e 843d 55d7 a33d d5d4 c73d
00000270: d387 6d3d d210 c03d 5c48 6e3c 8ab9 9e3d
00000280: d948 d13d 5686 be3d 8c6e 46bb c814 2f3d
00000290: 3848 eebc 4ea6 0c3d 4aa8 fd3c 2ce9 2cbd
000002a0: 8a7d 44bb 913f 343c 44f8 2c3c 494e 77bd
000002b0: 9ee2 85bc 6e9b 1e3d 0cbd 15bd 2b4e 5ab9
000002c0: b8c9 d8ba a798 573c 65a6 403d 5950 103b
000002d0: 80f9 d43b 5737 92bc afaa 24bd 264e edbc
000002e0: 5f45 44bc 128f 3fbd 1fec bcbc 5ea0 9e3c
000002f0: 0308 023c 39a9 25bd d7e0 5ebd 2f56 1e3b
00000300: bd33 dfbb 9ba1 50bc c442 9abd 68d9 84bb
00000310: c132 babb 01ce 9dbd bbcf 253c 04ff d1bb
00000320: 990e 493d 0058 89bc d03a 9c3d dfeb 563d
00000330: 3d9f 60bc ed9c 6cbc 05a7 263c 2a0e 54bd
00000340: cb82 a8bd fd40 f6bd 1b83 9ebd 5c95 8bbd
00000350: 94e7 6ebd fde8 a1bd 794f acbd fd6d fbbd
00000360: 5bb7 5abd 0c3c 58bd 176d c6bd 8fa7 4a3c
00000370: 6efd 97bc 86e6 99bd 89e8 f5bc 28e0 72bd
00000380: 257e 85bd 754f 543d e2d0 a53d 80b4 273b
00000390: 8e52 e03c e2bf 4e3d 8b18 163d 3d4c bdba
000003a0: ad72 a83d f19c 11bc 4f7f 23bd 46fc b3bc
000003b0: 30b4 40bd c36c f9bc 9f5e 6ebb 056d 77bc
000003c0: 6798 6dbd ce4a 50bd b3b4 d9bc f729 4ebb
000003d0: 7b2e eabc 42b3 11bd e092 a03c d0f6 18bd
000003e0: 51cd 1dbd 3565 d4bc 0090 9139 c2b3 1f3d
000003f0: e1e2 3abd 69ed dfbd 85d2 0ebe 890d 9dbd

conv3.0.bias f4 [64]
-0.21616867 -0.059978113 -0.08979016 -0.17248334 -0.035326343 -0.0023306382 -0.09988175 -0.16656548
-0.07475405 -0.079080805 0.029808536 -0.14797103 -0.08630357 -0.037551377 -0.19639623 -0.038324066
-0.15408802 -0.1300452 -0.061200336 -0.14125793 -0.15420677 -0.1087707 -0.080495335 -0.07326908
-0.09178957 -0.10581612 -0.25604847 -0.113583036 -0.2288053 -0.06338658 -0.20151886 -0.11201643
-0.10309741 -0.1783545 -0.15957922 -0.16903643 -0.038660824 -0.08221698 -0.1503586 -0.11748572
-0.124756835 -0.042163096 -0.16985996 -0.05540572 -0.08545472 -0.07506054 -0.056397036 -0.053434156
-0.016994806 -0.11041928 -0.132682 -0.1160649 -0.16628523 -0.042535517 -0.04797405 -0.15346812
-0.052838515 -0.0626923 -0.086556405 -0.011404116 0.003591383 -0.061351363 -0.18775938 -0.09212734
00000000: 525b 5dbe 9cab 75bd e7e3 b7bd 799f 30be
00000010: 5bb2 10bd 9fbd 18bb ce8e ccbd 2490 2abe
00000020: a718 99bd 1ef5 a1bd 0831 f43c b885 17be
00000030: edbf b0bd 79cf 19bd 181c 49be b2f9 1cbd
00000040: 40c9 1dbe 922a 05be 34ad 7abd eba5 10be
00000050: 61e8 1dbe 2cc3 debd bdda a4bd 190e 96bd
00000060: 2cfc bbbd 1fb6 d8bd c918 83be 399e e8bd
00000070: f04b 6abe d3d0 81bd f65a 4ebe df68 e5bd
00000080: bc24 d3bd 90a2 36be bc68 23be e317 2dbe
00000090: d05a 1ebd 6061 a8bd 9bf7 19be 5a9c f0bd
000000a0: 8380 ffbd 36b3 2cbd c5ef 2dbe 1cf1 62bd
000000b0: e202 afbd 57b9 99bd 9400 67bd c6dd 5abd
000000c0: b138 8bbc 8123 e2bd cadd 07be 6fb3 edbd
000000d0: ad46 2abe b939 2ebd 7080 44bd bf26 1dbe
000000e0: 336d 58bd d264 80bd 7c44 b1bd 54d8 3abc
000000f0: 695d 6b3b 914b 7bbd ff43 40be 42ad bcbd

conv3.4.weight f4 [64]
1.1429801 1.1233131 1.2403246 1.2859194 1.2293582 1.237978 1.2503002 1.1206267
1.0229207 1.258125 1.2098516 1.0272958 1.2240374 1.1146947 1.093059 1.2115167
1.0699638 1.1555053 1.2588004 1.23562 1.1354908 1.2677257 1.2535034 1.2654502
1.0818698 1.108605 1.0959216 1.2945032 1.0998105 1.2930527 1.1193783 1.0159116
1.1789219 1.1567132 1.0574801 1.1141638 0.95757985 1.2737275 1.2654998 1.2316636
1.1125754 0.9886476 1.1315027 1.2452469 1.1090677 1.2502044 1.2334477 0.97487575
1.2209228 1.285113 1.113454 1.2395943 1.0565264 1.1730936 1.3044878 1.1268374
1.0735563 1.2762717 1.2167661 0.94501543 1.2297765 1.2441208 1.0601975 1.2324772
00000000: 2c4d 923f b9c8 8f3f f5c2 9e3f 0299 a43f
00000010: 9c5b 9d3f 1076 9e3f d609 a03f b270 8f3f
00000020: 11ef 823f 3d0a a13f 6bdc 9a3f 6e7e 833f
00000030: 42ad 9c3f 51ae 8e3f 5be9 8b3f fb12 9b3f
00000040: 93f4 883f 99e7 933f 5f20 a13f cc28 9e3f
00000050: c357 913f d644 a23f cd72 a03f 46fa a13f
00000060: b67a 8a3f c5e6 8d3f 2947 8c3f 48b2 a53f
00000070: 97c6 8c3f c082 a53f ca47 8f3f 6409 823f
00000080: eae6 963f 2e0f 943f 825b 873f eb9c 8e3f
00000090: f423 753f 8109 a33f e6fb a13f 27a7 9d3f
000000a0: df68 8e3f 0218 7d3f 15d5 903f 4064 9f3f
000000b0: eef5 8d3f b306 a03f 9de1 9d3f 7591 793f
000000c0: 3347 9c3f 957e a43f a985 8e3f 07ab 9e3f
000000d0: 423c 873f ee27 963f 75f9 a63f 353c 903f
000000e0: 4b6a 893f df5c a33f febe 9b3f 88ec 713f
000000f0: 5169 9d3f 5a3f 9f3f 8db4 873f d0c1 9d3f

conv3.4.bias f4 [64]
-0.013701926 -0.004842409 0.0128566325 0.0016637499 0.009941016 0.011808747 0.008295828 -0.012003368
-0.022687133 0.01834365 0.013324424 -0.021453733 -0.0128771085 -0.014597563 0.001146704 0.0021062007
0.0029291094 -0.0024406416 0.019040827 -0.007930437 -0.013197368 0.006372526 0.026926005 -0.004111961
-0.044723388 -0.015430114 -0.024501419 -0.008892096 -0.030266251 0.0042446977 -0.01377774 -0.019463351
0.031232856 -0.008886359 -0.017953152 0.00549658 -0.00046178573 0.010810844 0.0011252671 -0.00040507937
-0.016389467 0.0046105445 0.009288232 0.011757001 0.009992491 -0.0006095864 0.00977139 0.00637561
-0.009144329 0.013542139 -0.0033463957 0.021457974 -0.017268507 0.006419784 0.0070972615 -0.016601654
0.009790758 0.02124159 0.012452073 -0.013280688 0.020997362 0.020137846 0.010209151 0.0240066
00000000: 0b7e 60bc 12ad 9ebb a0a4 523c 2f12 da3a
00000010: a5df 223c 7a79 413c 39eb 073c c6a9 44bc
00000020: 5eda b9bc 6c45 963c af4e 5a3c bdbf afbc
00000030: 82fa 52bc 9e2a 6fbc 004d 963a 2f08 0a3b
00000040: 4df6 3f3b 2cf3 1fbb 82fb 9b3c aaee 01bc
00000050: c639 58bc 9fd0 d03b ed93 dc3c a1bd 86bb
00000060: df2f 37bd 97ce 7cbc 33b7 c8bc 27b0 11bc
00000070: eef0 f7bc 1b17 8b3b 08bc 61bc 9b71 9fbc
00000080: 0cdc ff3c 1798 11bc 7d12 93bc a81c b43b
00000090: d51b f2b9 f71f 313c b37d 933a d560 d4b9
000000a0: 3443 86bc 0d14 973b ab2d 183c 70a0 403c
000000b0: 8cb7 233c a7cc 1fba 2e18 203c 7eea d03b
000000c0: 18d2 15bc d9df 5d3c 344f 5bbb a2c8 af3c
000000d0: af76 8dbc 0d5d d23b 2590 e83b 3100 88bc
000000e0: 6a69 203c d802 ae3c c803 4c3c 3e97 59bc
000000f0: a902 ac3c 20f8 a43c 4844 273c 7da9 c43c

conv3.4.running_mean f4 [64]
0.03430111 0.04716024 0.09562364 0.059784684 0.102634706 0.15792082 0.12183956 0.038085442
0.045958716 0.12520365 0.13000463 0.05657308 0.11087763 0.06407358 0.013093039 0.11924359
0.10658921 0.07200181 0.08421126 0.07299743 0.026848972 0.08351245 0.19902997 0.14305182
0.07760254 0.077964105 0.053606514 0.044375334 0.05186736 0.09415635 0.10794143 0.09118326
0.14326745 0.18248232 0.041353114 0.075556606 0.8518237 0.047961786 0.05745577 0.08441742
0.05159597 0.1128324 0.018111 0.12347552 0.03896515 0.092130356 0.097032264 0.12687033
0.137176 0.046208285 0.04832099 0.10717086 0.03681868 0.2028256 0.076596744 0.021410676
0.09005945 0.08361807 0.05406088 0.57517093 0.1490119 0.14664955 0.03693685 0.15523139
00000000: 527f 0c3d 192b 413d 54d6 c33d c9e0 743d
00000010: 2532 d23d ffb5 213e 0587 f93d 7bff 1b3d
00000020: 353f 3c3d 6335 003e ef1f 053e 2db9 673d
00000030: d013 e33d 0239 833d 3084 563c fc35 f43d
00000040: 724b da3d af75 933d f476 ac3d ad7f 953d
00000050: 60f2 db3c 9308 ab3d 83ce 4b3e 2d7c 123e
00000060: 15ee 9e3d a5ab 9f3d 8192 5b3d e9c2 353d
00000070: de72 543d 0bd5 c03d 6510 dd3d 4abe ba3d
00000080: b4b4 123e a5dc 3a3e e261 293d 6cbd 9a3d
00000090: 1e11 5a3f 9473 443d be56 6b3d 0ae3 ac3d
000000a0: 4c56 533d ac14 e73d 855d 943c bce0 fc3d
000000b0: ec99 1f3d d7ae bc3d dab8 c63d 4cea 013e
000000c0: de77 0c3e e644 3d3d 3bec 453d 657c db3d
000000d0: 2fcf 163d 84b1 4f3e c1de 9c3d 7165 af3c
000000e0: 1771 b83d f33f ab3d f16e 5d3d 673e 133f
000000f0: 9396 183e 4d2b 163e 184b 173d faf4 1e3e

conv3.4.running_var f4 [64]
0.11583491 0.08200977 0.4188285 0.18304428 0.34868795 0.52094775 0.399793 0.08105247
0.13195857 0.40417668 0.42889324 0.096452355 0.42622533 0.11876159 0.032808185 0.5228572
0.21390061 0.11777551 0.2693789 0.28538817 0.06334417 0.3032976 0.78869843 0.46000585
0.13218686 0.16204531 0.25304875 0.17123477 0.10440374 0.35727444 0.24632218 0.17701022
0.56078583 0.6101093 0.10578276 0.29132527 5.001255 0.17273663 0.21429238 0.33670592
0.09359125 0.32860216 0.06399722 0.45999113 0.05491494 0.30730435 0.41849023 0.18959925
0.5041757 0.14033571 0.14313541 0.43044072 0.09279565 0.7800781 0.28745314 0.028135492
0.15682296 0.26905635 0.21317907 1.7716826 0.63443655 0.5675691 0.08821931 0.49809784
00000000: da3a ed3d bdf4 a73d b070 d63e f66f 3b3e
00000010: 3a87 b23e d55c 053f abb1 cc3e d6fe a53d
00000020: 2620 073e 3ff0 ce3e e597 db3e d088 c53d
00000030: 353a da3e 4739 f33d e061 063d f8d9 053f
00000040: c308 5b3e 4934 f13d 08ec 893e 661e 923e
00000050: 97ba 813d d349 9b3e 24e8 493f e385 eb3e
00000060: fe5b 073e 35ef 253e 9b8f 813e 2b58 2f3e
00000070: a1d1 d53d adec b63e e23b 7c3e 2b42 353e
00000080: a98f 0f3f 2030 1c3f a2a4 d83d 9628 953e
00000090: 480a a040 dfe1 303e 766f 5b3e b864 ac3e
000000a0: c5ac bf3d 8b3e a83e f910 833d f583 eb3e
000000b0: 7dee 603d ff56 9d3e 5a44 d63e 4e26 423e
000000c0: a911 013f 2ab4 0f3e 1792 123e ba62 dc3e
000000d0: a50b be3d 33b3 473f 0f2d 933e 677c e63c
000000e0: 3396 203e c1c1 893e 9d4b 5a3e 7fc6 e23f
000000f0: 6f6a 223f 354c 113f 53ac b43d ae06 ff3e

fc.0.weight f4 [32, 64]
0.1603649 0.19690813 -0.08442845 -0.17309155 -0.31012544 -0.084327355 -0.16746746 0.046149388
0.113262795 -0.16779043 -0.19876932 -0.05118513 -0.20887016 0.11614403 0.14278269 -0.2633572
0.04607321 0.110438794 -0.28174153 -0.19746846 0.017165707 -0.124868646 -0.1856613 -0.2882572
0.1468474 0.020563109 0.018161628 -0.22569866 0.17768945 -0.17082521 0.061758682 0.14845702
-0.061164863 0.09938695 0.095810555 0.16230905 0.113359235 -0.26527607 -0.14364246 -0.25008908
0.13580583 0.053774495 0.083384156 -0.19303241 0.15507682 -0.30879304 -0.21054609 0.020768443
-0.089352034 -0.22359212 0.07975913 -0.22243567 0.09627205 -0.25823796 -0.171325 0.1379753
0.07774378 -0.13250299 -0.26944825 0.005765448 -0.13850321 -0.12123064 0.04330252 -0.21179695
0.027738323 0.06226053 -0.14488295 -0.24559173 -0.1312175 -0.10508736 -0.2219041 0.13340084
-0.039674316 -0.24724004 -0.0411921 -0.0114535345 -0.1534717 0.12200345 0.18586694 -0.16791418
0.14223367 0.113709435 -0.18405211 -0.057382774 0.03211369 -0.259713 -0.2476182 -0.24983409
0.03316941 0.15941277 0.08276644 -0.24388118 0.14993598 -0.26324323 0.077591114 -0.046335388
-0.114688754 0.22273828 0.15396994 0.1738364 0.059413236 -0.13776478 -0.21865654 -0.25656158
0.0052712853 0.051048577 0.15390092 -0.07303654 0.036680907 -0.19263773 -0.060100034 0.12840171
-0.28518465 -0.17836186 0.00017621089 -0.112556286 0.115910746 -0.09961355 -0.14995001 0.18265007
0.16877666 -0.1742384 -0.16636242 -0.014518007 -0.21764565 -0.09450192 0.09618544 -0.17978106
0.074528925 0.115300216 -0.18063888 -0.1876307 -0.21602885 -0.1285157 -0.24817161 0.09197102
0.06197587 -0.10133808 -0.13204284 0.10942256 -0.1878901 0.10504787 0.1348298 -0.17722322
0.05516031 0.14673065 -0.053002324 -0.23774144 0.0922336 -0.17443419 -0.2497548 -0.22608286
0.024948912 0.02825104 0.15817173 -0.19491394 0.108255334 -0.12628908 0.17600378 -0.06270588
-0.1658237 0.08927682 -0.017931309 0.14644913 -0.0596361 -0.20920572 -0.12699348 -0.21933104
0.056322753 -0.022084622 0.15949667 -0.17728315 0.06903413 -0.2383562 -0.048910905 -0.07853621
-0.058334682 -0.10357457 0.13000825 -0.19534539 0.13973568 -0.20344006 -0.17506385 0.20464097
0.09811837 -0.27068138 -0.2593961 0.07625816 -0.1806802 -0.18444245 0.036512114 -0.19400959
-0.18679178 -0.12595747 0.07979613 0.12949131 0.23219383 0.2092439 0.17661734 -0.13900305
-0.019925952 0.2383072 0.11795772 -0.12532713 0.18467146 -0.11571967 -0.17622897 0.14054596
-0.16232735 -0.024480015 0.10850042 0.19394842 -0.14329918 0.2134181 0.13270025 0.16738722
-0.019874664 -0.014093033 -0.09970671 0.04282307 -0.011534073 0.28285542 -0.057273965 -0.09667177
0.17092742 -0.11131487 -0.1681801 -0.12268712 -0.091671295 0.15041387 0.11174123 0.14076276
-0.01544773 -0.14160985 -0.07982233 0.2060522 -0.08296046 0.21631876 0.08014489 -0.055419452
0.04137762 0.11439161 -0.100279815 0.118224405 -0.08590116 0.20210278 0.22542366 -0.13320772
-0.15265997 0.17056818 0.0704042 -0.039501898 0.05158085 0.24489078 -0.059897915 0.13746028
00000000: b236 243e 49a2 493e d3e8 acbd e93e 31be
00000010: c3c8 9ebe d2b3 acbd 977c 2bbe 2407 3d3d
00000020: 53f6 e73d 41d1 2bbe 2f8a 4bbe 80a7 51bd
00000030: 0fe2 55be ecdc ed3d a035 123e c1d6 86be
00000040: 43b7 3c3d bc2d e23d 6d40 90be 2c35 4abe
00000050: 199f 8c3c 22bb ffbd ff1d 3ebe 7396 93be
00000060: 2a5f 163e f773 a83c b2c7 943c 8d1d 67be
00000070: 39f4 353e ceec 2ebe acf6 7c3d 1e05 183e
00000080: 0288 7abd 638b cb3d 5338 c43d 5834 263e
00000090: e328 e83d 44d2 87be 0217 13be ad0b 80be
000000a0: af10 0b3e a542 5c3d 50c5 aa3d 4aaa 45be
000000b0: 75cc 1e3e 1f1a 9ebe 6599 57be 9522 aa3c
000000c0: 33fe b6bd 55f5 64be c158 a33d 2dc6 63be
000000d0: 482a c53d c437 84be d26f 2fbe 6649 0d3e
000000e0: 2238 9f3d ddae 07be 1ff5 89be 15ec bc3b
000000f0: c9d3 0dbe c547 f8bd fc5d 313d 4de1 58be
00000100: 7b3b e33c e604 7f3d 325c 14be 667c 7bbe
00000110: e15d 06be 0b38 d7bd d43a 63be 3b9a 083e
00000120: 8981 22bd 7e2c 7dbe 0cb9 28bd 9ba7 3bbc
00000130: af27 1dbe f2dc f93d e753 3e3e b2f1 2bbe
00000140: b4a5 113e 7ee0 e83d 2878 3cbe 330a 6bbd
00000150: a589 033d 1af9 84be a08f 7dbe 82d4 7fbe
00000160: a6dc 073d 1a3d 233e 7481 a93d fdbb 79be
00000170: d188 193e d1c7 86be 17e8 9e3d 2dca 3dbd
00000180: f0e1 eabd 8115 643e 4caa 1d3e 2b02 323e
00000190: 4b5b 733d 3612 0dbe 80e7 5fbe 0a5c 83be
000001a0: bfba ac3b 5018 513d 3498 1d3e 2e94 95bd
000001b0: b83e 163d d342 45be 742b 76bd bd7b 033e
000001c0: b903 92be 7ea4 36be 40c5 3839 e983 e6bd
000001d0: 9d62 ed3d 3002 ccbd 7f8c 19be 9f08 3b3e
000001e0: cad3 2c3e 8d6b 32be e95a 2abe efdc 6dbc
000001f0: 80de 5ebe 398a c1bd dffc c43d 8718 38be
00000200: 9fa2 983d 8522 ec3d 66f9 38be 4322 40be
00000210: ab36 5dbe 9f99 03be b320 7ebe 4d5b bc3d
00000220: 69da 7d3d 578a cfbd 3d36 07be ef18 e03d
00000230: 4366 40be 5623 d73d d310 0a3e 017a 35be
00000240: c7ef 613d 8f40 163e f718 59bd 7e72 73be
00000250: f8e4 bc3d e09e 32be b9bf 7fbe 4482 67be
00000260: a961 cc3c ba6e e73c c5f7 213e 8597 47be
00000270: f9b4 dd3d ed51 01be 563a 343e f16b 80bd
00000280: b0cd 29be c4d6 b63d aee4 92bc c3f6 153e
00000290: fc44 74bd 063a 56be 940a 02be 5198 60be
000002a0: b0b2 663d cfea b4bc 1853 233e b789 35be
000002b0: c461 8d3d a613 74be cd56 48bd 98d7 a0bd
000002c0: 59f0 6ebd e71e d4bd e220 053e 9f08 48be
000002d0: df16 0f3e 9752 50be f043 33be 678d 513e
000002e0: 49f2 c83d c096 8abe 91cf 84be 3d2d 9c3d
000002f0: 3b04 39be 7bde 3cbe ba8d 153d 73aa 46be
00000300: 5846 3fbe fffa 00be 276c a33d 5f99 043e
00000310: 38c4 6d3e 0844 563e 2ddb 343e d156 0ebe
00000320: c03b a3bc cd06 743e d193 f13d c155 00be
00000330: 841a 3d3e 6ffe ecbd 5e75 34be 48eb 0f3e
00000340: 2439 26be 508a c8bc 7835 de3d 6a9a 463e
00000350: 05bd 12be 468a 5a3e 93e2 073e 8e67 2b3e
00000360: 31d0 a2bc 77e6 66bc 0833 ccbd 3e67 2f3d
00000370: 69f9 3cbc 6dd2 903e 1b98 6abd d9fb c5bd
00000380: 9907 2f3e 0df9 e3bd 6737 2cbe 6343 fbbd
00000390: 29be bbbd 1806 1a3e 96d8 e43d 1d24 103e
000003a0: 7a18 7dbc 2c02 11be e479 a3bd 59ff 523e
000003b0: 2ce7 a9bd aa82 5d3e 0123 a43d 82ff 62bd
000003c0: 947b 293d 2646 ea3d 815f cdbd a31f f23d
000003d0: f3ec afbd 08f4 4e3e 76d5 663e 9b67 08be
000003e0: e552 1cbe 6da9 2e3e 1430 903d becc 21bd
000003f0: 7146 533d a6c4 7a3e 8457 75bd 63c2 0c3e

fc.0.bias f4 [32]
-0.02836712 -0.07061719 -0.087123506 0.06168487 -0.0031480151 -0.07944438 0.06229219 -0.019637914
-0.099180155 -0.042598262 -0.035165064 -0.0063546994 0.08146511 -0.052909527 -0.070973344 -0.007570094
0.030972585 -0.054895747 -0.03453975 0.01176987 0.044262215 0.09599025 0.067318395 -0.06314901
-0.04677157 0.097008005 0.078221165 0.040826 0.0989718 0.07707411 -0.021897348 0.03445261
00000000: 2a62 e8bc bf9f 90bd cf6d b2bd 46a9 7c3d
00000010: ee4e 4ebb bcb3 a2bd 1826 7f3d b1df a0bc
00000020: f71e cbbd 847b 2ebd 3e09 10bd 153b d0bb
00000030: 2ed7 a63d a9b7 58bd 795a 91bd 8d0e f8bb
00000040: 38ba fd3c 5dda 60bd 8e79 0dbd 6ad6 403c
00000050: 4c4c 353d 8996 c43d 3ade 893d 4554 81bd
00000060: 8c93 3fbd 22ac c63d 6b32 a03d 2a39 273d
00000070: bab1 ca3d 08d9 9d3d 1162 b3bc 2e1e 0d3d

fc.3.weight f4 [1, 32]
-0.18796138 -0.23874068 -0.260173 0.4583159 0.41080895 -0.21606512 0.261825 0.43873948
-0.22375746 -0.25432017 0.42553905 -0.21236323 -0.29307917 -0.1610089 -0.17775126 -0.18425202
-0.19956756 0.36817276 -0.2969252 -0.22419763 0.32288036 0.41532838 0.40457058 0.44841623
-0.25465938 -0.28361535 0.33298302 -0.24430864 0.3873757 -0.19919358 -0.27866548 -0.23284927
00000000: f378 40be 7078 74be 6535 85be 62a8 ea3e
00000010: 8d55 d23e 2d40 5dbe ed0d 863e 76a2 e03e
00000020: ad20 65be 4136 82be 41e0 d93e bf75 59be
00000030: 790e 96be 84df 24be 6d04 36be 90ac 3cbe
00000040: 705b 4cbe 2481 bc3e 9406 98be 1094 65be
00000050: 9350 a53e eca5 d43e e023 cf3e d096 e53e
00000060: b762 82be 0836 91be c07c aa3e 0b2c 7abe
00000070: 1c56 c63e 67f9 4bbe 3ead 8ebe 0a70 6ebe
