5 第五讲 机器学习训练模型的数学范式v16/models/model0.pth (torch, 112139 bytes, 21 tensors)

conv1.0.weight f4 [16, 3, 3, 3]
000000 d5 be d7 3d b8 c0 6c bd 1a 9f cb 3d dd a2 b2 3d
       0.10534445 -0.05780098 0.099424556 0.0872247
000010 89 a6 02 3e ef 49 13 be 9e 8a 1c be c1 24 27 be
       0.1275884 -0.14383672 -0.15287253 -0.16322614
000020 15 2f f9 bc d6 f3 ee bd 18 5c 1f 3e 16 91 27 3e
       -0.030417958 -0.11667602 0.15562475 0.1636394
000030 e8 5e ee 3d ed d3 aa bb 84 f7 32 3e 87 19 a8 bd
       0.11639196 -0.005213252 0.17477232 -0.08207994
000040 ed 3d 02 3e ef 8b be bd 16 a7 30 bd 1b f4 bb bd
       0.12718935 -0.09304034 -0.043128096 -0.09177419
000050 d6 14 c8 3d 6d 44 1c be e1 dc 11 be 82 40 20 be
       0.09769599 -0.15260477 -0.14244415 -0.15649608
000060 ae de 0c 3d fd d6 9f bd 99 e3 02 3e 93 39 43 3e
       0.03439205 -0.07804678 0.12782134 0.19064932
000070 4d a5 91 3d 85 0d 3f be 14 fb 16 be d0 63 23 3e
       0.07111607 -0.18657501 -0.14744216 0.15956044
000080 a4 9d ae bd 32 26 5f 3d 27 c5 35 3e 0b e1 2a 3d
       -0.08526161 0.054479785 0.17750989 0.041718524
000090 89 ba 28 be 45 3d 0a be 33 0a 25 bd 4d d4 60 3c
       -0.16477408 -0.13499935 -0.04029293 0.013722491
0000a0 31 47 62 bd a6 26 f6 bd 6d f2 23 3e 33 8b 8c 3d
       -0.055243675 -0.1201909 0.16010447 0.06862488
0000b0 8f 53 ed 3d 1d 49 3e 3d 00 c7 b1 bd c1 bc 7c 3d
       0.11588203 0.046456445 -0.08680534 0.061703447
0000c0 b6 fe ec 3c c5 c3 6c bd ed 35 43 be f5 2a bd bc
       0.02893005 -0.057803888 -0.1906354 -0.023091773
0000d0 d2 41 bc bd 72 82 cd b9 ee ba 2b be e0 70 54 3d
       -0.09192242 -0.00039197836 -0.16770527 0.05186546
0000e0 8f 7c 17 be 6c 75 42 3e 68 2c 0f 3e 39 62 9e 3d
       -0.14793609 0.18990105 0.13981783 0.07733578
0000f0 b9 9c 2b be ed a5 36 3c e7 92 c7 3c 02 33 ff 3c
       -0.16759004 0.011147958 0.02436204 0.031152252
000100 dd 96 12 be b7 b6 7e 3d 64 44 c9 bd 59 59 34 be
       -0.14315362 0.06218597 -0.098274976 -0.17612208
000110 7b 05 3d 3e 13 9e 2e be 8e 4c 14 be c6 dc 43 3d
       0.18459122 -0.17052488 -0.14482328 0.047817968
000120 ef fa f7 bd aa d0 19 3d ba 6b 8d 3d 3b b8 34 bd
       -0.12108409 0.037552513 0.06905313 -0.04412101
000130 7d c4 17 3e 00 39 35 3e a8 99 cb 3b d8 d8 32 bc
       0.14821048 0.17697525 0.0062133856 -0.010915957
000140 39 29 fe 3c 23 b1 1f 3e 3f 0b 52 bc 84 24 19 be
       0.031025516 0.15594916 -0.012820064 -0.14955336
000150 03 b6 a0 bd eb 69 a6 3c e5 0b 85 3a ca 62 42 3d
       -0.07847216 0.020314177 0.001015064 0.047457494
000160 ae 67 05 be c9 80 42 bd c0 1a 3b be 71 66 20 3e
       -0.13027832 -0.0474861 -0.18271923 0.15664078
000170 c3 53 74 bd bd 29 95 bd 6d e5 f7 bd 4d ab 26 3e
       -0.059650194 -0.072833516 -0.12104306 0.16276284
000180 37 d1 9f 3c 49 69 c3 3d 83 42 0c be e1 03 00 3e
       0.019508941 0.09541566 -0.13697247 0.1250148
000190 cd 01 10 3e c1 72 bb bd b0 20 2e be 5b de 40 be
       0.14063187 -0.09152747 -0.17004657 -0.18834822
0001a0 a9 25 00 be ea fb c4 3d 43 41 ce 3c 64 a6 30 3e
       -0.12514366 0.09618361 0.025177604 0.17250973
0001b0 de a6 6d 3d dd 8c 0c be db 94 8f bd b7 4d ca bd
       0.058020465 -0.1372561 -0.07010814 -0.09878104
0001c0 51 fd 3a 3e c8 1c 1f 3e 47 32 95 3d 6d 8a 6e bd
       0.18260695 0.15538323 0.0728498 -0.05823748
0001d0 8a 8e 33 bc a4 57 76 bd 09 c6 56 3d 91 aa fb bd
       -0.010959277 -0.060142174 0.052434955 -0.12288392
0001e0 b1 e0 ff bc ff e1 9a bb 1b 73 df 3d 3b 19 1a 3e
       -0.03123507 -0.004726648 0.109106265 0.15048687
0001f0 df b7 c4 3d 9b 91 4a 3d 2a 95 b1 bd b4 ab 9e bd
       0.09605383 0.049455266 -0.08671029 -0.077475935
000200 5b c8 bd bd d0 e0 a7 bd 2c e1 14 3e 02 ef b4 bd
       -0.092667304 -0.081971765 0.14539021 -0.088346496
000210 5b 68 80 3d ff b0 ac 3c 01 ca 6d bd aa f9 06 be
       0.06269904 0.021080492 -0.058053974 -0.13181177
000220 e1 d6 dc 3d 4f 6b 19 be 91 15 10 be d7 c4 70 bd
       0.107831724 -0.14982341 -0.14070727 -0.05878147
000230 7e b2 3e be 8f 1d cf 3d f3 ed bd 3d f9 a2 f7 bd
       -0.18622777 0.1011306 0.09273901 -0.120916314
000240 e0 42 78 bd ae 69 fb 3d 92 67 05 be 96 1a c6 bd
       -0.060610652 0.12276016 -0.1302779 -0.096730396
000250 ae 4c e0 bc d2 2d b1 bd 99 67 94 3d 57 c7 af bd
       -0.027380314 -0.08651318 0.07246322 -0.08582943
000260 e6 1c 14 3e e0 a7 23 3e 95 16 61 3c 0e fb 3b 3e
       0.14464149 0.15982008 0.013738294 0.18357489
000270 0c f6 8c 3d 03 02 e9 bb 62 95 23 be 45 64 f4 3c
       0.06882867 -0.0071108355 -0.15974954 0.029832968
000280 f6 9a 2d 3d d2 8a 75 3d d2 4c 26 be dd b6 20 3d
       0.04238411 0.059946842 -0.16240242 0.039236892
000290 ce 92 1a be be a6 46 3d c2 85 a5 3d 96 cd 25 3e
       -0.15095064 0.04849886 0.08082153 0.16191706
0002a0 6f 99 e8 3d d7 3a b7 bc b0 a2 2e 3e fd 64 f2 3d
       0.1135739 -0.022366924 0.17054248 0.11835668
0002b0 fe dd 80 bd de 74 01 be 06 71 1a bd c6 78 e4 bd
       -0.06292342 -0.12642238 -0.037705444 -0.11155848
0002c0 4a 7b a4 bd d9 76 af bd 7b 8c 11 3e 14 5d 02 3e
       -0.08031328 -0.0856759 0.14213745 0.12730819
0002d0 04 4e c9 ba e9 61 b8 3d fa cb 2f 3d ba 0d e1 3d
       -0.0015358333 0.0900305 0.042919137 0.10988946
0002e0 35 72 41 3e 10 4e 99 3c 29 90 c8 3d 77 a4 f9 3d
       0.18891223 0.01871398 0.09793121 0.12189572
0002f0 c5 aa 08 bd 11 57 17 3e 4b 81 c5 bd 5d 2c b9 bd
       -0.033365984 0.14779307 -0.09643801 -0.09041665
000300 2d 0d d1 3d 9a f7 b5 bd ad 67 f8 bc 7e d0 35 be
       0.10207591 -0.08885117 -0.030322874 -0.17755315
000310 8f 30 1f 3e 7d d9 08 3e 5f 91 3a be c3 e1 92 bd
       0.15545867 0.13364215 -0.18219517 -0.07171967
000320 7d fd db bd 79 be d8 bb fb 38 35 3e 4c a5 70 3c
       -0.107417084 -0.006614503 0.17697518 0.014687847
000330 c6 2b 8a 3d 5f bd 17 3e 60 2c de bd ef 46 33 be
       0.0674663 0.14818333 -0.108483076 -0.17507528
000340 a1 ed 21 3c 98 93 20 3e ea e9 29 be ad 22 10 be
       0.009883315 0.15681303 -0.16593137 -0.14075728
000350 48 46 be ba a2 c0 7e 3d d2 d4 02 3e 52 d2 d8 bd
       -0.0014516795 0.062195428 0.12776497 -0.105869904
000360 52 ee d8 bd 4b 4c 06 be 00 ad 79 3d 95 99 18 be
       -0.10592331 -0.13115041 0.060956 -0.14902337
000370 d2 e3 21 bb 82 74 dd 3d 1e c8 ff 3c 44 7d b8 3d
       -0.0024702442 0.10813238 0.031223353 0.090082675
000380 7c 88 67 bd 8e 60 2e 3e 9e 15 79 bd 48 e6 16 3e
       -0.056526646 0.1702902 -0.06081163 0.14736283
000390 9e 47 9f 3d 8f 99 2f bd 1b 5c a2 3d 74 ef 52 3d
       0.07777332 -0.042871054 0.07927724 0.05149789
0003a0 65 71 3d 3e d8 25 98 3d aa cf fb 3d f8 a5 d9 bc
       0.18500288 0.07429093 0.12295468 -0.026568398
0003b0 66 e7 c3 3c 09 ab a2 bd ba ac 18 3e 50 c8 13 3e
       0.02391405 -0.079427786 0.1490964 0.14431882
0003c0 cf 0f 06 be 54 89 06 3e b1 87 b1 bd f8 b3 2e 3e
       -0.13091968 0.13138324 -0.08668459 0.1706084
0003d0 c1 eb 07 be 0c 7c 13 3e 0d 4a cc 3d 83 f7 30 3e
       -0.13273527 0.14402789 0.099750616 0.17281918
0003e0 e3 05 2a be aa 3f cf 3d 2b 77 55 bd 15 7f be 3d
       -0.16603808 0.10119565 -0.0521156 0.09301583
0003f0 35 b0 3a 3e d7 42 33 be a4 df 98 3d 83 8f 47 bd
       0.1823128 -0.17505966 0.07464531 -0.048720848

conv1.0.bias f4 [16]
000000 5d be 9c 3d a8 fb 64 bd dd 67 f2 bd 34 aa 32 3e
       0.076534964 -0.05590406 -0.118362166 0.1744774
000010 c5 f5 b4 3d e9 43 a9 3d 22 11 4c bd ef c4 2c 3d
       0.08835939 0.08264906 -0.049821027 0.042179998
000020 12 f0 8f bd 12 3a 60 bd ef db ae 3d 5a 3f 6b 3d
       -0.07028212 -0.05474288 0.08538043 0.057433464
000030 c3 32 26 3e 17 1b 0f 3d 5b 3a dc bc 4a 09 b2 bd
       0.16230302 0.034937944 -0.026883295 -0.08693178

conv1.3.weight f4 [16]
000000 d4 ea 7f 3f 7a 07 80 3f ca f4 7f 3f d8 e1 7f 3f
       0.99967694 1.0002282 0.99982893 0.99953985
000010 1b ee 7f 3f 50 fa 7f 3f fb d9 7f 3f bb 04 80 3f
       0.99972695 0.9999132 0.99941987 1.0001444
000020 df 04 80 3f e7 ea 7f 3f 7e f0 7f 3f 1a ca 7f 3f
       1.0001487 0.9996781 0.99976337 0.9991776
000030 3b 23 80 3f ff 0f 80 3f 02 ff 7f 3f c1 1b 80 3f
       1.0010751 1.0004882 0.99998486 1.000847

conv1.3.bias f4 [16]
000000 3e 42 52 38 05 d3 1f b9 fa 4f da b9 f6 ed 0c b9
       5.0129594e-05 -0.00015242033 -0.00041639787 -0.00013440088
000010 0d 7b 1b b9 15 1c a2 38 ae 39 a9 b8 1e 7b a3 b8
       -0.00014827792 7.729993e-05 -8.069292e-05 -7.795378e-05
000020 bd 24 7a 37 eb 3b 89 b9 72 03 18 39 6a 0b f1 37
       1.4909715e-05 -0.0002617532 0.00014497133 2.8734754e-05
000030 ff 6a e4 b8 6c 44 88 b9 d4 78 e2 b8 02 79 5a 37
       -0.00010891817 -0.0002599092 -0.00010799026 1.3021987e-05

conv1.3.running_mean f4 [16]
000000 5f 8e 71 3d ed 45 ab 3a 17 66 87 3a 4a 5c 5d 3d
       0.058973666 0.0013067104 0.0010330108 0.05404309
000010 ed 3f 10 3e 26 52 a9 3c d6 3b 94 3e 7e d0 16 3c
       0.14086886 0.020669054 0.289519 0.009204982
000020 dd 56 8a 3e 3b 6b b6 3a 51 5c ce 3d ae 77 01 3c
       0.27019396 0.0013917455 0.10076202 0.007902069
000030 90 8e 2b 3f 95 31 16 3d e2 1a 0d 3b 45 be 87 3e
       0.6701441 0.03666838 0.0021530916 0.26512352

conv1.3.running_var f4 [16]
000000 dc 34 a2 3c cb b3 96 3c fd d0 96 3c 66 76 af 3c
       0.019800596 0.018396279 0.0184102 0.021418761
000010 c9 46 a2 3c be 47 9f 3c 91 4f 60 3d 72 8d 98 3c
       0.019809144 0.019443389 0.05476338 0.018622134
000020 f5 55 51 3d b3 2e 96 3c 91 c9 9e 3c ba 37 98 3c
       0.051107366 0.018332815 0.019383224 0.01858126
000030 30 af bd 3d 7f 4e a4 3c 39 13 97 3c d7 aa 45 3d
       0.0926193 0.020056961 0.018441783 0.04825863

conv2.0.weight f4 [32, 16, 3, 3]
000000 2c 3a 1d 3d 09 ac e7 3c 02 b7 8e bd 7c d9 67 3d
       0.038385555 0.028280275 -0.069685 0.056603894
000010 70 0d 43 3a b0 ac 78 bb ae be 36 bc 0d 87 c8 3c
       0.0007440662 -0.0037944727 -0.01115386 0.02447846
000020 5d d1 85 3d 63 8a 9c bd 60 2c 77 3d 38 b5 11 bd
       0.065340735 -0.07643583 0.060345054 -0.035573214
000030 5c ca ed 3c 85 a2 60 bd a0 b4 36 bc aa db 87 bd
       0.029027157 -0.05484249 -0.011151463 -0.066336945
000040 79 6b 79 3d 1a 7b a1 bd 80 3e a1 bd 5d 0b 0f bd
       0.06089351 -0.07884808 -0.07873249 -0.034922946
000050 71 b5 f0 3c 34 a7 6e 3d 9e 7e 69 3d 5b c7 be 3c
       0.029383393 0.058264926 0.057005517 0.02328842
000060 d0 d3 84 3a c4 80 26 bd b2 bb 90 bd b8 8e 60 3d
       0.0010133926 -0.040650144 -0.0706705 0.054823607
000070 f7 c0 de 3c c8 de a9 3c b9 52 13 bc 2e ca ad bc
       0.027191622 0.020736113 -0.008991891 -0.02121457
000080 4a 56 6b bd fe 6b 84 3c 5a df a9 bd 10 c2 53 bd
       -0.05745534 0.016164776 -0.08294554 -0.051698744
000090 cb 86 7d bb 19 99 a3 bd b5 3a bf b8 37 f2 0c bd
       -0.003868508 -0.079881854 -9.118525e-05 -0.03441068
0000a0 bf da 0e 3d f7 3b a0 bd 93 fb 65 bd d8 ae 73 bb
       0.03487658 -0.078239374 -0.056148123 -0.0037183072
0000b0 0c 69 86 3d 1a 91 7a 3d 6e b6 10 bd 88 ae f3 bc
       0.06563005 0.061173536 -0.03533023 -0.029746309
0000c0 a3 74 64 bd b2 ed 1e 3d 04 49 39 3d 19 b2 3b 3d
       -0.055775296 0.038800903 0.04523565 0.045824144
0000d0 f9 ad d1 3c a0 89 4b bd c9 52 81 bd 29 cd 04 3d
       0.025595652 -0.049691796 -0.06314618 0.03242222
0000e0 17 2b a8 3d 7f ab 68 3d 90 3b 3f bc 65 08 99 bd
       0.08211344 0.056804176 -0.011671916 -0.07472304
0000f0 fd 89 6b 3d 4e 2c 10 bb 52 c1 41 3d 27 60 2e bd
       0.057504643 -0.0021999064 0.047303505 -0.042572167
000100 00 71 c5 bc b2 f7 8f 3d 0e a5 17 3d 9f e8 e9 bc
       -0.024101734 0.07029666 0.037022643 -0.028553305
000110 20 72 f2 3b ba 64 a8 3d a2 40 bb 3b 50 e7 4a 3c
       0.0073988587 0.08222337 0.005714492 0.012384251
000120 14 85 91 3c 01 37 29 3d 5f 6c 74 bd 30 93 0c 3d
       0.017763652 0.04131222 -0.059673663 0.034320056
000130 88 ed 06 3d 79 58 43 3b 8b aa 2a bd ae 03 19 3d
       0.03294137 0.0029807372 -0.04166655 0.037357025
000140 ac 5f 89 bd f2 d7 95 3a 05 9a 86 bd 05 80 a5 bb
       -0.06707701 0.0011432155 -0.06572346 -0.0050506615
000150 34 b2 41 bd a1 b3 bb bc a0 8c 89 bd 63 1c 5d 3c
       -0.04728909 -0.022912802 -0.06716275 0.013495537
000160 c3 03 6a bb 30 55 98 bd ac d5 5d 3d 6f ae 53 3d
       -0.0035707809 -0.07438123 0.05415885 0.051680025
000170 64 6f 9c bd aa 24 5c 3d 47 f2 a0 bc d2 94 eb 3b
       -0.076384336 0.053745903 -0.019646777 0.0071893716
000180 9d d4 6f bb 07 75 63 bc 15 4f a8 bd e6 90 06 bd
       -0.0036595233 -0.013882882 -0.08218209 -0.03285303
000190 a2 d5 8e 39 93 15 82 3d 18 85 0e bd 91 9b b9 3b
       0.0002724352 0.06351771 -0.034794897 0.005664297
0001a0 69 85 90 3d 0c b1 02 3d a7 78 2f 3d f0 ac 85 bd
       0.07056696 0.031907126 0.042839672 -0.06527126
0001b0 45 96 08 3d de 5d 2e bb 45 db 1b 3d 6e 20 7d bd
       0.033346433 -0.0026606242 0.03805091 -0.061798505
0001c0 75 26 85 3d 62 80 d8 bc 07 ca c5 bc 34 1c 47 bd
       0.06501476 -0.026428405 -0.024144186 -0.04861088
0001d0 58 f3 3e 3d ff 68 47 bc 77 28 82 3d 52 46 4c bd
       0.04661879 -0.012171029 0.06355374 -0.04987175
0001e0 5f b4 8b bb ee 4a a1 bd c9 b3 76 bd 6d fe 41 bd
       -0.0042634453 -0.0787562 -0.06023005 -0.04736178
0001f0 a9 17 5f 3c 29 cf 11 3c 18 7a 14 3b ed e8 03 bd
       0.013616481 0.0088994885 0.0022655781 -0.032204557
000200 9b 86 91 3c f4 22 2e bc 18 11 0a bb c9 c0 9d 3d
       0.01776438 -0.010628451 -0.0021067318 0.077027865
000210 ae 34 65 bc 4c 58 94 bd 85 b7 9c bd 46 2d 98 bd
       -0.013989611 -0.07243404 -0.07652191 -0.0743051
000220 95 55 78 bc a0 17 14 bc d4 0a c2 3c 88 70 82 bd
       -0.015157123 -0.009038836 0.023686804 -0.0636912
000230 50 6e dc bc 34 28 7a bd bb d5 78 3d 8b e2 a8 3d
       -0.02690807 -0.061073497 0.060750704 0.08246335
000240 f1 42 71 bd ab 49 52 3d 13 1d a7 3d b8 ba 31 3d
       -0.05890173 0.051339786 0.08159842 0.04339096
000250 32 9b b0 3b ad fb 25 bd fa 7d 80 3d 41 df 88 3c
       0.0053895945 -0.04052322 0.06274028 0.016708018
000260 da fe a7 bd 5a 81 6d 3d 6c c9 9e bd 1c 22 60 bc
       -0.08202906 0.057984687 -0.07753262 -0.013680007
000270 86 0a c2 bb f0 1b f4 bc e7 0b 16 3d 98 d0 19 3d
       -0.0059216646 -0.029798478 0.036632445 0.037552446
000280 f6 79 a5 bd 90 e8 8d 3d 54 91 9e 3d 58 1f 11 bd
       -0.08079903 0.069291234 0.07742563 -0.035430282
000290 da 07 12 bd e5 d0 91 3b b8 da 10 bd 1b 7e 9e 3d
       -0.03565202 0.004449951 -0.035364836 0.077388965
0002a0 9d 8d 8c 3d 16 0e 38 bc dd 2d 06 bd 4a ed 5c bd
       0.06862948 -0.011233827 -0.032758582 -0.053937234
0002b0 c4 84 30 3d 24 66 54 3c 57 63 91 bd 6b e8 0a bd
       0.043095365 0.012963805 -0.07099026 -0.033913057
0002c0 6d c0 17 bd 68 78 00 3d 8a 8c fd 3c 64 d1 6e bd
       -0.037048746 0.03136483 0.030950803 -0.05830516
0002d0 e3 5b 21 3d 1e 78 82 3d b7 30 96 bd e0 8e a6 bc
       0.03939427 0.06370567 -0.0733351 -0.0203318
0002e0 69 b9 9c bd 89 e7 9e 3d 10 7b 16 bd c6 ed 0e 3d
       -0.07652552 0.077590056 -0.036738455 0.034894727
0002f0 d8 e4 9b 3d 16 d2 91 3d e2 75 6e 3c 7d 9b ac 3c
       0.07612008 0.07120149 0.014554473 0.021070236
000300 68 9b 48 3d 8f 46 a1 bd c8 9a c9 bb 25 6a 89 3d
       0.048976332 -0.07874786 -0.0061524846 0.067096986
000310 31 02 86 bc 27 bf de 3c b9 ef e0 3c ac ea 88 bd
       -0.016358467 0.027190758 0.027458059 -0.06685385
000320 e3 3a ec ba 75 28 8e bd 27 bd ab 3b d4 56 b2 3c
       -0.0018022921 -0.0694131 0.0052410546 0.021769919
000330 68 b0 31 3d 8d 7a 67 bc 53 8f a6 3c 23 c9 ab 3b
       0.043381125 -0.0141283395 0.020332014 0.005242483
000340 02 54 5c bd 85 64 84 3d b1 58 94 bd fd 99 09 bd
       -0.053791054 0.06464485 -0.07243479 -0.03359412
000350 90 cc 0b 3d 7e dc 4c 3d b2 25 3d bd d6 5e 8f bd
       0.034130633 0.050014965 -0.046178527 -0.070005104
000360 df dc 40 bc e8 d5 54 bd 1c 4c 83 3d eb 20 03 3d
       -0.01177141 -0.05196181 0.06411001 0.032013815
000370 71 c1 a3 bd b3 d2 21 bd 3b 80 ce 3b cf af 94 3d
       -0.079958804 -0.03950758 0.0063019074 0.07260095
000380 d3 79 97 3c c4 2e 82 bd 73 3c 95 bd 4e 75 d1 bc
       0.018490708 -0.06356576 -0.072869204 -0.02556863
000390 3d 67 07 bc a9 5c 26 bd 08 d7 0f bd 1b f3 68 bd
       -0.00826436 -0.04061571 -0.03511718 -0.05687247
0003a0 48 64 43 bd 07 78 a2 bc 5d 0e 99 bd db 8b 69 3d
       -0.047703058 -0.019832624 -0.07473443 0.057018142
0003b0 ec db 20 3b 98 09 cf 3c 82 df a8 3d 6b fa 47 bd
       0.0024545146 0.02527313 0.08245756 -0.0488228
0003c0 93 22 b7 3c 25 df 77 3c 30 fd 19 bc 23 32 a2 bc
       0.022355353 0.015128885 -0.0093987435 -0.019799298
0003d0 3d 42 27 bb 4e 54 6c bd 66 fa 92 bd 2b 9a 73 3d
       -0.0025521659 -0.057697587 -0.07176666 0.059473198
0003e0 da fe ba 3c 87 67 50 3c b0 50 8d 3c b0 3c cc bc
       0.0228266 0.012719995 0.017250389 -0.024931282
0003f0 29 58 1f bd f5 14 26 3d fe a3 ad 3c 07 71 35 3d
       -0.038902435 0.04054733 0.021196362 0.044297244

conv2.0.bias f4 [32]
000000 e7 6c 94 3d 25 2b 64 3d 93 df 2c 3d 0e 43 18 3d
       0.07247334 0.05570521 0.042205404 0.037173323
000010 bc 23 43 3d f0 e9 b1 bc 7d 5b 6b bd 32 2a 1c bd
       0.0476415 -0.021717995 -0.057460297 -0.038126178
000020 78 5e 94 bd b5 ed 9d 3d 19 6b 86 bd 75 bc b8 bc
       -0.07244581 0.07711355 -0.06563396 -0.0225508
000030 37 8d b3 bc ce ad d4 3c b1 92 80 3d 4d c5 a4 3c
       -0.021917922 0.025961783 0.06277979 0.020113612
000040 7c 9e 64 3d 90 15 86 3d 19 a8 2b bd a2 f3 6c 3c
       0.055815205 0.065470815 -0.041908357 0.014462383
000050 59 64 a5 bd 9b 85 37 3c df f7 4d bd 1c 39 4f 3d
       -0.080757804 0.011201288 -0.050285216 0.050591573
000060 88 4b 7b 3d e8 5b 91 bd 9a 5b aa bd e1 fd 66 bd
       0.06135133 -0.07097608 -0.08318253 -0.05639446
000070 0f 7f 57 3d 9b 55 89 3d a9 d4 ab 3b b4 07 94 bb
       0.052611407 0.06705781 0.005243857 -0.00451752

conv2.3.weight f4 [32]
000000 f0 0c 80 3f d3 ff 7f 3f e2 07 80 3f d5 04 80 3f
       1.0003948 0.9999973 1.0002406 1.0001475
000010 2f 10 80 3f 46 05 80 3f d8 00 80 3f 4b ff 7f 3f
       1.0004939 1.0001609 1.0000257 0.9999892
000020 18 f5 7f 3f 6e e3 7f 3f 7c 10 80 3f 7d 0c 80 3f
       0.9998336 0.99956405 1.0005031 1.0003811
000030 2c f1 7f 3f f7 ea 7f 3f fe f8 7f 3f 0b 0c 80 3f
       0.99977374 0.999679 0.99989307 1.0003675
000040 a3 07 80 3f 99 fd 7f 3f 9f e0 7f 3f 34 e0 7f 3f
       1.000233 0.99996334 0.9995212 0.9995148
000050 ed e4 7f 3f 70 f7 7f 3f d7 00 80 3f 81 06 80 3f
       0.9995869 0.99986935 1.0000256 1.0001985
000060 29 05 80 3f c9 06 80 3f db 07 80 3f 23 06 80 3f
       1.0001575 1.0002071 1.0002397 1.0001873
000070 53 eb 7f 3f 73 0c 80 3f 7b 0e 80 3f aa 0b 80 3f
       0.9996845 1.0003799 1.0004419 1.000356

conv2.3.bias f4 [32]
000000 8c 4e 59 b9 5c 38 28 ba 9a d8 9f ba 21 1b 94 ba
       -0.00020723994 -0.00064170896 -0.001219529 -0.0011299589
000010 44 26 ab ba 43 0e 08 ba 8c 76 2f b8 9b d5 a9 3a
       -0.0013057669 -0.00051901134 -4.1833657e-05 0.0012957336
000020 39 87 d7 b9 12 08 98 b9 c8 35 a7 ba 42 3f 9e b9
       -0.00041108744 -0.00028997712 -0.0012757117 -0.0003018324
000030 b3 9d 26 ba 16 b3 07 b9 26 32 9d 39 10 6b 9b b9
       -0.00063558965 -0.00012941318 0.00029982737 -0.00029643672
000040 54 f4 ae 3a 29 11 0f 3a 64 77 04 3a 85 2c cf 39
       0.0013347962 0.0005457574 0.0005053191 0.00039515286
000050 16 6a ba 3a e3 7f db b9 5f 2c 9a 3a da ea 5a 3a
       0.001422229 -0.00041866218 0.0011762491 0.00083510356
000060 d3 7a 81 b9 bc 52 36 b8 30 b5 55 39 eb 50 30 3a
       -0.00024696309 -4.3469234e-05 0.0002038076 0.0006725925
000070 31 7e 37 ba eb e2 70 ba 3f f9 3b ba 04 55 8e ba
       -0.00069997 -0.0009189087 -0.00071706244 -0.0010859077

conv2.3.running_mean f4 [32]
000000 05 ac 5a 3e 1b d2 c7 3e 89 97 61 3e ab 16 aa 3e
       0.21354683 0.39027485 0.22030462 0.3322042
000010 20 df 90 3e 50 85 8a 3e c1 25 8d 3e c8 ed 48 3e
       0.2829523 0.27054834 0.27567866 0.19621956
000020 ed ab 24 3e c7 b7 8f 3e 1a e1 b2 3e b7 aa 5f 3e
       0.1608121 0.28069898 0.34937364 0.21842466
000030 a7 23 19 3e 93 ed 85 3e ce e0 82 3e ea 9a 9c 3e
       0.14955007 0.26157817 0.25562137 0.3058694
000040 8c 6d 80 3e cc 71 7d 3e c6 a3 5f 3e 51 79 8d 3e
       0.25083578 0.24750441 0.21839818 0.2763162
000050 d2 ba 92 3e e3 e8 af 3e 56 d5 1a 3e 51 fd 99 3e
       0.28658158 0.34357366 0.15120444 0.30076078
000060 34 db ca 3e c8 3f 1d 3e f2 80 6a 3e 4b c4 56 3e
       0.39620364 0.15356362 0.22900751 0.20973317
000070 89 82 b7 3e be 1f 90 3e 2d fc 5e 3e 10 b9 83 3e
       0.35841778 0.28149217 0.21775885 0.2572713

conv2.3.running_var f4 [32]
000000 e7 83 83 3d d4 8f 86 3e 4a 5d 59 3e aa 14 19 3e
       0.06421643 0.26281607 0.21226993 0.14949289
000010 05 7b 3d 3e 55 64 9c 3e ab ea 55 3e 7d 5b 14 3e
       0.1850396 0.30545297 0.208903 0.14488025
000020 fc 88 6f 3e 35 f4 87 3e 05 93 97 3e c0 c0 c8 3d
       0.23392099 0.26553503 0.29604355 0.09802389
000030 c0 0e 06 3e f3 22 3d 3e 4b a7 04 3e fd bd 2b 3e
       0.13091564 0.18470363 0.12954442 0.16771694
000040 f8 14 ce 3d 83 d8 1f 3e 02 a7 52 3e 66 0e 17 3e
       0.10062593 0.15609936 0.20571521 0.14751586
000050 c8 e4 9c 3e 95 a9 da 3e 68 58 b7 3d 00 b1 04 3e
       0.30643296 0.42707506 0.08952409 0.12958145
000060 91 c9 60 3e 86 e0 a9 3d dc 4e 0e 3e cd a6 c9 3d
       0.21951891 0.082947776 0.1389727 0.09846268
000070 b1 0e 84 3e f0 c5 e1 3d 31 5b 4b 3e 0f 0b 86 3e
       0.2579246 0.11024082 0.19859006 0.26180312

conv3.0.weight f4 [64, 32, 3, 3]
000000 5f 15 9a 3b 79 00 6a 3d 31 44 ae bc d0 15 15 bd
       0.0047022547 0.057129357 -0.02127275 -0.036397755
000010 9a 05 c3 bc 94 40 4a bd 89 2e 54 bc ea d3 3a 3d
       -0.023806382 -0.049377993 -0.012950548 0.045612253
000020 5c 62 02 ba 9c 08 ab bc 57 31 6b bd f6 5a 67 3d
       -0.0004973763 -0.020878129 -0.0574201 0.05648323
000030 b7 c9 44 3c 8a 25 ec 3c 53 23 fa bc 48 fa 8b 3c
       0.012010983 0.028826494 -0.030534422 0.017087117
000040 39 3f b2 bb d6 ac 28 bc f0 09 f9 bc 81 36 0b 3d
       -0.0054396656 -0.010295114 -0.030400246 0.033987526
000050 6a d9 d5 bc bc 1e 60 3d b0 0c 3f 3d 5d 80 0d bd
       -0.026104648 0.05471681 0.04664296 -0.034546245
000060 3d eb af 38 1c db 57 bc fc 3c 06 bd e6 01 0a 3d
       8.388467e-05 -0.013174798 -0.032773003 0.033693217
000070 2e c0 05 bc 60 ad 4c 3c ae 68 28 3d 9c 65 e2 bc
       -0.008163495 0.012492508 0.041115455 -0.027636342
000080 74 f9 2c 3b 41 f1 52 bd 84 8f 36 bd 26 94 4e 3b
       0.0026393803 -0.05149961 -0.04457046 0.0031521409
000090 04 f0 2e bd a3 42 20 3d 60 81 73 3c 9b aa da 3c
       -0.042709365 0.03912605 0.014862388 0.02669268
0000a0 1e a4 1b bd 52 1a 3d 3d 50 f5 1e bd cd 79 51 bc
       -0.03799831 0.04616768 -0.038808167 -0.012785387
0000b0 e6 43 fa 3a 4d 2a 1a 3d ed 19 67 3d 8e 2d 92 3c
       0.0019093722 0.037637997 0.05642121 0.017843988
0000c0 36 20 65 bd 37 a8 56 3d a3 0c 1c bd 59 4a 9e bc
       -0.055938922 0.052406516 -0.03809799 -0.019322561
0000d0 41 e4 44 3d 6e c9 14 3d 46 3f cf bb 3e c0 15 3d
       0.048069242 0.03632491 -0.0063246815 0.03656029
0000e0 88 0a 13 bc 22 cd 19 bc aa e1 66 bd d9 94 87 bb
       -0.008974679 -0.009387286 -0.056367554 -0.004137617
0000f0 10 ca db bb 8b 10 32 bc 3e 5b 3f bd eb d1 08 bd
       -0.0067074373 -0.010868202 -0.046717875 -0.03340332
000100 56 68 4b bd 08 83 0d bd 9c f2 01 3c ae 9c 5f 3d
       -0.04966005 -0.03454879 0.007931378 0.05459278
000110 62 be 2e bd 92 76 23 3d 83 79 2e bd d6 b8 0c 3c
       -0.042662032 0.039908 -0.04259635 0.00858899
000120 cc 9d 36 3d 96 ef 4e 3d ec 9a b9 3c 29 6b 4c bd
       0.04458408 0.050521456 0.02265688 -0.049906883
000130 68 f4 6a 3d 73 d5 03 bd bf f2 05 3d 9e 19 f1 3c
       0.05736199 -0.032185983 0.032702204 0.02943116
000140 71 8b e2 bc 7c f7 4c 3d 7f cf 2b 3d b3 b1 50 3d
       -0.027654381 0.050040707 0.04194593 0.050950717
000150 cf 03 14 3c 7e 75 5c 3d 3b a0 2e bd 21 4b 14 3d
       0.009034111 0.053822987 -0.042633276 0.03620446
000160 7e ad 32 3d db f9 3a bb c2 41 83 bc 39 74 6e bc
       0.043622486 -0.0028530273 -0.016022567 -0.014554077
000170 67 6d 2a 3d bf 67 33 bc 59 e4 f9 3c 2a 24 d0 bc
       0.04160824 -0.010950028 0.030504392 -0.02540787
000180 cd d8 4a bd 90 9b 58 3d d4 f6 ea bc 4e 6a b8 3b
       -0.049523164 0.05288273 -0.02868215 0.005627907
000190 d6 31 47 3d 51 a6 45 3d 09 e1 67 3d 0e 5e 2a 3d
       0.04863151 0.048254315 0.056611095 0.041593604
0001a0 10 63 70 bb 32 da dc 3c 96 3c 09 3d ad 34 1d bd
       -0.003668014 0.026959512 0.033505045 -0.038380314
0001b0 ea aa 51 3d b3 f3 11 3d 95 73 b8 bc 07 5a 52 bd
       0.051188387 0.0356328 -0.022516051 -0.051355388
0001c0 f7 3e 5b 3d 9f bd fe 3b fc 53 d5 bc 4d 79 28 bc
       0.053526845 0.0077740694 -0.026041023 -0.010282827
0001d0 cd 45 47 3d 24 4e 5b 3d 4e 84 7e 3c 32 18 9b bc
       0.04865055 0.053541318 0.015534474 -0.018932436
0001e0 ee 55 75 3c db 81 56 bd cd ad 0c bd b4 4b a6 bc
       0.0149741005 -0.052369934 -0.034345437 -0.02029977
0001f0 e7 86 eb bc 66 f4 ce 3c 2e 5c 39 bd 9d fd 5c 3d
       -0.02875085 0.025263023 -0.045253925 0.053952802
000200 29 51 0f 3d 2a 68 a5 bb 7b c2 26 3d c3 e4 ae bb
       0.03498951 -0.0050478177 0.040712815 -0.005337329
000210 f6 ca 63 bd 03 0a 2d 3d 6f 02 a4 bb 32 6e 4b bd
       -0.05561348 0.042245876 -0.005005173 -0.049665637
000220 c2 a5 34 bd af 10 43 3d de 85 33 bd 2d 14 57 3d
       -0.04410339 0.047623333 -0.043828838 0.052509475
000230 4e 85 19 bd ca ae 0f bd 72 3f ea 3c 19 15 50 3d
       -0.037480645 -0.0350788 0.028594706 0.05080137
000240 18 64 7b bc e1 ce 80 3b 49 df b8 3b 2e 1a 75 3b
       -0.015343688 0.003930912 0.005641852 0.0037399638
000250 71 1b 62 ba 36 20 1c 3d 59 7f b2 bc d0 ba 53 3c
       -0.0008625305 0.038116656 -0.02178924 0.012922958
000260 8d 62 ed 3c f6 6a 8a 3a 8f ba d5 3c d7 26 de 3b
       0.028977657 0.0010560441 0.026089935 0.0067795324
000270 19 36 21 bd df d7 1a bd 1c 75 0d bd 40 14 18 bd
       -0.039358232 -0.037803527 -0.034535512 -0.037128687
000280 07 40 c9 bc 82 e5 e2 bc ca bf 39 bd a9 95 11 bd
       -0.024566663 -0.027697328 -0.04534892 -0.035543118
000290 a5 52 2a bd aa 09 94 3c 8d 28 6b bd 46 bc 21 3d
       -0.041582722 0.018071014 -0.05741172 0.039486192
0002a0 73 c5 85 bb a0 b6 9c 3c 40 0a 0c 3d a5 13 c7 3c
       -0.0040823757 0.019130051 0.034189463 0.02430136
0002b0 d3 2d b9 bc 05 56 19 bd e8 b1 35 bd 2b c9 38 bd
       -0.022604859 -0.03743555 -0.044359118 -0.045113724
0002c0 2a ac 5a 3c 44 97 2e 3c 27 fc 0a 3d 82 fd 57 bc
       0.013346711 0.010656182 0.033931877 -0.013183
0002d0 cd 8e 32 3d bc 1c 6f bc 0d c4 af 3c cd 70 ed bb
       0.043593217 -0.014594253 0.021455789 -0.007246113
0002e0 d8 a7 46 3d fc 74 4d bd 2c b8 1b 3d a5 37 ca bc
       0.048499912 -0.050160393 0.038017437 -0.024684737
0002f0 c4 dc 6d bd 0d 50 1d bc 09 80 63 bc c5 ac 3a bd
       -0.058071867 -0.009601605 -0.013885506 -0.045574922
000300 06 35 29 3d 9c b3 56 bd 81 d5 63 bd 16 9e 38 bc
       0.041310333 -0.052417383 -0.055623535 -0.011268159
000310 6e c5 c0 bc df 37 1a 3d fe 3b 32 3c 5d 39 64 3d
       -0.023531642 0.03765094 0.010878561 0.05571877
000320 a1 ca 07 3d 47 86 64 bd 43 db 0e 3d 92 b3 52 3c
       0.033152226 -0.05579212 0.034877073 0.012860196
000330 6e c9 66 bb 71 b9 9e 3c c4 70 26 bd 52 bd eb 3c
       -0.0035215276 0.019375535 -0.040634885 0.028776798
000340 0e ca 34 bd 7d 5d 99 3b 58 de 66 bd 29 40 3f bc
       -0.044138007 0.004680334 -0.056364387 -0.011673012
000350 57 69 4c bd ec eb c4 bb df 06 41 bd cf 01 2f 3d
       -0.049905147 -0.0060095694 -0.047125693 0.042726334
000360 d0 45 58 bc b1 2f c8 bc c2 a6 38 bd eb 6e 57 3d
       -0.013200238 -0.024436804 -0.045080908 0.052596014
000370 d1 c1 1d 3d eb a9 b4 3c cb d6 22 3c 0e c5 15 bc
       0.038514916 0.02205368 0.009938906 -0.00914122
000380 58 fb c9 3c 67 3e 69 3d e8 b3 c9 3b d1 1a 3e bd
       0.024655983 0.056944277 0.0061554797 -0.046412293
000390 a6 c1 e2 3c e9 3d 1e bd 45 29 e5 3c 96 c7 bf 3b
       0.02768023 -0.03863326 0.02797378 0.00585265
0003a0 92 76 29 3d 42 55 c0 3c 36 2f 63 3d 32 7d f7 bb
       0.041372843 0.023478154 0.055464946 -0.0075527662
0003b0 d0 34 dc bc 56 18 1a bd 6a cd d7 3c 07 80 6c 3d
       -0.026880652 -0.037620865 0.026343066 0.057739284
0003c0 45 43 c9 bc 8d 12 41 3c 98 d5 ef 3c 0c 29 31 3c
       -0.02456821 0.011784208 0.029276654 0.010813009
0003d0 ca 89 85 3b 87 69 a1 3b d7 af 5b 3d 7f ac cb bc
       0.0040752636 0.00492591 0.05363449 -0.024862526
0003e0 73 77 07 bd 5d 28 11 bd 21 2f 4d 3d fb 18 bf 3c
       -0.0330729 -0.035438884 0.050093774 0.023327341
0003f0 65 10 1e 3c e6 9b bf bc f2 ca 6b bc a9 81 5f bc
       0.009647463 -0.023389768 -0.014391648 -0.013641753

conv3.0.bias f4 [64]
000000 64 c0 5e ba fe f4 0d bd 6a d7 63 bd 00 13 ed bc
       -0.00084972964 -0.03465747 -0.055625357 -0.028939724
000010 46 1c 05 bd 53 9f e2 3c 69 38 0d bd 18 3b 71 bd
       -0.032497667 0.027663862 -0.034477625 -0.058894247
000020 71 df 24 3d fa 1c 50 bd c1 e3 19 bd 17 68 5b bc
       0.040252153 -0.050808884 -0.03757072 -0.013391516
000030 07 8d f8 3c d1 49 ee 3c 7c 7b 17 3c 49 f2 81 3b
       0.030340685 0.029087933 0.00924575 0.00396565
000040 4d 09 43 bd ea e5 64 bd 52 67 df bc 5a 78 3a bd
       -0.04761629 -0.055883326 -0.027270947 -0.045524932
000050 d7 f0 00 3c 34 de 9a ba 1c 60 1c 3d 73 82 5b bd
       0.007869921 -0.0011815489 0.038177595 -0.053591203
000060 c0 10 fb 3b d5 0d f2 3c 9f 60 24 3d 83 17 ed bc
       0.007661909 0.029547611 0.040131208 -0.028941875
000070 21 bb 16 3a f7 9b 59 bd 95 d6 16 3d 45 14 73 3c
       0.000574993 -0.053127255 0.036825735 0.014836376
000080 c1 26 f6 bc d3 27 08 3b 28 5c 20 3d 6c 04 2f 3d
       -0.030047776 0.002077569 0.039150387 0.042728826
000090 ca b2 ca bb 6f 9e 09 bd 62 7e 4a bd a1 f4 25 bc
       -0.006185864 -0.03359836 -0.049436934 -0.010129125
0000a0 bc 59 36 bd 63 78 2a bd e0 92 38 3d b1 44 2c 3d
       -0.04451917 -0.041618716 0.045061946 0.042057697
0000b0 9b b8 49 bb c1 5f af 3c 8c f4 8a 3c 3b d8 c8 3c
       -0.00307802 0.021407964 0.016962312 0.02451717
0000c0 ed 5e 37 3d ec ee e4 bc 2a 79 a7 3b 53 18 c2 bc
       0.044768263 -0.027945958 0.0051108794 -0.02369324
0000d0 52 e4 53 3d be de 9f 3c 7b c6 26 bd 88 f1 23 3d
       0.051731415 0.019515391 -0.04071663 0.040025264
0000e0 e9 6e ff bc 0d a1 3d bd 3d 2b ad 3c 62 f8 13 bd
       -0.031180816 -0.046296168 0.021138782 -0.03612555
0000f0 0d e8 0e 3d d7 ef 0f bd 7a 38 64 3d ac 6c 27 bd
       0.03488927 -0.03514084 0.055717923 -0.040875122

conv3.4.weight f4 [64]
000000 64 fe 7f 3f 79 04 80 3f 1f fe 7f 3f 70 02 80 3f
       0.99997544 1.0001365 0.99997133 1.0000744
000010 9f 01 80 3f a5 01 80 3f 1c fb 7f 3f d5 00 80 3f
       1.0000495 1.0000502 0.9999254 1.0000254
000020 05 fe 7f 3f 8b 00 80 3f f1 00 80 3f 8d 00 80 3f
       0.9999698 1.0000166 1.0000287 1.0000168
000030 9b fe 7f 3f 20 02 80 3f 60 01 80 3f f3 01 80 3f
       0.9999787 1.0000648 1.000042 1.0000595
000040 00 fb 7f 3f de f4 7f 3f 79 ff 7f 3f ee 00 80 3f
       0.9999237 0.9998301 0.99999195 1.0000284
000050 10 00 80 3f c4 00 80 3f 85 01 80 3f 84 f9 7f 3f
       1.0000019 1.0000234 1.0000464 0.99990106
000060 a1 02 80 3f 59 fd 7f 3f 11 01 80 3f c9 01 80 3f
       1.0000802 0.9999595 1.0000325 1.0000545
000070 55 03 80 3f 81 fd 7f 3f 03 fe 7f 3f fe 05 80 3f
       1.0001017 0.9999619 0.99996966 1.0001829
000080 2e fe 7f 3f 03 01 80 3f 04 fe 7f 3f 89 fd 7f 3f
       0.9999722 1.0000309 0.9999697 0.9999624
000090 26 00 80 3f b3 ff 7f 3f f9 fd 7f 3f 4c ff 7f 3f
       1.0000045 0.9999954 0.99996907 0.9999893
0000a0 cc ff 7f 3f 39 fc 7f 3f 43 fe 7f 3f c9 fa 7f 3f
       0.9999969 0.99994236 0.9999735 0.9999204
0000b0 b2 fb 7f 3f a2 00 80 3f ea fb 7f 3f ee ff 7f 3f
       0.9999343 1.0000193 0.99993765 0.9999989
0000c0 3c ff 7f 3f 91 fe 7f 3f fd 01 80 3f 4d 01 80 3f
       0.9999883 0.9999781 1.0000607 1.0000397
0000d0 83 00 80 3f 6e 00 80 3f 23 00 80 3f 90 f9 7f 3f
       1.0000156 1.0000131 1.0000042 0.9999018
0000e0 b8 02 80 3f 53 fd 7f 3f fd 00 80 3f 1f f9 7f 3f
       1.000083 0.9999592 1.0000302 0.99989504
0000f0 d8 01 80 3f 20 ff 7f 3f 56 ff 7f 3f f1 ff 7f 3f
       1.0000563 0.99998665 0.99998987 0.9999991

conv3.4.bias f4 [64]
000000 d3 94 4e ba 10 9a 1b ba 53 5f 6d 3a 21 fa d7 39
       -0.0007880453 -0.0005935738 0.0009055037 0.00041194356
000010 c6 29 9e b9 60 93 48 3a ba d3 20 ba 5f 6d e4 b8
       -0.00030167232 0.0007651355 -0.00061350653 -0.00010892259
000020 e1 61 3e 3a e8 91 47 b8 bb 4b fe 38 93 87 8f ba
       0.000726251 -4.7581183e-05 0.0001212577 -0.0010950438
000030 86 ba ad ba 07 ee cf 3a 01 84 a0 3a cf d7 69 3a
       -0.0013254441 0.0015863784 0.0012246371 0.00089204026
000040 6c fa 75 b9 de ba 49 ba 77 38 ce 3a dd d3 68 b9
       -0.0002345831 -0.0007695387 0.001573338 -0.0002220417
000050 78 e1 23 ba 10 b3 54 3a d6 14 82 3a 66 96 cf b9
       -0.0006251554 0.00081138406 0.0009924422 -0.00039594172
000060 e6 7d 0e 3a 83 9b 61 ba 56 e4 cb 39 c2 f1 d4 b9
       0.00054356304 -0.0008606242 0.000388893 -0.00040615915
000070 0b f0 3e 3a b0 cd 33 38 eb 5e 50 ba cb 26 6d 39
       0.0007283694 4.2868487e-05 -0.0007948714 0.00022616533
000080 83 79 08 39 84 04 fc 39 ce 9a 2a 3a 38 38 59 ba
       0.00013015237 0.0004806855 0.0006508053 -0.00082862703
000090 10 f4 1a 39 80 41 4b 3a 81 fa 42 3a b9 0f 6f 39
       0.00014777505 0.0007753596 0.00074378407 0.00022798673
0000a0 15 51 a6 3a 96 70 01 3a 60 ce 9a 39 e7 b7 44 3a
       0.0012688959 0.0004937736 0.0002952693 0.000750421
0000b0 d8 5d 2f 38 ad 9b 8c 3a 5a 36 9f ba d3 69 9d 3a
       4.181065e-05 0.0010727547 -0.0012146935 0.0012009687
0000c0 67 37 ac 3a be 32 15 ba 4f 01 2b 3a 78 22 6e ba
       0.001313907 -0.000569146 0.00065233273 -0.0009084116
0000d0 93 2a 7c 3a f0 b6 00 ba 1d 29 08 39 26 c9 e7 b9
       0.0009619381 -0.00049100723 0.00012985287 -0.0004420962
0000e0 6a 92 d8 b8 b0 51 7c 3a 70 7a b0 b8 cc 72 87 3a
       -0.00010326954 0.00096252095 -8.41514e-05 0.0010333895
0000f0 4e 2e 40 39 23 49 a7 ba 6d 45 98 39 e6 fb 64 ba
       0.00018327797 -0.0012762885 0.00029043425 -0.00087350456

conv3.4.running_mean f4 [64]
000000 e8 cd c9 3e f2 ac a8 3e 6b d9 ae 3e b2 1a ab 3e
       0.39414907 0.32944447 0.34150252 0.33418804
000010 36 17 3a 3e 57 aa bc 3e 2f 07 21 3e 2d 5c 0c 3e
       0.18172917 0.3684871 0.15725397 0.13707037
000020 fa 85 95 3e ef 47 a8 3e 9f 4d 8e 3e 3e 8f ad 3e
       0.29203779 0.3286738 0.27793595 0.33898348
000030 96 c3 dc 3e 61 2c bc 3e 44 d8 68 3e 88 ff c0 3e
       0.4311797 0.36752608 0.22738749 0.37694955
000040 1a e6 65 3e 42 19 75 3e 38 64 62 3e 00 35 bb 3e
       0.22451058 0.23935416 0.22108543 0.36563873
000050 92 f2 a7 3e d3 44 39 3e f4 95 83 3e 05 1e 34 3e
       0.32802254 0.1809266 0.25700343 0.17589577
000060 33 02 23 3e 54 cb 36 3e 26 d2 98 3e b5 a7 4f 3e
       0.15918808 0.17851001 0.2984783 0.20278819
000070 d7 f1 8e 3e 13 3a 8b 3e 2e 4e c9 3e 04 e4 be 3e
       0.27918884 0.27192745 0.3931746 0.37283337
000080 8a 24 8f 3e be 40 52 3e 5d 8a c5 3e b8 60 ad 3e
       0.27957565 0.2053251 0.38582125 0.33862853
000090 82 63 26 3e 76 a7 be 3e 7a df 97 3e 1d 8b 2f 3e
       0.16248897 0.37237138 0.29662687 0.17142911
0000a0 ac 82 ca 3e a4 e7 df 3e 15 ae 4d 3e f4 7c d4 3e
       0.3955282 0.43731415 0.20085938 0.41501582
0000b0 46 3b 8d 3e 9c c5 42 3e 52 37 9a 3e 88 33 dc 3d
       0.27584285 0.19020694 0.3012033 0.10752016
0000c0 b8 d4 53 3e 91 07 d3 3e 43 32 93 3e 20 ee a1 3e
       0.20686615 0.4121671 0.28749284 0.31626987
0000d0 fa a7 2f 3e c7 8f c9 3e c6 86 67 3e 6a 03 e1 3e
       0.17153922 0.39367506 0.22610006 0.43947917
0000e0 8e 20 b3 3e 95 f6 e3 3e 76 88 c4 3e 47 f3 87 3e
       0.34985775 0.44524065 0.3838536 0.26552793
0000f0 04 b9 91 3e 16 37 33 3e 6f e0 70 3e cf 52 54 3e
       0.28461468 0.17501482 0.23523115 0.20734714

conv3.4.running_var f4 [64]
000000 24 aa 34 3f ef f0 e2 3e 21 36 04 3f 1e 33 ed 3e
       0.70572114 0.44324443 0.51645094 0.46328062
000010 4e 18 29 3e e6 6b 6b 3f c0 55 b4 3e da 1d 2b 3e
       0.16513178 0.91961515 0.35221672 0.16710606
000020 22 08 87 3e ae 19 ae 3e ea b2 e6 3e 0d 59 c8 3e
       0.26373392 0.34003967 0.45058376 0.3913044
000030 73 b9 7e 3e 75 4f 7a 3f 4a 09 8c 3e 39 2d 95 3e
       0.24875431 0.9777749 0.27350837 0.29136065
000040 0d 8f c0 3e 9b 8e fb 3e ad e5 84 3e b2 d0 db 3e
       0.3760914 0.49132237 0.2595648 0.4293266
000050 a5 5a 35 3e e3 ff da 3d 16 26 15 3f a3 29 66 3e
       0.1771036 0.10693338 0.5826124 0.2247682
000060 89 a0 53 3e 61 bf f8 3d fa fb 5a 3e 20 cf 17 3e
       0.20666708 0.12145878 0.21385184 0.14825106
000070 40 8b 15 3f 60 a4 4f 3e 74 a3 ac 3e cc 57 17 3f
       0.58415604 0.20277548 0.33718455 0.5911834
000080 3b d2 81 3e e0 51 7e 3e a1 81 73 3e 0d 26 aa 3e
       0.25355706 0.2483592 0.23779918 0.33232155
000090 3c 79 6e 3e ae 66 62 3f c5 f3 35 3f 47 12 09 3e
       0.23288435 0.88437927 0.7107509 0.13385879
0000a0 5b d7 c5 3e b6 37 9c 3f 3d 42 0a 3e 72 72 d3 3e
       0.38640866 1.2204502 0.1350183 0.41298252
0000b0 0c 96 39 3f ab b5 b7 3e a7 12 0e 3f 88 7a 02 3e
       0.7249458 0.3588079 0.5549721 0.12742054
0000c0 db d4 8e 3e 0b 5f c4 3e 4d 2b da 3e ee 62 d3 3e
       0.2789677 0.38353762 0.4261116 0.41286415
0000d0 1d 5a 4e 3e 64 e9 21 3f 65 92 ec 3e 07 74 16 3f
       0.20151563 0.6324675 0.4620544 0.58770794
0000e0 4f f6 8b 3e 6d fe 31 3f 86 cf 3e 3f 3d 59 10 3f
       0.27336356 0.6952885 0.74535406 0.56386167
0000f0 2b 94 f8 3e ab dd d2 3d f0 3c a7 3e 9f f7 63 3e
       0.48550543 0.10296186 0.3266368 0.22262429

fc.0.weight f4 [32, 64]
000000 56 4c e6 bd aa a3 fb bd 36 b9 50 3d 27 57 50 3d
       -0.11245029 -0.12287076 0.05095788 0.050864365
000010 6e 91 a1 bd 67 e5 e9 bb c6 49 8b 3d 71 2d 2c bd
       -0.07889067 -0.0071379426 0.068011805 -0.042035524
000020 4c 24 d7 3d a4 91 63 bc 08 c6 96 bd db c8 3b bd
       0.1050497 -0.013889704 -0.0736199 -0.045845848
000030 71 5b e5 bd 87 12 e4 3d bc 82 bd 3d 50 ff c2 bd
       -0.11199082 0.11136346 0.09253451 -0.09521353
000040 9b c4 9c 3d 95 6e 99 3d a2 1c 62 bc b1 c7 4f 3b
       0.07654687 0.07491795 -0.013800772 0.0031704719
000050 67 7a a7 bd ec 99 28 3d 51 6b dd bd 41 f5 9a 3c
       -0.08177643 0.041162416 -0.108114846 0.018915774
000060 e6 ac 6b 3d 22 8a f2 3d 43 20 ed bd 26 db 35 3b
       0.057537936 0.11842753 -0.11578419 0.002774903
000070 6c e6 58 bd a0 2c ea bd a8 f9 78 3d e7 9a 6f bd
       -0.052954122 -0.11434293 0.060784966 -0.058497336
000080 8b bd b5 bd ff 65 cc bd 24 78 84 3d b3 6b 25 bb
       -0.08874043 -0.09980392 0.064682275 -0.0025241196
000090 99 ba 81 bd 11 93 41 bc 7a 3e a6 3d e7 19 43 bd
       -0.06334419 -0.0118148485 0.08117385 -0.047632124
0000a0 99 f7 e7 bd 88 ed 27 3d 01 0f 77 bb 83 60 1d 3d
       -0.113265224 0.04099801 -0.0037698152 0.03842212
0000b0 3b da c1 3c 78 5e db 3c a5 26 20 bd 35 45 88 3c
       0.02366363 0.026778445 -0.039099354 0.016634563
0000c0 36 8a f0 3d 7a 88 02 3d 2e 16 b0 bd 13 44 ca bd
       0.11745112 0.031868435 -0.085979804 -0.098762654
0000d0 30 97 bc bb 62 81 a3 bd 80 df 1e 3d e9 aa f9 bd
       -0.0057553276 -0.07983662 0.038787365 -0.12190802
0000e0 19 2a 35 3c 70 8c d2 bb e0 67 f3 bc 84 37 bd bd
       0.0110574 -0.006425433 -0.029712617 -0.092391044
0000f0 b7 95 26 bb f5 98 f5 bd 40 c2 e1 3d 29 66 b4 3d
       -0.0025418827 -0.11992065 0.11023378 0.08808548
000100 ac 49 c9 3c 69 3d b2 3d 8b bf e3 bd 86 6a 7e 3d
       0.024571262 0.08703119 -0.11120518 0.062113307
000110 2c d9 b2 3d ea 9c 1e bd 60 87 82 3d ee 1a e3 3d
       0.087328285 -0.038723864 0.06373477 0.11089121
000120 c5 de e1 3d 1e 5d 4c 3d ed a3 7d 3d c8 e4 a2 bb
       0.11028818 0.04989349 0.06192391 -0.0049711205
000130 a2 d3 89 3c 58 5d 1d 3d 6f aa f9 bc 2a dc e8 bd
       0.016824547 0.038419098 -0.030476777 -0.11370118
000140 53 cc f2 bd 82 87 86 3d 21 fb 8b 3d b8 95 a4 3d
       -0.11855378 0.06568815 0.068350084 0.08036369
000150 b7 f9 e1 bd 30 25 35 bd d9 86 90 3d b7 bf 81 bd
       -0.110339575 -0.044224918 0.0705697 -0.06335395
000160 4c 05 cc bd 84 7c b5 3d 19 ea fb 3c f9 a2 d5 bc
       -0.09961948 0.0886164 0.030751275 -0.026078688
000170 e5 ae 64 bc a8 a7 c4 bd b9 ee 4c 3d b0 d4 fc 3c
       -0.013957714 -0.096022904 0.05003235 0.030863136
000180 e7 f4 99 3c a7 e3 0e bd 78 5d e4 3c 1a 10 8a 3d
       0.018793536 -0.034885075 0.0278766 0.067413524
000190 db d5 93 bc 0a 85 52 3d 41 c5 31 bd 82 7b b4 3b
       -0.01804631 0.051396407 -0.043401007 0.0055078873
0001a0 c1 7c 9e 3d 83 04 e2 bd b3 3b b4 bd 42 8e 2d bd
       0.07738639 -0.11036017 -0.08800449 -0.042371996
0001b0 49 01 95 bd fd 63 df 3d ac 01 97 3d 03 15 c0 3d
       -0.07275636 0.10907743 0.07373366 0.09379008
0001c0 a9 0f 7a 3d bb 46 9a bd ec 60 d8 3d 30 eb d8 bc
       0.06105009 -0.07533022 0.105653614 -0.026479334
0001d0 47 e4 f1 bc e5 4c bb 3d cf d2 f5 bd 99 eb f9 bd
       -0.029527796 0.09145526 -0.12003099 -0.1220314
0001e0 4d a3 d1 bc 75 a2 44 3d 4e 3d b2 3d 9f 0c 8c bd
       -0.025590563 0.048006494 0.08703099 -0.06838345
0001f0 72 7f 8c 3d 63 fc 34 bd 73 05 88 bd dd fb 08 bd
       0.06860246 -0.044186007 -0.06641664 -0.03344332
000200 50 3a a4 3c ef 7b a7 3d 87 7a ef bd 27 27 14 3c
       0.020047337 0.08177935 -0.11693292 0.009042538
000210 c9 8b 62 bd 2f eb 25 3d 50 53 0f bd 5b 04 a2 3d
       -0.05530909 0.04050749 -0.034991562 0.07910987
000220 5c df 42 bd ea de fc bd d2 8b 54 3d 15 78 dd 3d
       -0.047576293 -0.12347205 0.051891156 0.108139195
000230 b2 74 0e 3d 5a 35 d5 bd 9e ce dc bd 53 56 42 bd
       0.034779258 -0.10410567 -0.107815966 -0.047445606
000240 a3 39 a7 bd 39 d2 e5 3d e0 01 e7 bd 45 bc bb bc
       -0.0816529 0.112217374 -0.112796545 -0.022916922
000250 e9 f2 4a bd da 37 c9 bd 0e 88 c1 bc b4 33 d6 bd
       -0.049548063 -0.09825106 -0.023624446 -0.1045908
000260 c4 b5 c4 3d e8 7e 2f bc 49 3d e0 bd bf 56 e7 3d
       0.096049815 -0.010711409 -0.10949189 0.112958424
000270 b9 87 ca bd de d6 c9 bd b4 d5 88 3d 52 51 39 3d
       -0.09889168 -0.09855436 0.06681386 0.04524357
000280 45 e2 b0 3d 7c d6 52 bd 8c 69 14 bd fa aa a1 3d
       0.086369075 -0.05147408 -0.03623347 0.07893939
000290 0b 9d 99 bd ec 21 5a bd cb a5 8b bd 1b 35 51 bd
       -0.07500657 -0.053255007 -0.06818732 -0.051076036
0002a0 8c 39 c0 bd 6a 25 9c 3d b7 92 1c bd 05 7a aa bd
       -0.09385976 0.07624324 -0.038225856 -0.08324055
0002b0 a2 de d4 bd 12 54 33 bd 9d 1d 22 3d 48 f5 4d bd
       -0.10394026 -0.043781348 0.039579023 -0.050282747
0002c0 7e 35 f6 bd 3a a3 cc bc 10 77 9c bd 5f 23 d5 bd
       -0.120219216 -0.024980176 -0.07639897 -0.10407137
0002d0 ce 10 6d 3b 24 0e e0 bd 17 57 4c bd ca 8a ea bd
       0.0036173346 -0.10940197 -0.049887743 -0.11452253
0002e0 77 4a a1 3d e9 7b e2 bd ea 5c dd 3d 98 dd 16 bd
       0.07875531 -0.1105879 0.108087376 -0.036832422
0002f0 e8 bc d9 3d aa 75 94 3d c5 cd 2d bd 0d e5 83 3c
       0.10631734 0.07249005 -0.042432565 0.01610043
000300 06 7f 36 3d 87 76 a5 bd 70 93 a9 bd 16 f1 a5 bd
       0.044554733 -0.08079248 -0.082800746 -0.08102624
000310 7d 83 f8 bd 2f 89 d1 bd 50 e4 90 bd 9a 1d 5d 3d
       -0.121344544 -0.10231244 -0.07074797 0.05398331
000320 b9 72 8f 3d 84 e8 3c bc 38 9d 24 bd bf 44 52 3c
       0.070043035 -0.011530045 -0.040188998 0.012833773
000330 5f 41 6f bc 82 fa bd bd f1 44 71 3d b3 0a b3 3d
       -0.014602988 -0.09276296 0.05890364 0.08742275
000340 db 5d db bd f3 8b e3 3d 9b 4f b9 bd 64 60 f6 3c
       -0.10711261 0.111106776 -0.09048387 0.03007526
000350 42 72 c6 bd 59 c0 8b 3d 1b a6 83 3d c7 8f e4 bb
       -0.09689762 0.06823797 0.064281665 -0.0069751474
000360 a6 31 c7 3d 05 fb 9f bd 89 8b 87 3d ed 53 c1 3c
       0.097262666 -0.0781155 0.06618411 0.02359959
000370 98 2d ad 3d df 90 a1 3d 98 02 14 3c 3f c8 a3 3c
       0.08455962 0.0788896 0.0090338215 0.019992946
000380 f4 54 53 bd fc 9d f5 bd 0d 47 b8 3d dc 67 9e bc
       -0.05159469 -0.11993024 0.08997927 -0.019336633
000390 39 01 bc 3d 03 0b 9d 3d 70 2b 41 bd ee 47 af bd
       0.09179921 0.07668116 -0.047160566 -0.085586414
0003a0 cd 69 a6 3d 31 44 52 3c 5f f9 93 3d aa b8 3c 3d
       0.08125649 0.012833641 0.07225298 0.046074547
0003b0 65 72 7f bd ea e3 9c 3d 0f a9 e6 3d 44 d3 85 bd
       -0.062364955 0.07660659 0.11262714 -0.06534436
0003c0 a7 d4 70 bc ed db 9e bd 5c 14 02 bd fe 7f fb 3d
       -0.014699138 -0.07756791 -0.031757697 0.12280272
0003d0 03 69 f1 bd 39 f6 eb bd 7b 8e a8 3b c7 99 3f 3d
       -0.117876075 -0.115215726 0.005143938 0.046777513
0003e0 47 1d 47 bd bd eb 17 3c b8 13 41 3d f6 36 e6 3c
       -0.048611905 0.009272513 0.047137946 0.02810238
0003f0 c1 51 01 3d de de 79 3c a1 1c b1 bd d9 76 af 3d
       0.031572107 0.01525089 -0.08648039 0.0856759

fc.0.bias f4 [32]
000000 15 c0 98 3d 74 59 7b 3d 29 58 55 3d fe 3a e8 bd
       0.07458512 0.061364606 0.05208603 -0.11339377
000010 eb 64 7e bd 2d b7 a4 bd 0c 5d 6c 3d a5 08 aa bd
       -0.06210796 -0.080427505 0.057705924 -0.0830243
000020 ec cf 08 bc af 26 da 3c 38 09 89 3d 50 f3 a4 bd
       -0.008350354 0.026629774 0.066912115 -0.08054221
000030 78 ab b1 3d 32 cf d5 bd 7e 9d a9 3c 3b 79 bf bc
       0.08675283 -0.1043991 0.020704981 -0.023373237
000040 11 e5 bc bc 11 ce da bc 8a b5 8e 3d 1d 52 83 bd
       -0.023058446 -0.026709588 0.069682196 -0.06412146
000050 d6 8f a9 3d 59 ec dc bd 6c 42 96 3d 9e e1 19 bc
       0.08279388 -0.10787267 0.07336888 -0.00939217
000060 36 f8 d7 bd 94 79 63 bd d8 fb f0 39 32 41 b3 3d
       -0.10545389 -0.055535868 0.00045964005 0.087526694
000070 a5 38 f5 bd c1 56 8e 3c a3 af 6a bd 9f e5 af 3d
       -0.11973695 0.017375352 -0.057296406 0.085887186

fc.3.weight f4 [1, 32]
000000 91 e5 88 bc e3 b0 a5 bd c4 0c 14 3e 8b 0e fb bc
       -0.016711028 -0.08090379 0.14457995 -0.030646583
000010 dd a3 fb 3d f2 73 f3 bd e1 8a 01 3e 7e 0e 97 3d
       0.12287114 -0.11887349 0.12650634 0.07375811
000020 fd e2 b8 bc 89 4d c3 3d 2e 4a 52 bb 41 5c ef 3c
       -0.022569174 0.09536273 -0.0032087672 0.029218795
000030 8b 22 33 be 75 f9 13 be e7 1c 17 3d 6a d4 f8 bd
       -0.17493646 -0.14450629 0.036892798 -0.1214989
000040 d2 ed 49 3c f9 d6 fe bd 1d ee 06 be 40 5c 1a be
       0.012324767 -0.124433465 -0.1317677 -0.15074253
000050 1d 39 90 bd ee 1a c6 bd 8c f5 cb bd 06 ec ae bd
       -0.070421435 -0.09673105 -0.09958944 -0.08541112
000060 b9 c6 20 be 11 1b 1d be 3b e6 fa bd 01 bf 13 be
       -0.15700807 -0.15342356 -0.12250944 -0.14428331
000070 f2 36 14 be 43 dc 1e 3e 74 22 ad bd 55 ae 37 3d
       -0.14474085 0.1551371 -0.08453837 0.04484399
