5 第五讲 机器学习训练模型的数学范式v16/models/model170.pth (torch, 112459 bytes, 21 tensors)

conv1.0.weight f4 [16, 3, 3, 3]
0	0xbcafbd7f	-0.021452663
1	0xbdff5774	-0.12467852
2	0x3e0ed02b	0.13946597
3	0xbd6fa649	-0.05850819
4	0xbe0a1c57	-0.13487373
5	0xbe357183	-0.17719083
6	0x3d1cb39b	0.038257223
7	0xbe241258	-0.16022623
8	0x3dbc7348	0.09201676
9	0x3d904a44	0.07045415
10	0x3e418ef5	0.1890219
11	0xbe0e600b	-0.13903825
12	0x3d0db2ac	0.034594223
13	0x3d2d6278	0.042330235
14	0x3cb6262f	0.022235004
15	0x3ddf84eb	0.10914024
16	0x3c026cc4	0.007960502
17	0xbd82dea4	-0.063901216
18	0x3e21a730	0.15786433
19	0xbddec049	-0.10876519
20	0xbe19855b	-0.14992277
21	0x3df4a0f8	0.11944765
22	0xbd0b0162	-0.033936866
23	0x3e21cb77	0.15800272
24	0xbddc9729	-0.10771019
25	0x3e2dbc41	0.16966344
26	0x3d3f7604	0.046743408
27	0xbd8be7a2	-0.0683129
28	0x3dfed447	0.124428324
29	0xbd6e2b81	-0.058146957
30	0xbc9d1b65	-0.019178102
31	0xbd9dda9d	-0.07707713
32	0x3dcdb765	0.10044745
33	0x3d4ae43a	0.04953406
34	0x3e173b72	0.1476877
35	0xbd92aa9a	-0.07161446
36	0x3c358abb	0.011080439
37	0xbc9b6c48	-0.018972531
38	0x3e33749b	0.1752495
39	0xbe330987	-0.17484103
40	0xbd80d230	-0.0629009
41	0x3e3d1818	0.18466222
42	0x3d5cb53c	0.053883776
43	0xbd3551e0	-0.044267535
44	0x3de0fb5f	0.10985445
45	0x3cef6af3	0.029225802
46	0xbd938ca8	-0.072045624
47	0xbe100b1d	-0.1406674
48	0xbe4d0bb6	-0.20023999
49	0x3dd01410	0.101600766
50	0xbab92fb1	-0.0014128593
51	0x3d8676e2	0.06565644
52	0xbe21bbad	-0.15794249
53	0x3e3f3fd5	0.18676694
54	0x3db44990	0.088030934
55	0xbc2df09c	-0.010616448
56	0xbdd37c3c	-0.1032643
57	0xbbd30a75	-0.0064404556
58	0xbe0345f6	-0.12819657
59	0xbe350977	-0.17679392
60	0xbd625b9b	-0.055263143
61	0x3df1ed48	0.11812836
62	0xbe3069ca	-0.17227855
63	0x3e27abb2	0.1637409
64	0x3db7721b	0.08957311
65	0xbe2e4b9b	-0.17021029
66	0x3e375360	0.17902899
67	0x3d5ed13c	0.05439876
68	0xbd4f5b25	-0.05062403
69	0x3d06d84f	0.03292113
70	0x3d36b887	0.044609573
71	0x3df2e55f	0.11860155
72	0x3e3c5bbe	0.18394372
73	0x3ccfb88e	0.025356557
74	0xbd783bbe	-0.06060385
75	0x3c5eff11	0.013610617
76	0x3d04b5ac	0.03239982
77	0xbdcd3d56	-0.100214645
78	0xbdaef421	-0.08542658
79	0xbe51dae9	-0.20493664
80	0x3e2bbb0e	0.16770574
81	0xbd94851a	-0.072519496
82	0xbb26f904	-0.0025478015
83	0xbe1900ad	-0.14941664
84	0x3c5dc113	0.013534802
85	0x3e3f849a	0.18702927
86	0xbe1db1fb	-0.15399925
87	0x3e032cce	0.1281006
88	0x3e540558	0.20705163
89	0xbe3c361e	-0.18380019
90	0xbd3b30b4	-0.045700744
91	0x3c33bb73	0.010969984
92	0xbc2b55d4	-0.010457475
93	0xbbd5a07b	-0.006519375
94	0x3e28454f	0.16432689
95	0x3e00163e	0.12508485
96	0x3ce517ac	0.02796539
97	0x3d83412c	0.06408915
98	0xbdf853bd	-0.12125347
99	0xbe0b04fe	-0.13576123
100	0xbda9c7b5	-0.08290044
101	0x3e182d01	0.14860918
102	0x3e357b3e	0.17722794
103	0x3e2d11e2	0.16901353
104	0x3c84e42c	0.016222082
105	0x3de55c73	0.11199274
106	0xbd5cab93	-0.053874563
107	0xbd568966	-0.052377127
108	0xbe530ce7	-0.2061039
109	0x3d6d1d48	0.057889253
110	0xbdc4edc3	-0.09615662
111	0x3e1fc6ba	0.15603152
112	0x3cb4cd41	0.022070529
113	0x3e00162b	0.12508456
114	0xbd41047c	-0.047123417
115	0x3d5212c8	0.051287442
116	0xbe16e40a	-0.14735427
117	0xbe627837	-0.22116171
118	0xbdfb610a	-0.12274368
119	0x3e4f9d4d	0.20274849
120	0x3d79d543	0.060994398
121	0x3dc683c7	0.09693103
122	0x3e52e9cf	0.20597003
123	0x3d978115	0.07397667
124	0x3d976a15	0.073932804
125	0xbd55b31b	-0.05217276
126	0xbe0eeea3	-0.1395822
127	0x3dcb3ba2	0.099234834
128	0x3e2a5b33	0.16636352
129	0xbe357675	-0.17720969
130	0x3d63f4c5	0.055653352
131	0xbd19588e	-0.037437968
132	0x3e24b2a2	0.16083768
133	0xbd2ae678	-0.0417237
134	0xbd109d2f	-0.035306152
135	0xbd58c7de	-0.052924983
136	0xbd724453	-0.05914719
137	0x3e1bf815	0.15231355
138	0xbdda322f	-0.10654103
139	0x3d48195d	0.048852313
140	0x3bb7db4f	0.0056108604
141	0x3e004153	0.12524919
142	0x3db9f4dd	0.09079907
143	0xbe108d85	-0.14116485
144	0xbc3b1e4c	-0.011420798
145	0x3c34d3f1	0.011036859
146	0xbcc02fcc	-0.023460291
147	0x3e24318b	0.16034524
148	0x3e560c48	0.20903122
149	0xbdfc27ed	-0.12312303
150	0xbd584d5e	-0.052808158
151	0x3e5512a6	0.20807895
152	0x3d856610	0.065136075
153	0xbdc2bf0d	-0.09509096
154	0x3dca548c	0.09879407
155	0xbd4b5e8e	-0.04965072
156	0xbdd28b63	-0.10280492
157	0xbe4ead51	-0.20183302
158	0x3dde2430	0.10846746
159	0xbd980d04	-0.074243575
160	0xbe1a0130	-0.15039515
161	0xbe1d229c	-0.15345234
162	0xbc81d1fd	-0.0158472
163	0x3e079345	0.13239773
164	0x3dda20d7	0.10650795
165	0x3e08c51e	0.13356444
166	0xbdab2dae	-0.08358322
167	0xbe258234	-0.1616295
168	0xbd0bdb3c	-0.034144625
169	0xbdc8f872	-0.09813012
170	0x3d7df5a6	0.062001847
171	0x3e0beaa6	0.1366373
172	0xbd80601f	-0.06268334
173	0xbe51cc22	-0.20488027
174	0x3e2401b1	0.1601627
175	0x3d35200b	0.04422001
176	0xbe111797	-0.14169155
177	0xbd7e8a5e	-0.062143676
178	0xbd527ea6	-0.051390313
179	0xbe0c9db1	-0.1373203
180	0x3e42fbce	0.19041368
181	0x3d909450	0.07059538
182	0xbde8956d	-0.11356626
183	0xbdcdf025	-0.100555696
184	0xbdacd9eb	-0.08440002
185	0xbe3d0873	-0.18460254
186	0xbbb24b0a	-0.0054410743
187	0xbd6d6d66	-0.05796566
188	0xbdcd2eec	-0.10018715
189	0x3c40c2ad	0.011765164
190	0xbdc2b9de	-0.095081076
191	0x3ddedd3e	0.10882042
192	0x3db8f72e	0.09031521
193	0xbd8fd746	-0.07023482
194	0xbdb5c36e	-0.08875166
195	0xbe52255d	-0.20522065
196	0xbce3a9d9	-0.02779095
197	0xbe2a501f	-0.16632126
198	0x3e3b351d	0.1828198
199	0x3df0b9e3	0.11754205
200	0x3c85d10e	0.016335037
201	0xbc668ac3	-0.014071169
202	0xbb69cf72	-0.0035676626
203	0x3e4b377f	0.19845389
204	0xbcc7ef6e	-0.024406161
205	0x3d13e831	0.036110107
206	0x3df52e5f	0.11971735
207	0x3d8d0e11	0.068874486
208	0xbc3d0f37	-0.011539272
209	0x3e0a56d3	0.13509683
210	0xbe252b65	-0.16129835
211	0x3cb4bde4	0.022063203
212	0xbe512c17	-0.20426975
213	0x3da3c092	0.07995714
214	0x3dd65d96	0.10467069
215	0xbd836bf0	-0.06417072
216	0xbe23763a	-0.15963069
217	0xbe0a9a82	-0.13535503
218	0xbd0e87ac	-0.034797356
219	0xbe14d659	-0.14534892
220	0xbd2925f4	-0.04129596
221	0xbd7dc4ec	-0.061955377
222	0xbddbcec3	-0.10732796
223	0x3dbc6f58	0.09200925
224	0xbdfe56b6	-0.124188825
225	0x3d8f9ec0	0.07012701
226	0xbe6c08ae	-0.23050186
227	0xbdc4962c	-0.095989555
228	0x3e38c224	0.18042809
229	0xbdf7340a	-0.120704725
230	0xbd582d25	-0.05277743
231	0x3dca2f73	0.098723315
232	0x3da686ba	0.08131166
233	0xbdacf25c	-0.08444664
234	0x3d82fd05	0.06395916
235	0xbe86e307	-0.26345083
236	0xbe9d437d	-0.30715552
237	0xbd63170c	-0.0554419
238	0x3e3dde1c	0.18541759
239	0x3ddad9dd	0.106860854
240	0x3e20d8d5	0.15707715
241	0x3d7a497c	0.061105236
242	0x3cba7bd5	0.022764126
243	0x3e47abab	0.1949908
244	0x3db44189	0.08801562
245	0x3d4deb05	0.05027296
246	0xbe0eb528	-0.13936293
247	0xbe001274	-0.1250704
248	0x3e048fe6	0.12945518
249	0x3e5711c1	0.21002866
250	0x3d6367c0	0.055518866
251	0x3d964db9	0.07339043
252	0xbe15c6ef	-0.14626668
253	0xbd8ae0de	-0.06781171
254	0xbd65db72	-0.056117482
255	0xbdbc9020	-0.09207177

conv1.0.bias f4 [16]
0	0x3da4f6f6	0.080549166
1	0x3d73497e	0.05939626
2	0x3d6d7981	0.057977203
3	0x3d9e9a2c	0.0774425
4	0xbe50d419	-0.20393409
5	0xbb8eaa94	-0.0043538306
6	0x3df2572a	0.118330315
7	0x3cee1b17	0.029065652
8	0xbe4a6b4a	-0.1976749
9	0x3c2328ec	0.009958487
10	0x3e81cc7e	0.25351328
11	0xbdda14f3	-0.10648527
12	0x3e1e6ebb	0.15471928
13	0xbe310830	-0.1728828
14	0x3c4d9417	0.012547514
15	0x3e74e3c1	0.23915006

conv1.3.weight f4 [16]
0	0x3f707eaf	0.93943304
1	0x3f7a642c	0.978091
2	0x3f834c91	1.0257741
3	0x3f63276e	0.8873204
4	0x3f81a6c3	1.0129017
5	0x3f8212df	1.0162009
6	0x3f7f7784	0.9979174
7	0x3f657122	0.8962575
8	0x3f72e499	0.9488006
9	0x3f85cde7	1.0453461
10	0x3f69a956	0.9127401
11	0x3f9609d2	1.1721747
12	0x3f621d2a	0.8832575
13	0x3f829f89	1.0204936
14	0x3f6ce472	0.9253608
15	0x3f746e7c	0.95481086

conv1.3.bias f4 [16]
0	0xbb41727f	-0.0029517708
1	0x3e3af1b5	0.18256266
2	0xbbce97d0	-0.0063047186
3	0x3c8ddbc6	0.01731671
4	0x3e5340e1	0.20630218
5	0xbccf8b7c	-0.025335066
6	0x3da61343	0.08109143
7	0x3da12597	0.07868498
8	0x3e84ab72	0.25912052
9	0x3d3e4286	0.04645016
10	0xbe250775	-0.16116126
11	0x3d8ef7ed	0.06980882
12	0x3d24aa2e	0.04020136
13	0x3de802f8	0.11328691
14	0x3d272f80	0.040816784
15	0xbe09f503	-0.13472371

conv1.3.running_mean f4 [16]
0	0x3decaee4	0.11556795
1	0x3e1abf8d	0.15112133
2	0x3d88fd90	0.06688988
3	0x3e9371e0	0.28797817
4	0x3c4c2cb4	0.01246183
5	0x3c56459a	0.013078118
6	0x3c9ef002	0.019401554
7	0x3db3ed2f	0.087854736
8	0x3798404e	1.8149756e-05
9	0x3d10bfe2	0.035339244
10	0x3ef95f70	0.48705626
11	0x3c2a882d	0.010408443
12	0x3e391c21	0.18077137
13	0x3c345eea	0.011008957
14	0x3d724067	0.05914345
15	0x3e610fa5	0.21978624

conv1.3.running_var f4 [16]
0	0x3b3d6103	0.0028896935
1	0x3b4012ef	0.002930816
2	0x3b1fe845	0.0024399918
3	0x3c90d5a9	0.017680006
4	0x3a8a8698	0.0010568677
5	0x3a72ef4a	0.0009267224
6	0x3ae81ad7	0.0017708194
7	0x3b49506b	0.00307181
8	0x3607a2ac	2.0211255e-06
9	0x3b1b4b60	0.002369605
10	0x3d02f9c6	0.031976484
11	0x3aa4f491	0.0012585094
12	0x3ab444ea	0.0013753448
13	0x3a5e5626	0.0008481465
14	0x3b9afdaa	0.004729946
15	0x3ab5dad2	0.0013874418

conv2.0.weight f4 [32, 16, 3, 3]
0	0x3c470134	0.012146283
1	0xbcb65d16	-0.022261184
2	0xbc8351bb	-0.016030183
3	0x3c8fcc62	0.017553512
4	0x3d8a92a6	0.06766252
5	0x3ca03d5d	0.01956051
6	0x3da0179a	0.07817002
7	0xbc6c946d	-0.014439684
8	0xbbc009c1	-0.0058605378
9	0xbd6a0e8b	-0.057142776
10	0xbdb1ace7	-0.08675557
11	0xbd4bcc58	-0.049755424
12	0xbd2c1362	-0.042010672
13	0x3ce59b4f	0.028028158
14	0xbd2f71a2	-0.042832978
15	0xbd4504c1	-0.048100237
16	0xbd588a62	-0.052866347
17	0x3d0a0c96	0.03370341
18	0x3dfe0409	0.124031134
19	0xbc136d6c	-0.008998256
20	0xbdc185ce	-0.09449349
21	0x3dd27d50	0.10277808
22	0x3d8eb82e	0.06968723
23	0xbd5ac32e	-0.053408794
24	0xbccc3f8f	-0.02493265
25	0xbd382000	-0.044952393
26	0xbd526386	-0.051364444
27	0x3dce7896	0.10081594
28	0x3d5f64e1	0.054539565
29	0xbd5ecbfa	-0.054393746
30	0x3ba58539	0.005051282
31	0x3d854976	0.06508152
32	0xbcbef3a8	-0.023309544
33	0x3d2afb97	0.04174384
34	0x3c81edcb	0.015860459
35	0x3d374546	0.0447438
36	0x3cb9ab3b	0.022664657
37	0x3cdc42f3	0.026887393
38	0xbd1858a8	-0.037193924
39	0xbddf865e	-0.109143004
40	0xbc97d960	-0.01853627
41	0xbaf6e939	-0.0018837816
42	0xbd81ea7e	-0.06343554
43	0xbd8130a7	-0.06308108
44	0xbb8559a4	-0.004069524
45	0x3c8e3d35	0.01736317
46	0x3d9401c7	0.072269015
47	0x3db76597	0.089549236
48	0xbd32aeb7	-0.043623652
49	0x3d845406	0.06461339
50	0x3d2d0cee	0.04224866
51	0x3db7ca35	0.08974115
52	0x3dca9d99	0.098933406
53	0x3d8d3d74	0.06896487
54	0x3d85facb	0.065419756
55	0x3ccb5d34	0.024824716
56	0xbc9107fc	-0.017704003
57	0xbcda02f9	-0.026612746
58	0x3d56c370	0.052432477
59	0x3c2097a3	0.009801778
60	0x3d3ed3fe	0.04658889
61	0x3d13c25f	0.03607404
62	0x3dacdc6a	0.08440478
63	0x3d5d125a	0.05397258
64	0xbda5bbd5	-0.08092467
65	0xbd6f4946	-0.05841949
66	0x3d76129d	0.060076345
67	0x3d616183	0.055024635
68	0xbd58d649	-0.052938733
69	0x3d0a8b96	0.033824526
70	0xbdac2272	-0.084050074
71	0xbd81fc0a	-0.06346901
72	0xbd9ec34c	-0.07752094
73	0xbe4e9017	-0.20172153
74	0xbdf4cdf9	-0.11953349
75	0xbe46f869	-0.19430698
76	0xbe6f46e5	-0.23366888
77	0xbe410725	-0.18850382
78	0xbe2c0908	-0.1680032
79	0xbdf8d562	-0.121500745
80	0xbe5c73fd	-0.21528621
81	0xbdf5934b	-0.119909845
82	0xbd31cf90	-0.043410838
83	0x3da76872	0.08174218
84	0xbd6fdde6	-0.05856123
85	0x3c4cbccb	0.012496184
86	0x3dab549a	0.08365746
87	0xbdc3076a	-0.095228985
88	0xbdc0537a	-0.09390922
89	0x3dc6fd8f	0.09716331
90	0x3ddd5edd	0.10809109
91	0xba8807bb	-0.001037828
92	0xbc090ab4	-0.008364368
93	0xbcdab49b	-0.026697448
94	0x3d2b99ea	0.04189483
95	0xbca3bed3	-0.019988453
96	0x3de706f4	0.11280623
97	0x3d733003	0.05937196
98	0x3d0cc850	0.03437072
99	0x3caf9f2a	0.0214382
100	0x3c09fa6d	0.008421523
101	0x3caaaca6	0.020834278
102	0xbdc5816a	-0.096438244
103	0xbdb338ba	-0.08751054
104	0xbe0fce43	-0.14043526
105	0xbd983a02	-0.07432939
106	0x3d25160b	0.040304225
107	0x3c88e651	0.016711386
108	0x3d8d4d1f	0.06899475
109	0xbca2e24c	-0.019883297
110	0x3d16c8f3	0.036812734
111	0x3d3e95b7	0.046529498
112	0xbc5bd8de	-0.013418404
113	0x3c3412e6	0.010990834
114	0xbd310008	-0.04321292
115	0xbc1e31e5	-0.0096554505
116	0xbd8fd6ac	-0.07023367
117	0x3d633a36	0.055475436
118	0xbdb576a0	-0.088605165
119	0xbe15308d	-0.14569302
120	0xbd141d4b	-0.03616075
121	0xbd916721	-0.070997484
122	0xbcef55a3	-0.02921564
123	0xbe1d7d51	-0.15379836
124	0xbd853552	-0.06504311
125	0x3d201414	0.039081648
126	0x3cab3b32	0.02090225
127	0xbd3660b6	-0.044525824
128	0xbc0d22e1	-0.008614273
129	0xbd15d8ee	-0.036583833
130	0xbd48eb84	-0.04905273
131	0xbd11f67c	-0.035635456
132	0xbd0ff501	-0.035145763
133	0x3d1c8ea2	0.038221963
134	0x3d475ced	0.048672605
135	0xbd598ddf	-0.053113814
136	0xbb9fb6ad	-0.0048740716
137	0x3c21d26d	0.00987683
138	0x3a2bbcc1	0.0006551259
139	0xbd8f9fa6	-0.070128724
140	0xbd4858e1	-0.048912887
141	0x3d619677	0.055075135
142	0x3d6bdb15	0.05758198
143	0xbbed5118	-0.007242333
144	0x3cf4de6b	0.029891213
145	0xbc5a4775	-0.013322701
146	0x3d2cb89e	0.042168252
147	0x3db87ca6	0.0900815
148	0x3ccf3084	0.025291689
149	0xbd1e7df0	-0.038694322
150	0x3d105711	0.035239283
151	0x3d7c6db1	0.061628047
152	0x3db01341	0.085974224
153	0xbc9c83c5	-0.019105801
154	0x3c72d72c	0.014821809
155	0xbd4a3930	-0.049370944
156	0xbd83b943	-0.0643182
157	0x3c5cc508	0.01347471
158	0xbe023479	-0.12715329
159	0x3d0f3dcb	0.03497104
160	0xbc6c7c33	-0.014433908
161	0xbccba8a8	-0.024860695
162	0x3ceb7e00	0.028746605
163	0x3dca4d91	0.09878076
164	0x3da33224	0.07968548
165	0x3df0e408	0.117622435
166	0xbd564524	-0.05231203
167	0x3d1dff8a	0.03857378
168	0x3df61453	0.12015595
169	0x3b707be3	0.0036694936
170	0x3db4fc66	0.08837204
171	0x3dc2156e	0.09476744
172	0x3cb88558	0.02252452
173	0xbc203bde	-0.009779898
174	0x3cd28adb	0.025700977
175	0xbbd29ed2	-0.0064276243
176	0x3da15c4b	0.078789316
177	0x3d9b996d	0.07597623
178	0xbbde9054	-0.0067921076
179	0x3dc6fc26	0.09716062
180	0x3d8b7997	0.06810301
181	0x3d86a4de	0.06574415
182	0xbcfd1bc6	-0.030897032
183	0x3db22b23	0.08699634
184	0x3d768d87	0.060193565
185	0x3d287bfc	0.041133866
186	0x3dc4151d	0.095743395
187	0x3b575fb5	0.0032863442
188	0x3d8e20eb	0.06939872
189	0x3c7ff4e6	0.015622353
190	0xbd88f621	-0.0668757
191	0x3be402b8	0.006958332
192	0xbd7c76c4	-0.0616367
193	0xbe1d81d2	-0.15381554
194	0xbdd4df92	-0.10394205
195	0x3cde61a1	0.027146162
196	0xbd788cd6	-0.060681187
197	0xbdb1ebba	-0.086875394
198	0xbc0f2400	-0.00873661
199	0xbcbfa7f0	-0.023395509
200	0x3d7f96f4	0.06239982
201	0x3e04323d	0.1290979
202	0x3d1c0dba	0.03809903
203	0x3d7b078a	0.061286487
204	0x3d5a9b49	0.053370748
205	0xbd62abd9	-0.055339668
206	0x3d8d3a1b	0.06895848
207	0xbd3dc90d	-0.046334315
208	0x3d8c2dc1	0.06844664
209	0x3d41eda1	0.04734576
210	0xbd1aa478	-0.037754506
211	0xbd87ec44	-0.06636861
212	0xbd88d25f	-0.0668075
213	0x3c66b307	0.014080769
214	0xbdc77526	-0.09739141
215	0xbbd56f1a	-0.0065134885
216	0xb9e03282	-0.0004276224
217	0xbd763fed	-0.060119558
218	0x3dbe6ed6	0.09298484
219	0xbdf32284	-0.11871818
220	0xbbd7d77c	-0.006586967
221	0xbd0ca31c	-0.03433524
222	0xbd4af90d	-0.04955392
223	0xbdd102b5	-0.102055945
224	0xbd6011cd	-0.054704476
225	0x3cda14d1	0.026621254
226	0xbdae0077	-0.084961824
227	0xbd6ff363	-0.05858172
228	0x3d1c514e	0.038163476
229	0xba577b90	-0.00082200114
230	0xbda5c173	-0.08093538
231	0x3da97e41	0.08276034
232	0xbcaa154f	-0.020762114
233	0xbc9b5bf7	-0.01896475
234	0x3d44ae62	0.048017867
235	0xbc9dd769	-0.019267755
236	0x3dd76e52	0.10519089
237	0x3dfee77d	0.12446497
238	0x3e057a52	0.13034943
239	0x3c30c280	0.01078856
240	0x3d08e5fe	0.033422463
241	0x3e14e8bd	0.14541908
242	0x3da71411	0.08158124
243	0x3c86dcae	0.01646265
244	0x3bd3dd58	0.006465595
245	0x3daaac54	0.0833365
246	0xbd860d59	-0.065455146
247	0xbd74ad90	-0.059735835
248	0xbcb701c9	-0.022339718
249	0x3ce122ef	0.027482478
250	0xbcfed033	-0.031105136
251	0x3d2a17c0	0.041526556
252	0x3db0936a	0.08621867
253	0x3d8436a5	0.06455735
254	0x3d88f3bc	0.06687114
255	0x3da330c0	0.07968283

conv2.0.bias f4 [32]
0	0xbdf8be42	-0.12145664
1	0xbdaa963c	-0.08329436
2	0xbde47601	-0.1115532
3	0x3d0004bd	0.03125452
4	0xbe159978	-0.14609325
5	0xbdf368c6	-0.11885218
6	0x3dae0933	0.08497848
7	0x3d2e64e2	0.042576678
8	0xbe265340	-0.16242695
9	0x3bdf6383	0.0068172826
10	0xbceeadf9	-0.029135691
11	0xbe5d2254	-0.21595126
12	0xbcfe7ada	-0.03106444
13	0xbdbb1d84	-0.09136489
14	0xbe76a95a	-0.2408804
15	0xbc8b84ee	-0.01703116
16	0xbe742acd	-0.23844452
17	0xbda805ca	-0.08204229
18	0xbd9139bb	-0.07091089
19	0x3df5d8f8	0.12004274
20	0x3b8baac5	0.0042623007
21	0xbdea954b	-0.114542566
22	0xbdbe18bf	-0.09282064
23	0xbddd1d40	-0.107965946
24	0x3cbad509	0.022806661
25	0xbe46387b	-0.19357483
26	0xbe14d2e3	-0.14533572
27	0xbd60b321	-0.05485833
28	0xbdbd0423	-0.09229305
29	0xbe656d27	-0.2240492
30	0xbdef4bec	-0.11684403
31	0xbe235f8e	-0.1595442

conv2.3.weight f4 [32]
0	0x3f843794	1.0329461
1	0x3f6b467d	0.9190443
2	0x3f7cfeab	0.9882609
3	0x3f5bfcad	0.8593243
4	0x3f76acfe	0.96357715
5	0x3f779289	0.9670797
6	0x3f72fff9	0.94921833
7	0x3f7b837a	0.9824749
8	0x3f743705	0.95396453
9	0x3f80d191	1.0063955
10	0x3f7f48bc	0.9972036
11	0x3f8975a5	1.0739027
12	0x3f7f56b9	0.99741703
13	0x3f7a841e	0.97857845
14	0x3f85d082	1.0454257
15	0x3f7fd46d	0.9993351
16	0x3f4655ad	0.7747448
17	0x3f8167aa	1.0109761
18	0x3f7bc757	0.98351043
19	0x3f6575f0	0.89633083
20	0x3f682485	0.90680724
21	0x3f672ea5	0.9030555
22	0x3f7f40a5	0.99708015
23	0x3f821dbf	1.0165328
24	0x3f769e51	0.9633532
25	0x3f860552	1.0470374
26	0x3f803237	1.0015324
27	0x3f5e23f6	0.8677362
28	0x3f855868	1.0417604
29	0x3f84af8a	1.036607
30	0x3f68d446	0.90948904
31	0x3f70fb9b	0.9413392

conv2.3.bias f4 [32]
0	0x3dca02e3	0.09863832
1	0x3ebd6c87	0.36996862
2	0x3da8adee	0.082362995
3	0xbe42fc6f	-0.19041608
4	0x3e28e222	0.16492513
5	0xbe298174	-0.16553289
6	0x3f06cb00	0.52653503
7	0x3d8ba1cf	0.06817972
8	0xbdf8572f	-0.12126004
9	0x3e3a0bb4	0.18168527
10	0xbdd1751e	-0.102274165
11	0x3f18b7e4	0.59655595
12	0xbe411aec	-0.18857926
13	0x3e708a31	0.23490216
14	0x3eae0c40	0.3399372
15	0xbe19045b	-0.14943068
16	0x3e60b2d2	0.21943215
17	0xbe15fed5	-0.14647992
18	0x3bfd486f	0.007729582
19	0xbc50ea7f	-0.012751221
20	0x3e985187	0.297497
21	0x3e6580bb	0.22412388
22	0x3eab17f4	0.33416712
23	0x3e799575	0.2437342
24	0x3ebcc7cd	0.36871186
25	0x3eaba908	0.33527398
26	0xbd88a39f	-0.06671833
27	0xbe25ff88	-0.16210759
28	0x3ed7e12b	0.42163977
29	0x3e629df3	0.22130565
30	0x3e9841e3	0.29737768
31	0x3ef3e322	0.47634226

conv2.3.running_mean f4 [32]
0	0x3d550a1a	0.052011587
1	0x3f4e58cc	0.80604243
2	0x3e85f94a	0.26166755
3	0x3f559878	0.83435774
4	0x3e9c2c4f	0.30502555
5	0x3d70e829	0.058815155
6	0x3f06d8bd	0.52674466
7	0x3f1af74c	0.60533595
8	0x3e73094e	0.23734018
9	0x3ef8e953	0.48615512
10	0x3df0b96c	0.117541164
11	0x3db16d5c	0.08663437
12	0x3f10eda2	0.566126
13	0x3f1c07d7	0.6094946
14	0x3d97be10	0.074092984
15	0x3e89fbc7	0.26949903
16	0x3ed0e80a	0.40802032
17	0x3ed38266	0.41310424
18	0x3e9c1496	0.30484456
19	0x3f3e9f49	0.744618
20	0x3f1841eb	0.5947558
21	0x3f1a0cc9	0.6017576
22	0x3ec1e373	0.37868842
23	0x3e43cd1f	0.19121216
24	0x3f1ac4eb	0.6045672
25	0x3dfddad4	0.12395254
26	0x3e6757b0	0.22592044
27	0x3e06e79d	0.13174291
28	0x3e6e5ac8	0.23276818
29	0x3ebae84f	0.36505362
30	0x3ebe0e0f	0.371201
31	0x3e4d6529	0.20058121

conv2.3.running_var f4 [32]
0	0x3d18fd50	0.037350953
1	0x4000918e	2.008884
2	0x3e3ba91f	0.18326233
3	0x3f90c049	1.1308681
4	0x3ebc9b01	0.3683701
5	0x3cde6efc	0.02715253
6	0x3e7d8d02	0.24760821
7	0x3f4fe31b	0.8120591
8	0x3eb1295d	0.3460187
9	0x3eb53f41	0.3539982
10	0x3de25eb9	0.11053223
11	0x3dbce9f5	0.09224311
12	0x3eaf39f1	0.34223893
13	0x3fbfed07	1.499421
14	0x3dc84fb8	0.0978083
15	0x3e30ae51	0.17253996
16	0x3f2332b9	0.6374927
17	0x3f0dc10a	0.5537268
18	0x3ec249cd	0.3794693
19	0x3f1cb1dd	0.612089
20	0x3efd2aa8	0.49446607
21	0x3fba5546	1.4557273
22	0x3f0ddd22	0.55415547
23	0x3df32405	0.118721046
24	0x3f022df8	0.5085139
25	0x3e106d8f	0.14104293
26	0x3e3430e7	0.1759678
27	0x3d191b4e	0.037379555
28	0x3ecc4184	0.39893734
29	0x3f25a194	0.64699674
30	0x3e73f128	0.23822463
31	0x3e1a6c13	0.1508029

conv3.0.weight f4 [64, 32, 3, 3]
0	0xbd2c72fb	-0.04210184
1	0xbd852838	-0.06501812
2	0xbd7cbf57	-0.061705913
3	0xbd493a31	-0.04912776
4	0xbda4a7d7	-0.080398254
5	0xbd81ded8	-0.06341332
6	0xbd93d432	-0.072182074
7	0xbd7cbbb8	-0.06170246
8	0xbdef26c5	-0.116773166
9	0xbd7f8b59	-0.06238875
10	0x3ccb934d	0.024850512
11	0xbc72d924	-0.014822278
12	0xbc8e4afa	-0.017369736
13	0xbd466812	-0.048439093
14	0xbca6800d	-0.020324731
15	0x3994bd14	0.00028369634
16	0xbbe58437	-0.0070042866
17	0x3d66a36d	0.0563082
18	0xbc0962b7	-0.008385352
19	0xbd1c6bcb	-0.038188737
20	0xbdbe52db	-0.09293147
21	0x3cc85eaa	0.024459202
22	0xbcced10a	-0.025246162
23	0xbcb74f54	-0.022376694
24	0xbd92ea19	-0.07173557
25	0xbcc5ddc7	-0.024153603
26	0xbd34ff62	-0.044188865
27	0x3ce6298c	0.028095983
28	0xbd0347fe	-0.03205108
29	0x3d8df3dd	0.06931279
30	0xbbca610f	-0.006176121
31	0xbcd39668	-0.025828555
32	0x3c54c3eb	0.012986164
33	0xbc5f9720	-0.013646871
34	0x3c1c805d	0.009552089
35	0xbc9b317e	-0.018944498
36	0xbd938a1f	-0.07204079
37	0xbda0df65	-0.07855109
38	0xbcb459a2	-0.022015397
39	0xbc6c370b	-0.01441742
40	0xbd8ff453	-0.07029023
41	0xbd1d1489	-0.038349662
42	0xbd0cccdc	-0.034375057
43	0xbca6fb06	-0.02038337
44	0xbcbfe02d	-0.023422325
45	0x3c0c1f3b	0.008552368
46	0x3c91255d	0.017718012
47	0xbb16ef00	-0.0023030639
48	0x3cfe18b8	0.031017646
49	0x3cee8d93	0.029120242
50	0xbc1fe36d	-0.009758812
51	0x3d130794	0.0358959
52	0x3d119859	0.03554568
53	0x3b9eb80f	0.004843719
54	0xbcb652bb	-0.022256246
55	0xbdeb7d08	-0.11498457
56	0xbd475fd4	-0.048675373
57	0xbc780bd5	-0.01513954
58	0xbde37743	-0.11106732
59	0xbdac7f50	-0.084227204
60	0xbdaa82e9	-0.083257504
61	0xbd67a47c	-0.05655335
62	0xbdb3a36e	-0.08771406
63	0xbd318dbf	-0.04334807
64	0xbd1a33dc	-0.037647113
65	0xbd2d7bca	-0.042354383
66	0xbcd4f986	-0.025997888
67	0x3cef1da5	0.02918894
68	0xbd10f7bd	-0.03539251
69	0xbb5f1bd0	-0.0034043677
70	0x3d6f968a	0.058493175
71	0x3d131b37	0.035914626
72	0x3d426f1a	0.047469236
73	0x3e0efc7e	0.13963506
74	0x3ddb5a5d	0.10710595
75	0x3dd74b60	0.105124235
76	0x3de35689	0.1110049
77	0x3d95af5d	0.073088385
78	0xbaf45c59	-0.0018643244
79	0x3deae618	0.11469668
80	0x3d9d8220	0.07690835
81	0x3cb565d4	0.022143282
82	0x3be72b34	0.0070547108
83	0x3c5e19f9	0.013555997
84	0xbb5bac4e	-0.003351945
85	0x3d4bbf26	0.04974284
86	0x3c6f2977	0.014597288
87	0x3cde54ff	0.027140139
88	0x3d0be946	0.034158014
89	0x3d58b1cb	0.05290393
90	0xbd04cca9	-0.03242174
91	0xbd1c933f	-0.038226362
92	0x3ba3a0bb	0.004993526
93	0xbb5608c4	-0.0032659033
94	0xbd0624f5	-0.03275009
95	0x3b4edd22	0.003156491
96	0xbd327130	-0.043564975
97	0xbcc37406	-0.023859035
98	0xbcfe041e	-0.031007823
99	0xbd895fbc	-0.06707713
100	0xbe001c3d	-0.12510772
101	0xbdd04a1e	-0.10170387
102	0xbd926988	-0.07149035
103	0xbe197c99	-0.14988936
104	0xbe0f1021	-0.13970996
105	0xbdaaa839	-0.08332867
106	0xbe11d173	-0.14240055
107	0xbe1d68ff	-0.15372084
108	0xbcb19c6c	-0.021681033
109	0x3c8bbe6e	0.017058577
110	0x3cdb95f8	0.02680491
111	0xbd425e1e	-0.04745304
112	0x3c72d99c	0.01482239
113	0xbc601bca	-0.0136785
114	0xbd4133bd	-0.047168482
115	0xbbc4fe22	-0.0060117403
116	0xbcab3dab	-0.020903429
117	0xbe019ac4	-0.12656695
118	0xbdb1181b	-0.08647176
119	0xbde5796b	-0.11204799
120	0xbdf33450	-0.11875212
121	0xbd9117a0	-0.07084584
122	0xbd6c788e	-0.057732157
123	0xbdf8bdf3	-0.12145605
124	0xbc3d864d	-0.011567664
125	0xbd63058f	-0.055425223
126	0x3d050a19	0.032480333
127	0x3d5d4332	0.05401916
128	0x3cfc6ba6	0.03081305
129	0x3c9c1d41	0.019056918
130	0x3cb46440	0.02202046
131	0x3d1fe61a	0.0390378
132	0x3d565d35	0.052334983
133	0x3d8f60c8	0.070008814
134	0x3c8332bb	0.016015401
135	0xbcf44736	-0.029819112
136	0xbd4a38bb	-0.04937051
137	0xbcf90872	-0.030399535
138	0xbcae0dbf	-0.021246789
139	0xbd208e9c	-0.039198503
140	0xbd913a7e	-0.070912346
141	0xbd6ecddc	-0.05830179
142	0xbd07b2af	-0.03312939
143	0xbdb6802f	-0.08911168
144	0x3d09b202	0.033617027
145	0xbd07af6b	-0.033126276
146	0xbd56415c	-0.052308425
147	0xbd50a992	-0.050942965
148	0xba63cf4c	-0.00086902524
149	0xbc15b65e	-0.009137718
150	0xbd560ba7	-0.052257206
151	0x3cc7b1c9	0.024376767
152	0x3cad14eb	0.021128139
153	0x3d97f727	0.074201874
154	0x3db9eae1	0.09078003
155	0x3ddbbfd3	0.10729947
156	0x3d937d50	0.07201636
157	0x3dd9ebd5	0.106406845
158	0x3cc04281	0.023469212
159	0x3dbb8293	0.091557644
160	0x3def467f	0.11683368
161	0x3dd1a35e	0.10236238
162	0xbc07603c	-0.00826269
163	0x3d225e50	0.039640725
164	0xbd011751	-0.031516377
165	0x3d10647d	0.035252083
166	0x3cfbb9ec	0.030728303
167	0xbd3b6daf	-0.0457589
168	0x3aaed4ef	0.0013338606
169	0x3c5128d4	0.012766082
170	0x3c185d26	0.009299552
171	0xbd8aa5e1	-0.0676992
172	0xbc9581e4	-0.018250413
173	0x3cf3cc25	0.02976043
174	0xbd165805	-0.036705036
175	0x3bb5aa27	0.0055439654
176	0xbb899f6e	-0.0041999137
177	0x3c801098	0.015632913
178	0x3d67c544	0.05658461
179	0x3b3cb484	0.002879412
180	0x3a963786	0.0011460639
181	0xbcc0f9e9	-0.023556666
182	0xbd3cf059	-0.04612765
183	0xbcec66c9	-0.028857606
184	0xbc69ce40	-0.014270365
185	0xbd4e5ddd	-0.050382484
186	0xbcbdde37	-0.02317725
187	0x3c8ea91e	0.017414626
188	0x3b8cfd1a	0.004302633
189	0xbd87e402	-0.06635286
190	0xbda8c26e	-0.082402095
191	0xbd0940df	-0.03350913
192	0xbd076af0	-0.033060968
193	0xbd240fd4	-0.040054157
194	0xbddd9750	-0.10819876
195	0xbd1091a1	-0.035295133
196	0xbd1044d6	-0.035221897
197	0xbde2ae37	-0.11068385
198	0x3c31f74c	0.010862183
199	0xba9259a5	-0.0011165632
200	0x3d578b9a	0.05262337
201	0xbc1a875f	-0.009431689
202	0x3dafc1b0	0.08581865
203	0x3d6d5d66	0.0579504
204	0xb9d4a60e	-0.0004055951
205	0xba9295be	-0.0011183543
206	0x3c581aa1	0.013189943
207	0xbd5fcb74	-0.054637387
208	0xbda657a5	-0.081221856
209	0xbdea68e6	-0.11445789
210	0xbd9c9c75	-0.07647029
211	0xbd86808f	-0.06567489
212	0xbd55d995	-0.052209456
213	0xbd9de3bc	-0.077094525
214	0xbda25cc2	-0.079278484
215	0xbdea7c8b	-0.11449536
216	0xbd488cd1	-0.048962418
217	0xbd5090d4	-0.05091937
218	0xbdc3fba8	-0.09569484
219	0x3ca6c5ba	0.020357955
220	0xbc70972e	-0.014684482
221	0xbd9638ac	-0.07335028
222	0xbcbda730	-0.02315101
223	0xbd5ffe5f	-0.054685947
224	0xbd8429e0	-0.064532995
225	0x3d88dcb9	0.066827245
226	0x3dab1308	0.08353239
227	0xbbbdf661	-0.005797193
228	0x3d4542f1	0.048159543
229	0x3d596a2e	0.053079776
230	0x3ce55004	0.027992256
231	0x3ca37265	0.019952009
232	0x3dbbe11f	0.09173798
233	0xbc2caafd	-0.010538814
234	0xbd12bacd	-0.03582268
235	0xbcb2fd8d	-0.021849418
236	0xbd57017f	-0.05249166
237	0xbcda931a	-0.026681472
238	0x3a09b331	0.0005252837
239	0xbc8d461f	-0.01724535
240	0xbd48117e	-0.048844807
241	0xbd362c05	-0.044475574
242	0xbcdb7f42	-0.02679408
243	0x39aa0d17	0.0003243468
244	0xbcd33ee5	-0.025786826
245	0xbcc5fb58	-0.024167702
246	0x3ce6c80c	0.028171562
247	0xbcf28f29	-0.02960928
248	0xbccfa74d	-0.02534833
249	0xbcacad9e	-0.02107888
250	0x3bae53a6	0.0053200303
251	0x3d5a8143	0.05334593
252	0xbd4b8e07	-0.049695995
253	0xbdf250b3	-0.118317984
254	0xbe2ea140	-0.170537
255	0xbd8b7aa9	-0.06810505

conv3.0.bias f4 [64]
0	0xbe6a27fd	-0.22866817
1	0xbd9058bb	-0.07048174
2	0xbda6a556	-0.08137004
3	0xbe3ff5a0	-0.18746042
4	0xbd0309c8	-0.03199175
5	0xbc96277d	-0.018329376
6	0xbdc01dfa	-0.093807176
7	0xbe248d01	-0.16069414
8	0xbd6dcbcd	-0.058055688
9	0xbda884c1	-0.08228446
10	0x3cbadb62	0.022809688
11	0xbe28d939	-0.16489114
12	0xbdd7d56a	-0.105387524
13	0xbd07d0f4	-0.033158258
14	0xbe43fdc2	-0.1913977
15	0xbc3b670f	-0.011438145
16	0xbe2a671a	-0.16640893
17	0xbe21b672	-0.15792254
18	0xbda22fff	-0.07919311
19	0xbe0f42f9	-0.13990392
20	0xbe17487c	-0.14773744
21	0xbdf6ec8a	-0.12056835
22	0xbdaf0eb2	-0.08547725
23	0xbd86d676	-0.06583874
24	0xbdccb971	-0.09996308
25	0xbdd2a93e	-0.10286187
26	0xbe76d4ba	-0.24104586
27	0xbde66fd6	-0.112518
28	0xbe74e40b	-0.23915116
29	0xbdc2c588	-0.09510332
30	0xbe5277db	-0.20553534
31	0xbe0898bf	-0.13339518
32	0xbe0033ab	-0.1251971
33	0xbe605aae	-0.21909592
34	0xbe1fa71d	-0.15591092
35	0xbe2ce931	-0.1688583
36	0xbdf383e0	-0.118903875
37	0xbd98f931	-0.074694045
38	0xbe31df9f	-0.17370461
39	0xbde99f40	-0.11407328
40	0xbe083191	-0.13300158
41	0xbd26f25d	-0.04075848
42	0xbe1d56bf	-0.15365122
43	0xbd0bc36d	-0.03412192
44	0xbdb749b9	-0.08949608
45	0xbda9310d	-0.08261309
46	0xbd8c6a3b	-0.06856199
47	0xbd886f68	-0.06661874
48	0xbc1ce1ed	-0.009575349
49	0xbdee1fea	-0.11627181
50	0xbe1b5b41	-0.1517153
51	0xbdf605e4	-0.12012842
52	0xbe282658	-0.16420877
53	0xbd4fdbf8	-0.050746888
54	0xbd8597e1	-0.06523109
55	0xbe1bbf33	-0.15209655
56	0xbd61e104	-0.055146232
57	0xbda96e71	-0.08273018
58	0xbda33fdc	-0.079711646
59	0xbcee229f	-0.029069243
60	0x3b5c7d5a	0.0033644051
61	0xbd360ae4	-0.04444398
62	0xbe4a60b2	-0.19763449
63	0xbddcadd3	-0.10775342

conv3.4.weight f4 [64]
0	0x3f95f77b	1.171615
1	0x3f924b44	1.1429219
2	0x3f9f9bef	1.2469462
3	0x3fa8db01	1.3191835
4	0x3f9f8835	1.2463442
5	0x3f9e376e	1.2360666
6	0x3fa0d68a	1.2565472
7	0x3f91f21c	1.1402011
8	0x3f85f3f5	1.0465075
9	0x3fa3e687	1.2804726
10	0x3f9b9d0b	1.2157301
11	0x3f83f639	1.0309516
12	0x3f9e3e2e	1.2362726
13	0x3f909682	1.1295931
14	0x3f90ca93	1.1311821
15	0x3f9e7fa6	1.2382705
16	0x3f8c15b4	1.0944123
17	0x3f932be0	1.1497765
18	0x3fa1be9b	1.2636293
19	0x3fa495af	1.285818
20	0x3f978532	1.1837523
21	0x3fa5cdc0	1.2953415
22	0x3fa1b3a4	1.2632947
23	0x3fa5d2cd	1.2954956
24	0x3f8895fd	1.0670773
25	0x3f90eb25	1.132176
26	0x3f8ed1d0	1.115778
27	0x3fab4319	1.3379852
28	0x3f91c0bb	1.1386942
29	0x3fa5b7e5	1.2946745
30	0x3f9388f6	1.1526172
31	0x3f84da8b	1.0379194
32	0x3f985b78	1.1902914
33	0x3f95eaf4	1.1712327
34	0x3f8900d3	1.0703377
35	0x3f939a62	1.1531489
36	0x3f74f941	0.9569283
37	0x3fa73db9	1.3065711
38	0x3fa39997	1.2781247
39	0x3fa0ad2c	1.2552848
40	0x3f91545e	1.1353872
41	0x3f81ece2	1.0150416
42	0x3f966f2d	1.1752678
43	0x3fa2262c	1.2667899
44	0x3f8f27da	1.1184037
45	0x3fa1123e	1.2583692
46	0x3fa2550d	1.2682205
47	0x3f7dfdbd	0.992153
48	0x3f9daa8b	1.231767
49	0x3fa8a3b9	1.3174964
50	0x3f948af4	1.1604905
51	0x3fa39568	1.277997
52	0x3f8afdd8	1.0858717
53	0x3f96bf7d	1.1777188
54	0x3fa9e6e3	1.3273586
55	0x3f9431c3	1.1577686
56	0x3f89fa81	1.0779573
57	0x3fa6864d	1.3009735
58	0x3fa0b2bd	1.2554547
59	0x3f7075b8	0.93929625
60	0x3f9d20bc	1.2275615
61	0x3f9ff266	1.2495849
62	0x3f8cd1b1	1.1001493
63	0x3f9c43e2	1.2208216

conv3.4.bias f4 [64]
0	0xbc1d4eb4	-0.009601284
1	0xbb76a480	-0.003763467
2	0x3c3d4667	0.01155243
3	0xba140cde	-0.00056476693
4	0x3c2507c3	0.010072651
5	0x3c446f09	0.0119893635
6	0x3bec9711	0.007220157
7	0xbc1d82c1	-0.009613694
8	0xbca83999	-0.020535277
9	0x3c8a0151	0.01684633
10	0x3c491ada	0.012274468
11	0xbc978dbb	-0.0185002
12	0xbc702e24	-0.014659438
13	0xbc632778	-0.013864391
14	0x3a34676e	0.00068818673
15	0x3b8fd23f	0.004389077
16	0x3b1da7b4	0.0024056258
17	0xbad4f1e0	-0.0016246401
18	0x3c830d34	0.015997507
19	0xbc2a0737	-0.010377697
20	0xbc510820	-0.012758285
21	0x3bd92fed	0.0066280277
22	0x3cddb474	0.027063586
23	0xbbc92b88	-0.0061392225
24	0xbd3d40b8	-0.0462043
25	0xbc8e0eb1	-0.01734099
26	0xbcb6885e	-0.022281822
27	0xbc386ee9	-0.011256912
28	0xbd01ab16	-0.0316573
29	0x3acb999f	0.0015533454
30	0xbc67b2a2	-0.0141417105
31	0xbc8b7181	-0.017021896
32	0x3d027b25	0.03185572
33	0xbc1c7860	-0.009550184
34	0xbcaae6ea	-0.020862062
35	0x3bd8651e	0.006603851
36	0xbc308a20	-0.010775119
37	0x3c34342e	0.010998769
38	0xba0cbab9	-0.00053684
39	0xbb48b3b7	-0.0030624697
40	0xbc7dde66	-0.015494918
41	0x3c044c25	0.008074795
42	0x3c07c978	0.00828778
43	0x3c355519	0.011067652
44	0x3c032459	0.008004271
45	0xbac29b9b	-0.00148474
46	0x3c0ca8f8	0.008585207
47	0x3b817a32	0.0039513344
48	0xbc0a10ec	-0.008426886
49	0x3c44b236	0.012005379
50	0xbb0ed9b8	-0.002179725
51	0x3ca25e23	0.019820279
52	0xbc396d2d	-0.011317533
53	0x3bb02c68	0.0053763874
54	0x3be0a00e	0.0068550175
55	0xbc86ba65	-0.016446302
56	0x3c5e316d	0.013561589
57	0x3c99528e	0.018716123
58	0x3c2c8f67	0.010532237
59	0xbc27bc36	-0.010237744
60	0x3cb8d024	0.022560187
61	0x3ca3b16e	0.019982066
62	0x3c48effe	0.01226425
63	0x3cba1410	0.022714645

conv3.4.running_mean f4 [64]
0	0x3cfef675	0.03112338
1	0x3ce54708	0.027987972
2	0x3de32c7d	0.1109247
3	0x3c9015d1	0.017588528
4	0x3d9a1aed	0.07524667
5	0x3dd2ae19	0.10287113
6	0x3d9967df	0.07490515
7	0x3d2687b5	0.040656764
8	0x3d3bb07c	0.045822605
9	0x3dc74578	0.09730047
10	0x3d802ec5	0.062589206
11	0x3ba7c088	0.005119387
12	0x3d01b6a1	0.03166831
13	0x3da0cac3	0.07851174
14	0x3c909fe3	0.017654365
15	0x3ddfbfc8	0.10925251
16	0x3d8804aa	0.066415146
17	0x3c921839	0.017833816
18	0x3d031788	0.032004863
19	0x3d466531	0.048436347
20	0x3d106d11	0.035260264
21	0x3d239262	0.039934523
22	0x3dd77006	0.10519414
23	0x3deb57b4	0.114913374
24	0x3d5b66aa	0.053564705
25	0x3d482024	0.048858777
26	0x3d79ff17	0.06103429
27	0x3d2a720b	0.041612666
28	0x3d164fce	0.0366972
29	0x3d343b9f	0.04400217
30	0x3d0a02e5	0.033694167
31	0x3d10ac14	0.035320356
32	0x3d7a27fa	0.06107328
33	0x3d0d51bf	0.034501787
34	0x3d336ceb	0.043805044
35	0x3ce1e3d1	0.027574452
36	0x3d8b2b26	0.06795339
37	0x3d183817	0.037162866
38	0x3caf32a6	0.021386456
39	0x3daf4bce	0.085593805
40	0x3cfebaa5	0.031094858
41	0x3e18066f	0.14846204
42	0x3d02c84b	0.031929296
43	0x3e233e43	0.1594172
44	0x3d11fda2	0.035642274
45	0x3d33e879	0.043922875
46	0x3d365716	0.044516645
47	0x3e00831c	0.12550014
48	0x3dcff146	0.10153441
49	0x3d10e436	0.03537389
50	0x3cc864d4	0.024462141
51	0x3d4cdc17	0.05001458
52	0x3d33c775	0.04389139
53	0x3e3129c4	0.17301089
54	0x3d0b56c7	0.034018304
55	0x3cbcc43d	0.023042792
56	0x3d1dcd4b	0.03852586
57	0x3d14e14e	0.03634768
58	0x3d324e0b	0.04353146
59	0x3ee8571d	0.45378962
60	0x3dcd7b9d	0.10033343
61	0x3dd2bd2d	0.10289989
62	0x3d66457b	0.056218605
63	0x3d909167	0.07058983

conv3.4.running_var f4 [64]
0	0x3dd95a73	0.10612955
1	0x3d26e4ca	0.040745534
2	0x3eccef19	0.40026167
3	0x3d3522cd	0.04422264
4	0x3e4ddcb4	0.20103723
5	0x3eb582a0	0.3545122
6	0x3e43f437	0.1913613
7	0x3db2c687	0.08729272
8	0x3d9948d0	0.07484591
9	0x3ea2e99a	0.3181885
10	0x3e41719d	0.18890996
11	0x3c204597	0.0097822165
12	0x3db8c023	0.09021022
13	0x3e0f4036	0.13989338
14	0x3d144891	0.036202017
15	0x3eb7dc3e	0.3591022
16	0x3de44068	0.11145097
17	0x3d2f12da	0.042742588
18	0x3db17246	0.08664374
19	0x3e1b9b42	0.15195945
20	0x3d84c50d	0.06482897
21	0x3e0d30fa	0.13788214
22	0x3ec42840	0.38311958
23	0x3edf2789	0.4358485
24	0x3dd8aa09	0.10579307
25	0x3e03f031	0.12884595
26	0x3e5cdbb4	0.21568185
27	0x3e19cd13	0.15019636
28	0x3e055051	0.1301892
29	0x3e330eb0	0.17486072
30	0x3d4a9fd6	0.049468838
31	0x3d68ea2c	0.05686395
32	0x3e67466d	0.22585459
33	0x3dfc9024	0.1233218
34	0x3e1d8234	0.153817
35	0x3d958460	0.07300639
36	0x3eb6ac83	0.3567849
37	0x3de02e84	0.10946372
38	0x3d8bc683	0.068249725
39	0x3ea90713	0.3301321
40	0x3d8a78b6	0.06761305
41	0x3efa71c0	0.4891491
42	0x3d716793	0.058936667
43	0x3f329279	0.6975475
44	0x3dd0559e	0.1017258
45	0x3e0d1d1e	0.13780639
46	0x3e10ec77	0.14152704
47	0x3e40ee06	0.18840799
48	0x3ea6f1ff	0.32606503
49	0x3de48898	0.11158866
50	0x3d92b447	0.071632914
51	0x3e2fecdf	0.17180203
52	0x3d9eca11	0.07753385
53	0x3f31cfbe	0.69457614
54	0x3de4129a	0.111363605
55	0x3dac6a51	0.08418716
56	0x3d9f71f0	0.07785404
57	0x3dc5ee03	0.09664538
58	0x3e231a21	0.15927936
59	0x40309a62	2.7594228
60	0x3eba7922	0.36420542
61	0x3eaea711	0.34111837
62	0x3e9309f9	0.28718546
63	0x3e4b47ab	0.19851558

fc.0.weight f4 [32, 64]
0	0x3e3e5ce0	0.18590117
1	0x3e67dc64	0.22642666
2	0xbda385d3	-0.07984509
3	0xbe36acfd	-0.17839427
4	0xbea66b86	-0.3250391
5	0xbdb4422e	-0.08801685
6	0xbe393a0c	-0.1808855
7	0x3d7d14e6	0.06178751
8	0x3de4261a	0.1114008
9	0xbe3395a3	-0.1753755
10	0xbe4ed12a	-0.20196977
11	0xbd61bc25	-0.05511107
12	0xbe575daa	-0.21031824
13	0x3e13a1e7	0.1441723
14	0x3e2d88e7	0.16946755
15	0xbe8b8607	-0.27250692
16	0x3d921e8e	0.07134734
17	0x3dc17afa	0.09447284
18	0xbe905bfc	-0.28195179
19	0xbe732436	-0.23744282
20	0x3d34e014	0.04415901
21	0xbe1504dd	-0.14552636
22	0xbe3f58ab	-0.18686168
23	0xbea5c2b7	-0.32375118
24	0x3e16918f	0.14703964
25	0x3d58672f	0.05283278
26	0x3d1098e4	0.035302058
27	0xbe811e6c	-0.25218523
28	0x3e4e0406	0.20118722
29	0xbe324322	-0.17408422
30	0x3dac75c2	0.08420898
31	0x3e2cdc21	0.16880848
32	0xbd88e4ed	-0.06684289
33	0x3de12509	0.10993392
34	0x3dde9cdc	0.10869762
35	0x3e4810c2	0.19537643
36	0x3df46126	0.11932592
37	0xbe9403cc	-0.28909147
38	0xbe294eaf	-0.16533922
39	0xbe8702a7	-0.2636921
40	0x3e1aa4bb	0.15101902
41	0x3d8dfcdb	0.06932994
42	0x3de16244	0.11005071
43	0xbe48e20b	-0.19617479
44	0x3e1b26db	0.15151541
45	0xbe993df8	-0.2993009
46	0xbe76b249	-0.24091448
47	0x3d34d5b0	0.0441491
48	0xbdb267f1	-0.087112315
49	0xbe8a2877	-0.26983997
50	0x3dd25bf6	0.102714464
51	0xbe8da0ed	-0.2766184
52	0x3dec18ba	0.11528154
53	0xbe856368	-0.26052403
54	0xbe4310dc	-0.190494
55	0x3e18090f	0.14847206
56	0x3db3b6fb	0.08775135
57	0xbe1b9864	-0.15194851
58	0xbe9a1e32	-0.30101162
59	0xb95e25b7	-0.0002118562
60	0xbe00533b	-0.1253175
61	0xbe027515	-0.12739976
62	0x3da04dc4	0.078273326
63	0xbe47c865	-0.19510038
64	0x3d80ccb7	0.06289046
65	0x3d985831	0.07438696
66	0xbe1bfaf4	-0.1523245
67	0xbe8a8cd2	-0.27060562
68	0xbe0b215e	-0.13586947
69	0xbdcf9403	-0.10135653
70	0xbe670624	-0.22560936
71	0x3e0f3d31	0.13988186
72	0xbcde64ed	-0.027147735
73	0xbe81f7ae	-0.25384277
74	0xbd267210	-0.040636122
75	0xbcd5e108	-0.02610828
76	0xbe21367f	-0.15743445
77	0x3e00c393	0.12574606
78	0x3e61fbba	0.22068682
79	0xbe4492af	-0.1919658
80	0x3e155bde	0.14585826
81	0x3dcea5e5	0.100902356
82	0xbe434e75	-0.19072898
83	0xbdacecb7	-0.08443587
84	0x3d1f43ee	0.038883142
85	0xbe95196f	-0.29120967
86	0xbe71bf8a	-0.23608223
87	0xbe8446a7	-0.25835153
88	0x3d0ebd3a	0.03484843
89	0x3e35b314	0.17744094
90	0x3dd1c34d	0.10242329
91	0xbe892d78	-0.26792502
92	0x3e257443	0.16157632
93	0xbe8b20d3	-0.2717348
94	0x3db7b636	0.08970301
95	0xbd4311d5	-0.047624428
96	0xbe07cedb	-0.13262503
97	0x3e7a34ed	0.24434252
98	0x3e1c419e	0.15259406
99	0x3e53d33b	0.20686047
100	0x3d8bc7a9	0.068251915
101	0xbe22ba1b	-0.15891306
102	0xbe645493	-0.22297888
103	0xbe8a8848	-0.270571
104	0x3c3a2543	0.011361423
105	0x3d508e9d	0.050917257
106	0x3e33fbac	0.17576474
107	0xbda82e0c	-0.08211908
108	0x3d682492	0.0566755
109	0xbe5cf4ed	-0.21577807
110	0xbdaea143	-0.08526852
111	0x3e14e9ed	0.1454236
112	0xbe934f61	-0.287715
113	0xbe4a848d	-0.19777127
114	0x3d440749	0.04785851
115	0xbe1aa4de	-0.15101954
116	0x3e024665	0.12722166
117	0xbdc7e655	-0.09760729
118	0xbe25ab5a	-0.16178647
119	0x3e47e4eb	0.19520919
120	0x3e390499	0.1806816
121	0xbe39c09d	-0.18139882
122	0xbe4ab8b6	-0.19797024
123	0xbd497b06	-0.04918959
124	0xbe4d1bc2	-0.2003012
125	0xbdd7505c	-0.10513374
126	0x3dda6188	0.10663134
127	0xbe293284	-0.16523176
128	0x3da10056	0.07861392
129	0x3df4f54e	0.11960851
130	0xbe3a6d4a	-0.18205753
131	0xbe52c5a0	-0.205832
132	0xbe60c209	-0.21949019
133	0xbe009ae1	-0.12559082
134	0xbe819792	-0.2531095
135	0x3db9b34c	0.09067401
136	0x3d722296	0.059115015
137	0xbde4d5f1	-0.111736186
138	0xbe09eb73	-0.13468723
139	0x3de0d458	0.10978001
140	0xbe4841b9	-0.19556321
141	0x3dcb7e27	0.09936171
142	0x3e12fee4	0.14355046
143	0xbe4f1a96	-0.20224985
144	0x3d519411	0.051166598
145	0x3e19dfd5	0.15026791
146	0xbd7c1c02	-0.061550148
147	0xbe87b534	-0.26505435
148	0x3dddc8c7	0.10829311
149	0xbe4a05f9	-0.19728841
150	0xbe81b5c1	-0.2533398
151	0xbe7a8def	-0.24468206
152	0x3caa8ac8	0.02081813
153	0x3d440c63	0.047863375
154	0x3e30de1e	0.17272231
155	0xbe69c45b	-0.2282881
156	0x3e030028	0.12793028
157	0xbe15accc	-0.14616698
158	0x3e3f7e57	0.18700539
159	0xbd70095b	-0.058602672
160	0xbe1bca60	-0.15213919
161	0x3dcd3f8d	0.10021887
162	0xbb3c43eb	-0.0028727006
163	0x3e293291	0.16523196
164	0xbd229110	-0.039689124
165	0xbe659252	-0.22419098
166	0xbe0b3bd4	-0.13597041
167	0xbe724595	-0.23659356
168	0x3d76155a	0.060078956
169	0xbc41b33c	-0.011822518
170	0x3e32ea03	0.17472081
171	0xbe37de03	-0.17955784
172	0x3dbea8e6	0.093095586
173	0xbe770b7f	-0.24125479
174	0xbd76d385	-0.060260314
175	0xbd6c7924	-0.057732716
176	0xbda05552	-0.078287736
177	0xbe024d72	-0.12724856
178	0x3e1b224e	0.15149805
179	0xbe5386c5	-0.20656879
180	0x3e20a315	0.15687211
181	0xbe573647	-0.21016799
182	0xbe45e2ef	-0.1932485
183	0x3e60e572	0.21962526
184	0x3da6ad95	0.08138577
185	0xbe9468a0	-0.28986073
186	0xbe913ae7	-0.2836525
187	0x3d829b5c	0.06377289
188	0xbe2fe7cb	-0.17178266
189	0xbe3e260e	-0.18569204
190	0x3d828ad3	0.06374135
191	0xbe3afb69	-0.18259968
192	0xbe4f8313	-0.20264845
193	0xbe0a86d8	-0.13528001
194	0x3db4bbf9	0.088249154
195	0x3e207cde	0.15672633
196	0x3e736760	0.23769903
197	0x3e5a4926	0.21316966
198	0x3e38699a	0.18009034
199	0xbe16bfe1	-0.14721633
200	0xbcff2eb3	-0.031150198
201	0x3e831887	0.2560465
202	0x3dece3b7	0.11566871
203	0xbe0213df	-0.12702893
204	0x3e42b91f	0.1901593
205	0xbdf872ba	-0.12131257
206	0xbe49812f	-0.19678186
207	0x3e164674	0.14675313
208	0xbe32bd19	-0.17454948
209	0xbccf4b1d	-0.025304371
210	0x3df10c1b	0.11769887
211	0x3e61d479	0.22053708
212	0xbe1f948f	-0.15584014
213	0x3e655722	0.2239652
214	0x3e1378e4	0.14401585
215	0x3e3ca639	0.18422784
216	0xbc1eb7fa	-0.009687418
217	0xbced5f75	-0.028976182
218	0xbdf795ef	-0.120891444
219	0x3d7e5376	0.062091313
220	0xbd1e0eda	-0.038588382
221	0x3e93a3a7	0.28835794
222	0xbd6bff16	-0.057616316
223	0xbde4b28c	-0.111668676
224	0x3e2cfab2	0.16892508
225	0xbe0b3279	-0.13593473
226	0xbe2cc2d7	-0.168712
227	0xbe1af61a	-0.15132943
228	0xbdc52ef5	-0.09628097
229	0x3e26e892	0.16299656
230	0x3e006221	0.12537433
231	0x3e1c3849	0.15255846
232	0xbc91dd63	-0.01780576
233	0xbe2594a0	-0.16169977
234	0xbdce1bad	-0.100638725
235	0x3e576709	0.21035399
236	0xbda53c79	-0.08068175
237	0x3e697dd3	0.22801904
238	0x3dd3c95c	0.10341141
239	0xbd78da77	-0.06075522
240	0x3d45074c	0.048102662
241	0x3e052784	0.13003355
242	0xbdf1f0d4	-0.118135124
243	0x3e1536d4	0.14571697
244	0xbdc450a7	-0.09585696
245	0x3e544ad1	0.20731665
246	0x3e784684	0.2424565
247	0xbe17fe49	-0.14843096
248	0xbe1b667c	-0.15175813
249	0x3e430432	0.19044569
250	0x3dc8ce99	0.098050304
251	0xbd178b9b	-0.036998373
252	0x3d35125f	0.044206973
253	0x3e7e12be	0.24811837
254	0xbdb8db24	-0.09026173
255	0x3e075c01	0.1321869

fc.0.bias f4 [32]
0	0xbcc0c56d	-0.02353164
1	0xbdac57f9	-0.08415217
2	0xbdbc420e	-0.091922864
3	0x3d7c5869	0.061607752
4	0x3cb908cb	0.0225872
5	0xbd9d8f2a	-0.07693322
6	0x3d3e0b32	0.046397395
7	0xbc764538	-0.0150311515
8	0xbdd4bd27	-0.103876404
9	0xbd3b98f4	-0.045800164
10	0xbd2d9c2d	-0.04238527
11	0xbb6b5754	-0.0035910206
12	0x3da84ee5	0.08218173
13	0xbd386c9c	-0.045025453
14	0xbd4ab830	-0.04949206
15	0x3c091f0a	0.008369217
16	0x3d3d058d	0.04614787
17	0xbd4f2c58	-0.0505794
18	0xbd33705e	-0.043808334
19	0x3b8667f3	0.004101747
20	0x3c6ee26f	0.014580353
21	0x3dcf1845	0.10112051
22	0x3d77732b	0.060412567
23	0xbd512329	-0.051058922
24	0xbd039531	-0.032124702
25	0x3dbfcdf1	0.09365452
26	0x3d8d5b96	0.06902234
27	0x3d031888	0.032005817
28	0x3db09277	0.08621686
29	0x3d89621f	0.06708168
30	0xbcc7c118	-0.024384066
31	0x3d1ea8a0	0.038735032

fc.3.weight f4 [1, 32]
0	0xbe5d018e	-0.21582624
1	0xbe86cd84	-0.2632867
2	0xbe9007fb	-0.2813109
3	0x3efcbfdc	0.49365127
4	0x3ee3a2d6	0.4446017
5	0xbe75b489	-0.2399465
6	0x3e9a1876	0.30096787
7	0x3ef132d1	0.47109082
8	0xbe7dce83	-0.24785809
9	0xbe8c26b5	-0.2737328
10	0x3eeb8f03	0.46007547
11	0xbe70b860	-0.23507833
12	0xbea0eb6b	-0.3142961
13	0xbe42af0f	-0.19012092
14	0xbe539b67	-0.2066475
15	0xbe578438	-0.21046531
16	0xbe69d23a	-0.22834101
17	0x3ecea7b9	0.40362337
18	0xbea30a20	-0.31843662
19	0xbe7e2d18	-0.2482189
20	0x3eb5dc12	0.35519463
21	0x3ee52033	0.4475113
22	0x3ee0fe66	0.4394409
23	0x3ef5939c	0.4796418
24	0xbe8e4528	-0.27787137
25	0xbe99e761	-0.3005934
26	0x3ebd6dcf	0.3699784
27	0xbe87a546	-0.2649328
28	0x3ed817a1	0.42205527
29	0xbe64d002	-0.22344974
30	0xbe99d06c	-0.30041826
31	0xbe81b6a4	-0.25334656
