5 第五讲 机器学习训练模型的数学范式v16/models/model100.pth (torch, 112459 bytes, 21 tensors)

conv1.0.weight f4 [16, 3, 3, 3]
00000000: 4de9 65bc 5136 f6bd 3ce3 123e 3583 57bd
00000010: b7d0 09be b74c 32be 3524 333d 1330 24be
00000020: c0b2 be3d 16ed 953d 7b8e 413e fe76 0bbe
00000030: 9a1d 113d 5bc3 183d ef45 bf3c 16bc df3d
00000040: 8c43 0b3b 5b4c 84bd d0cb 173e 69ad f3bd
00000050: 0656 1cbe 22c3 dc3d bcba 4abd 4411 1d3e
00000060: 221b f4bd cded 1d3e ce13 293d 31d2 62bd
00000070: 905e 0a3e b305 8ebd 4a30 15bc 0d6e 9bbd
00000080: 8ed0 b33d 1748 5d3d 1f50 153e 6199 babd
00000090: 5fd6 fb3c 4e31 0dbc e388 263e 443a 23be
000000a0: 14f4 81bd ae81 2d3e 09b2 7d3d 9e4f 4bbd
000000b0: fa39 b23d c927 343d 16ff 8abd b9b6 1dbe
000000c0: 05e1 3fbe 502d cd3d 5f08 7bbc d233 973d
000000d0: 3660 26be f90d 2d3e f7bc a53d 482b 38bc
000000e0: 7ab3 bdbd 4761 76bc 1754 08be 0ce5 2ebe
000000f0: 7127 80bd aac6 e73d 80ef 2ebe d3b7 233e
00000100: 66a7 bf3d ecd1 1cbe 517d 313e adc8 593d
00000110: 42f5 20bd b878 e63c 84f7 2e3d ec77 fe3d
00000120: 8553 423e 2c42 133d 612c 1dbd 818f 8f3c
00000130: 0f84 183d 76e4 acbd 530c a3bd 069b 4cbe
00000140: 8bea 363e c893 93bd db5d 39bc afc4 1cbe
00000150: e478 0c3c 0df8 323e 6d1d 1cbe 79fb f13d
00000160: 96ca 463e 5ca7 3cbe f683 cbbc 0250 9d3c
00000170: d2f6 233c a12d 583b 9850 293e 8c04 203e
00000180: 3ff7 bb3c 7764 773d b9fa c4bd 88f0 07be
00000190: 0a5b cebd 1b23 183e ebf9 2e3e cf4f 133e
000001a0: d601 053d 1e9e b23d 63ef aabd bb20 2ebd
000001b0: 7f63 43be bd3e 6e3d 7099 ddbd a7f0 233e
000001c0: 4fbe 843c 2eff df3d f443 40bd 9408 443d
000001d0: 0b44 26be 14ae 48be f522 e6bd cfa1 4c3e
000001e0: 37bf 983d 63c5 d03d d3b6 4d3e c372 ac3d
000001f0: 8e54 aa3d ed32 5ebd 57e6 00be 2a0a ce3d
00000200: d251 203e 89c4 32be 131b 583d 1392 44bd
00000210: f944 233e d060 26bd 2824 2dbd 1d5c 22bd
00000220: efc0 70bd c2cd 1b3e 6528 c4bd e300 3a3d
00000230: 6c97 7d3b d1f3 083e ee1d b03d b576 12be
00000240: 2183 cdbb 2783 c03b 341c ecbc 5071 263e
00000250: 917e 4c3e 9443 06be 96e8 57bd 38bf 493e
00000260: 88f5 653d cd67 a6bd e494 d13d f735 38bd
00000270: 6f8f bfbd 5950 51be 859b e03d fa3b 8abd
00000280: 84ef 1ebe 828b 1dbe 67a8 d4bc b9b5 013e
00000290: 1064 cc3d 5f79 033e 288a a4bd 88c1 23be
000002a0: 05d7 0dbd 7dba babd a97b 873d 7fc3 053e
000002b0: 52a1 81bd 028d 51be 852a 243e 4f79 5f3d
000002c0: 43a5 06be c4e1 6bbd 3355 19bd 0793 febd
000002d0: e8d0 353e 8040 6e3d 2cca 04be a01b debd
000002e0: 7313 b4bd e3cb 46be 68a2 27bc a207 72bd
000002f0: 728e dbbd 1172 a53c ac56 c0bd 226a d83d
00000300: 40ec cd3d 4750 84bd e8bc b4bd 77dc 47be
00000310: e2fa 99bc c708 26be 4ac8 3c3e e615 e33d
00000320: 6236 b53b d476 2abc 1401 90bb b372 453e
00000330: dd03 a5bc f091 243d 88a3 f33d 0653 833d
00000340: 0bb4 b9bc 64fe fe3d 02a8 27be a57f 943c
00000350: a453 55be dd83 a33d 8207 dd3d 1f89 7abd
00000360: 2de6 29be 453d cdbd b822 8d3b f7cf 1cbe
00000370: 31d1 2abd 3c0c 21bd cefc e2bd 685f b13d
00000380: af34 c5bd 5413 9c3d 8e69 22be f20b 39bd
00000390: ab3a 353e 5ae7 02be ba8d 3abd b553 c43d
000003a0: 7865 983d 0ef8 88bd 5b4a a63d 7f7d 42be
000003b0: b8b5 78be 3aff 83bd 5d46 293e 1e74 c73d
000003c0: 5147 1d3e 3512 4d3d 8d05 e03c ba02 3f3e
000003d0: 6d99 b43d 4360 633d b14b 19be 952d 00be
000003e0: c5a3 0a3e 9a17 4b3e efa6 553d 4722 a23d
000003f0: 5f7e 18be 8685 82bd dac6 44bd 50e5 c4bd
-0.014032674 -0.12022079 0.14344496 -0.052615363 -0.13458525 -0.17412077 0.0437357 -0.16033964
0.093114376 0.07320611 0.18902008 -0.1361961 0.03542862 0.03729568 0.023348777 0.109245464
0.0021249978 -0.06459876 0.14823842 -0.1189831 -0.1526719 0.10779406 -0.04949449 0.15338618
-0.11919238 0.15422745 0.041278653 -0.055376235 0.13512635 -0.06934681 -0.009105751 -0.0758935
0.08780013 0.05402383 0.14581345 -0.09111286 0.030741869 -0.008617712 0.16263156 -0.15940195
-0.06345382 0.16944 0.061937366 -0.049636476 0.087024644 0.043983255 -0.06786935 -0.15401734
-0.18738182 0.10018408 -0.01532182 0.07382931 -0.16247639 0.16899861 0.08092683 -0.011240788
-0.09262748 -0.015037841 -0.13313328 -0.17079562 -0.06257523 0.11317189 -0.1708355 0.15988092
0.093581006 -0.15314454 0.1733296 0.053169895 -0.039296396 0.028133735 0.042716518 0.12425217
0.18977173 0.03595178 -0.0383724 0.017524483 0.037235316 -0.08442013 -0.07961335 -0.19981012
0.17862909 -0.072059214 -0.011313881 -0.15309404 0.008573744 0.17477436 -0.152456 0.11815543
0.19413218 -0.18423218 -0.024843197 0.01920319 0.010007577 0.0032986181 0.1653465 0.15626734
0.022945045 0.060398545 -0.09618134 -0.13275349 -0.10075958 0.14857142 0.17087524 0.14385913
0.032472454 0.08721565 -0.08346441 -0.042511683 -0.19080923 0.0581653 -0.108202815 0.1600977
0.016204027 0.109373435 -0.046939805 0.047859743 -0.16236894 -0.19597656 -0.11237136 0.199836
0.07458346 0.101938985 0.20089273 0.084203266 0.08316909 -0.054247785 -0.12587868 0.100605324
0.15656212 -0.17457785 0.052760195 -0.04799087 0.1594428 -0.04061967 -0.04227081 -0.039638627
-0.058777746 0.15215209 -0.09578017 0.045411002 0.003869499 0.13374259 0.08599459 -0.14303096
-0.0062717353 0.0058750096 -0.028822042 0.16254163 0.19970156 -0.13111717 -0.052712046 0.1970185
0.05614236 -0.08125267 0.10233477 -0.04497334 -0.0935353 -0.20440806 0.10967163 -0.06749721
-0.15521055 -0.1538525 -0.025959207 0.12666978 0.09980023 0.12839268 -0.08034164 -0.15991795
-0.034628887 -0.09117601 0.06615383 0.13062857 -0.063295975 -0.20463946 0.16031845 0.05455905
-0.1314898 -0.057588354 -0.037434768 -0.12430387 0.17755473 0.05816698 -0.12967747 -0.10845113
-0.08792772 -0.19413714 -0.010231592 -0.05908931 -0.10720529 0.020195993 -0.09391531 0.10567118
0.10054827 -0.06460624 -0.088250935 -0.19517694 -0.018796388 -0.16214286 0.18435779 0.11088161
0.0055301646 -0.010404307 -0.00439466 0.19282036 -0.020143444 0.04017824 0.118964255 0.0641232
-0.022668859 0.12450865 -0.16372684 0.018127272 -0.20832688 0.07984135 0.107924476 -0.061165925
-0.16591711 -0.10021452 0.0043071173 -0.15313707 -0.041703407 -0.03931831 -0.11083375 0.086607754
-0.09629189 0.07620874 -0.15860578 -0.045177408 0.17698161 -0.12783566 -0.045545317 0.09586278
0.07441229 -0.06687938 0.08119651 -0.18993185 -0.2428807 -0.06445165 0.16530748 0.097389445
0.15359236 0.05006619 0.027346397 0.18653384 0.08818326 0.055511724 -0.1497028 -0.12517388
0.13539036 0.19833222 0.052161153 0.07916694 -0.14891957 -0.06373124 -0.048041202 -0.096140504

conv1.0.bias f4 [16]
00000000: d405 9a3d 03b4 043e 1ba7 a03d ca36 843d
00000010: 61e7 46be 3f11 7ebb 3b91 f43d 67e9 013d
00000020: 6970 4abe 7514 813c be08 3b3e e1eb f1bd
00000030: b480 2b3e bea1 28be ea32 673c df98 6f3e
0.07520643 0.12959294 0.07844373 0.06455763 -0.19424202 -0.0038767604 0.11941763 0.03171673
-0.19769444 0.015756825 0.18265054 -0.118125685 0.16748315 -0.1646795 0.01411126 0.2339816

conv1.3.weight f4 [16]
00000000: 9513 763f ac20 7b3f 272b 843f 1589 693f
00000010: 2490 823f 4107 823f 567a 7f3f d064 6c3f
00000020: 3526 713f 3e65 853f 471e 6f3f 951b 903f
00000030: a0ac 6b3f c7c1 823f 6b52 723f 0a1b 793f
0.9612363 0.9809673 1.0325669 0.91224796 1.0200238 1.0158464 0.99796045 0.9234133
0.94198924 1.0421522 0.93405575 1.1258417 0.9206028 1.0215386 0.9465701 0.97306883

conv1.3.bias f4 [16]
00000000: 3ba1 20bc 5752 213e 719b afba 9ff3 fd3c
00000010: 40a1 183e e4e0 14bd 90b4 b33d e846 1f3d
00000020: bd6f 503e 075e 223d 1d6a 01be cfef a63c
00000030: ac15 303c 0522 883d 1acc 9f3c de8f ebbd
-0.009804065 0.15754066 -0.0013397766 0.030999957 0.14905262 -0.036347285 0.08774674 0.03888598
0.20355125 0.039640453 -0.12638135 0.020378022 0.0107473545 0.06647114 0.019506503 -0.1150205

conv1.3.running_mean f4 [16]
00000000: ad98 c43d b873 623e e60e e93d d5f6 823e
00000010: 93bb a03c 2340 683c 5d79 9d3c efe1 8e3d
00000020: 019b 0638 597e 033d 6389 cc3e d249 8a3c
00000030: 588e 393e 81a7 813c 4ffe ba3d 85da 443e
0.09599433 0.22114456 0.11379795 0.25578943 0.019620692 0.014175448 0.01922291 0.06976687
3.209245e-05 0.032102916 0.39948568 0.016880903 0.18120706 0.015826942 0.09130537 0.19223984

conv1.3.running_var f4 [16]
00000000: b739 f43a 1f09 4f3b e78c 5a3b a559 783c
00000010: 873b d13a 3fd4 753a 645a e13a f42e 0d3b
00000020: ec78 3e36 cbd9 083b f645 de3c 7b9f b83a
00000030: dd57 9d3a f9df 933a 8bb8 be3b d937 e83a
0.0018632923 0.003159113 0.0033348144 0.015158092 0.0015963175 0.00093776354 0.0017193076 0.0021542879
2.8382592e-06 0.0020881768 0.02713297 0.0014085615 0.0012004335 0.0011281959 0.005820339 0.0017716839

conv2.0.weight f4 [32, 16, 3, 3]
00000000: 37e5 2c3a cc68 dfbc db4c 38bc e480 eb3b
00000010: 3eed 8b3d db19 ae3c ec43 8a3d f548 40bc
00000020: e56d d9bb 3000 3fbd da8e b7bd 12ce 50bd
00000030: ce2f c4bc f65d f73c 53a6 10bd 077e 09bd
00000040: 6ed3 4dbd 2c4a 353d 4ec4 cd3d cb23 d1bc
00000050: 1c44 c2bd 2004 a93d 08f2 783d e3b2 91bd
00000060: 9c09 5abd 0941 4cbd a6d3 96bd 914e c43d
00000070: aedb 553d 372b 6ebd b13d f0b9 7c09 853d
00000080: 6160 cbbc b8bf 233d 8428 503c ce15 273d
00000090: 18d4 203d 58e6 133d 2c33 0cbd 7333 e4bd
000000a0: c94f 97bc b7c0 963b f45d 65bd 54e7 5cbd
000000b0: 55f5 773c 4da2 c63c 8c6a 9a3d aeae ba3d
000000c0: 95dd 1fbd 8fcd 883d 1f0d 383d b0eb c03d
000000d0: cb1e d53d fff6 953d 7a04 6c3d 3915 ae3c
000000e0: f2f7 dcbc 8e14 19bd f919 3a3d 5cc6 13bc
000000f0: 1e49 283d aa7a 133d 33da 8d3d a366 753d
00000100: 5799 89bd b19c 22bd 102d 853d 11f6 663d
00000110: f121 61bd bc92 0e3d 7ac2 9dbd 1783 70bd
00000120: 880e 41bd 1ab5 28be a1c0 a9bd 503b 21be
00000130: 6d70 49be f043 1bbe 0e9a 06be da0f b0bd
00000140: 1b9d 36be df96 0abe febf 63bd 347c 603d
00000150: e8f4 94bd 12eb bb3b c0b4 633d 021f e8bd
00000160: 5d66 e0bd 6544 6f3d e263 bf3d d9d3 d1bb
00000170: 624f 04bc ee15 26bd e5af 0d3d fab1 bdbc
00000180: 25e3 d13d 7375 583d 5e8a 003d 5aa5 0f3c
00000190: 3d52 61bc 4a4b 423d 38ed bbbd 1c44 e4bd
000001a0: cfec 03be 4b67 01bd 233c 353d e6be 1b3d
000001b0: 91b9 6d3d 129f 73bc 3c95 4a3d 4374 313d
000001c0: 08a6 ccbb 89a6 603b a392 2cbd ba9c 203c
000001d0: cf4d 91bd 1652 6a3d 42c6 8ebd 050d fbbd
000001e0: add1 26bd 0eb1 8dbd 3802 b9bc 2b39 18be
000001f0: 7a8a 64bd bb73 4b3d 68c2 af3c 51f1 4ebd
00000200: b69a b1bc 1030 1abd e4e7 79bd 6576 74bd
00000210: 854f 23bd 1e8f f13c 7249 f23c 0d5a 2ebd
00000220: 9487 513b 2ecf bd3c 1e26 213c 6a5e 88bd
00000230: 3a4a 3bbd acca 5d3d f16c 863d 378a 803b
00000240: 1a19 d63c 5e07 d3bc a552 003d 62ae 9f3d
00000250: 0eaf 273c 82c4 5bbd c9d6 753c 3cfb 343d
00000260: c602 8a3d 964a 11bd f0e9 1d3c 6d73 6abd
00000270: 1700 99bd 4cb3 943c 7e16 01be 013e bb3c
00000280: e1ec 62bc d4a9 08bd 37ef e83c 2324 bc3d
00000290: 93bf 9e3d da36 dc3d cc64 5cbd 95c0 153d
000002a0: 42bd ca3d 7069 c1bb 19a2 af3d ef7b 9b3d
000002b0: 184a b53b 4f87 6ebc 0b91 2139 6319 aebc
000002c0: 95c6 973d d89d 4f3d 4093 cdbc f70f b33d
000002d0: 2a0a 403d 3913 203d 8a3e 31bd 74c4 6b3d
000002e0: d0d5 543d 7b0f 3f3d 47ea 953d 9442 c3bb
000002f0: ae89 703d 7d35 40bb e121 b6bd 2afc 21bc
00000300: b163 9cbd 5af3 19be b951 d0bd 8360 003c
00000310: b02b 64bd 39ad b7bd f4ad d7bc 5e7a c7bc
00000320: f0e2 9a3d 1e55 e83d 747b 253d fb2c 9f3d
00000330: 8b91 0d3d 2baa 6ebd 1256 993d 0b22 56bd
00000340: 5d1b 893d bae3 2b3d e7dc 49bd 23d3 8dbd
00000350: a626 82bd 44d6 15bb 8d33 cdbd 2d35 4fbb
00000360: 6d26 623c 4d56 2ebd 16d0 813d fc4c cabd
00000370: 0095 763c 29c7 aabc 1fa2 02bd 51d1 b8bd
00000380: 511a 56bd b69f 0d3d e9b9 afbd 25f2 81bd
00000390: 8300 463d 6e37 56bb 103b a4bd ad3f bb3d
000003a0: 44b0 aebc 90cd b5bc 3e68 223d c11b d9bc
000003b0: a712 c93d ea9b df3d fb44 ea3d d205 c2ba
000003c0: 847a 4c3c bcc8 fe3d fd79 813d b891 d83c
000003d0: 5be9 1d3d aab2 b33d a72c 70bd 7b74 cbbc
000003e0: fe24 4fbc 534b f43c 6a07 b43b 5ea5 313d
000003f0: 553c 9a3d d967 543d 9d27 653d 6c10 5e3d
0.0006595435 -0.02727165 -0.0112487925 0.007186996 0.0683236 0.021252563 0.06751236 -0.011736144
-0.006635415 -0.04663104 -0.08962794 -0.050977774 -0.023948576 0.030196171 -0.03531487 -0.033567455
-0.050250463 0.04426019 0.10047208 -0.025529763 -0.09485647 0.0825274 0.060777694 -0.07114198
-0.05323182 -0.04986671 -0.073645875 0.09585298 0.052211456 -0.05814668 -0.0004582233 0.064959496
-0.02482623 0.03997776 0.012704972 0.04079228 0.03926477 0.036108345 -0.03422849 -0.11142626
-0.018470662 0.00460061 -0.055997804 -0.05393155 0.015134175 0.024247313 0.075398535 0.09115349
-0.039029676 0.06679832 0.04493439 0.09419954 0.10406264 0.073225014 0.057621457 0.021250354
-0.026973698 -0.037373118 0.045434926 -0.0090194605 0.041085355 0.036005653 0.06926384 0.059912335
-0.067187004 -0.039700214 0.065027356 0.05638701 -0.05496401 0.034807906 -0.07703109 -0.058718767
-0.047133 -0.16475335 -0.08288694 -0.15745282 -0.19671793 -0.15162635 -0.13144705 -0.085967734
-0.17833368 -0.13534115 -0.05560302 0.05480595 -0.07273275 0.0057348097 0.0555923 -0.11334039
-0.10957024 0.058414835 0.09345223 -0.006403428 -0.008075567 -0.040548258 0.034591574 -0.023156155
0.102484025 0.052846383 0.031381957 0.00876745 -0.013752517 0.047435082 -0.09176105 -0.11145803
-0.12883304 -0.03159265 0.044246804 0.03802385 0.058038298 -0.014869468 0.049458727 0.043323766
-0.0062453784 0.003427895 -0.04213203 0.0098029915 -0.07094919 0.05720719 -0.069714084 -0.12258343
-0.040727306 -0.06918536 -0.022584066 -0.14865558 -0.055796124 0.049670916 0.021455005 -0.050523106
-0.021680217 -0.037643492 -0.061012164 -0.059683222 -0.039870758 0.029487189 0.029576037 -0.042566348
0.003197168 0.02317008 0.009835748 -0.06658633 -0.045725085 0.05414836 0.06563748 0.0039227265
0.026135016 -0.025760349 0.031328816 0.07796933 0.010234607 -0.0536542 0.015004822 0.04418491
0.0673881 -0.03547152 0.009638295 -0.057238985 -0.0747072 0.018151902 -0.12606236 0.022856714
-0.013850422 -0.033365086 0.028434379 0.0918658 0.07751384 0.107526496 -0.053807065 0.036560614
0.09899379 -0.0059024617 0.085758395 0.07591998 0.0055325143 -0.014558627 0.00015408189 -0.02125234
0.074109234 0.05068764 -0.025094628 0.087432794 0.046884693 0.039080832 -0.043272533 0.0575604
0.05196172 0.046645623 0.073200755 -0.0059588645 0.05872505 -0.0029328757 -0.08893181 -0.009886781
-0.07636202 -0.15034238 -0.10171837 0.00783551 -0.055705726 -0.089685865 -0.026328065 -0.024350341
0.07562816 0.1134436 0.040400937 0.07772251 0.03456263 -0.058267754 0.0748712 -0.05227856
0.06694672 0.041965224 -0.049282935 -0.06925037 -0.06355028 -0.0022863308 -0.10019598 -0.0031617389
0.013803107 -0.04256277 0.06338517 -0.09877965 0.015050173 -0.02084692 -0.031892892 -0.09024299
-0.05227119 0.03457614 -0.085803814 -0.063450135 0.04834033 -0.0032686847 -0.08019078 0.091430046
-0.021324284 -0.022192746 0.039650194 -0.026502492 0.09818011 0.1091841 0.11438938 -0.001480276
0.012480382 0.12440631 0.063220955 0.026436672 0.038552623 0.08774312 -0.058636334 -0.024835816
-0.012643097 0.029821074 0.005494048 0.043370597 0.07531039 0.05185685 0.05594598 0.05421488

conv2.0.bias f4 [32]
00000000: 40ad b6bd 1963 91bd 0e03 e4bd a0fa a53d
00000010: f2d7 0bbe e531 b8bd 2712 c93d bd1d a83c
00000020: b0cb fdbd 166b 0f3c 0db4 a7ba 1a10 39be
00000030: 97b8 e2bc 0076 d4bd 9ef5 79be bfcd a9bc
00000040: 939a 9cbd 9b98 64bd 0a27 a8bd 51d3 c53d
00000050: 9488 9f3c 45d7 ffbd 2414 a7bd 0b2f b5bd
00000060: f897 e83c 1c3f 2dbe df97 efbd 6f13 bf3c
00000070: 60b6 e3bd 9022 2ebe 8d92 f1bd f3b6 ffbd
-0.089197636 -0.070989795 -0.11133395 0.081044436 -0.13656595 -0.089938916 0.098179154 0.020521993
-0.12392366 0.008753559 -0.0012794748 -0.18072549 -0.02767591 -0.10374069 -0.24410102 -0.02072799
-0.0764667 -0.0558096 -0.08210571 0.09659446 0.019474305 -0.12492231 -0.081581384 -0.08846863
0.028392777 -0.16918606 -0.11698889 0.023324696 -0.1111877 -0.17005372 -0.117955305 -0.12486067

conv2.3.weight f4 [32]
00000000: d127 813f 1e22 6f3f b613 813f 841b 6a3f
00000010: 56fb 7a3f 2ce0 763f 5f13 733f 1f0e 803f
00000020: 098a 793f ec5d 813f 1bd2 7f3f f859 7e3f
00000030: 22fa 813f 0a83 7d3f 85af 843f 5a12 813f
00000040: 81f1 4f3f 50be 763f 170c 803f 0bfa 6e3f
00000050: 3d01 713f 0c3d 6c3f fb98 803f 297d 833f
00000060: 906d 7c3f ee0a 833f e5d8 803f ba59 643f
00000070: 13a9 773f eb7a 803f 6595 703f 6f56 6f3f
1.0090276 0.93411434 1.008414 0.91448236 0.9803976 0.9643581 0.9495143 1.000431
0.9747625 1.0106788 0.9992997 0.9935603 1.015446 0.99028075 1.0366064 1.0083725
0.8122788 0.96384144 1.000369 0.93350285 0.94142514 0.9228065 1.0046686 1.0272571
0.9860468 1.023771 1.0066191 0.8919941 0.9674236 1.0037512 0.9397796 0.9349126

conv2.3.bias f4 [32]
00000000: 8f5e 503d aa9f af3e 4dc1 803d 78ae 23be
00000010: 1d60 1c3e 051e 1dbe 9d91 f93e d9c9 2b3d
00000020: 25a5 c9bd 41a7 433e b3b3 c4bd beb8 0d3f
00000030: 2a30 26be 18bf 523e 870d a33e 1537 10be
00000040: 0e66 2c3e 4ef7 dbbd ace3 a2bc d0af 89bd
00000050: 2a1c 6f3e 713a 4a3e b40e a13e 6247 443e
00000060: 1199 af3e 0d20 9f3e 6cf6 a6bd b52e 03be
00000070: 9ba3 c23e 96d9 5a3e 99df 8c3e 840f dd3e
0.050871428 0.34301502 0.06286869 -0.15984523 0.1527104 -0.15343483 0.48743907 0.041940544
-0.09845952 0.19106771 -0.096045874 0.5536002 -0.1622931 0.20580709 0.31846258 -0.14083512
0.16835806 -0.10740529 -0.019883953 -0.06722987 0.23350587 0.19748856 0.3145653 0.19167855
0.34296468 0.3107914 -0.0815247 -0.12810786 0.38015446 0.21372065 0.2751434 0.431759

conv2.3.running_mean f4 [32]
00000000: ffd3 fd3d 8eb3 2e3f 6664 7f3e 0c4f 743f
00000010: 6e70 903e 211e 143e 7240 063f 2bc2 db3e
00000020: 3962 bb3e b9bc 183f 1115 0b3e 34ed 013e
00000030: 4b05 0b3f 2ace f63e 9a46 b23d 1042 843e
00000040: 0e1e 553f ca6d c43e 3293 7a3e 4465 1a3f
00000050: b7a4 023f 6997 de3e d220 073f f943 3f3e
00000060: 1d9a 0d3f 08e5 483e dfef 9d3e 2330 b93e
00000070: 6869 273e b37c ce3e 6215 e43e 8e36 553e
0.12393951 0.6824273 0.24940643 0.95433116 0.28210777 0.14464618 0.52442086 0.42921576
0.36598375 0.5966297 0.13582255 0.12688142 0.5430495 0.48204166 0.087048724 0.25831652
0.83248985 0.38365012 0.24470213 0.6031077 0.51032585 0.43474892 0.52784455 0.18678273
0.55313283 0.19618618 0.3084707 0.36169538 0.16348803 0.40329513 0.44547564 0.20821592

conv2.3.running_var f4 [32]
00000000: 2678 643d 0dc5 ac3f 1953 1b3e ef23 a43f
00000010: ae16 973e fe03 573d cbdd 763e 26b6 023f
00000020: ceba 083f 3032 a33e 2d6a ca3d 0622 b93d
00000030: 7850 9f3e 7e80 6f3f 6e59 d93d 898b 173e
00000040: 7330 e93f 9cc0 dc3e e89d 813e 8206 e23e
00000050: 2ba3 8a3e 129d 493f 3158 3b3f 0d92 f23d
00000060: 878d df3e ba38 1f3e 4cfa 393e 279d e03d
00000070: e3c9 6e3e ddb7 343f 8848 a93e c451 103e
0.055778645 1.3497635 0.15168418 1.2823466 0.2950949 0.05249404 0.24108045 0.51059186
0.5341004 0.31874228 0.09883533 0.090396926 0.3111608 0.9355544 0.106127605 0.14799322
1.821791 0.431157 0.25315785 0.4414559 0.27077612 0.78755295 0.73181444 0.11844263
0.43662664 0.15548983 0.18161887 0.109674744 0.23319201 0.70593053 0.3306315 0.14093691

conv3.0.weight f4 [64, 32, 3, 3]
00000000: e2b5 1cbd 23a8 1ebd beb5 6fbd ed2d 3bbd
00000010: 8b28 62bd e074 88bd 0a9f 96bd 301e 0cbd
00000020: dc5f 05be 2bc0 74bd 51cc eb3c 2c19 37bc
00000030: 3439 9bbc 5a31 4ebd 0091 adbc a5d8 cebb
00000040: 01c8 7abc 38b2 573d 2552 15bc 4f7c c0bc
00000050: 453c babd 8995 b33c d03c 4ebc 434e c8bc
00000060: 5845 9bbd 3710 05bc fd55 40bd b465 103d
00000070: 7173 06bd 5ecb 8e3d 5fe3 b0b8 af77 e9bc
00000080: d21a 1a3c 3208 7ebc 63da 6d3b 1397 bdbc
00000090: 54c1 69bd fd5d 84bd 72d6 91bc 249e 17bb
000000a0: ae0a 81bd 183b 01bd 41e5 69bc fb77 a7bb
000000b0: 9938 1fbc 5fb4 a33a 85d1 37bc 7380 33bc
000000c0: 9f74 0a3d d245 9f3c 4519 e63b 1056 5a3c
000000d0: 3d3c 023d 922e 403c b3ae 3cbc 976b c3bd
000000e0: f5a7 07bd abbe c7b8 7d69 a9bd a8d1 65bd
000000f0: b41c 92bd 9ed3 10bd e497 8ebd a978 08bd
00000100: 454c e8bc 32db f7bc c948 c1bc f6d4 083d
00000110: 87f1 f7bc f19a 37bb ea78 6a3d 995e 2a3d
00000120: e63b 3f3d c224 dc3d 7f7b c13d ba7b d03d
00000130: 2383 933d a633 833d b271 23bc 7d28 b33d
00000140: 0793 9b3d 549a e03c 5c2f 393c 68bd ae3c
00000150: ae73 33bb 9064 613d 967c b73c 0257 ae3c
00000160: 5f63 e13c f940 3a3d 2932 15bd d574 12bd
00000170: 6817 d63b 1cbf 8ebc 92d6 13bd 54b0 a43a
00000180: fc60 67bd 815b c4bc 2b5b 11bd 4843 41bd
00000190: c133 b7bd d467 7dbd ac5b 67bd df09 f3bd
000001a0: fd18 b8bd cf31 86bd 90dc febd 7eb8 cbbd
000001b0: fe5c 52bc 94f0 db3c f2b2 a63c ef34 21bd
000001c0: 7ddb b23c 6274 b8bc 17df 26bd 648b 9eb9
000001d0: c48c f6bc a5b0 a8bd 90c4 4abd 2711 6bbd
000001e0: 9475 9cbd 6ad5 17bd df49 01bc fb59 88bd
000001f0: ae98 023d 1cdc c339 0387 063d 98ce 883d
00000200: a0fc 203d 2859 863c 1be4 d83c 2434 163d
00000210: 843b 373d 7e71 893d e319 523c a6e1 11bd
00000220: cfce 2bbd 740e 06bc b99d dabc 7ab3 f5bc
00000230: d48c 56bd 5725 7fbd 11ab aabc e5b3 95bd
00000240: 79ae 4b3d fe15 74bc 4999 1dbd 3c0b 18bd
00000250: 287d 313c 95da 8a3a cd97 24bd c0e9 0f3d
00000260: 0870 fd3c 1acb 333d ba88 8d3d 7a3a 9e3d
00000270: f260 273d 795e ac3d 744d 07bc 8a36 773d
00000280: a8db b73d e5bf 953d b0cb 59bb 1a97 373d
00000290: 4121 bbbc 920f 103d efc8 053d 399b 22bd
000002a0: cbbb dabb 1378 043c b343 8c3c 98a1 83bd
000002b0: 0ff6 02bd e609 0f3d a21a 0bbd 1d9b 6cbc
000002c0: 873d f5bb 1c0b 3b3c 4eb8 2c3d 7719 ef3a
000002d0: f99a 8b3c 234a 2dbc 8473 1dbd 0efd c8bc
000002e0: 6e22 0bbc e804 3abd 7e36 bfbc 5075 9d3c
000002f0: b51f 3c3c e34b 02bd c5bb 3ebd b360 963c
00000300: 7f25 403b f49a b7bb 69f0 6bbd 38f8 393c
00000310: 17dd d03b ed9a 60bd 09b6 1c3c ae3a 08bc
00000320: 279d 413d a485 95bc 3a96 973d cc03 493d
00000330: ac32 88bc d093 adbc c5fb c13b d69a 22bd
00000340: 0a1c 98bd 066e e4bd 81e9 8ebd 6dd8 72bd
00000350: e868 44bd 3ae6 93bd c9eb 9fbd b214 f4bd
00000360: 6b56 6dbd 44ed 58bd 18fc bfbd b945 243c
00000370: d253 5ebc a69c 8cbd 4c6f 29bd c249 79bd
00000380: bffb 7bbd fc80 923c b7ef 823d 5d9a 3cbc
00000390: 3d05 0bbc 34c6 0f3d 6f02 9a3c 2dbc fdbc
000003a0: b0ec 823d 52a7 e9bc 0a61 3abd fca8 adbc
000003b0: 4473 cebc 36f0 cbbc 3432 a8bb 54b2 4c3b
000003c0: d346 7abd b763 50bd d2b9 f1bb 9319 05bc
000003d0: 8f10 07bd 20e2 2bbd 4e15 333c 2333 30bd
000003e0: 194c 46bd 02a5 13bd 227f adbb 0082 ec3c
000003f0: f13c 2fbd 6924 cbbd 38b3 f1bd a2ed adbd
-0.038259394 -0.038734566 -0.058522932 -0.045698095 -0.055214446 -0.06662917 -0.07354553 -0.034208477
-0.13024849 -0.05975358 0.02878395 -0.011175435 -0.018948175 -0.050340034 -0.021187305 -0.006312447
-0.015306474 0.052660197 -0.009113823 -0.023496775 -0.09093527 0.02192189 -0.012587741 -0.02445138
-0.07581586 -0.008121542 -0.046957005 0.03525324 -0.032824937 0.06972383 -8.434685e-05 -0.028499452
0.0094058085 -0.015504884 0.0036293499 -0.023143327 -0.057069138 -0.06463239 -0.01780245 -0.002313503
-0.06300865 -0.031550497 -0.01427585 -0.0051107383 -0.009718084 0.0012489668 -0.011219387 -0.010955918
0.033802625 0.019442473 0.0070220553 0.013326183 0.03179573 0.011729853 -0.011516261 -0.095420055
-0.03311916 -9.524574e-05 -0.082720734 -0.056108147 -0.07134381 -0.035358064 -0.069625646 -0.033318195
-0.02835668 -0.030255888 -0.023594277 0.03340622 -0.030266536 -0.0028015936 0.05724422 0.04159412
0.046687983 0.107491985 0.09447383 0.10179849 0.07202747 0.064063355 -0.009975838 0.08747957
0.075964026 0.02741734 0.011302795 0.02133055 -0.0027382183 0.055027544 0.022398274 0.021281723
0.027513204 0.04547212 -0.03642479 -0.03575595 0.006533552 -0.017425112 -0.036093302 0.0012564757
-0.056488976 -0.023969414 -0.035487335 -0.047183305 -0.08945418 -0.061866596 -0.05648391 -0.11867117
-0.08989141 -0.06552469 -0.12444413 -0.099472985 -0.012839554 0.026848115 0.020349 -0.039357122
0.021833176 -0.022516433 -0.0407401 -0.00030239963 -0.03009642 -0.08236817 -0.049503863 -0.057389405
-0.07639614 -0.037068762 -0.007891147 -0.066577874 0.031883888 0.00037357293 0.0328436 0.0668003
0.039303422 0.016399935 0.026475957 0.03667082 0.044734493 0.067111 0.012823555 -0.035615586
-0.041945275 -0.008182157 -0.026686536 -0.029992808 -0.052380398 -0.06229147 -0.020833524 -0.07309703
0.049726937 -0.0148978215 -0.038476262 -0.03712009 0.010833062 0.0010593707 -0.04018383 0.03513503
0.03093721 0.043894865 0.06910844 0.07725997 0.04086394 0.08416457 -0.008258212 0.060354747
0.08977443 0.073119916 -0.003323298 0.044821836 -0.022843005 0.0351711 0.03266233 -0.039698813
-0.0066752187 0.008085269 0.017122125 -0.06427306 -0.03197294 0.03492155 -0.033960946 -0.014441279
-0.0074841413 0.011416223 0.042167954 0.0018241842 0.01704167 -0.010576758 -0.038440242 -0.024534728
-0.008492095 -0.045414835 -0.023341414 0.019220978 0.011482169 -0.031810652 -0.04656579 0.018356657
0.0029319224 -0.0056031886 -0.05760232 0.011350684 0.006374012 -0.05483525 0.009564885 -0.008314772
0.047269013 -0.018252201 0.074017 0.049075887 -0.016625725 -0.021188647 0.005919906 -0.039698444
-0.07427223 -0.11153798 -0.06978131 -0.05928843 -0.04795161 -0.072216466 -0.07808644 -0.1191801
-0.057943743 -0.05296065 -0.09374255 0.010026389 -0.013569789 -0.06865816 -0.041365907 -0.060861357
-0.06151938 0.01788377 0.06393378 -0.011511412 -0.008485136 0.03510113 0.018799989 -0.030973518
0.06392801 -0.028522167 -0.0455027 -0.021198742 -0.025201447 -0.024894815 -0.005132938 0.0031234222
-0.0611027 -0.050876345 -0.007376888 -0.008123773 -0.032974776 -0.041963696 0.010930372 -0.043017518
-0.048412416 -0.036046036 -0.0052946964 0.028870583 -0.042782728 -0.09919054 -0.118017614 -0.084925905

conv3.0.bias f4 [64]
00000000: 35b1 4fbe f047 60bd 2150 a9bd 2d74 19be
00000010: 7e3e 4ebd 48c6 d8bc e3cf c2bd ea06 17be
00000020: 3420 7fbd 32d2 a8bd 665f e73c 0492 e8bd
00000030: fcd8 82bd 9c70 36bd 5967 32be a70d 1ebd
00000040: d517 24be a988 03be 0b37 52bd e5b4 08be
00000050: 1555 10be 3a4e aebd 65b2 b6bd 9a71 c3bd
00000060: 7fe7 9fbd af2d cdbd 49df 5fbe a1d5 a1bd
00000070: e075 75be cd25 aabd 23ee 4abe ad1c bdbd
00000080: 6a44 babd 364f 41be d4ce 13be 76c7 2abe
00000090: b947 8cbc 23f3 91bd dbe9 05be 7f82 dabd
000000a0: d0c2 efbd c28d 95bc 85d7 0dbe 662f 95bd
000000b0: 2047 a3bd 80b6 87bd a54c 4abd 32f9 63bd
000000c0: 9698 8fbc 9930 c8bd aaaa fcbd d202 d8bd
000000d0: eb8a 22be 0e6e 5ebd 9445 0abd 87f2 06be
000000e0: c4c0 40bd fa4a 85bd 6f60 88bd 7d8c d13c
000000f0: adbe 063c 9179 93bd 9b8e 33be 64c0 f7bd
-0.20282443 -0.054756105 -0.082672365 -0.14985724 -0.050352566 -0.026461735 -0.095123075 -0.14748731
-0.06228657 -0.082432166 0.028243732 -0.11355975 -0.06389043 -0.044540986 -0.17422237 -0.03858724
-0.16024716 -0.128451 -0.051322024 -0.13350256 -0.14094956 -0.08511014 -0.08920745 -0.09543152
-0.07807826 -0.10018479 -0.2186252 -0.079020746 -0.23970747 -0.08307991 -0.19817404 -0.09233985
-0.0909508 -0.18877873 -0.14434367 -0.16677651 -0.017124044 -0.07126453 -0.1307749 -0.106694214
-0.117070794 -0.018256072 -0.13851745 -0.07284431 -0.079725504 -0.06626606 -0.0493895 -0.055657573
-0.017528813 -0.09774894 -0.12337239 -0.10547413 -0.15873305 -0.054304175 -0.03375776 -0.13178454
-0.047058836 -0.06508441 -0.06659018 0.025579685 0.008224172 -0.07200921 -0.17534868 -0.120972425

conv3.4.weight f4 [64]
00000000: 2786 8a3f b97b 8b3f dd8a 9b3f a86c 9c3f
00000010: e991 983f 2a44 993f 01d2 9c3f da05 893f
00000020: d4df 793f 8ea2 9d3f b020 983f 0574 803f
00000030: a5b3 993f 3bf1 853f c0f6 893f c13c 953f
00000040: 27ff 853f d354 8d3f e862 9b3f dde9 963f
00000050: e684 883f 766a a13f 3b44 9a3f ce14 9c3f
00000060: 1feb 863f db6f 893f b87a 863f fdcc 9f3f
00000070: 6716 8a3f a2cd 993f 9ca3 863f bf7f 7d3f
00000080: 1d0e 923f 83a0 8c3f 29f5 833f fb55 8a3f
00000090: c9b5 6f3f 2b4f 9c3f 94e2 9c3f 5ff7 9a3f
000000a0: 32f9 883f 0126 7e3f 6003 8b3f 3419 993f
000000b0: fc02 8a3f 9cb0 9e3f 7868 973f 9f96 7c3f
000000c0: 2e83 973f 4527 9f3f 143e 8a3f 85bd 9a3f
000000d0: 8578 813f c5a7 913f 4329 a23f 78b8 8b3f
000000e0: e9ea 843f 477b 9e3f 9a19 973f 5fee 753f
000000f0: 5861 9b3f 5caa 9c3f e4b9 823f 2815 973f
1.082219 1.0897132 1.2151753 1.2220659 1.1919528 1.1973927 1.2251588 1.0704911
0.9760716 1.2315233 1.1884975 1.0035406 1.2007948 1.0464243 1.0778427 1.1659166
1.0468491 1.1041511 1.2139559 1.179012 1.0665557 1.2610614 1.2052072 1.2193849
1.0540503 1.073726 1.0506201 1.2484432 1.0788087 1.2015879 1.051868 0.9902305
1.1410557 1.0986484 1.0309192 1.0807489 0.9363676 1.221166 1.2256646 1.2106742
1.0701048 0.9927674 1.0860405 1.1960816 1.0782161 1.2397647 1.1828756 0.9866733
1.1836908 1.2433859 1.0800195 1.2089087 1.0114905 1.1379324 1.2668842 1.091567
1.0384189 1.2381371 1.1804688 0.9606685 1.2139082 1.223949 1.0212979 1.1803331

conv3.4.bias f4 [64]
00000000: 0140 a4bb 1b78 823a dc5a af3b 8db0 01bc
00000010: ff87 993b e6c2 c93b 1d04 ae3b 0389 46bb
00000020: 508e 27bc 8410 5c3c b930 1c3c 1615 36bc
00000030: 0009 8abc d073 4abc 4df4 093c ad9d 37bb
00000040: 4d2b 113c d7d6 303b 8638 6d3c 6f4c 87bc
00000050: 12c6 2fbc 7960 01bb 5d04 a13c b0c7 36bc
00000060: aa73 20bd 8d66 2dbc 5783 80bc 4238 8cbc
00000070: d5d2 ddbc 99c5 adb9 8c66 89bb 6940 81bc
00000080: 16d4 923c 3390 7ebb 56c1 4dbc 1195 043c
00000090: 9402 1cbb 9372 a93b 8419 c2ba 7772 f5bb
000000a0: d0af 01bc ce2e 6b3c 8a3d 8f3c 2e26 173b
000000b0: 35e1 703c 90af c0bb fbda 6e3b a057 ea3b
000000c0: 66fb 9fbc b2d8 fa3b 162a b8b9 a2fd 843c
000000d0: a4fb 59bb 034e b23a 1f43 473b 4f29 75bc
000000e0: 3250 a33c 9470 823c d5a4 e43b 829d 17ba
000000f0: d0a7 723c 1c89 5e3c 099f 923c 74ea 953c
-0.0050125127 0.0009954007 0.0053514075 -0.007915628 0.0046854015 0.006157267 0.005310549 -0.0030294068
-0.010226801 0.013431672 0.009533101 -0.011113426 -0.016849995 -0.012356713 0.008420062 -0.0028017566
0.008860421 0.0026983523 0.014478808 -0.016515939 -0.010728376 -0.001974134 0.0196554 -0.011156008
-0.039172806 -0.010583532 -0.015687628 -0.01711667 -0.027078072 -0.00033144353 -0.0041931327 -0.015777783
0.017923396 -0.0038843274 -0.012558302 0.008092181 -0.0023805248 0.005171129 -0.001480863 -0.007490452
-0.007915452 0.014354421 0.017485399 0.0023063528 0.014702131 -0.0058803037 0.003644644 0.007151559
-0.019529056 0.0076552266 -0.0003512657 0.016234223 -0.0033261562 0.0013603572 0.0030404998 -0.014963462
0.019935701 0.015922822 0.0069776573 -0.00057836634 0.014810517 0.013582494 0.0178981 0.018300273

conv3.4.running_mean f4 [64]
00000000: 684c cd3c f0ad 983d 3db3 303e 07e4 da3d
00000010: ccf0 213e e730 1c3e 8f07 0a3e bd67 163e
00000020: d4fd 033e 498a 1b3e 6b61 043e 7b21 f53d
00000030: 13c8 203e 4674 603d d3ba d03d 13c8 2e3e
00000040: eee3 a43d 0c86 a23d 3bd2 f73d bb86 af3d
00000050: fdb6 3e3d b064 203e 979b 383e 3a66 e33d
00000060: 7144 9c3d b17b 243e 4524 8c3d 95f7 b03d
00000070: 258a 003d 51cf 043e e5ce 323d b614 133e
00000080: f335 573e 6aaf 583d 2a5d 833e 9219 8b3d
00000090: 7cd5 533f c5d2 b13d 0c35 073e 121a 6e3e
000000a0: b5fb 6a3d 16c3 f33e df28 e53c 9c26 e83d
000000b0: 9a76 663d d469 453e 9546 4b3e 9c72 d63d
000000c0: 1459 283e ab25 d73d 1b23 8d3d 2169 023e
000000d0: b309 673d 7c8e 733e 90ed f73d 6482 6e3d
000000e0: 6ac4 ee3d 9b34 bf3d 8da8 bf3d 39c2 843f
000000f0: 27a6 213e 49fc 143e 0f7b 6c3d bf8b 063e
0.025060847 0.07455051 0.17255874 0.10688024 0.15814513 0.1525303 0.13479446 0.1468801
0.12889796 0.1518947 0.12927787 0.119692765 0.15701322 0.054798387 0.10191884 0.1706851
0.08051287 0.07935724 0.12100645 0.0857062 0.04656123 0.15663409 0.18028103 0.111034825
0.07630242 0.1606281 0.06842855 0.086409725 0.031381745 0.1296971 0.04365434 0.1436337
0.21016674 0.052901663 0.25657016 0.067919865 0.82747626 0.08682779 0.1320383 0.23252133
0.057368953 0.47609776 0.02797359 0.11335489 0.05626545 0.19278651 0.19851144 0.10471079
0.1644023 0.105052315 0.068914615 0.12735416 0.056405734 0.23784822 0.12105858 0.05822982
0.11658557 0.093362056 0.093583204 1.0371772 0.15786038 0.14549364 0.057734545 0.13139246

conv3.4.running_var f4 [64]
00000000: 792f a13d d996 133e 39bb 3b3f a10b a63e
00000010: db7b 1a3f 30c4 0a3f c297 e33e 51b0 873e
00000020: 1e7f f23e cce6 023f 2e52 bb3e b024 3e3e
00000030: 2585 193f 040e 193e fef4 403e 3efd 243f
00000040: 761d 4d3e 9152 063e 6cf0 cc3e 5899 813e
00000050: e043 aa3d 1aab 053f 16d8 263f 6704 ae3e
00000060: d463 f23d 8311 eb3e bfaa 013e 1817 9e3e
00000070: 230c 453d 996e f43e 2108 7b3d 3180 6b3e
00000080: 33c1 5e3f 9e22 cd3d 1a21 4d3f 9b6a 323e
00000090: 0df4 5c40 e8c3 973e a05e da3e a564 813f
000000a0: d30d f33d f085 d33f 094e 753d 1ea3 cd3e
000000b0: 2b71 0d3e d05d 523f 47ff 553f 19b7 1d3e
000000c0: 4e95 1d3f bed4 a23e e896 143e c580 193f
000000d0: af17 f03d d921 7c3f 919f f23e 37e2 9c3d
000000e0: f2c1 3c3e 7236 b03e 2653 a33e 114c c740
000000f0: 25c7 133f 3bc3 083f a7a8 283e fa8e dc3e
0.07870383 0.14413013 0.73332554 0.32430747 0.6034524 0.5420561 0.4445172 0.26501706
0.47362608 0.5113342 0.36586136 0.18568683 0.5996879 0.14946753 0.18843457 0.64448917
0.2003077 0.13117434 0.40027177 0.25312304 0.083137274 0.52214205 0.6517347 0.33987734
0.11835447 0.45911798 0.1266279 0.30876994 0.048107278 0.4774063 0.06128705 0.2299812
0.8701355 0.10016368 0.80128634 0.1742348 3.4523957 0.29641652 0.42650318 1.0108839
0.11867871 1.652525 0.059888873 0.4016351 0.13812701 0.82174397 0.8359265 0.15401877
0.61555946 0.31802934 0.14510691 0.5996211 0.11723267 0.9848915 0.47387365 0.076603346
0.1843336 0.34416538 0.31899375 6.2280354 0.57725745 0.534229 0.16470586 0.43077832

fc.0.weight f4 [32, 64]
00000000: 6ff8 043e 6cb3 2e3e 4c21 31bd a370 e7bd
00000010: f3a2 80be d505 e7bc c031 0fbe f1ca ab3c
00000020: afba 853d 99f3 09be 99b6 4bbe 6d29 aebd
00000030: 9583 30be 7d35 9a3d 7a45 0c3e 257e 5bbe
00000040: 9d5a 6a3d 06c7 b23d 9d90 63be e08f 2abe
00000050: ab81 d8bb f909 bfbd 3b45 ecbd 1352 88be
00000060: 3b86 f93d 6bc8 933c 995b 77bc 5756 33be
00000070: 68d7 253e 7478 d6bd 9a6f c93c 7557 f53d
00000080: 7c21 9fbc 3add 7b3d 497a b53d 04b4 283e
00000090: 6ef3 9a3d 81ac 61be e9a8 d9bd c8f9 6dbe
000000a0: 84eb d03d bfc4 813d 15c7 573d c8e9 1ebe
000000b0: 39ab 183e d439 90be a10c 3dbe 304f 8b3c
000000c0: df95 4dbd 08b1 35be c3c8 753d 9a42 50be
000000d0: 8a0d a83d bed4 53be 90aa 17be 8463 023e
000000e0: 29b5 a83d a514 a8bd 7ffb 6bbe c789 8e3b
000000f0: a22c ebbd e22f cdbd adab 58ba 028a 30be
00000100: 39ec bcbb 402e 4e3d 2ecf 06be 99ea 54be
00000110: 7fa7 dbbd c311 69bd 55f6 3ebe dfd9 ed3d
00000120: 5285 79bd 97f5 5bbe 0b0f 34bc 2db4 b8bc
00000130: f1f1 05be 1011 dc3d cea5 343e 28d1 12be
00000140: 796d 0c3e 7c8c c03d 5535 13be d735 e5bc
00000150: 0f34 1f3c 158c 76be 46f1 57be 849c 57be
00000160: 3dc8 a93c 4cc4 173e 7621 663d 6326 49be
00000170: a5a2 263e 64af 4ebe 9ae6 673d 5132 56bd
00000180: fede b3bd a170 423e c46f 0e3e a972 2d3e
00000190: d4c6 103d 8a27 efbd c9e6 43be b954 6abe
000001a0: 6f9d 98bc b976 323d f0a4 133e 156a 10bd
000001b0: 7bb9 213c d53a 2cbe 48d4 b8bc 3e6f 0b3e
000001c0: d688 72be f35e 18be 80a6 b5bc 1e46 acbd
000001d0: 98f6 be3d 1fb7 9cbd 8c4f f8bd 1c95 363e
000001e0: 4f53 123e 9258 10be 9b9f 01be b4b4 67bc
000001f0: aa00 48be bb41 a5bd cf11 5f3d 2273 09be
00000200: 4778 833d c883 b83d 2315 2dbe 4a11 2bbe
00000210: a134 51be f919 bdbd 38e6 62be 89ad 803d
00000220: 583a 843d f4c5 a4bd b829 f1bd 6846 d83d
00000230: 048e 32be 39a2 a23d 8514 f13d 3a1e 24be
00000240: def5 7a3d a163 063e 76f9 bcbc bb92 4dbe
00000250: 520a 823d 097a 34be 25ab 5cbe 90d0 49be
00000260: 5b14 32bc 7b87 ef3c 5327 093e 791f 25be
00000270: 5442 ff3d 0311 a0bd 1437 273e 291c 9abd
00000280: 623d f7bd a1c4 933d 35bb 0bbd ed71 083e
00000290: 5be8 c2bd 5682 3dbe 5f86 c5bd 6532 47be
000002a0: 4950 5c3d 271a 38bd 02c8 063e a874 12be
000002b0: b6a8 643d 2544 7ebe 66d5 dfbc 5530 74bd
000002c0: ca1d eabc 7f9c 9dbd ea53 033e 710e 2bbe
000002d0: 1dbc 073e d0dd 33be 4937 1abe 96d0 4a3e
000002e0: ccbd 863d f170 78be f7a0 70be 2edf c53d
000002f0: 79dc 34be c1d7 20be 1084 b53c a35f 23be
00000300: dd75 1abe 3329 e1bd 3c67 863d 1523 c63d
00000310: 5309 593e 4bb7 563e 632c 303e 1277 fcbd
00000320: 59f8 0dbc 1fb2 6b3e 4ef5 d13d a171 d9bd
00000330: 64e8 263e 8701 aebd 6476 29be 3ef3 fc3d
00000340: c7bd 1bbe 472e 88bb 10b4 a13d 32ed 213e
00000350: 1693 e8bd 3988 6c3e 3e08 e13d d9b6 183e
00000360: 2aa2 8a3b bc6e dd3b 4fd6 79bd b58e 913c
00000370: f19b 2cbc aeae 713e 21e8 d1bc 41e4 d4bd
00000380: f175 1a3e b0b3 96bd 00e4 17be 0e50 d9bd
00000390: 9f0a 9abd ce2b f03d 4450 b73d 3fa4 b73d
000003a0: 2622 df3b 13b6 12be 5d6b 41bd 7225 363e
000003b0: 02ce b5bd 9834 583e 60e0 7b3d ada6 3dbd
000003c0: 0811 eb3c fc82 903d 73db c0bd 9298 c53d
000003d0: 96e2 51bd b49b 3b3e 6bc1 4e3e ddda 06be
000003e0: e804 12be 7bfb 183e 7654 373d e828 2fbd
000003f0: b19c 373d d53e 7a3e e1cc 5dbd 6f27 d63d
0.12985395 0.17060632 -0.043244645 -0.113007806 -0.2512432 -0.028201023 -0.13983822 0.020970793
0.06529748 -0.13471831 -0.19893874 -0.08503995 -0.17237695 0.07529733 0.13698378 -0.21434839
0.05721532 0.08729367 -0.22223134 -0.16656446 -0.0066072545 -0.09328074 -0.11536642 -0.26625118
0.121838056 0.018039903 -0.015097522 -0.17513405 0.16195452 -0.10472193 0.024589349 0.11979572
-0.019425146 0.061490275 0.08861215 0.1647492 0.07565962 -0.22038461 -0.1062792 -0.23239815
0.10201171 0.063363545 0.052680094 -0.15518868 0.14909066 -0.2816912 -0.18461849 0.017005533
-0.050191756 -0.17743313 0.060005914 -0.20337906 0.08205707 -0.20686623 -0.14811158 0.12733275
0.082376786 -0.08207063 -0.23045157 0.0043499204 -0.114831224 -0.100188985 -0.0008265328 -0.17240146
-0.0057654646 0.050337076 -0.1316497 -0.20792617 -0.10725307 -0.056901705 -0.18648656 0.11613821
-0.06091816 -0.21480404 -0.010989915 -0.022546852 -0.13080575 0.10745442 0.17641374 -0.143376
0.13713636 0.09401795 -0.14375813 -0.027979774 0.009717002 -0.24076875 -0.21088132 -0.210558
0.020725364 0.14820975 0.056184255 -0.1964355 0.16272981 -0.20184094 0.056616403 -0.05229408
-0.08782767 0.18988277 0.13909823 0.1693827 0.035345867 -0.11677463 -0.19131006 -0.22883882
-0.018629758 0.043570254 0.14418387 -0.035257418 0.009870882 -0.16819318 -0.022562161 0.13616654
-0.23685011 -0.1487997 -0.02217412 -0.08411811 0.09324378 -0.07652115 -0.12124547 0.17830318
0.14289592 -0.14096287 -0.12658541 -0.014142204 -0.19531503 -0.08069178 0.054460343 -0.13422826
0.064194255 0.0900951 -0.16902594 -0.16705814 -0.20430233 -0.092334695 -0.22158134 0.06283099
0.06456441 -0.08045569 -0.11775535 0.10560304 -0.17436987 0.07941098 0.11771492 -0.16027156
0.061269633 0.13123943 -0.023068171 -0.20075504 0.06349625 -0.17624678 -0.21549661 -0.19708467
-0.010869111 0.029239407 0.13393907 -0.16125287 0.12463823 -0.07815745 0.16329604 -0.075249024
-0.12072255 0.07215238 -0.03411408 0.13324709 -0.095169745 -0.1850675 -0.0964477 -0.19452818
0.053787503 -0.044946816 0.13162234 -0.14302313 0.055824958 -0.24830683 -0.027323436 -0.059616406
-0.028578658 -0.07695865 0.1282498 -0.16704728 0.13255353 -0.17565084 -0.15060152 0.19806132
0.0657917 -0.24261834 -0.23498903 0.09661709 -0.17662229 -0.15707304 0.022157699 -0.15954451
-0.15084024 -0.10994186 0.06562659 0.0967466 0.21194963 0.20968358 0.17204432 -0.12327398
-0.008665168 0.23017167 0.10251866 -0.10617376 0.16299587 -0.08496385 -0.16549069 0.12351082
-0.15209113 -0.0041559073 0.07895672 0.15813139 -0.113561794 0.2309884 0.109879 0.14913501
0.0042307572 0.0067575853 -0.060995396 0.017768243 -0.010535226 0.23601791 -0.025623383 -0.103950985
0.15084054 -0.073584914 -0.14833069 -0.10610972 -0.07521557 0.11727105 0.08950856 0.08966874
0.0068094907 -0.14327268 -0.04722153 0.17787722 -0.088771835 0.21113813 0.061493278 -0.046301533
0.028694645 0.07056233 -0.094168566 0.09648241 -0.05124148 0.18321115 0.2019097 -0.13169427
-0.14259684 0.14939682 0.044758283 -0.04276362 0.044827167 0.24438031 -0.054150466 0.1045674

fc.0.bias f4 [32]
00000000: d73d 60bd 2665 b3bd 2d2e aabd ca10 753d
00000010: 37e3 dcba ef60 a2bd 5f86 743d ee6b 35bd
00000020: 3c2c e4bd 88ea 85bd 0c0c 22bd 518d 95bc
00000030: e5fd 923d 40d8 4ebd e66b a2bd fbdc a43c
00000040: 88bf 653d ed97 b9bd f66e 71bd 3f84 203c
00000050: 1a68 033d 135f b93d c244 6f3d 7b43 aebd
00000060: 6e82 08bc f8bf b83d d61d a23d 2f8c 4c3d
00000070: 6a7d c53d 045b 9a3d d7fb a5b9 679c de3c
-0.054746475 -0.08759527 -0.083095886 0.059830464 -0.0016852383 -0.07928645 0.05969846 -0.044292383
-0.111412495 -0.06538874 -0.03956227 -0.018255861 0.07177333 -0.0504992 -0.07930736 0.020124903
0.05609086 -0.09062181 -0.05894371 0.009797155 0.0320817 0.09051337 0.058415182 -0.08508965
-0.008331878 0.0902099 0.07915847 0.049938377 0.096430615 0.07536891 -0.00031658888 0.027174188

fc.3.weight f4 [1, 32]
00000000: 9218 11be 23ca 49be 02a0 65be d486 cc3e
00000010: a1dc b33e 495f 34be d069 4a3e e775 c23e
00000020: f263 3abe 87a4 5bbe a4f6 ba3e bfec 30be
00000030: 9b84 85be 88a3 e3bd 4408 07be 3348 15be
00000040: 2a25 1fbe d86e 9d3e e93a 84be 717f 3bbe
00000050: 620b 883e c6cd b53e 316a ae3e 9c59 c83e
00000060: 48c5 5cbe 7d3c 79be 9276 8b3e 8b6c 54be
00000070: 7119 aa3e eb90 1fbe ee6a 75be d6af 47be
-0.14169529 -0.19706015 -0.2242432 0.39946616 0.35129264 -0.17614473 0.19766927 0.37980577
-0.18202189 -0.21449481 0.36516297 -0.17277811 -0.26077732 -0.111151755 -0.13186747 -0.14578323
-0.1554152 0.3074863 -0.25826195 -0.18310334 0.26571184 0.35508555 0.34065393 0.39130867
-0.21559632 -0.2433948 0.272389 -0.20744531 0.33222535 -0.15582626 -0.23966572 -0.1950067
