5 第五讲 机器学习训练模型的数学范式v16/models/model85.pth (torch, 112459 bytes, 21 tensors)

conv1.0.weight f4 [16, 3, 3, 3]
00000000: ac4e 48bc 525b efbd 075c 173e 4596 52bd
00000010: be11 07be 7bfc 2dbe 5553 373d 2d50 21be
00000020: 6d8b c53d 7aaa 943d 6843 423e 60e2 08be
00000030: dac0 0b3d 255a 183d e5c3 d03c 9395 dc3d
00000040: b369 0d3b c1a2 81bd add2 163e 9e18 f3bd
00000050: 89b4 19be 8850 d93d 51db 4cbd 8341 1f3e
00000060: 4dd1 f7bd 2aa9 1d3e 61e3 2e3d 9338 48bd
00000070: 4c1a 103e f075 89bd 7e10 08bb 4231 92bd
00000080: 3878 b63d 1e52 713d 8f2a 1a3e b23c b9bd
00000090: e6ad 143d d289 cebb 47ce 243e 9d18 1dbe
000000a0: 8693 7ebd 8b57 2a3e 4f2c 853d 9068 47bd
000000b0: 4e30 aa3d 136c 413d e221 8abd 0524 20be
000000c0: 8ae2 3bbe bcf8 cd3d e132 94bc e1cc 9b3d
000000d0: c508 26be 392f 2a3e 9e3a a33d b754 20bc
000000e0: d480 b4bd 02a8 88bc c2ba 07be 6d4e 2bbe
000000f0: 54b9 82bd e058 e93d d062 2cbe 38ef 233e
00000100: 0091 c53d 38c5 16be a21e 313e 28ea 603d
00000110: 1946 0ebd 9003 e53c 68c3 353d f96d 023e
00000120: 9e34 463e 4142 293d 4cc3 fcbc 1634 a83c
00000130: 0ba2 283d 7811 a1bd 3192 9cbd 04bf 48be
00000140: ab34 3b3e f78d 8fbd 2d19 12bc 9509 1abe
00000150: a4bb f73b deb6 323e 44c7 18be ebd1 ec3d
00000160: 5eea 463e d9e7 38be 4fa6 7cbc a0ae e33c
00000170: 8733 7d3c 3a26 c03b fbd9 2b3e 3567 263e
00000180: 9669 a63c 0090 7e3d 9126 b8bd 4d58 f4bd
00000190: 755c bcbd 7d09 183e f1c0 343e ffd6 123e
000001a0: 2ac3 073d 40ee b13d 9d53 adbd 09bf 28bd
000001b0: 6cbd 3dbe 9e75 783d 6784 ddbd 0f32 273e
000001c0: 35f4 8d3c 858b dd3d a2cd 36bd 80c2 473d
000001d0: 6a8f 27be d38f 40be 1fc2 dbbd 7f59 4f3e
000001e0: e31f a43d d7e7 d83d d579 4f3e 887b b63d
000001f0: 9cbc b23d 4335 55bd 00c2 fcbd 603e ce3d
00000200: d958 1e3e c0ca 32be 824d 543d 52e4 4fbd
00000210: c362 223e 401a 2abd 0870 36bd 3102 1fbd
00000220: 65a4 70bd f960 1c3e 4534 c1bd fd82 393d
00000230: d40a 733b c6fd 0a3e 9406 b03d 490b 13be
00000240: 1dce 06bc 9844 6e3b 509e f9bc ca04 253e
00000250: b3ec 493e c2fe 08be 8701 5bbd 582e 473e
00000260: 1b65 583d 237a a4bd 225a d33d 8bf4 30bd
00000270: 5add bcbd e70d 51be 1ea4 e13d 3557 86bd
00000280: bdc8 1ebe 7edb 1dbe e8d5 edbc abaf 023e
00000290: 3ca3 d23d 941a 013e d6b0 9fbd e83a 1fbe
000002a0: 1aa4 11bd d6e0 b5bd ca8d 8f3d 8c06 023e
000002b0: 911c 80bd 5d55 4ebe 7477 213e 7dcd 693d
000002c0: 35e5 01be 4822 71bd d09b 0fbd 5817 f6bd
000002d0: 3193 303e cf4b 653d a6da 05be 8623 e7bd
000002e0: 68a8 b5bd 0ce6 46be 9f42 59bc 0117 76bd
000002f0: 52a6 dcbd a4c8 a83c 4af8 bfbd f315 d63d
00000300: 8dd5 cf3d 35cf 82bd be9c b5bd 981f 47be
00000310: 1cd1 92bc 5aa6 25be 790a 3b3e ad42 de3d
00000320: 41d8 be3a ab80 3dbc d916 c6bb 2951 423e
00000330: dbaf aebc c48a 1f3d 2899 ef3d eaba 7c3d
00000340: 016d d5bc a394 f53d f284 29be 5dea 803c
00000350: e8c7 58be 5dd0 a03d b03e da3d cd9e 80bd
00000360: 5557 22be 23b4 bfbd f798 0e3d ccee 0fbe
00000370: f9b8 f3bc f0a8 79bd db25 e4bd edb4 b03d
00000380: 5739 ebbd 62d8 ac3d 5f74 08be e7aa 31bb
00000390: 0929 3d3e 8135 00be 7903 91bd 69d1 be3d
000003a0: 999e 923d 45ef b3bd 4ec9 b83d 5aed 25be
000003b0: 312b 48be db1b 78bd 7534 273e 1efa 913d
000003c0: eaf0 193e f270 3e3d 413b b73b 6abf 3d3e
000003d0: 9658 b73d ca84 6f3d 5603 1bbe 4b63 fdbd
000003e0: 2ddb 0d3e 4c29 493e b6bf 583d b3be a73d
000003f0: 5faf 18be 8441 7dbd 93f5 37bd 00bd c5bd
-0.012225788 -0.1168734 0.147812 -0.05141284 -0.13190362 -0.16990845 0.044757206 -0.15753241
0.09645734 0.07259078 0.18971026 -0.13367605 0.034119464 0.037195344 0.025484035 0.107707165
0.0021577894 -0.06329871 0.14728804 -0.1186993 -0.15010275 0.10611063 -0.050013844 0.15552334
-0.12100468 0.15396562 0.042697314 -0.04888208 0.14072531 -0.06711948 -0.0020761783 -0.071383014
0.08909649 0.058916204 0.15055297 -0.0904478 0.036298655 -0.0063030506 0.16094314 -0.1534142
-0.062152408 0.16634957 0.06502592 -0.048683703 0.08309995 0.04722221 -0.06744744 -0.1563874
-0.18348137 0.10057208 -0.018090667 0.07607437 -0.16214283 0.16619577 0.07970165 -0.009785823
-0.088136345 -0.016681675 -0.13254836 -0.16729136 -0.06383005 0.11393905 -0.16834569 0.16009223
0.09646797 -0.1472367 0.17296842 0.05491081 -0.03473482 0.0279558 0.044375807 0.12737264
0.1935601 0.04132295 -0.030854844 0.020532649 0.04117016 -0.0786466 -0.07645071 -0.19604117
0.1828181 -0.070094995 -0.008917135 -0.15042718 0.0075602103 0.17452571 -0.14919764 0.11563476
0.19425341 -0.18057193 -0.01542051 0.027793229 0.01545418 0.005863932 0.16782372 0.16250308
0.02031402 0.062149048 -0.08991731 -0.119309045 -0.09197322 0.1484737 0.17651726 0.14339827
0.033145107 0.08688021 -0.084632136 -0.04119781 -0.1852929 0.060659043 -0.10816269 0.1632769
0.017328361 0.10817627 -0.0446297 0.048769474 -0.16363302 -0.18804865 -0.10730385 0.20248984
0.080138944 0.10591095 0.20261319 0.089102805 0.08727381 -0.052052747 -0.1234169 0.10070491
0.1546358 -0.17460155 0.05183173 -0.050754853 0.15857987 -0.04152894 -0.044540435 -0.03882045
-0.05875053 0.15271367 -0.09433798 0.045290936 0.0037085311 0.1357337 0.08595005 -0.14359774
-0.008227852 0.0036356803 -0.030470997 0.16115108 0.197192 -0.13378432 -0.053468253 0.19451272
0.052830797 -0.08031108 0.10319926 -0.043201964 -0.09221907 -0.2041546 0.11017631 -0.06559602
-0.15506263 -0.15415761 -0.029032663 0.12762325 0.10285041 0.12607795 -0.07797401 -0.15549815
-0.03555689 -0.08880775 0.07009466 0.1269781 -0.062554486 -0.20149751 0.15768224 0.057080735
-0.12685092 -0.058870584 -0.035060704 -0.12016171 0.17243649 0.0559805 -0.13071689 -0.112860724
-0.088700116 -0.19423693 -0.013260513 -0.060080532 -0.107739106 0.020603485 -0.09373529 0.10453405
0.101481535 -0.06387178 -0.08867787 -0.19445646 -0.017921977 -0.1617674 0.18265714 0.10852561
0.0014560298 -0.011566321 -0.006045204 0.18976273 -0.021324089 0.038950697 0.11699134 0.061701693
-0.026052954 0.11991241 -0.16554621 0.015736753 -0.21170008 0.07852242 0.10656488 -0.06280289
-0.15853627 -0.0936053 0.034813847 -0.14055938 -0.029751288 -0.060952127 -0.11140033 0.08628259
-0.11485546 0.08439709 -0.13325642 -0.0027109922 0.18472685 -0.1252041 -0.070807405 0.093172856
0.07159156 -0.087858714 0.09022771 -0.16203824 -0.19547726 -0.06057344 0.16328605 0.07127784
0.15033308 0.04649443 0.0055917804 0.1853005 0.08952443 0.058476247 -0.15137991 -0.12372454
0.1385314 0.1964466 0.052917205 0.0819067 -0.14910649 -0.06183006 -0.044911932 -0.096551895

conv1.0.bias f4 [16]
00000000: 45b4 a23d 4595 063e 10bf a13d 9b8a 883d
00000010: e03e 43be cdc1 e5ba 9b5b fb3d 55e4 ed3c
00000020: 7a6e 4bbe bb1d 823c a4f9 3d3e 5b89 fbbd
00000030: 98bb 2b3e 3ce5 28be 9751 c63b 1a19 653e
0.0794454 0.1314288 0.078977704 0.06667062 -0.19066954 -0.0017529071 0.12273332 0.029039541
-0.19866362 0.015883317 0.18552262 -0.12282058 0.1677078 -0.16493696 0.0060522067 0.22372857

conv1.3.weight f4 [16]
00000000: 4c38 773f c1fc 7b3f ce9e 833f 60f9 6a3f
00000010: c787 823f 1abb 813f 5ece 803f 5f18 6e3f
00000020: 1ff1 733f 1f35 853f d773 713f 3aa3 8e3f
00000030: 213c 6d3f bc9e 833f 61e4 723f 11d1 7a3f
0.9657028 0.98432547 1.0282838 0.91786766 1.0197686 1.0135224 1.0062978 0.9300594
0.95289797 1.0406836 0.9431738 1.1143563 0.92669874 1.0282817 0.9487973 0.9797526

conv1.3.bias f4 [16]
00000000: e736 b6bb fd81 143e 47d0 37bb 62cb df3c
00000010: 4826 043e d2dc 31bd 3f1c a53d 9e55 e63c
00000020: 7ebb 403e cd26 2e3d 60e8 f3bd a0f0 8b3c
00000030: fed9 803a ed69 763d c783 893c 65d9 ccbd
-0.005560744 0.14502712 -0.0028047727 0.02731866 0.12905228 -0.04342348 0.08062028 0.028116997
0.18821523 0.042517472 -0.119095564 0.017082512 0.0009830592 0.060159612 0.01678647 -0.10002402

conv1.3.running_mean f4 [16]
00000000: ce44 d73d d232 7c3e c5e3 f83d 079b a03e
00000010: b48d b53c 47b9 673c 0ac2 ac3c 8d2b 723d
00000020: 6615 5b37 4c3e 0f3d 7ee2 da3e 480d 8f3c
00000030: b5fe 1c3e e044 bd3c ada6 9f3d e310 233e
0.1051117 0.24628761 0.121528186 0.31368276 0.022162296 0.014143295 0.021088619 0.059123565
1.3058399e-05 0.03497152 0.42750925 0.017462388 0.15331538 0.023104131 0.07795463 0.1592441

conv1.3.running_var f4 [16]
00000000: e2bf f93a 488b 993b 6a58 733b 9056 c43c
00000010: c87b eb3a 914b 753a d03b f43a da36 de3a
00000020: f446 ad35 103d 0f3b cf08 fe3c 5ed5 b53a
00000030: 0c37 913a 3022 e03a 6f51 b43b aab4 2d3b
0.0019054378 0.004685793 0.0037131556 0.023967057 0.0017965967 0.00093572686 0.0018633548 0.0016953603
1.2910155e-06 0.0021856464 0.03101006 0.0013872792 0.0011079027 0.0017100032 0.0055028717 0.002650539

conv2.0.weight f4 [32, 16, 3, 3]
00000000: c9ce 9bbb df6c 00bd c475 44bc 088c dd39
00000010: 05ec 853d 4f5a a03c 9c0a 743d d3aa 6dbc
00000020: 4396 07bc 6716 29bd a5b9 afbd 892a 42bd
00000030: d0f9 85bc 14d0 0d3d b6c7 fbbc 9513 e8bc
00000040: 380f 3cbd 7f14 473d a00d c73d 1d0e f7bc
00000050: 94f6 c4bd f09e a13d ecb9 753d ac06 96bd
00000060: 7e47 75bd 09fa 4abd 1f77 96bd 3efb c43d
00000070: cc99 5a3d 8833 64bd e3f5 57b9 a7e3 893d
00000080: b51b adbc 0ed0 233d 8e9a 553c 1a7e 2f3d
00000090: 6a42 273d 6263 1f3d 16e3 00bd f8d8 dfbd
000000a0: 1f41 7cbc c503 283c b5c8 5abd 4c37 50bd
000000b0: a43a a83c 6934 c83c 85a2 993d eb2d ba3d
000000c0: e69c 20bd db93 883d 5bf3 3a3d e088 c03d
000000d0: 2222 d63d 86ec 973d 93f7 7e3d 4a68 c03c
000000e0: ad20 e4bc f6fc 04bd 6746 463d df58 2dbc
000000f0: a947 403d 097b 263d 2649 8f3d 2be3 703d
00000100: d90e 88bd ef9a 14bd 1b90 863d 282c 6a3d
00000110: 60e4 58bd 9263 143d 0f40 94bd a3f2 58bd
00000120: 0717 4abd 226a 28be 7052 a8bd 94d5 21be
00000130: 8c32 49be 42d6 1abe 9b40 07be d2ae b1bd
00000140: 4806 36be 6b51 09be ec06 68bd e254 3e3d
00000150: 0d7d 92bd b804 c23b a524 483d 03b0 e7bd
00000160: 5ae6 e6bd 9fb8 493d 0c7a b73d 2c08 fcbb
00000170: b73a cbbb 3361 34bd c27e 073d d4f4 b2bc
00000180: 53ab cb3d 6473 513d 2334 033d a7c6 113c
00000190: 5203 37bb 4fb9 733d e899 a6bd 9c30 c9bd
000001a0: 402d e8bd ca0f a1bc f1b4 7f3d 1312 563d
000001b0: fd32 653d a636 8cbc ee1a 453d 21de 3c3d
000001c0: 81c9 37bb 36c9 2e3b 49ea 1bbd b241 913c
000001d0: 0055 89bd 271a 743d 1004 8dbd 6647 f1bd
000001e0: f23b 17bd 73bb 89bd 3d53 a1bc c60e 12be
000001f0: 8f47 59bd 98b8 513d e17c c83c 52fc 4bbd
00000200: 1eb7 bdbc c3d7 08bd b910 74bd c383 7cbd
00000210: d4a2 15bd 6b8b 013d 0a06 f13c b050 2dbd
00000220: 5f75 953b e312 dd3c a59c 263c 1dc7 84bd
00000230: 98a8 2fbd 99af 553d e159 8c3d dddd 0e3c
00000240: 70ab e53c dc69 ecbc fea5 d03c c7d9 9d3d
00000250: 7927 063c 7cdb 72bd 0532 503c 18b5 273d
00000260: 0f91 753d d5de 19bd c363 5a3c 18e9 5bbd
00000270: f7e0 9abd 413a bd3c de67 f8bd be5e af3c
00000280: 5ca7 2abc 0788 01bd 03f3 023d 990d b83d
00000290: 15a7 9a3d d16e db3d aa2f 58bd 0557 1c3d
000002a0: 120f c63d 14c6 e9bb 7507 b13d 7527 913d
000002b0: 9900 4b3b c52b 5ebc 0852 a9bb a1b4 bcbc
000002c0: d72e 9b3d b1d7 393d dcac e4bc 0e00 b03d
000002d0: d43e 2c3d e266 143d bebe 32bd 7a60 533d
000002e0: 4997 5b3d ff44 4a3d 5b2c 8b3d f09c 75bb
000002f0: 56a7 693d 503b 87b9 b560 aabd ef6d 86bb
00000300: 7660 91bd 0f39 0ebe bb8e bbbd 7e80 583c
00000310: 015f 31bd b9f8 a4bd bf33 e0bc 50ad dfbc
00000320: a2d7 903d c258 e13d 6a3c 193d 80bc 953d
00000330: 5486 f83c 327b 79bd 3c1b 8e3d e3fa 56bd
00000340: 7194 8a3d b3fe 2e3d 9d67 4bbd 6226 89bd
00000350: 6617 74bd a12b 79bb a391 c8bd dcc4 253b
00000360: e28a d53b 81c6 47bd 4572 2d3d ddbb d7bd
00000370: 5df5 323c 8e82 f4bc c28d 1cbd 83e0 c7bd
00000380: 6713 84bd d79c 263d 8184 a4bd 60cf 74bd
00000390: 4a4e 593d 6e17 623a a32a 98bd cd07 c63d
000003a0: 3cb8 84bc 8629 88bc c2cc 1b3d b313 ddbc
000003b0: c565 c83d 72e0 da3d 4385 e73d f9d7 ffba
000003c0: d116 163c 44b3 f93d ba3d 793d d1cf 0d3d
000003d0: b73e 673d 8813 b93d d5d2 4dbd ded6 c8bb
000003e0: 557d f1bb 36b1 163d b07c b83c 87bd 3b3d
000003f0: d2b4 8f3d ffe4 383d 12a4 4f3d 66d3 463d
-0.0047548753 -0.031353828 -0.011990968 0.00042256736 0.06539158 0.019574312 0.05958043 -0.01450606
-0.008275571 -0.04128113 -0.08580331 -0.047403846 -0.016354471 0.034622267 -0.030734878 -0.02832965
-0.04591295 0.04860353 0.09719396 -0.030158097 -0.096173435 0.07891643 0.059991762 -0.07325491
-0.059882633 -0.04955486 -0.07346939 0.09618233 0.05336933 -0.055713207 -0.00020595598 0.06732874
-0.021131376 0.03999334 0.013037337 0.04284487 0.04083482 0.03891314 -0.031466566 -0.109300554
-0.015396385 0.010254805 -0.053414065 -0.050833985 0.020535775 0.024439054 0.07501701 0.090907894
-0.03921213 0.06668826 0.045642238 0.09401107 0.10455729 0.0741816 0.062247824 0.023487229
-0.027847612 -0.032467805 0.048406985 -0.010580271 0.04694334 0.04064468 0.06996374 0.058810394
-0.06643457 -0.03628057 0.06570455 0.057171017 -0.05295217 0.03622777 -0.07238781 -0.05296577
-0.049338367 -0.16446736 -0.08218849 -0.1580413 -0.19648188 -0.15120795 -0.13208239 -0.086759225
-0.17775834 -0.13409965 -0.056647226 0.04646767 -0.07152758 0.0059209727 0.048863072 -0.113128684
-0.11274405 0.049248334 0.089588255 -0.007691404 -0.0062020677 -0.04403801 0.03307987 -0.021845259
0.09944787 0.051135436 0.032032143 0.00889746 -0.0027925563 0.059502896 -0.08134824 -0.09823725
-0.11336756 -0.01966085 0.06242842 0.05226333 0.05595683 -0.017115902 0.048121385 0.046110276
-0.002804369 0.0026670224 -0.03806523 0.017731521 -0.067056656 0.059595253 -0.068855405 -0.11781196
-0.036922403 -0.06725206 -0.019693011 -0.14263448 -0.05304676 0.051201433 0.02447361 -0.04980118
-0.023158606 -0.03340889 -0.05958626 -0.061649095 -0.036532238 0.0316271 0.029421825 -0.042313278
0.004561111 0.026986545 0.010169183 -0.0648329 -0.042885393 0.052169416 0.068530805 0.0087198885
0.02803585 -0.028859071 0.025469776 0.07707553 0.008188122 -0.059291348 0.012707238 0.04094419
0.05995279 -0.037566025 0.013329449 -0.053689092 -0.0756244 0.023099067 -0.12129186 0.021407481
-0.010415878 -0.031623866 0.031970035 0.089869685 0.075513996 0.10714496 -0.05277983 0.038168926
0.09670843 -0.0071342085 0.086440004 0.07087604 0.0030975698 -0.01356024 -0.0051672496 -0.02303535
0.07577293 0.045371715 -0.027914457 0.085937604 0.042052105 0.03623093 -0.043638937 0.05160568
0.053611074 0.049382206 0.067955695 -0.0037477575 0.05704435 -0.00025793398 -0.08319227 -0.0041024606
-0.070984766 -0.13888954 -0.09158083 0.013214229 -0.043303493 -0.080552526 -0.027368424 -0.027304322
0.07072379 0.11003257 0.03741113 0.07311344 0.03033749 -0.060908504 0.06938788 -0.052485358
0.06766594 0.04272337 -0.04965936 -0.06696774 -0.059592627 -0.003802039 -0.09793403 0.002529434
0.0065168003 -0.048773292 0.042345304 -0.10533879 0.010922757 -0.02984741 -0.03822113 -0.09759619
-0.06449013 0.040676918 -0.080330856 -0.05976808 0.053053178 0.0008624707 -0.07430007 0.09669457
-0.016201131 -0.016621362 0.03803707 -0.026986932 0.09785036 0.10687341 0.113047145 -0.0019519321
0.009160713 0.12192395 0.060849883 0.034622017 0.056456294 0.090369284 -0.050249893 -0.00612913
-0.007369677 0.036790095 0.022520393 0.045835044 0.070169106 0.045140263 0.05069358 0.04854145

conv2.0.bias f4 [32]
00000000: be58 b6bd abab 9dbd 55c6 dfbd c07b a53d
00000010: dc13 febd 3531 b7bd 4982 bf3d 9b42 483c
00000020: 51d4 e3bd ed7d 4e3c ea3b 403c 9296 28be
00000030: 76c5 aabc 8151 d4bd 563e 75be 83db a5bc
00000040: ca76 93bd a11e 0dbd 87dc afbd e3e6 be3d
00000050: 5472 6e3c e13a f6bd a80b 9dbd 25e4 a3bd
00000060: ba06 bc3c e51a 26be 450e d9bd 6762 f43c
00000070: fde5 dabd 9830 1bbe 9b46 f8bd fe15 00be
-0.08903645 -0.07698759 -0.10926501 0.08080244 -0.124061316 -0.08944932 0.09351022 0.012222911
-0.111244805 0.012603265 0.011733035 -0.16463688 -0.02084611 -0.10367108 -0.2394956 -0.020246273
-0.072003916 -0.034453038 -0.08586984 0.09321382 0.014553625 -0.12022949 -0.07668239 -0.080024995
0.022952426 -0.16221197 -0.10598425 0.029832078 -0.10688398 -0.15155256 -0.12122842 -0.1250839

conv2.3.weight f4 [32]
00000000: a996 813f 4c55 703f dba6 813f a9fa 6c3f
00000010: 6d2a 7c3f cc12 783f 4549 6f3f ce09 813f
00000020: f98c 7b3f 9e85 813f 31cb 7e3f 9cb5 7b3f
00000030: df76 823f 9f7e 7e3f 8b49 843f a870 813f
00000040: 3159 553f 4301 733f 65fa 803f 0260 723f
00000050: 4732 743f ed22 6e3f d6d4 803f c760 833f
00000060: b8b0 7e3f 35c0 823f 1a22 813f 44c6 683f
00000070: 8dea 703f df61 7f3f ceda 723f d2df 6f3f
1.0124103 0.9388015 1.0129045 0.9256998 0.98502237 0.9690368 0.93471175 1.0081117
0.9826198 1.0118902 0.99528795 0.9832399 1.0192527 0.9941196 1.0334944 1.0112505
0.8333922 0.949238 1.0076414 0.94677746 0.9538922 0.9302204 1.0064952 1.0263909
0.994884 1.0214907 1.0088532 0.9092753 0.94107896 0.99758714 0.9486512 0.937009

conv2.3.bias f4 [32]
00000000: 3f63 d93c c3cd a83e bf04 5f3d aba5 0bbe
00000010: fbe9 123e a131 09be 5066 e93e 0a67 d73c
00000020: 2345 afbd 49e2 463e fa70 aabd 2eae 023f
00000030: 1e83 1abe f4ab 3f3e 4021 9d3e 6339 06be
00000040: a276 1b3e fc72 88bd 9d2f ffbc 3ae4 acbd
00000050: 19f1 4c3e 181d 393e 0814 9c3e 2298 213e
00000060: 3ef5 9c3e 90b1 983e 2f5b a7bd 8fa4 e8bd
00000070: a355 b33e fb01 533e ba7d 813e 88ca cc3e
0.026536582 0.32969484 0.054447886 -0.13637416 0.14347069 -0.13397838 0.4558587 0.02629425
-0.08558109 0.19422258 -0.0832233 0.5104703 -0.1508908 0.18717939 0.3068943 -0.13107829
0.15181974 -0.066625565 -0.031150633 -0.08441968 0.20013846 0.18077505 0.30484033 0.1578069
0.30655855 0.2982297 -0.08171689 -0.11359512 0.35026273 0.20606224 0.25291234 0.3999827

conv2.3.running_mean f4 [32]
00000000: 6dcc e93d b376 183f f60e 233e f3a0 673f
00000010: 0eed 8d3e 1468 153e 9ef8 003f 49db b73e
00000020: 20ea ba3e 6ae5 223f dfa6 253e 9ee4 103e
00000030: 5bcc 003f fd57 e13e 44ed b63d 9fa0 903e
00000040: cc2a 573f 5626 e53e b207 5c3e db4a 103f
00000050: e196 f23e 9ab4 cc3e 6c29 063f 34e0 593e
00000060: 2e26 063f c2dd 5a3e 18d4 a93e 2777 9d3e
00000070: 56b5 643e b085 c63e 332c d83e 5b52 143e
0.11415944 0.5955612 0.15923676 0.90479964 0.2771992 0.14590484 0.5037936 0.3590949
0.36506748 0.6363131 0.16176938 0.1414971 0.5031182 0.44012442 0.089319736 0.28247544
0.8404968 0.4475581 0.2148731 0.5636422 0.47380736 0.39981538 0.52406955 0.21276933
0.5240201 0.21373656 0.33169627 0.3075497 0.22334799 0.3877387 0.4222122 0.14484541

conv2.3.running_var f4 [32]
00000000: 4ba8 513d df14 8b3f e930 9d3d c9da 913f
00000010: 61b5 873e 2ab6 7d3d a64e 683e a076 d03e
00000020: 301e e93e 134a a33e a194 cb3d ed80 ac3d
00000030: 1e3e 873e e529 373f 9c97 e43d 93cc 173e
00000040: 9ac7 e43f e641 e13e ed05 3a3e 6bf6 ce3e
00000050: 7f5d 613e e97a 163f f3be 2f3f 848e 133e
00000060: 1811 cf3e 132e 193e dd5d 223e 9d58 f83d
00000070: 2e12 7e3e ca5b 1e3f dcce a73e 098b 9e3d
0.051185887 1.0865744 0.076753445 1.1394893 0.2650557 0.061941303 0.22686252 0.40715504
0.45530844 0.31892452 0.09940458 0.08423028 0.2641458 0.715483 0.1116173 0.14824133
1.7873414 0.4399559 0.18166323 0.40422377 0.22008322 0.58781296 0.6865074 0.14409834
0.4044273 0.14958982 0.15856119 0.12126277 0.24811623 0.6185881 0.3277501 0.077413626

conv3.0.weight f4 [64, 32, 3, 3]
00000000: bbde c8bc 66e7 cbbc 678d 40bd 8cc3 0dbd
00000010: 0f23 1fbd 0510 67bd d7cb 84bd 0249 6bbc
00000020: 0456 fbbd 7ac0 69bd 4f6f 083d 281e d3bb
00000030: c0a7 8bbc 9390 3dbd 8b20 8cbc 1399 a8bb
00000040: 2312 4dbc a09e 673d 8e21 47bc d2f3 97bc
00000050: 9980 c0bd 3140 a53c 8830 bebb 9a85 d4bc
00000060: ef8d a0bd 488e 32bb 3ebb 49bd adfe 033d
00000070: 7d4a 15bd f29e 843d d018 67bb 4a6d 01bd
00000080: 7665 b03b 3ad9 9ebc 7389 b0b9 10c9 e0bc
00000090: 1c0c 67bd e342 71bd 9f5c 96bc 86ee ca39
000000a0: 0730 66bd dab3 01bd c943 31bc e0dd 9a3b
000000b0: c26b d3bb d392 bdb7 f55e 9fbb 5dc1 0ebc
000000c0: 3d6d 1b3d 6697 f63c 2f22 803c dade 2a3c
000000d0: 43b4 233d 8219 8c3c adcb 13bc 41ae bebd
000000e0: 9bcc ecbc 95bb 373b 73ce a2bd d1e2 4fbd
000000f0: 95c9 8bbd 2f38 04bd 6c7c 85bd 9055 e6bc
00000100: c6d6 c6bc 68e9 cabc cd59 afbc a440 133d
00000110: 2ef2 e2bc 227b cab9 ad79 773d 06f6 353d
00000120: a093 1d3d 5726 cf3d d55d aa3d f6f2 c23d
00000130: c6ed 873d 6f3e 5f3d cbf6 93bc e442 a93d
00000140: dc78 8d3d 94d3 0b3d 81b3 873c ffa8 e93c
00000150: e57f 8b3b 90bf 783d 6877 043d 1b30 f13c
00000160: a4fb 073d 8f6d 5f3d 707b aebc 9ce2 acbc
00000170: 98d3 bd3c f272 90bb a210 babc 30db 7a3c
00000180: 346a 2ebd 326e e6bb 1b4f b3bc b0ac 40bd
00000190: d45d 8abd b9c9 debc e982 7bbd 1bbb c4bd
000001a0: 3f2e 79bd b1c4 8ebd c1b3 d9bd 5a11 99bd
000001b0: ab09 35bc fe00 ff3c dd3b 9e3c d3b1 18bd
000001c0: 2ab1 d83c 84b5 c0bc 8c7b 1ebd d4ab af3b
000001d0: 541e 01bd 4b10 a2bd fdcd 3fbd 5c65 60bd
000001e0: ec22 94bd d9f8 0abd 3c08 a5bb f019 7cbd
000001f0: f5bb 163d 2c57 8e3b 6cdd fb3c a973 903d
00000200: 256b 2e3d 28c1 4f3c f460 f23c ce16 1e3d
00000210: 48ad 2c3d c202 8f3d 5509 6a3c d19c b2bc
00000220: 37d5 bcbc da0b 313c b667 4cbc f5fd 24bc
00000230: 3d95 17bd c060 3fbd 86a4 52b9 cbe4 63bd
00000240: ce17 523d f1ff 41bc 342d 14bd 34cd 16bd
00000250: 1846 583c bdf5 4a3b cfc7 24bd c041 183d
00000260: 1738 063d e728 283d 8597 933d b544 a13d
00000270: 0eba 0d3d c862 b33d 8c80 11bc b84b 613d
00000280: 005f bd3d df4a 973d ac42 6d3b f87f 533d
00000290: 17f6 6cbc bc3e 253d 61ff 1a3d 3de6 09bd
000002a0: e54c 84bb 1eb3 483c 6818 bf3c 9e28 98bd
000002b0: 55c8 2cbd 7b92 db3c 014d 36bd 8a9b d5bc
000002c0: 523a 83bc d582 b839 a39b 013d 210a acbb
000002d0: 62d4 323c 3e6b 8abc 3055 46bd 979c 08bd
000002e0: ef74 6ebc c5bf 5cbd 698c ffbc 5969 593c
000002f0: 6c0c be3b 6062 e0bc 5ce0 29bd 78e5 be3c
00000300: 0a7f 0d3c d860 6c3a f025 53bd 5ca5 8d3c
00000310: 185c 663c b6f9 41bd d4c5 1d3c fa2a eabb
00000320: 39ae 543d 0796 aebc 18d7 993d 096d 583d
00000330: db59 a1bc 835c b0bc 0d38 093c a6b8 bcbc
00000340: 7814 7abd ca96 cabd 1315 66bd aecf 3fbd
00000350: 44dc 10bd 12ee 6ebd 530e 83bd 2166 dfbd
00000360: 7af3 64bd 2831 45bd 266c b0bd aca8 2d3c
00000370: 1778 0ebc e8be 77bd 5c65 2cbd d950 69bd
00000380: f48a 5fbd c5ae 8d3c 0dd9 8b3d 2653 273b
00000390: 9324 62bc 7be9 213d 0d99 f13c e1f1 15bd
000003a0: b9b0 8b3d 6e6c 95bc 7a6c 3bbd 772f b2bc
000003b0: 38f3 bcbc 3745 babc 7870 c2bb 673c b43b
000003c0: ce96 82bd 8081 60bd dd8a 51bb 84e0 c9bb
000003d0: ed10 f7bc 6840 28bd 3b52 533c adc0 1bbd
000003e0: 371e 4bbd 8622 1abd 65ec 7fb9 2e5e cb3c
000003f0: b13c 39bd e20d bbbd 4782 c3bd c8ba babd
-0.024520269 -0.024890613 -0.04700985 -0.034610316 -0.038851794 -0.05641176 -0.06484192 -0.014360668
-0.122722656 -0.057068326 0.033309277 -0.006442804 -0.017047763 -0.046280455 -0.017105361 -0.005145201
-0.012516531 0.05654776 -0.012153996 -0.01854888 -0.09399528 0.02017221 -0.005804125 -0.025942612
-0.07839572 -0.002724545 -0.049250834 0.0322253 -0.03644799 0.06475629 -0.0035262592 -0.031598367
0.005383189 -0.019390691 -0.00033671744 -0.027439624 -0.056408033 -0.05890168 -0.018354712 0.00038706156
-0.056198146 -0.03166566 -0.010819384 0.0047261566 -0.0064520547 -2.2598926e-05 -0.0048636147 -0.008713094
0.037945975 0.03010149 0.0156413 0.0104291085 0.039966833 0.017102007 -0.009020728 -0.0931058
-0.028906157 0.0028035392 -0.07949533 -0.05075342 -0.06825558 -0.032280143 -0.06517872 -0.028116971
-0.024272334 -0.0247695 -0.021405125 0.035950318 -0.02770337 -0.00038620183 0.060418773 0.04442408
0.038470864 0.101147346 0.08318678 0.09518997 0.066371486 0.0545029 -0.018062016 0.082647115
0.06907818 0.034137323 0.016565086 0.028522966 0.0042571896 0.060729563 0.032340437 0.029441884
0.033198968 0.054547843 -0.021299094 -0.02110415 0.023172185 -0.004408234 -0.02271301 0.015311047
-0.042581752 -0.0070321793 -0.021888306 -0.047039688 -0.067561775 -0.027195798 -0.061404143 -0.09606
-0.06083512 -0.0697111 -0.106299885 -0.07474013 -0.011049668 0.031128403 0.019315654 -0.03727896
0.026451666 -0.023524053 -0.038692042 0.0053610597 -0.031523064 -0.07913264 -0.046827305 -0.054784164
-0.07233223 -0.033928726 -0.005036382 -0.061548173 0.036800344 0.004343888 0.03074523 0.070533104
0.04258265 0.012680329 0.029587246 0.038595967 0.04215744 0.06982948 0.0142844515 -0.021803292
-0.023050888 0.010806048 -0.0124758985 -0.010070314 -0.03700756 -0.046723127 -0.0002008845 -0.055638116
0.051292233 -0.011840806 -0.03617592 -0.03681679 0.013200305 0.0030969225 -0.040229615 0.03717208
0.032768335 0.041054633 0.072066344 0.07874433 0.034601264 0.087590754 -0.008880746 0.05500385
0.092466354 0.073873274 0.003620307 0.051635712 -0.014462969 0.04034303 0.037841205 -0.033666838
-0.004037487 0.012249736 0.023327067 -0.07429622 -0.04218324 0.026803246 -0.04450703 -0.026075143
-0.01601902 0.00035192692 0.031642567 -0.005250231 0.010914894 -0.01689684 -0.048421085 -0.03335246
-0.014554246 -0.053893823 -0.031194882 0.013269746 0.0057998206 -0.027390659 -0.04147373 0.023302779
0.0086362455 0.00090171164 -0.051549852 0.017290764 0.014060043 -0.047357284 0.009629685 -0.0071462365
0.051923964 -0.021311773 0.07511729 0.05283836 -0.019696167 -0.021528488 0.00837518 -0.023037266
-0.061054677 -0.09892042 -0.05617244 -0.04682892 -0.03536631 -0.05833251 -0.063992165 -0.109081514
-0.05589626 -0.048142582 -0.08614378 0.010599297 -0.008695624 -0.060484797 -0.04208885 -0.056961868
-0.054575875 0.01729525 0.068285085 0.0025531738 -0.013802665 0.039529305 0.029491926 -0.036607627
0.068208165 -0.01824018 -0.04575775 -0.021751149 -0.023065194 -0.022738082 -0.0059338175 0.0055003646
-0.0637642 -0.054811 -0.0031973638 -0.0061607976 -0.030159438 -0.041077048 0.012898023 -0.038025547
-0.049589362 -0.03763058 -0.00024406759 0.024825182 -0.045223895 -0.09133507 -0.09546333 -0.09117657

conv3.0.bias f4 [64]
00000000: e244 3cbe 553b 86bd 719f 99bd 9dc1 05be
00000010: 5287 5cbd b7cc a6bc b938 d1bd b091 0bbe
00000020: b4cb 26bd 5831 b8bd 97ba fd3c 0b84 c5bd
00000030: b8cc 76bd cc49 2ebd a787 2abe 1b16 19bd
00000040: a4e1 13be 5673 e3bd 911b 61bd 92c0 febd
00000050: 8b56 fcbd 839d dbbd 8aca adbd 0a23 bbbd
00000060: 3fb8 99bd b37a cebd 3d46 58be d252 93bd
00000070: d1e1 6cbe 8a15 79bd 8d1d 36be 9946 4dbd
00000080: 6695 9bbd 6f6b 3bbe 38d1 0ebe 6a1e 29be
00000090: 575a 5ebc 0522 66bd f9d0 05be 0aa1 e5bd
000000a0: 15da acbd 881b 51bb 3ece 00be f845 8cbd
000000b0: c0af 71bd 928c 93bd 34e9 04bd 1383 21bd
000000c0: 0186 81bc 9637 c6bd 45ab edbd de5c aabd
000000d0: a4b7 09be 6f21 04bd 19c2 98bc 1332 f7bd
000000e0: d014 febc 14b0 3abd 2330 44bd 5ba9 913c
000000f0: 7a91 5ebc 0d3c abbd bc2b 0dbe f2f3 fdbd
-0.18385652 -0.065542854 -0.07501114 -0.13062139 -0.05383999 -0.020361288 -0.10215897 -0.13629794
-0.04072161 -0.089937866 0.030972762 -0.09644326 -0.06025383 -0.042550847 -0.1665331 -0.037374597
-0.14441544 -0.11105983 -0.05495793 -0.124390736 -0.12321194 -0.10723402 -0.08485897 -0.091375425
-0.07505845 -0.10081997 -0.21120544 -0.07193531 -0.23133017 -0.060811557 -0.1778471 -0.050116155
-0.07596855 -0.18302701 -0.13946998 -0.16515508 -0.013571343 -0.056184787 -0.13067998 -0.112123564
-0.08440033 -0.003190728 -0.12578675 -0.06849283 -0.0590055 -0.07204546 -0.032448962 -0.039431643
-0.015810968 -0.09678571 -0.11604933 -0.08318494 -0.1344896 -0.032258447 -0.01864724 -0.12070098
-0.031015784 -0.045578077 -0.04789747 0.01778095 -0.013584489 -0.08361063 -0.13786215 -0.124000445

conv3.4.weight f4 [64]
00000000: 13d2 893f e184 873f 07a0 973f d4a4 993f
00000010: d8e9 943f 7b77 983f efe7 993f 05ea 853f
00000020: d357 763f fc5c 9a3f 4707 973f e51a 803f
00000030: 2413 973f a608 853f ee9d 873f c3f5 933f
00000040: c682 843f 902f 8b3f a02a 973f a464 943f
00000050: e240 853f f992 9b3f d39e 973f 7e12 9b3f
00000060: df40 843f 0386 873f 753b 843f 5a01 9e3f
00000070: b03e 883f 794c 973f f8fe 843f dab3 803f
00000080: ef35 903f 2682 883f 5ce2 843f 38e9 863f
00000090: 4fab 703f ca7b 9a3f bb6e 9a3f c346 983f
000000a0: 33d8 893f 0cad 803f 1b4a 873f 221f 973f
000000b0: 1bd7 883f d7a1 9b3f 7312 963f 238e 7a3f
000000c0: e871 933f 76ef 9b3f c99c 873f 19d5 9a3f
000000d0: a716 813f c705 923f 433f a03f d32b 883f
000000e0: 487f 833f 52c2 9b3f 080c 963f b76b 773f
000000f0: 6e25 983f 5b58 993f 166a 823f 7632 953f
1.0767235 1.0587426 1.1845711 1.2003427 1.1633863 1.1911463 1.2023906 1.0462042
0.9622776 1.2059627 1.1799096 1.0008208 1.1802716 1.0393264 1.0595071 1.1559376
1.0352409 1.087389 1.1809883 1.1593213 1.0410426 1.2154227 1.1845344 1.2115018
1.0332297 1.0587772 1.0330645 1.2344162 1.0644131 1.1820213 1.039031 1.0054886
1.1266459 1.0664718 1.0381579 1.0539923 0.94011396 1.2069027 1.2065042 1.1896595
1.0769104 1.005281 1.056949 1.1806376 1.0690645 1.2158765 1.172438 0.97873133
1.1519136 1.2182453 1.0594722 1.2096282 1.0085038 1.1408013 1.2519306 1.0638374
1.0273218 1.2168677 1.1722422 0.96648735 1.1886423 1.1980089 1.0188625 1.1656024

conv3.4.bias f4 [64]
00000000: 8ad4 bdbb bd42 2e3b 1179 f23a 487f 30bc
00000010: 2806 3d3b 1144 5c3b a6d1 a23a f045 f9ba
00000020: f3b2 04bc b83e 323c c9d1 dd3b b18d 3bbc
00000030: dbf4 a7bc 76ed 38bc 4317 333c 3296 c3bb
00000040: 604e 0d3c 7495 1c3c 3436 3b3c 48fd 91bc
00000050: 51c6 15bc 8985 a4bb 46f8 783c 8024 57bc
00000060: 8554 07bd c04c d7bb 09e8 3dbc 39d6 a9bc
00000070: 321e b8bc 74a3 3bbb 726d 02bb 44fa 53bc
00000080: e777 6b3c 6781 063a d7e2 0dbc 777b 5f3c
00000090: 4488 ebbc bc54 5d3a 1569 b0bb 2680 16bc
000000a0: 7a9e d2bb 3fa4 9c3c 8f19 bb3c 1fda 4bba
000000b0: e423 623c 2985 00bc 79b0 ccb8 fdc7 253c
000000c0: fc2f cabc 9160 a73b 6727 333b c057 4b3c
000000d0: c9be 86bb 74f6 d738 2cf4 8cba 0959 16bc
000000e0: da36 9a3c fd97 493c 968c 3a3b e0fc 7cba
000000f0: d9bc 393c 0c60 263c e9c1 ab3c c422 7c3c
-0.005793159 0.0026590072 0.0018499215 -0.010772534 0.002884278 0.0033609907 0.0012422099 -0.0019018035
-0.008099305 0.010879211 0.006769393 -0.011447356 -0.020502498 -0.011287084 0.010930839 -0.0059688324
0.008624643 0.009557117 0.011426497 -0.01782097 -0.009141521 -0.0050208014 0.015195912 -0.013131261
-0.03303959 -0.0065704286 -0.011590966 -0.020732032 -0.022475336 -0.0028631361 -0.001990166 -0.012938086
0.014371849 0.0005130977 -0.00866004 0.013640276 -0.0287515 0.00084431074 -0.0053836205 -0.009185826
-0.0064275833 0.019121287 0.022839336 -0.0007776338 0.013802502 -0.007844248 -9.7603486e-05 0.010118482
-0.024681084 0.005107947 0.0027336718 0.012411058 -0.004112099 0.000102979044 -0.0010753921 -0.009176501
0.018824983 0.012304303 0.0028465143 -0.00096507184 0.011336529 0.010154735 0.020966487 0.015389148

conv3.4.running_mean f4 [64]
00000000: 629b a03d 86be b73d fe65 743e 0a1f 123e
00000010: 6bec 353e 5cff 763e 4893 3e3e 6965 ed3d
00000020: 339f 363e 3745 3f3e c5ca 6e3e ab30 153f
00000030: 64c2 3b3e dc9d 833d 484c c43d c5c3 4c3e
00000040: ebd8 033e 65d3 233e 4d3f 873e 9eca 6c3e
00000050: 2b38 0a3e 223d 113e 0b39 5b3e 1810 263e
00000060: 7eef dd3d e608 0f3e f282 cc3d 3545 333e
00000070: 4d63 cb3d dc86 6f3e dda1 3a3e d3fe eb3e
00000080: a395 873e a448 f33d 71ee 033d 4a4d e43d
00000090: 8dd7 773f 9671 193e f9b4 263e c7f6 813e
000000a0: e599 893e 9380 403f 529c d53d 16a4 403e
000000b0: b9f6 553e ba84 753e db21 713e f7b8 563e
000000c0: 9cc5 503e 8d2c 333e 417a 0b3e 1a4f 863e
000000d0: f309 2b3e 7e14 d33e 58ab 433e 3926 073e
000000e0: 2563 b13e d0dc 143e 6f8b 773e fcaf 833f
000000f0: 7652 253e 7f62 603e 911d 913e ecb3 633e
0.07842137 0.08971886 0.23867032 0.14269653 0.17765968 0.2412085 0.18610871 0.11591608
0.17834167 0.18678747 0.23319538 0.58277386 0.18335873 0.06426594 0.09584862 0.19996555
0.12875716 0.1599861 0.26415482 0.23124167 0.13497989 0.14183477 0.21408479 0.16217077
0.10836695 0.13968238 0.09985913 0.17506869 0.099310495 0.23391289 0.18225808 0.46092853
0.2648135 0.118790895 0.032209817 0.11147554 0.9681328 0.14984736 0.16279973 0.2538359
0.26875225 0.7519619 0.10430206 0.18812594 0.20894898 0.23976412 0.23548071 0.20968996
0.20387882 0.17497464 0.13620855 0.26232225 0.16703014 0.41226572 0.19108331 0.13198175
0.34645954 0.14537358 0.24174283 1.0288081 0.16144738 0.21912573 0.2834287 0.22236603

conv3.4.running_var f4 [64]
00000000: a5c0 1f3e 3e84 133e 8bf9 753f 50ea fc3e
00000010: d343 4a3f 2417 853f 4964 393f 2d3a 583e
00000020: 0c70 b53e 8c0a 423f b8d2 623f 1e9a f83f
00000030: 6f8c 443f 4350 ba3d 2900 243e f3e6 3a3f
00000040: 5d73 673e ebc6 873e c317 913f c1d9 7c3f
00000050: 6498 783e efaf 053f fd47 543f d80d 173f
00000060: 7e4f 2b3e 173f 8a3e 41f4 323e 13c4 1a3f
00000070: 271e 233e 23bd 753f fc2d c33e 8c30 5f3f
00000080: 4afc 8b3f 73ee 2e3e 61c7 093d 86cd 503e
00000090: 1946 8e40 3661 0f3f c235 1f3f abac a23f
000000a0: 3616 0e3f 03ff 4b40 7aae 2e3e a416 533f
000000b0: 9462 bf3e 3fa9 933f e895 703f bd94 da3e
000000c0: c929 5a3f c257 183f df35 803e 4364 a63f
000000d0: c6c5 9e3e 2629 f23f fffd 4b3f d656 4d3e
000000e0: 6ab1 733f 9600 0c3f 4c85 6e3f 22cd d740
000000f0: 6d56 2d3f c6bc 5c3f f7f2 3c3f 0472 863f
0.15600832 0.14405915 0.960839 0.49397516 0.7900974 1.0397687 0.7241865 0.21115942
0.35437047 0.75797343 0.8860278 1.9422033 0.76776785 0.0909734 0.16015686 0.7300865
0.22602601 0.2651895 1.1335377 0.98769766 0.24276882 0.5222158 0.82922345 0.590055
0.16729543 0.2700126 0.17475988 0.60455436 0.15929471 0.95991725 0.3812102 0.8718345
1.0936368 0.17083149 0.03363741 0.20390901 4.446057 0.5600771 0.621914 1.2708944
0.5550264 3.1874397 0.17058745 0.8245642 0.37379897 1.1536025 0.9397874 0.42691603
0.8522001 0.5950891 0.250411 1.2999347 0.31010264 1.8918808 0.7968444 0.20052657
0.9519259 0.54688394 0.93172145 6.7437906 0.6771 0.86225545 0.73808235 1.0503545

fc.0.weight f4 [32, 64]
00000000: e850 183e cf9a 233e 3ee3 8bbc 887f c2bd
00000010: c3eb 70be 8e5d dbbc 4027 d8bd 61e9 503b
00000020: 886c 6a3d d399 e1bd 4424 41be 7543 d2bd
00000030: b7a8 17be 44c8 a53d 432b 033e 1ca0 49be
00000040: de18 3e3d 99c8 a03d 6e08 37be 04d0 18be
00000050: 8321 06bd 50f9 6ebd 499c c1bd fbf5 85be
00000060: feae cf3d 1ac1 403b befc 85bc 61e6 26be
00000070: a9ca 173e ade3 c3bd 47c0 6a3c 30b9 003e
00000080: 3f68 66bc 106f 403d bd55 af3d a05c 1e3e
00000090: d1c8 923d 7b7c 4abe 780b b3bd 36be 57be
000000a0: c647 d93d 744b 7b3d 76f8 223d 5e54 0dbe
000000b0: 5d99 1b3e f489 81be e8d1 2abe 962f 3b3c
000000c0: 5c0a 01bd 933c 1ebe 401e 4b3d 9e85 40be
000000d0: 7651 aa3d c842 55be 605b 06be 4f6f 013e
000000e0: 0bb2 913d 27b4 8bbd edbd 5abe 74b1 543b
000000f0: 06da b5bd 74cc 9fbd 57ec 9fba 0880 25be
00000100: 79ad 0dbc 85f8 b73c 5987 efbd d449 51be
00000110: 0776 b1bd 2c3d 3bbd 438c 26be 1972 ca3d
00000120: ee1b 7cbd fbc8 4abe 4c1f f9bb 1f97 dcbc
00000130: fb92 02be 5965 d63d e31a 2d3e 3520 09be
00000140: b716 0f3e 1a19 a63d 1dbe febd fb48 f7bc
00000150: 6e92 87bb 2870 60be 3543 50be 1243 4fbe
00000160: 086b c33b 081a 0f3e 3367 373d f77a 3bbe
00000170: 59a8 1a3e 0617 48be 0f47 3e3d 8a93 1bbd
00000180: c642 98bd 8166 2e3e d687 133e 2d7d 253e
00000190: 70f3 423d 0a15 debd 4736 38be 938e 65be
000001a0: a417 a5bc 3432 473d c858 063e acd7 0ebd
000001b0: 8729 07ba e765 17be cadc a8bb 49d9 083e
000001c0: c9c7 56be 91de 01be d33d 13bd ad52 a3bd
000001d0: 3ed4 cf3d e4ee 87bd ffcb f0bd 057c 2e3e
000001e0: 4dbf 113e c780 03be 7759 f0bd accc 77ba
000001f0: 12c3 35be dc84 95bd dc46 743d b24f ffbd
00000200: 68f8 3f3d c98b 943d d246 17be 0be9 26be
00000210: 5a85 42be 5124 c0bd 4a4e 57be b60a 373d
00000220: 3644 623d 5061 88bd c638 fdbd 2744 cc3d
00000230: 433c 24be 77b6 993d cfd0 d33d eda3 12be
00000240: 8909 5f3d b0b1 ed3d 3b3b 3cbc 1e68 42be
00000250: 1560 553d 9c12 1abe dda1 42be 808a 42be
00000260: d3fb cabc 870a 8d3c 647c 043e 2e70 23be
00000270: 7077 e63d dffc 7dbd 9dac 263e 3e1e b2bd
00000280: 4d83 e9bd a27e 723d 6d96 e3bc 52e4 f23d
00000290: 741d a2bd b16b 35be 6ecd 9fbd cb14 3cbe
000002a0: c584 473d d4ec 40bd 21d1 f13d 84c5 06be
000002b0: f357 2e3d 4861 72be 0c90 6abc 1f18 9abd
000002c0: 6210 db3a deef 75bd 3bac d93d 357d 29be
000002d0: 8d41 033e 43eb 30be 69f0 0cbe b250 343e
000002e0: d1d9 633d 5097 6abe d7a9 72be 383e b93d
000002f0: 2489 27be 4797 09be e839 a53c 953a 27be
00000300: 971e 0fbe 618f cbbd 4f08 343d 88a2 9c3d
00000310: 88df 453e b97c 583e 64e3 213e e704 ddbd
00000320: eccd 773b c70c 5c3e 4af3 c73d 3c40 d3bd
00000330: cc8e 1f3e a200 a2bd c0b2 19be efed e73d
00000340: 30d0 13be d9dd 2d3c 4bc5 613d 462e 1a3e
00000350: d966 cdbd 83aa 513e a746 ba3d 6175 113e
00000360: ad44 993c 1a41 e93c c01c 37bd 5afb 243c
00000370: f869 553b 5d16 693e e2d6 45bc 39f4 ecbd
00000380: dcbd 163e 8e73 69bd 4b26 23be bbba c2bd
00000390: 6e39 aabd 247b d33d 739d a93d 174a 973d
000003a0: 6980 6d3c 5c96 22be b989 e8bc a27d 333e
000003b0: 3216 a0bd fcaf 503e c957 513d 59b0 12bd
000003c0: 49e2 443c 4037 823d 39c7 a6bd 48c9 ac3d
000003d0: c2ee 1fbd bd93 403e 8a68 473e b517 ecbd
000003e0: 42b3 0bbe 161f 0c3e ab91 f03c c753 0bbd
000003f0: 0a49 dd3c b9ed 663e b528 4dbd 4e02 bb3d
0.14874613 0.15977024 -0.017076131 -0.09496981 -0.23527436 -0.026778009 -0.10554361 0.0031877386
0.05723241 -0.11015668 -0.1886149 -0.10266773 -0.14810453 0.08094838 0.12809472 -0.19689983
0.046410434 0.07850761 -0.1787431 -0.14923102 -0.032746803 -0.05834323 -0.09453637 -0.2616423
0.10140799 0.0029411973 -0.016355868 -0.1629882 0.14823402 -0.0956491 0.014328069 0.12570643
-0.01406294 0.046980917 0.08561275 0.15465021 0.07167209 -0.19774048 -0.08742422 -0.21068653
0.10609393 0.061351255 0.039787732 -0.13801715 0.15195222 -0.25300562 -0.16681635 0.01142492
-0.03150402 -0.15452795 0.049589396 -0.18800971 0.08316319 -0.20826256 -0.13120794 0.12640117
0.07114037 -0.06821471 -0.21361513 0.0032454403 -0.08879475 -0.07802668 -0.0012201172 -0.16162121
-0.008647316 0.02245737 -0.116957374 -0.2043832 -0.0866509 -0.045712635 -0.16264443 0.09885044
-0.061550073 -0.1980323 -0.007602608 -0.026927529 -0.12751381 0.10468549 0.16904788 -0.13391192
0.13973509 0.081102565 -0.12438605 -0.030186167 -0.004137329 -0.21917784 -0.20338137 -0.20240429
0.005963687 0.13974774 0.044776153 -0.18308626 0.15103282 -0.19540033 0.046454486 -0.0379825
-0.07434611 0.1703129 0.14407286 0.16161032 0.04759544 -0.10843857 -0.17989455 -0.22417669
-0.020152874 0.04863186 0.13119805 -0.03487365 -0.00051560294 -0.14784966 -0.005153273 0.13364138
-0.2097465 -0.12682559 -0.035947632 -0.079747535 0.10147904 -0.06637362 -0.11757659 0.17039497
0.14233132 -0.12842093 -0.11735814 -0.0009452801 -0.17750195 -0.073007315 0.05963789 -0.124663725
0.046867758 0.072532244 -0.1477311 -0.16299836 -0.18996182 -0.09381927 -0.21025959 0.04468795
0.055240832 -0.06659186 -0.12364344 0.099739365 -0.16038613 0.075055055 0.103425615 -0.14320345
0.054452453 0.11606157 -0.011488731 -0.1898503 0.052093584 -0.15046161 -0.19007058 -0.18998146
-0.024778282 0.017216934 0.12938076 -0.15960762 0.1125325 -0.062008735 0.16276784 -0.086971745
-0.11401997 0.059202798 -0.02778169 0.11859955 -0.07915774 -0.17716862 -0.078028545 -0.18367307
0.048710603 -0.047100857 0.11807466 -0.13161284 0.042564344 -0.23669922 -0.01431657 -0.07524132
0.0016713256 -0.06004321 0.106285535 -0.16551669 0.12817974 -0.17277245 -0.13763584 0.17608908
0.055627648 -0.22909284 -0.23697601 0.090450704 -0.16360909 -0.13436614 0.020169213 -0.16330941
-0.13976513 -0.09939457 0.043953236 0.07648188 0.19323552 0.21141328 0.15809399 -0.10791951
0.0037811948 0.21489249 0.097632006 -0.10314986 0.15581816 -0.07910277 -0.15009594 0.11324679
-0.14434886 0.010611975 0.055119794 0.15056714 -0.10029382 0.20475201 0.09095507 0.14204933
0.018709505 0.028473426 -0.044705153 0.0100696925 0.0032564383 0.22762437 -0.012075158 -0.11570019
0.14720863 -0.056994967 -0.15932576 -0.09508272 -0.08311735 0.103262216 0.08281984 0.073871784
0.014495947 -0.1587767 -0.028385984 0.17528394 -0.078167334 0.20379633 0.05110911 -0.03581271
0.012016841 0.06358194 -0.081434675 0.08436829 -0.039046057 0.18806358 0.19473472 -0.11527959
-0.136426 0.13683733 0.029366335 -0.034015443 0.027012367 0.22551621 -0.05008765 0.09131299

fc.0.bias f4 [32]
00000000: a79f 74bd 1cde 9dbd 2462 a8bd fc26 8c3d
00000010: 2f98 91bc 9b86 a3bd 684b 903d caec 1dbd
00000020: 8d4c ccbd a2a0 78bd bec5 1abd fc52 b2bc
00000030: ace8 a23d a0ec 64bd ed39 8fbd 1b23 1e3d
00000040: 074d 733d f058 b8bd da7f 67bd 9bbf 8b3c
00000050: b5d1 8c3c d03d da3d d6d8 533d 8110 bcbd
00000060: 13bf 94bb fdc9 c73d 3ffa 983d e93c 593d
00000070: fe83 c03d eaa1 ad3d abdf 8bbb 5138 a43c
-0.05972257 -0.077083796 -0.08221844 0.06843373 -0.017772762 -0.07984658 0.070456326 -0.038555898
-0.099755384 -0.060700066 -0.037786238 -0.021768086 0.07954535 -0.055889726 -0.0699347 0.038607698
0.05939963 -0.090013385 -0.056518413 0.017059138 0.01718984 0.10656321 0.051720463 -0.09182835
-0.0045393794 0.09755323 0.07469606 0.053036604 0.094001755 0.08478148 -0.0042686067 0.020046385

fc.3.weight f4 [1, 32]
00000000: 416a f8bd 11f1 35be 1749 50be b88e c03e
00000010: d4eb a83e 28d7 1ebe 1674 2e3e ca77 b43e
00000020: 884a 26be 5239 48be aacd ae3e bc21 1bbe
00000030: 6b40 77be fd86 b8bd 7f71 e2bd db51 01be
00000040: 5054 0abe 5b32 913e dd1c 77be 9778 25be
00000050: e89f 743e add9 a83e 2385 a13e 0f04 bb3e
00000060: 88c9 4abe ea7f 67be 36ae 7c3e ee4a 3fbe
00000070: c79c 9e3e 4892 0cbe 7c53 62be bc6c 33be
-0.12129641 -0.17767741 -0.20340382 0.37608886 0.32992423 -0.15511763 0.17036471 0.35247642
-0.16239369 -0.19553116 0.34141284 -0.15149587 -0.24145667 -0.09010122 -0.11056804 -0.12628882
-0.13508725 0.2835873 -0.24132104 -0.16159283 0.23889124 0.32978573 0.31546888 0.36526534
-0.1980344 -0.22607389 0.24675831 -0.18680927 0.30978987 -0.13727677 -0.2210216 -0.17521948
