5 第五讲 机器学习训练模型的数学范式v16/models/model130.pth (torch, 112459 bytes, 21 tensors)

conv1.0.weight f4 [16, 3, 3, 3]
000000 07 33 73 bc 1f c8 f5 bd ec cc 13 3e 84 4d 58 bd
       -0.014843709 -0.12001061 0.1443364 -0.0528083
000010 3b db 07 be 6b b1 31 be 94 dc 34 3d 98 4e 22 be
       -0.13267224 -0.17352836 0.044155672 -0.15850294
000020 5a 45 c1 3d 4d f2 99 3d 02 e3 44 3e c5 05 09 be
       0.09437056 0.07516918 0.19227222 -0.13381107
000030 ec 13 1c 3d 48 21 2e 3d 54 14 d2 3c bd ac e6 3d
       0.038104936 0.04251221 0.025644459 0.11263416
000040 65 b8 ee 3b 64 f2 7d bd f7 55 1e 3e b2 7a e5 bd
       0.007285165 -0.06199874 0.1546248 -0.11205043
000050 7e 1a 18 be 7d 64 eb 3d 73 a1 25 bd de 49 21 3e
       -0.14853856 0.11493776 -0.040437173 0.15750834
000060 ea 6e e4 bd 6e db 26 3e ea bf 39 3d be 58 7f bd
       -0.11153968 0.16294643 0.04534904 -0.06234049
000070 ae 57 04 3e c3 61 86 bd ea a1 7a bc 8b a5 a0 bd
       0.12924072 -0.06561615 -0.015297392 -0.07844075
000080 26 b5 bc 3d 3d ff 4b 3d ba 49 13 3e 3e 5a ab bd
       0.09214239 0.04980396 0.14383593 -0.08366822
000090 e0 7a c9 3c eb 1e 20 bc d4 68 30 3e 50 49 28 be
       0.024594724 -0.009772996 0.17227489 -0.16434216
0000a0 4e d2 79 bd 7a c2 38 3e 8f 9e 76 3d da 2b 3b bd
       -0.060991578 0.18042937 0.060209807 -0.045696117
0000b0 ca e6 cf 3d af 37 14 3d d1 c7 8f bd 0b cd 17 be
       0.101514414 0.036185917 -0.07020534 -0.14824311
0000c0 c9 60 47 be e1 aa cb 3d 93 54 18 bc 26 19 8c 3d
       -0.19470514 0.09944702 -0.009297508 0.06840734
0000d0 01 27 26 be 9c e9 34 3e 5a e5 a9 3d 7d 53 4b bc
       -0.16225816 0.1766724 0.082956985 -0.012410042
0000e0 1d 51 ca bd 05 c1 45 bc e8 2e 07 be 12 7d 32 be
       -0.098787524 -0.012069945 -0.13201487 -0.17430523
0000f0 19 fe 77 bd 54 b1 e9 3d f0 9c 30 be 1f 0e 26 3e
       -0.06054506 0.11410776 -0.17247367 0.16216324
000100 73 82 bd 3d 29 53 23 be bc f3 34 3e c2 de 60 3d
       0.09253397 -0.15949692 0.17671102 0.05489994
000110 7b 96 2d bd 12 0d fb 3c b3 22 36 3d 37 b7 fc 3d
       -0.042379837 0.03064588 0.044466686 0.12339633
000120 a6 ec 3c 3e 0c f7 ec 3c 3a 8b 4c bd 12 ad 5d 3c
       0.18449649 0.028926395 -0.049937464 0.013530033
000130 99 33 09 3d 37 75 bc bd 53 a0 ad bd e9 96 50 be
       0.033496473 -0.092020445 -0.08477845 -0.20370068
000140 6f 55 31 3e 66 53 97 bd 2d 5f 0f bc 92 98 1b be
       0.17317747 -0.07388954 -0.008750719 -0.1519492
000150 db c0 32 3c 36 66 38 3e e2 3d 1d be 37 62 fe 3d
       0.010910238 0.1800774 -0.15355638 0.12421077
000160 c8 15 4e 3e d1 43 3b be 7c 7e 2b bd cb 86 33 3c
       0.20125496 -0.18287589 -0.04186867 0.01095743
000170 a8 cc da 3a ea b8 c4 bb 0f db 25 3e 77 41 12 3e
       0.0016693072 -0.006003489 0.16196845 0.14282785
000180 e4 a6 bf 3c 4f 25 80 3d 89 ae d4 bd b5 f0 13 be
       0.02339501 0.06257116 -0.103848524 -0.14447291
000190 6b f6 c7 bd e9 59 1c 3e 07 da 29 3e 51 e5 1b 3e
       -0.097637974 0.15268673 0.16587077 0.15224196
0001a0 8f 99 e8 3c e1 af c2 3d 4b 34 8a bd de be 21 bd
       0.028393535 0.095062025 -0.06748255 -0.039488666
0001b0 06 64 48 be 03 9a 7c 3d ca cf c9 bd 6a a0 24 3e
       -0.19569406 0.061670315 -0.09854086 0.16076818
0001c0 6c 27 bc 3c bc 26 f8 3d fa 75 35 bd c0 11 5a 3d
       0.022968017 0.12116763 -0.044301964 0.053239584
0001d0 b2 93 1a be 28 54 53 be cf d8 ea bd 2c e4 50 3e
       -0.15095404 -0.20637572 -0.11467134 0.2039954
0001e0 57 10 8f 3d 66 27 d2 3d c5 90 53 3e 34 00 a6 3d
       0.069855385 0.10261421 0.20660694 0.081055075
0001f0 ab 17 a7 3d af 76 4d bd 73 8a 08 be d2 16 cc 3d
       0.08158811 -0.050162014 -0.13334064 0.0996529
000200 6a 15 25 3e f7 17 35 be d3 f5 5d 3d 10 44 2e bd
       0.1612145 -0.17684923 0.054189514 -0.04254538
000210 10 ba 22 3e 92 0c 29 bd 1c 59 1f bd 24 83 38 bd
       0.1589129 -0.041271754 -0.03890334 -0.04504694
000220 81 1a 6e bd 33 e7 1c 3e 4c a0 cd bd b5 64 42 3d
       -0.058130745 0.1532257 -0.1004034 0.047459323
000230 44 2e ae 3b c0 d7 04 3e 29 df b4 3d dc 5f 11 be
       0.005315574 0.12972927 0.08831627 -0.14196724
000240 aa 92 09 bc 22 9a 0a 3c 29 24 d5 bc 72 2f 25 3e
       -0.008396784 0.0084596 -0.026018219 0.1613138
000250 fa a8 50 3e d2 90 02 be e4 f2 5a bd 9c 58 4e 3e
       0.2037696 -0.12750557 -0.053454295 0.2015099
000260 01 e6 74 3d 0c 7b b1 bd 1c f1 cf 3d ed ae 3c bd
       0.05978966 -0.086660475 0.1015341 -0.04606526
000270 77 55 c7 bd 7a c0 4f be 6a 07 e1 3d 89 8d 90 bd
       -0.09733098 -0.20288268 0.10987742 -0.07058246
000280 91 aa 1c be f5 ff 1c be 27 fc b7 bc 4f e4 02 3e
       -0.15299441 -0.15332015 -0.022459103 0.12782405
000290 ab b1 cf 3d 94 6c 05 3e 3d a9 a8 bd 47 08 25 be
       0.10141309 0.130297 -0.08235405 -0.16116439
0002a0 32 d6 0f bd 87 4c c1 bd de 0e 85 3d 4d 05 07 3e
       -0.035116382 -0.094384246 0.06496976 0.13185616
0002b0 3f 28 84 bd e3 fd 52 be c0 20 23 3e f0 86 49 3d
       -0.06452989 -0.20604663 0.15930462 0.049200952
0002c0 7c ab 0b be 06 0c 7a bd 52 20 34 bd 6b 9f 04 be
       -0.13639635 -0.061046623 -0.043976136 -0.12951438
0002d0 53 d2 39 3e 31 f9 7d 3d 85 dd fd bd be 7d d9 bd
       0.18146639 0.062005226 -0.12395767 -0.106196865
0002e0 84 19 b3 bd d6 24 43 be 2e d1 25 bc bd b6 73 bd
       -0.08745101 -0.1905702 -0.010120673 -0.059500445
0002f0 ab 01 d5 bd 23 68 5b 3c 0d d1 c7 bd 15 47 d8 3d
       -0.10400709 0.013391527 -0.0975667 0.10560433
000300 54 de bd 3d 6a e0 8f bd a4 57 b8 bd 97 ab 4f be
       0.09270921 -0.070252255 -0.09001091 -0.202803
000310 20 07 d4 bc 6f 9c 29 be a7 20 3a 3e 8e bc e5 3d
       -0.025882304 -0.16563581 0.18176518 0.112176046
000320 b8 08 32 3c ba c0 69 bc 89 3e bc bb c5 75 48 3e
       0.0108663365 -0.014267141 -0.0057447595 0.19576176
000330 45 c1 c5 bc dd 0c 16 3d cc e2 f4 3d b6 24 78 3d
       -0.02414001 0.03663336 0.119573206 0.060581885
000340 84 e3 be bc df b2 00 3e 0f a9 2c be 6f 03 6a 3c
       -0.023301847 0.12568234 -0.16861366 0.014283045
000350 d5 19 57 be 72 02 98 3d 32 fa ce 3d 93 3b 87 bd
       -0.21005948 0.074223414 0.10106315 -0.0660316
000360 48 6c 1b be d2 4f d0 bd 28 b7 22 bb 0c 34 14 be
       -0.15178025 -0.101714745 -0.0024828408 -0.1447298
000370 b0 8d 2f bd c5 ee 5b bd 88 cf de bd ff ba b2 3d
       -0.042859733 -0.053694505 -0.10879427 0.08727073
000380 47 8e e6 bd 07 12 ae 3d 16 c4 40 be af 4f 87 bd
       -0.11257606 0.08499532 -0.18824801 -0.06606995
000390 d5 36 3b 3e ab f1 02 be 53 28 63 bd c7 43 c7 3d
       0.18282636 -0.12787502 -0.055458378 0.097297244
0003a0 df 6b 98 3d 0a 5b a4 bd 01 ef ad 3d c2 49 66 be
       0.0744245 -0.08025177 0.08492852 -0.22489074
0003b0 2c 1f 8c be c9 02 65 bd f9 77 2d 3e a0 f5 be 3d
       -0.27367532 -0.05591086 0.16940297 0.09324193
0003c0 68 10 20 3e 84 01 54 3d 22 93 92 3c ed 1f 44 3e
       0.15631258 0.051759258 0.017892424 0.19152804
0003d0 0c 99 b5 3d 6d 3c 5d 3d ee 22 13 be 9d ab fe bd
       0.08867082 0.054012705 -0.14368793 -0.124350764
0003e0 84 a4 08 3e 61 88 51 3e 03 6b 5e 3d 80 fa 9d 3d
       0.13344008 0.2046218 0.054301273 0.07713795
0003f0 f3 13 16 be 78 42 85 bd 58 cc 50 bd 6a a7 be bd
       -0.14656048 -0.065068185 -0.050976127 -0.093092754

conv1.0.bias f4 [16]
000000 ca c3 a3 3d a8 42 03 3e bd 94 78 3d 88 0c 8c 3d
       0.07996328 0.12818396 0.060688723 0.06838328
000010 ec a1 45 be 91 9b ae ba 0c c7 f4 3d 00 1d e1 3c
       -0.1930005 -0.0013321509 0.11952028 0.027479649
000020 88 61 4b be c2 99 20 3c cf 61 49 3e 8a 8d e6 bd
       -0.19861424 0.009802284 0.19666217 -0.11257465
000030 94 90 2d 3e ad c6 2c be 9d 6a 2a 3c 5c 6a 6d 3e
       0.16949683 -0.16872664 0.010401395 0.23185104

conv1.3.weight f4 [16]
000000 86 6f 74 3f 73 68 7a 3f 41 c9 83 3f 0d b4 67 3f
       0.9548267 0.97815627 1.0295793 0.9050911
000010 7a ab 82 3f 6c 08 82 3f 8c 2e 80 3f 75 cd 68 3f
       1.020858 1.015882 1.0014205 0.909385
000020 7e c3 71 3f 56 75 85 3f d5 93 6c 3f f0 70 93 3f
       0.9443892 1.0426433 0.92413074 1.1518841
000030 46 81 66 3f fd e5 82 3f c6 10 6f 3f 68 83 76 3f
       0.90041006 1.0226437 0.9338497 0.9629426

conv1.3.bias f4 [16]
000000 07 74 80 bb c5 61 29 3e 33 d2 ef bb 84 38 da 3c
       -0.0039200815 0.16541202 -0.007318759 0.026638277
000010 e9 a7 3c 3e 65 8d dc bc d4 d4 a6 3d c8 ed 5d 3d
       0.18423428 -0.02692289 0.081460625 0.054181844
000020 18 d8 67 3e 0f 45 27 3d 45 57 0d be 5c fb 3c 3d
       0.22641027 0.040837344 -0.13802822 0.046138152
000030 4e 6d f2 3c 88 2e b9 3d 14 d2 c5 3c 32 85 04 be
       0.029593136 0.09042078 0.024148025 -0.12941435

conv1.3.running_mean f4 [16]
000000 fb f3 03 3e 6c 25 5e 3e bc d9 8b 3d 61 6f 84 3e
       0.1288604 0.21693963 0.06828639 0.25866225
000010 aa 2e c8 3c 36 ea 39 3c 73 44 a0 3c 18 41 75 3d
       0.024436314 0.011347344 0.01956389 0.05987653
000020 df 09 a9 37 9d 00 16 3d db 41 de 3e c9 44 1e 3c
       2.0150967e-05 0.03662168 0.4340962 0.009659954
000030 61 28 43 3e 23 e2 c6 3c 50 26 90 3d 97 25 47 3e
       0.19058372 0.024277752 0.070385575 0.19447933

conv1.3.running_var f4 [16]
000000 49 f8 4a 3b 41 17 56 3b d2 98 1d 3b 08 f7 6d 3c
       0.0030970743 0.003266767 0.0024047387 0.014524229
000010 28 dd 07 3b ed 00 4b 3a 64 bc e8 3a 60 64 f2 3a
       0.0020731185 0.00077439734 0.001775634 0.0018493049
000020 0c 90 1b 36 a4 87 1a 3b df 32 ff 3c ee 49 8f 3a
       2.3180646e-06 0.0023579383 0.031152187 0.0010932067
000030 3d d3 ae 3a 09 e5 ef 3a c2 d3 aa 3b 17 4e e0 3a
       0.00133381 0.0018302511 0.005213232 0.0017113116

conv2.0.weight f4 [32, 16, 3, 3]
000000 06 4e ca 3b 33 4a d4 bc 30 98 84 bc 41 13 43 3c
       0.006173852 -0.025914287 -0.01618585 0.011906446
000010 d1 3b 8c 3d c6 e0 9d 3c d2 34 92 3d 05 d7 4c bc
       0.068473466 0.01927222 0.07138981 -0.0125024365
000020 57 77 af bb 7b 9d 49 bd db cd b2 bd 3a 9e 4a bd
       -0.0053548026 -0.04922245 -0.0873067 -0.049467303
000030 25 7f e6 bc fc 6d 01 3d 13 73 18 bd 12 1a 11 bd
       -0.0281368 0.03159903 -0.03721912 -0.035425253
000040 39 ea 47 bd 6c 52 24 3d c4 10 e7 3d fd f2 8c bc
       -0.048807357 0.040117666 0.11282495 -0.01720571
000050 64 42 c2 bd ff 66 bb 3d c1 fd 87 3d 67 9c 83 bd
       -0.09485319 0.09150504 0.066401966 -0.06426316
000060 27 2d 36 bd 09 1f 3d bd dc de 78 bd e4 b6 c9 3d
       -0.044476654 -0.046172176 -0.06075941 0.09849337
000070 01 06 5c 3d 57 2c 6d bd 62 60 90 3a de 2c 87 3d
       0.053716663 -0.057903614 0.0011015052 0.066003546
000080 ae 57 ca bc 58 50 25 3d e2 04 81 3c 17 0a 31 3d
       -0.024700012 0.040359825 0.015749399 0.043222513
000090 1c c2 14 3d 56 6b 06 3d 5e 82 19 bd 65 c4 e5 bd
       0.03631793 0.032817207 -0.037477843 -0.112191
0000a0 95 d8 a7 bc 15 ae d3 b9 4e 50 70 bd 02 ca 6a bd
       -0.020489017 -0.00040374757 -0.058670335 -0.057321556
0000b0 b2 b5 d1 3b 3e 66 c7 3c a3 ac 9d 3d c0 4c bd 3d
       0.0063998336 0.024340745 0.076989435 0.092431545
0000c0 27 d0 1d bd 41 58 8b 3d fa e6 3b 3d 0a c0 c2 3d
       -0.038528588 0.068039425 0.045874573 0.09509285
0000d0 17 1c d5 3d ab 9a 96 3d 83 11 80 3d fa f2 d1 3c
       0.10405748 0.07353719 0.0625334 0.025628556
0000e0 e2 c1 b1 bc 92 cc 0b bd 82 e3 49 3d a5 62 ed 38
       -0.021698896 -0.03413064 0.049289234 0.000113194146
0000f0 b4 94 28 3d 8a 8d 13 3d 44 ec a0 3d c1 65 75 3d
       0.04115744 0.036023654 0.07857564 0.059911493
000100 b2 3b 92 bd 0f a9 40 bd 38 42 84 3d 1f 29 63 3d
       -0.07140292 -0.047036227 0.06457943 0.055459138
000110 f9 cf 63 bd df 00 11 3d 44 ae a2 bd 9d a4 7b bd
       -0.05561826 0.03540122 -0.07943395 -0.061436284
000120 05 3b 57 bd 12 78 2d be 63 8e b2 bd 1f 13 25 be
       -0.05254652 -0.16940334 -0.08718564 -0.16120575
000130 7a 3e 4e be 02 06 20 be 78 71 0a be b5 5c b9 bd
       -0.2014102 -0.15627292 -0.13519847 -0.090508856
000140 30 5c 3b be c2 6f 06 be 25 bb 4e bd 42 c5 88 3d
       -0.18296885 -0.1312857 -0.050471444 0.06678249
000150 99 97 91 bd e5 13 0d 3c 15 b2 8c 3d 41 5a e4 bd
       -0.07108993 0.0086107 0.06869904 -0.11150027
000160 21 0b d4 bd 19 8d a0 3d b6 0a ca 3d e3 15 c0 bb
       -0.10353685 0.07839412 0.09865324 -0.005861984
000170 c9 cc 39 bc 38 25 13 bd 09 a2 14 3d 37 76 ca bc
       -0.0113403285 -0.035924166 0.03628734 -0.024714572
000180 52 b8 d8 3d 32 8b 61 3d b6 e0 fa 3c 60 ed 34 3c
       0.10582031 0.055064388 0.030624729 0.011042923
000190 19 f2 63 bc 9b da 03 3d 6a e6 c7 bd f2 de e6 bd
       -0.013912701 0.0321909 -0.09760745 -0.11272992
0001a0 2f ad 14 be a7 d8 3e bd 61 a5 13 3d 23 48 9e 3c
       -0.1451919 -0.046593335 0.03604639 0.019321507
0001b0 d0 56 7e 3d 6d d5 8c bc 91 c8 37 3d f6 2c 24 3d
       0.06209451 -0.017191613 0.04486901 0.04008194
0001c0 d2 a3 36 bc 39 4f d5 3b d4 5b 46 bd 03 4d 6f 3a
       -0.011147456 0.006509688 -0.048427418 0.0009128602
0001d0 a7 89 8b bd 99 b7 73 3d f3 d9 97 bd 43 8e 09 be
       -0.068133645 0.059501264 -0.074146174 -0.13433175
0001e0 ce ff 28 bd b7 6f 93 bd 2f 94 e4 bc cd 13 20 be
       -0.04125958 -0.07199042 -0.02790269 -0.15632553
0001f0 be ab 7e bd 11 d6 40 3d 80 99 a9 3c 4a 34 46 bd
       -0.062175505 0.04707915 0.020703077 -0.04838971
000200 4b 4c 87 bc d9 65 20 bd c1 2a 6d bd 62 82 51 bd
       -0.016515872 -0.03915963 -0.0579021 -0.051149733
000210 9e 7e 23 bd 5b 52 02 3d ab 37 16 3d 8f dc 2f bd
       -0.039915673 0.03181682 0.036674183 -0.04293495
000220 84 e8 91 3a 69 49 95 3c 27 87 26 3c f6 01 8c bd
       0.0011131917 0.018223481 0.010164059 -0.068363115
000230 5b ec 46 bd 78 77 6f 3d c6 59 82 3d 2b 0f 55 ba
       -0.04856525 0.058463544 0.06364779 -0.00081275654
000240 6d 08 c6 3c 59 eb b6 bc 26 3e 15 3d 69 a7 a6 3d
       0.02417394 -0.02232902 0.036436222 0.081374
000250 c8 31 6c 3c 3e d0 44 bd 74 88 a6 3c 18 77 49 3d
       0.014416166 -0.048050158 0.020328738 0.049185842
000260 22 98 99 3d 66 d4 c7 bc c9 09 43 3c dd ca 5d bd
       0.0749972 -0.024393272 0.011904188 -0.054148544
000270 92 fd 88 bd 91 ab 81 3c 02 70 01 be 3b af fb 3c
       -0.0668899 0.01582888 -0.12640384 0.030723205
000280 3d 88 6d bc f1 b9 fd bc 4c 18 d7 3c 38 fb c8 3d
       -0.014497814 -0.030972453 0.026256703 0.09813541
000290 cb 46 b0 3d 71 ac e9 3d 05 af 4c bd 9c 13 2b 3d
       0.08607253 0.11409844 -0.0499716 0.041766748
0002a0 0a d8 e0 3d d0 a4 e4 3a 4a 04 bc 3d b5 32 b1 3d
       0.10978706 0.0017444137 0.091805056 0.0865225
0002b0 38 1d 6b 3c 70 50 58 bc 6f 81 5c 3c 3f 92 59 bc
       0.014350228 -0.013202772 0.013458594 -0.013279497
0002c0 a9 f8 98 3d a5 d5 7f 3d d2 7f 87 bc 2f a7 bc 3d
       0.07469303 0.062459607 -0.016540442 0.09211575
0002d0 04 cd 86 3d f7 aa 74 3d f7 90 ff bc 42 20 a6 3d
       0.065820724 0.059733357 -0.031197054 0.081116214
0002e0 85 ed 80 3d b1 8b 4d 3d bb f0 bd 3d c6 02 32 3b
       0.06295303 0.05018205 0.09274431 0.0027162298
0002f0 1c 15 8e 3d 34 ef 54 3c 40 b4 92 bd 93 27 a1 3b
       0.0693762 0.012996484 -0.07163286 0.0049180477
000300 07 dd 80 bd 72 30 15 be c8 6f c4 bd e9 31 be 3c
       -0.062921576 -0.14569262 -0.09591633 0.023217158
000310 1d 3b 55 bd 6a 59 a8 bd 27 42 9f bc 54 f2 a7 bc
       -0.052058328 -0.082201794 -0.019440724 -0.020501293
000320 d7 f3 9a 3d 22 cf f6 3d 58 10 30 3d 05 0a 9b 3d
       0.0756604 0.12051226 0.042984337 0.075702704
000330 14 b0 2e 3d b5 8a 5d bd bc fa a3 3d d1 44 35 bd
       0.04264839 -0.05408736 0.08006808 -0.04425508
000340 3c 76 96 3d c4 66 4d 3d 9b 67 22 bd b7 e4 82 bd
       0.0734677 0.050146833 -0.039649587 -0.0639128
000350 b8 f5 7a bd 38 ef 3b 3c 41 cb c2 bd d9 7e 29 bb
       -0.061269492 0.011470608 -0.09511424 -0.002586296
000360 12 16 23 3b be 1b 45 bd 64 c5 85 3d 18 13 db bd
       0.002488498 -0.04812216 0.0653179 -0.10697001
000370 b7 d1 b5 3b 76 15 e0 bc 71 b8 18 bd cf b8 bb bd
       0.0055486816 -0.027353983 -0.037285272 -0.09166109
000380 fd 47 61 bd 2d 2f 00 3d 20 37 ae bd 75 8e 7d bd
       -0.055000294 0.03129499 -0.08506608 -0.061903436
000390 d7 9e 3a 3d fd 5d 16 b9 59 7f a7 bd a7 9f b5 3d
       0.045561638 -0.00014340128 -0.081785865 0.08868342
0003a0 cc 78 a2 bc f4 23 a6 bc 94 a4 2c 3d 7b 05 d3 bc
       -0.019832991 -0.020280816 0.04214914 -0.02575945
0003b0 c6 8d c9 3d 38 93 ea 3d bd c7 f2 3d f3 a7 d0 38
       0.09841494 0.11453861 0.11854503 9.949496e-05
0003c0 e8 ae a3 3c e1 a5 05 3e 1e 21 8b 3d ee e0 f6 3c
       0.019980863 0.13051559 0.06793426 0.030136552
0003d0 b2 6d be 3c 87 d7 b3 3d 10 a4 59 bd ff 18 35 bd
       0.023245666 0.08781343 -0.053134978 -0.04421329
0003e0 15 90 80 bc 81 38 18 3d a5 75 50 bc 63 50 2b 3d
       -0.015693704 0.03716326 -0.012723361 0.04182471
0003f0 c6 d3 a9 3d 59 54 81 3d 51 97 89 3d d1 c3 8c 3d
       0.08292346 0.06314916 0.067183144 0.068732865

conv2.0.bias f4 [32]
000000 18 03 bf bd 4e a0 95 bd 3b 8f e8 bd e3 92 8a 3d
       -0.09326762 -0.07305966 -0.11355444 0.06766298
000010 5f 08 07 be a0 ff df bd 9d 50 b6 3d 89 91 10 3d
       -0.13186787 -0.109374285 0.089020945 0.035295043
000020 ac a9 0e be 29 e6 b5 3b e9 b3 94 bc 59 f4 52 be
       -0.13931912 0.005551119 -0.018152194 -0.20601024
000030 c4 b4 13 bd 8e 1a c3 bd 48 a1 75 be 0f 7d 49 bc
       -0.036061063 -0.09526549 -0.23987305 -0.012297883
000040 d8 1a 0c be 5a c6 99 bd 7d 4a a0 bd f1 41 e6 3d
       -0.13682115 -0.07508536 -0.078267075 0.11243046
000050 04 22 9f 3c 8e 25 f1 bd 16 42 b1 bd d9 40 cc bd
       0.0194254 -0.11774741 -0.08655183 -0.09973306
000060 c3 5e 15 3d 53 bb 43 be f3 3d 00 be 32 f2 59 bc
       0.036467325 -0.19114427 -0.12523632 -0.013302373
000070 69 d7 cc bd b4 87 4d be 32 19 01 be d4 20 12 be
       -0.10002024 -0.20071298 -0.12607267 -0.14270335

conv2.3.weight f4 [32]
000000 2b c1 81 3f a5 98 6d 3f f0 31 7f 3f 90 63 62 3f
       1.0137075 0.9281104 0.99685574 0.8843317
000010 88 23 79 3f 77 d4 77 3f b3 77 74 3f a9 9d 7d 3f
       0.9731984 0.9680857 0.95495147 0.99068695
000020 76 20 77 3f 3e 7e 81 3f dc 10 80 3f d2 d8 84 3f
       0.96533906 1.0116651 1.0005145 1.0378668
000030 a6 74 80 3f f1 98 7b 3f e8 7d 85 3f 4a d8 80 3f
       1.0035598 0.98280245 1.0429049 1.0066006
000040 25 d1 49 3f 59 05 7e 3f 2c ed 7d 3f be d3 69 3f
       0.78834754 0.9922691 0.9919002 0.9133872
000050 b2 a4 6c 3f 8d 8b 69 3f 1e 27 80 3f b1 03 83 3f
       0.92438805 0.9122856 1.0011938 1.0235502
000060 ca 55 79 3f 1c 94 84 3f 42 88 80 3f ff 36 5f 3f
       0.9739653 1.0357699 1.0041583 0.8719329
000070 17 20 80 3f 64 1b 83 3f d3 b7 6b 3f 8d 5b 6f 3f
       1.0009793 1.0242734 0.9207737 0.9349907

conv2.3.bias f4 [32]
000000 a8 e4 a6 3d 52 c2 b6 3e 0d de a0 3d 1f b4 33 be
       0.081490815 0.3569513 0.07854853 -0.1754918
000010 6e 82 28 3e b0 16 1d be 90 89 02 3f 63 ce 80 3d
       0.16456005 -0.15340686 0.50991154 0.06289365
000020 a1 f6 ce bd 37 00 3c 3e a9 3a ce bd 61 29 15 3f
       -0.101056345 0.18359457 -0.10069782 0.58266264
000030 8a 76 30 be ca 93 6b 3e 7b da a5 3e a0 70 18 be
       -0.17232719 0.23005596 0.3239325 -0.14886713
000040 9a 05 3f 3e 17 97 08 be a2 71 02 b9 56 14 4d bd
       0.1865448 -0.13338886 -0.00012440098 -0.050068222
000050 f0 5d 8c 3e 50 72 5f 3e c1 e4 a4 3e 50 af 68 3e
       0.2741542 0.2182095 0.32205775 0.22723126
000060 72 14 b8 3e d3 00 a3 3e 2f 2b 91 bd f0 2c 0e be
       0.359531 0.31836566 -0.07088315 -0.1388433
000070 d1 e8 cf 3e 47 64 5c 3e b8 1f 92 3e 1f 09 eb 3e
       0.40607312 0.21522628 0.28539824 0.45905396

conv2.3.running_mean f4 [32]
000000 27 30 bd 3d 38 d1 41 3f 2a 1c 81 3e d6 db 71 3f
       0.092377 0.7570987 0.252168 0.9447607
000010 45 fc 9f 3e c8 eb 0b 3e fb 12 04 3f b1 1e 02 3f
       0.31247154 0.13664162 0.5159146 0.5082808
000020 95 c5 90 3e 98 47 0f 3f 2f 37 b6 3d 32 a5 af 3d
       0.28275743 0.5596862 0.08897244 0.085764304
000030 3a bf 16 3f 24 aa 07 3f 16 4a 94 3d 67 67 8e 3e
       0.5888554 0.5299399 0.07240693 0.27813265
000040 7b 05 2c 3f c4 0e b7 3e 30 63 8e 3e e2 d8 1c 3f
       0.6719586 0.35753453 0.2781005 0.61268437
000050 94 40 10 3f 34 0b 02 3f d2 aa e9 3e cb 80 50 3e
       0.5634854 0.50798345 0.45638138 0.2036163
000060 33 28 2d 3f 9b 51 1e 3e 97 e6 8f 3e 1e 63 5a 3e
       0.67639464 0.15460818 0.28105614 0.21326873
000070 34 2c 6d 3e 37 5d be 3e b3 5a d1 3e 91 b3 76 3e
       0.23161393 0.37180492 0.4088951 0.24091937

conv2.3.running_var f4 [32]
000000 fe 17 42 3d 99 e7 d7 3f f4 f5 22 3e 92 64 9b 3f
       0.047386162 1.6867553 0.15914136 1.2140067
000010 45 d1 af 3e fa 8b 49 3d c5 f0 81 3e de f0 22 3f
       0.34339347 0.049205758 0.25379005 0.63648784
000020 e2 ca c0 3e c5 88 b5 3e de f8 86 3d d3 6b 91 3d
       0.37654787 0.3545591 0.065904364 0.07100644
000030 e6 06 bb 3e 08 6d 8e 3f 2b ad ae 3d 23 97 1f 3e
       0.365287 1.1127024 0.08529123 0.15584998
000040 4f 88 9f 3f 90 88 e6 3e 26 76 a7 3e b5 eb bb 3e
       1.2463473 0.45026064 0.32707328 0.36703268
000050 f6 35 d6 3e d6 2d 81 3f 78 7c 26 3f 20 3c 0a 3e
       0.41838044 1.0092113 0.65033674 0.13499498
000060 6a 7b 2e 3f 24 f6 1b 3e 4b db 3b 3e f8 d0 70 3d
       0.68157065 0.15230614 0.18345372 0.058793038
000070 fb 45 c5 3e 9d 22 24 3f dc fb 95 3e 7f a5 2d 3e
       0.38529953 0.64115316 0.29293716 0.16957663

conv3.0.weight f4 [64, 32, 3, 3]
000000 e1 94 41 bd ba c9 4f bd e4 07 82 bd e5 61 58 bd
       -0.047261123 -0.05072949 -0.06349161 -0.052827735
000010 43 56 89 bd 22 58 8b bd 63 bb a0 bd ea 27 37 bd
       -0.06705906 -0.068039194 -0.07848241 -0.0447158
000020 31 5e 01 be a7 f7 3a bd 21 da 26 3d 58 8c 11 3b
       -0.12633587 -0.045646336 0.040735368 0.0022208896
000030 49 e6 c3 bb 85 74 1b bd 4f a5 f7 bb ed de ba 3b
       -0.00597838 -0.03795292 -0.007557548 0.0057028444
000040 fb fb 0c bb 48 9e 84 3d dc 84 9e bc 6b fb 16 bd
       -0.0021512497 0.06475502 -0.019350462 -0.036860865
000050 80 8a cc bd 55 9b 70 3c e6 52 c7 bc 8b 48 01 bd
       -0.09987354 0.014685472 -0.024331521 -0.031563323
000060 49 fe aa bd 61 d6 ad bc c4 ca 5e bd e7 d8 27 3d
       -0.08349282 -0.021220388 -0.05439259 0.04097834
000070 8c 51 af bc fc bc a9 3d 46 07 be 3b 3b 87 90 bc
       -0.02140119 0.08287999 0.005799207 -0.017642608
000080 12 7a bf 3c 83 72 d1 bb bc 86 6c 3c 8f 64 15 bc
       0.023373637 -0.0063918247 0.01443642 -0.009118213
000090 cf 8c 88 bd 2a 2a 8c bd cc 31 7a bc 9e 19 1f bc
       -0.06667482 -0.0684398 -0.015270662 -0.009710697
0000a0 e3 60 82 bd fa 14 02 bd 91 e9 c2 bc 3d 4f 3d bc
       -0.06366136 -0.031758286 -0.023793014 -0.011554536
0000b0 0b 79 72 bc 97 2e cc 3b 72 88 0a bb 49 cc 33 bc
       -0.014799367 0.00623114 -0.0021138457 -0.010973998
0000c0 5c 05 14 3d 1c 49 b3 3c a7 9a 4d ba ec 85 b0 3c
       0.036137924 0.021885447 -0.00078431744 0.021548234
0000d0 7c 61 03 3d 31 7c ba 3b ab 19 34 bd a1 03 09 be
       0.03207539 0.0056910743 -0.04396979 -0.1338029
0000e0 90 c0 95 bd d8 18 0b bd e7 f4 ff bd 69 51 d0 bd
       -0.07312119 -0.03395924 -0.12497883 -0.10171778
0000f0 69 a1 d3 bd 99 be 9c bd 09 9e e5 bd 65 b4 c9 bc
       -0.10333521 -0.07653541 -0.112117834 -0.024622152
000100 ce 9d 9c bc dc b6 c3 bc f8 09 75 bc 43 08 2b 3d
       -0.019118216 -0.023890905 -0.01495599 0.041755926
000110 5d 81 b9 bc 8e 1a c0 3b 43 4c 88 3d c4 5a 3b 3d
       -0.022644693 0.0058625406 0.06655171 0.045740858
000120 a8 c5 30 3d aa 26 f8 3d 1a 07 df 3d b0 c1 cc 3d
       0.04315725 0.121167496 0.108900264 0.099978805
000130 d4 ee b2 3d 6d 71 9a 3d 99 60 2c bc f8 37 c8 3d
       0.08736959 0.075411655 -0.010521078 0.097763
000140 c1 0e a7 3d 52 0d a8 3c 11 98 51 3b c2 41 2d 3c
       0.08157111 0.020514164 0.0031981508 0.01057476
000150 0a 15 09 bc 23 ee 3c 3d f3 5e 33 3c bc 74 80 3c
       -0.0083668325 0.046125542 0.010947931 0.015680663
000160 fa 72 a1 3c 41 35 1a 3d e3 1a 24 bd c5 a7 1f bd
       0.019708145 0.037648443 -0.040064704 -0.038978357
000170 41 7a 83 3a f6 5e 95 bc a2 e8 1a bd 84 be 3c bb
       0.0010030941 -0.018233757 -0.037819512 -0.002880008
000180 2f 99 6d bd 63 cb e2 bc e6 22 25 bd ce 60 20 bd
       -0.058007415 -0.027684873 -0.040316485 -0.03915482
000190 c7 27 c6 bd 10 69 8f bd df 0c 42 bd a9 de fb bd
       -0.09675556 -0.07002461 -0.047375556 -0.122983284
0001a0 e3 4f c9 bd 67 c8 76 bd 14 0a f3 bd 4a b5 db bd
       -0.0982969 -0.060249712 -0.118671566 -0.107279375
0001b0 57 3c c0 bc a9 77 76 3c 53 8c 65 3c c0 8c 4c bd
       -0.023466272 0.015043178 0.014010507 -0.049938917
0001c0 b0 e7 2f 3c 60 e4 e6 bc d2 64 4f bd 2e 82 39 bc
       0.010736391 -0.02818507 -0.05063326 -0.011322541
0001d0 d2 81 0d bd 51 91 ce bd 8d 1f 82 bd 1b b5 99 bd
       -0.034547634 -0.10086311 -0.06353674 -0.07505246
0001e0 9a b4 c1 bd 32 cf 4b bd 1d ca c3 bc f2 02 b6 bd
       -0.09458275 -0.049758144 -0.023900086 -0.088872805
0001f0 a5 7d 86 3c cd 9b 94 bc 95 73 45 3d fc 55 96 3d
       0.016417334 -0.018140698 0.04820593 0.07340619
000200 4c 0e 5d 3d 58 0f ff 3c 35 ea 13 3d 29 36 61 3d
       0.053968713 0.031135246 0.03611203 0.05498329
000210 d6 9b 63 3d 1e 78 9c 3d df 83 d4 3c bd 36 33 bd
       0.05556854 0.07640098 0.025941787 -0.043753374
000220 cb b8 63 bd d6 32 fd bc 28 58 14 bd fa 53 33 bd
       -0.055596154 -0.03090803 -0.036216885 -0.04378126
000230 57 f7 92 bd 71 f7 93 bd 49 05 19 bd d8 c4 be bd
       -0.071760826 -0.0722493 -0.037358556 -0.09314889
000240 f5 78 77 3d 28 7e 98 bb c2 37 cd bc 09 fa d1 bc
       0.060418088 -0.004653711 -0.025051001 -0.025631921
000250 87 4f bf 3c c6 73 83 3c 3d f9 da bc 4d b0 47 3d
       0.023353351 0.016046416 -0.026730174 0.048752118
000260 0c 1e 3f 3d 9b ec 81 3d e5 7e 9e 3d 1d 0f bd 3d
       0.046659514 0.06343957 0.07739047 0.09231398
000270 77 db 6a 3d b2 0e bb 3d 6e b0 0f 3c c7 2f 9d 3d
       0.057338204 0.09133662 0.008770091 0.076751284
000280 09 6e cb 3d 51 ca b2 3d 4f 4e 41 3b 26 6f 46 3d
       0.09933097 0.08729995 0.0029496138 0.048445843
000290 fb 24 b6 bc e3 71 24 3d 3e 69 16 3d 73 bb 12 bd
       -0.02223443 0.040147673 0.03672146 -0.035823297
0002a0 50 60 00 3b 54 b6 84 3c 82 6d 86 3c 5f f2 8b bd
       0.0019588657 0.016200222 0.01640964 -0.06833338
0002b0 a7 d1 d9 bc 5f b4 02 3d 2b 6d 2b bd 97 d3 14 bc
       -0.026589228 0.031910297 -0.041852158 -0.00908365
0002c0 d8 24 18 bc 2e 0d e1 3b f6 97 22 3d 05 fc 9d bb
       -0.009286128 0.006868026 0.039695702 -0.004821303
0002d0 87 af 8a 3c 2e 86 05 bc b9 d9 fe bc b5 56 9e bc
       0.016929401 -0.008149667 -0.031109678 -0.019328455
0002e0 d2 15 67 bb 1a 48 1c bd d1 a3 6e bc 4c 95 d4 3c
       -0.0035260809 -0.0381547 -0.014565424 0.025950097
0002f0 1f 9e 83 3c 3d 3f 2e bd fb b1 65 bd b1 93 aa 3b
       0.016066609 -0.042540777 -0.05607794 0.0052055945
000300 41 ff 02 bc fd 23 6b bc 81 4f 93 bd bb 3b 09 bb
       -0.007995428 -0.014351842 -0.071928985 -0.0020940143
000310 8d 49 9e bb 94 23 93 bd 60 ce d6 3c 0b 61 ea 3b
       -0.0048305453 -0.0718452 0.026221454 0.0071526817
000320 3c 62 79 3d fe 1c d6 ba 2a dc b6 3d 53 59 83 3d
       0.0608847 -0.0016335545 0.08928712 0.064135216
000330 a5 50 78 39 03 6e 3a bb a0 4d ab 3c 1b a1 43 bd
       0.00023681165 -0.002844692 0.020911038 -0.047761064
000340 30 13 a0 bd 6e 4f f0 bd bc af 96 bd 61 fa 80 bd
       -0.0781616 -0.117339 -0.073577374 -0.06297756
000350 cb ec 5b bd d6 29 9b bd ea 2a a6 bd 6f 3e f5 bd
       -0.05369262 -0.07576339 -0.08113654 -0.11974799
000360 c6 32 37 bd 28 f7 32 bd 0a 8a b2 bd e9 2f ae 3c
       -0.044726156 -0.043692738 -0.08717735 0.02126308
000370 01 a8 13 bc 27 15 86 bd 69 52 bf bc e3 55 55 bd
       -0.009012223 -0.06547003 -0.023354726 -0.05208386
000380 59 89 68 bd 4a 19 59 3d 0e cd a4 3d 7c a0 10 39
       -0.05677161 0.053002633 0.080469236 0.00013792695
000390 14 1b e8 3c 50 e6 52 3d 2e 6c 0b 3d fd f0 ce 3a
       0.028333224 0.051489174 0.034038715 0.0015788373
0003a0 7b 22 ab 3d aa 9c 46 bc 76 54 0d bd da c9 68 bc
       0.08356186 -0.012122313 -0.034504376 -0.014208281
0003b0 c4 7f 03 bd 90 09 b9 bc 7d f5 b1 3b d3 bf 9e ba
       -0.03210427 -0.022587568 0.005430876 -0.0012111611
0003c0 d5 e4 55 bd aa 78 2a bd f7 e0 66 bc dd de 5e bc
       -0.052220184 -0.04161898 -0.014091722 -0.013602939
0003d0 b4 b9 17 bd 81 1f 3c bd 1a 14 0b 3c eb 1d 3e bd
       -0.037042335 -0.045928482 0.008488679 -0.04641525
0003e0 e9 d1 4b bd a2 3c 18 bd e9 27 fe bb 04 bf ef 3c
       -0.049760733 -0.0371672 -0.0077562225 0.029265888
0003f0 94 44 ff bc 6d 6b cb bd 42 2c 05 be 4d 74 88 bd
       -0.03116063 -0.09932599 -0.13005164 -0.066628076

conv3.0.bias f4 [64]
000000 5c a6 4a be c2 25 83 bd c9 1c b8 bd a5 aa 22 be
       -0.19790024 -0.06403686 -0.08989865 -0.15885408
000010 30 2a 29 bd 0c e5 83 bc dc a4 c0 bd 68 c2 28 be
       -0.0413 -0.016100429 -0.094064444 -0.1648041
000020 bb f1 b8 bd 60 af 9a bd 98 15 e0 3c 6d 11 0b be
       -0.090304814 -0.075529814 0.027354047 -0.13580866
000030 d4 9c bf bd 25 53 46 bd 3c b7 44 be f2 e8 b6 bc
       -0.093560845 -0.048419137 -0.19210523 -0.022327874
000040 db ec 17 be fd 2c 03 be 26 ab 6f bd 41 20 11 be
       -0.14836447 -0.1281013 -0.05851283 -0.1417246
000050 c8 b2 27 be a0 07 e8 bd 15 f8 a5 bd 2e 99 af bd
       -0.16376793 -0.11329579 -0.081039585 -0.085741386
000060 6a 89 c4 bd c4 28 d4 bd ba 65 7c be ea ce d7 bd
       -0.09596522 -0.10359338 -0.2464818 -0.105375126
000070 b1 69 71 be 6a 9f a0 bd 78 64 59 be 61 dd da bd
       -0.23575474 -0.07842906 -0.21229732 -0.10686756
000080 6a 18 e1 bd 25 42 3e be ad 1d 15 be e6 e2 39 be
       -0.10990985 -0.1857992 -0.14562102 -0.18152961
000090 57 db 1c bd 52 25 a9 bd 06 28 10 be 2d 46 eb bd
       -0.038295116 -0.082590714 -0.14077768 -0.11487994
0000a0 1f 3a 08 be fc 06 c0 bc 73 a8 1f be 0a 0e 55 bd
       -0.13303421 -0.02344083 -0.15591602 -0.05201534
0000b0 22 f6 ae bd 65 74 ab bd 82 25 56 bd 00 1c 40 bd
       -0.0854304 -0.0837181 -0.052281864 -0.046901703
0000c0 78 c6 2b bc d7 37 f1 bd 58 cd 0e be 8d 63 e8 bd
       -0.01048433 -0.11778229 -0.1394552 -0.11347113
0000d0 41 f8 31 be 39 cb 2a bd 0e b7 4e bd 2e 18 19 be
       -0.17379858 -0.041697714 -0.050467543 -0.1495063
0000e0 50 ce 56 bd 42 22 89 bd 98 a0 a4 bd 76 2c 68 bc
       -0.05244285 -0.06695987 -0.08038443 -0.014170757
0000f0 78 f3 d7 3c 16 93 48 bd 77 5f 38 be 3e 75 d9 bd
       0.026361212 -0.048968397 -0.18005167 -0.10618065

conv3.4.weight f4 [64]
000000 b2 e8 91 3f df 6a 8f 3f 9e e1 9c 3f 24 3b a2 3f
       1.1399138 1.120449 1.2256353 1.2674298
000010 8a 5b 9b 3f 41 1c 9d 3f 7c d0 9f 3f 94 ad 8d 3f
       1.213731 1.2274247 1.2485499 1.1068597
000020 33 91 80 3f 45 22 a1 3f 03 c9 9a 3f 6d 4c 83 3f
       1.0044311 1.2588583 1.2092594 1.0257698
000030 0e c0 99 3f 5e 72 8c 3f e9 d1 8a 3f 50 e2 99 3f
       1.2011735 1.0972402 1.084531 1.202219
000040 ea 17 89 3f ff 9e 92 3f ec bb 9f 3f f1 5e 9c 3f
       1.0710423 1.1454772 1.2479224 1.2216474
000050 22 31 8e 3f 9d ed a0 3f 6c c5 9f 3f 51 c3 9f 3f
       1.1108744 1.2572514 1.2482123 1.2481481
000060 91 9b 89 3f 76 d4 8c 3f 6a 17 8d 3f f9 17 a4 3f
       1.07506 1.1002338 1.102277 1.2819816
000070 0e cc 8b 3f 0a f2 a1 3f 0a 7e 8d 3f 25 04 82 3f
       1.0921648 1.265199 1.1054089 1.0157515
000080 1c bd 94 3f 24 90 93 3f 3d 86 86 3f 56 5b 8c 3f
       1.1620212 1.1528363 1.0509716 1.0965374
000090 39 99 71 3f 39 11 a1 3f 04 ff a0 3f 34 26 9d 3f
       0.94374424 1.2583381 1.2577825 1.2277284
0000a0 43 53 8c 3f c0 ab 7e 3f 60 88 8e 3f 0a 5a 9f 3f
       1.096291 0.9948082 1.1135368 1.2449353
0000b0 82 92 8d 3f b2 38 9f 3f ae 97 9b 3f 58 0f 79 3f
       1.1060336 1.2439177 1.2155664 0.9728904
0000c0 54 0e 9c 3f da 8f a2 3f db ae 8d 3f ca 39 9d 3f
       1.2191873 1.270015 1.1068987 1.2283261
0000d0 b8 96 85 3f 54 b1 95 3f ce 89 a5 3f 23 d4 8e 3f
       1.0436621 1.1694741 1.293268 1.1158489
0000e0 1c e3 87 3f 03 d7 a1 3f 58 61 9a 3f fc 2f 73 3f
       1.0616183 1.2643741 1.2060957 0.94995093
0000f0 5b 56 9e 3f 9f a1 a0 3f f9 51 87 3f 8a 51 9c 3f
       1.2370104 1.2549323 1.0571891 1.2212384

conv3.4.bias f4 [64]
000000 01 16 35 bc 80 ef 07 bb 9a 48 1a 3c ec 04 a6 ba
       -0.011052609 -0.0020742118 0.009416724 -0.0012666262
000010 36 1b ea 3b 18 4e 19 3c f1 25 b5 3b 29 c7 ff bb
       0.007144357 0.009356998 0.0055282046 -0.007805724
000020 e1 eb a1 bc e4 46 81 3c b2 5d 27 3c f7 56 89 bc
       -0.019765796 0.015780874 0.01021521 -0.0167651
000030 ae a6 7e bc 25 f3 5c bc df e2 8f 3b bd dd 5e ba
       -0.015542669 -0.013485705 0.004391059 -0.00085016695
000040 78 c9 af 3b 88 43 4e 39 9d 39 84 3c fa 1f 47 bc
       0.005364593 0.00019670848 0.016140753 -0.01215362
000050 35 93 22 bc 13 5f 32 3b 3d 5a c9 3c 6f c6 e3 bb
       -0.009922792 0.0027217313 0.024579162 -0.0069511454
000060 38 76 2f bd 55 6e 52 bc c5 48 a9 bc 77 68 52 bc
       -0.04283735 -0.012843688 -0.020664582 -0.012842289
000070 8f 64 ed bc 47 ca a7 3a 43 fd 0c bc 19 16 87 bc
       -0.028978614 0.0012801372 -0.008605304 -0.01649003
000080 aa d7 e1 3c 1e f7 ce bb 73 43 5f bc 9d eb 02 3c
       0.027568657 -0.0063160798 -0.013626921 0.007990745
000090 59 f8 97 b9 ab 69 07 3c f9 69 08 bb ef 6b 5f bb
       -0.00028985998 0.008264939 -0.0020815118 -0.0034091433
0000a0 ee 00 69 bc f8 16 15 3c 23 af 6a 3c 22 39 05 3c
       -0.014221413 0.009099714 0.014323982 0.008131297
0000b0 75 05 5c 3c 16 a5 49 bb bf 81 bc 3b 2e 54 37 3c
       0.013429035 -0.0030768565 0.0057527716 0.011189504
0000c0 91 ff 50 bc 78 17 2a 3c 0c 56 17 ba 45 2c 9e 3c
       -0.012756244 0.010381572 -0.0005773015 0.019308219
0000d0 1c 77 57 bc a6 49 7a 3b dc df 8f 3b 8e b2 74 bc
       -0.0131509565 0.003819087 0.0043907 -0.014935149
0000e0 e3 3a 74 3c c3 47 9c 3c fe 1e 14 3c 9a 18 ac bb
       0.014906618 0.019077187 0.009040592 -0.005251956
0000f0 28 97 94 3c b7 ac 8e 3c 0e 0c 74 3c 47 30 ab 3c
       0.018138483 0.017416341 0.014895452 0.020897044

conv3.4.running_mean f4 [64]
000000 b1 bb f1 3d a4 70 20 3d 38 e1 b3 3d 52 24 3e 3d
       0.118033774 0.039169922 0.087831914 0.046421356
000010 e6 b1 ca 3d 7e 84 0a 3e 1f cb ed 3d c0 fa 1e 3d
       0.09897213 0.13527104 0.11611008 0.038813353
000020 bb 49 3e 3d df 55 e9 3d 5e 1e 16 3e 94 1a d6 3d
       0.046457034 0.11393332 0.14660022 0.10454288
000030 e4 37 4b 3d 6b a8 46 3d 98 92 72 3d 1a 7f 1f 3e
       0.04961385 0.04850046 0.059221834 0.15575829
000040 63 c9 f8 3d ff 25 8a 3d 94 4d 70 3d f3 4c 9e 3d
       0.121477865 0.067455284 0.058667734 0.07729521
000050 72 a6 be 3c 08 b1 bb 3d c3 01 20 3e 0c 3c 02 3e
       0.023272727 0.091646254 0.15625672 0.12718219
000060 75 17 12 3d e6 85 a0 3d ec 42 19 3d 17 68 30 3d
       0.0356669 0.07838039 0.037417337 0.043068018
000070 f3 24 85 3d 91 99 93 3d 88 77 b4 3c 54 58 22 3d
       0.06501188 0.07207025 0.022029653 0.039635018
000080 27 a9 90 3d 9d d1 d2 3d 30 c0 24 3e 5b da 27 3d
       0.07063513 0.10293887 0.16088939 0.040979724
000090 72 fd 30 3f 7d 1f 4e 3d a8 56 b7 3d bd e8 ac 3d
       0.69136727 0.050323 0.08952075 0.08442829
0000a0 aa 04 e2 3c 2a f6 45 3e ae 10 e3 3c 40 c1 28 3e
       0.027590115 0.19332185 0.027717914 0.16479969
0000b0 79 ff 29 3d 52 98 97 3d bb 1a 88 3d 12 a3 95 3e
       0.041503403 0.074021 0.066457234 0.29225975
0000c0 f0 9b 14 3e 89 1d 0e 3d a9 97 4d 3d 91 e2 b4 3d
       0.1451261 0.034696136 0.050193463 0.088322766
0000d0 ba ed ac 3c 95 76 5c 3e 0b 1c 90 3d a4 09 26 3d
       0.02110945 0.2152961 0.07036599 0.040536538
0000e0 72 db 91 3d 4b e3 5c 3d 7f 0c 8f 3d 28 a1 3d 3f
       0.07121934 0.0539277 0.06984805 0.7407403
0000f0 07 0e 23 3e e1 82 07 3e c4 d4 f1 3c a7 f9 f6 3d
       0.1592332 0.1323352 0.0295204 0.12059336

conv3.4.running_var f4 [64]
000000 ed f2 d1 3e 9d 29 b7 3d ac df cd 3e b0 3c fd 3d
       0.4100565 0.08943484 0.4020971 0.12365091
000010 23 09 96 3e 53 73 f6 3e fb 5c d1 3e 0c c7 ab 3d
       0.29303846 0.4813486 0.4089125 0.083875746
000020 57 25 44 3e 17 33 cb 3e f2 d7 fa 3e 43 69 51 3e
       0.19154869 0.39687416 0.48992878 0.2045031
000030 8d dc 30 3e b7 b8 9c 3d 01 fd dc 3d a9 c6 1b 3f
       0.17271633 0.07652419 0.10790444 0.60850006
000040 45 6e 72 3e d0 66 f6 3d 3d 04 24 3e bc 57 96 3e
       0.23674877 0.12031329 0.16017242 0.2936381
000050 89 6c 8c 3d 51 0a 99 3e 1e 0e 18 3f 81 b0 fa 3e
       0.06856639 0.29890683 0.5939654 0.48962787
000060 23 5d 70 3d e1 c0 2b 3e 33 5a 12 3e 38 ad 2a 3e
       0.058682572 0.16772796 0.14292221 0.1666764
000070 3b ea ff 3d 4f 88 94 3e af 26 06 3d 32 a3 7c 3d
       0.12495848 0.29010245 0.032751735 0.061679073
000080 55 7b 91 3e 5f 67 c9 3e 44 2e d8 3e 8e 1a ee 3d
       0.28414407 0.39336678 0.42222798 0.11626159
000090 0b 4c 4e 40 f1 f5 4a 3e 15 17 a5 3e 09 94 a1 3e
       3.2233913 0.19820382 0.32244173 0.31558254
0000a0 6a f4 84 3d 2a 2d c7 3e e5 3f 45 3d b6 38 31 3f
       0.06491931 0.38901645 0.048156638 0.6922716
0000b0 a0 4d 89 3d 8f 34 75 3e 5f ac 83 3e 8a 87 10 3f
       0.06704259 0.23945831 0.25717446 0.56456816
0000c0 97 e6 11 3f 68 6f d0 3d 42 1a 1c 3e dd 2b b5 3e
       0.5699248 0.10177499 0.15244392 0.35385028
0000d0 ef fe 7d 3d 9f b7 56 3f 80 8c 88 3e 7e dc 5e 3d
       0.0620107 0.83873934 0.26669693 0.054409496
0000e0 f0 de e0 3d e0 09 38 3e c4 e6 8a 3e 96 7d a9 40
       0.10980022 0.17972517 0.27129185 5.2965803
0000f0 c5 13 0d 3f 08 ed f4 3e 5a a0 83 3d 4b de db 3e
       0.5510829 0.4783709 0.06427069 0.42943034

fc.0.weight f4 [32, 64]
000000 c2 11 21 3e 8f 05 46 3e 51 cb ac bd 23 c1 27 be
       0.1572943 0.19338058 -0.08437217 -0.1638227
000010 d4 c6 92 be ea be 94 bd 01 7e 2a be 83 b5 0a 3d
       -0.2866732 -0.072629765 -0.16649629 0.03386451
000020 15 bf cc 3d 98 27 26 be 05 bb 5a be f5 ed 65 bd
       0.099973835 -0.16226041 -0.21360405 -0.056135137
000030 ac 93 48 be 1f 23 cf 3d 61 2a 09 3e 0c 22 7d be
       -0.19587582 0.10114121 0.13395073 -0.24720019
000040 b0 25 36 3d b3 4f d8 3d 12 77 8d be f8 ae 45 be
       0.044469535 0.105620764 -0.27629906 -0.19305027
000050 21 98 18 3c e4 90 f2 bd 62 a6 43 be 10 1e 93 be
       0.009313614 -0.11844042 -0.19106439 -0.28733873
000060 cc a9 14 3e fd 06 45 3c a0 76 c5 3c 52 74 64 be
       0.14517897 0.012025592 0.024104416 -0.22309998
000070 df 98 2e 3e 3f bf 1f be 1b f1 5f 3d 6d 47 16 3e
       0.17050503 -0.15600298 0.054673295 0.14675684
000080 76 de 2d bd b7 1e b5 3d 3c b2 c7 3d 20 7b 1e 3e
       -0.042448483 0.08843749 0.097507924 0.15476656
000090 12 4c c7 3d df 02 89 be 79 04 0f be cf ee 7a be
       0.09731306 -0.26760003 -0.1396655 -0.24505161
0000a0 14 5f fd 3d e8 43 6a 3d ad c3 8d 3d 85 8f 3f be
       0.1237165 0.057193667 0.06922088 -0.18707092
0000b0 ce 2c 22 3e a4 83 9a be 2f bb 4c be 34 38 be 3c
       0.15837404 -0.3017856 -0.1999328 0.02322016
0000c0 8b 14 ad bd 70 42 5f be ac ff 93 3d 8e 48 66 be
       -0.08451184 -0.21802688 0.072265 -0.22488615
0000d0 58 45 be 3d cb 12 82 be 9c ff 28 be fe 4c 06 3e
       0.0929057 -0.25404963 -0.16503757 0.13115308
0000e0 3b a8 9a 3d fb 2b eb bd 39 27 87 be 03 81 83 3c
       0.07551619 -0.11482998 -0.26397112 0.016052729
0000f0 b5 db 1c be 21 99 10 be f7 81 1b 3d 7f 70 58 be
       -0.15318187 -0.14120914 0.03796574 -0.21136664
000100 8a 96 c8 3c bf 88 6a 3d 07 1b 13 be 0b 7e 72 be
       0.024485845 0.057259317 -0.14365779 -0.23680894
000110 6d f8 eb bd ef 64 b6 bd cc a9 61 be 63 86 fd 3d
       -0.11521993 -0.0890597 -0.22037429 0.12379148
000120 46 bd 53 bd 22 a9 7c be 3f 5a 43 bd 1f a7 5f bc
       -0.051694177 -0.24673894 -0.047693487 -0.013650685
000130 a6 31 10 be 32 5d f5 3d 3f aa 35 3e aa 0e 29 be
       -0.1408144 0.11980666 0.17740725 -0.165095
000140 6b db 13 3e b7 25 e5 3d 42 49 31 be d9 96 4e bd
       0.1443917 0.11188834 -0.17313102 -0.05043683
000150 cd 77 b3 3c 31 2c 81 be 7b d3 7a be c8 da 6e be
       0.021907711 -0.25229028 -0.24494736 -0.23325646
000160 c2 19 17 3d ae 76 22 3e ec eb 9f 3d 4e c3 74 be
       0.0368898 0.15865585 0.078086704 -0.23902628
000170 e6 60 1d 3e e8 32 7e be 61 a9 94 3d aa ee 2a bd
       0.15368995 -0.24824107 0.07258869 -0.041731514
000180 b6 d2 f8 bd 5e 66 5f 3e 71 e1 1a 3e 4f 11 2c 3e
       -0.12149565 0.21816394 0.15125062 0.16803478
000190 f7 24 46 3d c2 2d 06 be 7a ed 61 be af f2 80 be
       0.048375096 -0.13103393 -0.22063246 -0.25185153
0001a0 6b ac c0 bb b4 8d 5c 3d 32 ea 18 3e 62 6d 8f bd
       -0.005879929 0.053846076 0.14933088 -0.07003285
0001b0 22 2c 0f 3d 38 54 3c be fc f4 84 bd 45 d5 0a 3e
       0.034954198 -0.18391502 -0.064920396 0.13557918
0001c0 b5 f9 8d be 40 bb 2b be 3e 98 a2 bb 38 33 da bd
       -0.27729574 -0.16770649 -0.0049619963 -0.106543005
0001d0 34 32 d3 3d 8f 76 db bd c3 40 10 be 6e 7b 30 3e
       0.1031231 -0.10715973 -0.14087205 0.17234585
0001e0 0f 95 29 3e f0 a1 24 be 8c c4 27 be c1 49 29 bc
       0.16560768 -0.16077399 -0.1638357 -0.010332526
0001f0 da 34 62 be 91 52 c9 bd 36 9b b8 3d e2 02 36 be
       -0.22090474 -0.098302014 0.09013979 -0.17774537
000200 0f 11 9d 3d c2 f4 e1 3d 94 80 3d be 86 50 3d be
       0.07669269 0.11033012 -0.1850608 -0.18487749
000210 81 f7 55 be ca 4a e0 bd 1f f7 76 be 2e 02 ae 3d
       -0.20895196 -0.10951765 -0.24117707 0.084965095
000220 5c 2a 66 3d 4b 7c c8 bd d8 6f fd bd dc 9c ec 3d
       0.05619274 -0.09789332 -0.12374848 0.11553356
000230 d4 86 2e be 32 eb cb 3d 66 f7 04 3e de 1f 34 be
       -0.1704362 0.09956969 0.12985 -0.17590281
000240 55 a0 83 3d 0e bb 23 3e e9 e4 19 bd 38 82 68 be
       0.06427065 0.15989324 -0.03757182 -0.22705925
000250 4d 30 a8 3d 79 97 2c be 86 6b 73 be eb ee 56 be
       0.08212338 -0.16854657 -0.23771486 -0.20989577
000260 90 fc ac 3c 5b 1a 06 3d 1e 2a 23 3e 20 f9 3f be
       0.021116525 0.03273998 0.15934035 -0.18747377
000270 12 80 f2 3d 5a 94 dd bd 7b ed 35 3e 45 d9 5b bd
       0.11840834 -0.108193114 0.17766373 -0.053674
000280 9a 19 1f be a2 f6 c4 3d 53 29 a9 bc 3c 02 11 3e
       -0.1553711 0.09617354 -0.020649588 0.14161009
000290 e3 1b 7d bd 95 3e 4c be 3e 2f e1 bd 69 7f 61 be
       -0.061794173 -0.19945748 -0.10995339 -0.2202126
0002a0 d4 54 66 3d 90 d9 b7 bc 82 16 18 3e f5 65 30 be
       0.056233242 -0.02244261 0.14852336 -0.17226394
0002b0 51 bc 96 3d a1 e7 73 be 53 a3 2f bd a0 07 9a bd
       0.07360137 -0.23818828 -0.042880367 -0.075209856
0002c0 eb 5e 54 bd 73 94 d0 bd 6f 83 08 3e 36 0e 3d be
       -0.051848333 -0.101845644 0.13331388 -0.18462452
0002d0 02 86 12 3e 1d 17 44 be 09 c0 33 be 68 35 53 3e
       0.14308932 -0.19149442 -0.17553724 0.20625842
0002e0 c0 3d bd 3d 29 da 84 be bb 95 80 be 5a 89 a5 3d
       0.092402935 -0.25947693 -0.25114235 0.08082838
0002f0 e7 3f 3e be 6b d5 3f be 68 19 1e 3d b5 e6 34 be
       -0.18579064 -0.18733756 0.038598448 -0.17666133
000300 fd fd 3d be a7 fd f6 bd df ae 98 3d ae 97 03 3e
       -0.1855392 -0.12060099 0.07455229 0.1285083
000310 ec 3e 65 3e 33 2f 53 3e 8b f9 37 3e b4 c6 09 be
       0.22387284 0.20623474 0.17966287 -0.13454705
000320 77 13 0f bc 9e 9d 74 3e dc 44 e2 3d 89 fb fd bd
       -0.008732668 0.23888251 0.1104829 -0.12401492
000330 a2 e8 28 3e 36 69 db bd 51 36 2e be 13 2e 09 3e
       0.16494992 -0.10713427 -0.17012908 0.13396482
000340 6c cc 2c be 8d 7f df bc f1 9e c2 3d 50 d7 40 3e
       -0.16874856 -0.0272825 0.09502972 0.18832135
000350 72 58 0a be 85 e9 52 3e 32 16 03 3e c5 c3 25 3e
       -0.13510302 0.20596893 0.12801436 0.16187961
000360 34 14 87 bc 88 a9 34 bc 6b 3a ca bd 06 a8 1c 3d
       -0.016489126 -0.0110267475 -0.098744236 0.038246177
000370 8c 6d 29 bc 29 7c 88 3e ef ac 55 bd 1d c1 d4 bd
       -0.010341059 0.26657227 -0.052166875 -0.10388396
000380 1a 5c 27 3e cc 10 d5 bd f1 2b 2d be eb 65 eb bd
       0.16343728 -0.104035944 -0.16911294 -0.11494049
000390 ea ba bc bd 11 76 11 3e db 63 e1 3d 8d a8 02 3e
       -0.092153385 0.14205195 0.11005374 0.1275961
0003a0 0f 97 44 bc 74 ba 17 be 7b 76 87 bd b6 8b 53 3e
       -0.011998906 -0.1481722 -0.06614395 0.20658764
0003b0 dc bd ae bd 6c ae 58 3e ba 57 96 3d 46 97 0d bd
       -0.085323066 0.21160287 0.07340951 -0.034568094
0003c0 da fc 22 3d 7e f2 d7 3d bd 9a d6 bd 34 48 e1 3d
       0.03979192 0.105442986 -0.10478733 0.110001
0003d0 fc 69 a2 bd 0b a9 4a 3e 46 ff 5a 3e 6d 61 07 be
       -0.07930371 0.19791047 0.21386442 -0.13220759
0003e0 9b 57 1b be ca 75 2e 3e 22 9f 68 3d 17 9b 50 bd
       -0.15170138 0.1703712 0.056792386 -0.050929155
0003f0 77 78 52 3d 09 74 78 3e d0 08 63 bd 93 0d 04 3e
       0.051384415 0.24263014 -0.055428326 0.12895803

fc.0.bias f4 [32]
000000 f4 80 04 bd c8 a3 95 bd 59 80 bf bd 58 58 82 3d
       -0.03234954 -0.073066294 -0.09350652 0.063645065
000010 52 4d a2 ba 13 07 9e bd 8d 03 58 3d 6f bb 09 bd
       -0.0012382662 -0.07716193 0.05273776 -0.033626016
000020 ad c8 cf bd 7b 23 45 bd 62 32 f5 bc 87 ee 59 bb
       -0.10145698 -0.04812954 -0.029931251 -0.0033253746
000030 2b a9 a0 3d ec 14 3c bd 50 30 aa bd a9 f1 c1 ba
       0.07844766 -0.04591839 -0.08309996 -0.0014796752
000040 ae 86 0a 3d bc c8 6b bd 60 5e 1d bd fe 6c 22 3c
       0.033819847 -0.057564482 -0.03842008 0.009913681
000050 07 af 22 3d e4 75 b6 3d 4d 4d 84 3d 12 fb 8b bd
       0.0397177 0.089092046 0.064600565 -0.06834997
000060 04 1e 0a bd 46 7a e9 3d 88 63 92 3d 10 83 34 3d
       -0.03372003 0.11400275 0.0714789 0.044070303
000070 3d 29 c7 3d 39 ac 9b 3d 9d 83 ad bc ac db 0d 3d
       0.097246625 0.07601208 -0.021180922 0.034633324

fc.3.weight f4 [1, 32]
000000 d8 65 38 be 91 c8 6c be f2 b8 81 be 61 22 e3 3e
       -0.180076 -0.23123385 -0.25336415 0.44362167
000010 69 d1 c9 3e e8 5d 52 be 54 77 7a 3e 15 8a d8 3e
       0.3941758 -0.20543635 0.24459583 0.42292848
000020 b2 b7 5a be fc 66 7a be e4 21 d1 3e fe ba 52 be
       -0.21359137 -0.24453348 0.4084617 -0.20579144
000030 6c ef 92 be d4 66 19 be 24 8c 2b be 4b 2f 34 be
       -0.2869829 -0.14980632 -0.16752678 -0.17596166
000040 5b be 42 be ec a0 b3 3e a8 9a 94 be bf 45 5e be
       -0.19017927 0.3508371 -0.29024243 -0.21706294
000050 9d 95 9d 3e ec 18 cc 3e 80 e0 c7 3e 95 9c de 3e
       0.30778208 0.39862764 0.39038467 0.43478838
000060 f5 8a 7d be 65 90 8d be db d9 a2 3e 40 9a 72 be
       -0.24760039 -0.27649227 0.31806836 -0.23691654
000070 8f 69 bf 3e 9e e6 43 be 68 c0 89 be c7 8e 64 be
       0.37385222 -0.19130942 -0.26904607 -0.2232009
