5 第五讲 机器学习训练模型的数学范式v16/models/model115.pth (torch, 112459 bytes, 21 tensors)

conv1.0.weight f4 [16, 3, 3, 3]
00000000: 794a 65bc a230 f6bd 8759 133e 0291 55bd
00000010: 4406 09be d215 32be 69b3 363d 7977 23be
00000020: 7bd6 bf3d 962f 973d 8240 423e 1d39 0bbe
00000030: 52da 153d 3038 1f3d d691 c03c 3022 e33d
00000040: 32ed 713b 8981 83bd 7fc7 1b3e b06d ecbd
00000050: 0234 1abe fb02 e63d 421d 38bd 1a28 1f3e
00000060: 7bf6 e9bd 6c79 223e 6dc6 313d 597a 6cbd
00000070: 8661 083e d4b1 89bd 6ab2 30bc c5c3 9bbd
00000080: 1d48 b93d 247b 5b3d 3b09 153e 1507 b2bd
00000090: c572 d73c acc8 27bc 83e6 293e c0b9 26be
000000a0: ae60 81bd c9c5 313e 056a 773d 0d6e 48bd
000000b0: dc6b be3d a7dd 203d a693 8ebd 2cc1 1bbe
000000c0: 103f 44be 5621 cb3d 80b0 57bc 8eba 903d
000000d0: b931 27be 8301 303e 0625 aa3d 5bc2 38bc
000000e0: 8e90 c3bd 143d 4cbc 183e 07be 9b60 30be
000000f0: 03c6 78bd 058a e93d 3b93 2fbe df2a 243e
00000100: 13cf bb3d a8d0 21be cf70 323e 918c 573d
00000110: b39e 2dbd 2405 e83c 005c 2c3d ef58 fa3d
00000120: f527 423e e37e 0c3d a9d8 2dbd b746 933c
00000130: 667f 183d fcab b0bd 88cc a3bd f9b7 4cbe
00000140: 9315 363e 4149 97bd 33f1 25bc 4209 1cbe
00000150: b405 243c eab4 363e 2698 1cbe 4672 f83d
00000160: 20f1 4a3e 5969 3cbe 98b7 23bd c57b 373c
00000170: 6e8b 833b 0535 b1bb b113 263e c84e 173e
00000180: bb81 9b3c 2913 723d 7745 d2bd 815b 12be
00000190: 8a2b cebd f983 1b3e 78e5 2a3e cb76 193e
000001a0: 56d0 003d 6d32 b73d 7755 99bd 0165 28bd
000001b0: 38f5 46be b08a 733d 59a3 d5bd 4ddb 233e
000001c0: f82c a23c 64f7 eb3d 2656 3dbd ce32 503d
000001d0: 259d 1fbe e33d 4fbe 7ad9 e9bd e18a 4d3e
000001e0: b0e8 923d eeb2 d13d be76 503e b9c4 a73d
000001f0: e634 a93d 70d1 52bd cd06 07be 7031 c93d
00000200: ce34 203e c38a 35be de6c 563d 9a4c 3fbd
00000210: 4524 213e ea6f 2bbd 1361 28bd 0d51 2bbd
00000220: 4d0d 6ebd 3303 1c3e 1ec7 c8bd a4a2 3d3d
00000230: bc0d 843b 3085 063e b19b b13d c4a2 12be
00000240: 793b d6bb 70e4 fb3b aee0 e1bc 5f24 263e
00000250: 9fa5 4e3e 67ce 04be d3db 59bd d1cd 4b3e
00000260: be4f 6b3d 623e aabd 319f d13d b8d7 3bbd
00000270: 41db c2bd fb99 50be fd9e df3d dec1 8dbd
00000280: eb2e 1ebe e5f8 1dbe a802 bdbc c2f4 023e
00000290: c93a ce3d 3bd1 053e 3651 a5bd 4e4b 24be
000002a0: 66ff 09bd ba61 bcbd d650 873d dd48 063e
000002b0: 4de9 83bd 054c 53be 1ece 233e ca78 523d
000002c0: af0a 0abe 9bd4 72bd d4bb 27bd 073e 02be
000002d0: 41fc 373e 6083 753d b68a 02be b6e0 dabd
000002e0: 5ef3 b3bd 2b93 45be 9d27 22bc 4bda 72bd
000002f0: 3960 d8bd 008b 613c 85fe cabd d251 d13d
00000300: cea3 bf3d e4ca 90bd b9cf bdbd e0f6 4ebe
00000310: a12d d1bc 1da3 2bbe 2c6c 373e bbb2 db3d
00000320: 3ea6 7e3b 865a 85bc c4a3 16bc d464 423e
00000330: a402 d6bc 17b8 0c3d 1eb8 ea3d 9790 6d3d
00000340: d948 e2bc b77b f63d a8a2 2ebe 44a8 3f3c
00000350: 403c 5bbe 709e 943d 73d9 cc3d 3bcc 8cbd
00000360: 2e29 23be 4b4a cbbd 5f75 d9ba 00c4 1bbe
00000370: 1c21 3cbd cf3a 49bd fc43 f1bd 1d9a a13d
00000380: 3f2e cebd 3497 a63d f46d 34be fea2 7cbd
00000390: 36be 383e 2614 03be 790c 4dbd bb66 ba3d
000003a0: 7ea1 8c3d 0837 8dbd f6a2 aa3d 9cc9 56be
000003b0: bfac 87be c834 73bd ddfd 2c3e 6448 c73d
000003c0: b839 1a3e 4c44 3e3d 0cf3 e23c 8b18 423e
000003d0: 2857 b63d 9580 623d 4b5c 15be 4fca fdbd
000003e0: 6f78 0a3e 6f60 4f3e 17e8 5d3d 710a a23d
000003f0: bdec 16be cdfa 82bd b913 49bd 2664 c0bd
-0.013994806 -0.12020995 0.1438962 -0.052140243 -0.13381296 -0.17391136 0.044604693 -0.15963544
0.09367081 0.07382123 0.1896992 -0.13596006 0.03658516 0.038871944 0.02350704 0.11090505
0.003691506 -0.06421191 0.1521282 -0.11544359 -0.15058902 0.11231037 -0.044949777 0.15542641
-0.114239655 0.15866631 0.043402124 -0.057733867 0.13318452 -0.06723371 -0.010784725 -0.076056994
0.09046958 0.053584233 0.14554302 -0.08692757 0.026299844 -0.010240715 0.1659184 -0.16281796
-0.06317268 0.17360605 0.060403842 -0.048933078 0.09297916 0.039273884 -0.069617555 -0.15210408
-0.19164681 0.09918468 -0.0131646395 0.070668325 -0.16327561 0.17188077 0.08307843 -0.011276807
-0.09549056 -0.012465734 -0.1320728 -0.17224352 -0.060735714 0.11403278 -0.17146008 0.16031979
0.09170356 -0.15802252 0.17425846 0.05262429 -0.042387675 0.028322764 0.042079926 0.12223994
0.18960555 0.034300696 -0.04244295 0.017978055 0.03723087 -0.086265534 -0.079979956 -0.19992055
0.17781667 -0.07387019 -0.010128307 -0.15237907 0.010011125 0.1784245 -0.15292415 0.12131171
0.19818544 -0.18399562 -0.03997001 0.011198943 0.004014424 -0.0054079317 0.16218449 0.14776146
0.018982759 0.059100304 -0.102671556 -0.14292718 -0.10066898 0.15187062 0.16689098 0.14986722
0.031448685 0.08945165 -0.07487004 -0.04111195 -0.19429481 0.059458435 -0.10431547 0.16001625
0.019796833 0.115217954 -0.046224736 0.0508297 -0.1558729 -0.20238452 -0.114184335 0.2007251
0.07173288 0.10239206 0.20357797 0.08191819 0.08262043 -0.051469266 -0.13186188 0.098238826
0.15645143 -0.17728715 0.052349918 -0.046703912 0.15736492 -0.041854776 -0.041108202 -0.041825343
-0.058118153 0.15235595 -0.098036036 0.046297684 0.0040299576 0.13136744 0.08672274 -0.14319903
-0.0065378514 0.007687144 -0.027572956 0.16224812 0.20180367 -0.12969361 -0.053188156 0.19902731
0.057449095 -0.0831268 0.102354415 -0.045860022 -0.095144756 -0.20371239 0.109189965 -0.06921743
-0.15447585 -0.15426977 -0.023072556 0.1278868 0.10069806 0.13068096 -0.080721304 -0.16044351
-0.033690833 -0.09198327 0.06607215 0.13113733 -0.06440983 -0.20634468 0.15996596 0.051384725
-0.13480638 -0.059284788 -0.04095061 -0.12718974 0.17967321 0.059939742 -0.12748227 -0.106873915
-0.08786653 -0.19294421 -0.00989714 -0.05929021 -0.10565228 0.01376605 -0.09911827 0.10220684
0.09357415 -0.07069948 -0.092681356 -0.20211363 -0.025534453 -0.16761442 0.17912358 0.107274495
0.0038856412 -0.016278517 -0.009194318 0.18983775 -0.026124306 0.03435525 0.11460899 0.05799922
-0.027622627 0.120353155 -0.17054236 0.0116978325 -0.21409702 0.07256782 0.10002413 -0.06874891
-0.15933678 -0.0992628 -0.0016590765 -0.15211487 -0.045930013 -0.04912835 -0.11780545 0.07890723
-0.100674145 0.081343085 -0.17620069 -0.06167888 0.1804131 -0.12800655 -0.050060723 0.091016255
0.0686674 -0.06895262 0.083318636 -0.20975345 -0.26498982 -0.059376508 0.16893716 0.09730604
0.1506108 0.04645185 0.027703784 0.18954675 0.089033425 0.055298407 -0.14585988 -0.12392103
0.13522504 0.2025163 0.054176416 0.07912148 -0.14738746 -0.06395493 -0.049091075 -0.09394102

conv1.0.bias f4 [16]
00000000: 0f9a 9c3d 43c7 fe3d b215 933d 6624 6d3d
00000010: fdab 46be 9d90 39bb 3c65 f23d 50f1 cf3c
00000020: 9a23 4ebe 7f38 0d3c 6a0a 413e 7d22 edbd
00000030: f0b5 293e ef6a 29be 7160 7e3c 20eb 6f3e
0.07646572 0.1244035 0.071818724 0.05789604 -0.19401546 -0.0028314956 0.11835715 0.025383621
-0.20130768 0.008619427 0.18851629 -0.11578844 0.1657331 -0.16544698 0.015525923 0.23429537

conv1.3.weight f4 [16]
00000000: 6194 753f 00d9 7a3f 7f11 843f afdd 683f
00000010: b895 813f 0c7e 813f 72da 7e3f 50ce 6a3f
00000020: 4d7b 6f3f c297 853f 3fa6 6e3f b6fc 913f
00000030: adae 693f b3ea 823f d2f5 703f 812d 783f
0.95929533 0.97987366 1.0317839 0.9096326 1.0123816 1.0116591 0.9955207 0.9172106
0.9354752 1.0436938 0.9322242 1.1405246 0.9128216 1.0227875 0.9412509 0.96944433

conv1.3.bias f4 [16]
00000000: 3bc1 0bbc 253f 2a3e 13ab 5dbb 2b0d 123d
00000010: 69df 2a3e a4b5 0fbd 5b4f b63d 3762 413d
00000020: 329b 5f3e 0883 343d 4fba 09be 1cd2 1d3d
00000030: f24d df3c 467f a73d 3399 e93c 3a26 01be
-0.008529956 0.1662565 -0.0033823892 0.03565709 0.16686787 -0.035085335 0.089018546 0.047212806
0.21836546 0.044070274 -0.13449977 0.038530454 0.027258847 0.08178572 0.028515434 -0.12612239

conv1.3.running_mean f4 [16]
00000000: 4455 d83d 7a64 603e ec5f d33d 5a2f 803e
00000010: 240c d13c 3e55 573c d2c6 9b3c e795 623d
00000020: 2221 2437 83cc 073d c779 da3e e562 303c
00000030: 3f37 2d3e 4d27 7c3c b366 823d 7283 4f3e
0.10563138 0.21913329 0.1032103 0.25036126 0.025518484 0.013142882 0.019015703 0.05531874
9.782876e-06 0.033154022 0.42671034 0.010765766 0.16915606 0.015390229 0.063672446 0.20264986

conv1.3.running_var f4 [16]
00000000: cc89 0e3b 7e99 593b 7cbd 493b 6181 6d3c
00000010: 4f25 0f3b 8e35 663a 6fc8 df3a 76a4 d83a
00000020: 078d 7135 9b3e 0e3b 566c fb3c d0a2 8f3a
00000030: 16af 913a bc96 903a ff4d 9b3b b684 d53a
0.0021749614 0.003320306 0.0030783108 0.014496178 0.0021842306 0.0008781784 0.0017073284 0.0016528505
8.998472e-07 0.0021704796 0.030691307 0.0010958556 0.0011114802 0.001103125 0.0047395225 0.0016290161

conv2.0.weight f4 [32, 16, 3, 3]
00000000: 1a16 ce3b 3bd7 c3bc 6442 31bc 6d1a 483c
00000010: 550e 903d c386 b93c 0e2c 943d d334 2bbc
00000020: 7d16 84bb e19b 44bd 0611 b4bd b102 4cbd
00000030: 6f0d dabc f1e5 013d 53cd 0fbd 6c5b 0dbd
00000040: 307a 47bd 9f37 343d df77 dd3d 6e83 9ebc
00000050: aeca bdbd 9a50 b43d 9cb5 813d a000 8abd
00000060: e820 44bd 15c5 49bd 3d34 8dbd ee84 ca3d
00000070: 023d 603d 12c2 64bd ce65 b63a f022 883d
00000080: 41a4 bdbc ff6c 2a3d 1938 803c 65e3 323d
00000090: 3757 253d b1ef 163d f600 09bd 6c09 e1bd
000000a0: 4932 8cbc ce7e 893b b16a 60bd dd89 57bd
000000b0: 86ef 593c 6da5 b63c 5c93 973d dbbd b63d
000000c0: ba78 26bd 8aa4 853d db78 2f3d 4d77 bd3d
000000d0: 36ae d03d 29f5 903d a600 7e3d 3a76 d23c
000000e0: 7daa aebc 1428 09bd da7b 4b3d 75cc f1ba
000000f0: e1e3 333d 71be 1e3d 67ea 9a3d 5632 823d
00000100: daa4 86bd c909 26bd c16c 893d 9369 6d3d
00000110: c183 5bbd da75 133d aadf 9ebd 1880 72bd
00000120: 37a3 55bd 840a 2dbe f0c1 b2bd e216 25be
00000130: 679b 4dbe f2b2 1fbe 0288 0abe 0863 b8bd
00000140: b4fb 3abe aab4 09be 9ea9 5dbd fd5d 773d
00000150: a6ae 94bd fe38 c03b ff1d 783d d2d6 e8bd
00000160: 0539 ddbd a5db 873d 3b1b cb3d 57e4 40bb
00000170: 3c13 d3bb aea5 12bd 8981 1b3d 1993 acbc
00000180: 0edf d93d d2dd 663d 8486 0a3d 8913 4b3c
00000190: 08e6 5cbc 8180 1a3d 3a59 c1bd bc51 e6bd
000001a0: d2b3 0dbe 9c80 1bbd 858c 1f3d 2e5a ef3c
000001b0: 1670 843d 8b53 3abc 15cb 523d ae43 343d
000001c0: 7784 e9bb fe09 de3b 1142 30bd d400 c23b
000001d0: 82c9 8cbd f859 7b3d 5b69 90bd 615f 03be
000001e0: 2aa2 22bd 2b42 90bd c02e d3bc 21b5 1bbe
000001f0: 9f43 70bd 0cd2 473d 0633 ad3c 1ef5 4bbd
00000200: ede8 a1bc 452b 20bd 9d7a 78bd 157c 68bd
00000210: 4a11 29bd f9ef ed3c 4956 013d 8810 2abd
00000220: 7874 4f3b 0132 aa3c 72e0 2d3c 997d 89bd
00000230: 3a50 41bd dc1c 673d 9881 833d d816 a33a
00000240: 3fd4 ac3c 36fc efbc c395 f33c c9c4 9d3d
00000250: 1c80 d23b d397 65bd 6b51 5f3c ceb3 2b3d
00000260: 3d23 893d da08 f8bc edf4 373c 2e01 60bd
00000270: fd02 92bd ab40 913c 4f2e 00be 9d42 de3c
00000280: 7b92 5ebc 7cb2 fbbc d0cb c93c c2b5 bc3d
00000290: ddf8 a13d 1192 e43d 3fe9 6bbd 9817 083d
000002a0: d172 d33d f5a1 c6bb 0aa2 a93d fbb5 a83d
000002b0: 0485 143c 1689 6bbc 02c5 033c 08a6 91bc
000002c0: adff 963d ce3a 6b3d 0993 a8bc cd55 b93d
000002d0: c371 683d 8e2c 4a3d cc98 20bd f767 8c3d
000002e0: a216 693d fc88 413d 1ff3 a63d bbc9 91bb
000002f0: f331 843d 5bb3 863b 8cb1 a6bd bb71 27bb
00000300: bfa9 91bd 1b9d 18be 0e2d cabd bde5 633c
00000310: f3a3 61bd 9a1f b0bd bb5e a2bc f310 94bc
00000320: 2458 a03d 470f f73d bc3b 3d3d 331a a23d
00000330: d2ad 293d 078a 55bd 90bf a43d 0459 55bd
00000340: f23a 873d 7249 293d cd79 4abd 6a77 94bd
00000350: c03d 8bbd 5bcf a439 8ded d4bd 3d4d 19bc
00000360: 4d95 5f3c 2577 3abd 4117 8e3d 1e7e cebd
00000370: 1b36 8a3c c706 a9bc 181e f9bc d0ac b5bd
00000380: 525d 4abd b599 123d a712 aabd 3a84 7bbd
00000390: ca4d 4f3d e51d b03a cbe8 a3bd 1da2 be3d
000003a0: f530 94bc f58d a5bc 9c4d 233d 4e39 e7bc
000003b0: d19c c53d c85c e33d c4be e93d 9c41 2cbb
000003c0: ce9d 803c 58c1 003e ea6e 833d 86d0 d63c
000003d0: b91d 023d cab2 ba3d e2b4 7cbd 1d54 11bd
000003e0: c775 47bc 081d 083d 236a 8bbb cdd4 333d
000003f0: 9e5a a43d 3886 6c3d ffe2 793d 9b6f 7b3d
0.006289256 -0.02390634 -0.010819051 0.012213332 0.070339836 0.022647267 0.07234965 -0.010449606
-0.004031001 -0.04800022 -0.087923095 -0.049807254 -0.026617734 0.03171343 -0.03510792 -0.034511015
-0.04870051 0.043998357 0.10813879 -0.01934978 -0.09267174 0.08804436 0.06333467 -0.067384005
-0.047882944 -0.049260218 -0.06894729 0.098886356 0.05474568 -0.055849142 0.0013915838 0.06647289
-0.023149611 0.041607853 0.01565175 0.04367389 0.040366378 0.03684968 -0.033448182 -0.10988125
-0.017113822 0.0041960245 -0.05478925 -0.05262171 0.013301736 0.022295678 0.074011534 0.08922931
-0.040642478 0.06525524 0.042839866 0.092512704 0.10189478 0.070780106 0.062012337 0.02569114
-0.02132153 -0.033485487 0.04967866 -0.0018447774 0.043918494 0.038755838 0.0756424 0.06357257
-0.06574412 -0.040536676 0.06710196 0.05796201 -0.053592447 0.036001064 -0.07757504 -0.05920419
-0.052157607 -0.16898543 -0.08728397 -0.1612201 -0.20078813 -0.15595606 -0.13528445 -0.09003264
-0.1826008 -0.13447824 -0.054116838 0.06039237 -0.07259874 0.005866169 0.06057548 -0.11369099
-0.10801891 0.06633691 0.09917303 -0.0029432976 -0.006441502 -0.035802536 0.03796533 -0.021066235
0.106382474 0.056363888 0.03381969 0.012394794 -0.013482578 0.037720207 -0.09440847 -0.11246058
-0.13838127 -0.03796445 0.03895237 0.029217806 0.06466691 -0.011372457 0.051463205 0.044009857
-0.0071263867 0.0067760935 -0.043031756 0.005920509 -0.06874372 0.061365098 -0.07051345 -0.12829353
-0.039705433 -0.070438705 -0.025779128 -0.15205814 -0.05865824 0.0487843 0.021142494 -0.04979431
-0.019764388 -0.039103765 -0.060663808 -0.05675896 -0.041276254 0.029045092 0.03157643 -0.04151967
0.0031655114 0.020775797 0.010612594 -0.06713409 -0.04719565 0.056424007 0.064212024 0.0012442721
0.0210973 -0.029295068 0.029734498 0.077035494 0.0064239632 -0.056052994 0.013630251 0.041919522
0.06696174 -0.030277658 0.011227828 -0.054688625 -0.07129476 0.017731031 -0.12517665 0.027131373
-0.013584728 -0.030724756 0.024633318 0.09214355 0.07908795 0.111606725 -0.057595488 0.033225626
0.10324634 -0.0060617873 0.082828596 0.08237835 0.0090649165 -0.014375946 0.008042576 -0.017779365
0.07372985 0.057429127 -0.020577924 0.09049568 0.056749117 0.049358897 -0.03920822 0.06855767
0.05690635 0.04724978 0.081518404 -0.004449097 0.064548396 0.0041107363 -0.08139333 -0.0025549966
-0.071124546 -0.14903681 -0.09871875 0.013909754 -0.055087995 -0.085997775 -0.019820562 -0.018074488
0.078293115 0.12063461 0.046199545 0.07915153 0.041425534 -0.052133586 0.0804435 -0.052086845
0.0660304 0.04132981 -0.049432565 -0.07249339 -0.06798887 0.0003143501 -0.10396872 -0.009356794
0.013646436 -0.04552378 0.06938029 -0.10082649 0.016871503 -0.020633115 -0.030409858 -0.08870852
-0.049405403 0.035791118 -0.08304339 -0.061405398 0.050611295 0.0013436644 -0.08003386 0.093082644
-0.01808975 -0.020209292 0.039868936 -0.028225567 0.09649051 0.11101681 0.11413339 -0.0026284223
0.015700247 0.12573755 0.064176396 0.026222479 0.031766627 0.091161326 -0.06169594 -0.035480607
-0.012174076 0.03323081 -0.004254596 0.043904115 0.08025096 0.05774519 0.061007496 0.061385732

conv2.0.bias f4 [32]
00000000: 39f0 bdbd dbee 8ebd fcd8 edbd 6835 983d
00000010: 8586 09be af16 dbbd f081 b53d 6110 db3c
00000020: c26d 05be 7ac6 f03b e2b3 51bc f577 41be
00000030: e551 19bd ad4f c4bd c717 77be cfd2 afbc
00000040: 0138 d7bd b001 88bd 7fdb a8bd 5424 d63d
00000050: 2103 7a3c d138 f1bd d3dc a9bd d6b9 c2bd
00000060: 28fc 013d 97a5 37be 7460 f2bd 9fa6 f83a
00000070: 2efa d8bd 391d 3dbe 4d5f fdbd 65fe 12be
-0.092743345 -0.06979152 -0.11613652 0.074320614 -0.13430221 -0.10697686 0.08862674 0.026741209
-0.1303015 0.007347879 -0.012799235 -0.18893416 -0.037431616 -0.095855094 -0.24130164 -0.021462826
-0.10508729 -0.06640947 -0.082449906 0.10456148 0.015259535 -0.11778415 -0.08294072 -0.09508102
0.031734616 -0.17934261 -0.11834803 0.0018970555 -0.10594593 -0.18468179 -0.12371693 -0.14354856

conv2.3.weight f4 [32]
00000000: fbd9 803f 8043 6e3f 6d95 803f 247b 663f
00000010: 0039 7b3f 53ac 773f 1f36 743f 53b7 7e3f
00000020: a18f 783f c97e 813f 8558 803f 39d1 823f
00000030: 5f4a 813f ca72 7d3f 505e 853f 39c4 803f
00000040: df7b 4d3f 1e5a 7b3f 8b76 7e3f 8da0 6c3f
00000050: 7c05 6f3f 0807 6c3f 6e3a 803f 0efd 823f
00000060: ecfa 7a3f a658 833f 099f 803f 85a2 613f
00000070: 5bde 7c3f e188 813f 2d0f 6e3f ffba 6f3f
1.0066522 0.93071747 1.0045601 0.9003165 0.9813385 0.9674732 0.9539508 0.9949848
0.9709416 1.0116817 1.0027014 1.02201 1.0100821 0.9900328 1.0419407 1.0059882
0.8026714 0.9818438 0.9939963 0.9243248 0.93367743 0.9219823 1.0017831 1.0233476
0.98039126 1.0261428 1.0048534 0.8813861 0.9877679 1.0119897 0.92991906 0.9364471

conv2.3.bias f4 [32]
00000000: 1909 883d 2baa b13e ad55 973d fa26 24be
00000010: ee41 253e ca6c 1abe 8793 fd3e 4df4 553d
00000020: 9091 c1bd cd0d 3d3e e97f c2bd 6219 113f
00000030: 3bf9 26be 4919 5e3e c4e1 a23e c385 10be
00000040: d078 2d3e adfb f3bd ebab 04bc e413 58bd
00000050: ccc2 823e 3f58 573e d86f a13e c4a8 543e
00000060: cb2b b33e 1365 9f3e 7a01 96bd 05d4 05be
00000070: e0f0 c53e a73b 583e 2d80 8d3e c93a e33e
0.0664236 0.3470014 0.07389388 -0.16030493 0.16138431 -0.15080562 0.49526617 0.052234937
-0.09451592 0.18462296 -0.09497053 0.56679356 -0.16306011 0.21689333 0.3181287 -0.14113526
0.16940618 -0.11913238 -0.008097629 -0.052753344 0.25539243 0.21029757 0.31530643 0.20767504
0.3499435 0.311318 -0.073245004 -0.1306916 0.38660336 0.21116506 0.27636853 0.44380787

conv2.3.running_mean f4 [32]
00000000: 145f da3d a044 323f cf90 533e 1df4 693f
00000010: 21b7 9a3e 54b6 d83d 1288 ff3e 4a13 df3e
00000020: 364d ab3e 3832 093f 8876 c03d 386d c93d
00000030: a5d5 053f 85cb 053f cb7d d03d a41a 863e
00000040: 0205 3f3f 67ad c43e 743a 7f3e ce36 193f
00000050: 3898 053f cedb fc3e b21a 013f 0c8e 4a3e
00000060: 3ec6 233f 2078 2d3e 4adb 923e c717 6c3e
00000070: 1a3c 373e d7f4 c03e 5430 c43e db82 443e
0.10662666 0.69635963 0.20660709 0.9138811 0.3021784 0.10581651 0.499085 0.43569404
0.33457345 0.5359225 0.09397608 0.09835285 0.5227912 0.5226367 0.10180243 0.261922
0.74617016 0.38413545 0.24924642 0.5984925 0.5218539 0.49386448 0.5043136 0.19780749
0.6397437 0.16940355 0.2868293 0.23055945 0.1789402 0.37686798 0.3831812 0.19190542

conv2.3.running_var f4 [32]
00000000: fbcc 653d e973 b53f 9cd8 fc3d 5c6b 8f3f
00000010: 08d2 a63e 71d3 1b3d af9f 6d3e 9544 023f
00000020: 24ba f63e 93a5 973e 6e61 903d 9639 ab3d
00000030: 6ac8 9e3e 92b3 893f b692 113e acad 223e
00000040: 45db c73f 13c5 fe3e 3a99 863e 2d6d c53e
00000050: 1e13 af3e 3921 713f 36bc 2e3f e2f1 133e
00000060: a808 243f 9c16 273e 6a58 403e 59c7 973d
00000070: 0d67 853e a476 2a3f 8691 973e 0b21 053e
0.056103688 1.4175998 0.123460025 1.1204638 0.32582116 0.038043443 0.23205446 0.508859
0.4818889 0.2961851 0.07049833 0.08360593 0.3101228 1.0757926 0.14216122 0.15886563
1.5613791 0.4975973 0.26288778 0.38559857 0.34194273 0.9419132 0.6825594 0.1444774
0.6407571 0.16317219 0.18783727 0.074110694 0.26055184 0.6658728 0.29603213 0.13000886

conv3.0.weight f4 [64, 32, 3, 3]
00000000: ec5f 2abd 0d08 3bbd b89f 7fbd cd8f 43bd
00000010: 1de5 7dbd 8670 8cbd e275 99bd e5d6 25bd
00000020: 8f2b 05be 176a 6dbd 1643 ec3c 877a 2ebc
00000030: b8b9 95bc 795b 50bd 26db b0bc 2eba d2bb
00000040: bd01 80bc d160 513d e7bb 96bc 4997 0cbd
00000050: e588 c9bd bd38 5d3c fd91 bbbc 12d5 01bd
00000060: c526 adbd c048 9bbc 32bf 64bd a943 023d
00000070: c1ac 07bd 0b4f 8e3d 2abc 59bb 9007 f3bc
00000080: fc21 1c3c 898e 84bc 6ecd 613b b42c b1bc
00000090: cda5 86bd b5bf 8abd ef6c 87bc e890 1ebc
000000a0: 2db1 86bd 0ded 04bd 6432 b8bc 83cc 3abc
000000b0: e5e3 64bc f44e 8e3a c311 17bc 33a5 04bc
000000c0: 139c 043d 9c15 993c 7c9c 7f3b 971c 6b3c
000000d0: 95d7 ff3c 3a38 043c 8fbd d1bc 5c3e dfbd
000000e0: 79f6 44bd ac5b 61bc 30c5 c8bd 97eb 95bd
000000f0: 3bb2 aabd 6ba2 4ebd bf92 acbd 9869 f5bc
00000100: 2d19 cebc 9304 edbc 010f aebc 09b2 0d3d
00000110: 9436 edbc b598 71ba 9d90 6f3d 7d58 263d
00000120: 551d 213d bddf dc3d 6e3a cd3d c10f c23d
00000130: 1647 943d 631e 893d 717b 8ebc f2c6 ac3d
00000140: ee81 973d 182f 973c af6c 083b 57cc 243c
00000150: 40d6 ffbb dd04 463d df6b 563c 05b9 883c
00000160: e215 b33c df45 1e3d 195b 23bd cbab 22bd
00000170: f007 733a 3a40 9fbc 2f0f 22bd f774 80bb
00000180: 903d 71bd 3347 e3bc f870 27bd 0312 25bd
00000190: 0237 c1bd 1a1f 89bd d3ae 4ebd 0c50 00be
000001a0: 5f19 c5bd 74e3 7bbd 96f0 01be 073f ddbd
000001b0: e433 bdbc 5328 893c 6a5c 503c a001 4dbd
000001c0: 8c91 3b3c 3a56 f1bc afac 52bd 3b5c 26bc
000001d0: f5f1 14bd d5ff d4bd de3b 89bd 812a 9bbd
000001e0: 8d0d cabd 09a0 60bd a5fa dbbc 0d1d bbbd
000001f0: 8783 3b3c da21 abbc a0a5 123d 7b78 843d
00000200: d174 273d eec8 9c3c bb6d d13c ca4d 1f3d
00000210: dd3f 343d c4dc 833d 3c1e 293c 43a8 24bd
00000220: 242b 46bd 1d28 a1bc c63d 01bd c748 12bd
00000230: 40b6 7bbd 3704 89bd ef25 e9bc fcdc a8bd
00000240: 74c2 5c3d a5d7 4dbc 729f 0abd 344a 07bd
00000250: c9c3 643c 9ebf c53b 127f 0ebd 1341 213d
00000260: 72d8 163d 1ed5 553d 2006 8e3d b8b6 a93d
00000270: 7b85 3d3d e318 a93d b7a5 84bb f689 853d
00000280: fcf0 b43d 1c30 943d b25b 2ebb eea4 333d
00000290: 18a6 cdbc ed5b 0b3d 5858 fb3c 5848 29bd
000002a0: f42f c4bb ab61 053c 59fe 3c3c 81c1 91bd
000002b0: d438 0abd e884 ea3c dd45 37bd d071 96bc
000002c0: 7b14 75bc 3144 063b 0190 033d 630e 0fbc
000002d0: 6af1 a83c 4ac9 8dbb c11b edbc f5c7 8dbc
000002e0: 6610 24bb 8502 1bbd bbac 56bc 7eef e03c
000002f0: 05f3 983c 11e2 3abd c4ed 6bbd 6e49 b93b
00000300: b577 38bc 4db6 8dbc b7dd 94bd d7b6 8bbb
00000310: 5ede 01bc 9393 93bd 3cf7 8f3c 66a8 e4ba
00000320: 27b6 5a3d bcd7 2dbc 0cb7 a13d e8bf 5d3d
00000330: 8a89 04bc 899b 64bc 9ddd 393c e6db 3bbd
00000340: 7ae6 a0bd fb59 efbd abbd 97bd 9ec7 84bd
00000350: e3df 5fbd 3a4e 9fbd 1c19 aabd b2d2 fbbd
00000360: afc6 5cbd 71f0 4ebd b6c0 c1bd 230e 3e3c
00000370: a2ba 82bc 21f6 94bd 960d 0bbd a452 71bd
00000380: 2762 80bd 7ba6 1a3d d64c 953d 87a1 78bb
00000390: 7aac 5f3c 9f91 2f3d 8f1a dd3c f302 1cbc
000003a0: 43a8 943d 1b03 b3bc e038 54bd 4187 debc
000003b0: 13bf 26bd 8d89 1abd e8e7 2bbc f715 62bc
000003c0: cd78 8fbd 37e9 70bd 2c71 dbbc 6818 2cbc
000003d0: c004 0fbd 67c2 35bd 3b35 1c3c 1c5d 35bd
000003e0: 3b82 49bd 9780 14bd 3c26 a7bb 1a1e ec3c
000003f0: ce49 1ebd 86cd d0bd a905 02be 66b0 a2bd
-0.041595384 -0.045661975 -0.06240818 -0.04774456 -0.061986078 -0.068574 -0.074931875 -0.040488143
-0.13004898 -0.057962503 0.028840583 -0.01064933 -0.018277034 -0.050868485 -0.021588873 -0.0064308858
-0.015625829 0.051117722 -0.018400146 -0.034323964 -0.09840564 0.013502297 -0.022896761 -0.03169734
-0.0845466 -0.018955588 -0.0558464 0.031802807 -0.033123735 0.0694867 -0.0033223727 -0.029666692
0.009529587 -0.016181247 0.003445472 -0.021627761 -0.06574593 -0.067748465 -0.016531436 -0.009678103
-0.06576762 -0.03245263 -0.022484966 -0.011401298 -0.01397035 0.001085727 -0.009220543 -0.008096027
0.032375406 0.018687062 0.0039003184 0.014350078 0.031230727 0.008070046 -0.025603084 -0.10900566
-0.048086617 -0.013754766 -0.098032355 -0.07320326 -0.08334776 -0.050447863 -0.08426427 -0.029957578
-0.02515849 -0.028932845 -0.021247389 0.034593616 -0.028956689 -0.00092161755 0.058487523 0.040611733
0.039334614 0.10784862 0.1002091 0.09475661 0.07240121 0.06695249 -0.017392846 0.08436383
0.07397829 0.018455073 0.0020816734 0.010058484 -0.007807523 0.04834448 0.013087242 0.016689787
0.02186102 0.038640853 -0.0398818 -0.039714616 0.0009270897 -0.019439805 -0.03956526 -0.0039201933
-0.0588966 -0.027743911 -0.04087922 -0.04030038 -0.0943432 -0.06695385 -0.050459694 -0.12530535
-0.0962398 -0.061496213 -0.12689433 -0.10803037 -0.023096032 0.01674286 0.012717346 -0.050050378
0.011448275 -0.029460061 -0.051434215 -0.010153825 -0.03636356 -0.104003586 -0.06700872 -0.07576466
-0.09865866 -0.05484012 -0.026852915 -0.091364 0.011444933 -0.020890165 0.035802484 0.06468292
0.04088289 0.01913878 0.025565019 0.038892545 0.044006217 0.06438592 0.01032215 -0.04019953
-0.048380986 -0.019672448 -0.031553052 -0.035713937 -0.061453104 -0.06690257 -0.028460471 -0.082452744
0.053896382 -0.012563621 -0.033843465 -0.03302975 0.013962694 0.0060348054 -0.034789152 0.0393687
0.036827512 0.052205198 0.06934762 0.08286804 0.046269875 0.082567 -0.004048075 0.065204546
0.088350266 0.07235739 -0.0026604948 0.04385846 -0.025103614 0.034023214 0.030681774 -0.041328758
-0.005987162 0.008140962 0.011535251 -0.07116986 -0.0337456 0.028627828 -0.04474436 -0.018364817
-0.014958496 0.0020487423 0.032119755 -0.008731457 0.020622928 -0.004326974 -0.028943898 -0.017307261
-0.0025034188 -0.0378442 -0.013102706 0.027457949 0.018670568 -0.04562575 -0.057599798 0.0056545055
-0.011259009 -0.017298842 -0.07268851 -0.0042637396 -0.007926552 -0.07205882 0.017573945 -0.0017445206
0.05339637 -0.010610517 0.078962415 0.054138094 -0.0080894325 -0.013953098 0.011344341 -0.04586401
-0.0785646 -0.11687084 -0.07409223 -0.064833865 -0.054656874 -0.077785924 -0.083055705 -0.12296046
-0.053900417 -0.05052227 -0.09460585 0.01160005 -0.015958134 -0.07273508 -0.033948503 -0.058916703
-0.06268721 0.037756424 0.07290046 -0.0037938075 0.013651961 0.042863484 0.026990203 -0.0095221875
0.07258656 -0.021852067 -0.051812053 -0.027164103 -0.040709566 -0.037728835 -0.0104923025 -0.013799182
-0.07005463 -0.05881616 -0.026787363 -0.010503866 -0.03491664 -0.04437485 0.0095341755 -0.04427825
-0.049196463 -0.036255445 -0.0051009934 0.028822947 -0.038644604 -0.101954505 -0.12697472 -0.079438016

conv3.0.bias f4 [64]
00000000: 602a 49be f730 52bd acfe b9bd ef72 22be
00000010: 4f4c 1fbd f9d8 f7bc bd0d bdbd 6706 1dbe
00000020: 111e 81bd 89fe a1bd 6d6a cc3c a9e2 01be
00000030: a85e acbd d5be 51bd c21e 32be b471 f7bc
00000040: c422 26be d584 02be c8ac 34bd f7e1 01be
00000050: 8587 1cbe 128e d9bd 62a0 acbd edbe d0bd
00000060: 73c1 b4bd f3fd dbbd 8026 6bbe 6b96 b2bd
00000070: 4a1e 77be ccac a7bd 3cb1 4dbe 564d c7bd
00000080: 11f6 c7bd dc0f 4dbe a100 0bbe fe67 39be
00000090: 0bd9 b6bc 93e6 96bd 56d0 15be 96bd dfbd
000000a0: 665c f8bd fb1e 08bd e707 1dbe 8f72 7fbd
000000b0: 04f0 b3bd fb70 83bd 16f5 0abd 794c 10bd
000000c0: bcda 2abc c315 e1bd ee49 0dbe 46a9 dcbd
000000d0: f7ae 1dbe 9f5a 3abd c38c 18bd 6723 17be
000000e0: de1c 49bd 9f39 79bd b835 94bd 3fd8 32bb
000000f0: 74b0 d03b 9b47 34bd 7932 33be 4951 d8bd
-0.19645071 -0.051316228 -0.09081778 -0.15864156 -0.038891133 -0.030254828 -0.09231136 -0.15334474
-0.06304563 -0.07909877 0.024953092 -0.1268412 -0.08416492 -0.051207382 -0.17394546 -0.030205585
-0.162242 -0.12745984 -0.04411009 -0.12683855 -0.15286072 -0.10622801 -0.08429028 -0.10192666
-0.0882596 -0.10741796 -0.22963905 -0.08720096 -0.24132648 -0.08187255 -0.20087141 -0.097315475
-0.0976373 -0.20025581 -0.13574459 -0.18106076 -0.022320291 -0.07368197 -0.14630255 -0.109248325
-0.121269986 -0.03323267 -0.15335046 -0.06236511 -0.08786014 -0.06418034 -0.03392514 -0.03522918
-0.010428127 -0.10990479 -0.13797733 -0.10774474 -0.15398775 -0.04549658 -0.037243616 -0.14759599
-0.049099796 -0.060845967 -0.072368085 -0.0027289537 0.006368691 -0.0440136 -0.17499723 -0.10562379

conv3.4.weight f4 [64]
00000000: 8dee 8e3f 7732 8e3f 5b25 9c3f c447 9e3f
00000010: f77e 9a3f 27bf 993f 95eb 9f3f b84c 8b3f
00000020: d0c9 7e3f 595e 9f3f 07d1 993f 9700 833f
00000030: 4aa5 993f d3f1 893f f226 8b3f 0377 963f
00000040: a6a5 853f 7125 903f 0615 9e3f 005c 9b3f
00000050: 53fd 8b3f 8a6e a03f cf37 9d3f 10c6 9c3f
00000060: 4745 893f e8ff 8b3f 1a79 8a3f 1bc1 a13f
00000070: 48df 8b3f d348 9d3f 93c4 8a3f f1fe 803f
00000080: 0769 933f 7e86 8f3f 94e2 843f 1531 8b3f
00000090: aee8 6e3f 4765 9e3f 6e60 9e3f 101f 9c3f
000000a0: 9dbb 8a3f 3016 7d3f 57fa 8b3f e177 9a3f
000000b0: 2161 8a3f 88ac 9f3f 3664 9b3f c40f 803f
000000c0: d494 9a3f 4869 a13f dcda 8a3f 9e7b 9c3f
000000d0: 4e4f 843f 7691 933f 007d a43f ef02 8d3f
000000e0: 2960 883f fe7c 9f3f cb00 993f 770a 753f
000000f0: 22f2 9b3f 41e5 a03f 85f5 843f e3e3 993f
1.116655 1.1109151 1.21989 1.2365651 1.2069997 1.201146 1.2493769 1.0882788
0.9952669 1.2450668 1.2016915 1.0234555 1.2003567 1.0776924 1.087126 1.175507
1.0441177 1.1261426 1.2350166 1.2137451 1.0936683 1.2533734 1.2282656 1.2247944
1.0724267 1.0937471 1.0818207 1.2637056 1.0927515 1.2287849 1.084124 1.0077802
1.1516427 1.1212919 1.0381646 1.0874354 0.9332379 1.2374657 1.2373178 1.219698
1.0838505 0.9886198 1.0935773 1.2067834 1.0810891 1.2474527 1.2139957 1.0004811
1.2076669 1.2610254 1.084804 1.2225225 1.0336702 1.1528766 1.2850647 1.101652
1.0654346 1.246002 1.1953367 0.95719093 1.2183268 1.2569963 1.0387427 1.202267

conv3.4.bias f4 [64]
00000000: 5b2e 06bc 654e 9fba dff6 113c 917c 3cbb
00000010: 9e25 c33b cbc6 f63b b085 c13b c8b9 8bbb
00000020: 5198 90bc dab9 793c a666 2c3c b542 4fbc
00000030: 783e 75bc 5ef6 5dbc 31e2 cf3b b1c0 67ba
00000040: f056 eb3b d816 67ba ee0d 923c 2e5b 6dbc
00000050: cbcd 1ebc 55b2 67b9 3e20 c03c ee15 04bc
00000060: 4e56 2fbd 1762 4bbc 87e7 87bc 64dd 59bc
00000070: f6be f0bc 0f4e a83a aeda b3bb b3d6 85bc
00000080: 4e05 b73c 796b d7bb 48d7 48bc 4ffe cf3b
00000090: c4ad de3b 2ab4 f13b 7936 6eb9 99dd 67bb
000000a0: 299c 6fbc 1f3e 5b3c 7ba6 783c cea4 ad3b
000000b0: e0ba 6d3c 1d8e 6dbb 3966 a33b 4516 273c
000000c0: 765b 6bbc 6123 1d3c b284 4a39 e2fa 9c3c
000000d0: 2666 1fbc a999 2f3b eea8 8a3b 6d85 77bc
000000e0: 0e92 8f3c f7c3 923c 14a7 163c b25b 723b
000000f0: 37ee 8f3c 5f66 7a3c 4f0c 853c 1bd1 a53c
-0.008189763 -0.0012154101 0.008908956 -0.002876077 0.005955412 0.007531022 0.0059058294 -0.00426409
-0.017650755 0.015242064 0.01052252 -0.012650182 -0.014968507 -0.013547508 0.006344103 -0.0008840664
0.0071819946 -0.00088153547 0.017828908 -0.014487071 -0.00969262 -0.0002209631 0.023452874 -0.008061869
-0.042806916 -0.012413523 -0.016589893 -0.013297413 -0.029387932 0.0012840646 -0.005488715 -0.016337728
0.022341397 -0.006574091 -0.012258358 0.0063474546 0.006795617 0.0073762136 -0.00022717741 -0.0035379885
-0.014624634 0.01338151 0.015176411 0.0052991873 0.0145098865 -0.0036248036 0.004986551 0.010198181
-0.014365068 0.0095909545 0.00019313654 0.019162599 -0.009728944 0.002679447 0.004231564 -0.015107495
0.017525699 0.017915709 0.009195108 0.0036980924 0.017569644 0.015283196 0.01624122 0.02024131

conv3.4.running_mean f4 [64]
00000000: bd12 913d 34f2 f43d f8f5 ec3d 2920 403d
00000010: 77b5 f83d 9279 163e 3605 143e 63dc 9a3d
00000020: a94d bf3d fdcf 293e dd1a ed3d 7ce0 973d
00000030: e9ec 883d e273 293d 5323 813d 6ffc 1b3e
00000040: 6101 633d 8a63 5d3d e2fd cd3d d226 c63d
00000050: bdbe 023d 6605 eb3d 3fff 123e 6b27 b63d
00000060: 5071 903d bdaf 823d 6967 093d 1170 ab3d
00000070: a17e 323d 15ea bc3d 9bf8 ae3d bc2c a33d
00000080: 8293 1a3e 5c74 413d 17b1 c63d 1b69 4a3d
00000090: c1db 303f 9abf 963d 3f74 c23d 726b 1b3e
000000a0: dbc9 d33c a22c 693e 9120 c83c 16bf f43d
000000b0: d575 083d 3876 183e 131d 343e 6e9f dd3e
000000c0: 3393 5e3e 858e 3a3d 9d7e f83c be24 053e
000000d0: eb89 9a3d a5fd 5c3e 187f b93d 6e8a 113d
000000e0: f042 5f3d 1814 703d 29ae b93d b0b5 543f
000000f0: 75d4 073e 7cf5 323e 3fef e83d ddca fd3d
0.07083652 0.11960259 0.11570352 0.04690567 0.12143987 0.14694813 0.14455113 0.07561567
0.093409844 0.16583247 0.115773894 0.07415864 0.06685812 0.04137028 0.06305566 0.15233015
0.055421237 0.054050006 0.1005819 0.09675373 0.031920183 0.11475639 0.14355181 0.08894237
0.07052863 0.06381176 0.033545885 0.08370984 0.043577794 0.09224335 0.085435115 0.07967517
0.15095332 0.04723011 0.09701746 0.049416643 0.6908532 0.07360764 0.094948284 0.15177706
0.025853088 0.22770932 0.024429591 0.11950509 0.0333155 0.14888847 0.17589216 0.43285698
0.2173584 0.045546073 0.030333811 0.13002297 0.07545837 0.21581133 0.09057444 0.035532407
0.054507196 0.058612913 0.090664215 0.83089733 0.1326464 0.17476457 0.113737576 0.12392209

conv3.4.running_var f4 [64]
00000000: 895b 0c3e 3ecf 6a3e 4d0c 093f 542f f23d
00000010: c377 d43e 5728 093f 75c7 0a3f 270f fc3d
00000020: 229b a73e 668b 433f 7ca3 c53e 7a67 f53d
00000030: 9e86 763e 2141 7d3d 7338 cd3d 2ab3 173f
00000040: a610 c83d 2e8e a63d dbf3 8d3e a8b5 9e3e
00000050: 9177 b33d 5a89 c13e ed4a 083f b822 973e
00000060: 7595 ec3d e410 3e3e 9601 633d 9d2f 9a3e
00000070: f6fc 553e 09c8 c73e 721e 053e 83e0 e53d
00000080: ce27 1c3f 766e 0a3e da3b 483e 747e 0c3e
00000090: b22c 5b40 a5aa 8e3e 8b62 c13e 495a 203f
000000a0: c388 5e3d 14cd 233f 8a65 523d 7e0d dc3e
000000b0: 14d9 853d 233c 143f 1572 533f 3bb4 653f
000000c0: b0d4 683f ea9a ef3d 1e30 493d 4fbe 153f
000000d0: 3345 133e bf36 6a3f b61a c13e 57d1 633d
000000e0: 6161 923d 4ed0 4c3e 083d bf3e a69f a840
000000f0: 631e ee3e 6b9c 2a3f 688f 823e e250 c53e
0.13706793 0.22930619 0.53534395 0.118254334 0.4149762 0.5357718 0.542106 0.123075776
0.32735544 0.7638458 0.3860129 0.11982627 0.2407479 0.06182969 0.100205325 0.5925776
0.097688004 0.081325874 0.2772511 0.30997968 0.0876304 0.37800103 0.5323933 0.29518676
0.11551944 0.18561131 0.055421434 0.3011445 0.20897278 0.39019802 0.12999895 0.11224463
0.6099824 0.135187 0.19554082 0.13720113 3.424603 0.27864566 0.37770495 0.62637764
0.054329645 0.639848 0.051366366 0.42979044 0.06535545 0.5790426 0.8259595 0.89728135
0.90949535 0.116994694 0.049118154 0.5849351 0.14381866 0.91489786 0.3771569 0.055619564
0.0714748 0.20001337 0.3735125 5.2694883 0.46507558 0.66644925 0.25500035 0.3853827

fc.0.weight f4 [32, 64]
00000000: 93dc 133e e92d 423e b26b 8bbd b98b 0ebe
00000010: 5ab0 86be 6b85 51bd 71ea 1dbe 2b9d 113d
00000020: 9f60 be3d 9fbe 14be 73cd 48be 4d5a 6fbd
00000030: fb16 44be 4eab ca3d 442f 173e 6d5c 67be
00000040: cccf 3b3d 1c28 ca3d 365e 81be 587b 43be
00000050: f89b 073c 72c2 d7bd e51d 12be 9c1f 87be
00000060: 0988 193e 4824 543c b156 0d3c adcc 43be
00000070: ed2e 383e b217 01be fbd3 593d 1bc2 133e
00000080: 23a1 1cbd 3a05 893d 7d66 ba3d 7667 263e
00000090: 4483 b93d f254 78be 68f8 f4bd 9c05 70be
000000a0: 2f05 e43d bcae 733d 87fc 783d 7379 26be
000000b0: e3f2 1d3e 741e 9bbe fb3e 4fbe 2c90 083d
000000c0: e42b 83bd 9476 52be 0def 763d 7e48 5fbe
000000d0: ffb6 be3d 21b2 64be a9de 20be c2cd fa3d
000000e0: 1948 bc3d 7aba b0bd 89bb 7ebe 1681 333c
000000f0: 2826 03be 4cf0 00be 8f85 8a3c a05b 46be
00000100: 32bb 243c 5060 7f3d b7db 0ebe 8a7c 5cbe
00000110: 71ae d4bd 13fe 82bd 7465 4ebe bd46 f53d
00000120: 5c51 74bd dc19 67be 17d8 f3bc 4762 2abc
00000130: 3411 0bbe 7d5b fb3d 6cf2 3d3e dba3 1abe
00000140: 12a6 053e 6b5d de3d 950f 20be a238 42bd
00000150: 8125 893c 6241 70be c1bd 63be b926 59be
00000160: 8d52 173d ac08 1c3e 1301 9a3d b372 57be
00000170: bdee 253e 2b87 60be d770 8c3d 9538 38bd
00000180: a6e0 d7bd bf37 5b3e e821 0f3e 9c80 2d3e
00000190: 5fee 443d dff8 04be c442 4dbe e4e6 75be
000001a0: 073c 74bc 8cce 483d bce8 143e 5d4a 0cbd
000001b0: c1bf ba3c 52e1 31be 0987 22bd 4fc8 093e
000001c0: 92ff 85be 8916 2abe d715 90bc f4fe c1bd
000001d0: d41e d63d 16b5 acbd f922 0abe a853 323e
000001e0: 5b59 283e 6a58 17be 6212 16be 4220 c8bb
000001f0: 3e50 4abe ecab c3bd f59f 933d fd4c 1ebe
00000200: 1a87 913d 3ecd d63d fb76 36be 0871 2abe
00000210: 8164 55be 0184 c4bd c1b2 77be cf83 9a3d
00000220: d5cf 543d 7b4d b1bd ae9f f0bd 0085 ee3d
00000230: 7b66 30be 571d bd3d f9fe fd3d 4dbc 2abe
00000240: 6715 593d 8b4c 123e e0fa 14bd 83f5 5ebe
00000250: 0c2d 933d 584d 33be 5233 6ebe 84d7 4fbe
00000260: f1e9 0b3c eaac 1f3d 59f6 1a3e d160 30be
00000270: dcee 033e 5d46 b9bd 90d7 2f3e af08 86bd
00000280: 1860 0ebe 6237 9e3d 53ef b5bc b175 113e
00000290: 6451 8abd 4511 41be 3c8a ddbd a818 50be
000002a0: b003 553d 6320 24bd ad0d 113e 0063 1fbe
000002b0: 98fb 613d 10e8 7ebe b970 4abd 2247 8abd
000002c0: 2270 3bbd 060e c6bd 7eeb fc3d 3963 36be
000002d0: ceab 0f3e 670c 3cbe f4ba 28be 2360 4c3e
000002e0: 4958 b53d 0480 80be 94bd 78be c935 af3d
000002f0: c01d 37be 3f2b 32be 9ff5 e23c 659a 2ebe
00000300: 01cd 2ebe abd9 efbd f998 8e3d b7be e33d
00000310: 0d75 6c3e b0d1 513e 307d 413e 8a68 03be
00000320: 146f 09ba 23a0 7b3e 4723 dd3d dad3 01be
00000330: 7f5b 283e 3b71 d1bd 1b8e 2abe 3077 003e
00000340: ea3c 1bbe a370 5bbc 286d c23d 8410 3c3e
00000350: 55a7 02be 448e 633e 14c6 003e 10b7 1a3e
00000360: 48b0 63ba 7204 7eba 2a45 a5bd fa9c e03c
00000370: e037 50bc f03a 7d3e 5da7 20bd aba5 d4bd
00000380: bf18 243e ce0e abbd 01e5 1cbe 4d0a dfbd
00000390: 9527 bfbd 2e73 033e be1b c63d 838b dd3d
000003a0: 5f33 4c3b 92b1 1abe cd98 65bd 49fd 403e
000003b0: fe34 b1bd ff6f 593e ee1c 9d3d 8df8 56bd
000003c0: 3c00 4e3d e757 bf3d 83cd c0bd fea8 dc3d
000003d0: 5b84 8bbd dc3c 4a3e 6ede 5a3e 2ff3 02be
000003e0: 064f 1cbe a5ef 1d3e e548 513d f948 3cbd
000003f0: f648 453d 5344 873e 6e2a 58bd 6808 f13d
0.14439611 0.18962826 -0.068076506 -0.13920487 -0.2630642 -0.051152628 -0.15421464 0.035550278
0.09295773 -0.14525841 -0.19609623 -0.058435727 -0.19149391 0.09895955 0.14764124 -0.22593851
0.045852467 0.098709315 -0.2526719 -0.1909002 0.008276932 -0.105351344 -0.14269216 -0.26391304
0.149933 0.012948103 0.008626626 -0.19121046 0.17986651 -0.12606695 0.053180676 0.14429514
-0.03823961 0.0669045 0.09101579 0.16250405 0.0905824 -0.24251154 -0.11961442 -0.2343964
0.11133801 0.05949281 0.060787704 -0.16257267 0.15424685 -0.3029667 -0.20238869 0.033340618
-0.06404856 -0.20553046 0.06028657 -0.21804997 0.093122475 -0.22333576 -0.15709938 0.122462764
0.09193439 -0.086293176 -0.24876226 0.010956069 -0.12807524 -0.12591666 0.016909389 -0.1937089
0.010054396 0.06234771 -0.13951002 -0.21531883 -0.103848346 -0.06396117 -0.20155889 0.11976383
-0.059647903 -0.22568458 -0.029766126 -0.010399408 -0.13580781 0.122733094 0.18549508 -0.15101568
0.13051632 0.10857662 -0.15630944 -0.04741729 0.016741516 -0.23462442 -0.22240354 -0.21206178
0.03694396 0.15237683 0.07519736 -0.21039848 0.16204353 -0.21926562 0.0685746 -0.044975836
-0.10540895 0.21407984 0.13977778 0.16943592 0.04807889 -0.12985562 -0.20045 -0.24013859
-0.01490689 0.049025103 0.14541906 -0.034250606 0.022796514 -0.17371109 -0.03967956 0.13455318
-0.26171547 -0.16610159 -0.017588539 -0.094724566 0.10455099 -0.08432977 -0.13489904 0.17414725
0.16440336 -0.14779821 -0.1465545 -0.006107361 -0.19757172 -0.09554276 0.07208244 -0.15459056
0.07105847 0.104883656 -0.17818825 -0.1664468 -0.2083912 -0.0959549 -0.24189283 0.07544672
0.051956017 -0.08657356 -0.117492065 0.116464615 -0.17226593 0.09234112 0.12402148 -0.16673394
0.052998926 0.14287011 -0.036372066 -0.21773343 0.071863264 -0.17509973 -0.23261765 -0.20297056
0.008539663 0.038983263 0.15133037 -0.17224433 0.12884086 -0.09046624 0.17172074 -0.06544625
-0.13903844 0.07725407 -0.022208845 0.14205052 -0.06753805 -0.18854244 -0.10817382 -0.20321906
0.05200547 -0.04006995 0.14165373 -0.15565109 0.05517158 -0.24893212 -0.049423907 -0.06751849
-0.045761235 -0.096706435 0.12349604 -0.17811288 0.14030382 -0.18364106 -0.16477567 0.19958548
0.0885473 -0.25097668 -0.24291068 0.085551806 -0.17882442 -0.1739931 0.027705012 -0.17051084
-0.1707039 -0.11711439 0.06962771 0.1112036 0.23091526 0.20490146 0.18895411 -0.12832847
-0.0005242687 0.24572806 0.10797744 -0.12678471 0.16441153 -0.10226675 -0.16655771 0.12545466
-0.15159956 -0.013393554 0.09493476 0.18365675 -0.12759145 0.22222239 0.12575561 0.15108895
-0.0008685631 -0.00096899935 -0.080698326 0.027418602 -0.012708634 0.24729514 -0.03922211 -0.10383161
0.16025065 -0.08352433 -0.15321733 -0.108906366 -0.093337215 0.12836906 0.0967326 0.108176254
0.003115855 -0.151068 -0.056053925 0.1884662 -0.086526856 0.2123413 0.076715335 -0.05248313
0.050293192 0.09342938 -0.09414198 0.1077442 -0.06812354 0.19749779 0.21373913 -0.1278808
-0.1526452 0.15423448 0.05109491 -0.04596803 0.048165284 0.26419315 -0.05277484 0.117691815

fc.0.bias f4 [32]
00000000: ba53 62bd 8d6b bbbd a934 b2bd d705 513d
00000010: f8f7 8eba d0e8 92bd f55f 4b3d 0e83 2bbd
00000020: f8a0 e1bd a99f 7fbd 0a6a 0abd a321 15bc
00000030: 11f1 923d 0e18 4abd 8822 aebd dee4 e63b
00000040: 9e14 183d f22b 92bd a1fe 55bd 5670 733b
00000050: 1c4b 173d d13d b73d be3a 833d c6a8 9fbd
00000060: 7bd7 cabc 8433 db3d d27f 913d 481e 7a3d
00000070: 36c1 dc3d 8ba0 943d 6131 e7bb 8e60 e43c
-0.05525563 -0.09151373 -0.087014504 0.05103096 -0.0010907641 -0.07173312 0.04965206 -0.04187303
-0.110170305 -0.062408123 -0.033792533 -0.009102258 0.07174886 -0.049339347 -0.0850268 0.007046326
0.037129037 -0.07137288 -0.052244786 0.0037145815 0.036936864 0.089473374 0.064076886 -0.07795863
-0.024760952 0.10703185 0.07104458 0.061064035 0.107790396 0.07257184 -0.007055447 0.027878072

fc.3.weight f4 [1, 32]
00000000: 40dc 26be 9242 5bbe 7050 75be ff12 d93e
00000010: 8bce be3e a439 44be 72fb 623e 7de6 cd3e
00000020: 98ef 4bbe ca72 6cbe ad2f c63e 8de7 43be
00000030: f4c6 8cbe ecdb 06be b72f 1bbe deb0 27be
00000040: 51cd 30be 88bd a73e 8529 8dbe 7ed8 4dbe
00000050: e469 933e acf2 c13e b72c bc3e 9a8d d43e
00000060: a8c9 6cbe 02d2 85be 933e 973e 0075 66be
00000070: 676b b53e 556d 31be c6ef 82be 2881 57be
-0.16294956 -0.21412113 -0.23956466 0.42397305 0.37266955 -0.19162613 0.22166231 0.4021491
-0.19915617 -0.23090664 0.3870825 -0.19131298 -0.2749554 -0.13169831 -0.1515492 -0.16376063
-0.17265822 0.32761788 -0.2757074 -0.20102116 0.28791726 0.37880456 0.36752865 0.41514283
-0.23123801 -0.26136786 0.29539928 -0.2250557 0.35433504 -0.17326863 -0.25573558 -0.21045363
