5 第五讲 机器学习训练模型的数学范式v16/models/model60.pth (torch, 112459 bytes, 21 tensors)

conv1.0.weight f4 [16, 3, 3, 3]
0	0xbc2009d8	-0.009767972
1	0xbde4c32e	-0.1117004
2	0x3e1fdb89	0.1561109
3	0xbd51a4d9	-0.0511826
4	0xbe044686	-0.12917528
5	0xbe2673f2	-0.16255167
6	0x3d335681	0.04378367
7	0xbe1f5794	-0.15560752
8	0x3dd1081f	0.10206627
9	0x3d9357d1	0.07194484
10	0x3e434657	0.19069801
11	0xbe051fb7	-0.1300038
12	0x3cff58a2	0.031170193
13	0x3d120c9a	0.03565655
14	0x3ce87b33	0.028379058
15	0x3dd3e0a6	0.10345583
16	0xb907d1f6	-0.0001295282
17	0xbd7f4136	-0.06231805
18	0x3e141076	0.14459404
19	0xbdf72086	-0.1206675
20	0xbe194cfa	-0.1497077
21	0x3dcedd71	0.1010083
22	0xbd5f7850	-0.0545581
23	0x3e1ef73f	0.15524004
24	0xbe028ce0	-0.12749052
25	0x3e186212	0.14881161
26	0x3d25a1ba	0.040437438
27	0xbd3bd3eb	-0.045856398
28	0x3e0ee4e4	0.13954502
29	0xbd945a03	-0.07243731
30	0x3b7bc24f	0.0038415377
31	0xbd9724cc	-0.07380065
32	0x3da5c803	0.0809479
33	0x3d68bb63	0.05681933
34	0x3e168f27	0.14703046
35	0xbdce854d	-0.10084019
36	0x3d2adf75	0.04171701
37	0xbbe82cf5	-0.0070854374
38	0x3e1ff9f8	0.156227
39	0xbe158b17	-0.1460384
40	0xbd8451cd	-0.06460915
41	0x3e21d288	0.15802968
42	0x3d819a07	0.063282065
43	0xbd5b3aa9	-0.05352274
44	0x3d937b72	0.0720128
45	0x3d51d6a6	0.051230095
46	0xbd8addda	-0.06780596
47	0xbe239261	-0.15973808
48	0xbe36250d	-0.17787571
49	0x3dcc72e1	0.09982849
50	0xbcbba10e	-0.022903945
51	0x3d9bbc72	0.076043025
52	0xbe285263	-0.16437678
53	0x3e2445c0	0.16042233
54	0x3d96be4f	0.07360517
55	0xbc3253d5	-0.010884245
56	0xbdaa62a3	-0.08319595
57	0xbcc2d377	-0.023782475
58	0xbe0a7081	-0.1351948
59	0xbe283574	-0.16426641
60	0xbd8fc7cb	-0.07020529
61	0x3de47684	0.111554176
62	0xbe2b028f	-0.16700195
63	0x3e2121d4	0.1573556
64	0x3dc94701	0.09827996
65	0xbe0efd3f	-0.13963793
66	0x3e2d00a9	0.16894783
67	0x3d6023da	0.05472169
68	0xbcf37215	-0.029717484
69	0x3cc80072	0.024414275
70	0x3d340a67	0.043955233
71	0x3e050a77	0.12992273
72	0x3e451c53	0.19249086
73	0x3d308693	0.04309709
74	0xbcc9e761	-0.024646463
75	0x3c91c3e7	0.017793609
76	0x3d258edc	0.040419444
77	0xbd9b39a1	-0.07579351
78	0xbda10977	-0.078631334
79	0xbe49dccf	-0.19713138
80	0x3e3b5560	0.18294287
81	0xbd985f92	-0.074401036
82	0xbc721907	-0.014776475
83	0xbe1fe405	-0.15614326
84	0xbb56aa29	-0.0032755232
85	0x3e282d22	0.16423467
86	0xbe19a242	-0.15003303
87	0x3dd373e0	0.10324836
88	0x3e420c29	0.18949951
89	0xbe3105ed	-0.17287417
90	0x3c259c43	0.0101080565
91	0x3d31929b	0.043352704
92	0x3cba8a73	0.022771096
93	0x3c940c77	0.01807235
94	0x3e31c551	0.17360426
95	0x3e370d87	0.17876254
96	0x3cdeff3e	0.027221318
97	0x3d9fafa0	0.0779717
98	0xbd6fb39c	-0.0585209
99	0xbd9fa927	-0.07795935
100	0xbd93a6bd	-0.07209537
101	0x3e159146	0.14606199
102	0x3e4c6be3	0.1996303
103	0x3e1699da	0.14707127
104	0x3d312c9b	0.04325543
105	0x3dd116b3	0.10209408
106	0xbd88c9bd	-0.066791035
107	0xbc0fa37b	-0.008767004
108	0xbe3d5b4d	-0.1849186
109	0x3d64f5c0	0.055898428
110	0xbdeeaf11	-0.11654485
111	0x3e24ef67	0.1610695
112	0x3c3446bb	0.011003192
113	0x3dc90be0	0.09816718
114	0xbd429f78	-0.047515363
115	0x3d2f8926	0.042855404
116	0xbe32a9f4	-0.17447644
117	0xbe3a9ddb	-0.1822428
118	0xbdda7627	-0.10667067
119	0x3e4c7ea2	0.19970182
120	0x3daac40a	0.08338173
121	0x3dd7becd	0.10534439
122	0x3e4b684c	0.19864005
123	0x3dbc42bd	0.09192417
124	0x3db39474	0.087685496
125	0xbd66ed4f	-0.05637866
126	0xbde9d675	-0.114178576
127	0x3dd7565c	0.105145186
128	0x3e1f7f21	0.1557584
129	0xbe2c0a78	-0.16800869
130	0x3d6232cf	0.055224236
131	0xbd4f5aa3	-0.050623547
132	0x3e288eb4	0.16460687
133	0xbd18ab57	-0.037272777
134	0xbd381210	-0.0449391
135	0xbd1d0ba2	-0.038341172
136	0xbd6db615	-0.058034975
137	0x3e1d723c	0.15375608
138	0xbdbe4267	-0.09290009
139	0x3d3df7b7	0.046378817
140	0x3b8e3fda	0.004341108
141	0x3e0d8d5b	0.13823454
142	0x3db28b4c	0.08717975
143	0xbe12585a	-0.14291516
144	0xbc461275	-0.012089361
145	0x399c2d03	0.00029788175
146	0xbd0897c9	-0.03334788
147	0x3e21e7e5	0.15811117
148	0x3e469299	0.1939186
149	0xbe0ccd5d	-0.13750215
150	0xbd6311b4	-0.055436805
151	0x3e43cce3	0.19121127
152	0x3d47a86f	0.048744615
153	0xbd9d8f2a	-0.07693322
154	0x3dda945f	0.10672831
155	0xbd1f9918	-0.03896436
156	0xbdb4e4bc	-0.0883269
157	0xbe4dbede	-0.20092341
158	0x3de86bcd	0.11348686
159	0xbd79cb11	-0.060984675
160	0xbe1bc55b	-0.15212004
161	0xbe1ad644	-0.15120798
162	0xbd0e3cc3	-0.034725916
163	0x3e04ae4d	0.12957115
164	0x3de0f4c2	0.10984184
165	0x3df93eb4	0.12170163
166	0xbd975e0e	-0.073909864
167	0xbe173f85	-0.14770325
168	0xbd1a4ef7	-0.037672963
169	0xbdad7d7f	-0.08471202
170	0x3d9c7795	0.07639996
171	0x3dfd8dbb	0.123805486
172	0xbd6d4fba	-0.05793736
173	0xbe44b418	-0.19209325
174	0x3e20425c	0.15650314
175	0x3d84d7df	0.06486487
176	0xbded8bd6	-0.11598937
177	0xbd6ab383	-0.057300102
178	0xbcdf4ba5	-0.02725775
179	0xbde31b68	-0.11089212
180	0x3e2419f3	0.16025524
181	0x3d4cd182	0.05000449
182	0xbe08675f	-0.13320683
183	0xbdfd3cb1	-0.123650916
184	0xbdbc91c8	-0.09207493
185	0xbe48c9c6	-0.1960822
186	0xbcace9c2	-0.021107558
187	0xbd81ba23	-0.06334331
188	0xbde31b19	-0.11089153
189	0x3c949981	0.018139603
190	0xbdc594cf	-0.096475236
191	0x3dce2fe9	0.10067732
192	0x3dcdf4a8	0.1005643
193	0xbd85e8d0	-0.06538546
194	0xbdb9f292	-0.0907947
195	0xbe48008b	-0.19531457
196	0xbc9e37d5	-0.019313732
197	0xbe26d4da	-0.16292134
198	0x3e35fa5e	0.17771289
199	0x3dd216d7	0.102582626
200	0xbbd23cb4	-0.006415928
201	0xbc71e02a	-0.0147629175
202	0xbc2b928e	-0.010471953
203	0x3e3cbdfb	0.18431847
204	0xbcc2efb2	-0.023795936
205	0x3d100b82	0.035167225
206	0x3de77d3b	0.11303183
207	0x3d73c379	0.05951259
208	0xbcf3e2a2	-0.029771153
209	0x3deb2486	0.11481576
210	0xbe29614d	-0.16541024
211	0x3c6b5bdb	0.014365162
212	0xbe5acc6c	-0.21367043
213	0x3da4b214	0.08041778
214	0x3ddaa272	0.10675515
215	0xbd7eecae	-0.062237434
216	0xbe2028f5	-0.15640624
217	0xbd8d9adf	-0.06914305
218	0x3d268c46	0.04066112
219	0xbe0faf91	-0.14031817
220	0xbc64c2b3	-0.013962436
221	0xbda42aac	-0.080159515
222	0xbddb650c	-0.107126325
223	0x3dbd0bed	0.0923079
224	0xbe02b416	-0.1276401
225	0x3dabbad6	0.083852455
226	0xbdd238b5	-0.10264722
227	0x3bd56594	0.006512353
228	0x3e36176c	0.17782372
229	0xbdee34a9	-0.11631138
230	0xbde509e4	-0.11183527
231	0x3dbf0ae3	0.09328248
232	0x3d9cf4c5	0.076638736
233	0xbdf9e08c	-0.12201032
234	0x3dc0cbb4	0.09413853
235	0xbe048228	-0.12940276
236	0xbe3940c2	-0.1809111
237	0xbd846645	-0.06464819
238	0x3e3093ed	0.17243929
239	0x3d2b8577	0.04187533
240	0x3e1ce10f	0.15320228
241	0x3d59c586	0.05316689
242	0xbca4cb83	-0.020116573
243	0x3e377ea9	0.17919411
244	0x3db4647b	0.08808228
245	0x3d72cf93	0.05927999
246	0xbe22daf6	-0.1590384
247	0xbe016a14	-0.12638122
248	0x3e0dd5f7	0.13851152
249	0x3e425f33	0.18981628
250	0x3d4c0ba1	0.049815778
251	0x3da772ae	0.0817617
252	0xbe19f542	-0.15034965
253	0xbd73a71e	-0.059485547
254	0xbd29978b	-0.04140429
255	0xbdca5d75	-0.09881107

conv1.0.bias f4 [16]
0	0x3dc5836c	0.09644207
1	0x3e0794a3	0.13240294
2	0x3db54a7b	0.08852097
3	0x3d1ed50c	0.038777396
4	0xbe3aa239	-0.18225946
5	0x3ae2d3ff	0.0017305611
6	0x3e001422	0.1250768
7	0x3d0a54c5	0.03377225
8	0xbe3d6c99	-0.18498458
9	0x3c92eb31	0.017934414
10	0x3e16c21e	0.14722487
11	0xbe087885	-0.13327225
12	0x3e19fa4a	0.15036884
13	0xbe2c9a5b	-0.16855757
14	0x3b5a8d90	0.0033348538
15	0x3e504ef8	0.20342624

conv1.3.weight f4 [16]
0	0x3f77e72d	0.9683712
1	0x3f7d21c3	0.9887964
2	0x3f82cfd2	1.0219672
3	0x3f6e5e1c	0.9311235
4	0x3f834b44	1.0257344
5	0x3f81ed24	1.0150495
6	0x3f7f8002	0.998047
7	0x3f776e6a	0.96652853
8	0x3f785808	0.97009325
9	0x3f852a8c	1.0403609
10	0x3f746c91	0.9547816
11	0x3f8c0793	1.0939811
12	0x3f72e607	0.94882244
13	0x3f842351	1.0323278
14	0x3f760503	0.961014
15	0x3f7da0ae	0.990733

conv1.3.bias f4 [16]
0	0xbc1b8800	-0.009492874
1	0x3dd9b77a	0.106306985
2	0xbcb476bc	-0.022029273
3	0x3c6ef355	0.014584382
4	0x3d9b491e	0.07582305
5	0xbd48e2e0	-0.04904449
6	0x3d8ed209	0.06973655
7	0xba9faa79	-0.0012181542
8	0x3e02db6b	0.12779014
9	0x3d2c4091	0.042053763
10	0xbdc1cd2e	-0.09462963
11	0x3c37c874	0.011217225
12	0xbcd5eaba	-0.026112903
13	0x3d67a20d	0.056551028
14	0x3a712ca0	0.000920007
15	0xbd6fdc64	-0.05855979

conv1.3.running_mean f4 [16]
0	0x3dcb3412	0.09922041
1	0x3e69c55d	0.22829194
2	0x3e07268a	0.13198295
3	0x3ec2f9a2	0.3808108
4	0x3d092828	0.03348556
5	0x3c5d7792	0.013517277
6	0x3caa974d	0.020824099
7	0x3d9436c6	0.0723701
8	0x37938045	1.7583496e-05
9	0x3d0d412b	0.034485977
10	0x3eafeadf	0.3435888
11	0x3c4a6472	0.01235305
12	0x3e0179bb	0.12644093
13	0x3c0cb109	0.00858713
14	0x3dba981b	0.09111043
15	0x3e05d5a3	0.13069777

conv1.3.running_var f4 [16]
0	0x3ab6e17a	0.0013952695
1	0x3b5ce931	0.003370833
2	0x3b80db44	0.0039323885
3	0x3d403fd8	0.046935886
4	0x3b46182a	0.0030226805
5	0x3a530071	0.0008049077
6	0x3aeb101a	0.0017933876
7	0x3b00d189	0.0019656143
8	0x3617564b	2.2550983e-06
9	0x3b07bf8f	0.0020713543
10	0x3cb57486	0.02215029
11	0x3a82c5e3	0.0009977188
12	0x3aa3c257	0.0012493831
13	0x3a2b4512	0.00065334246
14	0x3bc5d0d7	0.0060368585
15	0x3b3bad2b	0.0028637152

conv2.0.weight f4 [32, 16, 3, 3]
0	0xbc83e5e9	-0.01610084
1	0xbd1f9e8f	-0.038969573
2	0xbc4ff59c	-0.012692835
3	0xbc71afe9	-0.014751413
4	0x3d6a5080	0.057205677
5	0x3c756da2	0.014979752
6	0x3d2ec4ba	0.04266808
7	0xbcba0ca5	-0.022711108
8	0xbc3a28e1	-0.011362285
9	0xbd280a9d	-0.041025747
10	0xbdb350b1	-0.08755625
11	0xbd542469	-0.051792536
12	0xbc4f3cb6	-0.012648752
13	0x3d0a8520	0.033818364
14	0xbd0c88b2	-0.03431005
15	0xbcdfc0b2	-0.027313564
16	0xbd3f1875	-0.046654183
17	0x3d3a09fd	0.04541968
18	0x3dc3445a	0.095345214
19	0xbd04f738	-0.03246233
20	0xbdb8e66e	-0.09028326
21	0x3d9793cb	0.07401236
22	0x3d7b66fa	0.061377503
23	0xbd8f2519	-0.06989498
24	0xbd8f29a1	-0.06990362
25	0xbd44a8e7	-0.04801264
26	0xbd878a27	-0.06618147
27	0x3db5d602	0.088787094
28	0x3d42ddbe	0.04757475
29	0xbd7054c9	-0.058674607
30	0xbc0e5e57	-0.008689485
31	0x3d7e1136	0.062028132
32	0xbcc19d89	-0.023634689
33	0x3d00026c	0.03125231
34	0x3bb480d2	0.0055085206
35	0x3d1b0a1e	0.037851445
36	0x3d1b5a24	0.03792776
37	0x3d1daf93	0.03849752
38	0xbcff66bd	-0.03117692
39	0xbde25300	-0.11050987
40	0xbc8032b6	-0.01564918
41	0x3c2aff28	0.010436811
42	0xbd608e52	-0.054823227
43	0xbd59f72a	-0.05321423
44	0x3c8a3e91	0.016875537
45	0x3c94ff89	0.018188255
46	0x3d8b3c74	0.0679864
47	0x3dad11ae	0.08450638
48	0xbd381b22	-0.04494775
49	0x3d7c8f68	0.0616602
50	0x3d28db76	0.04122492
51	0x3db556a7	0.08854418
52	0x3dced4f3	0.100992106
53	0x3d919c1e	0.07109855
54	0x3d8179db	0.0632207
55	0x3cacc810	0.021091491
56	0xbd15b128	-0.036545902
57	0xbcf8fd50	-0.030394226
58	0x3d3f9dbb	0.046781283
59	0xbcb09715	-0.021556417
60	0x3d4bbc61	0.0497402
61	0x3d203983	0.039117347
62	0x3d7ab9a6	0.061212204
63	0x3d87b1e4	0.06625727
64	0xbd6729d2	-0.056436367
65	0xbcace539	-0.021105396
66	0x3d98ec1e	0.07466911
67	0x3d894cfc	0.06704137
68	0xbd227bb9	-0.039668772
69	0x3d398391	0.045291487
70	0xbd6a0761	-0.057135943
71	0xbd0daa5b	-0.03458629
72	0xbcbe5475	-0.023233632
73	0xbe0abef9	-0.13549413
74	0xbd597da1	-0.053098325
75	0xbe05fafb	-0.13084023
76	0xbe2bb36b	-0.16767661
77	0xbdf9c0b2	-0.12194957
78	0xbdd75720	-0.10514665
79	0xbd707055	-0.05870088
80	0xbe17de96	-0.14831004
81	0xbe0c7b82	-0.1371899
82	0xbd82a730	-0.06379545
83	0x3cb6b89d	0.022304827
84	0xbd96c426	-0.07361631
85	0x36c6796d	5.9149957e-06
86	0x3ce0a4fe	0.027422424
87	0xbdf318a0	-0.11869931
88	0xbe00a522	-0.12562993
89	0x3ccd84da	0.025087763
90	0x3d9c019e	0.07617496
91	0xbc8d7d5c	-0.01727169
92	0xbc2c2332	-0.010506438
93	0xbd6bafa0	-0.057540536
94	0x3cb862a5	0.022507975
95	0xbce09c31	-0.027418228
96	0x3db019c4	0.085986644
97	0x3d23f35d	0.04002701
98	0x3ccd2286	0.025040876
99	0x3aa9fee6	0.0012969642
100	0x3bac283c	0.0052538197
101	0x3d7389ad	0.05945747
102	0xbd9bd060	-0.07608104
103	0xbda97f29	-0.08276207
104	0xbdda5382	-0.10660459
105	0xbc8889c8	-0.016667262
106	0x3d95cb7e	0.07314204
107	0x3d527ebc	0.051390395
108	0x3d50586f	0.050865587
109	0xbcbbaf3a	-0.022910703
110	0x3d36c885	0.044624824
111	0x3d307781	0.043082718
112	0xbb541a76	-0.0032364405
113	0x3b35d79a	0.0027746917
114	0xbd2c2b49	-0.042033467
115	0x3cb0d177	0.021584256
116	0xbd7c983f	-0.06166863
117	0x3d5b2b09	0.05350784
118	0xbd9d408c	-0.07678327
119	0xbdf62d89	-0.12020404
120	0xbd3233b8	-0.043506354
121	0xbd9a9c5d	-0.07549355
122	0xbcd2de2b	-0.025740704
123	0xbe14b54f	-0.14522289
124	0xbd783b05	-0.06060316
125	0x3d2a28f9	0.04154298
126	0x3c90f5c2	0.017695311
127	0xbd78dfca	-0.060760297
128	0xbd201869	-0.03908578
129	0xbd1b6d05	-0.037945766
130	0xbd8bb498	-0.06821555
131	0xbd9cc26f	-0.07654273
132	0xbd30084c	-0.042976663
133	0x3cbe362f	0.023219196
134	0x3c8ba317	0.01704554
135	0xbd2e9efe	-0.042632096
136	0x3bb77b34	0.0055994038
137	0x3cfe6cf9	0.031057822
138	0x3c17c045	0.009262149
139	0xbd818cda	-0.063256934
140	0xbd243f65	-0.04009952
141	0x3d40c814	0.04706581
142	0x3d8fcfcd	0.07022057
143	0x3c64d82a	0.013967553
144	0x3d18cd64	0.03730525
145	0xbcbe9872	-0.023266051
146	0x3cd23128	0.025658205
147	0x3dabf9e2	0.08397271
148	0x3c905c23	0.01762206
149	0xbd61ddd0	-0.055143178
150	0x3ca077d6	0.019588392
151	0x3d4ff280	0.050768375
152	0x3d8364d0	0.06415713
153	0xbd17e454	-0.037082985
154	0x3c9b4074	0.018951632
155	0xbd3ca7ad	-0.046058346
156	0xbd9188ee	-0.071061954
157	0x3d027e21	0.031858567
158	0xbde36760	-0.111037016
159	0x3cc1f6e8	0.023677304
160	0xbb57905c	-0.0032892441
161	0xbcce1ca0	-0.025160134
162	0x3ce79f8f	0.028274326
163	0x3da08462	0.0783775
164	0x3d6c3b05	0.057673473
165	0x3dc62f75	0.096770205
166	0xbd64a9c3	-0.05582596
167	0x3d010273	0.031496476
168	0x3dac32e2	0.084081426
169	0xbc22c301	-0.009934188
170	0x3daf5c6c	0.0856255
171	0x3d8bc227	0.06824141
172	0x3bae9fd9	0.005329114
173	0xbbfddb9c	-0.0077471267
174	0xbbcce08d	-0.0062523545
175	0xbc8dffc2	-0.017333869
176	0x3daca959	0.08430738
177	0x3d40582e	0.046959095
178	0xbcb187ea	-0.021671254
179	0x3dbdfbc7	0.09276538
180	0x3ceaeb8a	0.028676767
181	0x3cc8f52d	0.024530971
182	0xbd457dea	-0.048215784
183	0x3d28b927	0.0411922
184	0x3d5c2cea	0.05375377
185	0x3d5109db	0.05103479
186	0x3d7829c0	0.06058669
187	0xba64cdd0	-0.0008728178
188	0x3d610bf7	0.05494305
189	0x3a95f77a	0.0011441552
190	0xbda130d2	-0.0787064
191	0x3aeeed47	0.0018228673
192	0xbd854738	-0.065077245
193	0xbe0118e8	-0.12607157
194	0xbda7a23c	-0.081852406
195	0x3c81ffb7	0.015869005
196	0xbd05e054	-0.03268464
197	0xbd97022e	-0.073734626
198	0xbd31293b	-0.04325221
199	0xbd2ed06d	-0.04267924
200	0x3d617a0b	0.05504803
201	0x3dbbc557	0.09168499
202	0x3cb64aff	0.022252558
203	0x3d6ef9f9	0.05834386
204	0x3c46b0fc	0.012127157
205	0xbd9a06cf	-0.0752083
206	0x3d582181	0.052766327
207	0xbd5da025	-0.054107804
208	0x3d832995	0.064044155
209	0x3d1fb772	0.038993306
210	0xbd4cf7ec	-0.050041124
211	0xbd83227d	-0.064030625
212	0xbd62fec5	-0.05541875
213	0xbba4d4a1	-0.00503023
214	0xbdb985e7	-0.09058743
215	0x3c734d9c	0.0148500465
216	0x3cb75ad4	0.022382177
217	0xbd20f12c	-0.0392925
218	0x3d141e14	0.036161497
219	0xbdc1778a	-0.094466284
220	0x3cdc8039	0.02691661
221	0xbc97fcc1	-0.01855314
222	0xbcb6250d	-0.022234464
223	0xbdb59e38	-0.088680685
224	0xbd68d343	-0.0568421
225	0x3d0a73a9	0.03380171
226	0xbdb28663	-0.087170385
227	0xbd85f9c8	-0.065417826
228	0x3d311b45	0.043238897
229	0xbc016108	-0.007896669
230	0xbd9daca3	-0.076989435
231	0x3db308aa	0.08741887
232	0xbcc03ff0	-0.023467988
233	0xbcab332b	-0.020898422
234	0x3d201298	0.039080232
235	0xbcca1cf3	-0.024672007
236	0x3dcba296	0.0994312
237	0x3dde9d5b	0.10869857
238	0x3def5b2c	0.116873115
239	0x3ab7ff6b	0.0014037912
240	0x3c4e34b7	0.01258581
241	0x3e022caa	0.1271235
242	0x3d84480e	0.06459056
243	0x3ca9b367	0.020715429
244	0x3d5ce6fe	0.05393123
245	0x3d9b5fb8	0.07586616
246	0xbd6a2a49	-0.057169233
247	0xbb146eb9	-0.0022649004
248	0xbc812b73	-0.015767789
249	0x3cf74169	0.030182557
250	0x3ce6eaad	0.028188074
251	0x3d159eb6	0.03652831
252	0x3d888dd7	0.06667679
253	0x3d27fe88	0.041014224
254	0x3d3575c5	0.044301767
255	0x3d4258f9	0.047448132

conv2.0.bias f4 [32]
0	0xbd858732	-0.06519927
1	0xbd9032b2	-0.07040919
2	0xbdafae3e	-0.08578156
3	0x3d961bca	0.07329519
4	0xbd904e78	-0.07046217
5	0xbd77577a	-0.06038616
6	0x3d702b57	0.058635082
7	0x3bb2ab68	0.005452562
8	0xbdb18019	-0.08667011
9	0x3c4270ac	0.011867683
10	0x3cdab832	0.02669916
11	0xbdf4946f	-0.11942374
12	0xbb6b3b09	-0.0035893342
13	0xbdbb81ec	-0.0915564
14	0xbe4c2f8b	-0.19940011
15	0xbcf3ba8f	-0.029752044
16	0xbd5b9606	-0.05360987
17	0xbb9b2149	-0.0047341925
18	0xbd9a604c	-0.075378984
19	0x3d9fa85d	0.077957846
20	0xbba0ebd5	-0.004910926
21	0xbdbbec75	-0.0917596
22	0xbd8fe835	-0.07026712
23	0xbd8c107d	-0.068390824
24	0x3c5f6d1e	0.013636855
25	0xbe127057	-0.14300667
26	0xbddea3ad	-0.108710624
27	0x3c971665	0.018443296
28	0xbdb183c7	-0.08667713
29	0xbdbeb305	-0.09311489
30	0xbdfd0953	-0.12355294
31	0xbdce14ec	-0.10062584

conv2.3.weight f4 [32]
0	0x3f834ce4	1.025784
1	0x3f766e76	0.962623
2	0x3f8368cb	1.0266355
3	0x3f70aa8b	0.9401023
4	0x3f7cca39	0.9874607
5	0x3f79e78f	0.97618955
6	0x3f6cc993	0.9249508
7	0x3f81065e	1.0080068
8	0x3f7cca58	0.9874625
9	0x3f815dfa	1.0106804
10	0x3f8028b8	1.0012426
11	0x3f7ac954	0.9796345
12	0x3f839201	1.0278932
13	0x3f816bf5	1.0111071
14	0x3f81707f	1.0112456
15	0x3f8242e2	1.0176661
16	0x3f652ac1	0.8951836
17	0x3f6a81d3	0.91604346
18	0x3f816a4f	1.0110568
19	0x3f775c3b	0.9662511
20	0x3f789627	0.97104114
21	0x3f7285d2	0.94735444
22	0x3f8340a1	1.0254098
23	0x3f83c9ba	1.0295937
24	0x3f822c3f	1.0169753
25	0x3f835789	1.0261089
26	0x3f81c678	1.0138693
27	0x3f6f9a0a	0.9359442
28	0x3f722158	0.9458213
29	0x3f7992a9	0.9748941
30	0x3f76f2a3	0.96463984
31	0x3f74f9bc	0.95693564

conv2.3.bias f4 [32]
0	0xbc2184c3	-0.009858313
1	0x3e826e37	0.25474712
2	0x3ca66546	0.020311963
3	0xbdaf9266	-0.08572845
4	0x3dd43178	0.10360998
5	0xbd9f73a0	-0.077857256
6	0x3e947b74	0.29000437
7	0x3ca255b3	0.019816255
8	0xbceabf52	-0.028655682
9	0x3e369018	0.17828405
10	0xbd5b1ddb	-0.05349527
11	0x3ea71f99	0.32641295
12	0xbddef756	-0.10887019
13	0x3ddbad99	0.107264705
14	0x3e75c4cf	0.24000858
15	0xbd93e4ca	-0.072213724
16	0x3dbbfdb3	0.09179249
17	0x3d50c823	0.050972115
18	0xbcd39a31	-0.02583036
19	0xbd54b1dc	-0.051927432
20	0x3daf9906	0.08574109
21	0x3e11877d	0.14211841
22	0x3e6e2afb	0.23258583
23	0x3d8cb528	0.0687049
24	0x3e453660	0.19259024
25	0x3e716d19	0.23576774
26	0xbd83a8ba	-0.064286664
27	0xbdbe916f	-0.09305083
28	0x3e5e8f62	0.21734384
29	0x3e367d88	0.17821324
30	0x3e29b950	0.16574597
31	0x3e70e412	0.23524502

conv2.3.running_mean f4 [32]
0	0x3e3ca197	0.18421017
1	0x3f0677d3	0.5252659
2	0x3e46b0ca	0.19403377
3	0x3f457dda	0.7714516
4	0x3ec26048	0.37964082
5	0x3e486f9c	0.19573826
6	0x3ee3df5f	0.44506356
7	0x3e84b8c0	0.25922203
8	0x3ebde118	0.37085795
9	0x3ee7feec	0.45311677
10	0x3e4b071a	0.19826928
11	0x3e452ccd	0.19255371
12	0x3ec543b8	0.38528228
13	0x3ec2cad8	0.38045382
14	0x3e4df9e2	0.20114854
15	0x3e75b8ce	0.23996279
16	0x3f07b8df	0.53016466
17	0x3ee35926	0.44403952
18	0x3e381dd8	0.17980134
19	0x3efe39cb	0.49653468
20	0x3ed3a67f	0.41337964
21	0x3ed35e15	0.41282716
22	0x3ecf7e25	0.40525928
23	0x3e5c2e79	0.21502103
24	0x3ed10e4c	0.4083122
25	0x3e83ee00	0.25767517
26	0x3e8788ca	0.2647155
27	0x3e88deaf	0.26732394
28	0x3e2528e4	0.1612888
29	0x3ec05974	0.37568247
30	0x3ea23045	0.31677452
31	0x3e0a1cae	0.13487503

conv2.3.running_var f4 [32]
0	0x3d9f3263	0.077732824
1	0x3f4f57e3	0.8099348
2	0x3db2ef07	0.08736997
3	0x3f5690cc	0.8381469
4	0x3eabcdd4	0.33555472
5	0x3dbd523d	0.09244201
6	0x3e3c4b3a	0.18388072
7	0x3e6634ab	0.22481029
8	0x3ebe5c69	0.37179878
9	0x3e4c155d	0.19930024
10	0x3dc58530	0.09644544
11	0x3dbe50fa	0.09292789
12	0x3e297a83	0.16550641
13	0x3f015b28	0.5052972
14	0x3e9601e7	0.29298326
15	0x3de539c2	0.11192657
16	0x3f31ccd1	0.6945315
17	0x3ecf1da1	0.40452293
18	0x3dcd715b	0.100313865
19	0x3eb23e58	0.3481319
20	0x3e74193a	0.23837748
21	0x3f0eae78	0.5573497
22	0x3ed8f717	0.42376015
23	0x3dee3dcd	0.11632881
24	0x3ea6bc27	0.32565424
25	0x3e18af3a	0.14910594
26	0x3ded3ea5	0.11584214
27	0x3dca5a7f	0.09880542
28	0x3e2bf1a4	0.16791397
29	0x3f0e7674	0.55649495
30	0x3e9154c5	0.28384987
31	0x3dc336f3	0.09531965

conv3.0.weight f4 [64, 32, 3, 3]
0	0xbd00bc83	-0.03142978
1	0xbd048abd	-0.032358874
2	0xbd5f757f	-0.054555412
3	0xbd334de6	-0.04377546
4	0xbd1fad6b	-0.038983744
5	0xbd81674e	-0.06318532
6	0xbd946662	-0.072460905
7	0xbbd3c6b0	-0.0064628944
8	0xbe01b2d2	-0.12665871
9	0xbd3123f1	-0.043247167
10	0x3d3f01e6	0.04663267
11	0x3b844917	0.0040370333
12	0xbbd2359b	-0.0064150817
13	0xbd1b166a	-0.037863173
14	0xbc1ad7a6	-0.009450829
15	0x3b7d0c4e	0.003861207
16	0xbbbc374c	-0.0057438966
17	0x3d866de5	0.065639295
18	0xbce50e6c	-0.027960978
19	0xbccf1688	-0.025279298
20	0xbdd30105	-0.10302929
21	0x3bd21efc	0.006412385
22	0xbc1f133b	-0.009709175
23	0xbcf8f6a0	-0.030391037
24	0xbdb7980f	-0.0896455
25	0xbb38ae72	-0.002818015
26	0xbd4a6072	-0.049408384
27	0x3d249e63	0.04019011
28	0xbcf6cea1	-0.030127825
29	0x3d92578a	0.07145603
30	0xba56ed29	-0.0008198792
31	0xbce9ea7d	-0.028554196
32	0x3be03e05	0.006843331
33	0xbc92015a	-0.01782291
34	0x3ae02e31	0.001710361
35	0xbcde9f80	-0.027175665
36	0xbd8c66b0	-0.068555236
37	0xbd67dc9c	-0.056606874
38	0xbcadd8c5	-0.021221528
39	0xbc41e119	-0.011833453
40	0xbd66ff26	-0.056395672
41	0xbd136920	-0.035988927
42	0xbcaa2b20	-0.020772517
43	0x3bc39449	0.0059686047
44	0xbc111fdd	-0.008857694
45	0xbcc64560	-0.024203002
46	0xbc4aaa96	-0.012369772
47	0xbc86284c	-0.016376637
48	0x3ced64de	0.028978761
49	0x3cda99c3	0.026684647
50	0x3c7a3012	0.01527025
51	0xbc3e8c50	-0.011630133
52	0x3d12bc60	0.03582418
53	0x3c9a1854	0.018810429
54	0x3b6479de	0.0034862678
55	0xbda37abe	-0.079823956
56	0xbc8f858c	-0.017519735
57	0x3c8fac5b	0.01753824
58	0xbd82a959	-0.06379957
59	0xbd1f1c3c	-0.038845286
60	0xbd5c57d6	-0.053794704
61	0xbc82d753	-0.015971815
62	0xbd67bec2	-0.056578405
63	0xbd1bd2a5	-0.038042683
64	0xbd0e91db	-0.034807067
65	0xbd0f43d0	-0.03497678
66	0xbd1289c4	-0.035775915
67	0x3ccf8f1e	0.025336798
68	0xbd23fd7b	-0.04003666
69	0xbc5f7088	-0.013637669
70	0x3d5fac96	0.05460795
71	0x3d1d4d3b	0.03840373
72	0x3b7f1c54	0.0038926797
73	0x3d9529da	0.07283373
74	0x3d545582	0.05183936
75	0x3d716bab	0.05894057
76	0x3d0e3b62	0.0347246
77	0x3c9038b8	0.01760517
78	0xbd5b0084	-0.05346729
79	0x3d54f157	0.051987972
80	0x3d17a06e	0.037018232
81	0x3cc65f55	0.02421538
82	0x3be9d2ca	0.0071357237
83	0x3cc4f374	0.024041869
84	0xbb4ec518	-0.0031550582
85	0x3d611c6a	0.05495874
86	0x3cf0cf4b	0.02939572
87	0x3cab4281	0.020905735
88	0x3ce399f9	0.02778338
89	0x3d48626a	0.04892198
90	0xbc899f02	-0.016799454
91	0xbc82c13d	-0.015961284
92	0x3d06e428	0.03293243
93	0xba16f98a	-0.000575923
94	0xbc98a393	-0.018632686
95	0x3ccc733f	0.024957297
96	0xbd1cbcbc	-0.03826593
97	0x3ad0c154	0.0015926757
98	0xbc4700d3	-0.012146193
99	0xbd0cd243	-0.03438021
100	0xbcac38c9	-0.021023171
101	0x3c2a23e6	0.010384535
102	0xbd63e345	-0.055636663
103	0xbd510b07	-0.051035907
104	0xbcf1d351	-0.029519709
105	0xbd78064a	-0.060552873
106	0xbd91dd65	-0.07122306
107	0xbd1b2fd3	-0.037887406
108	0xbc9b76fc	-0.018977635
109	0x3cf6308f	0.030052451
110	0x3c746e5b	0.014918889
111	0xbd38dc00	-0.045131683
112	0x3cd40805	0.02588273
113	0xbcd8c377	-0.026460392
114	0xbd3bad1d	-0.04581939
115	0x3bd44062	0.0064774016
116	0xbd0f9911	-0.035058085
117	0xbda0150d	-0.07816515
118	0xbd417a93	-0.047236037
119	0xbd503ffa	-0.050842263
120	0xbd9a8cf8	-0.07546419
121	0xbd1b7d07	-0.037961032
122	0xbbb1d425	-0.005426901
123	0xbd810fc8	-0.06301838
124	0x3d0b0a3a	0.0339453
125	0x3b7c6d28	0.003851721
126	0xbbe8ebe4	-0.0071081985
127	0x3d1bb3c3	0.03801323
128	0x3c340c80	0.010989308
129	0xbce96e0d	-0.02849486
130	0xbbfedfc5	-0.0077781403
131	0x3c098d59	0.008395516
132	0x3ba9c697	0.0051811445
133	0x3d124f3b	0.03572009
134	0xbc229846	-0.009924
135	0xbc2188ed	-0.009859306
136	0xbc15d242	-0.009144368
137	0x3cf15054	0.029457249
138	0xbb59b62d	-0.0033220157
139	0x3ade85d5	0.0016977141
140	0xbcace9d8	-0.0211076
141	0xbd202583	-0.039098274
142	0x3c7b4494	0.0153361745
143	0xbd0b6c0f	-0.0340386
144	0x3d872000	0.065979004
145	0x3b2286d4	0.0024799602
146	0xbcc85f78	-0.024459586
147	0xbcd0c0cc	-0.025482558
148	0x3cd3cf3e	0.025855657
149	0x3c634e06	0.013873583
150	0xbcf30f8a	-0.029670496
151	0x3d4a0b69	0.049327288
152	0x3d30d699	0.043173406
153	0x3c02a7df	0.007974594
154	0x3d261cd9	0.040554855
155	0x3d260842	0.04053522
156	0x39827744	0.00024884392
157	0x3d642e02	0.05570794
158	0xbd3e2dc2	-0.046430357
159	0x3cbd26df	0.023089824
160	0x3d7670d1	0.060166184
161	0x3d37ecc7	0.044903543
162	0xbc43cd76	-0.011950841
163	0x3d269547	0.040669706
164	0xbce3f1cd	-0.02782526
165	0x3cfecaa8	0.031102493
166	0x3cd0a396	0.025468629
167	0xbd54f637	-0.05199262
168	0xbccc1f2d	-0.02491721
169	0xbb6e726a	-0.0036384114
170	0x3c83f016	0.016105693
171	0xbd701c71	-0.058620874
172	0xbcd6535e	-0.0261628
173	0x3d2f1df3	0.04275317
174	0xbd155929	-0.036461983
175	0xbca9700e	-0.020683315
176	0xbbf95966	-0.007609534
177	0x3c0e9dc2	0.008704605
178	0x3d2dd5a3	0.042440068
179	0x3bbba1e4	0.005726086
180	0x3c85e071	0.016342374
181	0xbc99e110	-0.018784076
182	0xbd54679e	-0.05185663
183	0xbd1e7c36	-0.038692676
184	0xbc84003f	-0.016113399
185	0xbd63c1e6	-0.055604838
186	0xbd0e83c1	-0.03479362
187	0x3c56f18b	0.013119112
188	0x3b3f91d5	0.002923121
189	0xbcd8ca55	-0.026463667
190	0xbd1568ff	-0.036477085
191	0x3d08d195	0.033402998
192	0x3c0b0860	0.0084858835
193	0x3b8e498c	0.0043422636
194	0xbd323c39	-0.043514464
195	0x3c9783fa	0.018495549
196	0x3c99837d	0.018739456
197	0xbd23636e	-0.039889745
198	0x3c69d47e	0.0142718535
199	0xbb9715e1	-0.0046107625
200	0x3d5d5513	0.05403621
201	0xbcbb6a90	-0.022877961
202	0x3d98554a	0.074381426
203	0x3d51e583	0.05124427
204	0xbcb7d421	-0.022440018
205	0xbcd4f359	-0.025994943
206	0x3bf8ee3b	0.0075967587
207	0xbc897f32	-0.016784284
208	0xbd859a8c	-0.06523618
209	0xbdcfc76c	-0.101454586
210	0xbd5d382f	-0.05400866
211	0xbd3b2dc5	-0.045697946
212	0xbd067bb8	-0.03283283
213	0xbd59f4fa	-0.053212143
214	0xbd75a61b	-0.059972864
215	0xbde210b0	-0.11038339
216	0xbd42b924	-0.047539845
217	0xbd38b9a6	-0.045098923
218	0xbd9e9fa1	-0.077452905
219	0x3c104be4	0.008807156
220	0xbbc0f46c	-0.0058885124
221	0xbd545429	-0.051838074
222	0xbd3de6df	-0.046362754
223	0xbd5427c7	-0.051795747
224	0xbd3e5ceb	-0.046475332
225	0x3bd90b68	0.006623674
226	0x3d723ee6	0.059142016
227	0xbc7493b8	-0.014927797
228	0xbd046bca	-0.03232936
229	0x3cda5cb4	0.026655532
230	0x3bc6b7c3	0.0060643866
231	0xbd65070f	-0.055914935
232	0x3d3e2d45	0.04642989
233	0xbd2bfeb6	-0.04199096
234	0xbd141e9c	-0.036162004
235	0xbc1ec005	-0.009689336
236	0xbc1f01ad	-0.009704989
237	0xbc0a78e0	-0.00845167
238	0xbba56077	-0.0050469
239	0x3c64266f	0.013925179
240	0xbd816647	-0.06318336
241	0xbd6a73a2	-0.057239182
242	0x3bf9e2a4	0.0076258946
243	0xbc7d5fc4	-0.015464727
244	0xbd20e5aa	-0.039281525
245	0xbd5a890d	-0.053353358
246	0x3c02bfc7	0.007980294
247	0xbd2a1192	-0.041520663
248	0xbd7b70b2	-0.06138677
249	0xbd3f941b	-0.046772104
250	0xbb27e132	-0.0025616405
251	0x3c6de108	0.014518984
252	0xbc95aaf7	-0.018269999
253	0xbd3abb91	-0.045589034
254	0xbd60c95a	-0.054879524
255	0xbd92197f	-0.07133769

conv3.0.bias f4 [64]
0	0xbe0eeee7	-0.13958322
1	0xbc881fa3	-0.016616648
2	0xbd5853d1	-0.05281431
3	0xbdd8c2b5	-0.105840124
4	0xbb3dd7a6	-0.0028967648
5	0xbc30e634	-0.010797072
6	0xbdadc9f3	-0.084857844
7	0xbd912a3b	-0.07088133
8	0xbc1a5c7b	-0.009421463
9	0xbd7491bf	-0.059709307
10	0x3d5b9ca0	0.053616166
11	0xbdc7a061	-0.09747387
12	0xbd1fd678	-0.039022893
13	0x3c671276	0.0141035225
14	0xbda256df	-0.079267256
15	0xbca114be	-0.019663211
16	0xbd9d7c60	-0.07689738
17	0xbda8eeb8	-0.08248657
18	0xbd432939	-0.047646735
19	0xbddb316b	-0.10702785
20	0xbdb56489	-0.08857066
21	0xbd982152	-0.0742823
22	0xbd9729eb	-0.07381042
23	0xbd913728	-0.07090598
24	0xba0bd32d	-0.0005333897
25	0xbd2aa1ba	-0.04165814
26	0xbe04657b	-0.12929337
27	0xbd29e6e3	-0.041479956
28	0xbe287642	-0.16451362
29	0xbd45d17f	-0.048295494
30	0xbe0bb0fb	-0.13641731
31	0xbd53d2cd	-0.051714707
32	0xbd607b66	-0.054805182
33	0xbdfd8aa4	-0.12379959
34	0xbd8816d4	-0.06644979
35	0xbdb15104	-0.08658031
36	0x3b993f8b	0.0046767644
37	0xbcbbeb04	-0.022939213
38	0xbe025e17	-0.12731205
39	0xbdc6736c	-0.09689984
40	0xbdb44f9a	-0.08804245
41	0x3ac353c4	0.0014902283
42	0xbdce2d3c	-0.100672215
43	0xbd34425e	-0.044008605
44	0xbcb83411	-0.022485765
45	0xbd8ef332	-0.069799796
46	0xbcf82a0a	-0.030293483
47	0xba9821f8	-0.0011606803
48	0x3c4758fe	0.0121672135
49	0xbd9fd71b	-0.078047
50	0xbd8da6ef	-0.06916606
51	0xbd852514	-0.06501213
52	0xbdbb58f6	-0.09147827
53	0xbcd49897	-0.025951667
54	0xbc5c3589	-0.013440498
55	0xbdac8338	-0.084234655
56	0x3a8d415e	0.0010776927
57	0xbd3bcdca	-0.045850553
58	0xbbbee33c	-0.0058254283
59	0x3cf68f86	0.030097734
60	0x3cb074b0	0.021540016
61	0xbd51373e	-0.051078074
62	0xbdcc649e	-0.09980129
63	0xbdf0056c	-0.11719784

conv3.4.weight f4 [64]
0	0x3f85db3b	1.0457529
1	0x3f8573c1	1.042595
2	0x3f9444e5	1.1583525
3	0x3f944d35	1.1586062
4	0x3f95931d	1.168552
5	0x3f92bc97	1.1463803
6	0x3f9650e0	1.1743431
7	0x3f8364d5	1.0265146
8	0x3f765d5f	0.96236223
9	0x3f968443	1.1759113
10	0x3f954f59	1.166484
11	0x3f806415	1.0030543
12	0x3f9347f6	1.1506336
13	0x3f844ff8	1.0336905
14	0x3f87b30e	1.0601518
15	0x3f91536e	1.1353586
16	0x3f82cef2	1.0219405
17	0x3f865fa8	1.0497942
18	0x3f93e43c	1.1554027
19	0x3f8e27df	1.1105918
20	0x3f819784	1.0124364
21	0x3f98926e	1.1919687
22	0x3f942bbb	1.1575845
23	0x3f971aca	1.180505
24	0x3f846336	1.0342777
25	0x3f84b6d0	1.036829
26	0x3f838239	1.0274116
27	0x3f9734bf	1.1812972
28	0x3f84b330	1.0367184
29	0x3f8fd6f7	1.1237477
30	0x3f81baba	1.013511
31	0x3f80f8d4	1.0075936
32	0x3f8c9985	1.098435
33	0x3f87d7df	1.0612754
34	0x3f828520	1.0196877
35	0x3f838cbd	1.0277325
36	0x3f756c1d	0.9586809
37	0x3f971907	1.1804513
38	0x3f9561a0	1.1670418
39	0x3f945b2b	1.1590322
40	0x3f83644e	1.0264986
41	0x3f7ed699	0.995462
42	0x3f80a5cb	1.0050596
43	0x3f92b7ce	1.1462343
44	0x3f86ecc4	1.0541005
45	0x3f965d0c	1.1747146
46	0x3f90a7ae	1.1301172
47	0x3f7fb73f	0.99888986
48	0x3f92fe07	1.1483773
49	0x3f983f36	1.189429
50	0x3f8631cb	1.0483946
51	0x3f94b21b	1.1616853
52	0x3f80bf65	1.0058409
53	0x3f9030da	1.1264908
54	0x3f9a7ebe	1.2069929
55	0x3f850411	1.0391866
56	0x3f83a816	1.0285671
57	0x3f94a489	1.1612712
58	0x3f9453bc	1.1588054
59	0x3f75bc1d	0.95990163
60	0x3f94091c	1.156528
61	0x3f9573f5	1.1676012
62	0x3f805bcb	1.0028013
63	0x3f9056e6	1.1276519

conv3.4.bias f4 [64]
0	0x3b9ece3d	0.004846363
1	0x3c27131f	0.01019743
2	0xbbf37134	-0.0074292663
3	0xbc9a878c	-0.018863462
4	0xbbe8f410	-0.0071091726
5	0xbbb314cc	-0.0054651257
6	0xbc209e7a	-0.009803409
7	0x3bbaaa63	0.005696581
8	0xba362c6f	-0.000694937
9	0xba0942ac	-0.000523607
10	0xbb0ed03b	-0.0021791595
11	0x399a8b59	0.0002947699
12	0xbcf34a17	-0.029698415
13	0xbb8924e2	-0.004185305
14	0x3c8e4ee7	0.017371608
15	0xbc8ef68c	-0.017451547
16	0x3c85c267	0.01632805
17	0x3c823d94	0.015898503
18	0x3a238890	0.0006238306
19	0xbce34505	-0.027742872
20	0x3b5542d2	0.0032541049
21	0xbc7f146f	-0.015568837
22	0x3b857912	0.0040732706
23	0xbcb79c05	-0.022413263
24	0xbca9cc7c	-0.020727389
25	0x3af169b9	0.0018418349
26	0x3a3ffe23	0.0007323941
27	0xbced6939	-0.028980838
28	0xbc3173b7	-0.010830811
29	0xbc60a69d	-0.013711599
30	0x3c324c02	0.0108823795
31	0x3b0d23e9	0.0021536297
32	0x3b3cedf7	0.0028828362
33	0x3c3c0e56	0.011478027
34	0x3ae5c1ee	0.0017529109
35	0x3cab5779	0.020915734
36	0xbcb5ba84	-0.022183664
37	0xbc1ab919	-0.009443545
38	0xbc78b169	-0.015179017
39	0xbc9e350d	-0.019312406
40	0x3be3adf6	0.006948228
41	0x3cdeeab2	0.02721152
42	0x3d0e2f0c	0.034712836
43	0xbc33a6df	-0.010965078
44	0x3c9ca919	0.0191236
45	0xbc83656e	-0.016039576
46	0xbc64e995	-0.013971706
47	0x3c848f65	0.016181657
48	0xbd057717	-0.032584276
49	0xbb4e11f4	-0.0031443806
50	0x3c449673	0.0119987605
51	0x3af63454	0.0018783906
52	0x3b18c3e7	0.0023310126
53	0xbc174fc2	-0.009235324
54	0xbc40720c	-0.011745941
55	0x3b4ddc2f	0.0031411757
56	0x3ca80b82	0.0205133
57	0x3aaf2fc3	0.0013365675
58	0xbbfcde04	-0.007716896
59	0xbbd83e21	-0.006599203
60	0x3a06d960	0.0005144086
61	0x39c88fab	0.00038254014
62	0x3cfb3db1	0.030669065
63	0x3baa582b	0.0051984987

conv3.4.running_mean f4 [64]
0	0x3e83a073	0.2570835
1	0x3ed716a4	0.4200946
2	0x3ebeec77	0.37289783
3	0x3ebe0787	0.37115118
4	0x3ed92bdc	0.42416275
5	0x3ede2686	0.43388766
6	0x3eb56526	0.35428733
7	0x3ee2a8d0	0.4426942
8	0x3f08d57b	0.53450745
9	0x3ec4667f	0.38359448
10	0x3ef399bb	0.47578225
11	0x3f292ca7	0.6608376
12	0x3edb74df	0.42862603
13	0x3eeccae6	0.4624855
14	0x3ef7e06a	0.48413402
15	0x3ec1d09e	0.37854475
16	0x3ef0c80c	0.47027624
17	0x3e8d97c1	0.27654842
18	0x3eac8b17	0.33699867
19	0x3eb08283	0.34474573
20	0x3ea99755	0.3312327
21	0x3eaf562a	0.34245425
22	0x3ebecc0c	0.3726505
23	0x3ea61d21	0.324441
24	0x3efa15bb	0.48844704
25	0x3ede772f	0.43450305
26	0x3e91128d	0.28334466
27	0x3ed83029	0.42224243
28	0x3e9ffd6f	0.31248042
29	0x3ed1b4c0	0.40958214
30	0x3ed82ea2	0.42223078
31	0x3f1cb009	0.6120611
32	0x3eea6eba	0.45787603
33	0x3ec72e04	0.38902295
34	0x3e87698b	0.2644771
35	0x3f013c69	0.50482804
36	0x3f2d42cc	0.6768005
37	0x3eaaf19b	0.33387455
38	0x3e929672	0.28630406
39	0x3ec93e70	0.3930545
40	0x3eba14d9	0.3634403
41	0x3f1ebf76	0.62010896
42	0x3e88e639	0.26738146
43	0x3ea3c477	0.31985828
44	0x3eefd85d	0.4684476
45	0x3eb1f076	0.3475377
46	0x3ee93e1a	0.45555192
47	0x3eebb386	0.46035403
48	0x3ede5279	0.43422297
49	0x3ec24c03	0.37948617
50	0x3eea2f8d	0.45739403
51	0x3ee76dee	0.45201057
52	0x3ee6c1ba	0.45069677
53	0x3eeb6b77	0.45980427
54	0x3ecffa2c	0.40620553
55	0x3ece9373	0.4034687
56	0x3f101ef2	0.5629722
57	0x3eb5d8d8	0.35517
58	0x3ec040ca	0.3754943
59	0x3f6dfdf0	0.929656
60	0x3ec20a80	0.37898636
61	0x3eb4e0d5	0.35327783
62	0x3eb29e96	0.34886616
63	0x3e947a5e	0.2899961

conv3.4.running_var f4 [64]
0	0x3ec9290c	0.3928913
1	0x3f66e39b	0.9019105
2	0x3f9d7b65	1.2303282
3	0x3fb781e0	1.433651
4	0x3fe73a18	1.8064604
5	0x3ff123f4	1.8839097
6	0x3fc2176a	1.5163395
7	0x3f716ec3	0.94309634
8	0x3fc44ba6	1.5335586
9	0x3fbdd71f	1.4831275
10	0x400655b4	2.098981
11	0x403cfdc8	2.9529896
12	0x3fef4686	1.8693397
13	0x3f55eef6	0.8356775
14	0x3f9400e7	1.1562775
15	0x3fc20ce7	1.5160187
16	0x3f82e3b1	1.0225736
17	0x3ee115f0	0.4396205
18	0x3fa32c21	1.2747842
19	0x3faf0c72	1.3675673
20	0x3f11e62d	0.56991845
21	0x3fb18274	1.3867936
22	0x3fbac97a	1.4592736
23	0x3f917673	1.1364273
24	0x3f881ee4	1.0634427
25	0x3f72dc8a	0.94867766
26	0x3f16c1f3	0.58889693
27	0x3fcab550	1.5836582
28	0x3f1e0577	0.6172709
29	0x3fe95d02	1.8231509
30	0x3f867a28	1.0506029
31	0x3f912c86	1.1341712
32	0x400d7fde	2.2109294
33	0x3f5d7180	0.8650131
34	0x3ee2af51	0.4427438
35	0x3f94b0ca	1.1616452
36	0x3fdd9017	1.7309598
37	0x3f9ca052	1.2236426
38	0x3f7386f2	0.95127785
39	0x3fc4dbc5	1.5379568
40	0x3f31de75	0.6948007
41	0x3fcbb3d1	1.5914251
42	0x3ed997e1	0.42498687
43	0x3fa21f76	1.2665851
44	0x3f92572d	1.1432854
45	0x3fb24dfc	1.3930049
46	0x3fe3a086	1.7783363
47	0x3f9d19af	1.2273463
48	0x3fe37621	1.7770425
49	0x3fb5f5d9	1.4215652
50	0x3fa6650d	1.2999588
51	0x40085e65	2.1307614
52	0x3f75cdd2	0.9601718
53	0x4001410a	2.0195947
54	0x3fc2e5fb	1.5226434
55	0x3f2bdeb6	0.67136705
56	0x3f9f13f3	1.2427963
57	0x3fa17ba5	1.2615858
58	0x3fadf554	1.3590493
59	0x40ace719	5.40321
60	0x3fcd9ea9	1.6064044
61	0x3faf0d9b	1.3676027
62	0x3f389039	0.72095066
63	0x3f92590b	1.1433424

fc.0.weight f4 [32, 64]
0	0x3e006e9a	0.12542191
1	0x3e2260c9	0.15857233
2	0xbc272db4	-0.010203768
3	0xbd893b01	-0.06700707
4	0xbe791a12	-0.24326351
5	0xbb7cd5c9	-0.0038579574
6	0xbdaed4a6	-0.08536653
7	0xbbaa1edc	-0.005191667
8	0x3d748a75	0.059702355
9	0xbdd520ae	-0.10406624
10	0xbe2b0c1e	-0.16703841
11	0xbded117a	-0.11575599
12	0xbe11ce1e	-0.14238784
13	0x3d723581	0.059133057
14	0x3df28d59	0.11843366
15	0xbe41e6e4	-0.18935734
16	0x3ca461eb	0.020066222
17	0x3d4b401b	0.049621683
18	0xbe1ce40e	-0.15321371
19	0xbde4017b	-0.11133095
20	0xbd9a9f07	-0.07549863
21	0xbd4c01ec	-0.04980652
22	0xbd81c8ea	-0.063371494
23	0xbe77d386	-0.24201784
24	0x3db394c2	0.08768608
25	0xbad5fe96	-0.0016326483
26	0xbd1b1a5a	-0.037866928
27	0xbdf94e11	-0.12173093
28	0x3ddf55a1	0.10905004
29	0xbd8c8632	-0.06861533
30	0xbb1daefd	-0.00240606
31	0x3e0c04ac	0.13673657
32	0x3c44074d	0.011964631
33	0x3d416aa0	0.047220826
34	0x3d81593a	0.06315847
35	0x3e05d13d	0.130681
36	0x3d837435	0.06418649
37	0xbe38850f	-0.18019508
38	0xbd568278	-0.05237052
39	0xbe4f952e	-0.20271751
40	0x3d823afd	0.06358907
41	0x3d22fde4	0.03979291
42	0x3b589259	0.0033046214
43	0xbde0bb55	-0.10973231
44	0x3e09078e	0.13381788
45	0xbe5edda7	-0.21764241
46	0xbe22a9ea	-0.1588513
47	0xbb993cb8	-0.0046764277
48	0xbc679833	-0.014135408
49	0xbe0fc471	-0.1403978
50	0x3cc0963d	0.02350914
51	0xbe230aa7	-0.15922032
52	0x3d972a68	0.07381135
53	0xbe29be74	-0.16576558
54	0xbdce2e53	-0.100674294
55	0x3dfcc047	0.123413615
56	0x3d794a77	0.06086203
57	0xbd15a114	-0.03653057
58	0xbe41c98f	-0.18924545
59	0xbd37b3ed	-0.044849325
60	0xbda88313	-0.082281254
61	0xbd543272	-0.05180592
62	0xbb209818	-0.0024504717
63	0xbe10ea58	-0.14151895
64	0xbd0f7afb	-0.035029393
65	0xbc0825ff	-0.00830984
66	0xbdd2db8a	-0.1029578
67	0xbe320e4b	-0.17388265
68	0xbda4c2b9	-0.08044953
69	0xbc1ae66e	-0.009454353
70	0xbe119410	-0.14216638
71	0x3d93a060	0.072083235
72	0xbdaad51c	-0.08341429
73	0xbe265668	-0.16243899
74	0x3cad6b52	0.021169338
75	0xbd2e90f2	-0.0426187
76	0xbdd21d1c	-0.102594584
77	0x3dd33d03	0.103143714
78	0x3e2b7176	0.167425
79	0xbde22e21	-0.11043955
80	0x3e042d44	0.12907892
81	0x3d924328	0.07141715
82	0xbdc5c1a5	-0.096560754
83	0xbc34efe6	-0.011043524
84	0xbcd9ed9b	-0.026602557
85	0xbe4b5a5d	-0.1985869
86	0xbe4dd874	-0.20102102
87	0xbe45b488	-0.19307148
88	0xbb62138b	-0.0034496512
89	0x3df94ec3	0.12173226
90	0x3d120e07	0.03565791
91	0xbe203512	-0.15645245
92	0x3e0a376d	0.13497706
93	0xbe2beaa2	-0.16788724
94	0x3c89cc35	0.016821006
95	0xbd371b00	-0.044703484
96	0xbd5dd2c5	-0.054156084
97	0x3e2fc261	0.17163993
98	0x3df8f33e	0.1215577
99	0x3e155ed8	0.14586961
100	0x3d4bb401	0.049732212
101	0xbdcc874c	-0.09986743
102	0xbe1f717f	-0.15570639
103	0xbe50d6ea	-0.20394483
104	0xbd21571a	-0.039389707
105	0x3d0634f6	0.03276535
106	0x3db6d1a3	0.08926704
107	0xbb9e0d2c	-0.0048233476
108	0xbc5d2e68	-0.013499834
109	0xbdf5d9e0	-0.12004447
110	0x3c1dd982	0.009634377
111	0x3deed7aa	0.116622284
112	0xbe56f357	-0.20991264
113	0xbdaf994a	-0.085741594
114	0xbd84f772	-0.06492509
115	0xbd6c4fdb	-0.057693344
116	0x3dc79056	0.09744327
117	0xbd95a9ee	-0.07307802
118	0xbd98e80c	-0.074661344
119	0x3e27ae4e	0.16375086
120	0x3e051253	0.12995271
121	0xbdc1de4b	-0.09466227
122	0xbdc0c7a2	-0.09413077
123	0xbbc660f0	-0.0060540363
124	0xbe2118ba	-0.15732089
125	0xbd304fbf	-0.0430448
126	0x3d08ded7	0.03341564
127	0xbdb3e5a2	-0.08784033
128	0x3cc35478	0.023843989
129	0x3d82e8be	0.06392048
130	0xbe0fc1a9	-0.14038719
131	0xbe0de493	-0.13856725
132	0xbe416267	-0.18885194
133	0xbd828319	-0.06372661
134	0xbe48a96a	-0.19595876
135	0x3d3dc368	0.046328932
136	0x3d64d81c	0.05587016
137	0xbd2b4746	-0.04181602
138	0xbdf9aba5	-0.12190942
139	0x3db88ecc	0.09011611
140	0xbe1a1494	-0.15046912
141	0x3db40648	0.087902606
142	0x3dbe5e04	0.09295276
143	0xbdfe7de1	-0.12426353
144	0x3d2976a9	0.04137293
145	0x3da97cd9	0.08275766
146	0x3b477aee	0.0030438262
147	0xbe31f31d	-0.17377897
148	0x3d0098d4	0.03139575
149	0xbe10f6f9	-0.14156713
150	0xbe31baad	-0.17356367
151	0xbe27d198	-0.16388547
152	0xbd26f467	-0.040760424
153	0xbc0d50df	-0.008625238
154	0x3e03cd33	0.12871246
155	0xbe085971	-0.13315369
156	0x3de251f3	0.11050787
157	0xbc8cef11	-0.01720384
158	0x3e0e17b7	0.13876234
159	0xbd9db488	-0.07700449
160	0xbdd5ba17	-0.104358844
161	0x3d9d1152	0.07669319
162	0xbd3d70f7	-0.04625031
163	0x3dd1ef19	0.102506824
164	0xbda5567e	-0.08073138
165	0xbe22ccd0	-0.15898442
166	0xbd779b81	-0.060451034
167	0xbe3b5672	-0.18294695
168	0x3d09f7d9	0.03368363
169	0xbd2499a9	-0.040185604
170	0x3dc6f33e	0.097143635
171	0xbddff1fc	-0.10934827
172	0x3ce7ecea	0.028311212
173	0xbe453e72	-0.19262102
174	0xbc826a74	-0.015919901
175	0xbd9d4f54	-0.07681146
176	0x3bd76a06	0.0065739183
177	0xbd2007b1	-0.039069835
178	0x3db67124	0.089082986
179	0xbe0b8fa2	-0.1362901
180	0x3dfc0cc7	0.123071246
181	0xbe29897b	-0.16556351
182	0xbde837e9	-0.11338789
183	0x3e1cfd95	0.15331109
184	0x3d655c18	0.05599603
185	0xbe505b6a	-0.20347372
186	0xbe71d9d5	-0.23618253
187	0x3dad6d80	0.08468151
188	0xbe18bf1e	-0.14916655
189	0xbdeede99	-0.11663551
190	0x3ba0b189	0.0049039763
191	0xbe0c81a1	-0.13721325
192	0xbe006722	-0.12539342
193	0xbdbb09cf	-0.0913273
194	0x3d1e77ad	0.03868835
195	0x3d878cbb	0.06618639
196	0x3e4e3e23	0.20140891
197	0x3e40e25f	0.18836354
198	0x3e19ca5a	0.15018597
199	0xbdbdf601	-0.09275437
200	0x3d1ccc84	0.03828098
201	0x3e46e7a6	0.19424304
202	0x3dcde741	0.10053874
203	0xbdde68a1	-0.108598
204	0x3e1611ab	0.14655177
205	0xbd9bd41e	-0.076088175
206	0xbe163bac	-0.146712
207	0x3ddd2f54	0.10800043
208	0xbe0220e5	-0.12707861
209	0x3c76fb69	0.015074589
210	0x3d12314c	0.035691544
211	0x3e048e8c	0.12945002
212	0xbda288af	-0.079362266
213	0x3e4c9780	0.19979668
214	0x3d9cb5af	0.07651841
215	0x3e0a8c11	0.13529994
216	0x3d179492	0.037006922
217	0x3d6653c2	0.05623222
218	0xbd056281	-0.032564644
219	0xba978078	-0.0011558672
220	0x3ccc42c5	0.024934182
221	0x3e452310	0.19251657
222	0x3c2277da	0.00991627
223	0xbdf0ccb4	-0.11757794
224	0x3e0eaa6a	0.13932195
225	0xbd493bd2	-0.049129315
226	0xbe171a81	-0.14756204
227	0xbd99b8f3	-0.075059794
228	0xbd9a8283	-0.075444244
229	0x3db2e2b1	0.08734644
230	0x3d941478	0.072304666
231	0x3d83a895	0.06428639
232	0x3d4e5058	0.05036959
233	0xbe0d1b4e	-0.13779947
234	0xbb3ee059	-0.002912542
235	0x3e21e430	0.15809703
236	0xbd9a73c0	-0.07541609
237	0x3e55e948	0.20889771
238	0x3cf355c3	0.02970398
239	0xbd326fe4	-0.04356374
240	0x3cf679b0	0.030087322
241	0x3d751b6e	0.059840612
242	0xbd562cb7	-0.052288737
243	0x3d88a8b4	0.066728026
244	0xbc71598a	-0.01473082
245	0x3e34bd22	0.17650273
246	0x3e36e1d7	0.17859589
247	0xbdbd8be8	-0.092552006
248	0xbe07aea1	-0.1325021
249	0x3dbaefae	0.091277465
250	0x3ce74600	0.02823162
251	0xbcffd402	-0.031229023
252	0x3c6ae890	0.014337674
253	0x3e592785	0.21206482
254	0xbd448a28	-0.04798332
255	0x3d9cebc3	0.076621555

fc.0.bias f4 [32]
0	0xbd831946	-0.06401305
1	0xbda68de5	-0.08132533
2	0xbda2fbb0	-0.07958162
3	0x3d6405cf	0.055669602
4	0xbcdcf23e	-0.026970979
5	0xbdd0cd8b	-0.10195454
6	0x3d884fcf	0.06655847
7	0xbd40647c	-0.04697083
8	0xbdb6ccba	-0.08925767
9	0xbd49cc44	-0.04926707
10	0xbd681b16	-0.056666456
11	0xbca4f70e	-0.020137336
12	0x3db1c539	0.08680195
13	0xbcbd5539	-0.023111926
14	0xbd88dfe2	-0.06683327
15	0x3d2c7263	0.042101275
16	0x3d8b8496	0.06812398
17	0xbdbb6068	-0.091492474
18	0xbcdc847b	-0.02691864
19	0x3c7bce30	0.015368983
20	0xba053d48	-0.0005082679
21	0x3deac0e3	0.114625715
22	0x3d172ed3	0.03690989
23	0xbdd65077	-0.10464566
24	0xba991782	-0.001167998
25	0x3de726f3	0.11286726
26	0x3db81f37	0.08990329
27	0x3d9ff82a	0.078110054
28	0x3dceacdb	0.10091563
29	0x3dce1064	0.1006172
30	0xbc2e161f	-0.010625391
31	0x3c8b446b	0.017000398

fc.3.weight f4 [1, 32]
0	0xbdb6d846	-0.0892797
1	0xbe15b0a9	-0.14618172
2	0xbe32c7f3	-0.17459087
3	0x3eaa619a	0.3327759
4	0x3e909aa3	0.28242978
5	0xbdffb5bb	-0.12485834
6	0x3df9e9a1	0.12202764
7	0x3e9e3ec9	0.30907276
8	0xbe082128	-0.13293898
9	0xbe2984ab	-0.16554515
10	0x3e9708b0	0.29498816
11	0xbdf5515e	-0.1197841
12	0xbe56a3da	-0.20960942
13	0xbd652541	-0.05594373
14	0xbd9ae6f4	-0.07563582
15	0xbdc17aed	-0.09447274
16	0xbde4d7f6	-0.11174004
17	0x3e706e26	0.23479518
18	0xbe5f0509	-0.21779265
19	0xbe03b87f	-0.12863348
20	0x3e420411	0.18946864
21	0x3e8f67be	0.28008837
22	0x3e8b8398	0.27248836
23	0x3ea3cfab	0.31994376
24	0xbe2cbed2	-0.16869667
25	0xbe4b7d89	-0.19872107
26	0x3e446744	0.19180018
27	0xbe22a28d	-0.1588232
28	0x3e8740a6	0.2641651
29	0xbde0369c	-0.10947916
30	0xbe416909	-0.18887724
31	0xbe13a55e	-0.14418551
