5 第五讲 机器学习训练模型的数学范式v16/models/model160.pth (torch, 112459 bytes, 21 tensors)

conv1.0.weight f4 [16, 3, 3, 3]
00000000: 7bdb a3bc 7b17 febd 945f 0f3e b669 6cbd
00000010: 6d70 0abe b290 35be 10ac 1f3d cc73 24be
00000020: 21fb bb3d a59a 903d e603 413e a77a 0ebe
00000030: ecbd 0a3d 254a 263d 1130 ae3c dda2 dd3d
00000040: 68e8 c53b 983b 85bd 1d46 213e ee74 e0bd
00000050: 4765 19be 2ace f13d 2fda 13bd 28e9 203e
00000060: d784 dfbd 997d 2b3e e4f8 3b3d 8255 90bd
00000070: 063c fa3d 4568 80bd ee5c aabc 86da a4bd
00000080: c2c9 c23d 0ae4 3b3d 7aa0 123e 7cf6 9ebd
00000090: f899 5c3c 7235 8dbc 09f9 323e 7512 30be
000000a0: 333c 80bd bfdf 3b3e d880 5f3d b096 39bd
000000b0: ae0e dd3d 0b83 f73c fb22 93bd 559c 11be
000000c0: 0997 4bbe e3c9 ce3d c061 59bb f051 863d
000000d0: 5146 23be 99ea 3c3e 2127 b23d 5377 32bc
000000e0: eac3 d0bd f430 fdbb ca12 04be b703 34be
000000f0: bf9c 67bd a645 f03d 57f8 2fbe 086c 273e
00000100: ae45 b93d 5557 2bbe e9c2 363e 1bea 5f3d
00000110: 3f52 45bd e432 043d f526 373d da4f f63d
00000120: c6a9 3e3e 6b39 e83c 6b5f 64bd 2f05 7f3c
00000130: 8971 0e3d ec25 c4bd 9ebc aabd 5a5a 4fbe
00000140: a3b0 2f3e e90a 9abd 128b d3bb 1765 1bbe
00000150: 5875 343c 9897 3b3e 6427 1fbe e0a0 003e
00000160: 7497 503e 035e 3dbe 5b43 46bd 5522 ee3b
00000170: 7f2f 23bc 4a6a 15bc 3e4e 243e 7a48 023e
00000180: 9eb7 cb3c f317 793d 6f5f f3bd 6d1f 0cbe
00000190: 5fb7 aebd 1edd 1b3e 2889 353e 8c34 2b3e
000001a0: c544 b63c 1c8f e53d e15a 5ebd d54f 3bbd
000001b0: c7e5 4dbe 2f4b 7c3d d5e8 bfbd 0f64 233e
000001c0: 34f4 cd3c fe7b 023e f12d 36bd 8a0d 5e3d
000001d0: 8050 14be 632a 5dbe ff99 f3bd 130a 523e
000001e0: eb4e 843d 4c4c cd3d f779 553e a600 9d3d
000001f0: 373e 9e3d f790 49bd 4011 0bbe 6b02 d03d
00000200: 906f 2b3e 253f 33be 81e0 6b3d 94db 13bd
00000210: c6d1 253e 0ccc 22bd e9ea 08bd b3b7 52bd
00000220: 5981 70bd 11d8 1c3e 2f3b d8bd c84e 463d
00000230: aa42 c93b 4bfa 003e 08ac b83d 1041 10be
00000240: 1e30 59bc aea4 0a3c 02fd d1bc 51c2 213e
00000250: a77c 523e 5dd7 00be ffe1 62bd d742 513e
00000260: 7f2e 7e3d 540a c4bd 9066 c73d 977e 4ebd
00000270: b461 d5bd 4265 51be e650 db3d de4a 9bbd
00000280: 3b01 1dbe c60d 1fbe ca6f 97bc 090d 063e
00000290: fe00 d83d c02e 073e 8fc8 aabd c20c 25be
000002a0: 68b4 10bd 8604 c7bd 8512 823d d4a4 083e
000002b0: 00e5 83bd b2ae 52be 43f7 213e 70e3 353d
000002c0: 872c 10be c7fd 82bd 45e1 4ebd 7294 0abe
000002d0: b3ac 3d3e cb8d 873d 5651 f1bd 5874 d6bd
000002e0: e7c9 b2bd 9e23 40be 0e0a 1fbc af94 77bd
000002f0: 0e5f d1bd 38e6 403c a65e c4bd 27f5 dd3d
00000300: 8614 ba3d 6ba1 8fbd d2a0 b5bd 3922 51be
00000310: 65e4 dcbc bef7 29be 2854 3a3e 5224 ed3d
00000320: 2343 783c be74 6bbc 9a5c 8bbb 15a6 4a3e
00000330: b7a9 c5bc eac6 143d 32ab f43d 27ce 863d
00000340: 0259 7cbc 4b8d 073e dfbc 27be 51f3 9e3c
00000350: 5a31 53be 1d38 a03d 1156 d33d c95e 86bd
00000360: 974b 0dbe e4c9 07be ae34 07bd 0bab 06be
00000370: 92e8 fabc 97fe 5dbd 0348 d5bd 8f95 c13d
00000380: 8354 f4bd cce7 bb3d aed2 5abe b375 abbd
00000390: 18a1 413e 2855 f0bd 2eaf 56bd d127 cb3d
000003a0: ba35 a53d 8631 adbd 05a8 aa3d cc00 7dbe
000003b0: 6035 97be 290d 57bd 4c07 3a3e 742c ce3d
000003c0: af47 1e3e 9ef7 673d 02b7 8d3c 0702 473e
000003d0: ece5 b53d a7cd 563d b0bb 0fbe 91aa febd
000003e0: 3aaa 063e 2ea5 553e a2bb 643d 1361 9a3d
000003f0: d994 16be 540a 8abd 6641 5fbd 2ec7 bebd
-0.020002117 -0.12406822 0.14001304 -0.057718 -0.1351945 -0.17730978 0.03898245 -0.16059798
0.091787584 0.07060746 0.18849143 -0.13913976 0.03387253 0.040598053 0.021263154 0.10822079
0.006039668 -0.06505507 0.15749402 -0.109598026 -0.1498004 0.11806901 -0.036096748 0.15713942
-0.10914009 0.1674713 0.045891657 -0.07047559 0.1221848 -0.06269888 -0.020796265 -0.080494925
0.095111385 0.045871772 0.1431903 -0.07761857 0.013464443 -0.017237399 0.17477812 -0.17194541
-0.06261482 0.18347071 0.054566234 -0.045309722 0.107938156 0.030213853 -0.07184406 -0.14219792
-0.19881834 0.100971006 -0.0033169836 0.06558597 -0.15944792 0.18448867 0.086988695 -0.010892707
-0.10193618 -0.007726783 -0.12897792 -0.17579542 -0.05654597 0.117320344 -0.17184578 0.16349804
0.090464935 -0.16732533 0.1784779 0.05466662 -0.04817414 0.032275096 0.044714887 0.12026949
0.18619451 0.028347692 -0.05575506 0.015565201 0.034776244 -0.095775455 -0.08336757 -0.2024931
0.17157225 -0.07521612 -0.0064557875 -0.15175281 0.011014305 0.18319547 -0.1554237 0.12561369
0.20370275 -0.18492894 -0.04840408 0.0072672763 -0.009960054 -0.00911958 0.16045472 0.1272296
0.024867829 0.060813855 -0.11883437 -0.13683863 -0.08531069 0.15221068 0.17728102 0.16719264
0.022249589 0.112089366 -0.054285888 -0.04573043 -0.20107184 0.06159514 -0.09370581 0.15956138
0.02514086 0.12742612 -0.044477407 0.05421213 -0.14483833 -0.215982 -0.11894607 0.20511656
0.06460365 0.10024318 0.20847307 0.07666139 0.0772671 -0.049210515 -0.13580799 0.10156711
0.16741776 -0.17504556 0.05758715 -0.036098078 0.16193303 -0.039745376 -0.033427153 -0.05144472
-0.058717106 0.15316798 -0.105581634 0.048414975 0.00614198 0.12595479 0.09017187 -0.1408732
-0.013256101 0.008462114 -0.025633339 0.15796782 0.20555364 -0.12582155 -0.055391308 0.20435654
0.06205606 -0.095722824 0.09736359 -0.050413694 -0.10419026 -0.20448783 0.107087895 -0.07582639
-0.153325 -0.15532598 -0.018485922 0.1309091 0.10547064 0.13201427 -0.08339035 -0.16118148
-0.0353283 -0.0971766 0.063511886 0.13344127 -0.06440163 -0.20574453 0.15816979 0.044406354
-0.14079486 -0.063960604 -0.050507803 -0.1353319 0.18522911 0.06618842 -0.11783092 -0.104714096
-0.08729916 -0.18763587 -0.009706987 -0.06044453 -0.10223208 0.011773638 -0.09588365 0.10837775
0.09085946 -0.0701321 -0.08868565 -0.20423211 -0.026964376 -0.16598412 0.18196166 0.11579193
0.015152725 -0.014371095 -0.0042529823 0.19789918 -0.024128778 0.03632251 0.119467154 0.06582289
-0.0154020805 0.13237493 -0.16380642 0.019403132 -0.20624295 0.07823203 0.1031915 -0.065610476
-0.13798366 -0.13260609 -0.033009224 -0.13151185 -0.030628476 -0.054197874 -0.10414126 0.09452354
-0.11930182 0.09175071 -0.2136943 -0.08372059 0.18909109 -0.11734992 -0.052413158 0.09919704
0.08066888 -0.084567115 0.083328284 -0.24707335 -0.2953291 -0.052502785 0.18166846 0.100670725
0.15457033 0.05663263 0.017299179 0.19434367 0.08881745 0.05244222 -0.14036441 -0.12434877
0.13150874 0.20863792 0.055843003 0.07538047 -0.14705218 -0.06740251 -0.05450573 -0.09315334

conv1.0.bias f4 [16]
00000000: c4c3 a33d 7de8 cf3d a3e3 733d 2879 a33d
00000010: b08d 4dbe 2dab 65bb 32ba f13d cd12 043d
00000020: d4d8 4bbe 605c 0f3c de45 7b3e 941f dfbd
00000030: e68e 1a3e 95f0 31be 3634 643c c88c 733e
0.07996324 0.101517655 0.059543263 0.07982093 -0.2007358 -0.0035044656 0.11803092 0.032244492
-0.19906932 0.008750051 0.24538371 -0.10894695 0.15093574 -0.17376931 0.013928464 0.23784173

conv1.3.weight f4 [16]
00000000: ce63 713f 97a6 7a3f fe86 833f 1ba2 643f
00000010: 88d3 813f 53e4 813f 46f5 7f3f 3ca6 663f
00000020: 6f86 713f d481 853f 84d0 6a3f 864b 953f
00000030: b758 633f 00a0 823f d1ea 6c3f 0923 753f
0.94292915 0.97910446 1.0275571 0.89309853 1.0142679 1.0147804 0.9998363 0.90097404
0.94345754 1.0430245 0.9172442 1.1663673 0.88807243 1.0205078 0.925458 0.95756584

conv1.3.bias f4 [16]
00000000: 5d65 91bb d3be 3a3e 15f7 f4bb 52b3 af3c
00000010: e5cf 503e 723f d8bc 488d a93d 4ba4 983d
00000020: 21cd 813e fc8a 3a3d d923 22be d8e0 8b3d
00000030: 0ba7 313d 348c df3d c14b 1f3d b1ad 0bbe
-0.0044371323 0.18236856 -0.0074757435 0.021447811 0.20391805 -0.02639744 0.082789004 0.074532114
0.25351813 0.045542702 -0.15833987 0.06829995 0.043372195 0.109154135 0.038890604 -0.13640477

conv1.3.running_mean f4 [16]
00000000: ecb8 ef3d 6a42 313e 367c 923d dcff 8f3e
00000010: 6f1f 5d3c dbe1 363c f9aa 993c f24e a23d
00000020: a4aa d937 d734 083d 3d14 ed3e b458 683c
00000030: 8c9c 193e 3b72 623c 276c b03d 96a2 493e
0.11705193 0.17310491 0.071525976 0.28124893 0.013496264 0.011162247 0.018758284 0.07925214
2.5947877e-05 0.033253517 0.46304503 0.014181305 0.15001124 0.01382118 0.086143784 0.19690928

conv1.3.running_var f4 [16]
00000000: 5d7a 413b beb1 153b 66aa 273b 6139 8a3c
00000010: 5f12 9b3a 2541 4e3a 326a e03a 30db 293b
00000020: a11e 5536 fbba 123b c816 ec3c 1777 bb3a
00000030: 3faf 9e3a b361 863a 9d16 b83b 3cc8 d93a
0.0029522397 0.0022841538 0.0025583743 0.016873064 0.0011831037 0.00078679837 0.0017121492 0.0025918
3.1757302e-06 0.002238928 0.028819457 0.0014302459 0.0012106671 0.0010252505 0.00561793 0.0016615461

conv2.0.weight f4 [32, 16, 3, 3]
00000000: 5466 493c f2a1 b4bc 2a47 80bc 6f0a 943c
00000010: cc8c 8c3d 3c4b a13c 23cf a03d cf55 5bbc
00000020: f7f0 b3bb 43fa 6cbd a77f b5bd ad43 4fbd
00000030: 90ec 27bd 82ee e53c 3cfe 2cbd 0358 3dbd
00000040: 746f 58bd 7e44 0d3d 75ff f93d 130c 25bc
00000050: 330a c3bd 7c68 d13d 4d01 8d3d b8d5 6abd
00000060: aa48 e1bc 68d3 3ebd a3a0 61bd f775 cf3d
00000070: 9558 5f3d aef0 62bd 8c99 953b 7cdf 843d
00000080: e17a c2bc c8af 2b3d 620a 833c b7a6 353d
00000090: d7c3 f93c 3bfe 013d fae8 0fbd dcaa dabd
000000a0: 9716 83bc 3b83 be3a d76d 6fbd b3cb 6cbd
000000b0: 0ac4 d43a ce0b 923c bb23 943d 0854 b63d
000000c0: 02c0 32bd c64b 833d d785 2c3d 0e3c b83d
000000d0: 5f3b cb3d 7397 8d3d 869a 863d 6c05 de3c
000000e0: 06a3 88bc 9feb d6bc d70b 5b3d 5a5c 193c
000000f0: 356e 413d b525 1b3d ad25 ae3d 3478 663d
00000100: 2af2 9fbd f2c6 66bd f3d9 7f3d 3dda 623d
00000110: 6517 5dbd fd2a 0d3d 67e5 aabd 0e27 82bd
00000120: 3736 9abd f37b 47be b45a e6bd ebe2 3fbe
00000130: 6a8c 68be 3e09 3abe d4ba 24be 48cf ecbd
00000140: e33f 55be 1e93 f2bd 46a2 28bd f4fe a63d
00000150: 703d 64bd bfca 7a3c 8f88 ac3d 75fd c0bd
00000160: cc49 bfbd 6c6a c43d 7d16 dc3d b620 87ba
00000170: 462d 08bc f6b6 e0bc b850 2a3d e773 a5bc
00000180: 2854 e63d 68b8 733d e92d 0d3d 6400 953c
00000190: 4023 fd3a b802 c53c 1a9e c2bd f085 bdbd
000001a0: 1c64 0ebe f96e 82bd eb8e 2c3d 8aa9 a43c
000001b0: 2447 953d 9507 68bc dc74 2f3d 94af 4f3d
000001c0: 5e2f 1ebc b327 553c 9461 22bd 476d a4bb
000001d0: 997f 88bd f2f2 6e3d 0998 afbd bf51 12be
000001e0: accd 0dbd cebf 96bd 6c4a efbc 8c98 1cbe
000001f0: 8498 89bd 8839 253d 0b9e c13c 4957 2ebd
00000200: c5ae 08bc 3e5f 09bd df99 46bd cebe 17bd
00000210: f96f 09bd 019a 1e3d 3db1 433d 957e 49bd
00000220: 7b29 27bb 488c 3a3c 55a1 b33b c613 8cbd
00000230: c9e6 47bd 3c1f 6d3d 8e30 763d 3a53 adbb
00000240: 5245 ee3c ba42 67bc d018 2d3d 520e b63d
00000250: 41f0 c53c 70b9 23bd e20d 033d d3cf 733d
00000260: 9cc6 ab3d 00d1 b0bc 84f7 393c 857c 60bd
00000270: 2903 87bd 7287 2f3c 2a90 06be dd47 023d
00000280: 951b 93bc f971 fdbc 349f d83c ec26 ca3d
00000290: ea2d a73d 347c ed3d e8d9 4ebd a298 203d
000002a0: 1ccf ef3d b0bd 8f3b a382 b63d cb94 ba3d
000002b0: d5f2 a43c b452 4bbc ce88 ad3c 90fb 0dbc
000002c0: f6e5 9a3d d6ec 903d 356d 35bc b4ba bd3d
000002d0: 43dd 8b3d bbfc 843d 6b53 06bd 8d6a b33d
000002e0: 55ff 7a3d 6f63 283d dec2 c33d f405 df3a
000002f0: 081f 883d 26e8 823c 6a63 8abd 621c e33b
00000300: bb84 79bd 76b8 1bbe 63a5 d1bd 7d8c e03c
00000310: ea89 6ebd e7a4 afbd f26d a2bb 1d58 6fbc
00000320: 6de4 943d 6c7b 083e fecb 413d 9a61 923d
00000330: 8fe0 693d 6b0b 40bd b6ab a13d 3a4e 3ebd
00000340: 5313 8d3d e448 3e3d 585b 1bbd ec0b 87bd
00000350: 4d17 89bd e748 5a3c ddaf c7bd 2b5d 01bc
00000360: 9da1 9e3b c52e 56bd 4b9a c33d f2a3 eabd
00000370: a59a 38ba 91d8 d7bc 5082 39bd 40e1 c8bd
00000380: 52ba 51bd 89a8 db3c 68e8 adbd d0cc 6ebd
00000390: c017 223d 6bd2 9739 0202 a5bd 0059 ac3d
000003a0: 4ba1 9cbc ad50 92bc dc6a 393d 626f b2bc
000003b0: e0f0 d03d 53d2 f73d b2d2 013e d944 d93b
000003c0: c385 ec3c ed18 103e 2241 9c3d 0173 903c
000003d0: a62c bb3b a7a0 9e3d 9386 83bd 6a4f 78bd
000003e0: 5ec8 ddbc 3dfb db3c ac63 05bd 16dd 0f3d
000003f0: 1785 ad3d ea46 863d 2c0a 8b3d b2e8 9d3d
0.012292463 -0.022049878 -0.015658934 0.018071381 0.068627924 0.019689195 0.07852008 -0.013387158
-0.0054913717 -0.057855856 -0.088622384 -0.05060165 -0.040997088 0.028067831 -0.042234644 -0.046226513
-0.052840665 0.034489147 0.12206928 -0.0100736795 -0.0952343 0.10225007 0.06885014 -0.057332724
-0.02750047 -0.04658833 -0.055084836 0.10129922 0.054527838 -0.05540531 0.0045654234 0.06487939
-0.023740234 0.041915685 0.015996162 0.044348445 0.030488892 0.031736594 -0.035134293 -0.1067712
-0.016001983 0.0014534959 -0.05845436 -0.05781145 0.0016232741 0.017827895 0.072333775 0.089027464
-0.043640144 0.06410937 0.042119827 0.089958295 0.099234335 0.06913652 0.06572442 0.027102195
-0.016679298 -0.0262354 0.05347809 0.009360397 0.047224242 0.037877757 0.0850328 0.05626698
-0.07809861 -0.056342073 0.062463712 0.05538391 -0.05397739 0.034464825 -0.08344536 -0.06355105
-0.07529872 -0.19480877 -0.11247769 -0.18738906 -0.22709814 -0.18167588 -0.16086894 -0.11562973
-0.20825152 -0.118444666 -0.04117038 0.08154097 -0.055722654 0.0153071275 0.08424484 -0.09423343
-0.093402475 0.09590611 0.10746477 -0.0010309431 -0.008311575 -0.027430993 0.041580886 -0.020196868
0.1124652 0.059502035 0.03446761 0.018188663 0.0019312873 0.024049148 -0.09502812 -0.09254062
-0.13905376 -0.063688226 0.042128485 0.020100374 0.072889596 -0.014161964 0.042836055 0.050704554
-0.009654848 0.013009953 -0.03964384 -0.0050179097 -0.06664962 0.05833716 -0.0857392 -0.14288996
-0.034619972 -0.073608026 -0.029210292 -0.15292567 -0.06718543 0.04033807 0.023634931 -0.04256371
-0.00834245 -0.033538096 -0.048486587 -0.0370472 -0.03355405 0.03872109 0.04777645 -0.049192984
-0.0025506902 0.011385985 0.0054818788 -0.06839709 -0.04880408 0.057891116 0.0601049 -0.0052894624
0.029085789 -0.01411503 0.04225999 0.0888945 0.024162414 -0.03997177 0.03199566 0.05952437
0.08387491 -0.021584034 0.011350516 -0.05480625 -0.065923996 0.010713445 -0.13140932 0.031806815
-0.017957488 -0.030938135 0.026443101 0.09870705 0.08163054 0.115959555 -0.05050078 0.039208062
0.11709425 0.004386626 0.08911636 0.09110411 0.020135323 -0.012409855 0.021183398 -0.008665934
0.07563393 0.07076423 -0.0110734 0.092641264 0.06829312 0.06493517 -0.032794397 0.08760557
0.06127866 0.041110452 0.09558652 0.0017015324 0.06646544 0.015979838 -0.06757243 0.0069308737
-0.060917597 -0.15207085 -0.10236623 0.02741074 -0.058236994 -0.085763745 -0.004956954 -0.01460841
0.07270131 0.13328332 0.047313683 0.07147522 0.05709892 -0.04688589 0.078940794 -0.04646132
0.068884514 0.046456233 -0.03792891 -0.06594071 -0.066938974 0.013323045 -0.0975034 -0.007895748
0.004841043 -0.052290697 0.095509134 -0.11457051 -0.0007042087 -0.026348384 -0.04529029 -0.09808588
-0.05120308 0.026813762 -0.084915936 -0.058300793 0.03957343 0.00028957738 -0.080570236 0.08415413
-0.01911988 -0.017860735 0.045267925 -0.021781627 0.10202193 0.12100663 0.1267803 0.0066305217
0.028872376 0.14072008 0.076296106 0.017632963 0.0057121096 0.07745486 -0.06422152 -0.06062261
-0.027073082 0.026853198 -0.032565758 0.035122953 0.084726505 0.065564945 0.067890495 0.07710399

conv2.0.bias f4 [32]
00000000: da28 ecbd 3eab a1bd 1254 e9bd f4fd f93c
00000010: 30a6 12be 0925 f2bd b486 a93d f249 273d
00000020: b4c6 1ebe 2fdd 703b fca0 e5bc 2fee 57be
00000030: 4c41 0cbd 1131 bdbd 5542 77be 511e 8bbc
00000040: df2b 59be 061a a1bd 5c5e 97bd 651b ff3d
00000050: 2cc9 473c 0d6f eabd a658 bbbd 9ec9 dbbd
00000060: 70de e43c dbe1 48be eb3f 0cbe 77e3 5bbd
00000070: b6df bebd 187c 62be 39b7 f1bd d4d2 1ebe
-0.11531229 -0.0789399 -0.11392988 0.030516602 -0.14321208 -0.1182347 0.08277646 0.040842004
-0.15505487 0.003675293 -0.028030865 -0.21086954 -0.03424196 -0.09237874 -0.24146397 -0.01698223
-0.21208142 -0.07866292 -0.073910445 0.12456397 0.012193959 -0.114469625 -0.09147768 -0.10731815
0.027938098 -0.19617407 -0.13696258 -0.053683724 -0.09320013 -0.2211765 -0.11802525 -0.15510112

conv2.3.weight f4 [32]
00000000: ef46 833f c64e 6b3f e042 7d3f 9be5 5c3f
00000010: b98b 773f f1d1 773f 0830 743f 021c 7c3f
00000020: 72d9 743f 8630 813f 350a 803f ca87 893f
00000030: 1490 7f3f 29be 7a3f 35e6 853f 164a 803f
00000040: 2ec7 463f ca64 813f ff83 7c3f e05f 663f
00000050: 1c34 6a3f 86ab 673f bfcf 7e3f 2d21 823f
00000060: ac25 773f 5836 863f 7d5d 803f ed12 5d3f
00000070: 2362 843f d573 843f a2eb 693f 232b 713f
1.0256022 0.91917074 0.9893017 0.8628785 0.96697575 0.9680472 0.9538579 0.98480237
0.95644295 1.0092933 1.0003115 1.0744565 0.9982922 0.9794641 1.0460879 1.0022609
0.77647674 1.0108883 0.9863891 0.89990044 0.9148576 0.904961 0.99535745 1.0166374
0.9654186 1.0485334 1.002853 0.86357003 1.0342449 1.0347849 0.9137517 0.94206446

conv2.3.bias f4 [32]
00000000: f07c bd3d 23ab ba3e 43e8 a23d 108c 3bbe
00000010: bc37 273e 7110 27be 69c0 043f b566 893d
00000020: 53ee e7bd 1296 3a3e 4bb1 d0bd 29db 163f
00000030: ed77 39be 75ce 6e3e 0b8d aa3e bfaf 17be
00000040: 16d2 503e 0057 0fbe 9864 ad3b 67d5 aabc
00000050: 7325 933e 51bf 643e 31b7 a83e 7d9f 713e
00000060: aa1d bb3e 0401 a83e e61d 88bd 7752 16be
00000070: e7f7 d13e 9610 603e 2b3c 943e fae6 ef3e
0.092523456 0.36458692 0.07954457 -0.18315148 0.16329855 -0.16314866 0.51856095 0.06709043
-0.113247536 0.1822131 -0.10190066 0.5892816 -0.18112154 0.23320945 0.33310732 -0.14813136
0.20392641 -0.13998032 0.0052915327 -0.020853711 0.2873951 0.22338606 0.32952264 0.23595996
0.3654607 0.32813275 -0.06646328 -0.14679895 0.41009447 0.21881327 0.28952155 0.4685591

conv2.3.running_mean f4 [32]
00000000: 8fd5 913d 8d43 3d3f 24f6 6c3e f9f5 503f
00000010: 8432 953e 90bc 9e3d 50a7 033f cc18 133f
00000020: e617 883e a8e0 f53e fed6 f53d a800 bb3d
00000030: 8685 093f 5e42 183f 0458 963d 387f 903e
00000040: 12e6 ee3e cf4b c63e 2fb5 a73e 6481 383f
00000050: 2c7d 1f3f 6781 163f d9a4 d63e 1f73 3f3e
00000060: 7cdb 193f 5d63 0f3e 3c54 723e 0198 e03d
00000070: 9e22 783e 046a bc3e 3cf6 a83e 0576 453e
0.07120811 0.739312 0.2314077 0.81625324 0.29140103 0.07750809 0.51427174 0.5745971
0.26580733 0.48022962 0.12003897 0.091309845 0.53719366 0.5947627 0.073410064 0.2822206
0.46659905 0.38729712 0.3275542 0.72072434 0.6230037 0.587912 0.41922644 0.18696259
0.6010053 0.14002748 0.23664945 0.109664924 0.24231955 0.36799634 0.33000362 0.19283302

conv2.3.running_var f4 [32]
00000000: e295 423d a60c db3f 7291 183e a3ec 8a3f
00000010: 9bd2 a93e a87e 0f3d 1b2f 6b3e 863c 443f
00000020: 38ca b23e 6c68 a33e 5362 e43d 7891 ab3d
00000030: e39b 993e 2cd5 ad3f 5f6b c43d 5edf 3f3e
00000040: 4c7d 333f 8a0c 003f b9a0 d83e e0a8 fc3e
00000050: 16e0 003f aca7 ac3f fca2 1e3f e041 f33d
00000060: 5918 003f d42b 053e 7b57 353e 2482 fa3c
00000070: f3cd cf3e 37a9 273f 5069 533e c873 0c3e
0.04750622 1.7113235 0.14899233 1.0853466 0.33168492 0.0350329 0.22967188 0.7665485
0.34919906 0.31915605 0.11151566 0.08377355 0.30001745 1.358068 0.09590792 0.18737552
0.7011306 0.50019133 0.42310122 0.4934759 0.5034193 1.3488669 0.61967444 0.11877799
0.5003715 0.13005 0.17709152 0.030579634 0.40586814 0.65492576 0.20645642 0.13716042

conv3.0.weight f4 [64, 32, 3, 3]
00000000: 859f 3cbd 747f 80bd ae96 7fbd ecff 5fbd
00000010: 66eb 9ebd a2da 83bd d831 9cbd 30ba 6bbd
00000020: b535 f4bd 3691 85bd 4a20 bf3c c811 7ebc
00000030: a5fc b0bc 845d 54bd c10d babc 7404 94bb
00000040: b88c 3abc 3e81 5a3d 26b5 5dbc 5def 2dbd
00000050: bf20 c9bd 287a 943c b8ff f7bc 9477 e6bc
00000060: 2f28 9ebd ee3c ddbc 460f 48bd eb44 053d
00000070: a7d4 debc 5ee6 933d b15b eaba ccf7 b4bc
00000080: 20c0 793c 45b9 33bc a19e 403c 52d9 88bc
00000090: 2ef8 91bd d2ab 9fbd 64ec 9dbc d460 61bc
000000a0: 81d0 8fbd ade7 15bd 3ced 03bd 5d2e a4bc
000000b0: cdf9 a9bc 930f 903a 58bc c13b 7578 48bc
000000c0: 0e32 bd3c 48ca a43c a55b 6dbc dd7c d43c
000000d0: 210b f43c 35e4 45ba 0174 06bd 8c35 00be
000000e0: edd9 71bd 027c cabc 1959 f3bd f160 bdbd
000000f0: 01a7 bdbd 0117 88bd ab81 c9bd c425 1ebd
00000100: 1430 07bd 3272 16bd de9f c6bc 1996 023d
00000110: a247 03bd f03b c9ba dc45 763d 3b16 1b3d
00000120: 5b72 5d3d c7b2 0e3e 1e5d e23d c461 e23d
00000130: aeb6 db3d 45d7 a03d 55c3 293b 341c e83d
00000140: 5686 ac3d 6298 8a3c 741e 3eba c409 df3b
00000150: 1f20 1cbc 5e56 2b3d 2871 e73b 3267 923c
00000160: 434f ad3c 2b0a 253d cb67 25bd 8509 37bd
00000170: 03f7 2ebb 5f06 55bc 1534 21bd 7e94 a8bb
00000180: 5056 5abd d0f3 efbc a490 22bd f225 92bd
00000190: 0032 fabd 6bce c7bd f06b 9bbd aa66 17be
000001a0: 443f 08be f031 b4bd e00a 12be 90c8 14be
000001b0: 56d4 dbbc e374 3f3c ac22 933c f6bf 57bd
000001c0: 0605 163c 27d0 bbbc ec04 56bd 4c96 35bc
000001d0: 3240 eebc 097a f8bd e700 a9bd c27c d0bd
000001e0: f039 e9bd 12f3 8abd be38 4bbd 2438 e7bd
000001f0: 32a8 a0bb d59d 3bbd d81e 023d 00f3 593d
00000200: 0790 ff3c 3feb 8e3c 384d a03c 773d 1b3d
00000210: ba8c 483d f268 893d c027 763c 00a2 1cbd
00000220: ee7f 6abd 9c30 17bd f666 fabc 3dfd 41bd
00000230: 00d0 9ebd d0e9 8abd 6fa3 29bd 6a07 c5bd
00000240: f977 473d 55e0 8cbc 41f4 18bd fadf 11bd
00000250: d07f 6c3c 2e43 d43b c8fd 17bd ef59 233d
00000260: 8998 183d 6ea0 6d3d e016 9c3d b950 bc3d
00000270: db7a 663d 8e9d bd3d 8a8c 3a3c 4f0f 9c3d
00000280: 4544 d03d f6bb b83d 8e5e 38bb 71f9 363d
00000290: 9993 d8bc b464 1a3d 49b6 0b3d d37b 28bd
000002a0: 7f0d 513b e2a0 7b3c ae0b 5f3c bb83 78bd
000002b0: 0728 4fbc e545 083d f8dd ffbc 1469 1e3c
000002c0: 55fe 8fba 3180 9e3c f9a4 703d b0f9 913b
000002d0: 7666 e73b e5d4 84bc 5847 20bd d8fd c6bc
000002e0: c474 0abc 6be3 33bd b480 9cbc 978a b43c
000002f0: b4f4 173c e733 7abd 4bca 9cbd b3e5 b5bc
00000300: 9f4f dfbc 8da4 0bbd ae06 cabd da90 d5bc
00000310: 83ac dfbc e8ea ccbd d4d9 0d3b 01e5 26bc
00000320: 2c03 3b3d fb3b a4bc e36f 993d f24a 4d3d
00000330: f4f9 48bc f2c8 54bc 2bd4 de3b ceca 5ebd
00000340: 85a3 a8bd fdd9 f1bd dfa6 a0bd c101 8cbd
00000350: 4acd 65bd 0e3a a0bd bcce a7bd c487 f3bd
00000360: aaa0 57bd 660b 5abd 8f0e cabd da2f 763c
00000370: 49f1 90bc 0187 9cbd b567 eebc 9f97 75bd
00000380: b11e 8dbd 6ef2 5b3d 7262 a13d 9c31 18bc
00000390: 9bf7 0b3d 6a6d 453d bfbf d73c 36ce ef3b
000003a0: 6b1f ac3d eb71 57bc 1f6b 30bd 067b dcbc
000003b0: 2158 61bd 88ca 0bbd 1e0a a1bb 6ec3 a8bc
000003c0: 522f 6ebd 141d 50bd fe96 00bd 7f3c 38bb
000003d0: 1256 f1bc a88b f9bc 3ded af3c da66 0ebd
000003e0: 858c 05bd 13bb d9bc 4681 5d38 2602 373d
000003f0: bcfe 61bd b2c0 ecbd 3a1f 22be c2a2 9bbd
-0.046050567 -0.0627431 -0.06239956 -0.054687425 -0.077597424 -0.06438185 -0.076266944 -0.05755061
-0.11924306 -0.065218374 0.023330826 -0.015507169 -0.021604845 -0.051846996 -0.022711636 -0.0045171324
-0.011386089 0.05334591 -0.013531959 -0.042464603 -0.09820699 0.018124655 -0.030273303 -0.028133191
-0.07722508 -0.027006593 -0.04884269 0.03253643 -0.02720101 0.072216734 -0.0017880109 -0.022090815
0.01524356 -0.010969465 0.01175657 -0.016705189 -0.07127415 -0.07796444 -0.019277759 -0.013755996
-0.07022191 -0.036597896 -0.032208666 -0.020041639 -0.020748997 0.001099097 0.005912345 -0.01223575
0.023095157 0.020115986 -0.014487182 0.025938446 0.029790463 -0.0007548959 -0.032825474 -0.12520427
-0.05904572 -0.024717335 -0.118822284 -0.09247006 -0.09260369 -0.06645013 -0.09839185 -0.038610235
-0.033004835 -0.03673 -0.024246152 0.031881426 -0.032050736 -0.0015352946 0.060125217 0.037862998
0.054064136 0.13935386 0.11052917 0.110538036 0.10728203 0.078535594 0.002590378 0.11333504
0.0842406 0.016918365 -0.00072524627 0.006806584 -0.009529143 0.041830413 0.00706305 0.017871473
0.021155959 0.0402929 -0.040382188 -0.044686813 -0.0026697523 -0.013002007 -0.03935631 -0.005144655
-0.05330497 -0.029291064 -0.03968872 -0.07136144 -0.12216568 -0.09756168 -0.07588947 -0.14785257
-0.13305384 -0.08798587 -0.14261961 -0.14529634 -0.026834648 0.011685583 0.017960869 -0.052673303
0.009156471 -0.022926403 -0.052250788 -0.011083197 -0.029083345 -0.12132651 -0.08252125 -0.10180046
-0.11388004 -0.06784643 -0.04961466 -0.11290005 -0.004902863 -0.045804817 0.031767696 0.05321026
0.031196607 0.017446158 0.01956807 0.037900414 0.048962332 0.0670947 0.015024126 -0.038240433
-0.05725091 -0.036911592 -0.030566674 -0.047360647 -0.077545166 -0.067828774 -0.041415628 -0.09620555
0.0486984 -0.017196814 -0.037342314 -0.03561399 0.01443477 0.006477735 -0.03710726 0.03988069
0.037254844 0.058014326 0.076215506 0.09195084 0.056269508 0.09258567 0.011386046 0.076201074
0.101692714 0.09020226 -0.002813253 0.04467148 -0.026437568 0.037693694 0.034109388 -0.041133713
0.0031898913 0.015358182 0.0136136245 -0.060672503 -0.012643821 0.03326978 -0.031233773 0.009668607
-0.0010985831 0.019348236 0.05875108 0.004454814 0.007061775 -0.016214797 -0.03913054 -0.024290964
-0.008450691 -0.043918055 -0.01910434 0.022038741 0.00927465 -0.061084654 -0.07655772 -0.022204256
-0.027259646 -0.034092475 -0.09864555 -0.026070047 -0.02730394 -0.10005742 0.0021644728 -0.010186435
0.04565732 -0.020048132 0.07492044 0.0501203 -0.012266625 -0.012987362 0.0068001947 -0.05439263
-0.08234314 -0.11809156 -0.07844328 -0.06836272 -0.056103982 -0.07823573 -0.08193728 -0.118911296
-0.052643456 -0.053233527 -0.09866058 0.015026057 -0.017693179 -0.076429375 -0.029102186 -0.05995905
-0.068906195 0.053697996 0.07880105 -0.009289172 0.03417168 0.04820005 0.026336549 0.0073182834
0.0840443 -0.013149719 -0.04307091 -0.02691413 -0.055015687 -0.034128696 -0.004914536 -0.020601
-0.058150597 -0.05080898 -0.031393997 -0.002811223 -0.029459987 -0.030462101 0.021475429 -0.034766056
-0.032604713 -0.026578462 5.28109e-05 0.044679783 -0.055174574 -0.11560191 -0.15832224 -0.07599403

conv3.0.bias f4 [64]
00000000: 7698 62be 841f 89bd aa01 a7bd cc84 33be
00000010: f426 08bd 1595 33bc ac8a c7bd 41ac 1dbe
00000020: c4e6 4ebd 018d a7bd 0df1 f43c 73ea 1ebe
00000030: f8ac c2bd 462f 1ebd c117 38be 118a bfbc
00000040: a56e 30be 4eae 12be a292 73bd d3f8 0cbe
00000050: c2df 14be 0999 00be 3e63 b3bd c15c 92bd
00000060: d9ef c0bd 1b5c d2bd e5d6 80be fa6a dabd
00000070: 6bd7 67be 6350 9bbd 869b 58be b135 f6bd
00000080: 9ef4 f5bd 2601 52be eb43 11be 0899 38be
00000090: 7831 c8bd a1e4 8dbd 269b 2abe b6c5 e1bd
000000a0: 907a febd 1604 41bd 1008 24be 8b84 27bd
000000b0: 6138 b8bd 126f a0bd 4c9a 9bbd ff42 7abd
000000c0: 31c1 31bc 8651 e6bd e2e2 14be ee5f 06be
000000d0: ecbe 39be cd1b 70bd c259 73bd 9f7e 21be
000000e0: b734 6cbd 1cb3 9cbd fa26 bcbd fc2e 1abd
000000f0: 9bb3 103c b785 54bd 3ad7 4bbe 0289 cabd
-0.22128472 -0.06695464 -0.08154614 -0.17531127 -0.033240274 -0.010960837 -0.097432464 -0.15397741
-0.050513044 -0.08181191 0.029900098 -0.15519123 -0.095056474 -0.038619302 -0.17977811 -0.023381265
-0.17229708 -0.14324304 -0.05946601 -0.13766794 -0.14538482 -0.12558378 -0.08759163 -0.07146598
-0.09420747 -0.10271474 -0.25163952 -0.106649354 -0.22640769 -0.07583692 -0.21153077 -0.120219596
-0.12009548 -0.2050825 -0.14186065 -0.18027127 -0.097750604 -0.06928373 -0.16660747 -0.110240385
-0.12425721 -0.047123037 -0.160187 -0.040897887 -0.089951284 -0.07833685 -0.07597789 -0.06109905
-0.010849283 -0.11246018 -0.14539674 -0.13122532 -0.18139237 -0.058620263 -0.05941177 -0.15770958
-0.05766746 -0.0765135 -0.09187122 -0.037642464 0.008831884 -0.051885333 -0.19906321 -0.098894134

conv3.4.weight f4 [64]
00000000: 2474 953f 5ecf 913f f935 9f3f 8448 a83f
00000010: 21a9 9e3f c9a6 9e3f d491 a03f 99a1 923f
00000020: bafa 853f 5d1f a33f 87f9 9a3f 9c94 843f
00000030: 6087 9e3f 1b74 913f 2ddc 8f3f 2c84 9c3f
00000040: a919 8a3f c207 943f 1bd3 a23f 3928 a33f
00000050: 5be8 963f c591 a33f 0631 a23f b14a a43f
00000060: 1517 8a3f 910c 903f 7b96 8c3f 1a8e a83f
00000070: 4b00 913f b0ac a63f 3f14 913f 13d8 843f
00000080: 6a00 983f eabb 953f 3afc 893f 235b 913f
00000090: 6c91 723f ce6e a53f 0a06 a33f fb4f a03f
000000a0: 4852 913f 5c2c 813f b944 953f 1c8b a13f
000000b0: a9cd 8e3f fee4 a03f e5a7 9e3f 758f 7c3f
000000c0: 0df8 9c3f f2b7 a63f d200 933f a4dc a03f
000000d0: 9759 893f a335 963f 0aca a73f 7363 923f
000000e0: 19d4 893f 715f a53f faad 9d3f c174 6e3f
000000f0: 0461 9d3f 753a 9f3f 201e 8b3f 72b7 9c3f
1.1676068 1.1391408 1.2438346 1.314713 1.2395364 1.2394649 1.2544503 1.1455566
1.0467141 1.2743946 1.21074 1.0357852 1.2385063 1.1363558 1.1239067 1.2227836
1.0789081 1.1564867 1.2720674 1.274665 1.1789659 1.277886 1.2671211 1.2835294
1.0788294 1.1253835 1.0983423 1.3168366 1.1328214 1.302145 1.1334304 1.0378441
1.1875126 1.1697972 1.0780098 1.1355938 0.94753146 1.292444 1.2736218 1.2524408
1.1353235 1.0091662 1.1661597 1.2620578 1.1156512 1.2569883 1.2394987 0.986564
1.2263199 1.3024886 1.1484625 1.2567334 1.0730466 1.1735119 1.3108532 1.14366
1.0767852 1.2919751 1.2318718 0.931469 1.2295232 1.2439715 1.0868568 1.2243483

conv3.4.bias f4 [64]
00000000: 9270 54bc 1c4d 01bc 8a18 6c3c d409 323b
00000010: 523e 473c 78df 673c 5f08 153c 041b 4bbc
00000020: e014 c7bc 4105 9c3c 4d73 603c a873 a2bc
00000030: 3cb8 41bc 3d9d 85bc 4fff 76ba de67 a43b
00000040: 01a6 5f3a 3375 a4bb 14f3 9f3c 9d74 efbb
00000050: 2186 6fbc 54a4 0e3c 4648 f23c f8f8 8cbb
00000060: 937b 45bd 74a3 a6bc 76f8 cdbc 4db6 f9bb
00000070: 1ce9 09bd 39bf ac3b a316 84bc a4ca acbc
00000080: aca3 0b3d 8034 49bc a44f b1bc a435 913b
00000090: 0fda 0abc 6469 553c 2971 2b3b fb6a c1b9
000000a0: ced2 97bc fc94 713b d902 c53b 5f46 5f3c
000000b0: 1c63 ca3b 9ae8 263a af4a 333c ae12 5b3b
000000c0: 447d afbb ddb1 793c 7822 a6bb 7e78 bd3c
000000d0: 6594 66bc b302 fa3b 5a63 133c 4dd4 92bc
000000e0: 7006 443c 8ce7 b53c a90c 563c df31 1ebc
000000f0: 675b c83c 83c3 b83c 0d03 1b3c c458 d03c
-0.012966292 -0.007891919 0.014410147 0.0027166503 0.012160854 0.0141524 0.009096234 -0.012396578
-0.024301946 0.019045474 0.013699365 -0.01983054 -0.01182371 -0.016310329 -0.0009422199 0.0050172647
0.00085315114 -0.005018854 0.019525088 -0.0073076026 -0.014619381 0.008706171 0.029575478 -0.0043021403
-0.048213553 -0.020341612 -0.02514289 -0.007620609 -0.033669576 0.005271819 -0.016124075 -0.02109272
0.034091637 -0.012280583 -0.02164442 0.0044314433 -0.008474841 0.013025615 0.0026159978 -0.00036891535
-0.018533137 0.0036862483 0.0060123024 0.013627618 0.0061763655 0.0006367058 0.010943099 0.0033427882
-0.005355509 0.01524016 -0.005070027 0.023128744 -0.014073466 0.0076297163 0.008995855 -0.017923499
0.011964425 0.022205137 0.013064542 -0.009655445 0.024457647 0.022554165 0.009461177 0.025432952

conv3.4.running_mean f4 [64]
00000000: e483 333d 63ce d93c e1ff cc3d 9766 453d
00000010: 50bd e33d 2227 1a3e 95e1 f33d 6d8e 8c3d
00000020: 0c08 843d eae9 093e 42af 0d3e 9ecb 713c
00000030: 01af 673d bf0c 853d 7948 063d 883c ff3d
00000040: 7e4c c33c c7dd 103d 6672 cc3d 7a47 983d
00000050: a823 1e3d 5043 783d de47 153e da5d fb3d
00000060: 7557 823d 26ed 4c3d 6856 343d 7318 593d
00000070: 38fd 0f3d e457 b13d 8661 8a3c c83c 223d
00000080: 357c ed3d 8d70 633d 3c74 5c3d e999 183d
00000090: bd87 7c3e ff06 483d f373 1e3d e0d6 053e
000000a0: d95b 533d 364c 043e b6c3 d63c 800f 0e3e
000000b0: d58c 1a3d db91 a83d f6be 223d e1ac e93d
000000c0: b8a6 e83d 623d 4f3d 443f 063d 130c 8a3d
000000d0: 964f 973c 0136 293e 4c82 5d3d 4443 ad3c
000000e0: 441e 453d fa99 063d 8b68 2e3d cf20 7d3e
000000f0: c837 2c3e 3d8b f23d de4f 0d3d cb08 223e
0.043826953 0.02658767 0.100097425 0.04819354 0.11120093 0.1505399 0.11908261 0.06863103
0.06446847 0.13468137 0.13836387 0.014758019 0.05656338 0.06496572 0.03278396 0.12462717
0.023840185 0.035367753 0.09982757 0.07435508 0.038608223 0.06061107 0.14578196 0.1227376
0.06364337 0.05003085 0.044027716 0.053001832 0.035153598 0.08659342 0.016892206 0.039608747
0.11595956 0.05552726 0.053821787 0.037256155 0.24661155 0.048834797 0.038684797 0.1307025
0.051601265 0.12919697 0.02621637 0.138731 0.037731964 0.08230945 0.039732896 0.11409927
0.11359924 0.05059565 0.03277518 0.06740584 0.018470567 0.16524507 0.05407934 0.021150239
0.048124567 0.032861687 0.04258017 0.24719547 0.16818154 0.11842964 0.034499995 0.15823667

conv3.4.running_var f4 [64]
00000000: 3719 083e 4dbd 733d bded b83e 89c5 0d3e
00000010: b296 ba3e 7c9b 043f f993 be3e 1ddc 013e
00000020: b44f 013e e685 0e3f b064 dd3e 8e74 b63c
00000030: 8e6b 403e e087 103e 5efa 853d 5a3c e73e
00000040: 3dac 0f3d 0912 663d 3ca7 a03e 23e4 923e
00000050: 3799 b93d f1da 683e 9ea5 f93e ab47 ef3e
00000060: e2a3 ee3d d908 0e3e b7c2 393e 3ad2 443e
00000070: aae6 e83d 3140 ad3e 9945 203d c66a 6c3d
00000080: 9507 d33e dc9c 3e3e 14c4 d53d 605e 063e
00000090: 5532 1140 f821 093e 6e24 0b3e 8edf 003f
000000a0: e846 c43d 8a0a ab3e 1d6a 953d b03e 033f
000000b0: 1f32 db3d 128f 7f3e 133a ed3d 75ce 303e
000000c0: 3061 d53e 1a32 253e 0be6 be3d 7414 803e
000000d0: b6bb 7a3d c996 263f d3ee 393e ba65 653d
000000e0: 464f ad3d 1de6 a53d fef9 1f3e 695e 373f
000000f0: 5855 3d3f 32b8 ce3e c13b 353e 6760 063f
0.13290869 0.059506703 0.3611888 0.13844885 0.36443096 0.5179975 0.3722227 0.12681623
0.1262806 0.5567306 0.4324088 0.022272374 0.18791029 0.14114332 0.065418944 0.45163232
0.03507637 0.056169543 0.3137759 0.2868968 0.090624265 0.2273977 0.48759168 0.46734366
0.11652352 0.13870563 0.18140684 0.1922082 0.11372121 0.33838037 0.039128873 0.057719015
0.41216722 0.18614525 0.104377896 0.13121939 2.268697 0.13391864 0.13588116 0.5034112
0.09583837 0.33406478 0.0729563 0.5126753 0.10702919 0.2495692 0.115833424 0.17266257
0.4167571 0.16132393 0.09321221 0.25015604 0.06121417 0.6507383 0.1815751 0.056005217
0.08462386 0.08100531 0.15622708 0.71628433 0.7395835 0.40374905 0.17698576 0.5249085

fc.0.weight f4 [32, 64]
00000000: 1045 3a3e 33c8 603e fc0c 95bd f24e 38be
00000010: 2db0 a0be dc89 a5bd 09d0 35be 3dd2 7b3d
00000020: 56e9 d73d cd3b 32be 3044 4dbe e5d9 37bd
00000030: dfa1 58be b694 183e 2241 243e a99c 84be
00000040: 11cb 583d 1198 d63d 57db 93be 764f 63be
00000050: 888a 2a3d b051 0dbe 2057 44be fe0a a1be
00000060: 9452 183e fafb 2b3d 0ad8 9c3c 4666 78be
00000070: baed 423e cef4 39be 5ab8 953d 3f43 1e3e
00000080: 348f 86bd eb0a e03d 7468 ed3d d5f7 3b3e
00000090: f7fb d93d c8bd 90be b063 25be 8e0c 86be
000000a0: 5046 173e ffac 873d 226f da3d c334 43be
000000b0: 399d 193e 1c72 9dbe b6ea 5cbe 8a0e 113d
000000c0: 051a abbd 1dd7 80be f1f7 d93d 8ae7 85be
000000d0: a8c3 db3d 9493 83be 9a91 32be 9ba7 123e
000000e0: f73a c33d 2225 20be b503 90be 52f4 a0b9
000000f0: 18c3 0abe 7f95 ecbd faab 633d cc8d 4fbe
00000100: 95d0 5b3d e328 8e3d 4d1a 1ebe f8e9 87be
00000110: f215 11be f9da debd 017a 68be afc7 103e
00000120: b39f e3bc d70e 81be 4f8d 18bd 449f 35bc
00000130: 90ba 27be d296 063e 0cd0 583e 6276 37be
00000140: 5a69 0b3e ef47 dc3d 8d90 4abe 9a67 9cbd
00000150: 6248 123d 3018 8dbe 4bf2 7cbe e00c 84be
00000160: 6384 063d fedf 2e3e c1b5 b53d 2485 83be
00000170: 645b 253e 44b5 8dbe 0e2d ab3d a2b1 23bd
00000180: 7910 0bbe 04fb 793e 73ee 233e b865 433e
00000190: 2b39 493d 2365 22be a501 64be ca44 88be
000001a0: 952f 4e3c 2317 813d 476d 2d3e ee22 9abd
000001b0: 6e76 5f3d ed04 5fbe a5ad 97bd af00 0d3e
000001c0: 3cc4 91be fc1b 44be 8574 0f3d da24 0abe
000001d0: fe88 f93d 4125 cfbd 8ede 17be d69c 413e
000001e0: 67b2 2e3e bb83 36be da0b 35be 3071 12bd
000001f0: 3b12 57be a7e1 cdbd 4f58 cc3d 8558 2abe
00000200: 6f8d 9e3d bc45 f13d f8be 38be fb2a 4abe
00000210: d897 62be 79e2 07be a0d5 81be 1766 d23d
00000220: 6b17 8b3d 7fca dfbd de2b 05be b003 e33d
00000230: f95c 49be 0c52 d73d 1502 183e d597 41be
00000240: c99f 423d 1e58 183e d6b3 82bd 6cd2 85be
00000250: deb0 da3d 5dfc 3fbe 3cec 84be 3509 77be
00000260: 7dca 8f3c cc7d 333d 9af3 273e 8866 5dbe
00000270: aa4a 003e cda9 0fbe 7ebf 393e 4574 49bd
00000280: 1f7a 1abe 6b20 d33d 0654 a6bb 3083 1f3e
00000290: 20fc 79bd 710d 55be 15ea 0ebe 47c5 6ebe
000002a0: 4522 843d f483 0ebc 28d3 313e 0c70 3cbe
000002b0: 3c77 b63d 0c51 78be d1a4 4cbd 6387 89bd
000002c0: 4c92 89bd 9949 f0bd 0e7b 173e 93f4 4ebe
000002d0: 0109 1d3e b76c 54be 78d8 36be 720a 5c3e
000002e0: 65af b13d 6ab9 90be 887c 89be 812f 933d
000002f0: 2606 34be 8659 3dbe 60b5 593d 885a 40be
00000300: 2aa6 4bbe 7ba4 06be 0b48 b03d 62bd 1a3e
00000310: a008 713e 047b 593e 7d11 363e 5c05 19be
00000320: f7e5 04bd f4a3 7c3e 26e3 e83d b29e 04be
00000330: 7b05 423e 51f6 f3bd 7142 4abe 76bd 113e
00000340: 8781 2abe af19 bcbc 6960 f13d b2b5 583e
00000350: 3651 1dbe 9fad 5e3e de1f 133e 669e 303e
00000360: 8223 8fbc c7c4 e1bc 7372 e3bd bbe3 523d
00000370: 5023 ecbc 5fea 963e 1897 5cbd a0e4 d8bd
00000380: 39f3 363e 3581 06be 74e0 32be f358 0ebe
00000390: 739f b9bd 240b 213e 8b17 ef3d e807 1c3e
000003a0: 036c 64bc 46f1 1cbe 5ead c9bd 6788 563e
000003b0: ad3c adbd 0914 693e 8643 ba3d 2595 73bd
000003c0: 6b7c 463d e44a 013e 4968 f0bd ad1b 033e
000003d0: 3c8f bdbd 81b5 583e aa4e 6e3e 0b9d 12be
000003e0: fb1c 1ebe 433a 373e 4e33 ab3d 0a83 f1bc
000003f0: 753f 413d b7fb 783e 92f9 a4bd 2236 063e
0.18190408 0.2195137 -0.07277867 -0.17998865 -0.3138441 -0.08082935 -0.1775514 0.061479796
0.10542552 -0.17405625 -0.20045543 -0.044885535 -0.21155499 0.14900479 0.16040471 -0.25900772
0.052928034 0.10478223 -0.2887828 -0.2219828 0.04163602 -0.13800693 -0.1917386 -0.314537
0.14875251 0.04198835 0.019145984 -0.24257764 0.19035998 -0.18159792 0.07310553 0.1545534
-0.065702826 0.109395824 0.115921885 0.18356259 0.106437616 -0.28269792 -0.16151309 -0.26181453
0.14772916 0.06624793 0.10665728 -0.19063096 0.15001382 -0.3075112 -0.2157391 0.035414256
-0.08354572 -0.25164118 0.10642994 -0.26153213 0.10730678 -0.2569853 -0.17438355 0.14321749
0.09532731 -0.15639165 -0.28127828 -0.0003069961 -0.13550985 -0.115519516 0.05558393 -0.20268935
0.053665716 0.06941392 -0.1543972 -0.26545691 -0.14168528 -0.108816095 -0.22702791 0.14138673
-0.027786111 -0.25206634 -0.037244137 -0.011085335 -0.16379762 0.13143471 0.21173114 -0.17916253
0.13614407 0.10755908 -0.19781704 -0.07636948 0.03571356 -0.27557516 -0.24701802 -0.25791073
0.032841098 0.17077634 0.088725574 -0.25687516 0.16148144 -0.27677357 0.08358203 -0.039964326
-0.13580503 0.24412161 0.1600893 0.19081771 0.049126785 -0.15858893 -0.22266252 -0.26614982
0.012584587 0.06303241 0.16936217 -0.075261936 0.054556303 -0.21779223 -0.07406167 0.13769792
-0.28470027 -0.191513 0.03502323 -0.1349062 0.12184332 -0.101145275 -0.14830992 0.18907484
0.17060243 -0.17823689 -0.17680302 -0.035752475 -0.21003048 -0.100528054 0.09977781 -0.1663533
0.0774182 0.11780879 -0.18041599 -0.19742958 -0.22128236 -0.13269986 -0.25358295 0.10273378
0.06791576 -0.10927295 -0.13005015 0.11084688 -0.19664373 0.10513696 0.14844544 -0.18905576
0.047515664 0.14877364 -0.06381957 -0.26137102 0.10678266 -0.18748613 -0.25961483 -0.24124606
0.017552609 0.04382114 0.1640152 -0.21621144 0.12528482 -0.14029618 0.18139455 -0.04918315
-0.15085648 0.103089176 -0.0050759343 0.15577388 -0.06103146 -0.20805909 -0.13956483 -0.23317443
0.06451849 -0.008698452 0.17365706 -0.18402117 0.08909461 -0.24249667 -0.04996187 -0.06715276
-0.06717357 -0.11732788 0.14793035 -0.20210485 0.15335466 -0.20744596 -0.17856014 0.2148836
0.08676032 -0.2826646 -0.26852822 0.07186795 -0.1758047 -0.18491182 0.05315149 -0.18784535
-0.19887605 -0.13148682 0.08607491 0.15111306 0.23538446 0.21238333 0.17780109 -0.1494345
-0.032445874 0.24671918 0.1137145 -0.12951162 0.18947403 -0.119122155 -0.19751908 0.1423243
-0.16650973 -0.022961466 0.11785967 0.21163061 -0.15363011 0.21745919 0.14367625 0.17247924
-0.017472986 -0.027559651 -0.11105814 0.051486712 -0.028825432 0.29475686 -0.05385503 -0.10590482
0.1786622 -0.13135226 -0.17468435 -0.13901119 -0.09063616 0.15726906 0.11674412 0.15237391
-0.013941768 -0.15326414 -0.0984752 0.20950471 -0.084588386 0.22761549 0.0909491 -0.059468407
0.048458498 0.12626225 -0.11738641 0.12803526 -0.092558354 0.21162988 0.23272195 -0.1431772
-0.15440743 0.17893319 0.08359395 -0.02948143 0.047179658 0.24314772 -0.08055414 0.13106588

fc.0.bias f4 [32]
00000000: 8f19 dcbc 70d1 a0bd cd74 b2bd b071 743d
00000010: 294c 9b3c 5619 b3bd 93ee 583d f980 b2bc
00000020: 8cba d5bd 644c 58bd d5f3 23bd 3944 5bbb
00000030: 8650 a13d a81e 56bd fbf0 87bd d665 6b3b
00000040: e84e 1e3d f61d 55bd 6387 46bd 365f 873b
00000050: 756a 103d f7d0 ca3d 0556 783d 428e 3ebd
00000060: d48e 13bd 3c87 d83d 016a 893d 2803 f03c
00000070: cb7c c73d 89bf 923d 932f a6bc 3a32 0e3d
-0.026867656 -0.07852447 -0.08713684 0.059678733 0.018957214 -0.08745067 0.052961897 -0.021790015
-0.104359716 -0.052807227 -0.04002746 -0.0033457412 0.07876687 -0.05227533 -0.0663776 0.0035918853
0.03864947 -0.052030526 -0.04846896 0.004131223 0.035257775 0.09903138 0.06062891 -0.046522386
-0.036024883 0.10572669 0.06709672 0.02929838 0.09740599 0.07165439 -0.020286357 0.03471587

fc.3.weight f4 [1, 32]
00000000: 4c07 53be 98d7 82be ec7f 8cbe d01c f73e
00000010: fc71 de3e c077 6ebe a1b1 943e d498 ec3e
00000020: 5a87 77be 2090 89be 57af e53e c5b2 68be
00000030: 7cad 9cbe 06b8 3abe fbda 4abe 8e0a 4fbe
00000040: eeb8 60be 4b62 c93e a1ed 9ebe 4e08 76be
00000050: a1f1 b03e 5ae1 df3e 8c58 db3e e0d7 ef3e
00000060: 4b40 8bbe 396b 96be f7c0 b83e 07bc 83be
00000070: 39bd d23e 81cf 5cbe bdf8 96be 68f3 7cbe
-0.20608252 -0.2555511 -0.27441347 0.4826417 0.43446338 -0.23287868 0.2904177 0.4621035
-0.24172726 -0.2686777 0.44860336 -0.22724445 -0.30601108 -0.18234262 -0.19810097 -0.2021887
-0.21945545 0.39332804 -0.3104067 -0.24026605 0.34559348 0.43726617 0.42840993 0.46844387
-0.2719749 -0.2937868 0.3608472 -0.2572939 0.4115999 -0.21563531 -0.29486647 -0.24702227
