5 第五讲 机器学习训练模型的数学范式v16/models/model120.pth (torch, 112459 bytes, 21 tensors)

conv1.0.weight f4 [16, 3, 3, 3]
-0.012071553 -0.11817081 0.14581029 -0.05008888 -0.13140547 -0.17201956 0.046650287 -0.15727907
0.09551568 0.076220386 0.19225837 -0.13374953 0.039112438 0.04182044 0.025721157 0.11341094
0.0065788953 -0.062106647 0.15416786 -0.113475844 -0.14940403 0.11447918 -0.042570774 0.15665025
-0.112171985 0.16091937 0.044468198 -0.05852738 0.13291736 -0.06489574 -0.011377781 -0.07551739
0.09319009 0.053731818 0.146599 -0.08323807 0.029492028 -0.0061421674 0.17251445 -0.15941301
-0.058213383 0.18080568 0.064856656 -0.04328418 0.10124413 0.041421287 -0.06642828 -0.1470495
-0.18944848 0.102759786 -0.007943809 0.07337308 -0.15928467 0.17763205 0.083025336 -0.01172932
-0.09668097 -0.012190334 -0.13206162 -0.17298357 -0.060303282 0.11416137 -0.17197615 0.16132806
0.09240084 -0.15795997 0.17566541 0.05388283 -0.041801006 0.029969987 0.04350857 0.12304851
0.1875479 0.032182366 -0.045151148 0.016328488 0.035704818 -0.08838929 -0.08146116 -0.20136125
0.17586769 -0.07419661 -0.009845459 -0.15238005 0.010149402 0.17894432 -0.15296884 0.12257681
0.19962832 -0.18293618 -0.040952355 0.010927672 0.003220417 -0.005824157 0.16210568 0.14660929
0.021233456 0.061239474 -0.101562224 -0.14255418 -0.09874543 0.15308025 0.16758455 0.15188941
0.032055527 0.09365681 -0.06979869 -0.037572816 -0.19345412 0.06141087 -0.101016074 0.16181155
0.022182496 0.11872782 -0.043983303 0.05294028 -0.15252975 -0.20265517 -0.113311276 0.2031032
0.07248605 0.10365356 0.20606646 0.08308405 0.08345313 -0.049365945 -0.13190217 0.098963186
0.158476 -0.17636959 0.053379726 -0.044673238 0.15875246 -0.04118332 -0.03953039 -0.04360429
-0.058897972 0.15181834 -0.09952656 0.04585431 0.0035513416 0.13001539 0.086302206 -0.14383627
-0.0072121555 0.007833365 -0.027189424 0.16188028 0.20229681 -0.12915027 -0.053441577 0.19956908
0.05791252 -0.08441418 0.10187019 -0.04616805 -0.09595727 -0.20367943 0.10915267 -0.069835536
-0.15432604 -0.15433085 -0.0225375 0.1282399 0.10184472 0.13122435 -0.08056596 -0.15970638
-0.0330784 -0.09175962 0.06670609 0.13215832 -0.06361437 -0.20476116 0.16095929 0.05194817
-0.13370648 -0.058162477 -0.040279333 -0.12631612 0.18041734 0.060749903 -0.12558569 -0.10604737
-0.087131105 -0.1912619 -0.008885168 -0.058374166 -0.10417755 0.01761726 -0.094662696 0.10698925
0.09723057 -0.06660294 -0.088057 -0.19848803 -0.021775521 -0.1632791 0.18558884 0.11441418
0.011339311 -0.010067504 -0.0025499854 0.19698203 -0.02003847 0.040496998 0.12131465 0.06525241
-0.019851083 0.12807812 -0.16363406 0.0187813 -0.20684524 0.07920457 0.106415264 -0.06214005
-0.15842699 -0.10171724 -0.0053810803 -0.15233846 -0.047648206 -0.052275755 -0.11417698 0.08213939
-0.10303162 0.08227971 -0.18322337 -0.06435482 0.17879246 -0.1306641 -0.053864136 0.09364678
0.070722975 -0.072003394 0.084932074 -0.21745864 -0.26870242 -0.06001932 0.16621296 0.09355565
0.15266287 0.047849078 0.024548486 0.18968044 0.0883413 0.054318592 -0.14570911 -0.12469694
0.1340003 0.20269546 0.053620905 0.077896066 -0.14739883 -0.06468455 -0.050092064 -0.093993396
00000000: c3c7 45bc 8a03 f2bd 4b4f 153e ff29 4dbd
00000010: 288f 06be e525 30be 5f14 3f3d c40d 21be
00000020: ba9d c33d 6f19 9c3d 61df 443e a3f5 08be
00000030: 5d34 203d e94b 2b3d 2db5 d23c ff43 e83d
00000040: c693 d73b 8a63 7ebd 2ede 1d3e 0666 e8bd
00000050: 5ffd 18be 0f74 ea3d b15e 2ebd ec68 203e
00000060: 6dba e5bd 0cc8 243e 4924 363d 68ba 6fbd
00000070: 7d1b 083e 0fe8 84bd df69 3abc dda8 9abd
00000080: 72da be3d e515 5c3d 0c1e 163e b978 aabd
00000090: 4499 f13c 3c44 c9bb a1a7 303e 2a3d 23be
000000a0: 2871 6ebd 2025 393e 91d3 843d c14a 31bd
000000b0: 1559 cf3d 5ea9 293d 8d0b 88bd 2594 16be
000000c0: c8fe 41be b973 d23d c026 02bc a044 963d
000000d0: 851b 23be 2de5 353e 3009 aa3d 552c 40bc
000000e0: ac00 c6bd f7b9 47bc 293b 07be 9b22 31be
000000f0: 9300 77bd 70cd e93d 841a 30be 2f33 253e
00000100: a73c bd3d 42c0 21be a2e1 333e 3eb4 5c3d
00000110: 8837 2bbd 9e83 f53c 0b36 323d db00 fc3d
00000120: 8f0c 403e a8d1 033d 69f0 38bd 52c3 853c
00000130: 373f 123d 7205 b5bd 1cd5 a6bd a531 4ebe
00000140: a916 343e 64f4 97bd d94e 21bc 8409 1cbe
00000150: ad49 263c 2e3d 373e dda3 1cbe 8d09 fb3d
00000160: 5e6b 4c3e 9f53 3bbe a8bd 27bd fa09 333c
00000170: a20d 533b 92d8 bebb 08ff 253e bf20 163e
00000180: c9f1 ad3c 3ed6 7a3d dbff cfbd b9f9 11be
00000190: 0b3b cabd 12c1 1c3e 499b 2b3e e688 1b3e
000001a0: a84c 033d 24cf bf3d 9ef2 8ebd f4e5 19bd
000001b0: d618 46be f789 7b3d 84e1 cebd edb1 253e
000001c0: 11b8 b53c 9227 f33d d627 34bd e8d7 583d
000001d0: c230 1cbe d684 4fbe be0f e8bd 49fa 4f3e
000001e0: 9173 943d 5148 d43d 1603 533e f827 aa3d
000001f0: 7ae9 aa3d f233 4abd 5d11 07be 36ad ca3d
00000200: 8847 223e 3b9a 34be b3a4 5a3d 49fb 36bd
00000210: 0190 223e d7af 28bd 9eea 21bd 699a 32bd
00000220: 003f 71bd 4476 1b3e 95d4 cbbd bbd1 3b3d
00000230: a0bd 683b c122 053e 36bf b03d d149 13be
00000240: f253 ecbb 8457 003c 5bbc debc f2c3 253e
00000250: e526 4f3e f83f 04be 8ee5 5abd d65b 4c3e
00000260: ae35 6d3d 57e1 acbd 51a1 d03d b61a 3dbd
00000270: 3f85 c4bd 5791 50be 6f8b df3d ef05 8fbd
00000280: a507 1ebe e808 1ebe 90a0 b8bc 5251 033e
00000290: f793 d03d ad5f 063e c4ff a4bd 128a 23be
000002a0: 377d 07bd 78ec bbbd 349d 883d 8354 073e
000002b0: 4048 82bd e9ac 51be 83d2 243e 9bc7 543d
000002c0: 5aea 08be c73b 6ebd f1fb 24bd 0359 01be
000002d0: 53bf 383e e4d4 783d 8999 00be 5d2f d9bd
000002e0: cb71 b2bd 29da 43be 1893 11bc c019 6fbd
000002f0: 0a5b d5bd 1252 903c 84de c1bd 2e1d db3d
00000300: d220 c73d 1f67 88bd 3a57 b4bd 7240 4bbe
00000310: 9462 b2bc a332 27be 000b 3e3e fb51 ea3d
00000320: 84c8 393c 2cf2 24bc a81d 27bb a8b5 493e
00000330: b827 a4bc 2ee0 253d d173 f83d 0ea3 853d
00000340: bd9e a2bc e926 033e b08f 27be 3edb 993c
00000350: 3dcf 53be 0136 a23d 3ff0 d93d 9186 7ebd
00000360: af3a 22be 2151 d0bd c653 b0bb 9dfe 1bbe
00000370: c42a 43bd 1a1f 56bd 9fd5 e9bd b238 a83d
00000380: 3e02 d3bd 4482 a83d e89e 3bbe 76cc 83bd
00000390: 5f15 373e cfcc 05be a4a0 5cbd e2c9 bf3d
000003a0: 35d7 903d 8476 93bd def0 ad3d 7aad 5ebe
000003b0: 5d93 89be d2d6 75bd bb33 2a3e 1b9a bf3d
000003c0: a853 1c3e 65fd 433d e819 c93c 973b 423e
000003d0: 49ec b43d 2c7d 5e3d c534 15be 1c61 ffbd
000003e0: 6037 093e 668f 4f3e 98a1 5b3d f987 9f3d
000003f0: b8ef 16be 5579 84bd 562d 4dbd 9c7f c0bd

conv1.0.bias f4 [16]
0.08070732 0.12419746 0.06700863 0.057802796 -0.19307795 -0.0021198771 0.120908454 0.02678633
-0.19974533 0.010077433 0.19256021 -0.115974255 0.17354861 -0.16710284 0.014802835 0.2310675
00000000: e149 a53d 3d5b fe3d d23b 893d a0c2 6c3d
00000010: 3ab6 45be a3ed 0abb da9e f73d 016f db3c
00000020: 0a8a 4cbe d11b 253c 812e 453e e983 edbd
00000030: bab6 313e 021d 2bbe 9787 723c f59c 6c3e

conv1.3.weight f4 [16]
0.9549981 0.9786801 1.0300335 0.9090398 1.0144459 1.0130053 1.000539 0.9093869
0.9366384 1.0440756 0.9291943 1.1457084 0.91053253 1.0200361 0.93716013 0.96617967
00000000: c17a 743f c78a 7a3f 23d8 833f d5b6 683f
00000010: 5dd9 813f 28aa 813f a911 803f 94cd 683f
00000020: 89c7 6f3f 45a4 853f addf 6d3f 93a6 923f
00000030: a918 693f 8b90 823f bae9 6f3f 8d57 773f

conv1.3.bias f4 [16]
-0.008575942 0.16930386 -0.0034902222 0.03135194 0.17411119 -0.033686195 0.089230135 0.053868912
0.22549354 0.04111763 -0.14090179 0.040067304 0.02731349 0.08441629 0.028345114 -0.13319013
00000000: 1c82 0cbc fe5d 2d3e 36bc 64bb e46a 003d
00000010: 344a 323e 89fa 09bd 4abe b63d a6a5 5c3d
00000020: c7e7 663e f66a 283d 8f48 10be 9d1d 243d
00000030: 8ac0 df3c 73e2 ac3d 0334 e83c fe62 08be

conv1.3.running_mean f4 [16]
0.11377282 0.2075515 0.084775634 0.25292072 0.03274738 0.013700349 0.018990546 0.087767996
1.2820513e-05 0.03313911 0.44682124 0.012407732 0.17864558 0.021867106 0.12002572 0.18668357
00000000: b901 e93d 6188 543e d99e ad3d d37e 813e
00000010: 1e22 063d 6e77 603c 1092 9b3c b5bf b33d
00000020: af17 5737 e0bc 073d c1c5 e43e cd49 4b3c
00000030: deee 363e a522 b33c 0bd0 f53d fa29 3f3e

conv1.3.running_var f4 [16]
0.0025616158 0.0030289006 0.0027919603 0.01548212 0.0029839126 0.0009160245 0.0017147146 0.0031046157
1.2009758e-06 0.002218055 0.034942828 0.0012071312 0.0012176955 0.0016257584 0.007457611 0.001970443
00000000: c8e0 273b 8580 463b 52f9 363b b8a8 7d3c
00000010: bf8d 433b 5d21 703a 46c0 e03a cf76 4b3b
00000020: 3731 a135 ca5c 113b 3620 0f3d 9a38 9e3a
00000030: 159b 9f3a 6617 d53a fa5e f43b 8c22 013b

conv2.0.weight f4 [32, 16, 3, 3]
0.0054155793 -0.025203124 -0.013076918 0.011434773 0.069094524 0.021127215 0.07154128 -0.011483104
-0.004783419 -0.046647627 -0.08573656 -0.047995746 -0.025418565 0.03339942 -0.034259774 -0.032840315
-0.047342114 0.044209532 0.10810258 -0.019520337 -0.09376226 0.08771658 0.06326681 -0.066525474
-0.047789913 -0.04846952 -0.0665877 0.09958901 0.05552256 -0.055305474 0.0025115781 0.06768713
-0.022641923 0.04246156 0.017114123 0.044444658 0.03979793 0.036012527 -0.03458048 -0.11017257
-0.017754218 0.002621186 -0.055278547 -0.053690754 0.010879871 0.025203194 0.07705442 0.0922528
-0.0377323 0.06831239 0.04579913 0.09559456 0.10475288 0.07362165 0.061110232 0.024194842
-0.02277193 -0.035045028 0.047895644 -0.0025726014 0.04196384 0.03668519 0.07530925 0.0614557
-0.068294816 -0.043335177 0.065054365 0.05632908 -0.054865435 0.035089146 -0.07873678 -0.060418256
-0.05437842 -0.17182603 -0.09020269 -0.16387412 -0.20364963 -0.15892483 -0.13802765 -0.09270705
-0.18559027 -0.1328985 -0.051962074 0.06366633 -0.071615085 0.007863353 0.0642068 -0.11208919
-0.104950115 0.07141325 0.09997916 -0.0027804063 -0.006987624 -0.034832805 0.038557556 -0.021303339
0.10735747 0.057129126 0.033697855 0.014069965 -0.012099587 0.036185812 -0.09380505 -0.11151766
-0.1402616 -0.038971126 0.038257618 0.02629275 0.06332331 -0.01284149 0.050671924 0.04232852
-0.007761725 0.008163433 -0.04487836 0.005483687 -0.066974334 0.063299686 -0.06826099 -0.12661123
-0.037273597 -0.06733942 -0.022743782 -0.14989474 -0.055581562 0.051852364 0.022220539 -0.047992993
-0.01727394 -0.037917458 -0.05830355 -0.0534043 -0.0393631 0.031682625 0.034866456 -0.04257214
0.001799323 0.019125525 0.009665163 -0.06867043 -0.04842112 0.056243178 0.062843725 -0.00029528953
0.022871276 -0.026336875 0.032597147 0.07931814 0.009868627 -0.052361585 0.017181251 0.045463406
0.07114993 -0.02584991 0.013346855 -0.052777905 -0.06724809 0.019142015 -0.12381871 0.030831972
-0.01175608 -0.029200656 0.026812162 0.096031174 0.08292534 0.11333191 -0.053081945 0.037415575
0.10680495 -0.0015288112 0.08814598 0.08592448 0.012684256 -0.01295375 0.012174086 -0.014118644
0.07575585 0.06200651 -0.016563477 0.093261 0.062103644 0.054257277 -0.035576552 0.074878514
0.060486633 0.049599275 0.08765921 0.00038727198 0.06793644 0.006506206 -0.07870718 0.000294921
-0.06899722 -0.1481952 -0.097251445 0.016377436 -0.05413654 -0.08431848 -0.019572753 -0.018855413
0.076522455 0.119824044 0.04463322 0.076917 0.041250676 -0.052885536 0.08018396 -0.046334926
0.07157909 0.04788917 -0.04350703 -0.066790044 -0.06252395 0.0072029587 -0.09766236 -0.0032386205
0.007687456 -0.04784708 0.06519215 -0.103818685 0.011623728 -0.024023209 -0.03479129 -0.09080413
-0.051895183 0.036597606 -0.081439056 -0.059879452 0.051041834 0.0027646078 -0.079386674 0.09351442
-0.017038923 -0.019044153 0.041352425 -0.027504563 0.09663843 0.112959035 0.11557357 -0.002123256
0.018229932 0.12783752 0.06557493 0.026706463 0.027753508 0.08874655 -0.061084576 -0.04006633
-0.015221053 0.032180946 -0.008497709 0.041443367 0.08325193 0.06189214 0.065197326 0.06497986
00000000: 2c75 b13b c876 cebc 9240 56bc ea58 3b3c
00000010: 6e81 8d3d fb12 ad3c 3c84 923d a123 3cbc
00000020: 3abe 9cbb 9511 3fbd a696 afbd 3097 44bd
00000030: 983a d0bc d5cd 083d fa53 0cbd 9183 06bd
00000040: cee9 41bd 0e15 353d e364 dd3d 1de9 9fbc
00000050: 6e06 c0bd c0a4 b33d 0792 813d 823e 88bd
00000060: 5bbf 43bd fa87 46bd 225f 88bd 53f5 cb3d
00000070: a06b 633d fe87 62bd 4a99 243b 8d9f 8a3d
00000080: 8e7b b9bc 2cec 2d3d eb32 8c3c 9a0b 363d
00000090: 2703 233d df81 133d 43a4 0dbd 28a2 e1bd
000000a0: 4b71 91bc 34c8 2b3b c26b 62bd d6ea 5bbd
000000b0: 7d41 323c ee76 ce3c b5ce 9d3d 09ef bc3d
000000c0: 2f8d 1abd 5ee7 8b3d de97 3b3d 15c7 c33d
000000d0: ae88 d63d f3c6 963d b94e 7a3d 4334 c63c
000000e0: 338c babc 608b 0fbd 392e 443d 1799 28bb
000000f0: 47e2 2b3d 3643 163d bc3b 9a3d f9b8 7b3d
00000100: 27de 8bbd 3a80 31bd 393b 853d 52b9 663d
00000110: 94ba 60bd a3b9 0f3d c040 a1bd 2279 77bd
00000120: e8bb 5ebd 2af3 2fbe 30bc b8bd 9ece 27be
00000130: 8789 50be 31bd 22be 1f57 0dbe 32dd bdbd
00000140: 600b 3ebe 8b16 08be 2fd6 54bd 7e63 823d
00000150: eeaa 92bd 4bd5 003c db7e 833d 048f e5bd
00000160: 16f0 d6bd 1c41 923d e0c1 cc3d 7a37 36bb
00000170: 70f8 e4bb d8ac 0ebd 87ee 1d3d 5784 aebc
00000180: 3cde db3d 3b00 6a3d c306 0a3d b685 663c
00000190: 593d 46bc 9337 143d dd1c c0bd 5f63 e4bd
000001a0: bda0 0fbe 30a0 1fbd 05b4 1c3d e563 d73c
000001b0: a7af 813d 1d65 52bc 5d8d 4f3d ac60 2d3d
000001c0: 1256 febb ebbf 053c 5fd2 37bd 80b0 b33b
000001d0: d729 89bd 44a3 813d 6bcc 8bbd 60a6 01be
000001e0: 33ac 18bd 40e9 89bd 2b51 babc 027e 19be
000001f0: 7ea9 63bd 2563 543d d907 b63c 4d94 44bd
00000200: 1482 8dbc 564f 1bbd b4cf 6ebd 78be 5abd
00000210: 343b 21bd a4c5 013d 21d0 0e3d 2060 2ebd
00000220: 43d7 eb3a 22ad 9c3c a25a 1e3c 15a3 8cbd
00000230: 3955 46bd 3f5f 663d 36b4 803d 17d1 9ab9
00000240: 8b5c bb3c 6ec0 d7bc 9684 053d 8d71 a23d
00000250: 06b0 213c 1a79 56bd b2bf 8c3c d637 3a3d
00000260: 0eb7 913d 31c3 d3bc c4ac 5a3c a52d 58bd
00000270: 5eb9 89bd b7cf 9c3c aa94 fdbd 5593 fc3c
00000280: 939c 40bc 3736 efbc 2ea5 db3c feab c43d
00000290: c3d4 a93d 8f1a e83d 746c 59bd 1341 193d
000002a0: 8ebc da3d 6462 c8ba e185 b43d 2cf9 af3d
000002b0: a0d1 4f3c f73b 54bc d175 473c e351 67bc
000002c0: e225 9b3d 8afa 7d3d 21b0 87bc a0ff be3d
000002d0: 6460 7e3d e13c 5e3d b8b8 11bd e859 993d
000002e0: d5c0 773d 9c28 4b3d ac86 b33d c40a cb39
000002f0: 4322 8b3d 0332 d53b 3b31 a1bd a09f 9a39
00000300: 6a4e 8dbd 7cc0 17be c42b c7bd f929 863c
00000310: 47be 5dbd 2baf acbd 0a57 a0bc ab76 9abc
00000320: ceb7 9c3d 4f66 f53d 53d1 363d a986 9d3d
00000330: 78f6 283d 819e 58bd 7d37 a43d b1c9 3dbd
00000340: 0f98 923d 6f27 443d 6d34 32bd 38c9 88bd
00000350: 8f0c 80bd cc06 ec3b 3403 c8bd 093f 54bb
00000360: 0ee7 fb3b 4dfb 43bd 7683 853d e49e d4bd
00000370: 7371 3e3c 52cc c4bc 5081 0ebd 84f7 b9bd
00000380: 0b90 54bd 5fe7 153d 85c9 a6bd 2844 75bd
00000390: 3e11 513d 6c2e 353b 7b95 a2bd 7d84 bf3d
000003a0: 3695 8bbc 7c02 9cbc 2961 293d 4051 e1bc
000003b0: 5fea c53d 1157 e73d d6b1 ec3d 5326 0bbb
000003c0: f056 953c d7e7 023e 264c 863d 83c7 da3c
000003d0: 535b e33c c0c0 b53d d233 7abd 981c 24bd
000003e0: b961 79bc 2bd0 033d fa39 0bbc 85c0 293d
000003f0: fd7f aa3d 9d82 7d3d 2d86 853d 2914 853d

conv2.0.bias f4 [32]
-0.09509313 -0.07183374 -0.11088256 0.06975675 -0.14029644 -0.110046566 0.09224666 0.032907475
-0.13059407 0.007792628 -0.01806755 -0.19516386 -0.033820637 -0.09967557 -0.24376032 -0.021883814
-0.10877589 -0.07041119 -0.079291336 0.10550839 0.017280469 -0.12219769 -0.08410667 -0.09760439
0.034853496 -0.1814127 -0.12056967 0.0053654034 -0.11195572 -0.18820179 -0.123955 -0.14568722
00000000: 30c0 c2bd 911d 93bd 6516 e3bd a0dc 8e3d
00000010: dfa9 0fbe 1860 e1bd d1eb bc3d fdc9 063d
00000020: 74ba 05be 4d59 ff3b 6602 94bc 09d9 47be
00000030: 8287 0abd b522 ccbd 4e9c 79be af45 b3bc
00000040: e5c5 debd be33 90bd 7f63 a2bd c814 d83d
00000050: c58f 8d3c c842 fabd 1e40 acbd cfe4 c7bd
00000060: 8ac2 0e3d 40c4 39be 3bed f6bd 44d0 af3b
00000070: 0a49 e5bd f8b7 40be 1edc fdbd 082f 15be

conv2.3.weight f4 [32]
1.0098423 0.9288608 1.0017253 0.894276 0.97773075 0.9689309 0.95355064 0.995281
0.96787316 1.0089613 1.0053949 1.0298371 1.0083969 0.986714 1.0389682 1.0074772
0.7936359 0.9871181 0.9942574 0.9213106 0.9292702 0.91667473 1.0015658 1.0277023
0.97939175 1.0289946 1.005442 0.880362 0.98804796 1.0149661 0.92488945 0.93643546
00000000: 8342 813f d2c9 6d3f 8938 803f 46ef 643f
00000010: 904c 7a3f db0b 783f e51b 743f bcca 7e3f
00000020: 89c6 773f a525 813f c8b0 803f b4d1 833f
00000030: 2613 813f 4a99 7c3f e9fc 843f 03f5 803f
00000040: b92b 4b3f c6b3 7c3f a787 7e3f 03db 6b3f
00000050: a7e4 6d3f 32ab 6a3f 4f33 803f c08b 833f
00000060: 6bb9 7a3f 18b6 833f 53b2 803f 675f 613f
00000070: b6f0 7c3f 69ea 813f 8ec5 6c3f 3cba 6f3f

conv2.3.bias f4 [32]
0.06791625 0.35139397 0.073271 -0.16614343 0.15878332 -0.1540946 0.49892828 0.05403913
-0.09853213 0.18759415 -0.10244646 0.5705339 -0.16828518 0.21671686 0.3233497 -0.14696823
0.17714621 -0.12080673 -0.008875341 -0.0515022 0.25911057 0.20897667 0.31849283 0.21162087
0.34910735 0.31484836 -0.07553831 -0.1341995 0.39232767 0.21507935 0.2794204 0.44948336
00000000: ad17 8b3d e9e9 b33e 1b0f 963d 8121 2abe
00000010: 1898 223e faca 1dbe 8773 ff3e 2358 5d3d
00000020: 37cb c9bd ae18 403e 73cf d1bd 820e 123f
00000030: f352 2cbe 06eb 5d3e 188e a53e d77e 16be
00000040: d165 353e 8569 f7bd e169 11bc f9f3 52bd
00000050: 24aa 843e fbfd 553e 7e11 a33e 24b3 583e
00000060: 33be b23e ce33 a13e d4b3 9abd 986b 09be
00000070: 2cdf c83e c33d 5c3e 3110 8f3e af22 e63e

conv2.3.running_mean f4 [32]
0.104025446 0.7210377 0.23364389 0.91955453 0.2575444 0.12994473 0.509396 0.4739366
0.29882425 0.57641387 0.09703414 0.09871254 0.54852253 0.47253406 0.088917315 0.2633728
0.74085045 0.39585075 0.28206927 0.63296443 0.5474539 0.4704003 0.5306973 0.18808147
0.6449124 0.15707897 0.25970867 0.30286 0.18051974 0.40071946 0.38189948 0.22428674
00000000: 4b0b d53d ed95 383f 5840 6f3e ed67 6b3f
00000010: dcdc 833e 3b10 053e c767 023f d1a7 f23e
00000020: 7eff 983e dc8f 133f d6b9 c63d cd29 ca3d
00000030: f96b 0c3f fcef f13e 481a b63d cdd8 863e
00000040: 60a8 3d3f f3ac ca3e 626b 903e f509 223f
00000050: f025 0c3f 4fd8 f03e c7db 073f 6e98 403e
00000060: fb18 253f 4fd9 203e 89f8 843e 7710 9b3e
00000070: 2bda 383e 1a2b cd3e 5488 c33e 6cab 653e

conv2.3.running_var f4 [32]
0.05334662 1.5010507 0.1554863 1.1653869 0.26461875 0.04939002 0.2358529 0.5563203
0.39797193 0.33425954 0.07171383 0.08294593 0.31082186 0.92902803 0.11967179 0.15857458
1.4288942 0.51344395 0.32392853 0.4336538 0.3578339 0.90825945 0.7570856 0.1285333
0.6158942 0.16529448 0.17161831 0.09079576 0.25864485 0.7132535 0.29874343 0.16207846
00000000: fc81 5a3d 6e22 c03f cd37 1f3e 662b 953f
00000010: 1c7c 873e 314d 4a3d 6c83 713e 026b 0e3f
00000020: fac2 cb3e 1124 ab3e b3de 923d 8edf a93d
00000030: 0b24 9f3e c8d4 6d3f 7c16 f53d 6061 223e
00000040: 01e6 b63f 1071 033f f6d9 a53e df07 de3e
00000050: 0136 b73e b183 683f 5dd0 413f 3c9e 033e
00000060: 3eab 1d3f f542 293e b6bc 2f3e 21f3 b93d
00000070: 196d 843e c897 363f e6f4 983e e5f7 253e

conv3.0.weight f4 [64, 32, 3, 3]
-0.037457768 -0.041139863 -0.05686876 -0.042713996 -0.057284676 -0.0627357 -0.06958315 -0.036601517
-0.123880334 -0.051311407 0.03488326 -0.0040732534 -0.011968744 -0.044783104 -0.014838153 -0.0005865149
-0.009943078 0.05708229 -0.011511961 -0.026968507 -0.09110658 0.021157278 -0.01476872 -0.024174491
-0.07691313 -0.011600468 -0.049053486 0.035604797 -0.027755184 0.0754662 0.00067020615 -0.024112785
0.016152894 -0.012115968 0.00830276 -0.015244363 -0.06374106 -0.063615136 -0.012159622 -0.0065614562
-0.060827784 -0.028136587 -0.019607304 -0.0073745907 -0.010360562 0.010213921 -0.00026719435 -0.0022908426
0.04014497 0.026799254 0.008831772 0.023408644 0.03957214 0.014455274 -0.03857922 -0.12406622
-0.063389234 -0.026924193 -0.113459215 -0.08958713 -0.09560295 -0.065117694 -0.10015977 -0.028605934
-0.023979092 -0.028195122 -0.020069832 0.03544056 -0.02803854 0.00020847905 0.059376653 0.04097524
0.04268521 0.116113424 0.10816359 0.09880815 0.081273675 0.07480833 -0.0131032225 0.092340335
0.08127907 0.026666153 0.010690436 0.01783358 -0.001061443 0.055523105 0.01986704 0.023767462
0.028550865 0.045306355 -0.034986917 -0.034619868 0.0057283123 -0.0139631145 -0.034757618 0.00047084034
-0.053387873 -0.022829719 -0.03615383 -0.041449517 -0.09627908 -0.07243149 -0.05119653 -0.12831305
-0.10196875 -0.062086836 -0.12956928 -0.11524251 -0.017020436 0.022423735 0.019105876 -0.043956727
0.01725089 -0.023269616 -0.045171473 -0.0044569965 -0.030406652 -0.10361068 -0.064874716 -0.07323324
-0.09715803 -0.05163814 -0.023350801 -0.09038409 0.014286667 -0.017788082 0.04382234 0.07111464
0.04780755 0.027197585 0.032175425 0.046298876 0.050645445 0.07044284 0.016598966 -0.036244262
-0.046592213 -0.018754978 -0.027767116 -0.033422504 -0.060198817 -0.062974125 -0.02584166 -0.08102053
0.055881426 -0.0097716525 -0.030586846 -0.031294364 0.01666535 0.009231211 -0.033164177 0.04177544
0.039846763 0.06413438 0.07827346 0.09296474 0.058033112 0.09071632 0.0060147545 0.07724111
0.09743282 0.08183497 0.0009750149 0.0465046 -0.023470769 0.037422232 0.033514507 -0.03884928
-0.0022382138 0.010903562 0.013433794 -0.07116233 -0.032249115 0.028894128 -0.04536643 -0.016304052
-0.01405133 0.0018047479 0.03332684 -0.0077326284 0.009973418 -0.014771856 -0.039324813 -0.027994886
-0.012908016 -0.04848282 -0.02306842 0.017234953 0.0077439207 -0.044490363 -0.055278875 0.0077589476
-0.009337678 -0.014271918 -0.070180975 -0.002609081 -0.005575165 -0.07027545 0.022563225 0.0021167754
0.05700173 -0.005485666 0.08290571 0.058655567 -0.0029575925 -0.010030325 0.015006901 -0.043661576
-0.07618683 -0.11527568 -0.0709679 -0.062283713 -0.052648306 -0.075038895 -0.08074144 -0.12011026
-0.05373386 -0.051075645 -0.09453404 0.011642124 -0.016896194 -0.07322244 -0.033211555 -0.059977006
-0.063589446 0.045117408 0.0756571 -0.0016546015 0.021482434 0.045379713 0.029115777 -0.0022535669
0.07557404 -0.02080741 -0.043620277 -0.021569414 -0.03623376 -0.03138415 -0.0035806347 -0.0073187137
-0.06237537 -0.051207967 -0.019749401 -0.0050882543 -0.02943197 -0.040163394 0.016204864 -0.038562022
-0.04418417 -0.029368792 1.5292571e-05 0.033944234 -0.03617958 -0.099270165 -0.12724957 -0.0751008
00000000: 516d 19bd 4682 28bd 38ef 68bd dff4 2ebd
00000010: 56a3 6abd 937b 80bd 9c81 8ebd 79eb 15bd
00000020: f9b4 fdbd e92b 52bd c0e1 0e3d ed78 85bb
00000030: 8d18 44bc 7d6e 37bd b91b 73bc 59c0 19ba
00000040: 4be8 22bc 1fcf 693d aa9c 3cbc 0fed dcbc
00000050: 1696 babd 0752 ad3c 80f8 71bc 9509 c6bc
00000060: a284 9dbd e40f 3ebc 4fec 48bd 56d6 113d
00000070: d75e e3bc 068e 9a3d c6b0 2f3a 2d88 c5bc
00000080: 1353 843c 0e82 46bc 4d08 083c 7ec3 79bc
00000090: ac8a 82bd a748 82bd 2739 47bc 7c01 d7bb
000000a0: 8e26 79bd b37e e6bc 7f9f a0bc 8da6 f1bb
000000b0: 59bf 29bc 4a58 273c 3816 8cb9 f621 16bb
000000c0: 0d6f 243d 1c8a db3c 23b3 103c 7cc3 bf3c
000000d0: 6516 223d d0d5 6c3c 3f05 1ebd 6e16 febd
000000e0: 37d2 81bd 2090 dcbc 4e5d e8bd 7579 b7bd
000000f0: 7bcb c3bd 6d5c 85bd 9120 cdbd fe56 eabc
00000100: cd6f c4bc 75f9 e6bc 7d69 a4bc 1f2a 113d
00000110: 15b1 e5bc 2b9b 5a39 ef34 733d a7d5 273d
00000120: b0d6 2e3d e0cc ed3d df84 dd3d ed5b ca3d
00000130: d072 a63d 1c35 993d e6ae 56bc ee1c bd3d
00000140: a475 a63d fa72 da3c f026 2f3c ba17 923c
00000150: 1e20 8bba 326c 633d 34c0 a23c fbb3 c23c
00000160: 81e3 e93c 2893 393d 714e 0fbd 90cd 0dbd
00000170: 91b4 bb3b 8cc5 64bc 015e 0ebd 1fdb f639
00000180: 3ead 5abd 6405 bbbc 0a16 14bd f8c6 29bd
00000190: f72d c5bd f656 94bd 74b3 51bd 7f64 03be
000001a0: fed4 d0bd c44e 7ebd cfad 04be 4404 ecbd
000001b0: 716e 8bbc fbb1 b73c ed83 9c3c f80b 34bd
000001c0: bd51 8d3c ec9f bebc b905 39bd ff0b 92bb
000001d0: 5f17 f9bc d631 d4bd 09dd 84bd 4ffb 95bd
000001e0: cafa c6bd 8482 53bd 2e4a bfbc 4b1b b9bd
000001f0: a012 6a3c 50b8 91bc 0e7f 333d 8da4 913d
00000200: d9d1 433d 78cd de3c 61ca 033d e4a3 3d3d
00000210: 9971 4f3d 5644 903d 8efa 873c dd74 14bd
00000220: 7ad7 3ebd 0aa4 99bc dd77 e3bc 09e6 08bd
00000230: 0993 76bd 94f8 80bd e4b1 d3bc 17ee a5bd
00000240: ece3 643d 4819 20bc 4491 fabc 852e 00bd
00000250: c685 883c 813e 173c 29d7 07bd b91c 2b3d
00000260: 5c36 233d e358 833d d64d a03d 4c64 be3d
00000270: 21b4 6d3d 7ac9 b93d 6b17 c53b 9630 9e3d
00000280: dc8a c73d 1899 a73d 2498 7f3a 9c7b 3e3d
00000290: c545 c0bc 0e48 193d 8246 093d 6c20 1fbd
000002a0: ffae 12bb dba4 323c 6a19 5c3c 8ebd 91bd
000002b0: a617 04bd 61b3 ec3c 26d2 39bd 1390 85bc
000002c0: 8d37 66bc 4a8d ec3a b981 083d fd61 fdbb
000002d0: 8c67 233c a805 72bc 0e13 21bd 8855 e5bc
000002e0: 257c 53bc ec95 46bd fcf9 bcbc 5130 8d3c
000002f0: b7c0 fd3b 873b 36bd 1a6c 62bd c53e fe3b
00000300: 0ffd 18bc c3d4 69bc 0bbb 8fbd 1efd 2abb
00000310: e0af b6bb 93ec 8fbd 83d6 b83c 99b9 0a3b
00000320: a57a 693d 1ac1 b3bb 78ca a93d d240 703d
00000330: 2bd4 41bb 3b56 24bc 81df 753c 7bd6 32bd
00000340: d707 9cbd a815 ecbd 9e57 91bd 351d 7fbd
00000350: c0a5 57bd fead 99bd c55b a5bd 5efc f5bd
00000360: 0918 5cbd b234 51bd 109b c1bd 9bbe 3e3c
00000370: e369 8abc a6f5 95bd d708 08bd 73aa 75bd
00000380: 2f3b 82bd 08cd 383d 1cf2 9a3d 37df d8ba
00000390: eefb af3c 14e0 393d 3684 ee3c 94b0 13bb
000003a0: 90c6 9a3d 4d74 aabc 2dab 32bd 57b2 b0bc
000003b0: da69 14bd ab8c 00bd 15a9 6abb d2d1 efbb
000003c0: 517d 7fbd 72bf 51bd 7fc9 a1bc 5fbb a6bb
000003d0: 511b f1bc 5f82 24bd 10c0 843c 36f3 1dbd
000003e0: 76fa 34bd d296 f0bc 8c48 8037 1c09 0b3d
000003f0: 0a31 14bd 284e cbbd b64d 02be 73ce 99bd

conv3.0.bias f4 [64]
-0.20295772 -0.048677713 -0.09351603 -0.1609779 -0.037387352 -0.020991523 -0.09048211 -0.1619186
-0.07513548 -0.08212047 0.024037551 -0.13014689 -0.08834629 -0.050063223 -0.18266994 -0.028046405
-0.15585504 -0.12177697 -0.048003063 -0.13310735 -0.14901322 -0.10971378 -0.08588343 -0.101442724
-0.0911765 -0.10127466 -0.241545 -0.09884728 -0.24221975 -0.07372174 -0.20744218 -0.103823274
-0.1062649 -0.19205576 -0.13572136 -0.17618953 -0.032541327 -0.07238555 -0.14614628 -0.11022635
-0.12225472 -0.028474689 -0.16281606 -0.053116616 -0.083097145 -0.063997455 -0.050892606 -0.031288553
-0.010595316 -0.11628102 -0.13296191 -0.11082882 -0.16317752 -0.043261368 -0.040001854 -0.155119
-0.03893804 -0.06873348 -0.072101794 0.0027222494 0.007711198 -0.054765496 -0.16310331 -0.09616141
00000000: 26d4 4fbe 4862 47bd 5585 bfbd 64d7 24be
00000010: 7b23 19bd 6af6 abbc af4e b9bd fdcd 25be
00000020: a1e0 99bd c72e a8bd 66ea c43c 3a45 05be
00000030: e6ee b4bd 180f 4dbd d40d 3bbe 93c1 e5bc
00000040: 7798 1fbe 3466 f9bd dc9e 44bd 4b4d 08be
00000050: ec96 18be 9eb1 e0bd a7e3 afbd 34c1 cfbd
00000060: bfba babd 1769 cfbd 9357 77be 7170 cabd
00000070: 7408 78be 6cfb 96bd b96b 54be 4ca1 d4bd
00000080: 69a1 d9bd 44aa 44be 8afa 0abe 076b 34be
00000090: 0e4a 05bd e03e 94bd 5fa7 15be 5abe e1bd
000000a0: af60 fabd c043 e9bc 41b9 26be cf90 59bd
000000b0: d62e aabd 1911 83bd c474 50bd 6d28 00bd
000000c0: fa97 2dbc be24 eebd 2b27 08be 38fa e2bd
000000d0: 0218 27be d532 31bd fcd8 23bd 84d7 1ebe
000000e0: 7f7d 1fbd 24c4 8cbd 1baa 93bd c467 323b
000000f0: 38ae fc3b c951 60bd 8e04 27be 46f0 c4bd

conv3.4.weight f4 [64]
1.1247633 1.1196941 1.2196419 1.2432518 1.2132225 1.2157413 1.2515485 1.1018472
0.99714196 1.2448303 1.201956 1.0296146 1.1988206 1.08844 1.0863326 1.1831728
1.0526857 1.1377814 1.2429782 1.2055134 1.1037066 1.2533752 1.2340567 1.2254102
1.0729995 1.101082 1.0896264 1.2640824 1.0858716 1.2446285 1.1001116 1.0126252
1.157496 1.13221 1.0365707 1.0963516 0.93040234 1.245034 1.2398087 1.2176715
1.0937507 0.98845863 1.0903324 1.2163429 1.0868694 1.25248 1.2101738 0.9915756
1.2107335 1.2590647 1.0938736 1.2250669 1.0330292 1.1559745 1.2876776 1.1056532
1.0699229 1.2498193 1.2016358 0.96419567 1.219344 1.249652 1.056038 1.2127558
00000000: 3ef8 8f3f 2352 8f3f 3a1d 9c3f e022 9f3f
00000010: e04a 9b3f 699d 9b3f be32 a03f 5409 8d3f
00000020: b244 7f3f 9956 9f3f b2d9 993f 69ca 833f
00000030: f472 993f 0052 8b3f f20c 8b3f 3572 973f
00000040: 68be 863f d2a2 913f e919 9f3f 434e 9a3f
00000050: 4246 8d3f 996e a03f 92f5 9d3f 3eda 9c3f
00000060: 0c58 893f 41f0 8c3f e178 8b3f 74cd a13f
00000070: d7fd 8a3f fd4f 9f3f 75d0 8c3f b49d 813f
00000080: d428 943f 42ec 903f 59ae 843f 4055 8c3f
00000090: d92e 6e3f 465d 9f3f 0db2 9e3f a9dc 9b3f
000000a0: 0600 8c3f a00b 7d3f 0390 8b3f 20b1 9b3f
000000b0: 891e 8b3f 4451 a03f fae6 9a3f e6d7 7d3f
000000c0: 51f9 9a3f 0829 a13f 0d04 8c3f fece 9c3f
000000d0: 4d3a 843f f9f6 933f 9fd2 a43f 0b86 8d3f
000000e0: 3cf3 883f 14fa 9f3f 34cf 993f 87d5 763f
000000f0: 7713 9c3f 99f4 9f3f 412c 873f 953b 9b3f

conv3.4.bias f4 [64]
-0.012458565 -0.0057848534 0.012050296 0.00016900543 0.008718649 0.010756948 0.008442734 -0.008832715
-0.021085754 0.018154697 0.012466894 -0.017093832 -0.012228672 -0.015649574 0.002764988 0.0013474196
0.0036107926 -0.0026842183 0.020379225 -0.010218194 -0.012136904 0.0034708574 0.02616965 -0.00551371
-0.044881817 -0.015751364 -0.020416556 -0.010359716 -0.0310232 0.0041740676 -0.0096488055 -0.019164365
0.027106341 -0.009949894 -0.016130092 0.004315589 -0.0029101952 0.010671716 0.0021290754 -0.0007614953
-0.017578801 0.0077681416 0.011764175 0.00902818 0.010370489 -0.0010114607 0.008362851 0.0064525795
-0.011226283 0.013140468 -0.0036499167 0.021317935 -0.01263279 0.0049183024 0.007019594 -0.017195353
0.01263513 0.02076115 0.011612529 -0.0027131946 0.02014855 0.01918612 0.0120502785 0.023535108
00000000: 021f 4cbc de8e bdbb 9b6e 453c 0d37 3139
00000010: aad8 0e3c e93d 303c 6553 0a3c 18b7 10bc
00000020: 08bc acbc 29b9 943c f241 4c3c 5d08 8cbc
00000030: c55a 48bc 8933 80bc cd34 353b e69b b03a
00000040: 0ca3 6c3b b6e9 2fbb 55f2 a63c 366a 27bc
00000050: ddd9 46bc 5377 633b bc61 d63c 5aac b4bb
00000060: ffd5 37bd 0109 81bc 9f40 a7bc ccbb 29bc
00000070: 5e24 febc 9ec6 883b 0616 1ebc 96fe 9cbc
00000080: 1e0e de3c e104 23bc 4123 84bc c969 8d3b
00000090: f9b8 3ebb 6cd8 2e3c f587 0b3b 169f 47ba
000000a0: 6b01 90bc e58b fe3b 87be 403c eeea 133c
000000b0: fce8 293c fd92 84ba 5704 093c 2970 d33b
000000c0: 72ee 37bc 1e4b 573c 7133 6fbb f3a2 ae3c
000000d0: c3f9 4ebc b629 a13b 9f04 e63b 45dd 8cbc
000000e0: 9403 4f3c 4a13 aa3c 7a42 3e3c dacf 31bb
000000f0: 920e a53c 362c 9d3c 886e 453c b3cc c03c

conv3.4.running_mean f4 [64]
0.07777146 0.10643248 0.13142748 0.061866865 0.15747774 0.13653237 0.16824067 0.056901377
0.05410634 0.14483611 0.14415659 0.12563096 0.09401059 0.048328664 0.07149587 0.17054288
0.076587066 0.09896572 0.0993004 0.14646217 0.03393725 0.12908487 0.1917589 0.109952465
0.09249535 0.0693139 0.02781716 0.10021249 0.03422498 0.1164948 0.07318744 0.07135682
0.15612614 0.04462687 0.13648504 0.057356913 0.78810835 0.07642922 0.09289955 0.13999425
0.041818716 0.154896 0.017328737 0.18640806 0.04529258 0.15372132 0.14665028 0.31338984
0.22372623 0.05090184 0.040655155 0.14169167 0.04113044 0.23767972 0.11532797 0.018602114
0.08118711 0.06740394 0.123163685 0.88078403 0.1766476 0.20670038 0.12833239 0.14128266
00000000: a546 9f3d 46f9 d93d ed94 063e 1c68 7d3d
00000010: d841 213e 24cf 0b3e 4847 2c3e 6b11 693d
00000020: 9c9e 5d3d eb4f 143e c99d 133e 67a5 003e
00000030: a088 c03d 47f4 453d 6d6c 923d cba2 2e3e
00000040: aed9 9c3d 8aae ca3d 025e cb3d 2efa 153e
00000050: c901 0b3d d32e 043e 725c 443e c22e e13d
00000060: 346e bd3d 72f4 8d3d d0e0 e33c 353c cd3d
00000070: 7e2f 0c3d d394 ee3d 4ce3 953d 8623 923d
00000080: 88df 1f3e aaca 363d bcc2 0b3e 15ef 6a3d
00000090: 78c1 493f ec86 9c3d 1f42 be3d a75a 0f3e
000000a0: 1a4a 2b3d 0f9d 1e3e fff4 8d3c c1e1 3e3e
000000b0: b684 393d 1f69 1d3e 7e2b 163e a274 a03e
000000c0: 7d18 653e 737e 503d 0586 263d 9f17 113e
000000d0: 6478 283d 5062 733e 1231 ec3d 7663 983c
000000e0: 6d45 a63d 140b 8a3d 3e3d fc3d 107b 613f
000000f0: 1ce3 343e 44a9 533e 9169 033e 67ac 103e

conv3.4.running_var f4 [64]
0.20507392 0.1949725 0.62369025 0.16019668 0.5674403 0.48762357 0.68321365 0.12303316
0.15582451 0.5935654 0.5116165 0.21524298 0.35894307 0.0991637 0.11455638 0.6785121
0.13454139 0.15241031 0.29880825 0.5287962 0.09953003 0.47745684 0.7778143 0.40360135
0.16357519 0.20825316 0.061873347 0.38371047 0.12896673 0.48836374 0.116935104 0.104800716
0.6689702 0.1038175 0.30856955 0.22078499 3.9988225 0.29671973 0.39810914 0.60610807
0.09694017 0.3131211 0.043753408 0.8067623 0.09272803 0.6101308 0.68350625 0.55247974
1.004171 0.14106575 0.10789151 0.6832341 0.071030185 1.0923275 0.5019337 0.03859277
0.10369736 0.23918332 0.5109731 5.1136813 0.79066133 0.8872142 0.2680782 0.43495265
00000000: e6fe 513e dfa6 473e 2aaa 1f3f 990a 243e
00000010: c443 113f cca9 f93e 17e7 2e3f cff8 fb3d
00000020: 7690 1f3e e7f3 173f 4df9 023f a868 5c3e
00000030: 63c7 b73e 5716 cb3d 899c ea3d f8b2 2d3f
00000040: 38c5 093e 7311 1c3e 65fd 983e 305f 073f
00000050: 66d6 cb3d 3975 f43e d71e 473f d6a4 ce3e
00000060: 4180 273e 5140 553e e86e 7d3d b375 c43e
00000070: db0f 043e d00a fa3e ac7b ef3d c2a1 d63d
00000080: a241 2b3f 459e d43d d4fc 9d3e 7615 623e
00000090: b5ec 7f40 a6eb 973e f6d4 cb3e e629 1b3f
000000a0: 9188 c63d 6951 a03e c636 333d f987 4e3f
000000b0: 32e8 bd3d 8831 1c3f 44fa 2e3f 506f 0d3f
000000c0: ad88 803f 8a73 103e 39f6 dc3d 6ee8 2e3f
000000d0: 4678 913d 63d1 8b3f ba7e 003f 7413 1e3d
000000e0: 485f d43d 79ec 743e 22cf 023f 47a3 a340
000000f0: c868 4a3f 7820 633f 8c41 893e 1db2 de3e

fc.0.weight f4 [32, 64]
0.15019226 0.19326612 -0.071324185 -0.14300574 -0.27079684 -0.06331653 -0.16209924 0.040574692
0.09588692 -0.14765498 -0.19783643 -0.048728 -0.19326828 0.101151064 0.14395826 -0.23150392
0.05279194 0.10902776 -0.26818332 -0.18272047 0.013229904 -0.11303427 -0.15327704 -0.26511174
0.14973001 0.017440995 0.016432915 -0.19930758 0.17419319 -0.1379269 0.060742874 0.14582941
-0.036216848 0.07758473 0.086712375 0.16797382 0.09381638 -0.2561471 -0.12650448 -0.22866774
0.12138698 0.05857417 0.059253577 -0.17454672 0.15464325 -0.3080794 -0.1964409 0.026095944
-0.069420554 -0.20878293 0.06290747 -0.22377078 0.093579836 -0.23285457 -0.15800156 0.1259563
0.088245444 -0.09605439 -0.25667137 0.013046276 -0.13514864 -0.14061068 0.032297626 -0.205739
0.015260468 0.063512735 -0.14048564 -0.21912806 -0.10946997 -0.07207429 -0.20907012 0.12766556
-0.05582586 -0.2302312 -0.037138227 -0.007237355 -0.13498595 0.12626868 0.18068068 -0.1574243
0.13386653 0.117415756 -0.15952982 -0.044036467 0.019712681 -0.23869306 -0.2319729 -0.21168998
0.038961854 0.15354042 0.078809395 -0.21882793 0.15610906 -0.23041038 0.077840164 -0.039965652
-0.1144093 0.21760982 0.13706413 0.17248976 0.046154328 -0.13396725 -0.2042711 -0.2424969
-0.008814682 0.04686485 0.14569114 -0.041919235 0.027079588 -0.17868528 -0.04661231 0.13691707
-0.26807082 -0.16387786 -0.012383088 -0.09775977 0.10500993 -0.09474142 -0.13554712 0.17310451
0.16997863 -0.15590563 -0.15110196 -0.0007296061 -0.20316091 -0.09567239 0.08683836 -0.16384193
0.073305495 0.112401694 -0.17934406 -0.16786015 -0.21610722 -0.10357285 -0.24742109 0.08332278
0.055474203 -0.094551444 -0.120045245 0.1224957 -0.16815105 0.092460416 0.12669936 -0.16924301
0.06090022 0.1542429 -0.036310118 -0.21197934 0.078625925 -0.17554775 -0.22982883 -0.20178707
0.01727762 0.038332373 0.15546264 -0.17748441 0.12640736 -0.092491396 0.18018574 -0.058141194
-0.14503667 0.08558269 -0.021692138 0.14709829 -0.06712725 -0.19096611 -0.10724609 -0.20216301
0.05523121 -0.031862017 0.14059335 -0.16065857 0.06227233 -0.24793652 -0.04551352 -0.08083393
-0.04452679 -0.0965838 0.12643321 -0.17687619 0.14116661 -0.18207814 -0.16496928 0.20314522
0.093736894 -0.25365528 -0.24950892 0.08641752 -0.17827259 -0.1743204 0.03797109 -0.17575279
-0.17405541 -0.12445782 0.06836483 0.11692338 0.22939207 0.20669419 0.18732278 -0.13943183
-0.003202797 0.24064817 0.10678917 -0.13230124 0.16156133 -0.10774826 -0.1693561 0.12849598
-0.15921299 -0.020950915 0.096681334 0.17854701 -0.1305611 0.21583417 0.12773179 0.14879408
-0.011355448 -0.002316019 -0.0848993 0.025611257 -0.008153914 0.2580107 -0.049283173 -0.107412726
0.16024458 -0.087370455 -0.1532176 -0.111121334 -0.09224544 0.13009283 0.09902112 0.110916056
-0.004465125 -0.1467346 -0.053551454 0.19176427 -0.08529789 0.21183607 0.06969504 -0.04267505
0.049049094 0.09221727 -0.09682345 0.1077166 -0.07367313 0.19502386 0.21506812 -0.13104527
-0.15207043 0.1575494 0.05103709 -0.05828118 0.04553303 0.2532915 -0.065272115 0.12320539
00000000: 00cc 193e 8ee7 453e 6a12 92bd 1970 12be
00000010: e2a5 8abe 19ac 81bd 58fd 25be a631 263d
00000020: 5d60 c43d de32 17be a295 4abe 0397 47bd
00000030: 1fe8 45be 4a28 cf3d cb69 133e 5d0f 6dbe
00000040: 5c3c 583d f249 df3d 534f 89be 131b 3bbe
00000050: 3dc2 583c 837e e7bd a8f4 1cbe babc 87be
00000060: d352 193e 6be0 8e3c 529e 863c 4917 4cbe
00000070: b35f 323e b63c 0dbe 85cd 783d 4e54 153e
00000080: 1e58 14bd bee4 9e3d 4296 b13d 5401 2c3e
00000090: cd22 c03d b625 83be 648a 01be e027 6abe
000000a0: bd99 f83d 78eb 6f3d e1b3 723d 60bc 32be
000000b0: cd5a 1e3e 95bc 9dbe ce27 49be 29c7 d53c
000000c0: 5d2c 8ebd 31cb 55be a2d5 803d 2b24 65be
000000d0: c9a6 bf3d 6e71 6ebe 29cb 21be b0fa 003e
000000e0: 07ba b43d 2ab8 c4bd 6e6a 83be 0cc0 553c
000000f0: 6864 0abe 3ffc 0fbe 844a 043d 3fad 52be
00000100: 0b07 7a3c f712 823d 78db 0fbe 1b63 60be
00000110: cb31 e0bd af9b 93bd 7a16 56be c3ba 023e
00000120: a8a9 64bd bac1 6bbe 411e 18bd 5627 edbb
00000130: c239 0abe 944c 013e 5b04 393e d633 21be
00000140: 4f14 093e ac77 f03d c95b 23be 955f 34bd
00000150: 7d7c a13c f46b 74be 4e8a 6dbe 42c5 58be
00000160: 7796 1f3d b339 1d3e d266 a13d 6e14 60be
00000170: 0edb 1f3e b3f0 6bbe aa6a 9f3d 06b3 23bd
00000180: 6c4f eabd 1cd5 5e3e 8a5a 0c3e 28a1 303e
00000190: 520c 3d3d b62e 09be 712c 51be 1b51 78be
000001a0: 756b 10bc 5bf5 3f3d 0f30 153e 81b3 2bbd
000001b0: 03d6 dd3c 46f9 36be 8dec 3ebd fd33 0c3e
000001c0: 9440 89be 99cf 27be 6fe2 4abc 4636 c8bd
000001d0: 720f d73d ca07 c2bd ddcc 0abe 4f42 313e
000001e0: e10e 2e3e baa5 1fbe 79ba 1abe 0943 3fba
000001f0: 6a09 50be e3ef c3bd 4fd8 b13d 2ec6 27be
00000200: 3121 963d dc32 e63d f8a5 37be 88e3 2bbe
00000210: 364b 5dbe 011e d4bd f45b 7dbe 22a5 aa3d
00000220: eb38 633d 30a4 c1bd 48da f5bd 07df fa3d
00000230: ca2f 2cbe e35b bd3d 7abd 013e 0a4e 2dbe
00000240: 8272 793d daf1 1d3e ebb9 14bd 1d11 59be
00000250: a106 a13d cac2 33be 4058 6bbe 45a1 4ebe
00000260: cc89 8d3c 6802 1d3d 9931 1f3e 79be 35be
00000270: ee70 013e 216c bdbd 9c82 383e 7625 6ebd
00000280: 7e84 14be fa45 af3d b6b3 b1bc efa0 163e
00000290: 037a 89bd 9f8c 43be d7a3 dbbd d203 4fbe
000002a0: 1f3a 623d bf81 02bd b4f7 0f3e ae83 24be
000002b0: 4511 7f3d 12e3 7dbe 626c 3abd 428c a5bd
000002c0: b961 36bd bacd c5bd b577 013e 081f 35be
000002d0: fb8d 103e b172 3abe b5ed 28be 4d05 503e
000002e0: 21f9 bf3d 1bdf 81be 447f 7fbe abfb b03d
000002f0: 178d 36be 0c81 32be 9387 1b3d 8af8 33be
00000300: 953b 32be bee3 febd dc02 8c3d 8675 ef3d
00000310: c1e5 6a3e a4a7 533e 8bd1 3f3e 38c7 0ebe
00000320: 04e6 51bb 796c 763e 48b4 da3d fa79 07be
00000330: 5570 253e 1fab dcbd af6b 2dbe 7394 033e
00000340: bb08 23be 41a1 abbc dd00 c63d 07d5 363e
00000350: cfb1 05be a203 5d3e 1fcc 023e 7a5d 183e
00000360: 330c 3abc 5ac8 17bb afdf adbd b3ce d13c
00000370: fe97 05bc fa19 843e 27dd 49bd 34fb dbbd
00000380: 2817 243e 48ef b2bd 13e5 1cbe 9593 e3bd
00000390: 2deb bcbd 0e37 053e 96cb ca3d f527 e33d
000003a0: 2f50 92bb 9841 16be c558 5bbd da5d 443e
000003b0: a9b0 aebd 8eeb 583e 46bc 8e3d 09cc 2ebd
000003c0: b4e7 483d 68dc bc3d 5f4b c6bd 859a dc3d
000003d0: f0e1 96bd 56b4 473e d13a 5c3e bb30 06be
000003e0: 5ab8 1bbe a154 213e 450c 513d 3fb8 6ebd
000003f0: d880 3a3d 6caf 813e 63ad 85bd 1c53 fc3d

fc.0.bias f4 [32]
-0.047993 -0.08531593 -0.087286636 0.061323814 -0.0059302407 -0.074441515 0.05136336 -0.03554164
-0.10632962 -0.062241174 -0.03653526 -0.01007067 0.06754166 -0.054316476 -0.0913924 0.007244947
0.035358775 -0.06453058 -0.051038943 0.00784884 0.03709852 0.094212525 0.06525425 -0.06742299
-0.029854843 0.10790937 0.07727626 0.05448494 0.10662587 0.07302064 -0.010880686 0.027049243
00000000: 4f94 44bd 1eba aebd 56c3 b2bd ae2e 7b3d
00000010: 7752 c2bb cb74 98bd 6362 523d 1c94 11bd
00000020: 58c3 d9bd 9af0 7ebd ffa5 15bd 74ff 24bc
00000030: 4853 8a3d f47a 5ebd f02b bbbd 0567 ed3b
00000040: 5dd4 103d 9c28 84bd 360e 51bd 6c98 003c
00000050: 9ef4 173d 7ff2 c03d 05a4 853d 1115 8abd
00000060: 2592 f4bc 96ff dc3d 0443 9e3d 9a2b 5f3d
00000070: aa5e da3d d88b 953d e844 32bc 6096 dd3c

fc.3.weight f4 [1, 32]
-0.16721445 -0.21799529 -0.24284093 0.43304127 0.38297635 -0.1940127 0.23126963 0.41006422
-0.20201333 -0.23286165 0.39665335 -0.19414383 -0.27617323 -0.13611619 -0.15366778 -0.16529638
-0.1764441 0.3375478 -0.27854538 -0.20453478 0.2974434 0.386884 0.37720183 0.42366835
-0.23483035 -0.26387122 0.3052005 -0.2268446 0.36357132 -0.1771444 -0.25826883 -0.21176052
00000000: 443a 2bbe 283a 5fbe 4bab 78be 96b7 dd3e
00000010: 7a15 c43e 44ab 46be f2d1 6c3e f0f3 d13e
00000020: 95dc 4ebe 4973 6ebe 2616 cb3e a4cd 46be
00000030: 9466 8dbe 0b62 0bbe 165b 1dbe 7443 29be
00000040: c3ad 34be 11d3 ac3e 809d 8ebe 9171 51be
00000050: 804a 983e a915 c63e 9920 c13e 0feb d83e
00000060: 5e77 70be 211a 87be 3d43 9c3e f349 68be
00000070: 0526 ba3e 5765 35be d03b 84be c0d7 58be
