5 第五讲 机器学习训练模型的数学范式v16/models/model20.pth (torch, 112459 bytes, 21 tensors)

conv1.0.weight f4 [16, 3, 3, 3]
00000000: c2ee 55bc e1a4 dcbd cfad 2a3e 428f 62bd
00000010: a735 01be 32e4 1dbe d971 1b3d 8f85 20be
00000020: 88d5 d53d 0c2b 7e3d fa8d 3f3e e1df 02be
00000030: b177 a83c f912 003d 439e ea3c 0ffe ba3d
00000040: c40c 0dbc cdf2 8bbd 764f 0c3e 0992 fabd
00000050: 7ee7 15be ddec bd3d c995 69bd 533d 203e
00000060: d892 0cbe eb7e 113e dc97 0f3d 0c1c 0fbd
00000070: 23cd 103e add7 9cbd eb5e b23c bde7 91bd
00000080: 3d8c 943d 7795 8c3d f604 1a3e 3827 dfbd
00000090: ff84 2f3d 0e1c 87bc 7d51 113e fe75 0ebe
000000a0: 5688 96bd e731 0e3e a530 813d c9f2 81bd
000000b0: 854a 563d 621b 623d 1904 93bd 095b 2cbe
000000c0: 9b44 2dbe 1ff4 c73d a346 09bd a78f a43d
000000d0: 180b 2bbe f3be 1a3e ba61 7a3d e642 81bc
000000e0: 112c a2bd f0a2 14bd 92e4 0ebe 620b 25be
000000f0: 5298 a5bd d13d dd3d 1fee 2abe 7d94 173e
00000100: 6bd9 c43d cf6a 08be 2bd3 223e 3f64 573d
00000110: b2d7 cdbc d761 7f3c 64d8 293d 9612 053e
00000120: d66d 413e c67f 3a3d 0298 6cbc 2de0 523c
00000130: 57cc 2d3d 4009 8cbd 0e97 a9bd 0dfb 48be
00000140: da40 3d3e d58f 8ebd c7c8 f0bb 0a87 1abe
00000150: f1c6 3aba 0b19 2f3e d464 15be 6168 d63d
00000160: 63ae 493e 423c 2abe 29a1 1c3b ea82 1b3d
00000170: 9d25 503c c856 8d3b b200 293e 873c 2a3e
00000180: 73b9 253c 0b60 8f3d 47c0 88bd d34d 6bbd
00000190: 3862 51bd dc98 183e 3dde 573e 9177 263e
000001a0: f740 273d b5f3 da3d 206f 52bd 0144 75bb
000001b0: da79 32be 8680 793d 5982 febd 615b 2c3e
000001c0: 813c 553c 142e b93d f717 39bd 343d 263d
000001d0: c26b 3bbe 2234 38be 8be6 e1bd 7a8b 3b3e
000001e0: 5d9d a83d efb0 ca3d f6d2 3a3e 7659 b03d
000001f0: 3a22 9e3d 33f3 94bd f795 ccbd 885e e93d
00000200: 046a 1a3e 0b42 21be 63c6 793d fe0f 63bd
00000210: 2936 2e3e b54a 14bd bb60 4ebd 085b 17bd
00000220: f2e1 50bd d8b3 1e3e fd23 b9bd 7416 663d
00000230: 190f c43b e822 113e a01e c83d 2dae 0fbe
00000240: 0e76 a3bc 828f ebba 0afb 28bd fdf9 1a3e
00000250: a419 473e ba9d 14be 887b 7abd c9f2 443e
00000260: 6c12 2b3d 92b5 8dbd a993 f53d 11de ffbc
00000270: 9276 a4bd 7a31 3ebe 70a5 f83d 8b65 57bd
00000280: 56ec 0bbe 45f7 11be 0755 98bd f983 da3d
00000290: 2c85 d23d ab29 b63d ea93 b1bd 99d9 17be
000002a0: 31d8 7dbd f456 c2bd 6207 8f3d 32a4 d23d
000002b0: cff9 6ebd 2f38 31be 4de1 143e acd8 a03d
000002c0: efbf b3bd 4178 6cbd 631a 2bbc ab55 b9bd
000002d0: eb54 0c3e 7188 493d 3eea e4bd 4d5d 0cbe
000002e0: dd0a a0bd 81da 29be d3c2 b4bc 1c3a 3cbd
000002f0: 9f71 b8bd 20ab 623c 1171 c8bd f23b cf3d
00000300: ccb3 c93d 534d 83bd f24d b4bd 443f 49be
00000310: 0100 98bc fbde 23be 1b8d 2d3e 4fbd c63d
00000320: 9464 36bc 6cb0 abbc 4a07 59bc adad 3a3e
00000330: 58f5 e9bc 5717 023d c5c0 e33d 05a6 7f3d
00000340: db4a c9bc 1e7f f83d e6f5 23be cd0a bd3c
00000350: bf08 51be a96e b43d f4e7 eb3d d090 54bd
00000360: c978 31be 7923 81bd 8d05 853d cb9b 21be
00000370: 0ab3 02bd 626b 7fbd 102d fabd 5fbb a03d
00000380: ca53 00be 9f59 5b3d 0f4b babd d729 c83c
00000390: 8a42 143e 5e88 15be dabd 0cbe 30d8 983d
000003a0: 7798 773d c05c 05be 9529 843d 7314 e2bd
000003b0: 3d28 21be cbbc c7bd 636c 113e 5d63 bd3c
000003c0: 691c 0a3e 520f 173d 139d ebbc 788e 2c3e
000003d0: 6aae a93d 25f2 793d 78f3 2fbe 5817 08be
000003e0: 7337 0d3e cb74 363e eb25 3a3d 3e0a a63d
000003f0: 6a76 18be 9db0 5ebd d9c3 febc 884b cabd
-0.013057413 -0.10773636 0.16667865 -0.055312403 -0.12618123 -0.15419081 0.03795037 -0.15675949
0.104411185 0.06205277 0.18706504 -0.12780716 0.020564886 0.031268094 0.028639918 0.09130489
-0.008609001 -0.0683342 0.13702187 -0.12234885 -0.14639089 0.09273694 -0.057027612 0.15648393
-0.13727891 0.14208572 0.035056934 -0.034938857 0.14140753 -0.076583244 0.021773776 -0.07124279
0.07253311 0.06864446 0.15040955 -0.10896152 0.042851444 -0.01649287 0.14191242 -0.13912198
-0.07350223 0.13886224 0.06308106 -0.06345136 0.05231716 0.055201896 -0.07178516 -0.16831602
-0.16920702 0.09763359 -0.03351463 0.08035212 -0.1670345 0.15111904 0.061128356 -0.01577897
-0.07918561 -0.0362882 -0.1395438 -0.16117623 -0.080856934 0.10802806 -0.16692398 0.14802738
0.09611782 -0.13321994 0.15900867 0.052585836 -0.025127266 0.015587292 0.04146613 0.12995371
0.18889555 0.04553201 -0.014440538 0.0128708305 0.0424312 -0.06837702 -0.082807645 -0.19627018
0.1848177 -0.069610275 -0.0073481533 -0.15090576 -0.00071249815 0.17099397 -0.14589244 0.104691274
0.1969543 -0.16624549 0.002389977 0.037966646 0.01270428 0.0043133236 0.16504171 0.16624652
0.010115015 0.070007406 -0.06677299 -0.057447266 -0.05111906 0.14902061 0.21080871 0.16256548
0.04083344 0.10691015 -0.05137551 -0.0037424567 -0.17429295 0.060913585 -0.124272056 0.16831733
0.013014914 0.09041992 -0.04518887 0.04058571 -0.18302825 -0.17988637 -0.11030301 0.18314925
0.0823314 0.09897029 0.18244538 0.08610813 0.07721372 -0.07272949 -0.09989541 0.113949835
0.15079504 -0.1574785 0.060980212 -0.055435173 0.17012848 -0.03620406 -0.050385218 -0.03695205
-0.05099673 0.15498292 -0.09040067 0.056173757 0.005983245 0.14173472 0.09771466 -0.14031287
-0.019953754 -0.0017971846 -0.041255035 0.15134425 0.19443375 -0.14513293 -0.061152965 0.1923324
0.041765615 -0.069193974 0.119910546 -0.03123382 -0.08030428 -0.18573561 0.1214093 -0.052587073
-0.13664374 -0.14254482 -0.07438093 0.10669703 0.10279307 0.08894666 -0.086707905 -0.148291
-0.061973754 -0.09489241 0.0698383 0.10285224 -0.058343705 -0.17306589 0.1453907 0.07853827
-0.08776843 -0.05773187 -0.010443303 -0.09049543 0.13704269 0.049202386 -0.11177491 -0.13707466
-0.07814572 -0.16587259 -0.022065556 -0.045953855 -0.090060465 0.013834745 -0.09787191 0.101188555
0.09848747 -0.06411233 -0.088039294 -0.1965304 -0.01855469 -0.16003029 0.16948359 0.097040765
-0.011132378 -0.020958148 -0.013246367 0.18230315 -0.028559372 0.03176054 0.11120752 0.062414188
-0.024571827 0.12133621 -0.16011772 0.02307644 -0.20413493 0.08810169 0.11518851 -0.051895916
-0.17331232 -0.06305594 0.06495199 -0.15782087 -0.031909026 -0.062358268 -0.12215626 0.07848238
-0.12531963 0.053552266 -0.090963475 0.024434013 0.14478508 -0.14602801 -0.13744298 0.074631095
0.060448136 -0.13023663 0.06453244 -0.11039057 -0.15738006 -0.09752806 0.14201503 0.02311867
0.134874 0.036879845 -0.028761422 0.16851223 0.0828522 0.061021943 -0.1718272 -0.13290155
0.13790683 0.1781799 0.045446318 0.08107422 -0.14888921 -0.05436765 -0.031099247 -0.09877688

conv1.0.bias f4 [16]
00000000: bf25 d73d d62b e13d 88b7 c03d 98ff 5e3c
00000010: 163b 43be e2b5 03bc b567 1e3e f80e 203d
00000020: 8fcc 4fbe c2f2 fd3c 844d 233e 5fe1 0cbe
00000030: 3bc2 033e efd9 32be 7b4a f2bb 2138 163e
0.10505246 0.10994689 0.09410006 0.013610743 -0.19065508 -0.00803897 0.15469249 0.039076775
-0.20292877 0.030999545 0.15947539 -0.13757847 0.12867062 -0.17465948 -0.0073941327 0.14669849

conv1.3.weight f4 [16]
00000000: 0268 7f3f 41ec 7f3f e784 813f 6c5b 793f
00000010: 3c2a 7f3f acc2 813f 107f 7d3f 391c 803f
00000020: 960c 773f 708e 833f d90a 7c3f 5146 833f
00000030: 5f35 7c3f 9de0 803f 7827 7f3f 80cb 813f
0.9976808 0.9996987 1.0118684 0.97405124 0.9967382 1.0137534 0.99022007 1.0008613
0.9650358 1.0277843 0.9845405 1.0255834 0.9851894 1.0068547 0.996696 1.0140228

conv1.3.bias f4 [16]
00000000: 6123 3fbc 5e55 433d 2f07 04bd 18a6 ad3b
00000010: 51b6 943c baa9 eabc 75f1 f93c 42d6 1abd
00000020: 80ba f63c e58d d13c c47b 05bd d2bf 4b3c
00000030: ea21 2cbd f350 273d b9ba 9cbc 8e83 383c
-0.01166615 0.047688834 -0.032233413 0.005299341 0.018153341 -0.028645385 0.030510643 -0.03780199
0.030118227 0.025580356 -0.032588735 0.01243587 -0.04202453 0.040848684 -0.019132005 0.011261834

conv1.3.running_mean f4 [16]
00000000: b68c b43d 1147 383e f5d2 0a3e 84ce b83e
00000010: fdbd 073c b2f3 993c 3474 bd3c 8270 ac3d
00000020: 2b5d 8e35 9f34 443d 4d56 af3e 338c 8e3c
00000030: 922b d63d e188 413c 2ec3 383e 4872 093e
0.08815901 0.1799586 0.13557036 0.3609506 0.008285043 0.01879296 0.023126699 0.08419897
1.060694e-06 0.047901746 0.3424553 0.017400837 0.10457529 0.01181242 0.18043205 0.13422501

conv1.3.running_var f4 [16]
00000000: c6d6 863a 2cf1 0f3b f5c9 713b 2135 443d
00000010: cea3 183a 21fd 813a ec15 113b d888 103b
00000020: 1cf4 b334 e25f fd3a c66b 8c3c 8630 a43a
00000030: 3b2d 8c3a 71c4 593a b3e1 573c f1cf 853a
0.0010287396 0.0021963818 0.0036894057 0.04790223 0.00058227486 0.0009917357 0.002213831 0.0022054221
3.351896e-07 0.0019330943 0.017141234 0.0012526668 0.0010694632 0.0008307165 0.0131763695 0.0010209066

conv2.0.weight f4 [32, 16, 3, 3]
00000000: d9df 673b 9439 d7bc aabd 913c 797e b9bb
00000010: 9dae 933d 12da 1c3d f0df 663d cb3a db3b
00000020: c42b 8c3c 92fa 25bd eff2 b3bd 95ec 6abd
00000030: 2d2b bebb 11c7 0c3d fc80 15bd 091a debc
00000040: ee4d 4ebd e79f 303d 2a8e bf3d fba4 34bd
00000050: 0735 96bd 3348 823d 5037 833d 5f2c 64bd
00000060: 625e 9bbd 2dc7 eabc 13bf 4dbd 3ac3 b03d
00000070: 47c7 503d 47dc 4bbd be83 d0bb ad9e 8a3d
00000080: 59fb 87bc d130 1c3d e5c6 0a3c 41fc 223d
00000090: 18de 0d3d bdad 553d f023 84bc a558 b1bd
000000a0: 0e14 1c3b ded6 8f3c 9044 3cbd c79b 62bd
000000b0: ace9 5f3c dd2e 263b 1a12 5f3d 2977 9a3d
000000c0: bae3 6cbd 63df 603d 1050 143d 066b 9b3d
000000d0: 23cc c23d 4c86 8f3d a302 7c3d 9f0e 323c
000000e0: d7f5 84bd 2a71 14bd 0fbc 133d 9ce4 63bd
000000f0: 75b5 1e3d 842b d43c 9fdf 003d ea86 843d
00000100: bc1f 66bd bf04 e4bb 118a 9c3d 8fd5 9c3d
00000110: 2ea8 94bc 692d 623d 61b9 1fbd 44df e4bb
00000120: 91c9 543c 1de3 adbd 22df 3cbc b901 a9bd
00000130: 0908 f0bd faba 95bd 8672 6abd 3998 6ebc
00000140: 30e8 c8bd 8987 dcbd 7caa 28bd 7532 753c
00000150: 2981 2cbd 0232 0b3d fdb0 bb3c f0b8 c9bd
00000160: adde d8bd 17b4 683c dcf0 863d 1d3d b7bc
00000170: 62cb 12bc 4e89 82bd 2ea1 903c 6cdb d8bc
00000180: 5331 a93d 04f9 073d 0e01 c03c 7ec0 293c
00000190: b5e3 3a3d 77b9 733d 4cfb 8dbd 829d 1ebd
000001a0: f181 9fbd 95c6 0dbd 338d 943d 284d 643d
000001b0: 07d3 113d 3fef 26bd 5c8b 123d d1e9 ed3c
000001c0: 623e b43a 37a2 413c a168 18bd faf7 393d
000001d0: e0fc 5cbd aa07 383d 9413 aabd aca0 d0bd
000001e0: 0276 2cbd 04f8 82bd 3cbf 3abc 9328 e8bd
000001f0: fae9 5dbd 6caa fc3c c171 113c bfb5 95bd
00000200: 6ea1 62bd 8015 2dbd 1c69 8dbd 97fa adbd
00000210: b9ba 31bd 968c c63c fe25 2f3c b9ca 45bd
00000220: 1e04 3abb f171 003d 90ca debb 9109 95bd
00000230: 523c 15bd e6ca dc3c bd26 883d 3fb1 af3c
00000240: cf5d 893c c856 a4bc d273 fc3c d3d6 993d
00000250: 2ba6 b13c b24d 63bd 1591 3b3b 3165 553d
00000260: 0988 7a3d 962e 91bc 25dc 273d ab3e babc
00000270: 6887 57bd bde2 613d 3eeb b0bd 35b1 0f3d
00000280: f506 163c c9db 27bc 292d b8bc d6a9 b63d
00000290: 4cec 863d 25ac 8d3d b2b5 58bd 5fa5 193d
000002a0: 35d2 1f3d 12ad dbbb 836e b83d 3eb7 283d
000002b0: 85c0 8dbb c168 67bc 9650 20bd f8fa fabc
000002c0: 3b9c 983d 8ade aa3b 1094 38bd 2ae6 8c3d
000002d0: 9cf2 1a3d 1847 9b3c 38a6 37bd dd01 003d
000002e0: f420 903d 5c40 903d 8d9f 243d b17f 943a
000002f0: 7418 543d 63d0 ef3c fd6d 43bd 31d1 003d
00000300: dddf 14bd 6a13 aebd 34be 3bbd c50a 243d
00000310: bf3f d03b 6f3a 1ebd fb93 64bd 8d6c 3abd
00000320: 3ac3 953d a416 a13d f013 0b3d 94cb 9f3d
00000330: bb19 d43b a235 67bd fe52 923d 8032 3cbd
00000340: b16a bd3d addc 693d 07e8 19bd dfdb 05bd
00000350: c727 afbc cc59 9e3b e469 70bd 80fc 603d
00000360: 661e fa3c cbfe e9bc d3c9 3f3d 0910 afbd
00000370: d0dc 253d 956e 0abc 0c98 45bc 6dce 9fbd
00000380: dd60 3ebd ab80 963c 62ef a9bd f3a6 6ebd
00000390: 698f ef3c 2395 cbb8 e13f 8dbd 2ad1 903d
000003a0: 4e48 93bc 37c2 58bc 154a 603c 933a 2ebd
000003b0: 4dde 9d3d 8269 a03d 67be c53d 2489 a0bc
000003c0: 5f1f c2bc 61d8 c93d 1534 0f3d 378d bf3c
000003d0: a000 523d 72c0 293d 04ee 9ebd 1096 0abb
000003e0: 36bb 04bd b1a5 c53c 4d02 8a3c 552b 583c
000003f0: 5d38 863d f47e 8e3d e76e 803d c041 633d
0.0035381226 -0.026272573 0.017790634 -0.0056608287 0.07211039 0.038293906 0.056365907 0.0066903583
0.017110713 -0.040522166 -0.0878657 -0.05735453 -0.005803487 0.034369532 -0.036499962 -0.027112024
-0.05036729 0.043121245 0.093532875 -0.04410265 -0.07334333 0.06361427 0.064070344 -0.055706378
-0.075863615 -0.028659428 -0.05023105 0.086309865 0.050971296 -0.04977062 -0.006363361 0.06768546
-0.016599344 0.038132492 0.008470272 0.03979135 0.034635633 0.052167643 -0.016130418 -0.08659486
0.0023815664 0.017558511 -0.045963824 -0.055324342 0.013666552 0.0025357523 0.054460622 0.07542259
-0.057834364 0.05490054 0.036209166 0.075887725 0.09511592 0.07008037 0.061525952 0.010867744
-0.06492203 -0.036240734 0.03606802 -0.05563794 0.03874727 0.025899656 0.03146326 0.06471045
-0.056182608 -0.0069585736 0.076435216 0.076579206 -0.0181466 0.055219088 -0.03899515 -0.006984623
0.01298751 -0.08490584 -0.011527808 -0.08252282 -0.117202826 -0.073110536 -0.057238124 -0.01456266
-0.09809911 -0.10768039 -0.04117821 0.014965643 -0.042115364 0.033983238 0.022911543 -0.09849727
-0.10589347 0.014203093 0.06588909 -0.022368008 -0.008959623 -0.06373845 0.017654981 -0.026471816
0.08261361 0.033196464 0.023438003 0.010360835 0.045627315 0.059503045 -0.06932697 -0.03872443
-0.07788456 -0.03461321 0.07253494 0.055737644 0.035601642 -0.040755507 0.035777435 0.029042156
0.0013751502 0.01181846 -0.037209157 0.045402505 -0.053952098 0.044929184 -0.083045155 -0.10186896
-0.04210473 -0.063949615 -0.011398133 -0.11335864 -0.054178216 0.030842982 0.008877219 -0.07310056
-0.055329733 -0.042256832 -0.06904814 -0.08495062 -0.043390963 0.024236958 0.01069021 -0.048289035
-0.0028383802 0.031358663 -0.0067990497 -0.07277215 -0.03643448 0.026952218 0.06648014 0.021446822
0.016768364 -0.020060912 0.030816946 0.075116776 0.02168568 -0.055494018 0.0028620411 0.052098457
0.06116489 -0.01772241 0.04098143 -0.02273496 -0.052619368 0.055147875 -0.08638619 0.035081107
0.009156932 -0.010245272 -0.022482472 0.089191124 0.06588039 0.069175996 -0.052907653 0.037511226
0.03901883 -0.006703981 0.090054534 0.04119038 -0.0043259286 -0.014124096 -0.039139353 -0.03063725
0.074516736 0.005214517 -0.04506308 0.06879838 0.037829027 0.018954799 -0.044836253 0.031251777
0.07037535 0.070435256 0.040191222 0.0011329559 0.051781133 0.029274171 -0.047712315 0.0314495
-0.036346305 -0.08499797 -0.04583569 0.040049333 0.0063552554 -0.038629945 -0.055805188 -0.04551368
0.07312627 0.078656465 0.03395456 0.07802501 0.006472794 -0.056447633 0.07144736 -0.045946598
0.092488654 0.05709522 -0.037574794 -0.03268039 -0.021381272 0.004832482 -0.058694735 0.054928303
0.030532073 -0.028563878 0.046823334 -0.0854798 0.040493786 -0.008449216 -0.012060177 -0.078030445
-0.046479095 0.0183719 -0.08297612 -0.058264684 0.029243188 -9.707573e-05 -0.068969496 0.07071145
-0.017978813 -0.013229898 0.0136895375 -0.04253633 0.07708416 0.07832624 0.09655457 -0.019596644
-0.0236966 0.09855724 0.03496178 0.023382766 0.051270127 0.041443296 -0.07760242 -0.0021146573
-0.0324051 0.02412686 0.0168468 0.013193925 0.06553719 0.06957808 0.06271153 0.055482626

conv2.0.bias f4 [32]
00000000: c7e2 c6bc 32cf 7abd 39b6 21bc f1bc 693d
00000010: fc92 39bd 0838 aa3b ba49 5c3d 6f22 ca3c
00000020: a005 b1bd 5b0d 73bc cfb7 493d dc12 90bd
00000030: 6490 793c 4c3b 79bd e577 69bd 1571 a6bc
00000040: 53ff 51bd 5eb1 263d 2ea9 4fbd f4cb 953d
00000050: b282 41bc 2483 91bd d790 80bd 3b38 2dbd
00000060: 164e dd3c 1795 d9bd ab5a 92bd 5cc3 073d
00000070: ed48 673d 7b5e 823d 45a2 97bd 0c6f 0dbd
-0.024278058 -0.061232753 -0.009870105 0.057064954 -0.04530619 0.0051946677 0.05378125 0.024674622
-0.08643651 -0.014834727 0.04924756 -0.07034847 0.015232179 -0.060847566 -0.056999106 -0.020317594
-0.051268887 0.040696494 -0.05069845 0.073142916 -0.011810945 -0.07105091 -0.06277626 -0.042289954
0.027014773 -0.1062414 -0.071462 0.033145294 0.05646603 0.06365677 -0.07403997 -0.03452973

conv2.3.weight f4 [32]
00000000: 7de6 833f e546 773f 5caa 833f cb4c 763f
00000010: eeae 7e3f d9c4 773f 055d 793f 3f9e 823f
00000020: ae89 7f3f 537b 7d3f 1aa5 803f b564 743f
00000030: db41 823f 5e98 833f ec21 803f 2f39 833f
00000040: 4d33 783f 567a 753f e711 823f 01b3 7c3f
00000050: 8639 7d3f caeb 7a3f 1b05 823f 4186 843f
00000060: 53d3 813f 4701 823f c8ef 803f 878c 763f
00000070: 03d8 7b3f 5510 783f 0417 7d3f e12e 803f
1.0304714 0.9659255 1.0286365 0.96210927 0.9948567 0.9678474 0.9740756 1.0204543
0.9981946 0.990163 1.0050385 0.95466167 1.0176347 1.0280874 1.0010352 1.0251826
0.9695328 0.95889795 1.0161713 0.9871064 0.989159 0.98016036 1.0157808 1.0353471
1.0142616 1.015664 1.0073175 0.9630818 0.9837648 0.9689992 0.98863244 1.0014306

conv2.3.bias f4 [32]
00000000: dd98 a43c edb7 3d3d d7a7 a63c 9975 3a3c
00000010: 01ff 0c3d e143 b13c 41a4 2a3d 3381 ae3c
00000020: 4791 523c 2871 003d 1075 823c 9503 263d
00000030: 4819 f03b 260d c63c 913a 103d 67a8 a23c
00000040: f6f5 ea3c 0ca4 c63c 56d2 833c 42f6 a23c
00000050: 0eaf 923c f0c1 2c3d d22d f73c ad3e ac3c
00000060: c466 073d f658 2e3d 6119 b73c 56ef 9ebc
00000070: 1503 873c 3808 db3c 1c48 5b3b 9a97 023d
0.020092422 0.046317983 0.020343704 0.0113805765 0.03442288 0.021638812 0.04166055 0.021301841
0.01285202 0.031357914 0.01592496 0.04053076 0.0073272325 0.024176192 0.035212103 0.019855691
0.028681736 0.024248146 0.016091507 0.019892816 0.017905738 0.04217714 0.030173216 0.02102598
0.03305699 0.04256531 0.022350969 -0.019401234 0.016480962 0.026737317 0.0033459729 0.03188286

conv2.3.running_mean f4 [32]
00000000: cfb0 8a3e 55f1 f73e d057 763e 1766 093f
00000010: 4e14 b03e 21b8 ab3e f488 bc3e cbd8 9b3e
00000020: b28b 8e3e 3786 7a3e c2f9 783e 2396 643e
00000030: 7226 843e 7c2a 933e 7e10 a63e da3b 6c3e
00000040: bd45 af3e 4af3 013f 9d09 513e 451b b53e
00000050: 5278 823e 6bab 9c3e 0175 c13e 36f9 7f3e
00000060: b11f a03e 6df3 bf3e 8aa2 923e 890b a33e
00000070: e4f1 f33e de43 c23e 45c0 953e 18cd 863e
0.2708802 0.4842631 0.24056935 0.536714 0.3439049 0.33538917 0.36823237 0.30438837
0.27840954 0.24465261 0.24314025 0.22322898 0.2581058 0.2874335 0.32434458 0.23069707
0.34232894 0.50761855 0.20413823 0.35372368 0.25482422 0.30599532 0.3778458 0.2499741
0.3127418 0.37490407 0.28639632 0.31844738 0.47645485 0.37942404 0.29248253 0.2632835

conv2.3.running_var f4 [32]
00000000: ea89 173e 5f71 323f cea4 d83d d3c3 e13e
00000010: 41d4 713e 87f9 153e 6f30 593e 7f6a 853e
00000020: ce85 623e e731 b73d 2a1a b23d 136b 053e
00000030: df35 0a3e a23c 583e 96f0 ba3e d2cb b03d
00000040: 30bf ad3e 056b 9f3e d10d 023e 5083 663e
00000050: c544 163e 5da9 793e 7115 ab3e b562 203e
00000060: 1f60 893e 1766 913e df47 033e bed4 073e
00000070: a071 a43e b7c8 a73e e9b2 373e 1434 623e
0.14798704 0.6970424 0.10578309 0.44094715 0.23616125 0.14645968 0.21209882 0.26057813
0.22121355 0.08945065 0.08696397 0.13029127 0.13497113 0.2111688 0.36511678 0.08632626
0.33934927 0.31136337 0.12700583 0.22511029 0.14674671 0.24381013 0.33414796 0.15662654
0.26831147 0.283982 0.12820385 0.13264748 0.3211794 0.3277032 0.17939343 0.22090179

conv3.0.weight f4 [64, 32, 3, 3]
00000000: cfe4 4bbc e674 3abc 9988 c9bc 4b50 c8bc
00000010: 17b9 40bc 6c17 fabc 57d9 64bd 19f1 e53c
00000020: a733 a9bd b9ae 34bd b8eb 203d 4d88 2abc
00000030: a3fb 6cbc 9586 57bd ccca debc cfa4 d3bb
00000040: 2825 a7bc 1a0a 533d 8d9e e8bc 3ab0 aabc
00000050: 4df7 a7bd a679 2a3c 9ffa 22bb 4e66 12bc
00000060: 4e5e a0bd 0fa1 523c 3f29 85bc ec22 0a3d
00000070: 9964 44bd bd24 5b3d ee00 83bc 7a35 44bd
00000080: 2b73 94bc ffa9 03bd a935 91bc 540a 4cbd
00000090: eba2 9bbd 46f0 8ebd a58b ddbc 93d3 b6bc
000000a0: 59bc 8fbd d57e 44bd 49ef b1bc 0370 8cb9
000000b0: 7e9d 2fbc e440 e6bc 413f 1dbc 2dd2 22bc
000000c0: 6451 403d ef72 fc3c 4c33 903c e3d9 60bc
000000d0: 0b10 1a3d 33c8 103d 67a2 c73c 3f74 88bd
000000e0: de62 e1bb 67e9 0d3d 90c9 65bd d8c8 0ebd
000000f0: 8b93 0dbd 788e 9abb cf68 5bbd 8232 4cbd
00000100: b0d9 5bbd 8bc8 55bd e9b0 8dbd cfc9 7cbb
00000110: 495b 89bd 7779 3abd b44c 273d 40de cb3c
00000120: 06d7 94bc 6e6c 213d e987 c53c e548 173d
00000130: 114d a4ba 5965 e3bc 8d9f 8fbd 4f41 c43c
00000140: 28b5 003c 8a2b a13b 2dd6 3abc bdc4 153c
00000150: 9354 a6bc 57ae 1a3d de4e 6f3c 3b76 043b
00000160: 2b6f 1e3c ebd1 0c3d 8a02 ffbc 7692 e6bc
00000170: fec4 083d 0814 4cbc 9ac7 e7bc e9a3 d43c
00000180: fe28 39bd 5435 8438 c2df 2ebb 4c85 17ba
00000190: ae07 a13c 2acd 243d 9bc8 15bd d141 59bc
000001a0: bb2e 783a d429 17bd 4272 33bd ac87 2bbc
000001b0: c87f 98bc 9a43 293d 10f1 283d cc1c 29bd
000001c0: 7609 283d a069 bc3a a42f 22bd 9acd bc3c
000001d0: 34cb a2bb 11e9 86bd 0d70 66bd 4264 6ebd
000001e0: 6065 9bbd 91f9 63bd 38d4 bbbc 29cc 69bd
000001f0: c7e5 c13c 4fb5 2bbc 65be 3fbb 3e68 093d
00000200: 6478 773a 99df 44bd c8de d5bc 395c 07bc
00000210: 9ff7 25bc a0bd af3c 7a25 aabc 0d8f f1bc
00000220: 6c96 07bd f02b 9f3c 69f6 e0bc fb67 bbbc
00000230: f425 03bd 89bf 5abd 0578 893c 9588 b7bc
00000240: 2c5e 613d 7d09 66bc d13c 28bd 4f6a 34bd
00000250: 7cce e03b 53a9 46bb dfab 3abd 3001 fe3c
00000260: 9859 d83c 846a 94bc bb47 6d3c 409e a23c
00000270: 918f cdbc 6836 f13c 9b28 89bd e979 04bb
00000280: 727f 143d f257 ec3c 1310 aebc 1423 073d
00000290: 11d1 1ebd dea3 fe3c 9076 8e3c 5095 8cbd
000002a0: e452 48bd 21ae 5cbc e5cb 0b3d ddd1 64bd
000002b0: a6fc 08bd 456c 123d 8980 40bd dcf7 1cbd
000002c0: f295 cbbc 9617 a1b9 6a52 113d 8401 f5bb
000002d0: aa25 1c3d 5765 57bc 0c9f 41bd 8d6d 18bd
000002e0: da89 7abb 02e4 38bd 13fb babc 20cc d23c
000002f0: 618e 133c 6926 c9bc 2b6e 3fbd e874 fb3c
00000300: 14fc c03b cb80 38bc 05f3 61bd 8172 aa3c
00000310: 6ef2 1b3c 8a62 33bd e717 d43b 7061 a2bc
00000320: 8104 ea3c bd96 2ebd 07b9 543d eda6 a13c
00000330: 5542 30bd cbe1 56bd 30d8 aebc ac67 82ba
00000340: ee80 67bd c7ea a5bd 4eaf 21bd 88c0 f1bc
00000350: 524c 0fbc 58ec 10bd b4c7 1ebd 3588 a2bd
00000360: ed8f 66bc a5bb 21bd ab7f 98bd e735 a03c
00000370: 087f 2b37 0f23 4ebd e382 04bd 127e 36bd
00000380: 1ba4 2fbd 51fb 0f3c 414a 503d e1a6 e4bc
00000390: 2bc1 02bd 9a19 703c 7032 f2bb c4c7 67bd
000003a0: 8edc ea3c 3451 62bd 4e88 cbbc a11b b33a
000003b0: 01fc 8cbb 0d3c 413c c5b9 84bc a781 e63b
000003c0: 8eed 87bd 9968 84bd c530 923c 4090 c5bc
000003d0: 8b7f 40bd e4f9 62bd 4aeb ee3b f09d 21bd
000003e0: ca1b 68bd 4421 3fbd f7b8 a53b afee 053d
000003f0: c15a 30bb 76b5 e0bc dd4a 27bd 5090 73bd
-0.012444689 -0.01138041 -0.024601268 -0.02445235 -0.011762879 -0.030528747 -0.055871334 0.028069066
-0.08261805 -0.04411194 0.0392873 -0.010408473 -0.014464292 -0.05261858 -0.02719631 -0.0064588557
-0.02040346 0.051523305 -0.028395915 -0.020835984 -0.08201466 0.01040498 -0.002486862 -0.008935524
-0.07830487 0.012855782 -0.01625502 0.03372471 -0.0479475 0.053501833 -0.015991654 -0.04790256
-0.018121323 -0.032144543 -0.017725782 -0.049814537 -0.075994335 -0.06979422 -0.027044127 -0.022317683
-0.07018346 -0.04797252 -0.021720545 -0.00026786336 -0.010718701 -0.028107114 -0.0095976 -0.009937805
0.04695262 0.030816523 0.017602585 -0.013723823 0.037612956 0.035347175 0.024369432 -0.06662797
-0.006878241 0.034646418 -0.056100428 -0.03485951 -0.034564536 -0.0047166906 -0.05356675 -0.049852856
-0.0536744 -0.052193206 -0.069185086 -0.0038572436 -0.067068644 -0.045525994 0.040844634 0.02488625
-0.018168937 0.039410047 0.024112659 0.036934752 -0.0012535175 -0.027758287 -0.07012854 0.023956923
0.007855691 0.0049185203 -0.011403603 0.009141144 -0.020304 0.03776392 0.014606206 0.0020212072
0.009670059 0.03437988 -0.03112914 -0.02814601 0.03339099 -0.012455948 -0.02829342 0.025957065
-0.04520511 6.3041836e-05 -0.0026683663 -0.00057800557 0.019656982 0.040234722 -0.036568265 -0.013260321
0.00094674126 -0.036905125 -0.043810137 -0.010469358 -0.018615618 0.041324235 0.04124552 -0.04128723
0.041024648 0.001437474 -0.039596215 0.023047257 -0.0049680714 -0.06587423 -0.056259204 -0.058201082
-0.07587695 -0.055657927 -0.022928342 -0.057079468 0.023669137 -0.010480239 -0.002925777 0.03354668
0.0009440242 -0.0480648 -0.026107207 -0.008261734 -0.010129838 0.021452725 -0.020769823 -0.029487157
-0.033102438 0.01943013 -0.027461248 -0.02287673 -0.032018617 -0.05340532 0.016780863 -0.022403995
0.05502145 -0.014040348 -0.041073624 -0.044046696 0.0068605524 -0.0030313327 -0.045574065 0.031006426
0.02640991 -0.018117197 0.014482434 0.01985085 -0.025092872 0.029444888 -0.06697198 -0.0020214266
0.036254354 0.02885053 -0.0212479 0.032992437 -0.0387736 0.031083997 0.01739052 -0.068644166
-0.048907176 -0.01346925 0.034129996 -0.055864204 -0.03344407 0.035747785 -0.04699758 -0.038322315
-0.024851773 -0.00030725886 0.035478987 -0.0074769873 0.038121857 -0.01314672 -0.04727082 -0.03721385
-0.0038229139 -0.04513932 -0.0228248 0.0257321 0.009006114 -0.024554448 -0.046735924 0.030695394
0.005889425 -0.011261175 -0.055163402 0.020806553 0.009518249 -0.043795146 0.006472576 -0.019821852
0.0285666 -0.042624224 0.05193427 0.019732917 -0.04303201 -0.052461427 -0.02134332 -0.000994911
-0.05651944 -0.08101421 -0.039473824 -0.029510751 -0.0087462235 -0.035381645 -0.03876467 -0.07936136
-0.0140724005 -0.039485592 -0.07446226 0.019556953 1.0221971e-05 -0.050326403 -0.032351386 -0.044553824
-0.042881113 0.008787946 0.050852064 -0.027911605 -0.0319225 0.014654541 -0.0073912665 -0.056586996
0.028669622 -0.055253223 -0.024845269 0.001366485 -0.004302502 0.011794102 -0.016201863 0.0070344987
-0.06637107 -0.06465263 0.01784552 -0.024116635 -0.046996634 -0.055414096 0.0072912322 -0.03945726
-0.056667127 -0.046662584 0.00505745 0.03269833 -0.0026909562 -0.027430277 -0.04084288 -0.0594638

conv3.0.bias f4 [64]
00000000: 9128 21bd c5d2 9e3c 8ebc a5bc f76b 3ebd
00000010: 83f6 3a3d 46f7 2f3d c9f0 25bd a300 c33c
00000020: 4ad7 c63c 2bb6 cbbc 80dc 633d babc 36bc
00000030: 0260 c33c a054 1c3d 89d1 0fbd a1ec 2e3d
00000040: 858c 8ab9 8f4d 67bc 65aa b13c f6fb 54bd
00000050: d4a4 a7bc 97a4 31bc d8c0 c3bb 1f65 41bc
00000060: 7da5 1a3d 330c 1a3d b3fc 13bd b8fc 07bd
00000070: 0194 59bd 3d39 323c 756e 6dbd 0b94 fbbc
00000080: 1e56 dfbc faac 0fbd b1b8 8b3c 3acd 81bd
00000090: 19f9 583c 51c7 0c3d 9cf7 8abd 31c1 c5bc
000000a0: 70b5 13bd 4dd0 1a3d 9e12 60bc 156d 7b3c
000000b0: 760a 5a3d a4d8 c63b 4a09 5e3c 1d62 1e3d
000000c0: 6865 e43c a787 20bd 05b1 3ebc 63c0 08bd
000000d0: 41b5 25bd e435 173c f26a cc3c a255 03bd
000000e0: d2ef 1a3d 4c44 eeba b0f6 463d 2bb6 243d
000000f0: f6ea 0f3d 18c5 73bc 769e 57bd da3a 13bd
-0.039345328 0.019387612 -0.020231511 -0.046489682 0.04564525 0.042960428 -0.040512834 0.023804015
0.02427258 -0.024867138 0.055630207 -0.011153394 0.023849491 0.038166642 -0.035111938 0.042706136
-0.00026426106 -0.0141176125 0.021687696 -0.0519981 -0.020464338 -0.010842464 -0.0059739165 -0.011803894
0.03775548 0.03760929 -0.036129665 -0.033199996 -0.053119663 0.0108779045 -0.05796667 -0.03071024
-0.027262744 -0.035077073 0.017055841 -0.06337972 0.013242983 0.03436977 -0.06785509 -0.024139972
-0.036061704 0.037796307 -0.013676314 0.015345831 0.053232633 0.006068306 0.013552019 0.038667787
0.027880386 -0.03919187 -0.011638884 -0.0333866 -0.04045606 0.009229157 0.02495334 -0.032064088
0.037826367 -0.0018178313 0.048575103 0.04021279 0.035136186 -0.014878534 -0.052641355 -0.035944797

conv3.4.weight f4 [64]
00000000: f4a5 863f 3246 863f ea4b 883f 84f1 893f
00000010: da5b 8a3f 7b8e 893f 7f37 8b3f d102 843f
00000020: 00df 7c3f c965 883f f0a9 893f b36c 833f
00000030: 7023 883f 9aed 843f f667 843f 2ea9 893f
00000040: 0877 863f 8b21 863f 6c32 8b3f a213 823f
00000050: c321 843f 2827 8b3f 7a3d 8a3f 2ba8 873f
00000060: 9492 833f edec 863f 6a4d 823f 8054 893f
00000070: f54f 853f c1de 853f b9f7 853f 18d2 823f
00000080: 4f81 823f a9e0 863f b726 853f a481 803f
00000090: c0aa 7b3f 5e12 8a3f 4067 893f 2cbc 883f
000000a0: 5323 843f c1e1 813f a12f 813f 87e1 853f
000000b0: 17c2 873f de31 8c3f 718e 823f a5c8 823f
000000c0: c443 873f 0826 8c3f 0a74 873f 1f18 873f
000000d0: e283 803f bcf8 853f b551 8c3f 61f0 863f
000000e0: ea61 853f 1d1d 8a3f ff74 8b3f 20ce 7d3f
000000f0: eca2 8a3f 7e74 8a3f 3e8a 7d3f 142b 893f
1.0519395 1.0490172 1.0648167 1.077683 1.0809281 1.0746607 1.0876311 1.031336
0.9877777 1.0656062 1.0754986 1.0267547 1.0635815 1.038501 1.0344226 1.0754755
1.0505075 1.0478987 1.0874763 1.0162241 1.0322803 1.0871325 1.0800011 1.0598196
1.0279107 1.0541054 1.0179875 1.0728912 1.0415026 1.0458604 1.0466224 1.0220366
1.0195712 1.0537311 1.040244 1.0039563 0.9830742 1.0786855 1.0734634 1.0682425
1.032328 1.014702 1.009266 1.045945 1.0606107 1.0952718 1.019972 1.0217482
1.0567555 1.0949106 1.0582287 1.0554236 1.0040247 1.0466533 1.0962435 1.0542108
1.0420506 1.0790135 1.0895079 0.99142647 1.083097 1.08168 0.99039066 1.0716271

conv3.4.bias f4 [64]
00000000: cf13 8cbb ab58 a83b f4cc 363b 1c8d 51bc
00000010: 6d90 50bb 2146 783a 47a6 903a f96e ee3b
00000020: e827 9dbb 970e 573c ac35 b23b 5b7f 36bb
00000030: 5fa5 c0bc d88d 0fba cc7d 543c 46ad 03bc
00000040: ae3e fe3b a0fc a93a 6cc9 763b 6fcb 53bc
00000050: cab4 51bb 2f1a f6bb 681a 1a3c 5932 8fbc
00000060: 98ac 6fbc 19bf 4dba 8ce9 b6bb d322 adbc
00000070: 7eb7 84bc fb2d 8ebb 7462 693b b71c 0cbc
00000080: 567e 06bb e99a 0e3b bd68 ecbb 21a7 e13b
00000090: c0a1 acbc 38d6 34ba 4a44 d8bb 95f3 4dbc
000000a0: 3fa6 86bb 0341 d23c d4a7 c43c 44ae 9fbb
000000b0: a56e 223c 01ee 15bc 1f3a e5bb 8821 8fba
000000c0: 0a18 d5bc 21ec 413b 115d 783a 6759 a23b
000000d0: 6df7 e2bb 550a febb 383b 93bb ca80 6aba
000000e0: f991 5b3c c75d 0c3c 5f47 3b3b 7a4d e13c
000000f0: bbbc 373b c12d ab3b 5886 4c3c a623 e63b
-0.0042748223 0.005137523 0.0027893158 -0.012789991 -0.0031824366 0.0009470899 0.0011035883 0.0072764126
-0.004796017 0.013126037 0.005438527 -0.0027846906 -0.023516355 -0.00054761535 0.012969445 -0.008036917
0.007758937 0.0012968965 0.0037656678 -0.01292692 -0.0031998628 -0.0075104455 0.00940571 -0.017480062
-0.014628552 -0.0007848605 -0.00558204 -0.02113477 -0.016200777 -0.0043389774 0.003561166 -0.008551768
-0.002052208 0.0021759814 -0.007214634 0.0068863784 -0.021073222 -0.0006898376 -0.0065999376 -0.0125702815
-0.0041091735 0.025665766 0.024005808 -0.004873069 0.009914075 -0.009150983 -0.006995454 -0.0010920027
-0.02601244 0.0029590207 0.0009474317 0.0049545052 -0.006926468 -0.0077526965 -0.0044931434 -0.00089455827
0.013401502 0.00856728 0.0028576476 0.027502764 0.0028036076 0.00522396 0.012483202 0.0070232926

conv3.4.running_mean f4 [64]
00000000: 85a0 2f3f 7279 3e3f f6d5 183f cab9 d53e
00000010: ddc7 0e3f 46a7 f63e ee27 e13e 82d9 343f
00000020: ba71 143f 2019 f23e e1c0 093f fc7a 313f
00000030: 1685 283f f05d 453f f383 223f 0601 163f
00000040: 5462 223f d321 193f 39dd 043f 15e3 123f
00000050: 124e 343f b078 0a3f d5d0 1c3f 683d f13e
00000060: 8e67 393f 25bc 2a3f c90c 023f e33f dd3e
00000070: f2c7 353f 3001 113f 30d3 2e3f 4021 513f
00000080: 0ea9 223f 5347 183f 21ec 2a3f e90d 303f
00000090: 948a 293f 9706 0b3f f9f1 d33e d573 e03e
000000a0: 7bfe 263f a1d2 303f a000 0b3f a7cc 223f
000000b0: 578e 423f 8ebc 143f cca9 033f ba58 343f
000000c0: d9af 033f 2cba 0b3f 1eba 1a3f 7851 0e3f
000000d0: 6f83 233f 619f 1e3f 3062 1a3f 82f4 1b3f
000000e0: e998 2f3f 646e e53e 3826 083f 0aee 333f
000000f0: 7300 1b3f 7390 143f 96fc 153f 9ff0 0e3f
0.6860431 0.7440406 0.5970148 0.41743308 0.5577372 0.48174495 0.43975776 0.7064439
0.5798603 0.47284794 0.53809935 0.69328284 0.65828073 0.7709646 0.6348259 0.5859531
0.63431287 0.59817237 0.5190006 0.5737775 0.70431626 0.54090405 0.6125615 0.47117162
0.72423637 0.66693336 0.5080076 0.43212804 0.7100822 0.56642437 0.68290997 0.8169136
0.63539207 0.5948383 0.66766554 0.68771225 0.6622708 0.5430693 0.41395548 0.43838373
0.65232056 0.69071394 0.5429783 0.63593525 0.75998443 0.5810021 0.51430964 0.70447886
0.514402 0.5458095 0.6044024 0.5559306 0.63872427 0.6196194 0.6030607 0.60919964
0.685927 0.44810784 0.5318332 0.70285094 0.6054756 0.5803291 0.5858854 0.5583591

conv3.4.running_var f4 [64]
00000000: 9e6a a23f 1949 ce3f 41aa 0e40 e082 6f3f
00000010: c1c2 f73f cc56 d93f e6cf d33f 8f1e b63f
00000020: 4013 813f 7597 cf3f 718e da3f 7095 b63f
00000030: 743d 5040 433c d33f b249 a03f a375 1f40
00000040: 87a7 983f 0daa 793f 05fa ce3f fb96 3040
00000050: 328b b33f 496d 0240 0b8b 1140 ccf1 d83f
00000060: 8ecc bd3f c9d6 9c3f e105 443f 2cf2 ae3f
00000070: edde b33f 7496 3640 ef31 aa3f 1802 e93f
00000080: e14a 7540 c06d 863f c10c 963f 1256 ac3f
00000090: 932e f93f 9485 0240 5a54 9e3f 918d b23f
000000a0: 35c2 9c3f 670e a13f d23a 423f bc23 6740
000000b0: 52f4 c33f 49c8 0d40 2fac 0440 2dd0 c03f
000000c0: db62 c63f 43dd 1840 804c 863f 8e39 1d40
000000d0: 15ba 943f c1c1 3340 f642 3d40 8c7e 863f
000000e0: 0d68 ad3f 92ff a83f 5f60 e23f a55f 2240
000000f0: dc75 4040 a9b4 2e40 fdf8 813f a03f 1f40
1.2688787 1.6116058 2.2291415 0.93559074 1.9356309 1.6979613 1.654782 1.4228076
1.0084 1.6218096 1.707472 1.4264355 3.2537508 1.6502765 1.252249 2.491555
1.1926125 0.975251 1.617005 2.759215 1.4026854 2.0379202 2.2741115 1.694879
1.482805 1.2253047 0.7657147 1.3667655 1.4052407 2.852933 1.3296489 1.8203764
3.8326952 1.0502243 1.1722642 1.3463767 1.9467338 2.039403 1.2369492 1.3949453
1.2246767 1.258252 0.75871 3.611556 1.5308936 2.2153494 2.0730093 1.506353
1.5498918 2.3885047 1.0492096 2.4566379 1.1619288 2.8087008 2.957212 1.0507369
1.3547379 1.3202994 1.768566 2.5370877 3.0071936 2.7297766 1.015411 2.4882584

fc.0.weight f4 [32, 64]
00000000: 3749 f83d f66d 2e3e bbd8 293d ef10 34bc
00000010: b97e 34be 42a3 1a3d f0d9 b1bc 9d7b 9fbc
00000020: e971 843d 406b 11bd 73e1 ccbd 780e b5bd
00000030: 55a7 c7bd 120c d33c 09c3 d13d 0786 16be
00000040: 016b bc3c 5c65 993c 4ae2 e1bd f564 90bd
00000050: 5a5f 98bd db13 8d3c 1f29 51b9 d317 3bbe
00000060: 6eca c23d f3de 2c39 f94e 9abd 7ec9 68bd
00000070: 5883 eb3d 9392 bbbc 601b 0d3c cab1 003e
00000080: 0133 593d 2d0e 1e3d 7c79 bb3d 12fc a43d
00000090: 52a7 923d 1c28 01be 92d6 063c 8d56 0abe
000000a0: d8b0 933d 097e 853d 1bb6 8fbc 714d 83bd
000000b0: a34b 083e e1e3 27be 55f2 92bd 5a37 23bd
000000c0: 1616 3b3d dcb8 a2bd 3d84 a03b ebd2 e3bd
000000d0: a175 7f3d 3cb8 e1bd 86e0 c9bc 5f8c fa3d
000000e0: dc48 953d 43ba 163d 4b40 20be e3a1 19bd
000000f0: 32f4 45bd 8c01 b53c 5a89 12bb e081 00be
00000100: 3416 5cbd 0e35 b1bc 2ae4 72bd cd6a 0cbe
00000110: 6430 90bc cd74 353d 6b38 b2bd d377 8c3d
00000120: 659a b7bd 5cfd e1bd 933c 883d 37bc a7bd
00000130: ced3 70bd a548 dd3d 1ae7 1b3e 022b 8cbd
00000140: 5f59 073e e862 7b3d a4bc 8dbd 8226 633d
00000150: 0e87 a5bc 8a0c 14be 97a5 2abe b686 10be
00000160: f679 acbc 7272 053e ed0a 4f3b 873d d5bd
00000170: 6601 e63d 6f72 efbd b253 723c ee91 89bd
00000180: 6ba5 79bc 564d 163e bac3 133e 7217 013e
00000190: 29de 0e3d ee55 4bbd d58b 9dbd c175 0fbe
000001a0: e578 93bd 789e 183d d648 d53d 8517 8c3d
000001b0: 3d25 bbbc 170c 95bd 2af2 383d a203 eb3d
000001c0: 53c4 15be 980f b2bc 312e 70bd 0082 b6ba
000001d0: a7d8 c93d 7866 43bd a6f6 8bbc 7898 2c3e
000001e0: c815 103e b386 43bd 523a 44bd de31 7ebc
000001f0: c81d e5bd f718 c63b 6052 743c a153 6cbd
00000200: 832e f4bb abde 633d 65f7 ccbd 4cdb c4bd
00000210: 59a0 05be 22c0 3abc 3d48 14be dbbf 403d
00000220: 2d13 993d ecbc 0b3c 71cc 94bd e080 c63d
00000230: 602b cfbd c0ca d43d 59d4 a23d 8955 d8bd
00000240: dbd4 813d 7a3a ab3d bbe7 453d b4ef f6bd
00000250: 59dd bd3c 172e c0bd 5237 f7bd f753 fdbd
00000260: 9df2 63bd 90db 39bb 4d4e ee3d dfad a5bd
00000270: 4a78 c63d 8b8b f93c 1d35 173e d418 8cbd
00000280: d5ff 6cbd 0b5e 833d fabd 17bd 191e 8b3d
00000290: 5248 b9bd 62d0 d9bd 7d8f 9fbc 51b0 1fbe
000002a0: 4146 0f3d f5c3 4dbd 9ba2 cf3d 057f 5bbd
000002b0: 24c6 543c a64d 19be c810 1d3d 6040 a7bd
000002c0: f74d 403d 8014 0f3d cd8c b03d 01bd aabd
000002d0: 5610 ec3d e2a0 e9bd 2352 63bd f002 043e
000002e0: ff31 9d3d 49c9 28be 353b 44be 8055 953d
000002f0: 3f60 cbbd 8c59 94bd 360c e9bc b10a f8bd
00000300: ab98 07be 0eef eabd 4d69 ec3a 2d6b 193d
00000310: 1a2b 213e 391a 083e 3a8a de3d 8974 c6bd
00000320: b8c5 0e3d 3911 103e 1f62 2a3d b0a9 08be
00000330: 7770 f83d 81b3 ccbd d3af 14be 502e ac3d
00000340: dceb 0abe 75aa 383c e709 07bc a376 9f3d
00000350: 4a6d c2bd 3b13 263e 9226 3f3d 46d1 8b3d
00000360: e5a3 ee3c fd3d 5e3d 093d 96bc 4a77 5bbd
00000370: 353a 4a3d 6f61 183e 9de5 5cba 0366 02be
00000380: ceed cc3d aed1 2fbd 4aa5 27be 23fd 79bd
00000390: 1e3a 9dbd 2883 e53c 28d2 8b3c 37e8 413c
000003a0: 8926 1c3d 2678 18be 0735 223c 2960 dd3d
000003b0: a541 97bd 1c8e 1e3e 4ded 44bd 6c2a 1ebd
000003c0: e900 e7bc 8908 5f3c f0be 84bd ca37 bcbc
000003d0: 3539 e1bc 6d6a 1b3e ba3c 0b3e 6a08 dfbd
000003e0: c311 05be 0cd1 e83c af8e 9fbc 635a 97bc
000003f0: 45d4 f6bc b34f 293e 1842 8fbd 4bb6 e63c
0.121233396 0.17034134 0.041466456 -0.010990365 -0.17626466 0.03775335 -0.021710366 -0.019468123
0.06467039 -0.035502672 -0.100039385 -0.0884065 -0.09748713 0.025762592 0.10242278 -0.14699565
0.023000242 0.01872509 -0.11029489 -0.07050506 -0.07440062 0.017221382 -0.00019947112 -0.18270807
0.09511267 0.00016486253 -0.07534594 -0.056832783 0.11499661 -0.02289704 0.008612484 0.12567821
0.053027157 0.038587738 0.09154031 0.08055891 0.0716082 -0.12612957 0.0082298685 -0.13509579
0.07211465 0.0651818 -0.01754289 -0.06411255 0.13310103 -0.16395523 -0.071751274 -0.03984771
0.04567536 -0.079454154 0.0048985765 -0.11124214 0.06236804 -0.11021468 -0.024643194 0.12233805
0.072892874 0.036798727 -0.15649526 -0.037507903 -0.048328586 0.022095464 -0.00223597 -0.12549543
-0.053732112 -0.021631744 -0.059299625 -0.13712616 -0.0176012 0.044300843 -0.08702167 0.06858792
-0.08964995 -0.110346526 0.066521786 -0.08190196 -0.058795743 0.108048715 0.15224877 -0.068441406
0.13217686 0.06137362 -0.06920746 0.055456646 -0.020206 -0.14457908 -0.1666473 -0.14113888
-0.02105425 0.13031939 0.0031592206 -0.10412126 0.112307355 -0.11691748 0.014790462 -0.06717287
-0.015237193 0.14677939 0.14430133 0.126066 0.034879837 -0.049642496 -0.076926865 -0.14009763
-0.07200793 0.037260503 0.10414283 0.068404235 -0.022844905 -0.072776966 0.04515282 0.11475302
-0.14625673 -0.021735951 -0.0586378 -0.0013924241 0.09855776 -0.047705144 -0.017085385 0.16855037
0.14070809 -0.04773588 -0.04790718 -0.015514819 -0.11187321 0.0060454565 0.014912218 -0.057696942
-0.0074518337 0.055632275 -0.10008124 -0.0961214 -0.13049449 -0.011398347 -0.14480682 0.047057968
0.074743606 0.008528929 -0.072655566 0.0969255 -0.10115695 0.10390234 0.07950658 -0.105631895
0.06339427 0.08360763 0.0483167 -0.120574385 0.023176836 -0.09383791 -0.120710984 -0.12369531
-0.055651296 -0.002835963 0.116360284 -0.08089804 0.09690912 0.030462047 0.14766355 -0.06840673
-0.057861168 0.06414422 -0.03704641 0.0679285 -0.09046997 -0.10635449 -0.0194776 -0.15594603
0.03497911 -0.050235707 0.101384364 -0.053587932 0.0129866935 -0.14971027 0.038346082 -0.081665754
0.046949353 0.03493166 0.086206056 -0.08336831 0.11526553 -0.11407639 -0.055498254 0.12891746
0.076755516 -0.16483034 -0.1916321 0.072916985 -0.09930467 -0.07243642 -0.028448205 -0.12111414
-0.13241832 -0.11471377 0.0018036753 0.037455726 0.15739098 0.13291253 0.108662084 -0.09690196
0.034856528 0.1406907 0.04159748 -0.1334598 0.12130826 -0.09995175 -0.14520197 0.08407271
-0.13566536 0.011271109 -0.008242107 0.077863 -0.094935015 0.16218273 0.046667643 0.06827025
0.029130885 0.054258335 -0.01833965 -0.05358056 0.049371917 0.14880918 -0.0008426549 -0.12734227
0.10006295 -0.042924576 -0.16371647 -0.061032426 -0.076771006 0.028016642 0.017067984 0.0118351495
0.038122687 -0.14889583 0.009900338 0.10809357 -0.073855676 0.15483898 -0.04807787 -0.038614675
-0.028198676 0.013612875 -0.06481731 -0.022975821 -0.027493099 0.15177317 0.13597384 -0.10890277
-0.12995057 0.028419994 -0.019477217 -0.018475717 -0.030130515 0.16534309 -0.06995028 0.028163096

fc.0.bias f4 [32]
00000000: a4e6 7bbd 8437 c0bd e9ab a0bd f3c6 703d
00000010: d595 12bd 1454 d9bd 60c6 a23d 329d c4bc
00000020: 21ed c5bd 3bf2 87bd fdb1 a8bd 44aa e6bc
00000030: d76c b43d e40c e4bc 8477 33bd a1cf 043d
00000040: d3aa 683d 8f3e c7bd 2d69 1abd cd6b f93b
00000050: 9c6c 0fbc a761 d43d f6a4 913d d89a e4bd
00000060: 0b5e b0bb 56e8 e53d 9614 c93d b655 b73d
00000070: 40eb d33d 3801 a93d 6667 e2bc 63a2 de3b
-0.061499253 -0.09385589 -0.07845289 0.058783483 -0.035787422 -0.1061174 0.07947993 -0.024000738
-0.096643694 -0.06637999 -0.082370736 -0.02815736 0.08809822 -0.027838178 -0.04381515 0.032424573
0.056803536 -0.09728729 -0.03769796 0.007611728 -0.008753922 0.10370188 0.07111542 -0.111623466
-0.0053823045 0.11225955 0.098183796 0.08951895 0.10347605 0.082521856 -0.027637195 0.0067942603

fc.3.weight f4 [1, 32]
00000000: 65af 38bd 4c24 cebd 8f62 fbbd 9e90 6b3e
00000010: 47f7 323e c350 aebd 566a e03b 9318 4d3e
00000020: 090f aabd c144 f5bd d6c3 433e 556f 92bd
00000030: 7a1a 2ebe ac2e 42bc 23e5 d3bc 37f8 0fbd
00000040: 8b39 61bd c47f ee3d 0ac4 33be 858d a7bd
00000050: d167 9b3d 4a0f 363e aca3 243e f621 5a3e
00000060: 47ae 01be bef7 1fbe 75c0 a13d 5eea e9bd
00000070: bc09 1c3e 0f2e 6cbd 8096 16be 6b93 d3bd
-0.045089144 -0.10065517 -0.12274658 0.23004386 0.17477141 -0.08511498 0.0068486137 0.20028906
-0.08303649 -0.119760044 0.19117674 -0.07150141 -0.17002288 -0.011851948 -0.025866097 -0.035148825
-0.054986518 0.11645463 -0.17555252 -0.081812896 0.07588161 0.1777927 0.16078061 0.21302018
-0.12664138 -0.1562185 0.078980364 -0.11421655 0.15238088 -0.057661112 -0.14705849 -0.10330852
