5 第五讲 机器学习训练模型的数学范式v16/models/model35.pth (torch, 112459 bytes, 21 tensors)

conv1.0.weight f4 [16, 3, 3, 3]
000000 7e 17 4a bc 2e 21 de bd 46 0d 27 3e 69 12 60 bd
       -0.012334703 -0.10846172 0.16313657 -0.054705057
000010 12 f7 01 be 09 39 21 be 0d af 1e 3d 68 4d 20 be
       -0.12691906 -0.15744413 0.03874116 -0.15654528
000020 6c 4e d3 3d 0c 76 87 3d 31 6c 42 3e 8f c3 02 be
       0.10317692 0.066143125 0.18986584 -0.12769912
000030 4e c7 c8 3c b9 5f 0b 3d 4e ca ed 3c 01 2f c3 3d
       0.024509098 0.034026835 0.02902713 0.0953045
000040 b3 7b a3 bb 51 20 87 bd fb b5 0f 3e 6b 5c f6 bd
       -0.0049891113 -0.06597961 0.14034264 -0.12029346
000050 b3 7a 16 be 35 70 c4 3d f7 27 61 bd 1f 02 20 3e
       -0.14695244 0.09591714 -0.054969754 0.15625809
000060 dc 54 09 be 23 7f 14 3e 38 01 17 3d 85 09 36 bd
       -0.13411278 0.14501624 0.036866397 -0.044442672
000070 72 02 0a 3e 9c 82 a5 bd e6 0d 2e 3c 3f ca 9f bd
       0.13477495 -0.080815524 0.010623431 -0.07802247
000080 80 59 8f 3d 04 6c 74 3d 6f f2 12 3e 6e d9 e3 bd
       0.06999493 0.059673324 0.14350294 -0.11125456
000090 33 72 38 3d f0 fc 32 bc 11 27 19 3e 95 9c 0d be
       0.045030784 -0.010924563 0.14956309 -0.13829263
0000a0 0a 9a 8b bd f1 d0 17 3e e6 cd 87 3d 14 8f 6c bd
       -0.0681649 0.14825799 0.06631069 -0.057753637
0000b0 3c 14 7e 3d df b3 59 3d 41 a1 91 bd f1 c3 29 be
       0.062031016 0.053150054 -0.07110835 -0.16578652
0000c0 33 97 30 be ce f4 c7 3d 31 14 f7 bc d7 15 a1 3d
       -0.17245178 0.0976349 -0.030160995 0.07865494
0000d0 6d e6 2a be b8 d4 1d 3e 40 fe 88 3d c5 07 4e bc
       -0.16689463 0.15413177 0.06689119 -0.012575095
0000e0 f9 e9 a0 bd 06 3f fb bc c2 3a 0c be 79 7d 24 be
       -0.07857127 -0.0306697 -0.1369429 -0.16063489
0000f0 39 9f 9b bd d1 45 e1 3d 64 b8 29 be 27 51 1e 3e
       -0.07598729 0.109996445 -0.16574246 0.15460645
000100 74 e4 cc 3d 22 0e 07 be 09 9a 29 3e 6c 93 65 3d
       0.100045115 -0.13188985 0.16562666 0.056048796
000110 8e 8b c1 bc ca 69 b1 3c e1 b7 36 3d 33 b8 07 3e
       -0.023626115 0.02165689 0.044608954 0.1325386
000120 22 4b 44 3e df ef 3b 3d b6 6c 87 bc 37 ad 82 3c
       0.19169286 0.045883056 -0.01653133 0.015951736
000130 7d e2 2d 3d 9f 72 8f bd d1 fb a3 bd 3d f7 48 be
       0.042452324 -0.07004284 -0.080070145 -0.19625564
000140 81 00 3d 3e cf 73 97 bd 22 eb 5c bc 13 a7 1f be
       0.18457223 -0.073951356 -0.013483794 -0.15591078
000150 10 e8 66 bb b5 3d 2a 3e 02 5e 19 be ad 45 d1 3d
       -0.0035233535 0.16625102 -0.14977267 0.10218368
000160 f1 b3 44 3e 5c 84 2e be aa fd d6 3a 5d c0 0d 3d
       0.19209267 -0.17042679 0.0016402502 0.03460728
000170 1d e7 37 3c 76 7e e3 3b a5 be 28 3e 4f c6 2a 3e
       0.011224535 0.0069425656 0.16478975 0.16677211
000180 11 9a 5d 3c 32 40 8e 3d 13 2c 89 bd c7 bc 7b bd
       0.013525502 0.06945838 -0.066978596 -0.06145933
000190 21 85 6d bd 44 c3 17 3e 63 6e 5a 3e 3a fa 25 3e
       -0.05798829 0.14820582 0.21331172 0.16208735
0001a0 1c 1c 35 3d 62 bd e2 3d fe e2 55 bd d8 8f e3 ba
       0.04421626 0.11071278 -0.05221843 -0.0017361594
0001b0 46 53 36 be 24 c3 6f 3d 5a 94 f6 bd 51 92 2a 3e
       -0.17805204 0.05853571 -0.120400146 0.16657378
0001c0 72 38 4e 3c bc 09 c0 3d 85 ec 32 bd 93 cb 2d 3d
       0.0125867 0.09376857 -0.043682594 0.04243047
0001d0 6a 6e 38 be 54 cc 3a be 2f 49 e4 bd 30 cd 40 3e
       -0.1801087 -0.18242007 -0.11146771 0.18828273
0001e0 e0 98 a7 3d 0e 52 cc 3d 7b 7d 3f 3e a2 24 b6 3d
       0.081834555 0.09976588 0.18700211 0.08893706
0001f0 ea 74 a4 3d d7 bd 8c bd 6c 35 db bd 7c d8 dc 3d
       0.08030112 -0.068721466 -0.10703549 0.107834786
000200 e9 cd 1a 3e 25 68 26 be 1c 74 69 3d e7 6f 63 bd
       0.15117611 -0.16250665 0.056995496 -0.05552664
000210 73 6a 2c 3e 40 c9 1a bd 83 a1 50 bd d8 90 1c bd
       0.16837482 -0.037789583 -0.05093528 -0.03822407
000220 2b f2 63 bd 7c 9d 1d 3e 1a 88 bc bd 18 6b 4d 3d
       -0.05565087 0.15392107 -0.09205647 0.05015096
000230 0c cc 94 3b 0b 12 0f 3e 04 0a bb 3d c2 cb 11 be
       0.004540926 0.13971727 0.0913277 -0.14237884
000240 a4 2e 73 bc 2c a2 27 b9 a7 85 13 bd 40 ca 1f 3e
       -0.014842663 -0.00015986775 -0.036016133 0.15604496
000250 32 6f 47 3e ae 85 0f be 9c e4 68 bd 24 fb 44 3e
       0.19476011 -0.14015839 -0.056858644 0.19236428
000260 1f a8 3d 3d 8e eb 93 bd 54 59 e8 3d 39 fe 0b bd
       0.04630291 -0.07222663 0.11345163 -0.034177992
000270 97 bf aa bd 9f e2 45 be dc 31 f2 3d 3a 76 64 bd
       -0.08337324 -0.1932473 0.11825916 -0.055776812
000280 fb c8 13 be 72 b2 15 be 2f 85 4e bd 21 80 fc 3d
       -0.14432137 -0.14618853 -0.050419983 0.12329126
000290 a3 d0 e5 3d 0e 4e e0 3d 3f e9 99 bd 26 d2 11 be
       0.11221435 0.10952388 -0.07515191 -0.14240322
0002a0 7d bb 37 bd 25 79 ad bd 87 ed a0 3d ba 01 ee 3d
       -0.044856537 -0.08470372 0.07857805 0.11621423
0002b0 1e e3 5e bd 1c 82 36 be 3c bd 1d 3e c4 f6 9a 3d
       -0.054415815 -0.1782307 0.15404218 0.07566598
0002c0 1e 2e c8 bd 62 f7 5a bd b1 80 74 bc 7f fd c5 bd
       -0.09774421 -0.05345858 -0.014923261 -0.09667491
0002d0 bf 6f 14 3e 98 37 3d 3d ff b0 00 be cc 52 09 be
       0.14495753 0.046195596 -0.12567519 -0.13410491
0002e0 f2 5e b5 bd 16 36 3d be 8e b8 c7 bc 96 9a 6e bd
       -0.08856 -0.18477663 -0.024379995 -0.058252893
0002f0 9e c6 d5 bd ed c6 9b 3c c8 9c bf bd bf 97 d6 3d
       -0.10438274 0.019015754 -0.093560755 0.10478162
000300 dc b9 d3 3d 66 04 78 bd f5 99 ad bd da 4e 44 be
       0.10338184 -0.06055107 -0.084766306 -0.19170704
000310 0a b6 6e bc d7 3b 20 be b1 a5 35 3e 9d d9 d4 3d
       -0.014569769 -0.15647827 0.17738988 0.10393069
000320 f4 10 9d bb 5f 77 58 bc 22 71 e9 bb b9 c4 40 3e
       -0.0047932807 -0.013212054 -0.007124082 0.18825044
000330 2a 7b ac bc 36 3b 1d 3d 9a 97 f0 3d 91 b6 83 3d
       -0.021054823 0.038386546 0.11747666 0.06431306
000340 64 fe c1 bc a1 94 f8 3d cf 21 22 be e4 12 bd 3c
       -0.023680873 0.12137724 -0.1583321 0.023080297
000350 82 5b 51 be e3 29 b7 3d ae d8 ec 3d f8 f9 54 bd
       -0.20445064 0.08943536 0.11564766 -0.0519962
000360 bd e9 31 be c4 16 84 bd 26 ec 79 3d 5a 29 22 be
       -0.1737432 -0.06449655 0.061016224 -0.15836087
000370 2c 52 03 bd 1b 50 83 bd a9 b4 fb bd cf f6 9e 3d
       -0.032060787 -0.06411763 -0.122903176 0.07761919
000380 b7 7b 00 be 6d ba 60 3d ef 68 bc bd bd e5 b8 3c
       -0.12547193 0.05486529 -0.09199702 0.022570485
000390 5c 70 15 3e a6 21 13 be 6f d6 fe bd 2d 1e 96 3d
       0.14593643 -0.14368305 -0.12443244 0.07329974
0003a0 97 7f 71 3d 3b c8 02 be b5 5d 86 3d b0 36 e4 bd
       0.05895957 -0.12771694 0.06560842 -0.11143243
0003b0 73 d0 24 be 7b e5 c5 bd 1d 26 15 3e 8f b5 0f 3d
       -0.16095142 -0.096629106 0.1456532 0.035085257
0003c0 6a 7a 08 3e c4 1b 10 3d 76 44 ce bc 8d bd 31 3e
       0.13327947 0.03518273 -0.02517913 0.17357464
0003d0 85 17 b0 3d 7f 50 79 3d 78 99 29 be 80 39 04 be
       0.08598236 0.060867783 -0.1656245 -0.1291256
0003e0 5a 48 0e 3e 8c 29 3c 3e 6e ca 43 3d e6 dd a7 3d
       0.13894787 0.18375224 0.047800474 0.08196621
0003f0 57 f4 18 be 5a 40 66 bd dc 52 12 bd 93 96 c9 bd
       -0.14936958 -0.056213714 -0.035723552 -0.09843173

conv1.0.bias f4 [16]
000000 cc 5e c8 3d 4c a3 f7 3d f2 cc c5 3d 8d df 81 3c
       0.09783706 0.12091693 0.09658231 0.015853668
000010 f0 54 3f be 66 93 b3 bb f1 e6 0f 3e ab 2d 34 3d
       -0.18684745 -0.0054802177 0.14052941 0.043988865
000020 bd 5d 50 be d9 10 ab 3c 90 fd fd 3d 1f 56 0e be
       -0.20348258 0.020882057 0.12401879 -0.1390004
000030 a4 44 20 3e ed 16 25 be e8 f8 af bb d7 54 24 3e
       0.15651184 -0.16122027 -0.005370248 0.16047989

conv1.3.weight f4 [16]
000000 74 28 7c 3f 01 08 7f 3f 5f e9 80 3f 15 66 74 3f
       0.98499227 0.9962159 1.0071219 0.95468265
000010 34 8e 82 3f ed 09 82 3f d1 b6 7c 3f f7 a8 7c 3f
       1.0199647 1.0159279 0.98716456 0.9869532
000020 3b af 76 3f c5 dc 84 3f 07 50 79 3f f0 22 87 3f
       0.9636113 1.0379874 0.9738774 1.0557537
000030 d6 88 79 3f e7 93 82 3f d9 5f 7a 3f e9 75 80 3f
       0.9747442 1.0201386 0.978025 1.0035983

conv1.3.bias f4 [16]
000000 68 3c 75 bc 71 d8 90 3d 99 45 1a bd 34 c7 8d 3c
       -0.014968015 0.07072533 -0.03766403 0.017306902
000010 69 dc 2e 3d ee 83 3b bd c3 11 28 3d c3 b8 26 bd
       0.04269067 -0.045780115 0.041032564 -0.040703546
000020 99 cd 84 3d 4b e1 30 3d a6 96 5a bd 62 a3 73 3c
       0.06484527 0.043183606 -0.053366326 0.0148704965
000030 aa 23 52 bd 6d 7a 87 3d 47 ad cd bb 84 65 82 bb
       -0.051303543 0.06615148 -0.00627676 -0.0039793868

conv1.3.running_mean f4 [16]
000000 cc 6c d7 3d 99 89 3e 3e b2 79 f9 3d bd 3f b8 3e
       0.10518798 0.18607177 0.12181415 0.35986128
000010 1d 6f 4b 3c 50 c9 82 3c fb 50 da 3c 25 5b b1 3d
       0.012416628 0.015965134 0.026649943 0.086599626
000020 6d 56 96 35 21 79 26 3d 4a 9f a5 3e 3a 1c 8f 3c
       1.1201024e-06 0.04064286 0.3234809 0.017469514
000030 2c 7a 16 3e 2a ae 61 3d f6 81 bb 3d 79 aa 0b 3e
       0.14695042 0.055097736 0.091556475 0.13639249

conv1.3.running_var f4 [16]
000000 d4 cc 97 3a be 23 ed 3a b2 d2 5e 3b 03 90 42 3d
       0.0011581429 0.0018092317 0.0034000096 0.04750062
000010 53 a3 67 3a c2 9b 74 3a 91 8c 16 3b 5a 19 16 3b
       0.0008836288 0.0009331071 0.0022971968 0.0022903294
000020 77 c2 53 33 67 04 05 3b 78 ad ab 3c 0f 01 a1 3a
       4.930413e-08 0.0020296813 0.02095674 0.0012283641
000030 06 01 69 3a 77 fe a5 3b da 44 bc 3b 48 fb a1 3a
       0.0008888397 0.005065735 0.0057455124 0.0012358213

conv2.0.weight f4 [32, 16, 3, 3]
000000 c8 dc 38 bc 22 bf 17 bd 77 e3 d6 3a e5 16 82 bc
       -0.011283107 -0.037047513 0.0016394694 -0.015880058
000010 c9 d7 76 3d 58 70 cd 3c 70 5c 33 3d 65 92 4f bc
       0.060264383 0.025077984 0.043789327 -0.0126691805
000020 8d ea 01 3b 41 37 25 bd 7c d6 b3 bd 42 d2 61 bd
       0.001982364 -0.040335897 -0.08781144 -0.055132158
000030 0e 06 13 bc d0 45 09 3d f1 75 12 bd 73 00 dc bc
       -0.0089736115 0.033513844 -0.03575701 -0.026855683
000040 bb f7 46 bd 63 19 35 3d b8 56 bd 3d 8c 54 25 bd
       -0.048576098 0.044213664 0.09245056 -0.040363833
000050 53 7e a4 bd 83 f7 86 3d a4 0b 79 3d f7 52 7d bd
       -0.08031907 0.06590178 0.060802117 -0.0618467
000060 67 24 9f bd 1c b4 2b bd 4d c0 69 bd 95 dc ae 3d
       -0.07770615 -0.041919813 -0.057068158 0.085381664
000070 ce e7 43 3d ac a8 5e bd 63 12 2c bc b5 c2 80 3d
       0.047828488 -0.054360077 -0.010502431 0.062871374
000080 20 c9 a6 bc c1 1b 03 3d 86 51 a3 3b 5d 17 1e 3d
       -0.020359576 0.03200889 0.0049840836 0.0385965
000090 27 6a e0 3c 6f e4 14 3d 32 8b f9 bc fe 54 e0 bd
       0.027394367 0.036350664 -0.030461881 -0.10953711
0000a0 4f b9 83 bc 52 53 28 3c 39 08 6f bd 66 5a 77 bd
       -0.016079573 0.010273771 -0.05835745 -0.060388945
0000b0 dd 5a 67 3c 15 5d 4d 3c 4f 32 80 3d b8 47 a5 3d
       0.014120785 0.0125343995 0.062595956 0.0807032
0000c0 70 43 4a bd a5 76 74 3d e0 3b 22 3d c9 ee ab 3d
       -0.04938072 0.05968346 0.039607882 0.08395154
0000d0 d9 33 cc 3d a7 ef 92 3d 75 f8 68 3d a7 3e 0e 3c
       0.09970827 0.07174616 0.056877572 0.00868193
0000e0 33 e0 6c bd dd f4 1b bd 3f f6 0f 3d f6 c2 3a bd
       -0.057831 -0.038075317 0.035146948 -0.045596085
0000f0 32 05 23 3d aa 7b d8 3c 7b b7 1f 3d fd d0 87 3d
       0.039799877 0.026426155 0.03899334 0.06631658
000100 55 07 5f bd fd 64 23 bc e1 71 9c 3d 18 16 96 3d
       -0.05445035 -0.009972808 0.07638908 0.07328433
000110 18 a7 d0 bc 3e 45 4c 3d 92 12 3e bd 7a 70 88 bc
       -0.025470302 0.049870722 -0.04640443 -0.016655196
000120 43 eb a4 bb 2c 52 eb bd a4 c3 06 bd ef 30 e5 bd
       -0.005032928 -0.114902824 -0.03290142 -0.11190974
000130 a7 95 16 be df 3b cf bd ae 09 b1 bd 95 a8 1c bd
       -0.14705525 -0.101188414 -0.086444244 -0.03824671
000140 b5 9a 02 be 62 98 fc bd 26 8b 67 bd 4d 19 32 3c
       -0.12754329 -0.12333752 -0.056529187 0.01087029
000150 8f 02 70 bd 20 7d 4c 3c bf cc 88 3c 4a 5d e3 bd
       -0.05859619 0.012481004 0.016699193 -0.11101778
000160 ae d1 fa bd f1 4d 1e 3c 0d 6a 8c 3d 1f fb ac bc
       -0.122470245 0.009662137 0.06856165 -0.021115838
000170 28 67 17 bc 4f e7 81 bd 5a 1f 96 3c d4 60 db bc
       -0.009240903 -0.06342947 0.018325496 -0.02677957
000180 5e fa a6 3d e2 23 0f 3d 31 26 c8 3c 87 05 ca 3b
       0.081532225 0.03494633 0.024432274 0.0061652097
000190 a3 2d e6 3c 6d b3 81 3d b6 da 90 bd 8f aa 6c bd
       0.028097933 0.06333051 -0.07072966 -0.057779845
0001a0 5b e9 ad bd 22 1e c4 bc a9 51 9b 3d 5b 03 77 3d
       -0.08491775 -0.02394015 0.07583935 0.060305934
0001b0 ac a9 23 3d 8a d6 13 bd 7d 38 19 3d d7 c5 05 3d
       0.039956734 -0.036093272 0.037407387 0.032659378
0001c0 62 c3 84 bb ec 6c 70 3b df 8a 38 bd 87 57 fd 3c
       -0.0040516118 0.0036686016 -0.045054313 0.030925525
0001d0 0c f6 73 bd 02 c9 45 3d f3 0e aa bd d4 61 e7 bd
       -0.05956082 0.0482874 -0.083036326 -0.11297956
0001e0 1b c8 3b bd 11 59 96 bd 88 f4 b6 bc 7e a0 07 be
       -0.045845132 -0.07341207 -0.022333398 -0.13244817
0001f0 19 63 78 bd 84 45 05 3d db 0f a2 3c d6 4f 7f bd
       -0.060641382 0.032537 0.019782951 -0.062331997
000200 d5 cc 38 bd 51 77 0a bd b9 a8 83 bd 07 5d a2 bd
       -0.045117218 -0.033805195 -0.06428666 -0.079279
000210 40 99 20 bd ad 05 dc 3c 42 14 7c 3c d1 fe 29 bd
       -0.03920865 0.026858175 0.015385689 -0.041502777
000220 5a 4a b6 3b dd 05 12 3d 7c c8 a9 3b ed b6 81 bd
       0.0055630626 0.035650123 0.0051813703 -0.063337184
000230 b3 46 0a bd ac df 21 3d ef 43 92 3d c4 7a b2 3c
       -0.03375883 0.03951995 0.071418636 0.021787055
000240 4a 9b 10 3d 0a a7 6c bc e6 a4 05 3d 6a 10 b6 3d
       0.035304345 -0.014444122 0.032627963 0.088898495
000250 5b a7 d7 3c 0b a6 50 bd 0a 78 a6 3c b8 8d 6b 3d
       0.026324918 -0.0509396 0.020320911 0.0575082
000260 d2 53 8a 3d 63 6d 00 bd 48 89 f0 3c 5a e7 13 bd
       0.06754269 -0.03135432 0.029362336 -0.036109306
000270 56 2d 87 bd e6 7d 2f 3d 4a cf cd bd 4c 60 d7 3c
       -0.06600444 0.042844675 -0.10049303 0.026291035
000280 f0 77 11 3b 65 53 a1 bc 3c 43 cd 3b 5d 23 a6 3d
       0.0022196732 -0.019693086 0.0062641185 0.08112214
000290 d1 1f 6f 3d b9 d0 b2 3d 37 e7 6f bd af 89 0c 3d
       0.058379952 0.08731217 -0.058570113 0.034310993
0002a0 c5 b5 86 3d 1f 16 49 bc c0 d5 b9 3d 8b db 68 3d
       0.065776385 -0.0122733405 0.09073973 0.056849997
0002b0 2c 1e 09 3b 4f 66 dd bb 17 05 aa bc be e0 b1 bc
       0.0020922525 -0.006756581 -0.02075438 -0.02171361
0002c0 45 e1 ab 3d d4 f5 e2 3c 2f fb f7 bc ab 6d ac 3d
       0.08392576 0.02770511 -0.03027114 0.08419355
0002d0 78 47 a7 3c fb 9d 14 3c ea 30 6a bd d8 7c b0 3c
       0.020419821 0.009070869 -0.057175554 0.021543905
0002e0 dc 31 56 3d 7e 97 4d 3d 28 be 0d 3d b7 8a f9 bb
       0.052293643 0.050193302 0.034605175 -0.007615413
0002f0 9a d8 26 3d ab 6a 12 3c ef 96 8f bd ba 21 3e 3c
       0.04073391 0.008936564 -0.0701121 0.011604721
000300 e3 fc 6a bd 4b eb e0 bd 33 a7 8b bd e9 8a a0 3c
       -0.057370078 -0.109823786 -0.06819 0.019597488
000310 3f d9 8e bc e0 ae 7a bd da 65 7f bd 19 7e 6a bd
       -0.017437575 -0.06120193 -0.062352993 -0.057249162
000320 62 ae 54 3d 89 a1 93 3d 7a 4c 81 3c 11 4f 6a 3d
       0.051924117 0.07208545 0.015783537 0.05720431
000330 2b 9f 98 bb 88 6a a2 bd 46 23 4a 3d ce 43 67 bd
       -0.004657646 -0.079304755 0.049350046 -0.056461148
000340 4d 2b 8f 3d a8 ef 23 3d 96 cb 4e bd 15 60 65 bd
       0.06990681 0.040023476 -0.050487123 -0.055999834
000350 51 6b 34 bd ab d7 a9 bb ca 28 a3 bd a0 3a 01 3d
       -0.044047657 -0.0051831803 -0.07966764 0.03155005
000360 74 a0 15 3d 4f ba a9 bc 0f bd 54 3d 0a e7 9e bd
       0.036529973 -0.020718722 0.051938113 -0.07758911
000370 41 c6 3b 3d 4d c2 5e 39 bc a1 c0 bb b4 27 90 bd
       0.045843367 0.00021243953 -0.0058786552 -0.07038823
000380 83 29 1d bd ee b8 c5 3c df bd b7 bd 36 e4 82 bd
       -0.038369667 0.024136033 -0.08971762 -0.06391184
000390 db 82 07 3d ab 07 1c bc 0b aa 96 bd 76 71 99 3d
       0.033083778 -0.009523313 -0.07356652 0.07492344
0003a0 ba 34 d6 bc 7d fb 91 bc 32 a3 e2 3c cb 8c 02 bd
       -0.026148189 -0.017820114 0.027665708 -0.031872552
0003b0 2a 53 b6 3d d6 b2 c0 3d 37 b7 de 3d 63 75 fe bb
       0.08902581 0.0940911 0.10874789 -0.0077654584
0003c0 ae 4b a2 bb 49 5b eb 3d a9 8a 4d 3d 86 32 76 3c
       -0.0049528694 0.11492021 0.050181065 0.015026694
0003d0 f6 c3 71 3d f2 e9 5c 3d 02 7b 9b bd b3 0b aa 3b
       0.059024774 0.053934045 -0.07591821 0.005189383
0003e0 9a 47 eb bc c0 31 bb 3c a9 68 f0 3c f0 e7 a4 3c
       -0.028720666 0.022850871 0.02934678 0.020130128
0003f0 23 64 90 3d 04 71 61 3d 74 e3 64 3d 56 f3 67 3d
       0.070503496 0.05503942 0.05588098 0.056628548

conv2.0.bias f4 [32]
000000 d7 d4 48 bd 75 5f 64 bd c9 04 1b bd a1 f6 5d 3d
       -0.049031105 -0.055755097 -0.03784636 0.05419028
000010 15 e0 2d bd 8c b0 01 bd 1f 7c 8d 3d 1d 6c ed 3b
       -0.04245003 -0.03166251 0.0690844 0.007245554
000020 10 03 9e bd 74 84 c2 b8 8f 66 34 3d 6c 32 a2 bd
       -0.07715428 -9.275312e-05 0.04404312 -0.079197735
000030 b1 6d 93 3a 77 31 80 bd c7 83 b7 bd c0 83 9c bc
       0.00112479 -0.06259435 -0.089606814 -0.019105792
000040 9e 36 41 bd 5c b2 96 3c e0 f6 89 bd 34 ef 91 3d
       -0.047171228 0.018395595 -0.06736541 0.071257025
000050 30 1d 53 bc 55 1b 7d bd 79 4c 7e bd 65 e1 84 bd
       -0.012885377 -0.061793644 -0.06208465 -0.06488303
000060 24 5a 5e 3c 37 3c fc bd c0 3f ca bd fb 49 9a 3c
       0.013571296 -0.123161726 -0.098754406 0.018834105
000070 3d 75 b3 3c 8d 7f 5a bc 9b 67 c6 bd 08 d6 7e bd
       0.02190649 -0.013336075 -0.0968773 -0.062215835

conv2.3.weight f4 [32]
000000 e6 63 84 3f 1d a2 77 3f 96 42 84 3f 25 29 73 3f
       1.0342987 0.9673174 1.033282 0.94984657
000010 29 df 7e 3f 4b a4 78 3f 66 a8 73 3f d4 3d 82 3f
       0.99559265 0.9712569 0.9517883 1.0175118
000020 1a 34 7e 3f 09 9c 80 3f 14 6f 80 3f 5c b9 73 3f
       0.9929825 1.0047618 1.0033898 0.9520471
000030 7e ff 82 3f 99 ec 82 3f ac 3d 7f 3f 6e 9a 82 3f
       1.023422 1.0228454 0.9970348 1.0203378
000040 ec c5 6f 3f 7c 4c 6d 3f 9c d6 81 3f 1b 00 7b 3f
       0.9366138 0.9269483 1.0143619 0.98047036
000050 4e b1 7b 3f 49 15 78 3f 04 79 83 3f 65 5e 85 3f
       0.9831742 0.9690748 1.0271306 1.0419432
000060 f5 47 82 3f ef fe 83 3f fa 41 81 3f 86 32 73 3f
       1.017821 1.0312175 1.009826 0.9499897
000070 75 a6 76 3f 10 60 73 3f 2a fb 7a 3f ed ef 7a 3f
       0.96347743 0.95068455 0.98039496 0.9802235

conv2.3.bias f4 [32]
000000 5d 39 e0 bb 11 49 0d 3e e5 d8 ad 3b c4 83 b2 bc
       -0.0068427757 0.13797404 0.005305397 -0.021791346
000010 96 a4 7a 3d 5c c1 99 bc bd 0f 04 3e 12 d0 4c 3c
       0.061192118 -0.018768959 0.12896629 0.01250078
000020 fe a9 7f 3a 1c 64 d6 3d 4a a5 97 bc 3b ab e8 3d
       0.0009752809 0.10468313 -0.018511433 0.113607846
000030 fb ee 2e bd e6 25 26 3d b3 b1 fe 3d 29 c7 48 bc
       -0.04270838 0.040563487 0.12436237 -0.012254515
000040 ab c3 50 3d 5c 70 81 3d 27 1c 88 bc 4c 0f 13 bc
       0.050967854 0.06320259 -0.016614987 -0.008975815
000050 2f 65 a0 3c 87 4d a4 3d 22 12 f4 3d c8 43 91 3c
       0.019579498 0.080226 0.11917521 0.017732516
000060 5c 2c a5 3d 5c 15 04 3e 6b a2 75 bc 23 6b 81 bd
       0.080651015 0.12898773 -0.014992337 -0.06319263
000070 5d 18 90 3d 61 3b bb 3d 7a d1 92 3d ed e4 a7 3d
       0.07035897 0.09142185 0.07168861 0.08197961

conv2.3.running_mean f4 [32]
000000 26 d2 86 3e f3 d1 1b 3f 34 4b 95 3e 56 3d 1f 3f
       0.26332206 0.6086723 0.29158938 0.62202966
000010 1d cc da 3e 03 eb 4e 3e f6 6f c5 3e 18 1b 77 3e
       0.4273385 0.20206837 0.38561982 0.24131429
000020 fc 09 b4 3e d3 a1 c6 3e a1 f3 8b 3e 78 4b 78 3e
       0.35163867 0.38795337 0.27334312 0.24247539
000030 1b 3f 8a 3e 0d b7 b1 3e 2d a2 c8 3e b4 3c 8a 3e
       0.2700127 0.3470997 0.3918623 0.26999438
000040 9d d2 c0 3e 27 ea e9 3e ef 87 3a 3e c8 74 f5 3e
       0.37660685 0.45686457 0.18215917 0.4794066
000050 19 1f 9d 3e 3e f6 ba 3e 15 8b e1 3e 02 0b 4f 3e
       0.30687788 0.36515993 0.44051424 0.20219043
000060 7c a9 c9 3e 2f 00 97 3e b4 0a 82 3e 48 a6 b0 3e
       0.3938712 0.29492328 0.2539879 0.34501863
000070 40 c7 ab 3e e7 d3 c0 3e 06 a4 b0 3e ec d5 68 3e
       0.33550453 0.3766167 0.3450014 0.22737855

conv2.3.running_var f4 [32]
000000 c0 e2 06 3e 77 8a 6c 3f d5 72 3b 3e 56 63 1e 3f
       0.13172436 0.9239878 0.18305524 0.61870325
000010 20 5b c2 3e 7c a5 bb 3d 50 f8 4e 3e ec 2d 51 3e
       0.37960148 0.09162423 0.20211911 0.20427674
000020 c3 2e 9e 3e 10 53 25 3e 39 36 1e 3e f9 4c d1 3d
       0.3089505 0.16144967 0.15450372 0.102197595
000030 ab 36 c8 3d e0 4a ba 3e 4b 8d 0f 3f ca 54 07 3e
       0.09776052 0.3638525 0.5607497 0.13215938
000040 e4 3a ef 3e e0 02 a1 3e e4 14 dc 3d 5a 7f be 3e
       0.46724617 0.31447506 0.10746172 0.37206537
000050 0d 33 41 3e 14 be b6 3e ee 21 dd 3e d4 1c ed 3d
       0.1886713 0.35691893 0.4318995 0.11577764
000060 ba 67 ac 3e f2 5c fd 3d 19 88 15 3e e2 78 27 3e
       0.33672887 0.123712435 0.14602698 0.16354707
000070 26 3e 93 3e 7f ec c0 3e a0 97 8c 3e 23 9f 51 3e
       0.28758353 0.37680432 0.2745943 0.20470862

conv3.0.weight f4 [64, 32, 3, 3]
000000 08 8e c8 bb 25 b0 90 bb 0a a3 a6 bc 2d e9 92 bc
       -0.006120447 -0.0044155293 -0.020341415 -0.017933453
000010 a7 de bb bb 45 04 d9 bc c6 07 47 bd dc 33 fe 3c
       -0.0057333293 -0.026491294 -0.048591398 0.031030588
000020 d0 fb ac bd 11 6d 57 bd 13 25 0e 3d 89 10 52 bc
       -0.08446467 -0.05259425 0.034703325 -0.012821325
000030 7f 41 a0 bc ac 58 5e bd de 72 e2 bc d5 b8 2d bc
       -0.019562481 -0.054283783 -0.027642664 -0.010603149
000040 a9 e9 b7 bc 59 0b 4c 3d c8 cc 05 bd 44 8c da bc
       -0.022450285 0.04981551 -0.032665998 -0.026678212
000050 46 d0 c1 bd 6b 5f 73 3b 29 56 11 bc 38 b7 a4 bc
       -0.09463553 0.003713573 -0.00887064 -0.020106897
000060 28 9e b3 bd 5b 3e 20 3b 67 93 07 bd ce 49 d2 3c
       -0.087704 0.002445123 -0.03309956 0.025669958
000070 b5 fa 54 bd 37 6a 42 3d 1a d3 b1 bc 8e a6 52 bd
       -0.051996905 0.047464576 -0.021707106 -0.05142837
000080 c1 c3 af bc bb ad 1e bd bf 6e b6 bc 8e 53 62 bd
       -0.021455647 -0.0387399 -0.022269605 -0.055255465
000090 24 00 b0 bd 70 52 a0 bd 1d 62 2a bd 9e 19 02 bd
       -0.08593777 -0.07828224 -0.041597474 -0.03176271
0000a0 b1 21 a1 bd 71 75 77 bd c3 83 0e bd 0b 33 43 bc
       -0.07867754 -0.060414735 -0.034793627 -0.011914025
0000b0 42 62 d9 bc 1b 16 a8 bc bf 12 94 bb c5 89 40 bc
       -0.02653611 -0.020518353 -0.0045188363 -0.011751597
0000c0 6d d3 43 3d 51 f9 11 3d f2 ce 97 3c f7 66 1d bc
       0.047809053 0.035638157 0.018531296 -0.009607068
0000d0 05 10 24 3d 67 d8 f6 3c fb 8b 7f 3c e1 49 94 bd
       0.04005434 0.030132486 0.015597339 -0.07240654
0000e0 11 da 5a bc 5b bf e3 3c ab 05 74 bd 5a a1 20 bd
       -0.013357655 0.027801206 -0.059575718 -0.039216377
0000f0 19 a1 2e bd 26 43 25 bc c3 b8 6c bd 85 fe 3b bd
       -0.042634103 -0.01008681 -0.05779339 -0.045897026
000100 43 4f 3c bd 72 c1 3a bd 23 59 67 bd 89 0f 1d 3c
       -0.045974027 -0.04559464 -0.05648149 0.009586223
000110 ab fa 63 bd 35 1f 07 bd b0 5a 44 3d af 66 00 3d
       -0.055658977 -0.032988746 0.04793805 0.031347927
000120 12 b0 93 bc 10 7c 31 3d 4e 20 a8 3c 50 1a 16 3d
       -0.018028293 0.043331206 0.020523217 0.036646187
000130 0d 94 91 3b bc 36 c5 bc 7b e2 95 bd 02 9b c4 3c
       0.004442698 -0.024073951 -0.07318588 0.023999695
000140 12 cc 86 3b 4d ab 41 3c d6 7a 99 bb 2c a9 80 3c
       0.0041136825 0.011820626 -0.0046838326 0.015705667
000150 58 49 60 bc ca 14 37 3d bf 34 b4 3c bc ba 16 3c
       -0.0136893615 0.04469756 0.021997808 0.009199794
000160 ae c2 87 3c fa 2c 28 3d 7b c6 dc bc 02 e0 d1 bc
       0.016572323 0.041058518 -0.026950112 -0.02561951
000170 64 83 02 3d 50 5c 26 bc 56 39 e3 bc 6c 78 bd 3c
       0.031863585 -0.010153845 -0.0277373 0.02312871
000180 c1 b7 39 bd c1 12 ef ba ca a3 07 bc 61 24 6d bc
       -0.045341257 -0.0018239842 -0.008278796 -0.014474005
000190 f1 e0 2a 3c ac b7 0b 3d 3b 3c 34 bd 2f 79 ab bc
       0.010429607 0.03411071 -0.044002753 -0.020931808
0001a0 ba 00 91 bb d9 4e 40 bd b1 5e 51 bd 9b 0f 91 bc
       -0.0044251354 -0.046950195 -0.051115695 -0.017707637
0001b0 51 5a 91 bc cf d7 1e 3d 1c a5 08 3d a0 0c 26 bd
       -0.017743262 0.03878003 0.033360586 -0.040539384
0001c0 cf 40 1e 3d c2 2d c4 bb c2 b5 21 bd 32 ed a5 3c
       0.038636025 -0.0059869 -0.03947998 0.020254705
0001d0 43 5b 69 bc c9 6f 9b bd 3b 65 69 bd 6f 29 75 bd
       -0.01424295 -0.07589681 -0.056981307 -0.059853967
0001e0 e5 6c a2 bd e0 60 55 bd 40 0f a5 bc e4 3e 82 bd
       -0.07930926 -0.05209434 -0.020148873 -0.06359652
0001f0 3f cf c1 3c f6 c5 1d bc bf ef d6 bb e4 73 1f 3d
       0.023658393 -0.009629717 -0.0065593417 0.03892888
000200 12 60 01 3c ac ed 2b bd a0 01 81 bc 87 d9 2a 3b
       0.00789644 -0.04197471 -0.015747845 0.0026069598
000210 d3 18 b1 bb 40 8d e6 3c 94 c9 53 bc 04 c4 f5 bc
       -0.0054045706 0.028143525 -0.012926478 -0.030000694
000220 33 27 03 bd 05 49 3f 3c 58 e3 d3 bc 72 0e b5 bc
       -0.032019805 0.011675124 -0.025865242 -0.022101615
000230 62 03 21 bd 09 a5 6b bd 73 a5 fc 3b 0d 30 18 bd
       -0.039309867 -0.057530437 0.007710153 -0.0371552
000240 b7 02 7f 3d 9f f3 69 bb 14 64 fe bc bd 87 0a bd
       0.06225845 -0.0035698188 -0.03105358 -0.033820856
000250 de ef 98 3c f0 a7 f7 3b 2e 70 14 bd e4 35 2d 3d
       0.018669065 0.0075578615 -0.036239795 0.042287722
000260 b2 6b 15 3d 07 da 0b bc a8 36 c8 3c e7 1a e3 3c
       0.03647966 -0.0085358685 0.024440125 0.027722789
000270 5f c4 83 bc 1c 1f 22 3d 9a 04 72 bd 9c df f2 3b
       -0.016084848 0.03958045 -0.05908642 0.00741191
000280 00 29 38 3d 9b 3e 11 3d 1e 58 9b bc 32 d4 17 3d
       0.044960976 0.035460096 -0.018962916 0.0370676
000290 b1 ab 0e bd ba 7b 09 3d 07 06 b6 3c 4f e8 81 bd
       -0.034831706 0.03356526 0.022219671 -0.063431375
0002a0 9f 29 2a bd 33 86 2e bc 45 18 e1 3c 1b d4 71 bd
       -0.0415436 -0.010652113 0.027477393 -0.05904017
0002b0 20 9e 08 bd f1 40 05 3d 0c 69 39 bd d0 cb 0c bd
       -0.033353925 0.032532636 -0.045266196 -0.03437406
0002c0 ab c1 bb bc cd 30 35 b9 6f 3d 0e 3d 44 a2 09 bc
       -0.022919497 -0.00017279685 0.034726556 -0.008400504
0002d0 25 37 0a 3d 6e 23 3e bc c2 e8 3e bd a0 f9 0c bd
       0.033743996 -0.011605127 -0.046608694 -0.03441775
0002e0 3c ff 87 bb 4f b6 3e bd 68 f8 ca bc d5 d9 c3 3c
       -0.0041502994 -0.04656058 -0.024776652 0.023907581
0002f0 3d 10 d4 3b 64 a5 0d bd 59 b0 57 bd c4 fd a4 3c
       0.0064716623 -0.034581557 -0.052658413 0.020140536
000300 f1 73 0f bb d0 77 70 bc 95 5f 7c bd b4 57 30 3c
       -0.0021889175 -0.014677003 -0.06161459 0.010763098
000310 93 20 49 3b 91 95 5d bd 5b 6d ad 3b 46 a9 86 bc
       0.0030689582 -0.054097716 0.005292577 -0.016438138
000320 d2 e6 12 3d 1f 79 23 bd 72 af 6d 3d 6f 28 f5 3c
       0.03586466 -0.039910432 0.058028646 0.029926507
000330 2d 6d 21 bd 09 c5 3e bd 99 d4 4e bc 95 71 3c ba
       -0.03941076 -0.046574626 -0.012623929 -0.0007188556
000340 ec 25 63 bd c3 30 af bd c9 08 1e bd 69 c9 ea bc
       -0.055456087 -0.085542224 -0.038582597 -0.028660493
000350 81 84 50 bc f9 a2 12 bd 9f 4c 25 bd a0 a5 b4 bd
       -0.012726904 -0.035799954 -0.040356275 -0.08820653
000360 d2 84 21 bd 88 c2 58 bd d2 51 b2 bd db ff 80 3a
       -0.039433308 -0.052919894 -0.08707012 0.0009841876
000370 bd e0 4b bc e0 fb 78 bd 51 7f 59 bd 07 5a 73 bd
       -0.0124437185 -0.06078708 -0.053099934 -0.05941203
000380 20 e5 6a bd 79 2e 42 3c 6c dd 64 3d 67 b4 b2 bc
       -0.057347417 0.0118519 0.055875227 -0.021814538
000390 49 4c eb bc f8 5f a1 3c 7f f8 10 bb ce 12 5e bd
       -0.028722899 0.019699082 -0.0022120771 -0.054217152
0003a0 2a 46 0c 3d 2f 0f 50 bd 5b d5 c7 bc 18 0b 3a 3b
       0.0342466 -0.05079573 -0.024393728 0.002838796
0003b0 86 c8 a9 bb 7b a6 40 3c 43 2e d2 bb ae 45 4e 3c
       -0.005181375 0.011758442 -0.0064142062 0.012589855
0003c0 88 1f 7c bd e8 cb 70 bd 27 75 8e 3c f0 7b 8b bc
       -0.061553508 -0.05878821 0.017389847 -0.017026871
0003d0 72 cf 29 bd f2 bb 5b bd 73 3b 35 3c 06 8f 1a bd
       -0.0414576 -0.053646035 0.011061537 -0.037734054
0003e0 b6 8b 6f bd a1 b5 34 bd 41 fd 92 3b bb bb d2 3c
       -0.058482848 -0.044118527 0.0044857566 0.025724282
0003f0 bd a4 6a ba 26 26 c5 bc a3 63 11 bd 41 ed 63 bd
       -0.00089509395 -0.024066042 -0.03549541 -0.055646185

conv3.0.bias f4 [64]
000000 2d f2 ad bd 5d f9 9d 3c 47 e7 18 bd ab 78 96 bd
       -0.08493457 0.019283945 -0.03732994 -0.07347234
000010 ad 2d be 3c 38 63 e7 3c 91 da 54 bd eb 02 60 bc
       0.02321514 0.028245553 -0.051966254 -0.013672571
000020 d0 aa 78 3c 7d 84 38 bd 53 88 7b 3d 88 1b 58 bd
       0.015177444 -0.045048226 0.061409306 -0.05276063
000030 26 31 57 3b f7 71 0b 3d 92 0d 2e bd d4 b9 ac 3c
       0.0032835691 0.034044232 -0.04249341 0.021084704
000040 8e 22 12 bd bb fc eb bc 37 81 45 bc c5 bd 9d bd
       -0.035677485 -0.028807035 -0.012054733 -0.07702211
000050 68 2b 11 bd 97 17 7d bc a2 38 1e bd c1 4d 35 bd
       -0.035441786 -0.015447519 -0.038628228 -0.044263605
000060 41 88 17 3d e7 01 ff 3b c7 bc 5f bd c7 12 0d bd
       0.036995176 0.007782209 -0.05462339 -0.034441736
000070 16 2b d3 bd 68 8b d5 bc 5d af aa bd 0c 97 37 bd
       -0.10310952 -0.02606745 -0.08334229 -0.044821784
000080 d1 83 04 bd 60 33 71 bd 2b 12 47 bc c1 2d 68 bd
       -0.032352272 -0.058886886 -0.012150328 -0.05668426
000090 d8 4b c2 3b 37 f9 a7 3c 5b 05 c8 bd 18 34 50 bd
       0.0059294514 0.020504577 -0.097666465 -0.05083093
0000a0 da 2d 51 bd 4c 62 51 3c bb 34 a9 bc 0d 10 a5 bb
       -0.051069118 0.012779783 -0.020655027 -0.005037314
0000b0 b4 72 fe 3c 03 85 98 bc e7 eb 97 bc ed 25 9a 3c
       0.031060554 -0.018618112 -0.018545104 0.018816913
0000c0 01 a9 70 3c 87 53 87 bd 07 74 a3 bc bf 97 80 bd
       0.014688731 -0.066077285 -0.019952787 -0.06278943
0000d0 09 27 44 bd a7 a6 a9 bc 45 b2 2f 3b be f9 73 bd
       -0.04788879 -0.020709349 0.0026809138 -0.059564345
0000e0 06 de 06 3d 1f d4 b2 bc ae 47 14 3d 55 16 39 3d
       0.03292658 -0.021829663 0.03620117 0.045187313
0000f0 c7 d1 f3 3c 6a 13 10 bd 38 e2 da bc 49 39 88 bd
       0.029763116 -0.035174765 -0.026719198 -0.06651551

conv3.4.weight f4 [64]
000000 05 4a 85 3f 07 f6 85 3f 22 5f 8b 3f b1 40 8f 3f
       1.0413214 1.0465707 1.0888407 1.1191617
000010 8b 8e 8e 3f f3 7c 8e 3f 82 e1 91 3f 14 70 83 3f
       1.1137251 1.1131881 1.1396945 1.0268579
000020 32 65 7a 3f 59 bf 8c 3f 9f 36 8f 3f 66 32 80 3f
       0.9781066 1.0995895 1.1188544 1.001538
000030 5d 5e 8d 3f bc 61 85 3f 81 cd 84 3f 4f 86 8d 3f
       1.1044422 1.0420451 1.0375215 1.1056613
000040 6b 56 83 3f d9 72 87 3f c9 06 8f 3f 2d 39 87 3f
       1.0260748 1.0581924 1.1173946 1.0564324
000050 19 94 83 3f d8 ff 92 3f 7b ff 8d 3f 68 23 8c 3f
       1.0279571 1.1484327 1.1093591 1.0948305
000060 b3 fe 82 3f 15 44 85 3f 11 5a 82 3f 7a 9b 8f 3f
       1.0233978 1.0411402 1.0183736 1.1219323
000070 b1 fe 83 3f 5e a6 88 3f b6 0a 84 3f bc 80 81 3f
       1.0312101 1.0675771 1.0315769 1.0117412
000080 75 33 87 3f 8d 01 87 3f 73 5f 83 3f b8 db 81 3f
       1.0562578 1.0547348 1.0263504 1.0145178
000090 43 b9 79 3f e1 70 8f 3f fd a0 8c 3f 6f 92 8d 3f
       0.9754831 1.1206323 1.098663 1.1060313
0000a0 9e f1 83 3f 4c 9d 7e 3f 0f 21 82 3f 36 9a 89 3f
       1.0308111 0.99458766 1.0166339 1.0750186
0000b0 ea 0e 88 3f ce f5 90 3f a5 52 85 3f b0 48 80 3f
       1.0629551 1.1325014 1.0415846 1.0022182
0000c0 d1 98 8b 3f a8 a8 8f 3f 49 9d 89 3f 28 bc 8a 3f
       1.0906011 1.1223345 1.0751125 1.0838671
0000d0 0b 6e 80 3f 55 1d 8a 3f c7 a2 90 3f 46 e7 85 3f
       1.0033582 1.0790201 1.1299676 1.0461204
0000e0 b0 37 85 3f 17 64 8e 3f e1 be 8f 3f 50 0e 78 3f
       1.040762 1.1124295 1.1230127 0.9689684
0000f0 cb 5e 8d 3f 6d ce 8d 3f 0b 94 84 3f 3b 80 8d 3f
       1.1044554 1.1078621 1.0357679 1.1054758

conv3.4.bias f4 [64]
000000 b3 75 1a 3c 50 69 9a 3c 03 64 48 bc 5a 6f e8 bc
       0.009427476 0.018849045 -0.012230876 -0.028373409
000010 33 45 90 bc a7 17 76 bc f5 84 64 bc e5 00 a6 3c
       -0.017611122 -0.015020288 -0.013947715 0.020264098
000020 5c 66 f5 3b 5f 01 d6 ba 50 08 ec bb 89 c7 03 3c
       0.007489009 -0.0016327313 -0.0072031394 0.008043178
000030 d6 94 16 bd 89 ed ef 3b c7 f1 f8 3c c3 21 ce bc
       -0.036763035 0.0073220176 0.030388726 -0.025162583
000040 b1 5e bb 3c ea fd 99 3c 0c e3 f3 bb 9f 24 0b bd
       0.0228723 0.018797833 -0.0074428376 -0.03397047
000050 d7 83 02 3c e7 55 c8 bc 37 1c bc bb 97 31 ef bc
       0.007966003 -0.024455024 -0.005740668 -0.029198451
000060 22 e8 45 bb d9 c1 75 3c 79 ee db 3b 1f cd 20 bd
       -0.0030198176 0.01499983 0.0067117778 -0.03925812
000070 8a 3a 96 bb 6b 4b bb bc 79 14 9c 3c 24 49 6b 3b
       -0.004584615 -0.02286311 0.01905273 0.003590175
000080 3e 8d a4 bc b2 c2 9f 3c 55 94 de 3b 7f a6 d2 3c
       -0.02008688 0.019502018 0.006792585 0.025714157
000090 a9 aa a4 bc cc d3 8b bc e0 be be bc be 09 f2 bc
       -0.020100908 -0.017068766 -0.023284376 -0.029545661
0000a0 e6 25 15 3c 02 55 21 3d fb 76 32 3d c0 b5 a5 bc
       0.009103274 0.03938771 0.0435705 -0.020228267
0000b0 20 57 ce 3c 42 82 d4 bc a7 bf bb bc 01 2a 7a 3c
       0.025188029 -0.025941018 -0.022918535 0.015268804
0000c0 8f 61 2d bd 19 32 2a bc 27 a6 58 3c 50 76 08 bc
       -0.042329367 -0.010387921 0.013223208 -0.008328989
0000d0 49 0a 38 3c 92 3b b7 bc b3 05 b4 bc 67 ae 24 3c
       0.011232921 -0.022367273 -0.021975374 0.010051346
0000e0 21 69 e5 3c be 8e d9 bb f0 f1 6f bc 35 bc b1 3c
       0.028004231 -0.0066393306 -0.014645085 0.02169619
0000f0 bc dd 25 bc 59 54 0a bc 8e 47 0a 3d 0d 27 cf bb
       -0.010123666 -0.008442962 0.033759646 -0.006321794

conv3.4.running_mean f4 [64]
000000 b6 b3 28 3f 1c b8 3a 3f 75 30 09 3f 19 8c e1 3e
       0.6589922 0.7293718 0.53589565 0.440522
000010 24 a8 19 3f 02 01 03 3f d1 56 fd 3e 56 0a 2d 3f
       0.6002219 0.5117341 0.49480298 0.67593896
000020 a6 05 20 3f c2 ff 12 3f 5c bf 30 3f d7 c3 38 3f
       0.6250862 0.57421505 0.6904199 0.7217383
000030 eb 8e 0e 3f 08 75 39 3f 5c 17 34 3f 91 75 12 3f
       0.55686826 0.724442 0.70348144 0.5721064
000040 dc bd 36 3f 67 75 22 3f eb b2 fe 3e ae 91 2a 3f
       0.7138345 0.6346039 0.4974588 0.6662854
000050 58 c3 11 3f bd 6d 05 3f a8 ee 0e 3f 51 fa 01 3f
       0.56938696 0.5212057 0.5583291 0.5077258
000060 14 c5 48 3f 17 d6 31 3f 7e 67 17 3f 03 08 06 3f
       0.7842572 0.694673 0.5914229 0.52355975
000070 b5 4a 1a 3f 5f fe 0a 3f 7d cf 32 3f 84 ab 49 3f
       0.60270244 0.5429439 0.6984785 0.7877734
000080 53 09 20 3f 94 ff 14 3f 4a 3b 08 3f d8 f2 2e 3f
       0.6251423 0.5820248 0.5321547 0.683393
000090 1a df 66 3f 55 b3 15 3f c3 89 dd 3e 84 23 fb 3e
       0.90184176 0.58476764 0.43269166 0.49050534
0000a0 a4 4c 2a 3f 79 7f 3d 3f 03 56 0d 3f 9c 39 ec 3e
       0.66523194 0.7402263 0.5520937 0.46137702
0000b0 6e 20 33 3f d7 eb fc 3e 10 d2 f7 3e 74 26 3f 3f
       0.6997136 0.49398682 0.48402452 0.7466805
0000c0 a1 72 02 3f 93 7a fa 3e 2e d3 2d 3f 72 77 0c 3f
       0.5095616 0.48921642 0.6790036 0.5486976
0000d0 3b 64 3b 3f 38 c2 16 3f 23 e3 0a 3f a7 f4 22 3f
       0.73199815 0.58890104 0.54252833 0.6365456
0000e0 90 5d 48 3f 26 65 16 3f 46 51 0e 3f c2 0f 44 3f
       0.78267765 0.5874809 0.55592763 0.76586545
0000f0 3e c6 1a 3f ad b0 11 3f 16 41 2a 3f 2d af 0a 3f
       0.60458744 0.5691021 0.66505563 0.5417355

conv3.4.running_var f4 [64]
000000 8c 37 be 3f 59 18 d7 3f 76 69 1d 40 a4 75 ef 3f
       1.4860702 1.6804305 2.4595618 1.8707776
000010 51 c6 1c 40 a8 19 d5 3f e8 7e 0e 40 31 cd c5 3f
       2.4496043 1.6648455 2.2264957 1.5453244
000020 e0 fc 99 3f 5d a0 2c 40 f6 19 66 40 93 e1 01 40
       1.2030296 2.6972878 3.5953345 2.029393
000030 de 3f 0e 40 e1 1e bd 3f ca 17 af 3f d6 6e 2b 40
       2.2226481 1.4775048 1.3679135 2.67864
000040 7b f4 da 3f 16 36 9b 3f cb 32 14 40 a1 51 85 40
       1.710586 1.2125881 2.3156002 4.1662145
000050 23 15 9b 3f 66 0e 17 40 ce ba 44 40 5c 46 1d 40
       1.2115825 2.3602538 3.0739017 2.4574194
000060 20 9d ce 3f dc 71 c6 3f 86 d0 90 3f 83 aa 3d 40
       1.6141701 1.5503497 1.1313636 2.9635322
000070 ba 2a c9 3f 40 9e 25 40 27 d3 e1 3f 62 44 ef 3f
       1.5716164 2.5877838 1.7642564 1.8692744
000080 37 62 73 40 a6 3a 8a 3f ba 6c 9c 3f a4 62 b7 3f
       3.8028696 1.0799148 1.2220681 1.4326978
000090 d8 c2 b7 40 2d 8d 24 40 27 f6 d8 3f ee 04 18 40
       5.7425346 2.5711167 1.695012 2.375301
0000a0 89 11 a6 3f c3 2d cc 3f ca da 80 3f 13 ea 0a 40
       1.2974101 1.5951465 1.0066769 2.1705368
0000b0 2e bc b9 3f 79 6d 17 40 ec 81 0f 40 02 ea e5 3f
       1.4510553 2.3660567 2.2423048 1.7962039
0000c0 f7 f7 14 40 c7 fb 11 40 73 5e b3 3f f0 52 45 40
       2.3276346 2.2809923 1.4013199 3.083187
0000d0 d5 16 c5 3f e4 57 4e 40 d7 fb 51 40 99 b1 ac 3f
       1.5397593 3.2241144 3.280996 1.3491699
0000e0 57 a7 d3 3f 1c 28 3e 40 0d e9 0b 40 96 40 4e 40
       1.6535443 2.971198 2.1860993 3.222692
0000f0 cf 84 49 40 22 6f 42 40 2e ee be 3f 8f 5b 4e 40
       3.148731 3.038033 1.4916437 3.2243383

fc.0.weight f4 [32, 64]
000000 09 7e e7 3d cc 76 2f 3e 44 4c 06 3d 08 41 09 bd
       0.11303336 0.17135161 0.032787576 -0.033509284
000010 4e 58 4f be 11 2a 8c 3c 5d c4 72 bd e4 5f 10 bc
       -0.2024853 0.017109903 -0.059269298 -0.008811925
000020 9e a2 91 3d 3f 0a 61 bd b7 97 0f be 9b 19 d1 bd
       0.07111095 -0.054941412 -0.14022718 -0.10209962
000030 05 f6 e8 bd 07 16 0a 3d fe 4c cd 3d 65 c5 27 be
       -0.113750495 0.033712413 0.10024451 -0.16383894
000040 ae c8 c4 3c 42 20 58 3d 39 cb 04 be 18 2c b8 bd
       0.024021473 0.05276514 -0.12968148 -0.08992785
000050 ea 61 8f bd ac 9f 89 bc 10 00 f3 bc 61 b9 4f be
       -0.070010975 -0.01679977 -0.029663116 -0.2028556
000060 48 81 91 3d cc 2d c8 3b c5 25 74 bd fc 45 b3 bd
       0.071047366 0.006108975 -0.059606332 -0.08753583
000070 b6 30 c3 3d 05 a8 20 bd 21 64 82 3b 79 46 04 3e
       0.09530775 -0.039222736 0.0039792215 0.12917508
000080 67 17 0a 3d e8 4e 29 3d bf 0f 96 3d 86 6f d9 3d
       0.033713724 0.041335016 0.07327222 0.106169745
000090 a7 0b 9d 3d e6 cb 1c be 55 d4 d7 bb c0 d6 26 be
       0.07668238 -0.15312156 -0.0065865912 -0.16292858
0000a0 ab ed 81 3d 92 9c 53 3d 84 c3 39 bc 41 5f b2 bd
       0.0634416 0.05166299 -0.011338118 -0.087095745
0000b0 77 39 0a 3e eb 16 40 be 15 3c c9 bd a7 d6 18 bd
       0.13498484 -0.18758743 -0.09825913 -0.037314083
0000c0 f3 61 f3 3c 98 58 d9 bd 13 f1 8f 3c 27 79 fd bd
       0.029709792 -0.10612601 0.017571008 -0.123766236
0000d0 88 35 90 3d ad 88 f2 bd 87 d7 2c bd 03 b2 04 3e
       0.0704146 -0.11842475 -0.04219773 0.12958531
0000e0 3e ec 95 3d 37 54 aa 3b df 20 30 be c7 04 0b bd
       0.0732045 0.0051980275 -0.1720004 -0.033940103
0000f0 79 60 84 bd 07 19 e9 37 f9 37 8b 3c 7c 66 14 be
       -0.06463713 2.7787419e-05 0.016994463 -0.1449222
000100 a4 4d 3c bd 82 85 fa bb e5 e3 8a bd ba 41 22 be
       -0.04597248 -0.00764531 -0.06781749 -0.15845385
000110 6a b8 1e bd 2a 85 64 3c eb c1 f5 bd f6 8c 98 3d
       -0.03875009 0.013947764 -0.119998775 0.07448761
000120 ff 59 aa bd 7e 17 ff bd a6 e7 49 3d df 2c 91 bd
       -0.08317947 -0.12455653 0.049293183 -0.070886366
000130 9c 01 ac bd 9e e8 da 3d f2 5d 1d 3e 5f 48 b5 bd
       -0.083987445 0.106888995 0.15367869 -0.08851694
000140 9a ad 01 3e cb 45 92 3d c8 7a ab bd 6d ff ab 3c
       0.1266388 0.07142218 -0.08373028 0.02099582
000150 d5 ae 38 bc f9 08 33 be 64 ec 32 be 48 3d 25 be
       -0.011272152 -0.17483892 -0.17472988 -0.16136658
000160 5b fd a2 bc 82 a0 f7 3d 27 d1 8f 3c 2a 9b 08 be
       -0.0198962 0.12091161 0.017555786 -0.1334044
000170 e5 91 df 3d 04 2e 0b be a2 74 f9 3c fc a4 4a bd
       0.10916499 -0.13591772 0.030451123 -0.049473748
000180 89 f7 19 bd c1 78 1f 3e ab 9c 01 3e ea d0 0c 3e
       -0.037589584 0.15573408 0.1265742 0.1375157
000190 72 7a 30 3d 29 54 96 bd 07 2d d0 bd 31 01 28 be
       0.043085523 -0.07340271 -0.10164838 -0.16406704
0001a0 ce 38 7a bd d2 62 1c 3d 5e e7 d4 3d f3 a6 1b 3d
       -0.06108933 0.03818018 0.10395692 0.038001012
0001b0 b5 30 73 bc 2a 61 c2 bd f0 44 25 3d 21 f8 e3 3d
       -0.014843156 -0.09491189 0.040348947 0.11131311
0001c0 8b 29 2b be 6e 36 10 bd f8 78 4a bd 9a fd a4 bc
       -0.16715066 -0.03520816 -0.04943177 -0.020140458
0001d0 05 ea cb 3d 29 1e 86 bd 40 89 1d bd f9 db 23 3e
       0.09956745 -0.06548721 -0.03846097 0.16001882
0001e0 af 52 12 3e 2b 13 87 bd 72 1a a4 bd c2 58 1d 3a
       0.14289354 -0.06595453 -0.080128565 0.00060023007
0001f0 90 25 03 be 93 0c 6c bc 94 ff 15 3d 7a d6 9e bd
       -0.12807298 -0.014407295 0.03662069 -0.07755752
000200 42 5f d9 bb 08 df 66 3d da 1e e0 bd d1 56 e9 bd
       -0.00663367 0.056365043 -0.109433845 -0.11393512
000210 5c f7 1c be 96 9b e8 bc 67 68 31 be 93 b5 2d 3d
       -0.15328735 -0.028394502 -0.17324983 0.04240949
000220 d3 89 ac 3d cb c0 cf bb 13 f7 c2 bd ed b9 b4 3d
       0.084247254 -0.0063401214 -0.09519782 0.08824525
000230 af ac f9 bd 0e 0c be 3d 53 8d 9f 3d b9 93 f4 bd
       -0.1219114 0.09279643 0.07790627 -0.11942238
000240 91 ed 38 3d 05 c6 b1 3d e4 01 e8 3c 2e 68 12 be
       0.045148436 0.08680347 0.028321214 -0.14297554
000250 e5 1e 09 3d 58 10 06 be 01 83 21 be 42 d8 0c be
       0.03347673 -0.13092172 -0.1577263 -0.13754371
000260 24 53 58 bd 4e 79 1e bc 88 9c f0 3d 58 34 d8 bd
       -0.052813664 -0.009672476 0.11748606 -0.10556859
000270 d8 60 b7 3d c3 09 80 3c c2 4a 13 3e d7 cd 74 bd
       0.08954018 0.015629655 0.14383987 -0.059766617
000280 0a 4a 8f bd db 91 7f 3d 08 f3 5b bd 85 a6 a0 3d
       -0.06996544 0.062394958 -0.05369857 0.07844261
000290 9c 67 a1 bd a1 bf 02 be 7a c7 f3 bc ac 22 35 be
       -0.0788109 -0.12768413 -0.029758204 -0.17689008
0002a0 20 5f 17 3d 02 57 44 bd d4 d1 db 3d 52 67 86 bd
       0.036955953 -0.04793454 0.10733381 -0.065626755
0002b0 f0 a0 ce 3c 4e cb 32 be 7a 0e c3 3c a3 f1 b5 bd
       0.025223225 -0.17460367 0.023810614 -0.08883979
0002c0 bc 76 03 3d 87 68 59 3c ff fb d0 3d 90 26 cd bd
       0.032095656 0.01326955 0.102043144 -0.10017121
0002d0 7d 17 f8 3d bc 96 fe bd 89 38 8f bd f2 08 09 3e
       0.12113855 -0.12431094 -0.06993205 0.13382319
0002e0 28 9f 90 3d 37 80 36 be 22 93 53 be 5e b4 9b 3d
       0.07061607 -0.17822348 -0.20661595 0.07602762
0002f0 97 d7 00 be f0 63 ad bd df d9 39 3c e9 f8 09 be
       -0.12582241 -0.08466327 0.011343448 -0.13473858
000300 fb 70 fa bd 18 8a dd bd cb dc 69 3c d1 92 89 3d
       -0.122285806 -0.10817355 0.014273833 0.06717456
000310 fd 15 31 3e 99 e8 1e 3e 8e dc 08 3e 8b ec c1 bd
       0.17293544 0.15518416 0.13365385 -0.09468945
000320 df 5e 04 3d 7d 19 20 3e c5 14 80 3d 5b 97 e4 bd
       0.03231704 0.15634723 0.062539615 -0.11161681
000330 47 6e 0a 3e ad aa c5 bd 38 da 18 be b3 6d d2 3d
       0.1351863 -0.096516944 -0.14926994 0.1027483
000340 98 59 f0 bd d8 90 a0 3b be 74 29 3c bf 1f d7 3d
       -0.11735839 0.004900079 0.010342775 0.10504102
000350 54 03 b6 bd cc 39 43 3e dc a8 7c 3d 0c 2e b0 3d
       -0.088873535 0.19065017 0.061684474 0.08602533
000360 2a 7a 3d 3d e2 15 7c 3d 76 ec 68 bc bd 37 ed bc
       0.046259083 0.061544307 -0.014216533 -0.028957242
000370 b4 0a 3e 3d b6 e3 2a 3e 23 bc 51 bb ba cf f9 bd
       0.046396926 0.16688427 -0.0032003007 -0.12197824
000380 1a 2d f7 3d 70 8d 41 bd c2 63 1c be 6b 5d 90 bd
       0.12069149 -0.047254026 -0.1527243 -0.07049068
000390 72 13 b7 bd ed 98 60 3d 5e 44 eb 3c a7 d8 02 3d
       -0.08939256 0.05483334 0.028719123 0.031944897
0003a0 4c fa 45 3d 5b 80 0c be 75 31 29 3c 83 2b fa 3d
       0.048334405 -0.13720839 0.010326733 0.122153305
0003b0 7c 87 a3 bd b0 35 32 3e 84 46 ed bc ac 34 fd bc
       -0.07984826 0.17403293 -0.028964289 -0.030908905
0003c0 34 77 72 bc 67 e1 d8 3c 3d 80 8d bd 10 c5 9a 3b
       -0.014798928 0.026474668 -0.06909225 0.0047231987
0003d0 f0 a1 ae bc d9 bb 28 3e 8d 42 1b 3e f4 83 d6 bd
       -0.021317452 0.16477908 0.15162106 -0.10474387
0003e0 29 88 04 be 8b 65 61 3d b1 08 d8 3a 77 52 0a bd
       -0.12942566 0.05502848 0.0016482082 -0.03377005
0003f0 43 d8 3d bc cb 62 39 3e c3 e2 a8 bd 5e 17 42 3d
       -0.011587205 0.18104093 -0.08246376 0.047385566

fc.0.bias f4 [32]
000000 80 18 51 bd e9 61 9e bd 37 9e 90 bd ca b1 57 3d
       -0.051048756 -0.07733519 -0.07061427 0.052659787
000010 ba 93 3c bd 16 49 d2 bd e6 f4 89 3d 82 6e 31 bd
       -0.04603932 -0.10267846 0.06736164 -0.04331828
000020 3a 0a ab bd 5c cf 3b bd c3 4c 98 bd fd 7e aa bc
       -0.0835156 -0.04585205 -0.07436516 -0.020812506
000030 5f 2f bc 3d 9d a3 a4 bc 7e c2 4e bd f6 41 4a 3d
       0.09188723 -0.020097548 -0.05047845 0.04937931
000040 17 c9 92 3d 1c 20 d8 bd f1 18 f4 bc 45 03 41 3c
       0.07167261 -0.105529994 -0.02979705 0.011780565
000050 90 28 ef bc 67 87 c7 3d 09 39 6f 3d c7 cc f5 bd
       -0.029194146 0.09742623 0.058404002 -0.12001949
000060 15 1a 27 3c 14 86 e8 3d 16 d7 c2 3d ee 21 c6 3d
       0.01019909 0.113536984 0.09513681 0.0967444
000070 74 65 dc 3d af 3a b4 3d cb 36 7e bc 74 2b 7d 3c
       0.10761538 0.088002555 -0.015515993 0.015452255

fc.3.weight f4 [1, 32]
000000 29 e8 7a bd 1d 08 ea bd f8 15 12 be f6 ba 8a 3e
       -0.06125656 -0.11427329 -0.14266193 0.27095765
000010 36 0a 64 3e 4d ad cf bd df ff 3d 3d ec c9 79 3e
       0.2226952 -0.101404764 0.046386596 0.24393433
000020 cf fe c8 bd 0a 84 0a be 7a 95 6f 3e 6c 26 b4 bd
       -0.09814226 -0.13526931 0.23396865 -0.08796391
000030 29 28 3c be 0e 4a c9 bc 3e 28 36 bd 9a c1 6a bd
       -0.18374695 -0.024571445 -0.04447197 -0.05731354
000040 85 10 a2 bd 42 ce 27 3e dd 75 41 be 02 ba cb bd
       -0.07913307 0.16387275 -0.18892618 -0.099475875
000050 d8 7f fb 3d 21 5a 61 3e 10 b9 51 3e d1 50 84 3e
       0.12280244 0.22007038 0.20480752 0.25842908
000060 03 e9 12 be f3 31 2d be 57 e1 fd 3d df de 03 be
       -0.143467 -0.16913585 0.12396496 -0.12877987
000070 c3 1e 4a 3e e2 90 99 bd 0e 7d 25 be 66 fb ed bd
       0.19738297 -0.07498337 -0.16160986 -0.11620216
